summaries/vanilla_ResNet3_num_blocks1x1x1_num_channels16_conv5/ckpt.pth (torch, 859005 bytes, 47 tensors)

module.conv1.weight f4 [16, 3, 3, 3]
-7.16012e-08 -4.358377e-08 -4.3395715e-08 -7.080582e-08 -4.6598338e-08 -4.500881e-08 -5.4548472e-08 -2.4794472e-08
-2.7187419e-08 -5.3544287e-08 -3.217508e-08 -3.922204e-08 -3.9634973e-08 -2.5165257e-08 -3.3559743e-08 -2.6089607e-08
-6.7834622e-09 -1.9158241e-08 4.126431e-09 4.0045364e-08 2.6780206e-08 2.7181933e-08 5.1579807e-08 3.7372857e-08
2.7147788e-08 5.8347275e-08 3.8125687e-08 -0.14442925 0.03589152 0.19008073 -0.08796897 0.053937227
0.16995063 -0.056224234 0.0007804634 0.09202377 -0.10027778 -0.061307654 -0.041529924 -0.03661615
-0.03827872 -0.0669837 -0.041748755 -0.07514164 -0.077067085 0.07322021 0.04377615 -0.037995774
0.17673434 0.10976639 -0.04513098 0.14509936 0.0764508 -0.023024995 0.37466273 0.5439457
0.22646396 0.14108829 -0.10913949 -0.30896574 -0.081353456 -0.26267362 -0.33756164 0.0055592624
0.027341338 0.002818415 -0.05511555 -0.21244398 -0.14351101 0.08852305 0.14092427 0.1595014
-0.3745947 -0.1895676 0.06704384 -0.20525432 -0.17748152 0.02186345 0.19110136 0.29268983
0.23774879 0.005286344 -0.34802666 -0.06554526 -0.0854988 -0.23639007 -0.072829545 0.19333799
0.36674702 0.22443143 0.036934298 -0.19543704 0.07893595 -0.11018163 -0.20454556 -0.087216824
0.15108632 0.3252232 0.1035547 0.12980047 -0.14269046 0.123818345 -0.13234721 -0.26508942
-0.10361092 0.040869746 0.18579224 0.051593605 -0.047533967 -0.1641985 -0.1679567 -0.14997756
-0.23876466 -0.26140484 -0.17659399 -0.26828602 -0.2033728 -0.006006388 0.06435246 0.004822566
0.030141456 0.13460608 0.034992594 -0.039592512 0.03450924 0.023101892 0.03541837 0.19278897
0.021440541 0.1598915 0.36117676 0.15861966 0.050564844 0.22005218 0.12387855 -8.2788193e-10
-1.526887e-09 -2.3551647e-09 1.2489043e-09 1.260343e-09 3.1144573e-10 1.7541383e-09 7.6504214e-10 -1.4211222e-10
7.0752994e-11 2.7874534e-11 -9.719308e-10 1.9770496e-09 1.3720834e-09 -6.37463e-10 2.3161233e-09 2.0703919e-09
4.09873e-10 -6.225683e-10 -1.6112758e-09 -2.1905044e-09 3.3231917e-10 -4.8665705e-10 -2.8790492e-09 7.0712575e-11
-1.2904097e-10 -1.9616782e-09 0.10454631 0.06525359 -0.09992716 0.009462875 0.11543079 0.1023194
-0.18857613 -0.041412286 0.08355608 0.023058705 -0.036656488 -0.08198565 -0.036219407 0.0037020112
0.07790738 -0.15190034 -0.044896707 0.12358952 0.019971414 -0.09216206 -0.15015501 -0.021178568
-0.093354516 -0.07907434 -0.068942845 -0.08766727 0.007218877 -0.24781148 -0.19690634 -0.008276024
-0.17272335 -0.16582711 -0.12361845 -0.10175094 -0.19330427 -0.16263434 0.07238856 0.25315893
0.2129692 0.3207253 0.5141388 0.30109856 0.24183615 0.34776413 0.21534419 -0.09675914
-0.16277568 -0.09453004 -0.041563258 -0.13612744 -0.17834377 -0.0786749 -0.23533446 -0.23166166
0.028742455 -0.014291309 0.16252394 0.35778004 -0.33445945 0.029880948 0.25710014 -0.33179885
-0.06591583 0.13215712 -0.124552645 -0.050744638 0.47623658 -0.36715394 -0.15295927 0.3293351
-0.29579365 -0.13616093 0.04153874 -0.0955503 -0.049060218 0.44670194 -0.2717586 -0.106390454
0.34942278 -0.18001547 -0.039150108 1.3840679e-09 1.8427055e-09 2.929692e-10 -8.5451374e-10 -9.595502e-10
-6.6490097e-10 -1.6415034e-09 -2.1713462e-09 -9.553499e-10 -3.1704084e-10 1.8249634e-12 4.0083906e-10 -1.6651353e-09
00000000: 2dc3 99b3 dd30 3bb3 1862 3ab3 e90d 98b3
00000010: 6a23 48b3 b64f 41b3 ae48 6ab3 9ffb d4b2
00000020: c489 e9b2 91f8 65b3 e030 0ab3 1775 28b3
00000030: 1d3b 2ab3 fc2a d8b2 5423 10b3 a71b e0b2
00000040: f713 e9b1 6b91 a4b2 79c8 8d31 58fe 2b33
00000050: 4c0a e632 b47d e932 9988 5d33 e483 2033
00000060: 9e32 e932 8299 7a33 a3bf 2333 43e5 13be
00000070: fd02 133d 86a4 423e 1329 b4bd 48ed 5c3d
00000080: 8a07 2e3e 624b 66bd 0398 4c3a f576 bc3d
00000090: 705e cdbd bc1d 7bbd 481b 2abd d1fa 15bd
000000a0: 26ca 1cbd c02e 89bd be00 2bbd dce3 99bd
000000b0: 59d5 9dbd 7af4 953d 9f4e 333d 75a1 1bbd
000000c0: d9f9 343e 33cd e03d 43db 38bd ed94 143e
000000d0: 3d92 9c3d ea9e bcbc cbd3 bf3e 0740 0b3f
000000e0: 2be6 673e 7379 103e 8684 dfbd c230 9ebe
000000f0: a49c a6bd 287d 86be e1d4 acbe 792a b63b
00000100: f1fa df3c 28b5 383b d8c0 61bd ea8a 59be
00000110: 8df4 12be 934b b53d 744e 103e 5654 233e
00000120: e0ca bfbe 021e 42be 484e 893d 302e 52be
00000130: b7bd 35be fa1a b33c 13b0 433e 71db 953e
00000140: 6b74 733e 1139 ad3b 8d30 b2be 983c 86bd
00000150: ff19 afbd 3d10 72be a827 95bd 65fa 453e
00000160: 44c6 bb3e 5ad1 653e 6b48 173d a620 48be
00000170: 2ca9 a13d e8a6 e1bd 6474 51be bc9e b2bd
00000180: 5fb6 1a3e a883 a63e 7d14 d43d 6aea 043e
00000190: 731d 12be 7994 fd3d 0786 07be cdb9 87be
000001a0: f631 d4bd 0967 273d 5240 3e3e d153 533d
000001b0: fab2 42bd a723 28be d7fc 2bbe b893 19be
000001c0: b97e 74be dbd6 85be 0ed5 34be c95c 89be
000001d0: f640 50be 3cd1 c4bb 39cb 833d 9e06 9e3b
000001e0: 37eb f63c 2dd6 093e 6554 0f3d c22b 22bd
000001f0: 9059 0d3d 2e40 bd3c da12 113d 796a 453e
00000200: 13a4 af3c 99ba 233e 29ec b83e 316d 223e
00000210: 151d 4f3d 5c55 613e 0ab4 fd3d 0391 63b0
00000220: 8fda d1b0 7fd8 21b1 eaa5 ab30 6138 ad30
00000230: 1738 ab2f 4116 f130 0e4b 5230 0941 1caf
00000240: 6596 9b2e df2f f52d c694 85b0 a0dc 0731
00000250: e593 bc30 7939 2fb0 ac29 1f31 b846 0e31
00000260: 7f54 e12f 5921 2bb0 ba73 ddb0 c387 16b1
00000270: c4b1 b62f 72c5 05b0 c5d8 45b1 a47f 9b2e
00000280: cee1 0daf 35ce 06b1 601c d63d ada3 853d
00000290: 9ca6 ccbd 2d0a 1b3c fa66 ec3d d58c d13d
000002a0: 1a1a 41be ee9f 29bd 731f ab3d 9ce5 bc3c
000002b0: 1d25 16bd 18e8 a7bd cd5a 14bd 719d 723b
000002c0: e88d 9f3d c38b 1bbe 9ce5 37bd 811c fd3d
000002d0: 179b a33c 76bf bcbd 3cc2 19be ad7e adbc
000002e0: a730 bfbd baf1 a1bd e831 8dbd e68a b3bd
000002f0: 548c ec3b 4bc2 7dbe d1a1 49be 2998 07bc
00000300: 64de 30be 95ce 29be ab2b fdbd cc62 d0bd
00000310: 8ef1 45be 9e89 26be 7440 943d 0c9e 813e
00000320: 9914 5a3e 1b36 a43e 9a9e 033f 9729 9a3e
00000330: e5a3 773e 240e b23e 3083 5c3e a829 c6bd
00000340: abae 26be f798 c1bd 3c3e 2abd fe64 0bbe
00000350: c09f 36be 4e20 a1bd 84fb 70be b738 6dbe
00000360: 4c75 eb3c 1826 6abc ad6c 263e f22e b73e
00000370: 453e abbe e4c8 f43c a1a2 833e 8ae1 a9be
00000380: e1fe 86bd 3254 073e 7515 ffbd 9cd9 4fbd
00000390: 48d5 f33e 9afb bbbe 5ba1 1cbe 9c9e a83e
000003a0: 4472 97be c56d 0bbe 8724 2a3d e0af c3bd
000003b0: 5ef3 48bd 1eb6 e43e f123 8bbe 3de3 d9bd
000003c0: 8be7 b23e fa55 38be dd5b 20bd 8f39 be30
000003d0: 7042 fd30 c00f a12f 0fe3 6ab0 2ce1 83b0
000003e0: 3fc4 36b0 449b e1b0 ba36 15b1 634d 83b0
000003f0: 884b aeaf 9e6b 002c 155d dc2f bdda e4b0

module.bn1.weight f4 [16]
1.3860839e-08 0.1127162 0.2827464 0.3329893 0.21144296 7.1542045e-10 0.26876143 0.24358062
0.35758877 2.1506017e-09 0.41184416 0.3227202 0.30063143 0.41880605 0.20574385 0.31735373
00000000: 9d20 6e32 c0d7 e63d 23c4 903e 937d aa3e
00000010: 8184 583e 3da7 4430 199b 893e 336d 793e
00000020: e015 b73e c9c9 1331 3ddd d23e 953b a53e
00000030: 5dec 993e bf6d d63e 84ae 523e 307c a23e

module.bn1.bias f4 [16]
-1.692389e-07 0.06904636 0.20864217 0.19759038 0.12102313 -4.3589723e-09 -0.12887731 0.091851525
0.20831703 -5.5338614e-09 0.53736275 0.2999155 0.13237442 -0.22866073 -0.115146145 -0.098042585
00000000: 09b8 35b4 2e68 8d3d 4ba6 553e 2255 4a3e
00000010: fada f73d edc5 95b1 6af8 03be a71c bc3d
00000020: 0f51 553e 5c24 beb1 9b90 093f 868e 993e
00000030: 298d 073e 0a26 6abe bed1 ebbd 8dca c8bd

module.bn1.running_mean f4 [16]
-1.9643349e-07 0.09747175 0.020636773 -0.04020339 -0.09396547 -6.572476e-10 -0.22545563 -0.030938022
-0.035409726 -7.169601e-09 0.00035925757 0.02241839 -0.021394223 -0.34347236 -0.07885201 0.25750193
00000000: 3aeb 52b4 459f c73d 730e a93c 4fac 24bd
00000010: f870 c0bd b0a9 34b0 d7dd 66be bc71 fdbc
00000020: ca09 11bd 7a58 f6b1 bc5a bc39 c5a6 b73c
00000030: f042 afbc 9cdb afbe 2a7d a1bd 4bd7 833e

module.bn1.running_var f4 [16]
1.05211e-14 0.006397255 0.015347813 0.05390904 0.05778573 5.6513203e-18 0.021331146 0.02535578
0.09508424 1.332257e-17 0.012797322 0.02966302 0.082180336 0.036775757 0.009934559 0.023083223
00000000: 0388 3d28 11a0 d13b 6575 7b3c bacf 5c3d
00000010: bbb0 6c3d 367f d022 a8be ae3c edb6 cf3c
00000020: 87bb c23d 0fc2 7523 dcab 513c ddff f23c
00000030: 2a4e a83d 2da2 163d 90c4 223c 0719 bd3c

module.residual_layers.0.0.conv1.weight f4 [16, 16, 5, 5]
-1.5163627e-08 -1.5371404e-08 -7.635391e-09 -4.27111e-09 -9.539463e-09 -1.7476363e-08 -1.6456966e-08 -3.9849986e-09
4.646299e-09 4.0632173e-10 -1.723298e-08 -1.4901174e-08 1.3900697e-09 1.3613659e-08 9.119724e-09 -1.16740955e-08
-8.706207e-09 7.1901978e-09 1.8932251e-08 1.43052e-08 -5.1555795e-09 -2.6329183e-09 1.0376406e-08 1.870115e-08
1.3544129e-08 0.02054057 -0.01575303 -0.013271889 0.016172409 0.020431548 0.008504428 -0.032733064
-0.03014127 -0.008415365 0.013234737 0.0019192675 -0.034119695 -0.018039634 -0.0062197056 0.021372514
0.010595575 -0.016571697 -0.017132895 -0.018024398 -0.003581082 0.0075886566 -0.022370532 -0.031469695
-0.031035481 -0.027896855 -0.08445706 -0.0336774 0.018772537 0.10958322 0.048679624 -0.029676028
0.06418624 0.058619812 0.063896894 -0.0033569245 0.08863116 0.07634781 -0.035045367 -0.043058667
-0.029407749 0.0074493256 0.016150653 -0.027151216 -0.026821129 -0.026534332 -0.02135957 -0.008291814
-0.050904404 -0.06796424 -0.044109624 0.008917151 -0.029664434 0.04496016 0.07441041 0.04899977
-0.08112502 -0.05212569 0.03862418 0.055136565 0.036689203 0.014771263 0.024208793 -0.031321235
-0.077257365 -0.04650992 0.006614583 -0.010553047 -0.048552457 -0.10543557 -0.05449062 0.00039983325
0.006404647 0.019418038 -0.0278726 -0.014810887 -0.06141817 -0.049621396 0.008619646 0.056151118
-0.0048678997 -0.09663144 -0.080344066 0.013906565 0.08460951 0.027332127 -0.0913622 -0.07054112
0.034828793 0.11537435 0.06292431 -0.04033826 -0.02738292 0.03948153 0.1016473 0.05760041
-0.008560692 -0.011238957 0.005689095 0.03839645 0.014086489 -3.602108e-10 -2.488203e-10 -2.0040049e-10
-1.6777917e-10 -1.4982787e-10 -3.457498e-10 -2.506644e-10 -3.9194337e-10 -5.682585e-11 -1.3420885e-10 -3.8788595e-10
-3.426181e-10 -3.8248346e-10 -3.2454717e-10 -2.7568706e-10 -4.0527812e-10 -3.2318698e-10 -5.684342e-11 -8.5352676e-11
-3.4605976e-10 -5.046787e-10 -4.2295012e-10 -2.7234912e-10 -4.016828e-10 -3.8800524e-10 -0.027621003 -0.028155409
0.0052712043 0.0075975377 0.0022643537 0.007922048 0.0008064631 0.021439891 -0.01370675 -0.03020327
0.047253206 -0.00044026095 0.006515914 -0.041456442 -0.027363734 0.03562508 -0.008142616 -0.003131336
-0.0042585996 0.015316641 0.05356161 0.015415325 0.0100456895 0.006328301 0.02064711 0.015232733
-0.03333115 -0.0017971895 0.07618494 0.073497586 -0.05707517 -0.0899001 -0.008364727 0.09349089
0.10977581 -0.13749373 -0.118342765 -0.0009893057 0.107941516 0.1330339 -0.10495357 -0.091852084
-0.014801525 0.055025656 0.08296413 -0.018882997 -0.0661973 -0.055907838 -0.011992511 0.050779752
-0.04485288 0.0045381067 -0.07901759 -0.014252278 -0.047112178 -0.037018444 -0.07932131 -0.2276459
-0.12429178 -0.0045968043 -0.019593451 -0.12698331 -0.26729217 -0.13654749 0.06834893 0.0007776345
-0.02163959 -0.11127374 -0.055546362 0.007412767 0.021694096 0.050763395 0.043701798 0.01253363
0.011361152 -9.746504e-12 1.194874e-10 2.486958e-10 3.265007e-10 5.156187e-10 -1.9756884e-10 -1.2964656e-10
1.3311528e-10 6.5273745e-11 1.3003712e-10 -1.922426e-10 -4.3815368e-10 -9.884298e-11 -4.1650178e-10 -2.1650198e-10
-3.6555725e-10 -3.5310976e-10 -3.6390893e-10 -2.4902935e-10 -1.4275806e-10 -2.682628e-10 -2.3908095e-10 9.2513566e-11
-2.5362248e-10 2.2402113e-11 -0.012970825 0.031128077 0.018345468 0.065074675 -0.02181002 0.14700937
00000000: 2b41 82b2 130a 84b2 ce2c 03b2 15c1 92b1
00000010: 01e3 23b2 ee1e 96b2 405d 8db2 6bec 88b1
00000020: 47a5 9f31 b360 df2f b907 94b2 0700 80b2
00000030: bb0c bf30 81e1 6932 f8ac 1c32 378f 48b2
00000040: 4e92 15b2 a60d f731 76a0 a232 efc2 7532
00000050: f524 b1b1 caee 34b1 eb43 3232 44a4 a032
00000060: b6af 6832 b344 a83c 800c 81bc 5672 59bc
00000070: 007c 843c 1060 a73c 2856 0b3c 1b13 06bd
00000080: d3ea f6bc 99e0 09bc 83d6 583c ee8f fb3a
00000090: 18c1 0bbd dbc7 93bc acce cbbb 6915 af3c
000000a0: 1099 2d3c 5ec1 87bc 495a 8cbc e7a7 93bc
000000b0: 96b0 6abb 44aa f83b 6842 b7bc 5ee6 00bd
000000c0: 1f3e febc f287 e4bc d3f7 acbd 50f1 09bd
000000d0: ddc8 993c 2b6d e03d 4964 473d 241b f3bc
000000e0: 1374 833d 541b 703d 60dc 823d d9ff 5bbb
000000f0: 4184 b53d 3e5c 9c3d bb8b 0fbd 495e 30bd
00000100: 85e8 f0bc 7919 f43b 604e 843c 3a6c debc
00000110: fcb7 dbbc 875e d9bc 44fa aebc 63da 07bc
00000120: 2381 50bd d630 8bbd 4bac 34bd 3e19 123c
00000130: d402 f3bc 2528 383d 7c64 983d fcb3 483d
00000140: e024 a6bd bf81 55bd 6334 1e3d e1d6 613d
00000150: 6b47 163d 2b03 723c 8551 c63c b24a 00bd
00000160: 1c39 9ebd 3081 3ebd 25bf d83b b0e6 2cbc
00000170: f1de 46bd 9bee d7bd 8e31 5fbd b6a0 d139
00000180: 13de d13b 9412 9f3c 1455 e4bc 5da9 72bc
00000190: 9e91 7bbd ce3f 4bbd 6a39 0d3c b7fe 653d
000001a0: e782 9fbb b4e6 c5bd 6e8b a4bd 5cd8 633c
000001b0: c047 ad3d a0e7 df3c 1b1c bbbd dd77 90bd
000001c0: a3a8 0e3d 6349 ec3d 76de 803d bb39 25bd
000001d0: 2552 e0bc 63b7 213d 762c d03d 68ee 6b3d
000001e0: 2542 0cbc 9a23 38bc 966b ba3b 9945 1d3d
000001f0: 04cb 663c 2a07 c6af 58ca 88af b957 5caf
00000200: a379 38af ccbc 24af f513 beaf e1cd 89af
00000210: 2079 d7af 38ec 79ae 6f90 13af 183e d5af
00000220: 365b bcaf c345 d2af f46b b2af 818f 97af
00000230: d3cd deaf 86ac b1af 0000 7aae 49b1 bbae
00000240: 953f beaf 9bb9 0ab0 f084 e8af bbb9 95af
00000250: d4d3 dcaf e24e d5af 7145 e2bc 2ca6 e6bc
00000260: 11ba ac3b c4f4 f83b 8d65 143b 7acb 013c
00000270: d368 533a b6a2 af3c 4792 60bc d96c f7bc
00000280: 948c 413d d3d2 e6b9 7383 d53b 3bce 29bd
00000290: e929 e0bc 9beb 113d 9b68 05bc 1a37 4dbb
000002a0: b98b 8bbb a6f2 7a3c 6b63 5b3d 8f90 7c3c
000002b0: ad96 243c a35d cf3b 2124 a93c b792 793c
000002c0: 3e86 08bd ac8f ebba da06 9c3d e785 963d
000002d0: a7c7 69bd 8b1d b8bd 350c 09bc 2778 bf3d
000002e0: 24d2 e03d 28cb 0cbe b15d f2bd 97ab 81ba
000002f0: 7110 dd3d 0a3a 083e e6f1 d6bd f21c bcbd
00000300: 1882 72bc 9562 613d 19e9 a93d 84b0 9abc
00000310: 7392 87bd 9eff 64bd 3d7c 44bc 6efe 4f3d
00000320: a7b7 37bd 66b4 943b f9d3 a1bd 6382 69bc
00000330: b3f8 40bd a7a0 17bd 3673 a2bd 021c 69be
00000340: b08c febd caa0 96bb 7282 a0bc ea07 02be
00000350: 85da 88be 1bd3 0bbe 86fa 8b3d 2bda 4b3a
00000360: 8245 b1bc 7de3 e3bd 9584 63bd cce6 f23b
00000370: d1b7 b13c 47ed 4f3d a800 333d db59 4d3c
00000380: 2024 3a3c 5a76 2bad b760 032f d2b8 882f
00000390: e37e b32f 71bb 0d30 af3a 59af 438c 0eaf
000003a0: 9f5c 122f da89 8f2e 32fa 0e2f 7b5f 53af
000003b0: a6e0 f0af a75b d9ae 6af9 e4af e40b 6eaf
000003c0: 9cf7 c8af c81f c2af a10f c8af c4e7 88af
000003d0: d2f6 1caf a27a 93af a76f 83af 8270 cb2e
000003e0: 316e 8baf 130d c52d 9583 54bc 4f00 ff3c
000003f0: 3c49 963c df45 853d edaa b2bc a089 163e

module.residual_layers.0.0.bn1.weight f4 [16]
0.30535853 0.33950886 0.3101289 0.53650844 0.2957337 0.32596433 0.28864586 0.3414778
0.20372486 0.21442553 0.3658301 0.3267203 0.2716259 0.4975158 0.4796754 0.33994174
00000000: f457 9c3e 1bd4 ad3e 37c9 9e3e 9e58 093f
00000010: 686a 973e cce4 a63e 64c9 933e 2ed6 ae3e
00000020: 409d 503e 5e92 5b3e 154e bb3e e247 a73e
00000030: 8d12 8b3e 64ba fe3e 0498 f53e d80c ae3e

module.residual_layers.0.0.bn1.bias f4 [16]
0.21329476 -0.08040018 -0.16396518 0.45716122 -0.21116154 -0.14947863 -0.042779695 -0.07608684
0.02075321 0.124703065 -0.084995195 -0.1774206 -0.14181688 -0.159867 -0.09522018 0.04126929
00000000: f169 5a3e d9a8 a4bd 7de6 27be 0911 ea3e
00000010: bb3a 58be ed10 19be c339 2fbd 6bd3 9bbd
00000020: a302 aa3c 5264 ff3d f611 aebd bfad 35be
00000030: 7238 11be 2db4 23be cc02 c3bd fd09 293d

module.residual_layers.0.0.bn1.running_mean f4 [16]
-0.64567983 -0.14663288 -0.365452 -0.41524252 -0.2789662 -0.5120932 0.023418387 0.23199847
-0.50096357 -0.8152705 -0.3210261 -0.20710374 -0.08826273 -0.44511518 -0.2403229 -0.5984178
00000000: 464b 25bf ee26 16be 861c bbbe ab9a d4be
00000010: a8d4 8ebe 8a18 03bf ebd7 bf3c 0291 6d3e
00000020: 263f 00bf 91b5 50bf 885d a4be 0113 54be
00000030: 17c3 b4bd 23e6 e3be 3517 76be e931 19bf

module.residual_layers.0.0.bn1.running_var f4 [16]
0.14963493 0.13467483 0.05354817 0.18966809 0.037513 0.061450142 0.11396994 0.236321
0.046524033 0.120067924 0.18714081 0.052470613 0.058575455 0.182812 0.34423012 0.13036054
00000000: e639 193e 33e8 093e 5355 5b3d 5a38 423e
00000010: 3ba7 193d 25b3 7b3d 1269 e93d 22fe 713e
00000020: fc8f 3e3d 2ce6 f53d d7a1 3f3e 6deb 563d
00000030: d1ec 6f3d 1233 3b3e ee3e b03e 3c7d 053e

module.residual_layers.0.0.conv2.weight f4 [16, 16, 5, 5]
0.053527996 -0.018033646 0.0418732 -0.034781914 -0.021127993 0.054754592 0.026965503 0.09856491
-0.013787229 -0.051455326 0.16802308 0.03887802 0.017159928 -0.11320258 -0.09341336 0.023093497
-0.07835426 -0.017877216 -0.06606603 -0.0136119565 -0.038543116 -0.058263678 0.013111094 -0.051108774
0.05189163 -0.010919778 -0.009699731 -0.017774373 0.01552111 0.01954511 0.0719771 0.1003844
0.08279385 0.0060597477 -0.027453631 -0.01566131 -0.0028710966 0.031517707 0.021589618 0.052911118
-0.0069858916 0.028447356 0.043482844 0.07276003 0.022658547 0.035445575 -0.0047156243 0.032118622
0.054435894 0.0644526 0.01013102 -0.0062198294 0.005560804 -0.03862814 -0.021356802 -0.017937705
-0.02680202 -0.040026687 -0.046110503 0.016104762 -0.07517554 -0.03774973 -0.09137576 0.017137317
-0.012280122 -0.067525804 -0.07547646 -0.062484283 0.030176165 0.032242846 -0.032151885 -0.008400738
0.02712578 0.011533321 0.06745667 0.07012187 -0.09198726 0.06828364 -0.05878898 0.034995373
0.09710526 -0.02100867 0.023283962 0.0403146 -0.05014967 -0.09687037 -0.06411151 0.076469325
-0.048634138 0.039261527 0.0041599344 -0.020225966 -0.07080001 0.06917295 0.08036584 0.018658293
-0.012243055 -0.029120723 0.032906104 -0.089018136 0.04394069 0.021661619 -0.055055987 -0.07042205
-0.055667024 0.015061239 -0.033433754 -0.065997735 -0.010334633 -0.05256551 -0.0082216095 -0.012373502
-0.008115027 0.031175539 -0.020949172 -0.04554096 0.021758894 0.041847784 0.021316515 -0.028544996
0.028417312 0.050997917 0.01682795 0.019668857 0.015463956 -0.059926264 -0.024620205 0.03929317
0.027387071 0.039296865 -0.060664836 -0.02296384 0.009624437 -0.007982155 0.01284461 0.011808414
0.03270924 0.040980965 0.056813482 0.057875145 0.009791754 0.019417474 0.05262992 -0.016976573
-0.029484121 0.019107789 0.056707516 0.05021261 0.00905898 0.021705285 -0.028731233 0.015079728
0.039398022 0.039791703 0.031045135 -0.026124058 0.012419933 0.027252937 0.014321777 -0.02114487
-0.011829558 -0.047597807 -0.06913796 -0.039790023 -0.012944075 0.032991927 -0.020113831 -0.08198717
-0.035841346 -0.0010204276 0.031677082 0.078290544 0.09647251 0.13894473 0.096830815 0.017690795
-0.0481413 -0.12513463 -0.11099355 -0.077287264 -0.016647128 -0.037682723 -0.1512446 -0.20020807
-0.15561411 -0.053933 -0.10728941 -0.19458559 -0.20610331 -0.14199878 0.004067378 -0.057650656
-0.13098767 -0.12853836 -0.06209617 -0.0027398772 -0.038993835 -0.013637564 -0.061642867 -0.06994723
-0.0018742195 -0.008242106 -0.021010503 -0.010314222 -0.022378545 -0.0024245095 0.021920044 0.022497328
0.022707272 0.007732919 0.0027566976 0.04088025 0.0427784 0.06922711 0.07839889 -0.021718137
0.01688041 0.045474447 0.060311668 0.015294264 -0.0012867737 0.046014626 0.07302033 0.045970894
0.0010507145 -0.017345158 -0.008860297 0.0059501454 -0.019848647 -0.02688473 -0.022201704 -0.01547635
0.029973548 -0.0044823517 -0.0069806855 0.052754924 0.04368997 0.033034183 -0.029265529 -0.059890267
0.08109335 -0.0043989294 -0.013551977 -0.0186141 -0.045979995 0.024816727 -0.0126099 -0.010923939
-0.0034447252 -0.034790568 0.062223945 -0.019772302 -0.1008473 -0.066848196 -0.055103626 0.00011416744
00000000: 2c40 5b3d 4cbb 93bc 3c83 2b3d 7b77 0ebd
00000010: 9d14 adbc 5a46 603d c2e6 dc3c 66dc c93d
00000020: d4e3 61bc d2c2 52bd 3e0e 2c3e 8f3e 1f3d
00000030: fa92 8c3c c1d6 e7bd 814f bfbd 932e bd3c
00000040: 3378 a0bd 3d73 92bc a04d 87bd af04 5fbc
00000050: 63df 1dbd e5a5 6ebd eacf 563c 6f57 51bd
00000060: 518c 543d dee8 32bc 9feb 1ebc 909b 91bc
00000070: 414c 7e3c 111d a03c bb68 933d 5696 cd3d
00000080: d28f a93d d990 c63b 70e6 e0bc 264c 80bc
00000090: 0229 3cbb b618 013d b6dc b03c 54b9 583d
000000a0: e8e9 e4bb 6e0a e93c 111b 323d 3603 953d
000000b0: 6b9e b93c 612f 113d 8685 9abb d18e 033d
000000c0: 2cf8 5e3d baff 833d 94fc 253c b6cf cbbb
000000d0: 6837 b63b 8a38 1ebd 76f4 aebc 18f2 92bc
000000e0: e98f dbbc 06f3 23bd 5ede 3cbd 22ee 833c
000000f0: a2f5 99bd 769f 1abd 3723 bbbd 8f63 8c3c
00000100: 9132 49bc f84a 8abd 6793 9abd 85ef 7fbd
00000110: 0134 f73c 1311 043d b2b1 03bd 40a3 09bc
00000120: e236 de3c 41f6 3c3c b926 8a3d 0e9c 8f3d
00000130: d163 bcbd 4bd8 8b3d b7cc 70bd 4f57 0f3d
00000140: 1fdf c63d 601a acbc 02be be3c ec20 253d
00000150: be69 4dbd f963 c6bd e54c 83bd f39b 9c3d
00000160: 9734 47bd b2d0 203d 0f50 883b edb0 a5bc
00000170: 98ff 90bd 8caa 8d3d d896 a43d 47d9 983c
00000180: 1897 48bc 958e eebc 8dc8 063d 244f b6bd
00000190: 27fb 333d b573 b13c 6382 61bd 7039 90bd
000001a0: 1b03 64bd 6ac3 763c d5f1 08bd d229 87bd
000001b0: 9852 29bc ef4e 57bd eeb3 06bc 3bba 4abc
000001c0: e4f4 04bc d863 ff3c 999d abbc 2889 3abd
000001d0: b53f b23c 9568 2b3d f99f ae3c 32d7 e9bc
000001e0: 6ccb e83c 31e3 503d c5da 893c 9520 a13c
000001f0: 885c 7d3c 3e75 75bd 50b0 c9bc e0f1 203d
00000200: da5a e03c c0f5 203d b17b 78bd aa1e bcbc
00000210: d1af 1d3c 96c7 02bc 3372 523c 1478 413c
00000220: 20fa 053d a8db 273d 41b5 683d 7d0e 6d3d
00000230: 986d 203c 6511 9f3c 7992 573d 7412 8bbc
00000240: af88 f1bc f087 9c3c 2446 683d bdab 4d3d
00000250: 1e6c 143c 48cf b13c c35d ebbc f710 773c
00000260: d25f 213d a0fc 223d 5e52 fe3c 1f02 d6bc
00000270: fa7c 4b3c 8d41 df3c e3a5 6a3c 0238 adbc
00000280: c3d0 41bc ebf5 42bd 3498 8dbd ddfa 22bd
00000290: 6313 54bc 8b22 073d c3c5 a4bc e4e8 a7bd
000002a0: 60ce 12bd debf 85ba d4bf 013d cb56 a03d
000002b0: 6193 c53d 8747 0e3e 3c4f c63d 49ec 903c
000002c0: d02f 45bd 4b23 00be 9650 e3bd c948 9ebd
000002d0: 8f5f 88bc 3359 1abd dddf 1abe 5803 4dbe
000002e0: 4e59 1fbe d9e8 5cbd 8dba dbbd 7241 47be
000002f0: bf0c 53be 2168 11be a447 853b 1823 6cbd
00000300: a221 06be 8f9f 03be 8e58 7ebd 838f 33bb
00000310: 00b8 1fbd 1770 5fbc 3b7d 7cbd 7e40 8fbd
00000320: 5fa8 f5ba e609 07bc 381e acbc fcfc 28bc
00000330: 3653 b7bc 85e4 1ebb aa91 b33c 514c b83c
00000340: 9a04 ba3c 6d64 fd3b b6a9 343b 0d72 273d
00000350: 6738 2f3d f1c6 8d3d 998f a03d 3cea b1bc
00000360: c948 8a3c 6a43 3a3d 5e09 773d cb94 7a3c
00000370: f6a8 a8ba d579 3c3d af8b 953d fa4b 3c3d
00000380: 21b8 893a 6f17 8ebc c72a 11bc 70f9 c23b
00000390: a199 a2bc 5e3d dcbc 59e0 b5bc 8490 7dbc
000003a0: 168b f53c b1e0 92bb 3cbe e4bb 8c15 583d
000003b0: 41f4 323d da4e 073d 43be efbc 7f4f 75bd
000003c0: 4514 a63d e524 90bb 1d09 5ebc 997c 98bc
000003d0: 8555 3cbd 734c cb3c c199 4ebc 52fa 32bc
000003e0: e6c0 61bb 8e80 0ebd 89de 7e3d 86f9 a1bc
000003f0: 0789 cebd b5e7 88bd 57b4 61bd 2d6d ef38

module.residual_layers.0.0.bn2.weight f4 [16]
0.49500278 0.43178758 0.3394614 0.3049033 0.18054458 0.5362857 0.42980447 0.23059897
0.63898015 0.66012317 0.37898025 0.42102823 0.3789309 0.2937296 0.44922996 0.25979182
00000000: 0171 fd3e 4313 dd3e e2cd ad3e 491c 9c3e
00000010: aee0 383e 054a 093f 550f dc3e 2322 6c3e
00000020: 3494 233f d5fd 283f b309 c23e 0391 d73e
00000030: 3b03 c23e ba63 963e 7801 e63e 6f03 853e

module.residual_layers.0.0.bn2.bias f4 [16]
0.13989761 -0.1220733 -0.110422544 -0.24566442 0.24331051 0.14830203 0.03878352 -0.11026711
-0.42133284 -0.15771054 -0.67646956 -0.41579294 -0.19786067 -0.07559181 0.05535327 -0.012497024
00000000: 5241 0f3e 9101 fabd 3725 e2bd 748f 7bbe
00000010: 6426 793e 7ddc 173e 78db 1e3d b9d3 e1bd
00000020: f0b8 d7be df7e 21be 1c2d 2dbf d0e2 d4be
00000030: fd9b 4abe e1cf 9abd 1cba 623d 51c0 4cbc

module.residual_layers.0.0.bn2.running_mean f4 [16]
-0.30800486 -0.26935217 -0.08667232 -0.0739098 0.08684934 -0.32844186 -0.24340132 0.122178406
-0.2118359 -0.23366426 0.31422913 0.043487754 -0.09416158 -0.040735833 -0.19618267 0.36807105
00000000: d0b2 9dbe 87e8 89be 4281 b1bd 055e 97bd
00000010: 11de b13d 8829 a8be 323e 79be ac38 fa3d
00000020: 83eb 58be af45 6fbe a4e2 a03e 3720 323d
00000030: c9d7 c0bd 9eda 26bd 1ce4 48be cf73 bc3e

module.residual_layers.0.0.bn2.running_var f4 [16]
0.22325327 0.11905467 0.10498555 0.12873545 0.091846004 0.30081466 0.14153634 0.05864381
0.53421265 0.38752005 0.09673255 0.19349658 0.18267299 0.13486184 0.20416473 0.10007279
00000000: 819c 643e efd2 f33d aa02 d73d 3ad3 033e
00000010: c219 bc3d 6104 9a3e e7ee 103e 7e34 703d
00000020: 29c2 083f 0769 c63e b71b c63d f823 463e
00000030: a10e 3b3e 3919 0a3e 8f10 513e f7f2 cc3d

module.residual_layers.1.0.conv1.weight f4 [32, 16, 5, 5]
-0.01151875 0.009317737 -0.042279378 -0.05116847 -0.011202096 0.06531947 0.050752096 -0.0275875
-0.011786904 0.060048804 0.0247319 0.023509165 0.007909136 -0.025111144 0.025548039 0.061559487
-0.016468318 0.019722184 0.011272256 0.027674122 -0.030497624 0.016038317 0.017803447 0.04199569
0.00911636 0.053967904 0.09339709 0.11779221 -0.0036641872 -0.09550008 0.07418454 0.044553343
0.10091351 0.090478 -0.04904233 -0.02998348 0.05062969 0.011445596 0.017089155 0.118302464
-0.052272372 -0.08233908 -0.024462739 -0.06890984 0.08074012 -0.09053065 -0.056304876 -0.040081676
-0.051662765 0.035550352 -0.02531658 -0.06696323 0.0016913525 0.023152253 0.085905485 0.0066857534
-0.08933341 0.0086067 0.004199835 0.02836518 -0.058029532 -0.0028843454 -0.078517035 -0.06368608
0.057930745 0.031557254 0.016069485 -0.044422433 -0.05649255 -0.03947787 0.024603946 0.03486939
-0.04903083 -0.0058095087 -0.033743657 -0.105976984 -0.015218738 -0.034122765 0.04603826 0.021712737
-0.12399072 -0.047375128 -0.024923077 0.0632642 0.12412283 -0.09378057 -0.08423709 0.008583016
0.051882785 0.10837041 -0.023632376 -0.033253208 -0.079454765 -0.064895034 0.0108326515 0.09675213
-0.0542241 -0.07043516 -0.051557366 -0.06744472 -0.050972078 -0.06220765 -0.012148963 0.073352724
0.0044169165 -0.030040354 -0.040313117 -0.036375664 0.05624134 0.08838868 -0.042124584 -0.033039227
-0.04220284 0.025675142 0.06293081 -0.014144276 -0.014773342 -0.042757917 0.04753518 0.06871258
-0.03429055 -0.052573606 -0.055457916 -0.0055205366 0.059643187 0.042676356 0.034684982 0.03348703
-0.031211287 -0.05078634 0.085523486 -0.045671508 -0.015104696 -0.12989731 -0.08218363 0.1267438
0.05738196 0.0256529 0.05566372 -0.11978638 0.07566315 0.10846827 0.044374127 0.07651537
-0.051453117 0.008725514 0.074747644 0.08857277 0.013412706 -0.09954652 -0.024867175 -0.021849735
0.00082779094 -0.07171815 -0.05043719 0.045719728 0.1083157 0.05398321 -0.06984058 -0.068776116
0.085411265 0.06687483 0.006763063 0.03963457 -0.034022294 0.08702415 0.120545544 0.04908339
-0.011885006 0.0013360488 -0.032762665 -0.03866591 0.027286215 -0.120892085 -0.047027882 0.030650478
-0.030658247 0.015554974 -0.017009249 -0.029058924 0.008535864 0.008777482 -0.0079263775 -0.07229019
0.0022902808 0.07756754 0.004945823 0.03644928 -0.016050199 0.013018155 0.06612155 0.064661406
0.019462636 -0.004655493 -0.0793046 0.086488985 0.071233556 0.0019365269 0.014384679 -0.045121245
-0.083298676 -0.03203843 0.028300773 0.08992981 0.08730291 -0.019712761 0.010827073 0.09786101
0.10217608 -0.021937277 -0.013314887 -0.005865625 -0.022175247 -0.13894688 -0.066791125 0.003778204
0.026731128 -0.032863587 -0.09458623 -0.0104202125 -0.017332034 -0.0061880816 -0.030409884 -0.1384708
-0.04005962 -0.048925705 -0.09144468 0.09789821 0.021541223 0.04040791 -0.060300384 -0.09210088
-0.095575266 -0.03653263 0.117671244 -0.030218048 -0.0673252 -0.08125016 -0.0014659142 -0.004303138
-0.075188816 0.006549117 -0.035567023 0.028570075 -0.07314438 0.014789875 -0.10024467 -0.052630242
-0.04142932 -0.10544086 0.060795333 -0.013541087 -0.019084817 0.060712013 0.068351634 -0.061543137
00000000: 24b9 3cbc 6ca9 183c 242d 2dbd 0896 51bd
00000010: ff88 37bc 37c6 853d 6ee1 4f3d 2eff e1bc
00000020: dc1d 41bc bcf5 753d 8e9a ca3c 4b96 c03c
00000030: 5295 013c e3b5 cdbc 1f4a d13c cd25 7c3d
00000040: 91e8 86bc 6b90 a13c 45af 383c d7b4 e23c
00000050: 27d6 f9bc ca62 833c 89d8 913c ac03 2c3d
00000060: c95c 153c 730d 5d3d f946 bf3d 0b3d f13d
00000070: dc22 70bb 8c95 c3bd 10ee 973d 917d 363d
00000080: beab ce3d 884c b93d 9ce0 48bd ea9f f5bc
00000090: 1461 4f3d 4f86 3b3c 8efe 8b3c 9048 f23d
000000a0: 8e1b 56bd 64a1 a8bd 1566 c8bc 9a20 8dbd
000000b0: 135b a53d 2268 b9bd f19f 66bd af2c 24bd
000000c0: 569c 53bd 3f9d 113d b764 cfbc 0524 89bd
000000d0: 5fb0 dd3a cba9 bd3c 37ef af3d 2a14 db3b
000000e0: 6ff4 b6bd 1e03 0d3c c59e 893b 185e e83c
000000f0: 60b0 6dbd 4907 3dbb 8acd a0bd d96d 82bd
00000100: ca48 6d3d 2e42 013d 27a4 833c 4cf4 35bd
00000110: bb64 67bd 8cb3 21bd 378e c93c 35d3 0e3d
00000120: 8dd4 48bd b15d bebb ca36 0abd 760a d9bd
00000130: 0358 79bc 50c4 0bbd 9d92 3c3d e9de b13c
00000140: d9ee fdbd 6c0c 42bd 7b2b ccbc a990 813d
00000150: 1c34 fe3d 0710 c0bd 7f84 acbd c79f 0c3c
00000160: 0b83 543d 4ef1 dd3d af98 c1bc 8434 08bd
00000170: 2eb9 a2bd b0e7 84bd 6f7b 313c fb25 c63d
00000180: 171a 5ebd 4f40 90bd d12d 53bd 7520 8abd
00000190: 19c8 50bd 73cd 7ebd 720c 47bc f439 963d
000001a0: c8bb 903b 3017 f6bc 5e1f 25bd a6fe 14bd
000001b0: 525d 663d 2005 b53d d48a 2cbd 2454 07bd
000001c0: e3dc 2cbd ad54 d23c dee1 803d 65bd 67bc
000001d0: e30b 72bc ed22 2fbd 40b4 423d 2eb9 8c3d
000001e0: 3f74 0cbd 6c57 57bd d727 63bd 9ee5 b4bb
000001f0: 6a4c 743d 67cd 2e3d d711 0e3d b229 093d
00000200: d0ae ffbc 5605 50bd f026 af3d 0c12 3bbd
00000210: b079 77bc cd03 05be e44f a8bd 20c9 013e
00000220: 5909 6b3d 0826 d23c a4ff 633d 9052 f5bd
00000230: 48f5 9a3d 9d24 de3d a5c1 353d 17b4 9c3d
00000240: 81c0 52bd 75f5 0e3c 4b15 993d a465 b53d
00000250: f7c0 5b3c 0cdf cbbd 3fb6 cbbc 37fe b2bc
00000260: 1c00 593a f7e0 92bd 3a97 4ebd 9c44 3b3d
00000270: 9fd4 dd3d 801d 5d3d 9408 8fbd 7eda 8cbd
00000280: 1aec ae3d acf5 883d af9c dd3b dc57 223d
00000290: f65a 0bbd b839 b23d 95e0 f63d aa0b 493d
000002a0: 54b9 42bc 5c1e af3a 2532 06bd 2560 1ebd
000002b0: 5787 df3c 4596 f7bd 4fa0 40bd b616 fb3c
000002c0: 0127 fbbc 4ada 7e3c fb56 8bbc fb0c eebc
000002d0: 02da 0b3c 6ecf 0f3c a3dd 01bc e10c 94bd
000002e0: 8918 163b bbdb 9e3d 9210 a23b d74b 153d
000002f0: b57b 83bc 194a 553c bc6a 873d 336d 843d
00000300: 1b70 9f3c 1b8d 98bb 736a a2bd 2321 b13d
00000310: e6e2 913d 0fd3 fd3a b7ad 6b3c 0ed1 38bd
00000320: 7f98 aabd bb3a 03bd 06d7 e73c 1f2d b83d
00000330: decb b23d a87c a1bc 0964 313c 5a6b c83d
00000340: b141 d13d ceb5 b3bc af26 5abc 6e34 c0bb
00000350: dda8 b5bc 1748 0ebe c9c9 88bd bf9b 773b
00000360: 3dfb da3c f89b 06bd 6db6 c1bd 8ab9 2abc
00000370: e9fb 8dbc 64c5 cabb 261e f9bc 4acb 0dbe
00000380: 8e15 24bd 5266 48bd 5947 bbbd db7e c83d
00000390: 3877 b03c c482 253d 89fd 76bd 639f bcbd
000003a0: f7bc c3bd 3da3 15bd 9ffd f03d d78b f7bc
000003b0: cbe1 89bd 7c66 a6bd eb23 c0ba 5601 8dbb
000003c0: 98fc 99bd fa99 d63b baae 11bd ca0b ea3c
000003d0: b8cc 95bd 3b51 723c 144d cdbd cf92 57bd
000003e0: cab1 29bd 61f1 d7bd 8704 793d 6fdb 5dbc
000003f0: c357 9cbc 29ad 783d f1fb 8b3d a814 7cbd

module.residual_layers.1.0.bn1.weight f4 [32]
0.39547566 0.34027222 0.4050831 0.39841938 0.373629 0.3814343 0.31746364 0.38260803
0.39038306 0.3845699 0.3855316 0.4079214 0.357931 0.3611641 0.32263926 0.33526462
0.3771 0.37850937 0.36769226 0.39626306 0.34576848 0.3267633 0.36791858 0.36646837
0.3438411 0.41582546 0.38485295 0.3393402 0.43396038 0.3341088 0.37133038 0.39634973
00000000: c97b ca3e 2938 ae3e 0d67 cf3e a0fd cb3e
00000010: 4d4c bf3e 5b4b c33e 988a a23e 33e5 c33e
00000020: 4ae0 c73e 59e6 c43e 6664 c53e 13db d03e
00000030: bb42 b73e 80ea b83e f930 a53e cea7 ab3e
00000040: 4013 c13e fbcb c13e 2942 bc3e fee2 ca3e
00000050: 9108 b13e 854d a73e d35f bc3e bea1 bb3e
00000060: f10b b03e 13e7 d43e 720b c53e 00be ad3e
00000070: 0e30 de3e 4f10 ab3e 041f be3e 5aee ca3e

module.residual_layers.1.0.bn1.bias f4 [32]
-0.14382534 -0.12600158 -0.2558793 -0.11162953 -0.1345123 -0.15653543 -0.011402035 -0.17647457
-0.1886369 -0.17326088 -0.2296729 -0.16235198 -0.1533141 -0.2578005 -0.056885634 -0.12463726
-0.18379669 -0.1417633 -0.014568188 -0.19603345 -0.17724006 -0.12355064 -0.0762686 -0.15246443
-0.08745904 -0.22505885 -0.2225863 -0.13059625 -0.27556205 -0.14099972 -0.18330193 -0.1256065
00000000: f346 13be 8f06 01be 9d02 83be 069e e4bd
00000010: 98bd 09be d34a 20be 9acf 3abc c0b5 34be
00000020: 082a 41be 4d6b 31be 5f2f 6bbe 993f 26be
00000030: 5ffe 1cbe 6dfe 83be e900 69bd d241 ffbd
00000040: 3335 3cbe 662a 11be 69af 6ebc febc 48be
00000050: 6b7e 35be 1e08 fdbd b632 9cbd a31f 1cbe
00000060: ba1d b3bd d475 66be aaed 63be 06bb 05be
00000070: 7816 8dbe 3b62 10be 80b3 3bbe fe9e 00be

module.residual_layers.1.0.bn1.running_mean f4 [32]
-0.25146595 -0.302161 -0.2873787 -0.7104859 -0.099024035 -1.1168463 -1.0699975 -0.5352565
-0.40037876 -0.33229977 -0.93136454 -0.4750348 -0.6541738 0.36737442 -0.9870622 -0.019338114
-0.0039720405 -0.55939287 -0.9488282 -0.67392606 -0.70663476 -0.5427058 -0.41699848 -1.0749085
-0.39020798 -0.7660175 -0.50774175 -0.691088 -0.6030168 -0.4477494 -0.12576248 -0.78766745
00000000: 25c0 80be d9b4 9abe 4d23 93be 67e2 35bf
00000010: 1dcd cabd d2f4 8ebf aef5 88bf 9206 09bf
00000020: 72fe ccbe 3223 aabe e86d 6ebf c337 f3be
00000030: ef77 27bf 8018 bc3e 1cb0 7cbf f76a 9ebc
00000040: e427 82bb 5f34 0fbf 68e6 72bf 6b86 2cbf
00000050: 04e6 34bf c4ee 0abf d380 d5be 9a96 89bf
00000060: 57c9 c7be b919 44bf 5dfb 01bf 25eb 30bf
00000070: 4f5f 1abf 693f e5be e1c7 00be 93a4 49bf

module.residual_layers.1.0.bn1.running_var f4 [32]
0.32841158 0.23008789 0.23232733 0.31152242 0.29782262 0.32399538 0.2805779 0.35704553
0.26280338 0.28968316 0.31825978 0.3370522 0.23740853 0.17691648 0.23173296 0.28498355
0.26679948 0.3177406 0.3576598 0.252847 0.22994147 0.29599127 0.30640838 0.24161442
0.26620704 0.30936062 0.2794106 0.262593 0.2661611 0.2484276 0.340799 0.30262232
00000000: 9025 a83e 299c 6b3e 37e7 6d3e de7f 9f3e
00000010: 357c 983e b9e2 a53e e8a7 8f3e acce b63e
00000020: 2a8e 863e 5a51 943e f2f2 a23e 1b92 ac3e
00000030: 391b 733e 9829 353e 684b 6d3e 5de9 913e
00000040: f199 883e e5ae a23e 2f1f b73e 2975 813e
00000050: c775 6b3e 2b8c 973e 8fe1 9c3e c569 773e
00000060: 4a4c 883e 8464 9e3e e80e 8f3e 9772 863e
00000070: 4546 883e ce63 7e3e 357d ae3e 50f1 9a3e

module.residual_layers.1.0.conv2.weight f4 [32, 32, 5, 5]
-0.10129323 -0.011537675 -0.001989022 -0.0113473525 0.0571053 -0.054431915 -0.029301511 -0.0012074821
0.022853354 -0.043089718 -0.003336898 -0.033394735 -0.048187587 0.028696122 -0.005762708 -0.03325811
0.009459581 -0.072641194 0.061848547 0.033313684 0.03103543 -0.083204 0.023346916 0.06338501
0.02149266 -0.0974662 -0.004613456 0.04678979 0.08486961 0.040697142 0.024909852 -0.047070887
0.008287322 -0.0034161303 0.0017520242 -0.05086867 -0.03053547 -0.06893918 -0.009599492 0.038793877
0.07027511 -5.298559e-05 -0.018128846 -0.030843498 -0.014568194 0.019380545 0.0011183347 -0.081175946
-0.053942773 -0.008759807 0.02074283 0.07420752 0.06559362 -0.05017094 0.09001083 -0.008393808
-0.081235014 0.13092998 -0.0022760837 0.004113865 -0.00082515064 -0.01797766 -0.009443163 0.033153966
-0.011130945 -0.08467756 -0.06688977 -0.06876891 -0.032467518 -0.05554814 0.057545085 0.013241139
-0.08895725 -0.09358025 -0.046615843 -0.11986857 -0.035742696 -0.05278071 0.044762973 0.07316673
-0.017934952 -0.008448958 -0.012715392 -0.054358184 0.08439834 -0.007326285 0.044684086 -0.007970864
0.065955594 -0.024213307 0.002553256 1.9893947e-05 -0.018615399 0.048026264 0.029141683 0.015903302
-0.010340851 -0.050886333 -0.0039819926 0.00533838 0.012783104 0.030283153 -0.008338808 0.04294651
0.0058339247 0.026630918 0.028267844 -0.03856924 -0.018637292 0.02986676 -0.042901304 0.040903434
-0.10646273 -0.017701458 0.047567256 -0.036713783 -0.0011346985 -0.020047273 -0.070899844 -0.05955088
0.053684533 -0.04764853 -0.021005671 -0.03466877 -0.026536187 -0.07214608 -0.032554325 0.026941234
-0.008574552 -0.012565893 -0.030785147 0.09288823 -0.05785886 0.026514648 -0.033735164 -0.022096388
-0.006606584 -0.102813326 0.020757344 0.01535905 0.085955486 0.045660302 0.008473801 0.030923514
0.14628977 0.08666817 0.050241765 0.08670709 -0.031405956 0.0806647 0.0051148366 -0.0026272289
-0.063471906 0.0632385 0.049055085 0.0007574393 0.013253341 -0.040188484 0.09919073 0.040179934
0.005182164 -0.017984921 -0.045239888 0.039879918 0.08032782 -0.052221827 0.0047858777 -0.008158591
0.033143673 0.18205483 -0.06377572 -0.12448554 -0.06507797 -0.03343298 -0.029743517 -0.07112906
0.045371808 0.039400887 -0.10283254 0.042484406 0.058155514 0.034075268 -0.013265933 0.0820058
-0.055841718 0.032040916 -0.031031016 0.15562928 0.049380865 0.04337872 0.025582122 -0.007872131
0.012325441 0.10393892 0.12769021 -0.020124823 -0.049028136 -0.057690416 -0.0287872 -0.119342186
0.051335756 -0.004323389 0.008821624 -0.07537913 -0.055138893 -0.039852593 -0.03185904 0.008886633
-0.10001764 -0.020690523 0.031307768 -0.06460621 -0.026782194 -0.02261207 -0.021658573 0.030473145
-0.0013826445 -0.09073741 0.0038878145 -0.07189052 -0.034476925 -0.060581736 -0.043710742 0.042415027
-0.045954946 0.09224956 -0.08312615 0.11911919 -0.01985689 -0.019414485 -0.056486662 0.006843236
-0.062244143 -0.1259603 -0.07818887 -0.021334002 0.019597271 -0.086463645 -0.0876427 -0.065812446
-0.00034305576 -0.016703447 0.005414134 0.02451542 -0.055833053 -0.08541126 0.009333892 -0.07361816
-0.10727972 -0.13190573 -0.06947976 0.07624775 0.09743674 0.033733834 -0.0028194415 -0.06421757
00000000: d372 cfbd 8408 3dbc 405a 02bb 3fea 39bc
00000010: 3fe7 693d 00f4 5ebd b909 f0bc 6044 9eba
00000020: f536 bb3c d87e 30bd dcaf 5abb ebc8 08bd
00000030: 5960 45bd 2114 eb3c 19d5 bcbb a839 08bd
00000040: 5cfc 1a3c e8c4 94bd e754 7d3d ee73 083d
00000050: 043e fe3c dc66 aabd 0842 bf3c 00d0 813d
00000060: 6011 b03c 5c9c c7bd 792c 97bb a7a6 3f3d
00000070: 1ed0 ad3d 0cb2 263d bf0f cc3c 67cd 40bd
00000080: 8cc7 073c 28e1 5fbb 2da4 e53a ab5b 50bd
00000090: 8625 fabc fc2f 8dbd 3047 1dbc 54e6 1e3d
000000a0: 66ec 8f3d d83c 5eb8 f282 94bc 81ab fcbc
000000b0: 6faf 6ebc f3c3 9e3c 1695 923a 933f a6bd
000000c0: 19f3 5cbd 4b85 0fbc deec a93c 1dfa 973d
000000d0: f355 863d 0b80 4dbd 9957 b83d 2f86 09bc
000000e0: 8b5e a6bd 8212 063e 592a 15bb 9acd 863b
000000f0: ec4e 58ba e345 93bc 7fb7 1abc 74cc 073d
00000100: 915e 36bc 6e6b adbd 81fd 88bd b7d6 8cbd
00000110: a9fc 04bd 7286 63bd 65b4 6b3d 5df1 583c
00000120: 382f b6bd 01a7 bfbd 41f0 3ebd a77d f5bd
00000130: ef66 12bd 9630 58bd 6159 373d 70d8 953d
00000140: 52ec 92bc 806d 0abc 3854 50bc b0a6 5ebd
00000150: 09d9 ac3d 5511 f0bb a906 373d 3a98 02bc
00000160: ba13 873d fc5a c6bc 8754 273b ede1 a637
00000170: 527f 98bc 30b7 443d 8aba ee3c a447 823c
00000180: ac6c 29bc 306e 50bd 607b 82bb 94ed ae3b
00000190: 3970 513c 6014 f83c 7f9f 08bc aee8 2f3d
000001a0: 822a bf3b 1529 da3c f791 e73c c8fa 1dbd
000001b0: 3cad 98bc 23ab f43c 47b9 2fbd 5c8a 273d
000001c0: 2209 dabd a602 91bc e2d5 423d 3161 16bd
000001d0: 2aba 94ba 2e3a a4bc f033 91bd a0eb 73bd
000001e0: 50e4 5b3d 1b2b 43bd 1614 acbc d700 0ebd
000001f0: 6b62 d9bc 53c1 93bd af57 05bd ddb3 dc3c
00000200: 477c 0cbc 2de1 4dbc 2231 fcbc 2f3c be3d
00000210: 69fd 6cbd 3f35 d93c e22d 0abd 7c03 b5bc
00000220: 0b7c d8bb cb8f d2bd 4e0b aa3c 86a4 7b3c
00000230: 6e09 b03d 4c06 3b3d b3d5 0a3c 4f53 fd3c
00000240: fccc 153e 157f b13d 4fca 4d3d 7d93 b13d
00000250: 88a3 00bd 8933 a53d 5c9a a73b 962d 2cbb
00000260: 8ffd 81bd 3083 813d fced 483d e48e 463a
00000270: 8b24 593c ae9c 24bd 8224 cb3d b793 243d
00000280: 24cf a93b 1d55 93bc 764d 39bd 2059 233d
00000290: e982 a43d 8ee6 55bd dad2 9c3b 9cab 05bc
000002a0: a9c1 073d 956c 3a3e d89c 82bd 46f2 febd
000002b0: 9947 85bd 05f1 08bd ada8 f3bc 1dac 91bd
000002c0: cad7 393d d362 213d de99 d2bd 2104 2e3d
000002d0: 7a34 6e3d 8292 0b3d 5b59 59bc a8f2 a73d
000002e0: 49ba 64bd 563d 033d c234 febc 485d 1f3e
000002f0: 9743 4a3d e2ad 313d 9991 d13c 1cfa 00bc
00000300: a6f0 493c eedd d43d 39c1 023e d0dc a4bc
00000310: bad1 48bd c94c 6cbd 22d3 ebbc ad69 f4bd
00000320: 7145 523d 37ab 8dbb 9388 103c 6060 9abd
00000330: 52d9 61bd 793c 23bd a07e 02bd 3e99 113c
00000340: 0cd6 ccbd 2c7f a9bc 933c 003d 4350 84bd
00000350: 5566 dbbc f33c b9bc 526d b1bc d1a2 f93c
00000360: da39 b5ba 89d4 b9bd b4ca 7e3b 563b 93bd
00000370: ad37 0dbd 8e24 78bd 090a 33bd 61bb 2d3d
00000380: 413b 3cbd 56ed bc3d 0b3e aabd c3f4 f33d
00000390: ebaa a2bc 200b 9fbc 8f5e 67bd 393d e03b
000003a0: b7f3 7ebd bdfb 00be 7c21 a0bd a5c4 aebc
000003b0: 758a a03c da13 b1bd 047e b3bd adc8 86bd
000003c0: 2adc b3b9 abd5 88bc 0c69 b13b 90d4 c83c
000003d0: 33b1 64bd 19ec aebd 2eed 183c 1ec5 96bd
000003e0: 78b5 dbbd 4c12 07be 684b 8ebd c827 9c3d
000003f0: ea8c c73d 7d2c 0a3d 61c6 38bb 8084 83bd

module.residual_layers.1.0.bn2.weight f4 [32]
0.46584317 0.46996376 0.47063068 0.44199193 0.46939903 0.4370017 0.37734073 0.4808104
0.46881124 0.40842268 0.3639895 0.4713656 0.5197433 0.3720193 0.5019236 0.44576117
0.4187503 0.2882955 0.42892522 0.44730818 0.39521804 0.43680727 0.43250427 0.3946876
0.51309955 0.3549632 0.4693058 0.3856984 0.45543003 0.4911765 0.4819051 0.40696415
00000000: ff82 ee3e 179f f03e 81f6 f03e c44c e23e
00000010: 1255 f03e b0be df3e ce32 c13e c82c f63e
00000020: 0708 f03e c71c d13e d55c ba3e d556 f13e
00000030: e60d 053f 5079 be3e 117e 003f cf3a e43e
00000040: 7066 d63e 789b 933e 169c db3e 9405 e53e
00000050: 055a ca3e 34a5 df3e 3371 dd3e 7e14 ca3e
00000060: 7e5a 033f bdbd b53e da48 f03e 437a c53e
00000070: 202e e93e 7c7b fb3e 44bc f63e 9b5d d03e

module.residual_layers.1.0.bn2.bias f4 [32]
-0.10548036 -0.117456935 -0.20157532 -0.018097967 -0.14207034 -0.12987842 -0.15666948 -0.14815459
-0.12375647 -0.1425855 -0.17178679 -0.16510162 -0.12396894 -0.168299 -0.22574042 -0.23492828
-0.10302683 -0.08760648 -0.08999512 -0.17199576 -0.14193588 -0.09450672 -0.12647343 -0.087132946
-0.18662749 -0.05118011 -0.07927388 -0.109238505 -0.14020948 -0.16616377 -0.15198041 -0.07669775
00000000: 1606 d8bd 438d f0bd c369 4ebe 3042 94bc
00000010: e37a 11be d9fe 04be f76d 20be d6b5 17be
00000020: 0874 fdbd ef01 12be e0e8 2fbe 6610 29be
00000030: 6de3 fdbd 9356 2cbe 7f28 67be 0a91 70be
00000040: bbff d2bd 076b b3bd 5d4f b8bd a81f 30be
00000050: a457 11be bd8c c1bd 4082 01be c272 b2bd
00000060: 471b 3fbe 3ca2 51bd 585a a2bd 70b8 dfbd
00000070: 1393 0fbe d626 2abe c1a0 1bbe b613 9dbd

module.residual_layers.1.0.bn2.running_mean f4 [32]
-0.27116024 -0.38347998 -0.24798761 -0.18606038 -0.3366586 -0.03649771 -0.09537362 -0.14369728
-0.41901138 -0.1382541 -0.22727765 -0.1703358 -0.4620141 -0.06178783 -0.13980037 -0.3234991
-0.19420329 -0.23172064 -0.24541828 -0.25905704 -0.3547884 -0.31483558 0.0048738844 -0.10968635
-0.110295296 -0.31665695 -0.35008743 -0.20101063 -0.29807553 0.08283716 -0.2299154 -0.3834401
00000000: 84d5 8abe 7d57 c4be 77f0 7dbe 9d86 3ebe
00000010: 845e acbe 9f7e 15bd 3f53 c3bd 6125 13be
00000020: a988 d6be 7c92 0dbe 79bb 68be 826c 2ebe
00000030: 1d8d ecbe 3c15 7dbd d427 0fbe ada1 a5be
00000040: 3add 46be 2d48 6dbe ee4e 7bbe 20a3 84be
00000050: d3a6 b5be 2132 a1be 1bb5 9f3b 3da3 e0bd
00000060: 80e2 e1bd dc20 a2be a93e b3be bbd5 4dbe
00000070: 5b9d 98be 87a6 a93d f16e 6bbe 4352 c4be

module.residual_layers.1.0.bn2.running_var f4 [32]
0.11320777 0.10856942 0.08131296 0.13726863 0.09787253 0.08967717 0.080943316 0.09940619
0.10197903 0.076790996 0.063438624 0.09496033 0.105615035 0.078689344 0.09273547 0.08112129
0.090139106 0.0645175 0.08029945 0.07594978 0.08135286 0.09473871 0.09407577 0.08082812
0.110912636 0.07997423 0.09331591 0.08629833 0.09068425 0.08478766 0.114144616 0.09550154
00000000: 7ad9 e73d a559 de3d 6987 a63d 2690 0c3e
00000010: 6571 c83d aaa8 b73d 9cc5 a53d 7995 cb3d
00000020: 62da d03d 9944 9d3d 1cec 813d 907a c23d
00000030: b24c d83d e127 a13d 18ec bd3d eb22 a63d
00000040: da9a b83d c021 843d 0a74 a43d 8f8b 9b3d
00000050: 549c a63d 5e06 c23d ccaa c03d 3789 a53d
00000060: 2a26 e33d 87c9 a33d 691c bf3d 2ebd b03d
00000070: aab8 b93d 27a5 ad3d a7c4 e93d 5096 c33d

module.residual_layers.1.0.shortcut.0.weight f4 [32, 16, 1, 1]
-0.073397644 0.05556788 -0.07952644 -0.110380515 -0.013295439 0.030158231 -0.002608733 0.08782016
0.19412321 -0.09548194 -0.03082523 0.05644781 -0.06420744 0.004862033 0.07097061 -0.062134344
0.017224468 -0.012479666 -0.009575245 0.031043615 0.039158553 -0.022982184 0.02671889 0.003352565
-0.16525483 -0.07153811 -0.047006104 -0.03225498 0.09509712 -0.034827366 -0.064613335 0.03854195
-0.05107051 -0.090353236 -0.02604823 0.035714336 -0.05683046 0.14370449 -0.099373005 -0.07975014
0.0040503996 0.10808992 0.10627516 -0.0665589 -0.09058362 -0.03775942 0.07235797 -0.10945489
0.05119535 -0.048676293 -0.010117116 -0.074564725 0.08645991 0.07430449 0.02166662 -0.0025569268
0.06654361 -0.05307986 0.0019463215 0.11338655 -0.14611775 0.0066418815 -0.023235096 -0.12286188
-0.04876159 0.043632656 0.076384835 -0.12167168 0.09502604 0.0063148714 0.006391939 -0.006189997
-0.052380294 0.16900013 0.08820502 -0.16878596 -0.00020972236 -0.15368329 0.157799 -0.049046386
0.07372585 0.05579964 0.0059519727 0.15064383 0.15334032 -0.05866036 0.048945967 -0.1138217
-0.17582338 -0.03139857 0.0073779603 -0.1878092 -0.06473053 -0.060277916 -0.006852343 0.046192616
-0.11690823 -0.075331494 -0.07163888 0.014176217 -0.11368645 -0.012248347 -0.020949518 -0.049632378
0.02535106 -0.16212864 -0.05559455 -0.16603857 -0.16381468 -0.010506322 -0.09146588 -0.15942396
0.044617966 0.012815635 -0.023308702 0.045942914 -0.18647885 -0.11412531 -0.0017059528 -0.052353565
-0.09194531 -0.116832085 -0.037031848 0.043595146 0.0685337 -0.10971572 -0.019113667 -0.012214702
-0.12258637 -0.10943485 -0.0030396655 0.035532873 -0.08283329 -0.074333675 -0.061477534 -0.052671883
0.030494638 0.041598585 0.0023170272 0.041364565 0.059847955 -0.114136025 -0.12256225 -0.06952521
-0.004878957 -0.040297847 0.1057514 -0.02974497 -0.02946039 -0.20512876 -0.087111846 0.078061596
0.0037232852 -0.047745466 -0.010220943 -0.10184457 0.0062159384 -0.069225796 -0.1061075 0.009706209
-0.19050959 0.10681068 -0.040388834 -0.14913777 0.2984645 -0.16163875 -0.09097942 -0.19958955
0.020455895 -0.011763937 0.030299332 0.023780182 0.05354785 -0.09394912 0.111625515 0.101225816
-0.011842506 0.046896376 -0.020286426 -0.014203896 0.023509521 0.0047340957 0.1342451 -0.026032757
-0.07597687 0.0036900388 0.010306391 0.0620344 -0.038401973 0.063859135 -0.047071535 -0.056895383
-0.015982486 0.00058962667 0.07288815 0.12603323 0.0733121 -0.11142209 0.06905722 -0.045991436
-0.03201267 -0.046926916 -0.02614051 -0.02321788 -0.084407836 -0.09078946 -0.09454441 -0.10136251
0.021366315 0.00018857837 -0.08074897 -0.1836642 -0.2223141 0.17734542 0.096379295 -0.34748325
0.03665483 -0.08235861 -0.08188774 0.011154791 -0.081087925 -0.061903957 -0.04180198 0.060818847
-0.03092118 0.14311385 -0.034393586 0.053125884 0.06366052 0.11103731 -0.052496314 0.052100964
-0.03144999 -0.15232535 -0.071803726 0.05468677 0.12804176 -0.07347382 0.042426106 -0.06079294
-0.049039826 -0.0039950707 -0.008581811 -0.074514404 -0.18567987 -0.08957332 -0.013686751 -0.037776772
0.04583953 0.054139465 0.08215489 0.18486673 0.09290885 -0.040935196 0.035401527 0.02276852
00000000: 8151 96bd 259b 633d c2de a2bd 2e0f e2bd
00000010: 1dd5 59bc 650e f73c 47f7 2abb 0edb b33d
00000020: 3cc8 463e 098c c3bd 3185 fcbc d235 673d
00000030: 317f 83bd b051 9f3b 0a59 913d 9580 7ebd
00000040: 541a 8d3c 8377 4cbc 7de1 1cbc 2e4f fe3c
00000050: b864 203d 2245 bcbc 93e1 da3c b5b6 5b3b
00000060: 9038 29be 9382 92bd 7989 40bd cc1d 04bd
00000070: 47c2 c23d 24a7 0ebd ff53 84bd 2ade 1d3d
00000080: 502f 51bd 1e0b b9bd 1963 d5bc 3249 123d
00000090: 0ec7 68bd 4527 133e 1384 cbbd 0b54 a3bd
000000a0: 37b9 843b 3f5e dd3d cba6 d93d 0850 88bd
000000b0: e883 b9bd 9fa9 1abd 6a30 943d e329 e0bd
000000c0: 37b2 513d cb60 47bd 43c2 25bc 64b5 98bd
000000d0: e511 b13d f42c 983d 327e b13c 1d92 27bb
000000e0: 0448 883d 446a 59bd b61b ff3a 3537 e83d
000000f0: e49f 15be 24a4 d93b 8757 bebc 029f fbbd
00000100: 3cba 47bd 28b8 323d a76f 9c3d 002f f9bd
00000110: 039d c23d fbec ce3b 7873 d13b 75d5 cabb
00000120: b88c 56bd 5f0e 2d3e d5a4 b43d 3ad6 2cbe
00000130: ebe8 5bb9 275f 1dbe 1096 213e dde4 48bd
00000140: 94fd 963d 2a8e 643d c408 c33b 6042 1a3e
00000150: 3f05 1d3e d845 70bd 917b 483d 5a1b e9bd
00000160: 0b0b 34be c99b 00bd d1c2 f13b 0e51 40be
00000170: 7191 84bd fae5 76bd 9f89 e0bb 7834 3d3d
00000180: 956d efbd 6647 9abd 68b7 92bd 5d43 683c
00000190: 71d4 e8bd 4aad 48bc 539e abbc 524b 4bbd
000001a0: 07ad cf3c 0d05 26be 1cb7 63bd 0406 2abe
000001b0: 09bf 27be b522 2cbc 7752 bbbd 0940 23be
000001c0: 54c1 363d abf8 513c e4f1 bebc a32e 3c3d
000001d0: 50f4 3ebe 88ba e9bd 479a dfba b170 56bd
000001e0: d34d bcbd a945 efbd b5ae 17bd d390 323d
000001f0: 665b 8c3d a3b2 e0bd 4494 9cbc 2c20 48bc
00000200: 900e fbbd 611f e0bd 2035 47bb eb8a 113d
00000210: 80a4 a9bd 413c 98bd decf 7bbd 79be 57bd
00000220: e4cf f93c 4763 2a3d 44d9 173b e46d 293d
00000230: 2123 753d 26c0 e9bd eb01 fbbd 3c63 8ebd
00000240: a8df 9fbb 5b0f 25bd 3194 d83d b9ab f3bc
00000250: ea56 f1bc 460d 52be b267 b2bd c2de 9f3d
00000260: 5c02 743b c090 43bd be75 27bc e393 d0bd
00000270: 12af cb3b 41c6 8dbd e44e d9bd cb06 1f3c
00000280: f214 43be 8fbf da3d c36e 25bd 92b7 18be
00000290: 57d0 983e a184 25be 6b53 babd 3461 4cbe
000002a0: 1f93 a73c 87bd 40bc 4e36 f83c a8ce c23c
000002b0: fe54 5b3d 6568 c0bd eb9b e43d 7b4f cf3d
000002c0: 1207 42bc 6a16 403d b82f a6bc 75b7 68bc
000002d0: 0a97 c03c 7920 9b3b 8c77 093e a642 d5bc
000002e0: c399 9bbd 94d4 713b 23dc 283c c817 7e3d
000002f0: 634b 1dbd 94c8 823d 15ce 40bd 220b 69bd
00000300: b4ed 82bc 2d91 1a3a 6246 953d db0e 013e
00000310: a724 963d 4431 e4bd df6d 8d3d 8461 3cbd
00000320: b81f 03bd 7036 40bd 9f24 d6bc 6c33 bebc
00000330: 04de acbd d3ef b9bd 80a0 c1bd 2697 cfbd
00000340: 6908 af3c 1fbd 4539 b75f a5bd 7812 3cbe
00000350: 4fa6 63be 0a9a 353e 8262 c53d 53e9 b1be
00000360: 6023 163d a2ab a8bd c2b4 a7bd 96c2 363c
00000370: 6d11 a6bd 018f 7dbd 8e38 2bbd 2f1d 793d
00000380: 6a4e fdbc 708c 123e 4ae0 0cbd 879a 593d
00000390: 7260 823d 8767 e33d 6006 57bd d267 553d
000003a0: b4d1 00bd 2dfb 1bbe d50d 93bd 3cff 5f3d
000003b0: 611d 033e 7179 96bd ffc6 2d3d 0502 79bd
000003c0: fcdd 48bd 15e9 82bb b99a 0cbc 029b 98bd
000003d0: dd22 3ebe 3772 b7bd 653e 60bc d1bb 1abd
000003e0: 3bc2 3b3d 58c1 5d3d d340 a83d b44d 3d3e
000003f0: ff46 be3d aaab 27bd 3101 113d 0c85 ba3c

module.residual_layers.1.0.shortcut.1.weight f4 [32]
0.09988768 0.07487055 0.1130835 0.058668476 0.15740804 0.1723413 0.19932498 0.12896964
0.08325433 0.101830035 0.2619548 0.040924713 0.10851465 0.2808985 0.12477648 0.13468839
0.0530499 0.23762442 0.08746536 0.17710884 0.20889255 0.090131186 0.09978922 0.12662092
0.09800877 0.13690324 0.15736853 0.1039515 0.16051514 0.19200872 0.0077693197 0.17784345
00000000: e991 cc3d bb55 993d 5298 e73d 5b4e 703d
00000010: 932f 213e 3d7a 303e d91b 4c3e 9e10 043e
00000020: 3f81 aa3d 448c d03d f11e 863e aca0 273d
00000030: ee3c de3d eed1 8f3e d08a ff3d c1eb 093e
00000040: da4a 593d d153 733e 0a21 b33d 055c 353e
00000050: eee7 553e b396 b83d 4a5e cc3d eaa8 013e
00000060: d2b8 c83d 5d30 0c3e 3725 213e 86e4 d43d
00000070: 155e 243e ef9d 443e c795 fe3b 981c 363e
