summaries/vanilla_ResNet2_num_blocks1x1_num_channels32_conv5/ckpt.pth (torch, 851571 bytes, 32 tensors)

module.conv1.weight f4 [32, 3, 3, 3]
00000000: fd36 b0ba c536 84ba 8aad dcb9 0ba2 9b39
00000010: 9e3c 043a c153 b939 c782 263a c971 093a
00000020: dee4 f834 cdae 12ba a864 adb9 3a9c 0339
00000030: 0fb4 a13a f925 a23a b365 873a 63af cf3a
00000040: ef80 a83a e575 413a 1ffc 81ba 63f6 41ba
00000050: bb56 6eb9 b520 86b9 4414 36b9 01b4 02b9
00000060: a381 8fb9 655a 96b9 e354 79b9 d86f 8c3a
00000070: a6e7 8ebc 51f3 913d 94b9 d5bd fbf9 a0bd
00000080: a792 343e 7e5b e7bd 5113 87bd 1a86 213e
00000090: 6d52 60bd 2911 5cbc 69fa 153e 83df 29be
000000a0: a4d2 86bd 825d 893e 5683 48be 8dd5 c5bd
000000b0: a8e8 333e 9d27 2bbe 9769 83bd c8a9 2f3e
000000c0: 0a96 68be ba45 abbd 7572 9c3e bf32 2fbe
000000d0: 9159 35bd c7c4 833e 8b8d 37bd bb74 46bd
000000e0: 2074 04bd 9151 14be 629a 1abe 908e bdbd
000000f0: f070 86bd 33f0 e7bd d3be 30bd bade 68bc
00000100: 9d07 293e 3e7a 623d cfa6 293e 870d b13e
00000110: a1b9 5d3e 419f 533e d716 973e 5bea 423e
00000120: 0527 ba3c d396 13be 3576 e9bd 4a0c 48bd
00000130: faf9 90be 4efe 7bbe dba9 f93d ec7c 21be
00000140: 35d2 09be 659b 193e 157b e53b c9f5 d23b
00000150: 6c34 cf3d c634 2fbe 2bf0 40be a949 2e3d
00000160: 123f 19bc 951a 0e3d b414 033e c57b 9e3b
00000170: 2175 a9bc b04f 073e 9db4 06be b799 38be
00000180: 06d4 af3d 67e9 2b3c 3929 073d 3b13 b33a
00000190: 8f8b f33c 8d9a e13d 9d21 92bc 40e5 dcbd
000001a0: 8785 52bd 81de 6bbd 52e4 f1bc 4358 d93d
000001b0: 2800 61bd 2e48 0cbd fdf0 883d 3cf1 003e
000001c0: bc4a b7bc f9e2 13be 38a4 083e 94b1 c83d
000001d0: 27c8 333c 59cd bcbd f8ba b1bd 2f1f 6abc
000001e0: 1652 833d 69df aabd ff7f 59be 28d9 a53d
000001f0: 1ca8 083d 0827 71bd b4c3 34bc 80b6 d93a
00000200: b6ea e13d 18c7 d43d acfe 5dbd 35e7 0cbe
00000210: 29a6 cf3d 5b7e 883c 1bf3 82bd a9d0 6abd
00000220: ccf6 1abe c7a8 d8bc 5d73 58bd 0d27 17be
00000230: f18c 23bd da1c 363e e6b6 943d dabe 013e
00000240: a1f4 e4bd e173 1ebe 0169 b33c 560b 84bd
00000250: 737e acbd 0323 903d 33ff 1f3e 736f 033e
00000260: 51a0 6a3e 08e5 49be 21b6 6abe 2265 cfbc
00000270: e977 0fbe bf26 02be 9fdc 583d a170 023e
00000280: 7461 173e 6f89 913e c6e1 483e c348 3e3e
00000290: daa1 a43e b0b6 7cbd 1b5d 9338 b689 dd3d
000002a0: 1b7c 4ebe 611d 67be 48fe 4abe 8711 0d3d
000002b0: c854 35be f126 45bd b403 dcbc a0b1 c1bd
000002c0: 92ff ccbc 65cd 043e f03e dd3d c990 0e3d
000002d0: cd4c d6bd 5394 adbe 4a08 36be 9c91 b13b
000002e0: a20d 97bd b305 273c 6ca4 443e 9d30 703e
000002f0: 8673 3d3e 2e36 dc30 c62c a830 bca4 1231
00000300: 5693 d8ae ca69 2eb0 9c6c 8730 d6c6 92b0
00000310: 5961 8db0 2d75 70b0 8fbf 692f 15e3 e4ae
00000320: a0c1 8730 bc86 322d 1b5e 86af 670e 482f
00000330: 0eae 7cb0 6c03 bfb0 d287 b22e b0a2 d4af
00000340: f89a ae2d 5a67 0c31 20e6 b1af 5635 c12f
00000350: d58f 0931 a3a8 922f 1705 3230 0804 2a30
00000360: 18a5 f130 2f12 6231 fd38 8631 95ac 29b0
00000370: 1b9e 0730 65d2 5a31 ca1e 1eb1 6d4b f6b0
00000380: b6ec 0730 0d43 75b0 860f 4fb0 61c4 5630
00000390: e3cf 90b0 7f59 39b0 0ba0 8d30 597c c62f
000003a0: d628 b3af c8cf 8830 6eb0 9830 e30b d3ae
000003b0: c86b 8bb0 241f ea30 e5ed a32f 60cb 05af
000003c0: 67b2 5e31 1b1f d230 ef86 cb30 8902 0cbe
000003d0: f118 e6bc 0ace 963d b5cd 95bb e208 e23c
000003e0: a7f0 c4bc a73e 01bb 6aa1 6abd 0661 16be
000003f0: 239b 90bd 1764 cfbb 26a2 8a3c 3709 c83d
-0.0013444122 -0.0010087123 -0.00042090967 0.00029684635 0.0005044433 0.0003534835 0.0006351885 0.00052430906
4.6360122e-07 -0.00055955054 -0.00033072126 0.00012551332 0.0012336987 0.0012370936 0.0010329991 0.0015845116
0.0012855808 0.00073799334 -0.0009917057 -0.000739908 -0.00022729758 -0.0002558284 -0.00017364422 -0.00012464823
-0.00027371672 -0.0002867758 -0.00023778113 0.0010714484 -0.017444443 0.07126487 -0.10435787 -0.0786018
0.17634068 -0.112967476 -0.06595481 0.15773812 -0.054766107 -0.013431826 0.14646305 -0.16589169
-0.06583145 0.26829153 -0.1958135 -0.09659872 0.1756922 -0.1671433 -0.06416624 0.1715461
-0.22713485 -0.08362909 0.30556074 -0.17109202 -0.04427487 0.25736067 -0.04481272 -0.048451167
-0.032337308 -0.1448424 -0.15097955 -0.09255707 -0.0656451 -0.11325111 -0.043150734 -0.014213258
0.1650681 0.05529236 0.16567539 0.34580633 0.21652843 0.2066622 0.29509613 0.19034712
0.022723684 -0.14413004 -0.11399499 -0.048839845 -0.28315717 -0.24608728 0.121906005 -0.1577031
-0.13459094 0.15000685 0.007003198 0.0064379913 0.101174206 -0.17109975 -0.18841617 0.042550717
-0.009353416 0.03469332 0.12800866 0.004836532 -0.020685734 0.13213992 -0.13154836 -0.18027388
0.08585362 0.010492659 0.032998297 0.0013662347 0.029729633 0.11015806 -0.017838294 -0.107859135
-0.051396873 -0.057585243 -0.029527817 0.10612538 -0.05493179 -0.034248523 0.0668659 0.12592024
-0.022374503 -0.14442052 0.13343894 0.09799495 0.010973013 -0.092188545 -0.086782396 -0.014289661
0.06412141 -0.08343393 -0.21240233 0.0809806 0.033363447 -0.058875114 -0.011032987 0.0016610175
0.11031096 0.103895366 -0.054197952 -0.13760073 0.101391144 0.016661813 -0.06394025 -0.0573279
-0.15133208 -0.026447667 -0.052844394 -0.1476099 -0.039929334 0.17784443 0.072614476 0.1267046
-0.11179472 -0.15473892 0.021900656 -0.06447475 -0.08422556 0.07037928 0.15624695 0.12835483
0.22912718 -0.19716275 -0.22921039 -0.025316779 -0.14010586 -0.12710093 0.052944776 0.12738277
0.14783269 0.28425166 0.19617376 0.18582444 0.32154733 -0.061697662 7.0268485e-05 0.10817282
-0.2016453 -0.22569801 -0.19823563 0.034440544 -0.17708123 -0.04813284 -0.026857235 -0.094577074
-0.02502421 0.12968977 0.1080302 0.034806047 -0.10463867 -0.33902225 -0.177766 0.0054189693
-0.07375647 0.01019423 0.19203347 0.23456044 0.185011 1.6022506e-09 1.2236334e-09 2.1339437e-09
-9.848715e-11 -6.3451167e-10 9.853411e-10 -1.0679411e-09 -1.0286768e-09 -8.747801e-10 2.1259282e-10 -1.04085775e-10
9.877574e-10 1.0148046e-11 -2.4441324e-10 1.8195011e-10 -9.192441e-10 -1.3898052e-09 8.1186294e-11 -3.8678172e-10
1.985033e-11 2.043143e-09 -3.2359626e-10 3.5144393e-10 2.0017883e-09 2.667707e-10 6.4763256e-10 6.185137e-10
1.758198e-09 3.2897665e-09 3.906392e-09 -6.1727096e-10 4.9337395e-10 3.184277e-09 -2.3009528e-09 -1.7920293e-09
4.94491e-10 -8.9225766e-10 -7.532822e-10 7.813182e-10 -1.0536464e-09 -6.742979e-10 1.0304587e-09 3.6104345e-10
-3.2588926e-10 9.954357e-10 1.11096e-09 -9.5972806e-11 -1.0144214e-09 1.7034592e-09 2.9818562e-10 -1.2168533e-10
3.2406662e-09 1.5288352e-09 1.4808544e-09 -0.13672842 -0.028088065 0.073635176 -0.0045716413 0.027592126
-0.024040533 -0.0019721182 -0.057282843 -0.14685449 -0.0706084 -0.0063290703 0.016923022 0.097673826

module.bn1.weight f4 [32]
00000000: 8d4b db39 0878 2e3e c8b8 063e ccc8 993e
00000010: 0097 9b3e c802 283e 20b6 5e3e 44d2 892f
00000020: 08f1 a730 a8f4 753e 2023 543e b401 3430
00000030: 7508 a63e 2717 eb3d 06e2 433e eb93 c43d
00000040: 5b76 173e 08d2 743e d3ac e831 1f9e ea3d
00000050: 7eb3 963e a8a1 cd3d 0dd5 8caf db05 ac3e
00000060: 0416 683e e54e 9c3e 700d 983e 6c3b 263e
00000070: 7a62 253e 70dd d73e df83 393e b30b 293e
0.00041827225 0.17037976 0.13156426 0.30036008 0.3038864 0.16407311 0.21749163 2.5069558e-10
1.2219354e-09 0.2401911 0.20716524 6.548604e-10 0.32428327 0.11479025 0.1912919 0.095985256
0.14791243 0.23908246 6.7717365e-09 0.114559405 0.29433817 0.10040599 -2.5617233e-10 0.33598217
0.22664648 0.30528942 0.29697752 0.16233605 0.16150847 0.4216113 0.18116711 0.16508369

module.bn1.bias f4 [32]
00000000: 0386 40bb 896a ba3d e34e 973c 497b 90be
00000010: dbf0 9bbe aa98 633d c3bb 1fbe 6d93 8ab0
00000020: 488c a0b1 c9f4 30be 275f 2e3e a482 94b1
00000030: 5f04 503e 0f10 683d bece c9bd 987b ad3d
00000040: 0835 4a3b 3516 2cbe 9b9d acb2 f04f 3e3d
00000050: 54d2 5c3e dd42 483d 5d2c 28b1 ca9f 71be
00000060: eaa1 01be 4370 4ebe 093f 8cbe db70 de3c
00000070: fc6d 763d d48c dabe e8f7 903d 69b5 fdbc
-0.0029376752 0.09102351 0.018470233 -0.2821906 -0.30457196 0.055565514 -0.15598969 -1.0082722e-09
-4.672561e-09 -0.17280878 0.17028485 -4.322219e-09 0.20314167 0.05665594 -0.09853886 0.08470839
0.0030854363 -0.16805346 -2.0095106e-08 0.046462953 0.21564609 0.04889189 -2.4472435e-09 -0.23596111
-0.12659422 -0.20160012 -0.27391842 0.027153423 0.060163483 -0.42685568 0.07078534 -0.030970292

module.bn1.running_mean f4 [32]
00000000: dcb2 b03a 9cc2 d7bb 2f69 adbc 7f36 6dbb
00000010: 0570 81bd 9ad4 c6bc 49d4 dabb 9e76 3931
00000020: 5c63 f431 5e4e 883d 7f59 de3b 1f1a 2132
00000030: 8173 cdbc 12bc e43b 02e3 5fbe 3fa5 0a3b
00000040: e81a a4bd 46be 913e 3f93 3a33 582d c43d
00000050: 8b1a a3bc c723 3fbd cc1e 9b30 a89c 99be
00000060: a734 76be a051 9dbc 6349 80be 2cc4 a1bc
00000070: 683f f3bc f085 f8bc 322c 4dbc 69af 4a3b
0.0013481039 -0.0065844785 -0.02116832 -0.0036195812 -0.06320194 -0.024271298 -0.0066781384 2.698847e-09
7.1126305e-09 0.06655572 0.006785571 9.377373e-09 -0.02507949 0.0069804275 -0.2186394 0.0021155623
-0.080129445 0.2846548 4.344042e-08 0.09578961 -0.019910118 -0.04666498 1.1286487e-09 -0.30002332
-0.24043523 -0.01920396 -0.2505599 -0.019746862 -0.02969332 -0.030337304 -0.012522744 0.0030927307

module.bn1.running_var f4 [32]
00000000: 0d71 c135 04b2 8f3d 3a29 753c 4923 1d3c
00000010: f2a7 433c 20ec 743d 7fee b43b dedd 8f22
00000020: cbd6 7223 3b10 713c 7a5a 3e3c f863 1924
00000030: 1d0f ac3c caf4 383c 0d74 b73c 772f 263c
00000040: 09b0 b13c 1571 f13c 4570 0026 843f ce3c
00000050: b349 8d3c b40f cb3c 8621 0623 a63e 263d
00000060: 4647 ea3c f279 943c a665 a83c dbd0 433d
00000070: 17ad 413d 0978 763c 18ff 383d f14c ce3b
1.4412523e-06 0.07016376 0.014963442 0.009590932 0.011941897 0.0597955 0.005521595 3.899514e-18
1.31643305e-17 0.014713342 0.011618251 3.3261263e-17 0.0210033 0.011288831 0.022394205 0.010143152
0.021690385 0.029472867 4.4561075e-16 0.025176771 0.017247057 0.024787761 7.2712534e-18 0.04058709
0.028598439 0.018124554 0.020556282 0.047806602 0.047284212 0.015043267 0.04516515 0.006295793

module.residual_layers.0.0.conv1.weight f4 [32, 32, 5, 5]
00000000: cd32 7b38 6cca 2bb8 00a9 9db8 b78a 86b8
00000010: 961a 52b7 2241 31b8 d989 b9b8 3a7f bfb8
00000020: b01c a5b8 7b2d b337 1574 f2b8 6a55 efb8
00000030: 5cb6 61b8 bdc9 a3b8 3d84 afb8 4867 0ab9
00000040: 5376 1db9 03da f3b8 1d59 d3b8 3356 8eb8
00000050: e42d 9ab8 1bea 1ab9 3458 32b9 b7c6 09b9
00000060: c048 d2b8 d74b 973d 9498 2abd 5f86 813a
00000070: a9f6 833d 9c3f 243d d824 953d d760 78bd
00000080: b979 f6bb 591f 883d 141d 003d f886 9a3d
00000090: 8999 7bbd 65db 0bbd f0c7 ed3c 0e96 003c
000000a0: a694 503d a789 d0bd 8b32 49bd a173 48bc
000000b0: 15ee e4bb 9623 de3d 8217 90bd a3d7 3dbc
000000c0: e0f7 f13c beb1 a43d 9068 603c 54a5 34bc
000000d0: 8e6c ac3c f981 883d 7998 b33d 8857 dcbc
000000e0: ef2f 10bd 3206 fa38 f2e4 ed3c 83e9 073d
000000f0: 7911 5abd 0ef3 41bd 6a22 713b 21f2 8a3c
00000100: 689b d63b 9446 87bd c379 7ebd 8a01 20bb
00000110: a6e5 a63b 3aed 523c 514e 9bbd 3582 8dbd
00000120: fcba 57bc 9c4e 1ebb 050e 9b3c 5447 db3a
00000130: b084 a73c 4195 e0bc 2aa7 d1bc b114 223c
00000140: a1cb 343d fa2e acbc eb09 8ebd 32cf b6bc
00000150: 7fa4 de3c ca75 8b3b 4f3c b7bc 68c8 7bbd
00000160: 6722 bdbc 35e4 94bc d893 283c 1d37 af3c
00000170: 1277 9a3b 7403 23bc df77 53bb 7ee0 efbc
00000180: d84a 8a3c 9d04 03bd 3923 583b f29b b73c
00000190: e8c7 a33c 1cae 19bd 2880 32bd 5e71 acbc
000001a0: 79a8 dd3a bbc5 e2bc 6ae2 2fbc 357f 2dbd
000001b0: ac45 84bd 3da3 2bbd 0b70 84bd 0b3d c4bb
000001c0: c3a3 85bc 9ee8 83bd 56a9 8cbd 64fe 45bd
000001d0: 4ef9 843b 83ff a6ba 0044 c4bb 18ce 993c
000001e0: c59f 42bd 4086 26bc 6675 f1bc 84d8 d7bc
000001f0: ecf2 cb3c ba0c 2d3d 3cbf 4dbd 51bf 8dbc
00000200: 1b25 fdba 0199 1838 96a9 d4bc 0477 4fbd
00000210: 4375 343b 07b5 263c e3ac c83c a0b8 24bc
00000220: c4f8 0dbd 162b 8e3a bbf6 893c 603a 1fbc
00000230: 888c b23c fe63 d9bc 9dd4 653d d10c 693d
00000240: b923 043d 5e4f a9bd a6b6 fbbd 8d53 67bd
00000250: 2d0f f6bc 4340 82bc ae00 0d3d 2bcd a63c
00000260: 559b 68bc 3404 b5bc 624e aebc 46b6 a33c
00000270: a51e 253c 44fb a5bc 0cb8 14bd d574 9fbc
00000280: 9d68 14bd d018 41bd 7517 39bd 920a 79bc
00000290: 3559 a03b 7d3f 01bc c4a4 9abb 9e7a f6bc
000002a0: 5c74 473c 11a3 983a 4f13 4a3d 4420 103a
000002b0: d808 1cbc 068a d23b 9246 4ebd 86ca a62d
000002c0: f392 afad da4a 1daf a1a5 01af f25f d6ad
000002d0: 7b6b 64ae 98ec ac2e 1d62 93ae 15ed ddad
000002e0: dc69 d0ae 4b18 99af c3cf 58af 540c 59af
000002f0: 2441 73af 9ad9 3faf bbfe 0ab0 f53c b8af
00000300: fc7f 9baf c4ae aeaf c518 a3af 549a c4af
00000310: 5f68 12af 4191 a8af 869c 76af 26f2 8fae
00000320: bf54 5b30 0dd8 2faf c42c 1430 76df 892f
00000330: 88d3 422f 425b 4930 9b3a 78af 0f6b f12f
00000340: c5dc 902f b273 862f 96ba de2f c41d 96af
00000350: 813f e72f cb93 842f e561 3c2f e343 b1ae
00000360: b9aa 5db0 232b af2e ea6c 51af eaf8 12af
00000370: 8f80 f92e 6b0c 24b0 8453 0d30 f0a2 cf2d
00000380: e777 222f da43 7abc 5a20 d0bc b025 0e3c
00000390: f5ce 5b3d e7e6 1a3d 5aa0 22bd f143 13bc
000003a0: 8c5c 08bb 24c8 02bc 7e54 dcbb 13eb 43bd
000003b0: bd75 b63c e84d b23c ccd5 8c3c e2d3 7bbb
000003c0: 9971 21bd 84ec 86bc 1eac 9bbc 2a87 88bc
000003d0: a286 1bbd df88 14bd a704 83bb 89dd 01bd
000003e0: c2bd f43b 58d8 a83b a423 5b3c a88b 60bc
000003f0: a6e7 453d 2cc4 7bbb 6d81 093c c83a 323c
5.9890375e-05 -4.0958097e-05 -7.517822e-05 -6.4154556e-05 -1.2523165e-05 -4.2260748e-05 -8.8471636e-05 -9.1312875e-05
-7.8731566e-05 2.1359641e-05 -0.00011561081 -0.00011412318 -5.3814016e-05 -7.810022e-05 -8.3692816e-05 -0.00013199181
-0.00015016766 -0.00011627751 -0.00010077863 -6.7871435e-05 -7.35184e-05 -0.00014773796 -0.00017008261 -0.00013139365
-0.00010027131 0.07387512 -0.041649416 0.0009881965 0.06443531 0.040099725 0.07282418 -0.06063923
-0.0075218347 0.06646604 0.03127773 0.075452745 -0.06142572 -0.034144778 0.029026002 0.007848276
0.050923012 -0.10182505 -0.049120467 -0.012234599 -0.0069863894 0.10846631 -0.07035734 -0.011587056
0.029537141 0.08041714 0.013696805 -0.011025745 0.021047857 0.06665415 0.08769316 -0.026897207
-0.035201963 0.00011922083 0.029039834 0.03318168 -0.05323932 -0.047350936 0.0036794194 0.01696116
0.0065492876 -0.066052586 -0.06212784 -0.002441498 0.005093294 0.012873942 -0.07583297 -0.06909601
-0.013167139 -0.0024155742 0.018927583 0.0016729631 0.020449013 -0.02741492 -0.025592405 0.0098926285
0.04413951 -0.021018494 -0.069354855 -0.022315595 0.027178047 0.004255985 -0.022367625 -0.06147042
-0.023087693 -0.018175224 0.010289155 0.021388585 0.0047139013 -0.009949554 -0.0032267494 -0.02928185
0.016881391 -0.03198682 0.0032979979 0.022413228 0.019992784 -0.03751956 -0.04357925 -0.021050151
0.0016911171 -0.027682176 -0.010735134 -0.042357642 -0.06458601 -0.041903723 -0.06466683 -0.005988722
-0.01631344 -0.064408526 -0.06868236 -0.04833831 0.0040580397 -0.0012740943 -0.0059895515 0.018775031
-0.04751565 -0.010163844 -0.029474925 -0.02634836 0.024896108 0.042248465 -0.050231203 -0.01730314
-0.0019313426 3.638212e-05 -0.025959771 -0.05065061 0.0027535714 0.010174996 0.024496501 -0.010053784
-0.03466107 0.0010846581 0.016841283 -0.0097185075 0.021795526 -0.026536938 0.056110967 0.05689699
0.03226063 -0.08267091 -0.12290697 -0.056476165 -0.030036533 -0.015899783 0.034424476 0.020361504
-0.01419719 -0.02209673 -0.02127761 0.019984376 0.010078107 -0.020261414 -0.036308333 -0.01946489
-0.03623258 -0.047142804 -0.045188386 -0.015200274 0.004893447 -0.007888672 -0.0047193486 -0.030087765
0.012173738 0.0011645277 0.04933482 0.0005497972 -0.009523593 0.006425145 -0.05036027 1.8961954e-11
-1.9960455e-11 -1.430566e-10 -1.1791325e-10 -2.4371592e-11 -5.193666e-11 7.863682e-11 -6.7022145e-11 -2.5230077e-11
-9.477549e-11 -2.78478e-10 -1.9718897e-10 -1.9740415e-10 -2.2123864e-10 -1.7448656e-10 -5.05661e-10 -3.3512718e-10
-2.8285274e-10 -3.1774594e-10 -2.9667127e-10 -3.576185e-10 -1.3315703e-10 -3.066223e-10 -2.2429178e-10 -6.545901e-11
7.979217e-10 -1.5992914e-10 5.39057e-10 2.5078933e-10 1.7719348e-10 7.325306e-10 -2.257629e-10 4.3913714e-10
2.6350314e-10 2.4456664e-10 4.0514142e-10 -2.730599e-10 4.2063777e-10 2.4115673e-10 1.713328e-10 -8.061087e-11
-8.0641943e-10 7.965741e-11 -1.9047133e-10 -1.3367055e-10 1.13460456e-10 -5.96805e-10 5.1414184e-10 2.3605534e-11
1.4776412e-10 -0.015274966 -0.025406051 0.008675978 0.053664166 0.037817862 -0.039703704 -0.008988366
-0.0020807115 -0.007982288 -0.0067239394 -0.047831606 0.022272939 0.021765664 0.01719179 -0.0038425853
-0.039414976 -0.016470201 -0.01900297 -0.016666014 -0.037970193 -0.036263343 -0.0039983573 -0.031705413
0.00746891 0.0051527433 0.013375197 -0.013705172 0.04831662 -0.0038416488 0.008392674 0.010878272

module.residual_layers.0.0.bn1.weight f4 [32]
00000000: 53a4 b03e 22c1 ba3e 4b94 dc3e 8864 bc3e
00000010: b788 c93e 43f4 993e ca33 be3e 160c c43e
00000020: addd ce3e 315d bb3e f6cf d23e 9620 cd3e
00000030: d76e b83e 017e b73e 3531 b93e b03d ab3e
00000040: 23d2 d33e 69bd b13e 65f6 cf3e 3afc df3e
00000050: cebb c53e c34e ba3e 2daa c13e b3ad b03e
00000060: 7cc9 bc3e 5833 df3e dd85 b53e 8f31 cc3e
00000070: 3a30 c03e 0806 ba3e e904 d43e 3126 aa3e
0.3450037 0.36475474 0.4308189 0.3679545 0.39362118 0.3006917 0.37148887 0.3829047
0.404035 0.36594537 0.41174287 0.40063924 0.36022064 0.3583832 0.36170354 0.334455
0.4137126 0.3471482 0.40617672 0.4374712 0.38619846 0.36388215 0.37825146 0.34507522
0.3687247 0.4359386 0.35453692 0.3988156 0.37536794 0.36332726 0.41409996 0.33232263

module.residual_layers.0.0.bn1.bias f4 [32]
00000000: 584e 78bd e4a0 07be 892a 3cbe 2b73 4ebe
00000010: 556d 89be e935 05be 3986 41be d8c6 6fbe
00000020: 6e55 85be df85 1fbe 0a11 9bbe a219 35be
00000030: 3a3c 02be 8294 98be 78a0 11be 695f 42be
00000040: af71 5cbe 468c 08be 62e7 10be 4b6e 3abe
00000050: ebee 84be b69b abbd d1e8 63be a6a6 52be
00000060: bc07 84be 07aa 54be 9c5f 37be 7ab0 7bbe
00000070: 56e5 a7bd 0b2b 51be dad3 c1be 7415 2bbe
-0.06062159 -0.13244969 -0.18375601 -0.2016112 -0.26841226 -0.13008846 -0.18898858 -0.23415697
-0.2604174 -0.15578412 -0.30286437 -0.1768556 -0.12718287 -0.29800802 -0.1422137 -0.18981709
-0.21527742 -0.1333476 -0.14150766 -0.18206136 -0.2596353 -0.08379309 -0.22256781 -0.20571384
-0.2578715 -0.20767985 -0.17907566 -0.24579039 -0.08198039 -0.20426576 -0.37856942 -0.16707402

module.residual_layers.0.0.bn1.running_mean f4 [32]
00000000: f427 77be 043e 86be b079 d4be 5830 78bd
00000010: 96d0 babd 2516 c7bd 6db0 09be 7d4e 63be
00000020: cdda f6bd 1771 4bbd 5423 4abe b7ed 97be
00000030: 9025 60be 8219 52be ad02 49be 80b2 9b3e
00000040: 643a 59be 0170 50be e9b1 60be 82df 55be
00000050: 939e 9abe 8d06 1dbe a726 01be 146b 15be
00000060: 4a8d 29be 07e3 d8be a40a 0abe f519 19be
00000070: 779a efbd 4b23 f3bd 15d7 1abe 0bb4 adbd
-0.24136335 -0.2621919 -0.4149909 -0.06059298 -0.09121816 -0.097210206 -0.13446207 -0.2219791
-0.12053452 -0.049668398 -0.19740039 -0.2967355 -0.21889329 -0.20517543 -0.19629927 0.30409622
-0.2121368 -0.20355226 -0.21942867 -0.20886043 -0.30199108 -0.1533453 -0.12612401 -0.14591628
-0.16557804 -0.42360708 -0.13480622 -0.14951308 -0.11699384 -0.11871966 -0.1512111 -0.08481606

module.residual_layers.0.0.bn1.running_var f4 [32]
00000000: 5384 593d 9494 1e3d 98aa 833d f907 f03c
00000010: ebb2 533d 6576 0b3d 8908 163d b9ca 633d
00000020: 61fc 503d 9dc6 a43d 9b8a 2e3d a9d4 6f3d
00000030: 72d6 2f3d 82c0 d23c b414 2e3d 976e 3a3d
00000040: c2f0 c53d bfbf 8b3d 36c5 7c3d 2e75 c93d
00000050: 185c 293d 6ab5 a73d 0545 453d f6a3 fe3c
00000060: 03f9 c53c abe2 3b3d c98d 813d 03ec 613d
00000070: ffe5 e93d 8228 273d 31ce 1e3d 3d05 0b3d
0.05310471 0.038715914 0.064290226 0.029300677 0.0516843 0.034048457 0.036629234 0.055613253
0.051021937 0.08045695 0.042612653 0.058552418 0.04292912 0.02572656 0.042500213 0.045515623
0.096650615 0.06823682 0.061711513 0.098368034 0.041347593 0.08188899 0.048161525 0.031084042
0.02416659 0.045870464 0.063258715 0.05515672 0.114208214 0.040810116 0.03877086 0.033940542

module.residual_layers.0.0.conv2.weight f4 [32, 32, 5, 5]
00000000: 9515 e9bc 42ad b73b ee28 b33b 23b4 e43d
00000010: 9b7b 2a3c 0e9b 53bd 6487 c93b e6aa 97bc
00000020: aa35 7f3d 8047 63bd d670 143d 68b4 d43b
00000030: 8989 c1bc 089b 8d3d 9710 83bc be86 11bd
00000040: e7a8 0ebd 118d 19bd c98b 553c 30be 4a3b
00000050: fa60 35bb 1514 193d 9307 543c b37f 753d
00000060: 2ef7 4dbd 3fd0 36bc 3950 68bc 1c10 05bd
00000070: bf43 5ebd ed52 003d 0810 463d 907b 233a
00000080: 2655 c8bd 303f 1d3c 37d6 5d3d b729 e7bc
00000090: a0a4 30bd 2dfe 093c e52d a5bc 70b2 f8bb
000000a0: b0c2 e1bc 87b2 13bd d9e8 be3b cfb3 1ebd
000000b0: 4c99 24bc 82e5 ed3c 01d4 9039 4bee 843c
000000c0: c4fd c5b9 845d a03a fb85 55bd cd5e abbd
000000d0: e796 233d fbc9 cd3c bf53 953c f310 0bbd
000000e0: 8441 38bd c5cb 2ebd e273 49bc 7580 0c3d
000000f0: 3252 a9bd 5993 8ebc a566 6dbc b216 09bd
00000100: af1e 81bd bf47 1ebd c3e8 0abd aa0e 96bb
00000110: badf 2ebd 9cd9 eebd b0af 2abc 8bf1 9ebd
00000120: 985c 64b7 a7ec 093d 75fb 99bd 250f ce3c
00000130: 68da 9b3c e1f6 b73c 893d 853d 9c1c 9b3b
00000140: 75cd 403d f511 463c 5079 97bc fa31 95ba
00000150: be06 8d3c eaa3 d3bc e00a 503c 0e96 9f3c
00000160: f267 a03d fa91 d83d 9c52 9fbc 28bb d0bc
00000170: b4de 5fbb 1f83 bebb bb8a e03c dde4 27bd
00000180: 37c2 29bd 83cb 85bd 2f28 87bd 2eb2 85bd
00000190: c53f 7b3d df8d 59bb d834 6ebd 9158 23bd
000001a0: eb2f 19bd b4ee e3bc d436 d0bc 3530 c7bc
000001b0: 71ad c5bd ab1c 443c 676d 9ebc fdb9 2d3d
000001c0: ae3b 693c da76 2f3d e946 82bd 8007 7fbd
000001d0: 4b45 383c bc07 94bd 1d06 eabc 2b6a 94bd
000001e0: 7e1e a4bc 53c8 aebd 5796 98bc cfbd 63bd
000001f0: bb46 c7bd a539 56bd 17dd d13c 2e5c e0bb
00000200: 3876 1cbd 1139 173d b61f 8c3d 3687 0ebc
00000210: c83f 7f3d b0ae 193d da6b bd3c 5f15 493d
00000220: 4764 b23c f8db b03d 8f10 f5bc 0073 f4bc
00000230: 3179 ae3c 8334 4ebd 1165 a5bc 9c99 ce3b
00000240: 1aeb 323d 55b3 553c 955b 4fbd 45e0 86bb
00000250: 6b5a 93bb 69a6 9e3d f1d4 9cbd 0294 8dbd
00000260: 3081 84bc 9823 40bd d164 79bd 4630 26bd
00000270: 8f9f f83c 678d 4abd 76c6 87bc 840f 17bd
00000280: a4ba 12ba a7ba 8e3a 04ee 703b e04f e83c
00000290: 20b7 5d3d c423 14bd 9bb7 09bd 4fe1 9f3b
000002a0: ab81 b53c fb51 9dbc e220 573d 149c 633a
000002b0: 60a1 463c d134 9b3c 0600 6d3c e5ea ce3c
000002c0: 3369 f33b 3e01 13bc 6309 5bbd cebe 233c
000002d0: 4121 8abc 26a1 723c fc1a b83c 2691 46bd
000002e0: f021 66bc 72a6 68bd 9521 643b 3398 3d3d
000002f0: 2693 e9bb 594e b8bc 6d98 643d f06d 093d
00000300: cf19 0c3b 546c 933d 0f01 f23b 7be5 243c
00000310: 1d5a 943c 8940 163b 61a8 66bb 181f 0abb
00000320: f622 2ebd 7ef3 8abc 6dae dc3d ab58 b9bc
00000330: 1c22 563b 6372 b13c d6f2 51bd a6fa 27bd
00000340: 0aca e8bc 26ee 443d 180c dabc 17dd d9ba
00000350: 911c 393d d7b6 133d 6435 4b3d 09aa f63c
00000360: 9cef 17bb 22e1 b03d d3ba 07bc c91d fe3c
00000370: 7335 8e3d 1274 cf3c a47b aa3d c9e7 023e
00000380: dbe3 84bc 694b 883c 1b46 103b 27e1 513c
00000390: 5fea 76bd 9a8a 943d f166 273d 9e14 c8ba
000003a0: fd95 b3bd add6 48bd 4e0e 5ebd 5519 08bd
000003b0: 40f9 a3bc adbd a33b dc1b 8dbc 312e ae3d
000003c0: 4653 6f3c dc4f 4e3d 9b2f b93d b4ae 833d
000003d0: 81bd ad3d b801 b2bc 6ea7 083e c349 0abd
000003e0: 43f4 ac3d 9d43 0ebc 686b 57bb bc19 483d
000003f0: 53af a33c 1d65 dabc f1cc 033d 9cca 103c
-0.028452674 0.0056053707 0.0054675257 0.11167171 0.010405446 -0.051661544 0.006150173 -0.018514108
0.062307037 -0.05548811 0.03624042 0.0064912327 -0.023625152 0.069143355 -0.015999122 -0.03552889
-0.034829047 -0.037488047 0.013033816 0.0030936114 -0.002767621 0.037372667 0.012941259 0.059936237
-0.050284557 -0.011158048 -0.014179283 -0.032486066 -0.054263826 0.031329084 0.048355132 0.0006236369
-0.09781866 0.009597585 0.05415937 -0.028218133 -0.04312575 0.008422417 -0.020163486 -0.007589631
-0.027558655 -0.03605893 0.0058260974 -0.038745698 -0.010046314 0.029040102 0.00027623776 0.016226908
-0.00037763838 0.0012234901 -0.052129727 -0.08367691 0.039938834 0.025120726 0.01822841 -0.03395171
-0.044984356 -0.0426748 -0.012295695 0.034302194 -0.08267631 -0.017404245 -0.014489804 -0.03346891
-0.063046806 -0.03864264 -0.033913385 -0.004579385 -0.04269383 -0.116625994 -0.010417864 -0.077609144
-1.3611418e-05 0.033672955 -0.07518665 0.025153706 0.019025043 0.022456588 0.065058775 0.004733635
0.04707094 0.012089242 -0.018490463 -0.0011382692 0.017215129 -0.025834996 0.012697905 0.019480731
0.07832326 0.10574718 -0.01944857 -0.025479868 -0.003415984 -0.0058139707 0.027409902 -0.040989745
-0.041444983 -0.065329574 -0.06599461 -0.06528126 0.061340112 -0.0033196134 -0.058155864 -0.039879385
-0.037399214 -0.027823783 -0.02541677 -0.02431498 -0.09652222 0.011969726 -0.019339276 0.0424137
0.01423542 0.042837955 -0.06361181 -0.062263012 0.0112469895 -0.07228038 -0.028567368 -0.072468124
-0.020034071 -0.085343026 -0.018626375 -0.055600937 -0.09730288 -0.052301068 0.02561812 -0.006846926
-0.03819868 0.036919657 0.06841986 -0.008699229 0.062316686 0.03752011 0.023122717 0.049092647
0.021776332 0.08635706 -0.029915122 -0.029839993 0.021298023 -0.050343048 -0.020189794 0.0063049328
0.04368124 0.013043244 -0.05062445 -0.0041160905 -0.0044968626 0.07746584 -0.07657803 -0.06912996
-0.016174883 -0.046908945 -0.06088716 -0.04057338 0.030349521 -0.049451258 -0.016574126 -0.03688003
-0.00055972696 0.0010889367 0.0036762962 0.0283584 0.05412972 -0.03616692 -0.033622365 0.004879154
0.022156557 -0.01920413 0.052521594 0.000868262 0.012123436 0.018946083 0.014465338 0.02525849
0.007428312 -0.008972464 -0.05347575 0.009994222 -0.01686156 0.014808929 0.022473805 -0.048478268
-0.014046177 -0.05679936 0.0034810056 0.046287727 -0.007128137 -0.022498297 0.055809427 0.03355211
0.0021377688 0.07198396 0.00738538 0.010064478 0.018109376 0.002292665 -0.0035195576 -0.0021075662
-0.04251381 -0.01696181 0.107754566 -0.022625288 0.003267414 0.02166099 -0.051256977 -0.04101052
-0.028416652 0.04807868 -0.026617095 -0.0016621676 0.04519326 0.03606304 0.049611464 0.030110376
-0.002318359 0.08636691 -0.008284288 0.031020062 0.069437884 0.025323901 0.08324364 0.12783732
-0.016221931 0.01663752 0.0022014442 0.012810028 -0.060282107 0.07252999 0.040869657 -0.0015264933
-0.08768842 -0.049032856 -0.05421286 -0.033227284 -0.020016313 0.0049969763 -0.017225198 0.08504904
0.014607256 0.05036913 0.09042283 0.06429806 0.084834106 -0.021729335 0.1334512 -0.03376175
0.08445027 -0.008683112 -0.0032870416 0.048852667 0.019981062 -0.026659543 0.03217787 0.008837368

module.residual_layers.0.0.bn2.weight f4 [32]
00000000: 10a4 f63e 3153 bd3e 238c de3e ad0f 143f
00000010: 996e f63e 96a4 dc3e 5d2e 033f 2d02 fe3e
00000020: 3b5a cb3e f309 d23e b01b 023f d87b f13e
00000030: 81b3 dd3e ec97 ce3e 5270 d23e 96e2 f43e
00000040: 618e d43e e60f bf3e 0e02 e13e db33 e43e
00000050: 5dd6 e83e 9722 d13e 5849 013f 4010 e03e
00000060: f682 f33e 157c e33e 9b28 fe3e 4240 dc3e
00000070: 9738 cb3e 0edd d53e 0f14 b73e 4e10 d73e
0.48172045 0.36977533 0.4346629 0.5783642 0.48131254 0.4309432 0.5124262 0.49611035
0.39717278 0.41023216 0.508235 0.47164798 0.43301013 0.40350282 0.4110132 0.4782912
0.41514876 0.37316817 0.4394688 0.44570813 0.45476046 0.40846702 0.5050254 0.43762398
0.47560853 0.44430605 0.49640355 0.43017775 0.39691612 0.41770214 0.3575749 0.42004627

module.residual_layers.0.0.bn2.bias f4 [32]
00000000: 44ed 86be 898b e3bd 16ea c4be ac74 9cbe
00000010: b602 6ebe ecb4 89be 83ca 77be 0f58 47be
00000020: 5960 15bd c63a 93be f4ea c2be 528c 10be
00000030: 5963 efbe e175 b8be d3f4 80be 4a31 abbe
00000040: 0189 90be 6c1b 77be 7a14 01be 05a4 3ebe
00000050: eb74 f3be 5749 89be 5e75 8abe f03a a2be
00000060: 58e1 4abe ce89 a4be 397c 76be 6b5f 59be
00000070: 848a 36be 6cf1 a5bd 5a6d 97be 5188 88be
-0.26352894 -0.111105986 -0.38459843 -0.30557764 -0.23243222 -0.26895845 -0.24198346 -0.19467185
-0.036468837 -0.28755778 -0.3806988 -0.14116028 -0.46755484 -0.36027434 -0.25186786 -0.33436042
-0.28229526 -0.24131554 -0.12605467 -0.18617256 -0.4755014 -0.26813766 -0.2704267 -0.3168559
-0.19812524 -0.32136387 -0.24070825 -0.21227805 -0.17826277 -0.08102688 -0.29575616 -0.266665

module.residual_layers.0.0.bn2.running_mean f4 [32]
00000000: 19a7 30be 070a 2ebe 0bfc 88bd 959a a1be
00000010: b961 4cbe d2c9 87be 0221 82be 8fbe 98be
00000020: 5a1b 49be 9c5a 1abe 30a5 2fbe 7a80 6fbe
00000030: 804d 50be f7af 203d b8ff 1cbe bbab 3bbe
00000040: af63 16bd 3ede b3bd 590b 41be 63dc 3fbe
00000050: 107c 06be c2c3 dcbd 3809 49be 7bfb 9dbd
00000060: a32c 5ebe e06a bbbd 0ec6 63be 0448 72be
00000070: a27c c8bc 9ee3 2cbe 10e7 dbbd b8e5 f5bd
-0.17251243 -0.16996013 -0.066886984 -0.3156325 -0.19959153 -0.26521164 -0.25415808 -0.29832885
-0.1963934 -0.15073627 -0.17152858 -0.23388854 -0.20342064 0.039230313 -0.15331924 -0.18327229
-0.03671616 -0.08782624 -0.18851985 -0.18736415 -0.13133264 -0.10779525 -0.19632423 -0.07713982
-0.21696715 -0.09151244 -0.2224352 -0.23660284 -0.024473492 -0.16883704 -0.10737431 -0.12006706

module.residual_layers.0.0.bn2.running_var f4 [32]
00000000: 64e0 bf3d 8a6a a93d 301b a43d 1777 023e
00000010: 9b3e ac3d 179c a33d 068a d03d 9820 de3d
00000020: 5aa8 e83d 5d34 963d e943 ce3d c428 ed3d
00000030: 6411 973d 4d22 7c3d 2e79 9c3d 8df1 ba3d
00000040: 0b21 933d 24ae 923d 2eab b53d 2a42 bd3d
00000050: 8851 933d 430a 943d 4725 e43d 400d ae3d
00000060: dbdc f13d 5352 a03d d47e e03d c051 b93d
00000070: 27ba ad3d 0b69 cd3d 48de 7c3d 8611 9a3d
0.09368971 0.08272274 0.08012998 0.12740742 0.084103785 0.07988756 0.10182576 0.108460605
0.113602355 0.07334206 0.100715466 0.11580041 0.07376364 0.06155615 0.07640301 0.091281034
0.07184037 0.07162121 0.088705406 0.092411354 0.07193285 0.0722852 0.111399226 0.08498621
0.11809703 0.07828202 0.109616905 0.09048796 0.08482771 0.10029801 0.06173542 0.075228736

module.residual_layers.1.0.conv1.weight f4 [64, 32, 5, 5]
00000000: b088 9c3d d2ac 9fbc 3ac0 b1bc 0544 cabc
00000010: 7e2e 01bd 33d2 b6bc ac69 243d bba3 e7bc
00000020: 889a 973c 130f 0cbd 7f91 abbc 8a30 4dbd
00000030: fbc8 3ebb aabd 39bd de2e 7a3c b0b5 96bb
00000040: 20cf b13c 48b7 73bd f373 223d a6b3 0b3d
00000050: 1366 86bd e652 ddbc 3ace 70bd ef39 93bb
00000060: 0d81 703d 91c7 9cbc 95cc bcbc 3c9e 98bd
00000070: b48e 9c3c 140a 55bd 5426 1abb 01ad 06bc
00000080: 262a 193b aaf9 8abd 4675 c43b 58fd d23c
00000090: d729 0a3d 05e7 ce3c c987 9d3c 259b 1c3d
000000a0: 5363 cd3d 20f9 683d fd07 823b 19f9 cc3c
000000b0: 0ac1 373b f1c4 5f3d e809 2fbb ef18 28bd
000000c0: ce41 fbbb d816 973d ed95 61bc f3c6 2b3c
000000d0: 3542 69bc bec3 323b f498 993d 4d67 8d37
000000e0: 7adb 01bc ac87 0dbd 20c7 ea3b a2cf 143a
000000f0: 1237 29bc f03b e7bb 0968 2c3c cc11 dcbc
00000100: 6ae7 e93d b934 9c3c 1043 e73c e16c d8bc
00000110: 2fb4 4ebd 5046 51bd b6b7 963c 5e9e 473d
00000120: 5d05 6d3c 1700 24bd 559b 043c 7900 6abc
00000130: 9c3b adbc df9c 02bd 1c48 9ebd a7b2 45bd
00000140: 11f4 debc df99 78bd d856 d8bc 261d febd
00000150: 0f78 c4bc e8d0 d3bb a108 96bd 5dcf 553d
00000160: 27d8 8ebc 3626 febb 3c1e 7dbc b8ce 37bd
00000170: 2483 0d3d 743b 2abc 19a0 553b 3a50 cebc
00000180: 4557 24bc deb2 02bd 13ad 823c 869f 913c
00000190: 0f3b 7bbd ef7f 2ebd 8422 36bd 2497 cd3c
000001a0: d482 1abd 5912 90bd 93cd 53bd 329c b9bd
000001b0: 6bb6 0dbb 6d6a d03c fa6e dfbb 9de4 413c
000001c0: 8255 773c 1762 193c c4e9 f03b 3ae5 10bd
000001d0: a106 243d 4672 91bc 318f 85bc 66ca 1d3d
000001e0: cddd 2c3c 2c20 ffbb 925a cd3c 394c 3c3c
000001f0: 49df 95bd 9c28 2b3d 57ef 15bd 3cae 10bd
00000200: 6c2b 17ba 17ab 18bd 5a4f a43d 29e3 4e3d
00000210: 8954 793c e574 ffbc a9f8 e3bc c758 cebc
00000220: 71d4 b33d 6d19 853d c1a7 483d 4435 5fbd
00000230: 31d9 213d cab3 5e3d 0d66 0bbb 3a0d 203d
00000240: 60ba 593c e3eb edb9 50cb b3bc 57cf 9f3c
00000250: f4e8 6c3c 6b9f 9d3d b058 94bc f9fc b83c
00000260: 30d0 2fbc 1242 01bc 99e2 013c 4713 b2bc
00000270: 3b5e bd3a f54a 243c efb6 433d ca59 f93c
00000280: 6770 5abd 7450 2fbd eb53 5e3d ee92 33bc
00000290: 114a 2fbd f489 37bd a21b 053b 3d0e 7bbc
000002a0: 7d48 053c 029c 1f3c 531f bdbc 3272 9e3c
000002b0: e903 59bc 4a50 943d f1df 01bc 5826 b1bc
000002c0: 079e fbbc e482 0fbd 872c 073c 50c9 96bd
000002d0: 1c76 87bd c34e 4cbd 9378 91bc 7c24 3cbd
000002e0: 8e6c 88bd 5167 87bd 34bf d5bc 15da 21bd
000002f0: b8e9 5c3c bf58 09bd 9b40 d9bc 92bd 04bc
00000300: ba57 10bd 522b c63c cc52 903c 1b0e 5f3d
00000310: 8f94 ffbb 0321 fdbc 32bc efbb 22f9 4abc
00000320: 9d49 78bd bcd1 2bbc d448 953c 55af 7cbd
00000330: abed 673c c429 9dbd dc4d 90bd 2dc9 5dbd
00000340: 74eb 573d 59bb 8e3c 827d 953c fcdc b7bc
00000350: 67c6 d2bc b96e 023d a9ec 2f3b efb3 0b3c
00000360: 02d2 9abc ef66 1e3d e581 a23c 823d 0b3d
00000370: 637f 7a3d 8503 9dbd 654d 853d a3ca 10bd
00000380: 7f09 1cbc 2dc0 383c 6bc6 36bc 2d4c 243d
00000390: a812 16bd f20a 5b3d 8c0a 86bc c361 60bd
000003a0: 9e34 133d fd0d babc e4c7 03bd 4dde 1fbd
000003b0: 4734 adbc 35d8 0a3c 6245 7fbc ecc0 5f3d
000003c0: 86f4 39bc 73d1 07bd f012 023d b557 7fbc
000003d0: 16b3 3f3d 17d8 c03c 881b 6ebd fcfa 8dbd
000003e0: 023f 57bc 7a0e c4bc 75fd f1bc 7810 3a3d
000003f0: 210a 5ebd 65bb 6f3b 859b cebb 36aa b5bc
0.076432586 -0.019491587 -0.021698106 -0.024690637 -0.03153848 -0.022317028 0.04013984 -0.028276315
0.018506303 -0.034194063 -0.020943401 -0.05009512 -0.0029111493 -0.045346893 0.015269963 -0.0045992956
0.02170521 -0.059500962 0.03966136 0.034106873 -0.06562438 -0.027017068 -0.058790423 -0.00449299
0.058716822 -0.01913813 -0.023046771 -0.07452056 0.019111015 -0.052011564 -0.002352138 -0.008219958
0.002337107 -0.06785901 0.0059954254 0.02575557 0.033731308 0.025256643 0.019229786 0.038233895
0.1002871 0.05687821 0.0039682374 0.025021123 0.0028038644 0.054631177 -0.0026708785 -0.041039404
-0.0076677566 0.07377404 -0.013768655 0.010484445 -0.014236976 0.0027277316 0.074998766 1.6856613e-05
-0.007925862 -0.034553215 0.007164851 0.00056766917 -0.010328071 -0.0070567057 0.010522851 -0.026863955
0.11421092 0.019068109 0.02823022 -0.026419105 -0.050464805 -0.051092446 0.018398147 0.048735015
0.014466611 -0.04003915 0.008093675 -0.014282339 -0.021146588 -0.031887885 -0.077285975 -0.04826608
-0.02721599 -0.060693618 -0.026408598 -0.124079034 -0.02398303 -0.0064641126 -0.073258646 0.05219971
-0.017437054 -0.00775602 -0.015449103 -0.044874877 0.034548894 -0.010390151 0.0032596646 -0.02518474
-0.010030572 -0.031908862 0.015951669 0.017776262 -0.06133562 -0.042602476 -0.04446651 0.025096484
-0.037722424 -0.070347495 -0.051709723 -0.09062995 -0.0021623622 0.025441373 -0.0068186494 0.011834291
0.01509607 0.009361765 0.007352086 -0.035374857 0.040045384 -0.017754685 -0.01630363 0.0385231
0.010550928 -0.0077858176 0.025067601 0.011492782 -0.07317979 0.041786775 -0.036605205 -0.035322413
-0.0005766663 -0.03727254 0.080229476 0.050509606 0.015217909 -0.03118367 -0.027828531 -0.025188817
0.08780754 0.0649899 0.048988108 -0.054494157 0.03951377 0.05437068 -0.0021270544 0.039075114
0.013289064 -0.00045379912 -0.021947533 0.019508047 0.014459837 0.07696422 -0.018108696 0.022581564
-0.010730788 -0.007889288 0.00792756 -0.021737708 0.0014447639 0.010027637 0.04778188 0.030438323
-0.05332985 -0.042801335 0.05427925 -0.010960324 -0.042795245 -0.044809297 0.002031066 -0.015323219
0.008134958 0.009741785 -0.023086226 0.019341562 -0.013245561 0.072418764 -0.007926927 -0.021624729
-0.030715002 -0.035036936 0.008250362 -0.07362616 -0.066143245 -0.0498798 -0.01775769 -0.04593323
-0.0666133 -0.06611503 -0.02609215 -0.03951462 0.013483457 -0.0335319 -0.026520064 -0.008101838
-0.035239913 0.024190579 0.017617606 0.05445681 -0.007799692 -0.03089953 -0.007316136 -0.012388499
-0.060617078 -0.010487016 0.018223204 -0.061690647 0.014155786 -0.07673982 -0.070461005 -0.054146934
0.05271478 0.017423319 0.018248323 -0.02244424 -0.025729371 0.031843875 0.0026843941 0.008526786
-0.018898968 0.038672384 0.01983733 0.033994205 0.06115664 -0.07666687 0.065089025 -0.0353495
-0.009523748 0.011276287 -0.011155705 0.04011171 -0.036638886 0.053477235 -0.016362451 -0.054780733
0.03593885 -0.022711748 -0.032173052 -0.039030362 -0.021143092 0.008474399 -0.015580507 0.054627344
-0.011349803 -0.03315873 0.03175634 -0.015584876 0.04680165 0.02354054 -0.058131725 -0.06932637
-0.013137581 -0.023932684 -0.029539803 0.045425862 -0.05420888 0.0036580202 -0.0063051605 -0.02217589

module.residual_layers.1.0.bn1.weight f4 [64]
00000000: 5f2b a03e 2082 8f3e c38f 923e 1ad3 443e
00000010: 5bed 563e b869 a73e e6f9 a33e 78b9 993e
00000020: a0c2 9e3e 6b25 853e 432b 943e 8b9d 933e
00000030: ffd8 c53e cf0d ab3e cace af3e 4903 793e
00000040: c907 a43e cd98 963e 5ca5 bf3e 1fe0 a03e
00000050: e9b5 963e 8b3b a73e ad0c a23e 1adc 943e
00000060: e5bd 953e a3fa ab3e cfb5 a43e cf78 973e
00000070: 3950 c23e 3e37 873e 446f 883e ae8a af3e
00000080: aa50 9d3e 5686 9b3e f6ff 8c3e f807 9e3e
00000090: 2579 b83e 2056 983e 966a 923e fda3 993e
000000a0: e924 b63e cf42 903e 7a04 a03e 5a84 c83e
000000b0: 4f68 a33e 81e8 803e fe2d a23e f5d7 9e3e
000000c0: 7968 a13e 8e51 953e fc3f b53e c9ee 8a3e
000000d0: 9742 6a3e 48e3 8f3e 6373 723e 6f63 a13e
000000e0: be16 913e 94ec b63e aa83 973e f65c 893e
000000f0: f2b5 8a3e d560 7a3e 7c43 a23e 19cf 8d3e
0.3128309 0.28028965 0.28625306 0.19221154 0.20988981 0.32697845 0.32026595 0.30024314
0.31007862 0.2600511 0.28939256 0.28831133 0.38642117 0.33408973 0.34337455 0.2431766
0.3203719 0.29413453 0.37430847 0.3142099 0.2943566 0.32662615 0.31650296 0.29074174
0.2924644 0.33589658 0.3216996 0.29584357 0.3795183 0.26409334 0.2664739 0.34285492
0.30725604 0.30375928 0.27539033 0.30865455 0.36029926 0.29753208 0.28596944 0.30007926
0.35575035 0.2817597 0.31253415 0.39163476 0.3191552 0.25177386 0.31675714 0.31024137
0.3152502 0.29163784 0.3540038 0.27135304 0.22876965 0.2810309 0.23676829 0.31521174
0.28337663 0.3572737 0.2959264 0.26828736 0.27091938 0.24451001 0.31692111 0.27697065

module.residual_layers.1.0.bn1.bias f4 [64]
00000000: 8897 dfbe cd1a c3be c7d9 adbe 2ad0 77be
00000010: ecda 91be 471b 03bf 8603 e4be fea4 e7be
00000020: a736 debe d58d b5be fd4b e0be a73b a4be
00000030: c1ac 35bf cbdb c6be b233 0ebf 8da7 9dbe
00000040: 782d f4be 6f88 b2be 85be 23bf a0ef dbbe
00000050: f624 ccbe 79e8 d6be 3f14 ccbe 06d9 c4be
00000060: 6aab cdbe f5dc 0cbf 2500 cbbe 4c2c cdbe
00000070: 956b 17bf 0ec3 b0be fe65 a3be e068 0bbf
00000080: 4c89 09bf 13e4 d0be 1ebd b7be 91a2 00bf
00000090: df9b 22bf 1e35 cdbe 726a d2be 2757 afbe
000000a0: c212 14bf 0f6a c0be 6ba5 d8be 3d04 23bf
000000b0: a0df d0be 65af 89be c03d 08bf d03b d1be
000000c0: 3663 d7be 32d9 a7be 5469 1dbf 0f71 abbe
000000d0: b994 b0be 309b a0be eee2 91be 8b7f d9be
000000e0: 6dfb f9be 785c 20bf 864b b5be 5041 adbe
000000f0: e4c2 c9be 3314 8ebe 1140 e7be 6f6d cbbe
-0.43670297 -0.38106385 -0.33955213 -0.24200502 -0.28487337 -0.51213497 -0.44533938 -0.45243067
-0.4340107 -0.35459772 -0.43807974 -0.3207676 -0.70966727 -0.38839564 -0.5554763 -0.30791894
-0.4769094 -0.34869716 -0.63962585 -0.42956257 -0.3987195 -0.41974238 -0.39859197 -0.38446826
-0.4016984 -0.55024654 -0.39648548 -0.40072858 -0.5914853 -0.34523815 -0.3191375 -0.544569
-0.53725123 -0.40799007 -0.35886472 -0.50248057 -0.6351909 -0.40079588 -0.41096836 -0.3424618
-0.5784112 -0.37580916 -0.42313704 -0.6367834 -0.40795612 -0.26891628 -0.53219223 -0.40865946
-0.4206788 -0.32782894 -0.6148884 -0.33484694 -0.34488466 -0.313684 -0.28493446 -0.4248012
-0.48824635 -0.62641096 -0.35409182 -0.33838892 -0.39406502 -0.27749786 -0.45166066 -0.3973193

module.residual_layers.1.0.bn1.running_mean f4 [64]
00000000: 71e9 83be bf2d bfbe 6a1b bebe 5aae 35be
00000010: 6eba 74be 4185 d7be 840e e3be 53bd a2be
00000020: 150b d6be 6f04 bfbe 1532 6cbe 6298 a2be
00000030: be91 03bf 7074 d0be ab97 04bf 7962 8dbe
00000040: 8321 d5be 9fab 68be 251d 0dbf c625 e8be
00000050: 3264 bdbe d1af 0fbf f4d2 d3be 8a49 9fbe
00000060: 8745 c1be e753 ffbe f1b4 eabe aa7e adbe
00000070: cd5f 27bf 903d a4be 4d98 83be a216 d1be
00000080: 79f1 f3be 99ea c9be cffc dcbe 257d bfbe
00000090: 69ce 18bf 24a8 9fbe 4cf3 89be 52ec c5be
000000a0: e3a0 0bbf ee67 d2be 9dee b1be 296f 14bf
000000b0: 3ca4 e1be 0a0d cebe e50a f2be a194 eabe
000000c0: 35b5 7fbe 16fd 8ebe 03b4 0abf bb19 adbe
000000d0: 3ef3 98bd 769d 89be ddc9 82bd 10ad d0bd
000000e0: af08 79be a577 12bf a78d ccbe 2b0f 80be
000000f0: e9ac b9be 3ee4 b7be 9dbe 04bf 8619 f0be
-0.2576404 -0.3733959 -0.3713029 -0.17742291 -0.23899242 -0.42093852 -0.44347012 -0.31785068
-0.4180533 -0.3730807 -0.2306598 -0.31756884 -0.5139426 -0.40713835 -0.51793927 -0.2761419
-0.4162713 -0.22721718 -0.55122596 -0.4534132 -0.36990505 -0.5612765 -0.41371882 -0.31110793
-0.37748358 -0.498687 -0.45841172 -0.338857 -0.65380555 -0.32078218 -0.25702134 -0.4083758
-0.47645167 -0.39436796 -0.43161628 -0.37400165 -0.59689957 -0.3118297 -0.26943433 -0.3865686
-0.5454237 -0.41094917 -0.3475236 -0.57982117 -0.44070613 -0.40244323 -0.47273937 -0.4581652
-0.24971469 -0.27927464 -0.54180926 -0.33808693 -0.0746827 -0.26877946 -0.063861586 -0.10189259
-0.24319719 -0.57213813 -0.39951822 -0.25011572 -0.36264732 -0.35916322 -0.5185335 -0.46894473

module.residual_layers.1.0.bn1.running_var f4 [64]
00000000: 64a6 873d 1658 7e3d 4da0 5d3d 45f5 1b3d
00000010: a22b 213d 7a2b 783d 739b 853d dc30 833d
00000020: 8883 9a3d 3250 533d 5e89 563d 5c76 763d
00000030: e9de a43d 094f 823d b8a3 903d 6139 323d
00000040: acc9 7a3d a3c2 513d 2aa8 b53d 26f4 753d
00000050: 7789 813d 1b4f 8a3d a080 933d 7361 933d
00000060: 3199 863d ae95 7b3d 8d18 933d 14a8 713d
00000070: d995 ac3d 1a90 573d 5853 713d be7c 8c3d
00000080: 59b6 733d 6b63 723d 6acc 553d bee0 7b3d
00000090: ab7f b33d d00f 723d 4979 6e3d a786 8a3d
000000a0: cda1 9f3d 7005 5e3d c618 813d 6c03 cf3d
000000b0: b8e6 a63d c389 773d 2095 823d 1264 833d
000000c0: 493b 883d 2ea4 633d 3c37 953d dec9 6e3d
000000d0: 2550 fe3c 5917 833d 6728 253d bc8c 943d
000000e0: 8d02 6b3d 0f5c 973d d577 663d 092c 613d
000000f0: 38b9 573d e0c7 463d 4000 823d b6e3 713d
0.06623533 0.062095724 0.054107953 0.038075704 0.039348252 0.060588337 0.0652379 0.064058036
0.07544619 0.051590152 0.052377097 0.06017147 0.08050329 0.06362731 0.07062477 0.043511752
0.061227486 0.05121101 0.088699654 0.06004729 0.063250475 0.067533694 0.07202268 0.07196321
0.06572188 0.061422043 0.07182417 0.058998182 0.08427019 0.05262766 0.058917373 0.0685973
0.059500072 0.059176844 0.052196898 0.061493628 0.08764585 0.05909711 0.058221135 0.06763964
0.07794533 0.054204404 0.06303553 0.101080745 0.08149475 0.060434114 0.063760996 0.06415571
0.06651933 0.055576496 0.07285926 0.058297984 0.031044075 0.064009376 0.040321734 0.072534055
0.05737548 0.07390606 0.056266624 0.054973636 0.052666873 0.04853046 0.06347704 0.059055053

module.residual_layers.1.0.conv2.weight f4 [64, 64, 5, 5]
00000000: 1040 0d3b d5f8 14b9 7768 3839 50a2 0e3a
00000010: 4a8e 09bb cc75 ff3a d7c6 213b f7f4 073b
00000020: 7d6e 5e3b 791b a439 9c0c 6b3a da7a 0cba
00000030: 8457 eeb9 e7d9 463a c92a 6aba 57d8 9eba
00000040: 73cb 9eba 7ea5 3bba bf56 88ba 4257 1bbb
00000050: cf76 e2b9 29fb d939 e6a9 00b9 9956 54ba
00000060: 2f7b 0dbb 1666 77bb 7470 42bb e786 86bb
00000070: 43cd 41bb a3d3 54bb 1998 97bb e305 3dbb
00000080: bfa7 7ebb 4168 32bb 96bb 40bb f82f b5bb
00000090: c1cc 3cbb b1c2 57bb be77 0bbb 109e 07bb
000000a0: 7ce1 92bb ee2f 1cbb 941d 71bb 1e8e f9ba
000000b0: c9c9 2ebb 4c4d a5bb b7d5 babb 01ac bdbb
000000c0: cc60 93bb 9fb6 debb 5691 53bc 52fe 41bc
000000d0: b1df 55bc 22b8 5abc 3e30 5ebc 912e 4abc
000000e0: 1096 3dbc 41e9 35bc d176 3dbc 5fed 31bc
000000f0: a226 45bc 051f 38bc b51c 46bc ccd5 39bc
00000100: e297 2fbc 07cd 4bbc b8cb 40bc e616 4dbc
00000110: ba99 3fbc 6dbe 40bc 6ba0 37bc 573f 32bc
00000120: cb3c 3ebc aa51 40bc 4b2c 2bbc d5da fbbb
00000130: 2a58 55bb 38e9 54bb 214f 99bb c470 a7bb
00000140: 0c6c e0bb 6f2f a2bb 8f90 88bb 6484 62bb
00000150: 1713 bdbb 6bf3 ddbb c63b f0bb c280 97bb
00000160: c068 c7bb d248 c8bb ba56 baba 36e2 f4ba
00000170: 6b70 0ebb 7170 5abb e58f b3bb 254e 57ba
00000180: 8095 a9bb deb2 b2bb e127 dfbb 76d8 d5bb
00000190: 5973 583c 872f 483c 5a9e 753c ea53 7a3c
000001a0: cdad 883c d822 5e3c 57de 5e3c da24 833c
000001b0: ea33 863c 7479 903c 441a 223c 854e 353c
000001c0: d514 443c 733d 4a3c fac4 773c bca0 323c
000001d0: 5dc7 503c 81bf 623c 13f5 673c 0a03 7b3c
000001e0: 3dea 583c 904f 443c bc9a 323c afd4 283c
000001f0: f107 403c 272c 32bc f791 38bc 1fb2 28bc
00000200: 9f19 13bc 071d 20bc c687 1ebc 7f1f 2bbc
00000210: 8219 0cbc efe6 0fbc 6ecf 27bc d2ff 1fbc
00000220: 0840 20bc 5582 0cbc 2cc9 01bc 8545 13bc
00000230: c2a5 1abc dd00 26bc 1c7e 0cbc bfd1 10bc
00000240: af57 1abc 3e49 0ebc 2be8 00bc 014a debb
00000250: 5608 e9bb 3790 17bc 72e8 1d3c 61ab 093c
00000260: a5a6 0d3c f1cb 313c 1def f93b d46c 283c
00000270: 426d 063c 0dea 0f3c 7c89 383c 5ff7 123c
00000280: 343d 243c fc63 fc3b a414 183c 0cef 3a3c
00000290: 72dd 2e3c c4df 2c3c b1d0 fa3b 7861 073c
000002a0: 7d6e 313c 8d75 293c d0fa 393c adc7 1f3c
000002b0: a87e 353c 727a 5c3c eee4 4b3c 1e70 b0bc
000002c0: b0b5 a7bc 1dc6 a7bc 09e0 afbc 3595 b4bc
000002d0: 398b a3bc 9e9a a0bc edd8 99bc 6f8b a6bc
000002e0: fd2e a8bc 66b4 9dbc 4de6 95bc 4d1d 91bc
000002f0: ee9b a0bc 974b 9dbc f375 99bc 6a25 91bc
00000300: 3492 93bc fe82 90bc e970 96bc 3969 95bc
00000310: cb27 9fbc c505 93bc 9ff1 96bc b324 92bc
00000320: e2df bdbc 480f bebc dfe5 c7bc 3ce5 c2bc
00000330: 5b9b efbc 80d8 b1bc da49 b1bc 850e b4bc
00000340: 6ec9 aabc 0237 cdbc 3505 bbbc b20c afbc
00000350: 0a36 a1bc d68a a4bc 9524 c7bc 2946 b1bc
00000360: 3f75 abbc adc1 a4bc 804c 9abc d725 bebc
00000370: ac09 b8bc f41f afbc 674d 9dbc 438d 99bc
00000380: 7c46 b3bc ef4f edbb 4a6c 18bc bfc2 1bbc
00000390: 868a 40bc 6262 2bbc 9324 96bb 32b1 d9bb
000003a0: 0ab6 d2bb ac6e 11bc e327 13bc e7e2 88bb
000003b0: 8bcd 7cbb fd8a ddbb e777 fdbb b9cc 16bc
000003c0: e2f2 a7bb 24ad babb 9b24 fdbb ddb3 02bc
000003d0: cb73 13bc 125a 94bb a3bf 9abb 8484 b6bb
000003e0: 28bc f0bb dd41 11bc 0ae4 a4bc c89d abbc
000003f0: 1911 a2bc d9d4 a2bc b19f a8bc 9053 96bc
0.0021553077 -0.00014207077 0.00017586524 0.00054410566 -0.0020989352 0.0019490062 0.0024685168 0.0020745376
0.0033940368 0.00031300986 0.00089664175 -0.00053588825 -0.00045460102 0.00075855706 -0.0008932767 -0.0012118918
-0.0012115076 -0.0007158144 -0.0010401829 -0.0023703133 -0.00043194598 0.00041576594 -0.00012270323 -0.0008100062
-0.0021588316 -0.0037750057 -0.0029669078 -0.004105437 -0.0029571808 -0.0032474778 -0.0046262858 -0.002884262
-0.0038857309 -0.0027222785 -0.0029408685 -0.0055294 -0.0028808566 -0.0032922442 -0.0021281089 -0.0020693578
-0.0044824462 -0.002383228 -0.0036791312 -0.0019039547 -0.0026670566 -0.005044615 -0.0057017463 -0.0057883267
-0.004497623 -0.0067966725 -0.012913069 -0.01184042 -0.0130538205 -0.013349565 -0.0135613065 -0.012340204
-0.011571422 -0.011102975 -0.011563973 -0.010859816 -0.012033137 -0.011237864 -0.012091805 -0.011342477
-0.010717364 -0.012439019 -0.01176732 -0.012517666 -0.011694366 -0.011764151 -0.01120768 -0.010879359
-0.011611174 -0.01173822 -0.010447572 -0.007685999 -0.003255377 -0.0032487642 -0.0046786224 -0.0051098783
-0.0068488177 -0.004949502 -0.0041676234 -0.0034563774 -0.005770098 -0.0067734024 -0.0073313443 -0.0046235034
-0.006085485 -0.0061121965 -0.001421652 -0.0018683139 -0.0021734487 -0.003333118 -0.0054798 -0.00082132436
-0.0051752925 -0.0054534515 -0.006810174 -0.0065260483 0.013211095 0.012218363 0.014991367 0.015278796
0.016684437 0.013558112 0.013602815 0.016008783 0.016382176 0.017636038 0.0098939575 0.011066084
0.011967857 0.012343752 0.0151226465 0.01090258 0.012742844 0.013839603 0.014157551 0.015320549
0.0132394405 0.01198186 0.010901149 0.010304614 0.011720643 -0.010874785 -0.0112652695 -0.010296374
-0.0089782765 -0.009772546 -0.009675926 -0.010444521 -0.008551003 -0.008783086 -0.010242326 -0.009765582
-0.009780891 -0.008575995 -0.007921498 -0.008988743 -0.009438934 -0.010132042 -0.008574989 -0.00883907
-0.009420319 -0.0086844545 -0.007867853 -0.0067837243 -0.0071115894 -0.009250692 0.009637939 0.008402676
0.008645688 0.010851846 0.0076273815 0.010279853 0.00820476 0.008783829 0.011263248 0.008970111
0.010024358 0.0077023488 0.009282265 0.011409532 0.010672914 0.010551397 0.0076542725 0.008262984
0.010829565 0.010342968 0.011351302 0.009752196 0.0110775605 0.013456928 0.012444718 -0.021537837
-0.020472378 -0.02048021 -0.021469133 -0.022043804 -0.019963847 -0.019604977 -0.018780196 -0.020330159
-0.020530218 -0.01925106 -0.018298293 -0.017714167 -0.019605603 -0.019201083 -0.018733 -0.017718036
-0.018014051 -0.017640587 -0.018364387 -0.01823865 -0.019428154 -0.017947087 -0.01842576 -0.017839765
-0.023178045 -0.023200646 -0.024401603 -0.023790948 -0.029248884 -0.02170968 -0.02164166 -0.02197958
-0.020848002 -0.025050644 -0.022829631 -0.021368358 -0.019679088 -0.020085733 -0.024309436 -0.0216399
-0.02092993 -0.020111883 -0.018835306 -0.023211403 -0.02246555 -0.021377541 -0.019201947 -0.018744117
-0.021884196 -0.007242195 -0.009303162 -0.00950688 -0.011751777 -0.010460468 -0.0045819967 -0.006643438
-0.006430392 -0.008876484 -0.008981678 -0.0041774395 -0.0038574662 -0.0067609535 -0.0077352407 -0.009204083
-0.0051253894 -0.0056969095 -0.007725311 -0.007977453 -0.008999775 -0.004527339 -0.004722552 -0.0055699963
-0.0073466487 -0.008865801 -0.020128269 -0.02094926 -0.019783543 -0.019876884 -0.02058396 -0.018350393

module.residual_layers.1.0.bn2.weight f4 [64]
00000000: fe26 a13f e47d 0540 b142 9a3f c0ca b63f
00000010: 20ef 3c3f 3d11 b63f 3270 ad3f 0eec 343f
00000020: d923 b63f 4a7d e03f 45e7 de3f 698b 9e3f
00000030: 6926 373f ae01 d33f 4342 993f 7ee1 8c3f
00000040: 2126 c43f b7d6 e33f fc66 e93f 90b2 8d3f
00000050: d576 963f 1b47 bc3f 73f4 8a3f 2585 713f
00000060: fbab 8e3f 4bd8 af3f 2424 763f adaf 283f
00000070: f187 5c3f 9e18 bf3f 4d74 8b3f 76a0 c43f
00000080: 9c38 8f3f 7735 513f 7941 973f 0d60 8a3f
00000090: a580 773f 28c2 9f3f a15c c03f 69b3 9c3f
000000a0: e957 2f3f 1d76 553f ed28 8a3f a655 0440
000000b0: 76c5 9f3f 8eba ad3f 70e0 4e3f 3386 5f3f
000000c0: 508a ce3f 90ac 4d3f fb8b b83f 8ec0 8e3f
000000d0: 6f7a 9f3f a604 c03f fcdc 153f 0466 9a3f
000000e0: d6a0 ba3f 28c4 493f a5bc a63f c0e6 563f
000000f0: 250a ed3f c7aa a43f 3783 7e3f 94b3 2e3f
1.2590024 2.0858088 1.2051603 1.4280624 0.73802376 1.4224011 1.3549864 0.7067269
1.422969 1.7538235 1.7414328 1.2386295 0.71542984 1.6484888 1.1973346 1.1006315
1.5324136 1.7799901 1.8234553 1.1070118 1.1755015 1.47092 1.085585 0.9434379
1.1146234 1.3737882 0.96148896 0.6589306 0.8614493 1.4929388 1.0894867 1.5361469
1.1189151 0.81722206 1.1816856 1.0810562 0.9668067 1.2481127 1.5028268 1.2242252
0.68493515 0.8338335 1.079374 2.0677276 1.2482135 1.3572557 0.80811214 0.87314147
1.613596 0.80341434 1.4417719 1.1152513 1.2459239 1.5001419 0.5854032 1.2062383
1.4580333 0.78814936 1.302632 0.83945847 1.8518721 1.2864617 0.9941897 0.68242764
