summaries/vanilla_ResNet2_num_blocks2x2_num_channels16_conv5/ckpt.pth (torch, 491755 bytes, 52 tensors)

module.conv1.weight f4 [16, 3, 3, 3]
000000 a6 e4 1f be 5d e4 e0 3d 64 81 9d 3e 14 12 4a 3e
       -0.15614566 0.10981057 0.3076278 0.19733459
000010 6c 8b 11 3e f4 7c 2e 3e 10 bb a1 bd ba 73 84 be
       0.14213341 0.17039853 -0.078970075 -0.25869542
000020 3b 57 8e bd 31 d3 d1 bd d4 96 5e be 8b 89 5f be
       -0.06950232 -0.1024536 -0.21737224 -0.21829812
000030 e8 5f 26 3e 64 24 39 be d1 29 90 be 9e 45 98 3d
       0.16247523 -0.18080288 -0.28156903 0.074351534
000040 ca ea 5e be d7 46 4e bd cc 55 52 3d a5 b1 82 bc
       -0.21769252 -0.050360527 0.051351354 -0.015953848
000050 75 70 53 bd 8f 25 3d 3e 0b 30 a7 bb d4 67 02 be
       -0.05162092 0.18471359 -0.0051021627 -0.1273492
000060 08 d8 a5 3d e7 03 89 bd e1 c0 5d 3d 9e 50 1a 3d
       0.08097845 -0.066901974 0.05413902 0.03767454
000070 53 b1 86 3d f5 6a 4d 3c 80 93 fa 3d d5 1f 54 3e
       0.06576791 0.012537708 0.12235165 0.20715268
000080 7f b4 0d 3e 1b fb 9c 3d 24 76 96 3d 96 cd 17 3c
       0.13838385 0.07665082 0.07346752 0.009265324
000090 d4 78 b8 3c 54 12 62 bd 4e 2b ce bd 3e bd 0b 3d
       0.022518553 -0.05519326 -0.100668535 0.034116022
0000a0 4a 66 c2 bb 14 99 48 bd d4 cd 10 3d 12 0d 9a bc
       -0.005932604 -0.04897411 0.035352543 -0.01880506
0000b0 67 fa 82 bd d3 e5 85 3d f1 a7 8d bc cb 8b 1a bd
       -0.06395417 0.06537976 -0.017291995 -0.037730973
0000c0 b2 ed 79 bd 0f 7f ee bd a2 6f f1 bd 09 8c d3 bd
       -0.0610177 -0.11645328 -0.117888704 -0.10329444
0000d0 dd 0b 15 be 02 8c 18 be e1 9e 66 3d 92 a2 24 3f
       -0.14555307 -0.14897159 0.056303862 0.6431056
0000e0 b1 44 03 be 29 fe c8 3e 8c 2e 92 bf 00 eb cc 3e
       -0.12819172 0.3925641 -1.1420455 0.4002304
0000f0 a8 39 45 bc 8d 7f 93 3d 4f 6f 73 be 2c 86 67 bd
       -0.012037672 0.07202063 -0.2377293 -0.05652444
000100 15 b7 51 3e a4 66 0d be 18 11 16 3e 7d 7e a6 bf
       0.20479997 -0.13808686 0.14654958 -1.3007351
000110 d0 d8 00 3f f2 29 5c 3e 65 d0 58 3e b8 0b 00 3e
       0.5033083 0.21500376 0.21173246 0.1250447
000120 97 03 0d be a4 7d b3 3e 87 ca 6b be b0 b9 0f 3e
       -0.137709 0.35056794 -0.23026477 0.14035678
000130 1e 22 39 bf 72 bb 03 3f 57 d7 8a 3c 7f e4 30 3e
       -0.72317684 0.51457894 0.016948385 0.17274664
000140 c2 ec 40 bc 56 7f 08 be 0c 5c 47 be 37 79 56 3c
       -0.011775197 -0.13329825 -0.19468707 0.013090423
000150 3d 24 07 3d f6 6d d7 bd 3f 53 f4 bd 06 d2 05 3e
       0.032993544 -0.1051902 -0.119299404 0.13068399
000160 c4 14 a1 3d 92 57 86 bd 1c 52 d3 bd 92 fd 0d be
       0.07865289 -0.065596715 -0.103183955 -0.1386626
000170 7a 33 74 3c 5a c6 bd bc 20 da dd bd e2 18 e1 bd
       0.014904851 -0.02316587 -0.1083262 -0.10991074
000180 dd 87 1c 3d 5a 79 5d 3d af a3 e2 bc 4d cc 39 3d
       0.038215507 0.054070808 -0.027665941 0.045360852
000190 4c f7 cc 3c 72 7f 0a 3e 42 85 a1 3c 15 10 a1 bd
       0.025020264 0.13525179 0.019716863 -0.078643955
0001a0 bb 63 b1 bd 77 19 ef 3d 3c c4 6f 3d c7 08 ef bc
       -0.086616 0.11674779 0.058536753 -0.02917899
0001b0 8c 3a 58 bd 98 dc b7 3c 30 d4 ad 3d 90 e1 17 bd
       -0.05279021 0.022444054 0.08487737 -0.037080348
0001c0 b8 15 65 bc 1c a5 7d 3d bd 86 fa bd 19 8c 18 be
       -0.013982229 0.06192504 -0.122327305 -0.14897193
0001d0 5d a2 51 bd 47 b6 06 be 12 c4 e4 bd 25 17 d1 bd
       -0.051180232 -0.13155471 -0.1117021 -0.102094926
0001e0 9c ad a2 bd 5b f8 b6 bd 7c ff 5d bd c2 4c f7 bd
       -0.079432696 -0.08934089 -0.054198727 -0.12075187
0001f0 89 29 1a be b8 6f b6 bd 87 c8 8a 3d 75 ed 00 3d
       -0.15054907 -0.089080274 0.06776529 0.031476457
000200 c5 38 4b bd ca b3 8f 3e 20 9d 67 3e 16 6e 24 3e
       -0.049614687 0.28066856 0.22618532 0.1605762
000210 c6 47 5d 3e b6 f8 19 3e 00 63 fc 3d a9 6e 7b 3e
       0.2160941 0.15036282 0.1232357 0.24553932
000220 2b af c9 3e 2d 29 8a 3e c7 09 2c 3d aa 1d b8 bc
       0.39391455 0.2698454 0.042001512 -0.022475082
000230 73 aa cc bd 97 4d 12 be c4 a9 af be 63 49 9f be
       -0.09993448 -0.1428741 -0.34309208 -0.31110677
000240 88 fd 11 3e 08 c2 74 3e 8e c6 47 3e f6 64 a6 3a
       0.14256871 0.23902142 0.19509336 0.0012694884
000250 27 4d b9 bd b8 a8 0b be c6 14 f7 bc 5e 91 7c be
       -0.09047919 -0.1363858 -0.030161273 -0.24664828
000260 62 1f 7b be c4 41 0d 3e 8f 4f 47 3e 4f 99 bf 3d
       -0.2452369 0.13794619 0.19463943 0.09355413
000270 61 fa 9d 3d e8 42 1a bc 58 e5 d2 bd c9 c9 ae bc
       0.077137716 -0.009415366 -0.1029765 -0.021336453
000280 0d b3 0e be 11 a5 01 be 0a 0a 4b be e8 80 48 be
       -0.1393549 -0.12660624 -0.19828048 -0.19580424
000290 01 49 06 be 53 87 83 be 85 35 87 be 45 50 28 be
       -0.13113786 -0.25689182 -0.2640802 -0.1643687
0002a0 c3 1d 42 bd 44 de a1 bd 02 ac 1b bd a5 d1 2c 3e
       -0.047391664 -0.07903722 -0.038005836 0.16876848
0002b0 96 78 d1 3e cf 93 2c 3e 7e 02 90 3e 7c 4e 12 3f
       0.40912312 0.1685326 0.281269 0.5715101
0002c0 5a ec ac 3e 88 59 60 3e d2 e0 f4 3e 5c 32 8b 3e
       0.33774072 0.21909153 0.47827774 0.2718686
0002d0 77 69 0e 3a 0c b3 70 bd a1 4f e5 bd d4 55 0c be
       0.00054325856 -0.058764502 -0.11196829 -0.13704616
0002e0 12 7d 89 be 59 a6 9f be 17 18 37 be a1 12 a0 be
       -0.26853234 -0.311816 -0.17880283 -0.31264213
0002f0 75 86 a7 be 90 96 a1 3d 0c 76 0a bd 69 9d 3d 3d
       -0.3271977 0.07890046 -0.033803985 0.046292696
000300 1b 5d cd bc ab 96 2b be 63 ac 5b bd 11 1c 97 3c
       -0.02506881 -0.16756694 -0.053631198 0.018446
000310 91 f5 94 bd 36 01 8e 3d 52 2a ad 3d ef da 8f bd
       -0.072734006 0.06933825 0.084553376 -0.0702418
000320 af 0a 55 bd 96 9e 37 3c 7c 02 06 be d9 bc b4 bd
       -0.05201214 0.011207243 -0.13086885 -0.08825082
000330 fe 67 ff 3c 36 da 17 bd aa da f7 3c 4e 83 b5 3d
       0.031177517 -0.037073337 0.030255634 0.08862935
000340 31 d8 63 bc 85 29 14 3d 31 1c dc bc e8 d6 ed bd
       -0.0139065245 0.03617241 -0.026868911 -0.11613256
000350 bc 44 88 bd f0 f4 b9 bd de c6 02 be fb 98 92 bd
       -0.06653735 -0.09079921 -0.12771174 -0.07158085
000360 36 6e c5 3e e2 25 84 3d fa 78 ef 3c a5 3f 1f 3e
       0.38560647 0.06452538 0.02923249 0.15551622
000370 4b 44 a7 be ac c4 ec be bb 22 29 3d af 1c 2d bf
       -0.3266929 -0.462438 0.041292887 -0.6762189
000380 50 94 18 bf 6e 84 e3 bc 92 54 4b 3d 35 9a 5d bd
       -0.59601307 -0.027773108 0.0496412 -0.05410214
000390 2c e7 32 3e 26 26 cb 3e 49 fb 3d 3e 06 f2 d4 bc
       0.17470998 0.39677542 0.18552889 -0.025994312
0003a0 0a 2a 3b 3d a0 0f 3a 3d d6 18 08 bf d9 b4 33 be
       0.04569439 0.045425057 -0.53162897 -0.17549457
0003b0 d1 d2 38 be c6 cf c9 bd 88 a7 16 3f 66 6b 01 3f
       -0.1804917 -0.09854083 0.5884938 0.505545
0003c0 35 d6 36 be 87 53 b2 3e 28 d3 ba 3e b8 cd d0 3d
       -0.17855151 0.3482935 0.36489224 0.10195488
0003d0 0f da c5 3c 91 bf 40 be 9d d1 10 3e c8 cc 21 3e
       0.02415183 -0.18823077 0.14142461 0.15800774
0003e0 39 a4 b5 bd dd 6f a4 3c 73 b6 8c 3c 38 47 fa bd
       -0.088692136 0.020072872 0.017176842 -0.12220615
0003f0 8b 3a 89 3c 71 98 18 3d 71 04 1a be 87 7a dc bb
       0.016751548 0.037254754 -0.15040757 -0.0067284736

module.bn1.weight f4 [16]
000000 c1 59 c8 3e f7 4d 46 3e 95 17 67 3f 9b 47 a8 3e
       0.39130977 0.19365679 0.9027036 0.3286713
000010 9a b1 5c 3e 95 bc ec 3e cb 14 a0 3e c8 34 db 3e
       0.21552125 0.46237627 0.31265864 0.42813706
000020 c6 95 a7 3e 87 9b ab 3e f4 7f 87 3e b2 c4 be 3e
       0.32731456 0.33517095 0.26464808 0.37259442
000030 cf 51 f0 3e 85 55 f0 3e a7 bc 04 31 cd 4d 03 36
       0.46937415 0.46940246 1.9315765e-09 1.9565807e-06

module.bn1.bias f4 [16]
000000 78 cc 08 be 9f 09 0e be 15 28 57 3f 4f 23 05 be
       -0.13359249 -0.13870858 0.84045535 -0.1300175
000010 82 66 c0 bd a7 a4 8d 3c e8 e2 bb 3d ff c3 a4 be
       -0.09394552 0.017290426 0.09174138 -0.32180783
000020 1a dd e6 3e 66 31 86 bd 90 ee 50 3d 8d 05 59 3e
       0.45090562 -0.06552391 0.05100876 0.21193524
000030 75 0d 23 3e 2c d7 57 3e f3 f1 fd b1 1a 6d 48 b7
       0.15923102 0.21078175 -7.3907755e-09 -1.1946331e-05

module.bn1.running_mean f4 [16]
000000 40 02 89 be ff d7 d6 bc 91 59 9f bc b5 08 93 be
       -0.2675953 -0.026226042 -0.019451888 -0.2871758
000010 83 de 97 bc 0a 39 2f bd e2 5f 2c bd 98 6b b5 be
       -0.018538719 -0.042779006 -0.04208363 -0.3543365
000020 51 2d 89 bb 77 ea a5 3e 74 dd 9a 3c 33 50 35 bd
       -0.0041863103 0.32405445 0.018904425 -0.044265937
000030 c2 a2 03 3d aa 07 a0 bc 48 b8 12 32 5a b7 85 b7
       0.03213764 -0.019534905 8.540219e-09 -1.5940215e-05

module.bn1.running_var f4 [16]
000000 dc 9f e5 3c 51 02 8d 3c f1 c7 1d 3d 70 0f d1 3c
       0.028030328 0.017213019 0.038520757 0.025520056
000010 12 b1 a0 3c f3 99 01 3e ae d8 1b 3d 21 b1 0d 3d
       0.019615684 0.12656383 0.03804844 0.03459275
000020 2a 4b 43 3d 27 38 1b 3d 9b e0 c1 3c 0b 0a b9 3d
       0.047679104 0.037895348 0.02366667 0.09035119
000030 5e 67 0f 3e 5e ec 0d 3e 0d d0 a8 23 db 50 f0 2e
       0.14004275 0.13859698 1.830271e-17 1.0928299e-10

module.residual_layers.0.0.conv1.weight f4 [16, 16, 5, 5]
000000 d1 16 14 3d c1 8d 1b 3d 12 e8 21 3d 38 42 80 3d
       0.036154572 0.037976984 0.03952796 0.0626263
000010 20 cc 5f bb 04 33 d4 bc fe 8f 1c bc 60 bd c3 bb
       -0.0034148768 -0.025903232 -0.009555815 -0.005973503
000020 f3 98 b9 bd 92 f6 20 bd 17 60 6c bd 24 ac 30 bd
       -0.09062376 -0.039297648 -0.057708826 -0.043132916
000030 ef f2 aa bc 18 fc 99 bc 8d c7 e6 3d c4 b5 b1 bc
       -0.020867793 -0.018796965 0.1126853 -0.021693118
000040 e9 77 b8 bc e7 88 0d 3c 8f ab 00 bb a2 50 6a bd
       -0.022518115 0.008638597 -0.0019633507 -0.057205804
000050 2e 8c 7d bd 7c 91 b2 bc 99 d3 2d bd f1 9a f0 bc
       -0.061901264 -0.021797888 -0.042438123 -0.029370757
000060 17 9a f0 3b 89 be 79 bc 92 e2 c7 bc 80 d2 ae bc
       0.0073425877 -0.015243181 -0.02440003 -0.021340609
000070 5f bc 36 bc a1 2d 65 3b 3c fb 23 bd 5e 31 19 bd
       -0.01115331 0.0034969824 -0.040034518 -0.037400596
000080 b9 b5 f0 bc 59 41 ca bc 08 a9 fe bb 4c 63 67 bd
       -0.029383527 -0.024689363 -0.007771615 -0.05649118
000090 df ad 47 bd 9f 83 f0 bc 29 af cf bc de 70 83 bc
       -0.0487498 -0.029359637 -0.025352078 -0.01604503
0000a0 19 9a 0c bd c4 0c 23 bd 1d 2d ba bc 5a ae 94 bc
       -0.034326646 -0.039807096 -0.02272659 -0.018149544
0000b0 1d b9 c0 bc b3 c9 bf bc 9c e4 36 bd 17 11 9e bc
       -0.023525769 -0.023411607 -0.044651613 -0.019295258
0000c0 1c 7b cb ba 6f 33 8e bc 32 ce 66 bd 05 d6 d2 3d
       -0.001552436 -0.01735851 -0.056348987 0.10294727
0000d0 a9 87 d0 bc d6 e7 d2 bd 8e 76 75 3d 51 61 3f bd
       -0.025455313 -0.102981254 0.059927516 -0.046723668
0000e0 2c 14 0b be 1a 87 ad bd 2c d3 da 3e 5b 76 f9 bd
       -0.13581914 -0.08473034 0.42739236 -0.12180778
0000f0 24 1d 09 3e d0 c0 03 3e ff 09 34 3e f3 dd 32 bf
       0.13390023 0.12866521 0.17581938 -0.6986992
000100 c4 0b 7f bd e0 b6 d1 bd ea 7f 8c bd 19 f3 b4 be
       -0.06226708 -0.10239959 -0.06860335 -0.3534172
000110 d7 f6 aa 3e 59 e3 2f 3e c1 d2 f6 bc 23 45 91 3a
       0.3339145 0.1717657 -0.030129792 0.0011083226
000120 da 7a 24 3e 81 07 c1 3c d7 fb c6 bd 26 cb 46 bc
       0.16062489 0.023563148 -0.097160034 -0.012133395
000130 6d bb c2 ba f1 73 da 3c 48 bc ed 3c 18 90 2c 3d
       -0.0014856883 0.026666613 0.029020444 0.042129606
000140 88 40 b7 bc dd 62 aa bc da e2 24 bd be 31 6f bc
       -0.022369638 -0.020799095 -0.040255405 -0.014599262
000150 45 36 3d 3d b2 bf 4c 3b 7e 41 09 ba 77 08 28 bd
       0.046194334 0.003124219 -0.00052358944 -0.041023698
000160 45 e0 bb bc 62 e4 13 3d 11 3c 02 bd 67 ef 33 bd
       -0.022934088 0.036106475 -0.031795565 -0.043929484
000170 58 a4 3d bd e4 14 23 bd 1f de 29 3d b5 6e 2a bd
       -0.04629931 -0.039814845 0.041471597 -0.041609485
000180 a2 09 0b bd c2 c6 46 bd 0d 83 b1 bc 54 86 99 3d
       -0.033944733 -0.048529394 -0.021668935 0.07496324
000190 1c ec 26 3d 72 06 2b 3d 29 c7 cd 3c f3 a7 18 3c
       0.040752515 0.041754194 0.025119381 0.009317386
0001a0 bc af 01 3c db 7c 8a 3c ec 2f 94 3c d5 48 5b 3c
       0.0079154335 0.016905239 0.018089257 0.013384064
0001b0 ef 5f 15 bb 6c 3a ad 3b 7b e0 25 3d 71 92 d8 3c
       -0.0022792777 0.0052865054 0.040497284 0.026437016
0001c0 73 67 8e 3c 1f 82 3e 3c 17 37 d5 3c a9 b8 cb 3c
       0.017383313 0.011627703 0.026027245 0.024868326
0001d0 c7 ea 5c 3c 29 bb dc bb ea f4 3b bc 6b ab 12 3c
       0.01348371 -0.0067361784 -0.011471966 0.008952002
0001e0 e0 56 c6 3c 85 d3 b9 3c 2a 5c 7c 3c 91 97 9f 3c
       0.024211347 0.022683868 0.015402833 0.019481452
0001f0 d4 5c 1f 3d 93 b8 61 bd 28 ae e0 bc 9f 84 c0 3c
       0.038906887 -0.055107664 -0.027426794 0.023500739
000200 3b 00 23 bc 64 20 0b bd bd 0b a2 bd d5 7d 15 bd
       -0.009948785 -0.033966437 -0.07912395 -0.036496956
000210 79 8d ea bc 9f 42 06 bd d2 ed e7 bc 7a 4d f9 bd
       -0.028631913 -0.03277838 -0.028311644 -0.121729806
000220 62 33 a5 bd fb 91 72 bd d1 8b 37 bc f4 7f c1 3a
       -0.08066441 -0.05922125 -0.011202768 0.0014762864
000230 62 3c aa bd ce 24 15 bd 4a 45 8c 3d 64 74 06 3e
       -0.08312298 -0.036412053 0.06849153 0.13130337
000240 c5 e7 07 3d dd d7 b5 bc cc dc 42 bd 38 c4 5e bd
       0.033180017 -0.022197658 -0.04757385 -0.054386348
000250 ed a9 83 bb 97 d7 85 bc 30 c8 cb 3d 51 72 82 3d
       -0.0040180595 -0.016338153 0.09950292 0.063694604
000260 f8 bf 52 3d a1 a9 23 3d 81 84 97 3d 6f 23 00 3d
       0.051452607 0.039956693 0.0739832 0.031283792
000270 40 78 f0 ba 38 19 00 bc 8b d0 ac 3a 51 0b 66 3c
       -0.0018346384 -0.007818513 0.0013184709 0.014040784
000280 2e 5e 1d bc 83 0d 38 bd 52 40 61 bd 8f ee 88 bd
       -0.009604974 -0.04493476 -0.05499298 -0.066861264
000290 a8 33 bc bd 84 06 c1 bc 5b fa 86 bd 4c c4 b4 bd
       -0.0918954 -0.023562677 -0.0659072 -0.08826503
0002a0 bd 24 bd bd 0a 43 cb bd 9e dd 4b bc dc 32 17 bd
       -0.09235523 -0.09924896 -0.012442974 -0.036913738
0002b0 a9 1a 15 bd 4c b5 0c bd 3c 48 48 bc c3 fd 09 3d
       -0.03640238 -0.034352586 -0.012224253 0.03368927
0002c0 0f 83 22 b9 85 0c 66 3c dc af ca 3c 08 b8 ab 3c
       -0.00015498347 0.014041071 0.02474206 0.020961776
0002d0 cd ff fc 3b 8d ed 3c 3c 8c df ee 3c 98 ec 2f 3b
       0.0077209235 0.011531246 0.02915933 0.0026843902
0002e0 22 4b 58 bc 84 74 3f bc 4a 4e ea bb 43 c8 50 bc
       -0.013201507 -0.011685494 -0.007150446 -0.012743059
0002f0 e6 be 85 bc d4 34 aa 3b 17 c7 30 bd 11 40 2e bd
       -0.016326379 0.005194286 -0.043158617 -0.042541567
000300 64 30 8d 3b f3 c7 2d bb 90 c5 bd 3d a6 70 3a 3a
       0.004308747 -0.0026516884 0.09266198 0.0007112123
000310 c6 5c 49 bc cc 53 94 3b db 5f cf 3b 7e c5 62 3d
       -0.012290185 0.004526591 0.0063285655 0.055364124
000320 bc a4 ed 3d 31 30 db 3d 87 0b 0d 3d 5f 93 1b bd
       0.11603686 0.10702551 0.03443482 -0.03798234
000330 f8 ca 5c bc 09 91 d4 3d 45 c3 92 3d 82 97 a1 bd
       -0.013476126 0.10379226 0.07166151 -0.07890226
000340 e3 4e 0b be 38 70 bc bc 08 e2 f5 3c 99 2c 81 bd
       -0.13604312 -0.023002729 0.030015007 -0.063073345
000350 45 e8 97 bd aa 32 0e 3d 3e 2e 86 3d ef 2d 86 3c
       -0.07417349 0.034716286 0.06551789 0.016379325
000360 f6 90 c6 bd 2f d2 b6 bd 13 4c f9 bc 47 19 46 bc
       -0.09695618 -0.08926808 -0.030431783 -0.0120909875
000370 0f 87 11 bd 30 1e 30 bd 54 5c 67 3b 80 f5 3f 3d
       -0.035529193 -0.04299754 0.0035302835 0.046864986
000380 03 60 dd 3b d4 c9 c5 bc f7 76 e8 bc bf 5e 01 bd
       0.0067558303 -0.02414409 -0.02837704 -0.031584498
000390 8d 2d 10 bd b5 c7 87 bd 73 7e 5d bd a2 67 ea bc
       -0.03519969 -0.06629888 -0.05407567 -0.02861387
0003a0 00 e4 4b bd 15 72 68 bd 2a 49 bb bd 57 70 18 bd
       -0.049777985 -0.056749422 -0.09144814 -0.03721651
0003b0 43 f6 10 bd 87 1e 27 3b e9 d2 6d 3b 52 cc 75 bc
       -0.035391103 0.0025500373 0.0036289042 -0.015002327
0003c0 7d 74 99 3b da 69 56 bc 1d 9d 06 bd ea 31 aa 3c
       0.004683076 -0.01308676 -0.03286468 0.020775754
0003d0 3c 2b f7 bb 6b 72 a5 bc 8e 5e 8a 3c c6 4a e9 bc
       -0.0075429957 -0.02019616 0.01689079 -0.028478038
0003e0 d7 a2 8d bc d5 d0 51 bd 74 63 ae bd 71 49 03 be
       -0.017289562 -0.05122455 -0.08515063 -0.12820984
0003f0 a0 2d a4 bc 48 7d 81 bb 86 80 30 bc 5a e4 9e bc
       -0.020041287 -0.0039517023 -0.01077283 -0.019395996

module.residual_layers.0.0.bn1.weight f4 [16]
000000 cc 0d 10 3f ab 8d e5 3e e9 af 1d 3f 21 fb df 3e
       0.5627105 0.44834647 0.6159654 0.43746284
000010 27 44 ed 3e 0a 8f dc 3e 92 b8 d8 3e 6f 69 14 3f
       0.4634106 0.4307788 0.42328316 0.5797338
000020 b0 75 18 3f 8a fa c8 3e 16 5d c0 3e 36 da e5 3e
       0.59554577 0.39253646 0.3757102 0.44893044
000030 0a 02 10 3f 89 21 c5 3e e7 5c 8f 3e 7a ef de 3e
       0.5625311 0.38502148 0.28000566 0.4354208

module.residual_layers.0.0.bn1.bias f4 [16]
000000 ce 2c 47 be f7 dd 91 bd 58 fb f8 bd d9 f0 bd 3d
       -0.19450685 -0.071224146 -0.12157315 0.09274454
000010 50 ae 08 be 1b 80 47 be 80 96 90 be d1 7b 23 be
       -0.13347745 -0.19482462 -0.28239822 -0.15965201
000020 f1 0e 83 bd 72 47 4d be 7f 4a 17 be a3 0e 7f bd
       -0.06399334 -0.20046785 -0.14774512 -0.062269818
000030 f7 16 ac bd 82 d9 e0 3d 16 bd 00 3e d1 c3 9a bd
       -0.08402818 0.10978986 0.1257213 -0.0755688

module.residual_layers.0.0.bn1.running_mean f4 [16]
000000 f3 6e 3e bf 6e af 28 bf fc 97 11 be 6b 2d ae be
       -0.74388045 -0.65892684 -0.14218134 -0.34019026
000010 74 9f 56 bf 88 af 3e bf b3 8f 1e bf 6b c4 1c bf
       -0.83837056 -0.7448659 -0.6193802 -0.6123721
000020 a6 84 d1 bd 91 96 b9 3e 59 e9 61 be 3f 07 f4 be
       -0.10230379 0.36247686 -0.22061671 -0.47661778
000030 36 73 c7 be ee b0 76 bf e5 69 5d 3e 2f 60 a2 bf
       -0.38955086 -0.96363723 0.21622427 -1.2685603

module.residual_layers.0.0.bn1.running_var f4 [16]
000000 e9 5c aa 3e 41 7c 07 3f 4b c7 7e 3f f5 6e c2 3e
       0.3327401 0.5292397 0.99522847 0.37975278
000010 1d d1 22 3f d3 40 6d 3e 4a ac 25 3e ff 8a 0a 3f
       0.6360033 0.2316926 0.16179004 0.5411834
000020 91 0a a0 3f 1a 09 51 3e 2c 22 1c 3e ed d5 09 3f
       1.2503225 0.20413628 0.1524741 0.5384205
000030 11 f2 31 3f 63 1e 8f 3e 75 de 57 3e 6f 8b 85 3e
       0.6950999 0.2795287 0.21080954 0.26082942

module.residual_layers.0.0.conv2.weight f4 [16, 16, 5, 5]
000000 e5 1c 79 bd 12 a6 0b bd be 2a 48 3b 45 83 eb bc
       -0.06081857 -0.034093924 0.0030543054 -0.028749118
000010 0a 62 7a 3d 65 4c 16 3d 8c 5f d4 bb a6 26 b6 3d
       0.061128654 0.03669395 -0.0064811166 0.0889409
000020 2d b5 23 3e 3b 9c 62 3e 9b 52 99 3d b8 eb 94 3d
       0.15987082 0.2212991 0.07486459 0.07271522
000030 bc 61 2b bd e2 02 94 3d bc f2 8b 3c 71 9f 6f 3d
       -0.041841254 0.07227112 0.017083518 0.058501665
000040 d0 8a 14 be e7 33 7f bd 7b 19 57 3d e3 a1 98 bd
       -0.14506078 -0.062305357 0.052514534 -0.074527524
000050 62 65 fb 3c 07 51 8a bb c9 9c 1d 3e 93 20 f2 bb
       0.030687992 -0.004221085 0.1539184 -0.007389137
000060 40 0d a5 3d 70 2e 4f bd 2a 1b 26 bc 29 f5 94 3d
       0.08059168 -0.050581396 -0.010138312 0.07273323
000070 6d 85 26 3d 87 6a a1 3c fe 42 13 bd da a3 56 3d
       0.04065459 0.019704117 -0.03595256 0.052402355
000080 3c 2f f4 3d d7 5b 8b 3a d7 60 a2 3d a5 f5 c2 3b
       0.11923072 0.0010632229 0.07928627 0.0059496933
000090 81 a5 f7 3d 17 8d e9 3d e3 e1 1d 3d fc f9 98 3d
       0.12092114 0.11403864 0.0385455 0.07469556
0000a0 db ee d9 3c ec 52 03 bc 9a e0 81 3d d5 39 c1 3d
       0.026603153 -0.008015376 0.063416675 0.09434859
0000b0 1c d9 0a 3d ea 33 5f 3d a2 8c 81 bc 37 82 09 3d
       0.033898458 0.05449287 -0.01581413 0.03357145
0000c0 59 6e 81 bd 81 f5 4a 3c b4 a1 60 bd b7 35 d2 bc
       -0.06319875 0.012387634 -0.054841712 -0.025660379
0000d0 63 a9 8f bd ea 59 59 bd 2d bc 65 3d d7 d3 fb 3c
       -0.0701473 -0.053064264 0.05608766 0.030740662
0000e0 aa 76 e9 bc c1 d0 9f bb 1c 54 d4 bd 23 43 76 3d
       -0.028498966 -0.0048771803 -0.10367605 0.06012262
0000f0 53 56 2f bc 02 3f f6 bd 1c 39 2d be 98 ca 2f be
       -0.010701734 -0.120237365 -0.16916317 -0.17167127
000100 46 73 af bc 26 eb fe bc 89 03 51 bd 18 fd 3a bd
       -0.021417271 -0.031117987 -0.051028762 -0.045651525
000110 d6 f1 66 3d bf 14 4c 3e b4 9e 95 bd 6c a7 0b 3d
       0.056382976 0.19929789 -0.07305661 0.034095213
000120 08 c2 b7 3c 48 3c 3b bc d3 a6 2c 3e 18 27 26 3d
       0.022431388 -0.011427946 0.16860513 0.040564626
000130 53 3c 54 3d 9f 0e 00 3e 22 70 72 3d 6f 0a 8c bc
       0.051815342 0.12505578 0.05918897 -0.017094819
000140 95 95 df bb 8e e6 20 3d 6a fd 77 3d 96 fc e0 bd
       -0.0068232515 0.039282374 0.06054441 -0.10985677
000150 9a 03 d2 bd 66 a5 23 bc 01 d7 9a 3d de 77 5e 3d
       -0.10254593 -0.0099881645 0.0756054 0.054313533
000160 e2 d4 b7 bd 2c 8e 30 bd a9 f7 0f bd 44 13 8e bc
       -0.08976151 -0.043104336 -0.035148297 -0.017343171
000170 a7 0a 5b bc d1 ef fc bd 4d e3 97 bb 0a 76 9d bb
       -0.013369239 -0.12350429 -0.0046352507 -0.004805331
000180 3b ed a8 bd 36 ce 8d bd d8 1b 36 bd f2 55 ca 3d
       -0.08248373 -0.06924097 -0.044460148 0.09879674
000190 37 c0 85 bd 1f ea 70 bd 30 18 7f bd 30 23 ca 3c
       -0.06530803 -0.058817025 -0.062278926 0.024674982
0001a0 d6 0f 88 3c 6a 5b 88 bd 85 9c 36 bd 6d 2a 35 bd
       0.016609114 -0.06658061 -0.044582862 -0.044229914
0001b0 18 f1 f0 bb ec 41 fd bc c7 23 b1 bd 40 e6 87 bd
       -0.0073529594 -0.030915223 -0.08649402 -0.066357136
0001c0 d1 b4 dd bc 25 e9 c2 bb ea 07 38 3c da ea c6 bd
       -0.027063759 -0.005948203 0.011232356 -0.09712763
0001d0 fe b6 9e bd 7b d7 2e bb 23 22 80 3d 6d ce 9d 3d
       -0.07749747 -0.002667873 0.06256511 0.07705388
0001e0 7d ed 80 bd 62 86 71 bd c0 15 1b bd b8 22 8d 3d
       -0.06295297 -0.058966048 -0.03786254 0.06891388
0001f0 a0 05 de 3d 9b 16 39 3c 24 53 20 3d e1 82 88 bc
       0.10840917 0.0112968935 0.03914179 -0.01666397
000200 2c 12 9e bc cf 42 83 bd fb f8 a9 bb 22 9f 0f 3d
       -0.019295774 -0.06409227 -0.0051871515 0.03506387
000210 00 5a 4c bc 3b 6a 08 bd 39 67 04 be ee ea 04 bd
       -0.01247263 -0.033304434 -0.12930001 -0.03245061
000220 43 33 3f 3d c9 a4 97 39 a5 a4 49 bd 5c 5e 9c bd
       0.046679746 0.0002892374 -0.049229283 -0.07635185
000230 f5 9d d7 ba 39 0f 4d 3d a3 b9 0a bc 28 d4 79 bd
       -0.0016450273 0.050063346 -0.008467111 -0.060993344
000240 1a dd 00 bd 7d f0 0b 3d ab 84 83 3d ee 7f 98 bd
       -0.03146086 0.034164894 0.06421789 -0.07446276
000250 1a e1 ba bd 12 57 30 bd f1 24 d0 bd 0a 49 f0 bc
       -0.09124966 -0.043051787 -0.10163296 -0.029331703
000260 5e 3d 12 3d 92 41 66 3d f4 8a a5 3d 57 66 78 bd
       0.035703056 0.056214876 0.08083144 -0.060644474
000270 b5 cc 8e bc 0a 59 0f 3d 7f c8 a5 3c 3a 84 0e 3b
       -0.017431596 0.034997024 0.020237206 0.0021746294
000280 7e f9 b5 bd 43 f2 3f bd a8 a9 90 3c c3 05 12 bd
       -0.088854775 -0.0468619 0.017659023 -0.035650026
000290 39 49 7c bc 55 26 77 bd 8e 9a 4d 3d 92 e9 3b 3d
       -0.015398317 -0.06033929 0.050196223 0.045877047
0002a0 ae 3b 20 3c 60 c4 3c 3b 8d 8a 7c 3c d4 24 c8 3c
       0.009779854 0.0028803572 0.015413892 0.024431624
0002b0 a2 7f 5d 3d 79 e9 a3 3d 16 21 33 bb 69 8a 86 3d
       0.0540768 0.08003516 -0.0027332953 0.065693684
0002c0 f2 6e c8 3d 55 47 d5 bd ab 9a 99 bd 60 85 e5 3d
       0.09786786 -0.10413996 -0.07500204 0.1120708
0002d0 b4 64 92 bd a1 b9 cb bc 40 bf 7e bd b2 f0 62 be
       -0.07148114 -0.024868788 -0.06219411 -0.2216213
0002e0 78 8e be bc 56 cc 39 bd 22 af 0f be 89 9a 8b bd
       -0.023261294 -0.045360886 -0.14031652 -0.068165846
0002f0 bc 2c be bd 76 fa 89 3b fa 2b 3d bc 13 aa 00 be
       -0.09285876 0.0042107655 -0.011546129 -0.12564878
000300 9c 7d 6a bd 43 87 16 3e e0 a8 b6 3c b9 72 05 3d
       -0.057248697 0.14700036 0.022297323 0.03258011
000310 39 15 cd 3c 51 3c c2 3d b6 9e 1e 3c 24 16 b3 3d
       0.025034534 0.09484161 0.009681394 0.08744457
000320 0c 8b a4 bc 50 71 68 bd 84 31 75 3c c5 eb 23 bd
       -0.020085834 -0.05674869 0.014965419 -0.04001977
000330 f4 ca 5c 3d 60 e6 ae bd 7f 25 3f 3c 56 82 10 3d
       0.05390449 -0.08540034 0.011666655 0.035280548
000340 e0 73 ac 3d f0 3d 8b 3d 64 5c 48 bc 22 b8 08 3e
       0.08420539 0.06798923 -0.012229059 0.13351491
000350 14 9f 5d 3e 71 0c 29 3d 65 06 a1 3d df 75 0d ba
       0.21642715 0.04127163 0.07862548 -0.00053962873
000360 4d 81 1d 3e 02 88 0c 3e eb 57 64 3d 27 6f e4 bd
       0.15381356 0.13723758 0.055747908 -0.11154013
000370 b0 85 54 3c e2 f2 eb 3d df e6 e0 3c 1f 85 48 3d
       0.012971327 0.115209356 0.027453838 0.04895508
000380 c7 38 d5 bc ba 2d d6 bc a8 6a 8c bd 34 11 c6 3b
       -0.02602805 -0.026144851 -0.068562806 0.0060445312
000390 03 23 50 3d 04 77 28 bd 3c 6e c9 bd ee 67 e1 bd
       0.05081464 -0.041129127 -0.09835479 -0.11006151
0003a0 16 88 12 bd 49 ae 28 bc 66 a4 92 3c 2a 0d 38 bd
       -0.035774313 -0.010295459 0.017900657 -0.04493443
0003b0 89 b0 c3 bc f1 26 52 bc 3e ae 6e 3d 4b 0d 15 3e
       -0.02388789 -0.012826667 0.05827164 0.14555852
0003c0 ad 67 12 bb f2 bf 46 bc c2 2d 9c bd da b4 02 bc
       -0.0022339628 -0.012130724 -0.07625915 -0.007977689
0003d0 5b ca 3b 3d f4 20 9b bd 2f 67 2f bd ed 9f 15 bd
       0.045847278 -0.07574645 -0.042823013 -0.03652947
0003e0 e2 08 fd 3b f3 53 c1 bc 06 8e 03 3d 16 5f 15 bd
       0.007722006 -0.0235996 0.032117866 -0.036467634
0003f0 f4 88 51 3d a6 e6 0e 3d 97 41 df 3c 85 4b 7f 3d
       0.051156 0.034887932 0.027252955 0.06232788

module.residual_layers.0.0.bn2.weight f4 [16]
000000 31 57 e3 3e 14 06 5b 3f ff 01 dc 3e 78 16 09 3f
       0.4440246 0.8555615 0.42970273 0.5354991
000010 a1 76 30 3f 3b cd d3 3e ac 6c a2 3e 7a 92 14 3f
       0.68931013 0.41367516 0.31723535 0.58036005
000020 23 bb 83 3e 2a 6e a8 3e 10 ec 07 3f 89 88 07 3f
       0.2572871 0.32896549 0.5309458 0.5294271
000030 ea 02 af 3e 7d 99 e8 3e 3a fa f7 3e ce b3 18 3f
       0.3418191 0.45429602 0.48433095 0.5964936

module.residual_layers.0.0.bn2.bias f4 [16]
000000 18 3b 62 3c bf 7f d8 3d 36 6d 02 bf 46 b3 aa bd
       0.013808034 0.10571241 -0.5094789 -0.08334975
000010 86 76 da 3d db 9e 3e be 5c cf 38 bd 77 04 18 3d
       0.10667138 -0.18615286 -0.04511963 0.037113633
000020 4e 04 2d 3d b6 cc 05 3e ed 92 89 bd 19 55 9b bc
       0.042240433 0.13066372 -0.06717477 -0.018961476
000030 6e f3 a5 bc e8 3a ec bd 0e 5b 3f 3e 59 50 1c bd
       -0.020257678 -0.11534673 0.18687078 -0.038162563

module.residual_layers.0.0.bn2.running_mean f4 [16]
000000 aa 6a 8a bc a7 c4 3e bf d7 95 b1 be d0 d8 9b bd
       -0.016896565 -0.7451882 -0.3468463 -0.07609713
000010 ad 09 de be 2f 15 0c 3e 3d 76 27 3e be d0 9c bd
       -0.43366757 0.13679956 0.16353698 -0.07657002
000020 3c bb cc 3d e7 02 0d 3e 3d 3d c0 bc 35 09 a3 be
       0.099966496 0.13770638 -0.0234667 -0.31842962
000030 90 53 af 3d 96 17 dd be 80 34 20 be 46 80 d4 be
       0.0856086 -0.43182057 -0.15645027 -0.41504115

module.residual_layers.0.0.bn2.running_var f4 [16]
000000 62 30 a7 3e 0d d0 7d 3f 49 ad 70 3e 24 e1 90 3e
       0.326541 0.99145585 0.23503603 0.2829677
000010 89 9d 0e 3f 4b 2d 7f 3e 8a 47 3e 3e b5 b1 da 3e
       0.5570913 0.24919622 0.18581977 0.42713705
000020 5a ec 3a 3e 07 cd 53 3e 6b a3 a3 3e f3 53 b3 3e
       0.18254223 0.2068368 0.31960616 0.35024986
000030 d8 d0 6c 3e df c1 c5 3e d5 f5 98 3e 35 a0 b3 3e
       0.23126543 0.38624474 0.29875055 0.35083166

module.residual_layers.0.1.conv1.weight f4 [16, 16, 5, 5]
000000 ad f4 ab 3c 18 40 9d bd 3b be 1e 3c 85 36 4d 3d
       0.020990694 -0.076782405 0.009688909 0.050100822
000010 7e 7e 3a 3d 75 42 27 3d 28 1a 82 bd 49 df d6 bc
       0.04553079 0.040834863 -0.06352645 -0.026229518
000020 74 29 82 3d b5 d8 1a bd c5 30 82 3d 2a 4d 09 be
       0.06355563 -0.037804324 0.06356958 -0.13408342
000030 93 55 f0 bc 35 b4 93 3d 85 1c 39 3d e7 7f 32 3d
       -0.02933768 0.07212106 0.045193214 0.04357901
000040 d0 c7 a7 bc 45 77 c1 bc ff 6f 24 3c 52 14 4d 3d
       -0.02048102 -0.023616442 0.010036468 0.050068207
000050 bf 6a 3b bc 87 d7 da 3b b3 0f e8 bc 20 7f 01 3d
       -0.0114390245 0.006678525 -0.028327798 0.031615376
000060 74 8c b3 bc ee ab 2c 3d 6a eb 01 bd 35 dc e6 bc
       -0.02191756 0.042156152 -0.03171865 -0.028181175
000070 82 21 3b 3d 06 92 da 3c c9 0e aa 3d 88 50 35 3d
       0.045686252 0.026680958 0.08303601 0.044266254
000080 51 57 a2 3c c9 11 34 bd 34 d7 c9 bc 4f 77 53 3d
       0.019817026 -0.043962274 -0.02463875 0.051627453
000090 36 dc 1b 3d bd 9a a1 3c 97 ad c6 bc 8e 9e 93 3b
       0.038051806 0.019727105 -0.024252696 0.004504985
0000a0 53 4d 2b bc b9 b3 2d 3d 1a 32 b1 3c 48 ee 9e 3d
       -0.010455447 0.042407725 0.021630336 0.07760292
0000b0 66 89 98 3d f8 3b 3e bd f4 a8 68 3c 64 7c 86 3d
       0.07448082 -0.04644391 0.014200438 0.065666944
0000c0 6d f4 a1 3d 47 dd 09 3d a8 ce 8c bc 9b 15 a3 3d
       0.07907949 0.033658292 -0.017188385 0.07963105
0000d0 d9 a6 c5 bd 7a 90 b9 3b 79 38 9d 3d c7 31 e0 3a
       -0.09650964 0.005662975 0.07676787 0.0017104679
0000e0 04 93 aa bd dd bb 60 bd e1 b1 98 3d a5 1e d1 3d
       -0.08328822 -0.05486666 0.07455803 0.10210923
0000f0 d7 a6 00 3e cc a2 c3 3c b6 47 2d be 77 c7 db 3c
       0.12563644 0.023881339 -0.16921887 0.02682851
000100 31 c5 ec b8 00 24 a1 3d 95 ef 14 bc 8d e1 12 bc
       -0.00011290087 0.078681946 -0.009090324 -0.008964908
000110 a6 4f dc bd 3a 56 87 bd 76 22 cd 3c b7 9f f3 bd
       -0.10757379 -0.06608243 0.025040846 -0.118956976
000120 d7 8d 40 3c 7a 15 7f bc 13 60 6e bd 23 4a 46 bd
       0.011752567 -0.015569085 -0.058197092 -0.048410546
000130 cc 02 11 3d a5 e6 be 3c fd c4 3a bc 9b fa 12 3c
       0.035403058 0.02330334 -0.011399505 0.008970882
000140 ed 9b 1e 3d e8 cd 19 3d 9d 50 d6 3c 74 cd 2d 3d
       0.03872292 0.037549883 0.026161486 0.042432263
000150 df d1 8f bc e6 90 8b 3c d8 63 16 bd fb be bc 3b
       -0.017556129 0.017036866 -0.036716312 0.0057600713
000160 6d a8 6c 3d 1e f8 39 3d c6 b9 bb bd 6a 14 55 3c
       0.05777781 0.04540264 -0.09166293 0.013005355
000170 64 cb 90 ba e9 4b a5 bc cb 71 bf 3d 5b 4c 93 bc
       -0.0011046943 -0.020177798 0.09347876 -0.017980745
000180 b1 65 fe 3c 0a 93 d9 3c 7d 8a 5d 3a 41 e1 84 3d
       0.03105435 0.026559372 0.00084511173 0.06488276
000190 ed 72 8a bc cf 6e 82 3d dd 6b 09 bd 15 1e 38 bc
       -0.016900504 0.06368791 -0.033550132 -0.011237641
0001a0 3e 2d 0e bd 5f 8a 01 bc 53 11 52 bd 33 fa 9c 3c
       -0.034711115 -0.007906525 -0.051286053 0.019162273
0001b0 a7 3c 02 3a 6c 77 c8 3c 15 5d 78 3c 56 20 3c bd
       0.00049681443 0.024471007 0.015158911 -0.045929275
0001c0 f6 58 6f bd 49 14 ce bc 99 4d 75 bd f4 89 b5 3c
       -0.05843445 -0.025156157 -0.059888456 0.022160508
0001d0 bc 05 05 bb 64 e2 c7 bc d8 ae 57 bc 43 56 89 bd
       -0.0020297607 -0.024399944 -0.013164245 -0.06705906
0001e0 24 36 4b bd 9e 19 fd bb 25 2e a2 bd de 21 70 bc
       -0.04961218 -0.007724001 -0.079189576 -0.014656512
0001f0 a0 a3 b7 bd 8e bc c4 3c b6 bd 31 bc 66 ab 8c 3c
       -0.08966756 0.024015691 -0.010848453 0.017171573
000200 8d 9f cf 3d fd 21 8f 3a e9 dc ac 39 d5 d9 15 bd
       0.10137854 0.0010920163 0.00032970987 -0.036584694
000210 39 f3 2c bd 4d c7 a2 3d 51 1e 53 3c bb 5f e3 3b
       -0.042224143 0.0794817 0.012885646 0.006938902
000220 5c 72 1f bd a9 db fc bd a2 b1 b3 bd af 39 11 bd
       -0.03892742 -0.12346584 -0.08774115 -0.035455402
000230 b9 7c 55 3d 3a 5c b3 3d c2 37 fe 3d f6 17 47 3c
       0.052120898 0.08757825 0.12412979 0.012151709
000240 09 3a 68 3c c2 1c a8 bd d4 07 2b bd d7 9e a2 bd
       0.014173993 -0.0820861 -0.041755512 -0.079404525
000250 cb 0d b4 bb 63 52 9d bd 0b cb 80 3c 86 2b 0e 3c
       -0.0054948083 -0.0768173 0.015721818 0.008677369
000260 b8 2f 99 3c 40 c6 19 bc e7 c6 4e 3c db 65 86 bd
       0.018699512 -0.009385645 0.012620664 -0.06562396
000270 e2 12 80 3c 2c 38 b1 3b e6 00 a6 3c d2 7a da ba
       0.015634004 0.0054083075 0.0202641 -0.0016668683
000280 82 02 c5 bc 3f e8 08 bd f5 0b fe 3c be 4c 55 3d
       -0.024049047 -0.033424612 0.031011561 0.05207514
000290 c7 28 08 bd 76 c0 02 bd 99 f2 3b 3c 15 60 15 3d
       -0.033242013 -0.031921826 0.011471414 0.036468584
0002a0 64 80 8a 3c e3 4f 14 3d 65 f6 c9 bc f0 b7 7a bc
       0.016906925 0.036209 -0.024653623 -0.015302643
0002b0 17 94 5b bc 0c 84 0e bd 4a 41 92 3c 47 52 fd 3c
       -0.013402007 -0.0347939 0.017853398 0.030923022
0002c0 db 1b 4f bd b9 5f 2d bd 54 3c 15 3d c7 19 88 3d
       -0.050563674 -0.042327616 0.036434487 0.06645542
0002d0 e8 4a 34 3e e8 9f 0d bd d7 de 63 bd a7 9f 93 bc
       0.176067 -0.034576327 -0.05563244 -0.018020464
0002e0 18 1c 06 3d 97 f5 23 3e c5 07 28 3d b4 0b f6 bc
       0.032741636 0.16011654 0.041023035 -0.030034877
0002f0 c2 14 8c bc e4 27 36 3d 66 00 d1 bb f6 b3 19 3c
       -0.017099742 0.044471636 -0.0063782213 0.009381285
000300 76 06 d9 bc e9 d6 9d 3c c1 1c 12 bd 00 ac cf 3d
       -0.026492339 0.019267516 -0.035671953 0.10140228
000310 a9 ca 01 bc 05 6c 04 3d ed 35 7d 3d 2c 49 88 3b
       -0.007921853 0.032329578 0.061819006 0.0041591134
000320 a0 b8 46 bc 92 cc 8b 3b eb 9f c3 3d 7d 74 59 3d
       -0.012128979 0.00426633 0.09551986 0.053089608
000330 c1 c5 88 bc 9e fb 49 bd f8 91 8e bd 6a 92 c7 bc
       -0.016695859 -0.049312226 -0.06961435 -0.024361808
000340 a1 0f 73 3d 3a 09 b2 bb c8 cb 06 be 29 58 bd bd
       0.059341077 -0.005433229 -0.13163674 -0.09245331
000350 86 a9 67 3d 24 38 b1 bc 9f b0 12 bc 0e 48 03 bd
       0.056558155 -0.021633215 -0.008953243 -0.03205114
000360 7b 35 a7 bc 83 9a b1 3d 9d 28 6b 3d 47 8b 49 bc
       -0.020411244 0.08672049 0.05741178 -0.012301273
000370 68 76 55 bc ac cc 5f bd fc a3 a8 bc b7 b8 1c bc
       -0.0130287185 -0.05463855 -0.020586006 -0.009565524
000380 2a 2b d8 bc 2c 1b d1 3c 9b 9e 55 3d 8d 65 08 bc
       -0.02638777 0.025525652 0.05215321 -0.008324993
000390 1f f1 08 be 95 98 b8 bd fc a1 21 3c d5 ce f2 3c
       -0.1337323 -0.09013478 0.00986528 0.02963964
0003a0 ca 24 11 3c 0d 7f 6a bd 5a bc d1 bb e7 bd 80 bd
       0.008858869 -0.05725007 -0.006400627 -0.06286221
0003b0 f5 ea 1e 3a f3 a1 39 3d 2c 13 b5 3c 74 83 86 bd
       0.0006062233 0.045320462 0.022103868 -0.065680414
0003c0 7c cb 3b bc 5c 5f ca 3c a4 ac 8e 3d 07 b2 2d 3d
       -0.011462089 0.024703674 0.06966522 0.04240611
0003d0 16 10 1b bd 23 78 65 bd 6c 1a 4d bd d7 50 93 bd
       -0.037857138 -0.056022774 -0.050074026 -0.07193153
0003e0 53 ae f9 bd e9 cc 2e bd e5 83 e6 bc 52 1b 2e 3d
       -0.12191453 -0.042675886 -0.028139064 0.042506523
0003f0 9a 60 ac bc 6d dd ba bd 19 aa 58 bd 3e 15 f6 3c
       -0.021042157 -0.09124265 -0.052896593 0.030039426

module.residual_layers.0.1.bn1.weight f4 [16]
000000 3a 9b cf 3e 2d 25 98 3e 47 70 b6 3e 57 d8 ba 3e
       0.40548116 0.29715863 0.35632536 0.3649318
000010 16 70 da 3e 04 1f bc 3e 2d 84 db 3e 78 58 b6 3e
       0.4266364 0.36742413 0.4287428 0.3561437
000020 5e 18 dd 3e 88 dd e8 3e bd 87 b4 3e 2d ca cd 3e
       0.43182653 0.45481515 0.3525981 0.4019331
000030 9e 81 b8 3e ce 50 b6 3e 07 7c ac 3e 81 d8 c4 3e
       0.3603639 0.35608524 0.33688375 0.3844643

module.residual_layers.0.1.bn1.bias f4 [16]
000000 c0 82 a2 be d4 6b 42 be eb 54 9c be 4d 4c 72 be
       -0.3174038 -0.18986446 -0.30533537 -0.23661919
000010 92 24 1e be 7a 9e c4 bd 83 e4 9a be 0d a6 e9 be
       -0.15443638 -0.096005395 -0.30252466 -0.456345
000020 8b 8f c9 be 86 9f 65 be 96 eb 20 be e4 83 2e be
       -0.39367327 -0.22424135 -0.15714869 -0.170425
000030 4a 94 93 be d9 16 5e be be da 76 be e3 34 be bd
       -0.28824073 -0.21688403 -0.24106881 -0.09287431

module.residual_layers.0.1.bn1.running_mean f4 [16]
000000 b4 8f 31 be 04 5a 85 3f 87 f5 70 3c 45 2c 1b bf
       -0.17339975 1.0418096 0.014706976 -0.60614425
000010 f2 d7 2f bf ce 92 4e bf c9 24 fc be bd 42 f6 3f
       -0.6868888 -0.80692756 -0.49246815 1.9239117
000020 3a da ce be 20 a9 31 bf 0a bb 9f 3d 72 e9 94 be
       -0.4040087 -0.6939869 0.07799347 -0.29084355
000030 a1 b6 99 be 6a 87 2a bf 1a cb 59 bf da 4a 1d c0
       -0.30022147 -0.66612875 -0.85075533 -2.4576936

module.residual_layers.0.1.bn1.running_var f4 [16]
000000 fb 35 1d 3f 67 0a c4 3e 80 d9 d1 3e 43 39 c4 3e
       0.6141049 0.38289186 0.40986252 0.38324937
000010 a6 65 17 3f ba 1e 0d 3f 6f 4c 04 3f 03 de f4 3e
       0.5913948 0.5512501 0.5167913 0.47825631
000020 d3 30 d1 3e 7b ad 89 3f db 76 1a 3f a0 f4 0d 3f
       0.40857562 1.0756067 0.6033761 0.55451393
000030 64 4e e0 3e 83 6f 14 3f 57 e5 c3 3e 6c 2e 1a 3f
       0.43809807 0.57982653 0.3826091 0.60227084

module.residual_layers.0.1.conv2.weight f4 [16, 16, 5, 5]
000000 c8 31 2c bc ba 51 29 3c b8 18 86 bd d9 fd 8c 3d
       -0.010509916 0.010334427 -0.065476835 0.06884355
000010 da ac f8 bc 28 c7 82 bd 37 11 39 bc 70 8b d1 bd
       -0.03035586 -0.06385642 -0.011295608 -0.10231674
000020 29 d8 85 bd c7 33 e3 bc 76 ec f7 bb b5 c4 d3 3a
       -0.0653537 -0.02773465 -0.00756603 0.0016156646
000030 2a 22 82 bd ee 1a 9f bc d7 9e 30 3d d2 dd eb bd
       -0.063541725 -0.01942202 0.04312023 -0.11516918
000040 a4 2d fc 3c 06 60 67 3c 44 01 2a 3d c5 e6 96 3d
       0.030783482 0.014122015 0.041505113 0.073682345
000050 d9 dc de 3c 5d cb b1 bd eb b9 13 bd 7d 25 f4 39
       0.027204918 -0.086813666 -0.036065977 0.00046567238
000060 51 23 00 bc e2 2e 0a bd c4 ae 76 3d dd 19 1a 3d
       -0.00782092 -0.033736117 0.060225263 0.03762232
000070 e4 ea 4c 3c b6 0b 72 bd f1 c3 a9 3b 7a 32 bf 3c
       0.012507174 -0.0590932 0.0051808287 0.023339499
000080 b1 1a 86 bc f0 a2 1e bd 15 16 95 bd 04 be 08 3c
       -0.01637015 -0.038729608 -0.072796024 0.0083460845
000090 f1 e8 08 3d b9 68 cc bc 81 a5 2a bd 51 a5 39 bd
       0.033425275 -0.02495228 -0.041661743 -0.045323674
0000a0 8a 5f 9f 3c 97 03 1f 3d 11 04 b5 bb 8b 22 f1 3c
       0.019454736 0.038821783 -0.0055241664 0.029435417
0000b0 f7 44 09 3d 1f 9b 43 bc 25 9c 6a 3c 03 67 94 ba
       0.033513036 -0.011938839 0.014319454 -0.0011322204
0000c0 26 77 67 3d 47 20 25 3d f8 04 91 bd aa 6a bd bd
       0.056510113 0.040313985 -0.07081026 -0.0924886
0000d0 da bc 79 bd 11 88 2b bd e4 e4 dd bd da cd e9 bd
       -0.06097112 -0.04187781 -0.10834673 -0.11416216
0000e0 24 1b 5b bd 39 27 c9 bc 58 83 3e 3b 26 d3 20 be
       -0.05349268 -0.024554836 0.0029069986 -0.15705547
0000f0 6b af 01 bd 70 af bb bd 2a 41 d9 bc bb e4 1e bd
       -0.031661432 -0.091643214 -0.02652033 -0.038792353
000100 61 e3 98 bd 43 7d 91 3d 10 38 a6 bc 83 cc a1 3c
       -0.07465244 0.0710397 -0.020290405 0.01975084
000110 5c c8 23 bd ad bb b9 bc 5a 94 6f 3c f1 ba 09 bd
       -0.039986 -0.022672499 0.014622772 -0.033625547
000120 a6 f9 2b bd c8 50 fe bc 43 e1 00 bd 9a 0a 49 bd
       -0.04198613 -0.031044379 -0.031464826 -0.049082376
000130 85 78 df bc c4 74 1e bd 0b b7 59 bd 89 c2 8d bd
       -0.027279148 -0.038685575 -0.05315308 -0.0692187
000140 c1 18 a3 3c 2c 6d b2 3c ba ee 34 bd b4 0b 28 bc
       0.019909265 0.021780573 -0.04417298 -0.0102566965
000150 ca 54 28 bd 63 0b f7 3c 86 6b 1b 3c 09 13 44 bd
       -0.041096486 0.030156797 0.009486085 -0.047869716
000160 a3 b7 9a 3c c7 57 88 bd 84 f0 14 3c ec e0 a0 3c
       0.018886393 -0.06657367 0.0090905465 0.019638501
000170 22 42 6e bd ee 19 f5 3c 3d 18 2f 3c f3 77 ea 3c
       -0.058168538 0.02991959 0.010686931 0.02862165
000180 4d 95 8f ba ab a8 08 bd 28 25 ab 3c 91 dd e4 3d
       -0.0010954529 -0.03336398 0.02089174 0.11175073
000190 d2 86 cd 3d 27 b2 5a 3d c3 1d 71 3d 03 76 15 3d
       0.100354806 0.053392556 0.058866274 0.036489498
0001a0 a6 f0 44 3d ff a8 2d 3c 86 2e 9e 3c 2b aa 42 3d
       0.048081063 0.010599374 0.019309293 0.047525566
0001b0 ba b8 05 bd 15 b8 9d 3c 54 1b cf 3d 65 ad 03 3d
       -0.032646872 0.019252816 0.10112634 0.032147784
0001c0 3c d7 07 bd eb 69 80 bd a1 3e 9b bd e7 6d 60 bd
       -0.033164248 -0.06270202 -0.07580305 -0.05479231
0001d0 58 20 9c bd 59 12 be bd 2b 44 ab bd 47 0c f1 bd
       -0.076233566 -0.09280843 -0.083626114 -0.1176992
0001e0 98 64 90 bd 2b cf 37 38 7b 94 fc bc 89 0d 61 bd
       -0.07050437 4.382354e-05 -0.03083252 -0.05494455
0001f0 7a 57 97 bd 7e 81 56 3d e4 d8 bd 3d c5 5e 81 3d
       -0.07389732 0.052369587 0.09269884 0.06316904
000200 25 dc d2 bd 33 e4 28 bd 35 5a 13 3d 04 1c 03 3d
       -0.102958955 -0.041233253 0.0359747 0.03200914
000210 ff 64 83 bc 9d 67 67 bd 46 17 88 bb 0d cc 81 3c
       -0.01603937 -0.056495298 -0.004153165 0.01584437
000220 cd 84 1e bd bb fd 60 bd 8d 5f 52 bd 5f 4e 30 3d
       -0.038700867 -0.054929476 -0.051360656 0.04304349
000230 81 ae eb 3c fc fe d2 bc cf 0a 0a bc 44 7e c8 3b
       0.028769733 -0.025756352 -0.0084254285 0.0061185677
000240 54 8b 07 bc 14 08 88 bc bd f5 31 bc 2c 96 36 3d
       -0.0082729645 -0.016605414 -0.010861811 0.04457681
000250 3b b0 e7 3c b7 42 c2 3d a5 91 0b 3b de b7 85 bc
       0.028282275 0.09485381 0.0021296528 -0.016323026
000260 b8 92 0f be df 6e 69 3c 70 3e a2 3d 84 9f 0a bb
       -0.14020813 0.014247625 0.07922065 -0.0021152208
000270 74 54 90 bd 37 2c ad bd 0d cb c5 bc 52 bd 82 bd
       -0.07047358 -0.08455699 -0.024144674 -0.06383766
000280 d8 44 18 bd cc f1 fa bc 9e 60 70 3c e6 8c 20 3d
       -0.03717503 -0.030632876 0.014671473 0.03919687
000290 bd 30 a2 3d 82 82 3c 3d 3e f6 e2 bc 8b 43 7a bd
       0.07919452 0.0460229 -0.027705308 -0.06109957
0002a0 06 f2 9b bd 12 e6 be 3d ab 91 83 bd f2 bf ac 3d
       -0.07614522 0.09321226 -0.06424268 0.08435048
0002b0 2e 24 f5 bd 9a 9a 05 bd d4 73 aa 3a 71 f0 e3 3d
       -0.11969791 -0.032618143 0.001300449 0.11129845
0002c0 63 cd 58 3b 6b 5f fe 3b db a1 e2 3c c5 08 8f bd
       0.0033081404 0.0077628396 0.02766507 -0.069840945
0002d0 d7 fd 8f 3b 64 74 83 bd 1f 95 48 bd db 75 22 bc
       0.0043942737 -0.06418684 -0.048970338 -0.009915794
0002e0 32 ac 1f be 62 f6 da 3d f3 36 29 3c ba 10 af bd
       -0.15593031 0.10691525 0.010328042 -0.08548112
0002f0 7e 74 95 bd 45 23 d4 bd 0a 85 7e bb 86 34 97 bd
       -0.0729761 -0.1035829 -0.0038836622 -0.07383065
000300 f2 5f f9 bd 40 69 0f bd e1 58 5d bd 1a 56 0a 3c
       -0.12176503 -0.035012484 -0.05403984 0.00844338
000310 07 7b d0 bc a6 0a b7 bc e7 23 82 3d 6b db 70 3d
       -0.025449289 -0.022343945 0.06354504 0.058803003
000320 4c 0b 02 bd 39 da 89 bd df 4c 2c 3d cf c8 e2 bb
       -0.031749055 -0.06731076 0.042065497 -0.006920911
000330 4d c5 15 bd a4 5b 0c bd 1d 94 c2 bd 75 29 e5 bd
       -0.036565114 -0.034267083 -0.095009066 -0.11189548
000340 5c 47 27 bd d5 cc 35 bd 7d 96 bb bd 98 08 1f be
       -0.040839538 -0.044384796 -0.09159563 -0.15530622
000350 c4 63 2b bd d3 c1 20 3a 27 c9 37 3d e5 b2 2c 3c
       -0.04184319 0.00061323977 0.04486957 0.010540699
000360 f3 b3 08 bd 2f c0 7e bb 90 c2 24 3d 8e 58 44 bb
       -0.033374738 -0.0038871875 0.04022461 -0.002996001
000370 ca 86 df 3d 83 05 6d 3d 4d 7e 69 3d 8c 7b 87 3d
       0.10914381 0.057866585 0.057005215 0.066153616
000380 fc 82 06 3d 52 76 99 bd 63 79 d0 bc 67 51 89 bd
       0.03283976 -0.07493271 -0.025448507 -0.067049794
000390 bb 2a ac bd 2d ec 8c 3d 03 d3 08 3d 69 57 e6 3c
       -0.08406588 0.068809845 0.03340436 0.028117852
0003a0 96 be 8d bb fc e7 ba 3b 28 58 af bc 85 c7 b3 3c
       -0.004325698 0.005703924 -0.02140434 0.021945724
0003b0 2c 0e 9f bd 5f 98 b9 bd 2b 45 c5 bc 8d ce 8f 3d
       -0.07766375 -0.090622656 -0.024080833 0.07021818
0003c0 a2 b1 1c bd 18 75 14 bd 52 70 80 3d 01 3b 24 3d
       -0.03825534 -0.03624448 0.062714234 0.040095333
0003d0 5b 00 6c 3d 39 60 d1 3a 33 db b6 bc 0b 5d 02 bd
       0.057617527 0.0015974111 -0.02232132 -0.031827014
0003e0 04 e8 57 bd 52 d5 f3 3d f5 8f ae 3d 91 bf 1f bd
       -0.0527115 0.11905922 0.085235514 -0.03900105
0003f0 11 32 95 bd f2 c1 67 3d 3c ae 34 3d 84 2f 22 3c
       -0.0728494 0.056581445 0.044111475 0.009899024

module.residual_layers.0.1.bn2.weight f4 [16]
000000 c9 91 8c 3e 66 5e 40 3e 9d 12 93 3e 5f ee af 3e
       0.27454975 0.1878601 0.28725138 0.3436155
000010 1e b6 68 3e 12 47 61 3e 69 9d 9d 3e 14 35 8c 3e
       0.22725722 0.21999767 0.30784157 0.27384245
000020 c2 b3 4b 3e 3f 94 5e 3e 9e e9 8d 3e 7d d4 7d 3e
       0.19892791 0.21736239 0.27717298 0.24788089
000030 0c 68 89 3e 0d 2d 86 3e 5b fd 69 3e 08 15 b5 3e
       0.26837194 0.26206246 0.22850554 0.35367608

module.residual_layers.0.1.bn2.bias f4 [16]
000000 32 46 50 bd b3 fa de 3d 9d e6 4a bf 55 41 e9 bd
       -0.050848193 0.10887661 -0.7925814 -0.11389414
000010 e3 10 de bc 4d 7e 1c bd 6c ce de bd 21 be c7 bc
       -0.027107662 -0.038206387 -0.108792156 -0.024382653
000020 cd b9 f9 bd 68 ac 0c 3e 3c 2c 22 3d 2a fe b5 3d
       -0.12193642 0.13737643 0.039592966 0.088863686
000030 b5 91 ce bc 32 ea 41 be ff 7f aa 3c 2f f7 18 3e
       -0.025215963 -0.18936995 0.020812986 0.14938043

module.residual_layers.0.1.bn2.running_mean f4 [16]
000000 a1 74 25 be dc 68 9b bd 2b 81 36 3c 57 b3 1a be
       -0.16157772 -0.0758836 0.0111391945 -0.15107475
000010 b0 10 2d bc e0 50 ae 3d 50 a1 e0 bd 59 ef 0a be
       -0.010563061 0.085115194 -0.10968268 -0.13567866
000020 6a d6 35 be b8 93 37 3d 36 d8 24 bd ab 4d 85 bd
       -0.17757574 0.04481861 -0.040245257 -0.065089546
000030 15 4f 15 3c a9 a0 9d bd 2e 32 f1 3d 19 5e 5e be
       0.009113093 -0.07696659 0.11777149 -0.21715583

module.residual_layers.0.1.bn2.running_var f4 [16]
000000 25 4a 39 3d ad 31 46 3d c0 51 f6 3c bf 7a 34 3d
       0.045236725 0.04838722 0.030068278 0.044062372
000010 7b 4f 3c 3d 3b 9f 1a 3d 88 e2 47 3d a3 42 26 3d
       0.045974236 0.03774951 0.04880002 0.040590893
000020 95 f1 49 3d 1e 52 29 3d df 7b 34 3d d7 1f 28 3d
       0.049302656 0.04133808 0.044063445 0.04104599
000030 4b 2b 64 3d bd 79 25 3d 46 87 12 3d 37 b9 a6 3d
       0.05570535 0.0403993 0.035773538 0.08140796
