summaries/good_ResNet2_num_blocks1x1_num_channels16_conv3/ckpt.pth (torch, 94707 bytes, 32 tensors)

module.conv1.weight f4 [16, 3, 3, 3]
2.2137245e-09 1.3261996e-08 2.3108522e-09 5.5370797e-09 1.8695088e-08 -1.9549853e-09 -5.612389e-10 2.0852073e-09
-2.0124864e-08 -3.178932e-10 9.613499e-09 6.1529266e-09 1.0444391e-09 1.6362339e-08 1.7165482e-09 -2.923905e-09
1.3246906e-09 -1.6377085e-08 -4.2449986e-09 6.70212e-09 -2.9413318e-09 -1.2227421e-09 1.379688e-08 -4.852996e-09
-9.468443e-09 -4.2685233e-09 -2.4288244e-08 0.23230946 -0.04786447 0.12902561 0.037792485 -0.61942035
-0.046460632 0.034285188 0.09823235 0.074681275 0.10178594 -0.008056848 0.108634986 0.08081733
-0.3980389 0.014558717 0.09934458 0.122551344 0.15093201 0.3258637 -0.32521054 0.052625075
0.32919547 -0.5899513 0.1896231 0.003479859 -0.3527289 0.100228295 0.16902222 0.034454398
0.010038378 -0.16300136 -0.051539488 0.20547894 0.12874682 0.0029507051 -0.02718804 -0.12295695
0.09918569 0.060136516 -0.5454662 0.024538774 0.3589938 -0.44592753 -0.061796077 0.17723045
-0.32812515 -0.123362534 0.06639165 -0.4875357 0.112439066 0.59919983 -0.35761625 0.15737426
0.5405825 0.19165158 0.07084747 -0.10442228 0.29198676 -0.041804522 0.22737831 0.02655345
-0.0940687 0.06659745 -0.30373794 -0.5687374 -0.43736944 -0.110095635 -0.44143018 0.1572702
-0.059059452 -0.06394554 0.3947322 0.19794773 0.15427524 -0.0015241633 0.17706858 -0.14408109
0.11763494 -0.066554636 -0.24818149 -0.01771704 -0.040068418 0.2676304 0.57501036 -0.20328008
-0.8615806 0.3329743 -0.024378214 -0.17319414 -0.0038309223 -0.28378844 -0.010374804 0.084831886
0.17286034 -0.6742804 0.09892979 0.40047047 0.13261648 -0.07514126 -0.17740045 0.12155503
0.02598539 0.23915389 -0.32949975 0.06088583 0.15152133 0.13965498 -0.23860733 -0.10765167
-0.10544433 -0.07720263 0.44318816 0.4229617 0.3698653 0.103880234 -0.62730676 -0.36844486
-0.21498005 0.10971951 -0.15679118 0.29518208 0.7482459 0.3813958 -0.12894918 -0.6053422
-0.5321121 0.12536597 0.18565765 0.33934537 0.11117017 0.39717424 0.4601817 -0.5462225
-0.7084006 -0.29519445 -0.16658139 -0.37690017 0.16762787 -0.17201467 -0.38587907 0.295616
-0.17226407 -0.36312383 0.09410675 0.018217172 -0.11268337 0.022212662 0.100716665 0.049348928
0.32241416 0.036673788 -0.029660553 0.01698295 -0.061387435 -0.07333722 -0.23233613 0.1772444
0.21637832 0.14976023 0.13198282 0.087737724 -0.1478128 0.027221104 -0.19323608 -0.18136337
-0.036934085 -0.2818022 -0.26663998 -0.03445233 -0.2515628 -0.2268301 0.111540034 0.4078187
0.3998842 0.13828735 0.6023571 0.6133066 -0.18783806 0.26479247 0.3140335 -0.07852341
-0.2945126 -0.27565837 -0.09180159 -0.36808246 -0.33511025 0.22311398 -0.07240892 -0.13873994
-0.047386017 0.09067763 -0.009841797 0.0021381183 0.04700723 -0.07890914 0.11466509 0.16554189
0.08681084 -0.30749348 0.030418405 -0.15936689 -0.14132059 0.093482435 -0.115987584 0.19216011
0.36036086 0.19676577 -0.15850738 0.33146325 0.13263157 -0.13746245 0.15559901 -0.04763925
-0.06582644 0.007886957 -0.113892436 -0.096358374 0.055134404 0.003862503 0.105261296 0.40416348
-0.4330794 -0.28858176 0.10074297 0.05529917 -0.079261884 -0.03954844 0.19829127 0.6470178
00000000: 4120 1831 e0d6 6332 f1cc 1e31 ab40 be31
00000010: ef96 a032 7758 06b1 ad45 1ab0 5b4b 0f31
00000020: 0bdf acb2 7ec3 aeaf 9e28 2532 b769 d331
00000030: ef8b 8f30 2a8d 8c32 aceb eb30 e1ed 48b1
00000040: 6810 b630 97ad 8cb2 67db 91b1 7948 e631
00000050: 7520 4ab1 6a0d a8b0 5207 6d32 67bf a6b1
00000060: a7aa 22b2 54aa 92b1 6aa2 d0b2 88e2 6d3e
00000070: 890d 44bd 4a1f 043e 4bcc 1a3d 5592 1ebf
00000080: 814d 3ebd a06e 0c3d 0b2e c93d 7ff2 983d
00000090: 2675 d03d df00 04bc 057c de3d 8e83 a53d
000000a0: c1cb cbbe af87 6e3c 2c75 cb3d 33fc fa3d
000000b0: ec8d 1a3e 9bd7 a63e ff81 a6be 648d 573d
000000c0: 4f8c a83e 0c07 17bf 8f2c 423e 590e 643b
000000d0: e298 b4be 7e44 cd3d 2914 2d3e 0e20 0d3d
000000e0: 0278 243c d4e9 26be 121b 53bd 1269 523e
000000f0: 35d6 033e 9e60 413b 74b9 debc dad0 fbbd
00000100: de21 cb3d b551 763d aca3 0bbf 8a05 c93c
00000110: 09ce b73e 9d50 e4be e21d 7dbd e67b 353e
00000120: 0500 a8be 7fa5 fcbd 58f8 873d 479e f9be
00000130: 7446 e63d 2965 193f 7a19 b7be b826 213e
00000140: 9d63 0a3f 5040 443e 7a18 913d 59db d5bd
00000150: 4a7f 953e 383b 2bbd dcd5 683e 9f86 d93c
00000160: 17a7 c0bd 3e64 883d 8a83 9bbe c698 11bf
00000170: e3ee dfbe d279 e1bd 2303 e2be 700b 213e
00000180: 53e8 71bd e1f5 82bd 571a ca3e cfb2 4a3e
00000190: 54fa 1d3e 6fc6 c7ba 7751 353e fe89 13be
000001a0: 96ea f03d cc4d 88bd 4a23 7ebe 5323 91bc
000001b0: c81e 24bd da06 893e e133 133f a728 50be
000001c0: 8c90 5cbf 9c7b aa3e d2b4 c7bc ce59 31be
000001d0: 3610 7bbb b84c 91be 15fb 29bc 57bc ad3d
000001e0: 4d02 313e a49d 2cbf b49b ca3d 770a cd3e
000001f0: 9dcc 073e a9e3 99bd 77a8 35be d8f1 f83d
00000200: 50df d43c c2e4 743e 31b4 a8be 6c63 793d
00000210: 6828 1b3e b701 0f3e 7b55 74be 7b78 dcbd
00000220: 32f3 d7bd 6a1c 9ebd 8fe9 e23e 708e d83e
00000230: fc5e bd3e 29bf d43d 2d97 20bf cea4 bcbe
00000240: bb23 5cbe 9fb4 e03d de8d 20be 1b22 973e
00000250: 0b8d 3f3f 4f46 c33e 410b 04be b5f7 1abf
00000260: 8038 08bf f05f 003e 0a1d 3e3e adbe ad3e
00000270: 30ad e33d 6c5a cb3e f09c eb3e 3dd5 0bbf
00000280: be59 35bf ba23 97be 5094 2abe 0ff9 c0be
00000290: a4a6 2b3e 9d24 30be f191 c5be fb5a 973e
000002a0: fe65 30be 5eeb b9be 0abb c03d 2e3c 953c
000002b0: 8ac6 e6bd 54f7 b53c 8a44 ce3d 1a22 4a3d
000002c0: 7813 a53e 4137 163d b0fa f2bc d41f 8b3c
000002d0: 6471 7bbd d331 96bd 86e9 6dbe 8e7f 353e
000002e0: 4792 5d3e bf5a 193e 8126 073e d6af b33d
000002f0: 3d5c 17be cbfe de3c aedf 45be 52b7 39be
00000300: 3248 17bd 6148 90be 0985 88be e31d 0dbd
00000310: d7cc 80be 2646 68be 1a6f e43d 9dcd d03e
00000320: 9fbd cc3e 339b 0d3e 1334 1a3f a901 1d3f
00000330: 9f58 40be e192 873e 00c9 a03e e2d0 a0bd
00000340: 5bca 96be 1823 8dbe 7902 bcbd 4e75 bcbe
00000350: 9293 abbe fe77 643e 214b 94bd d811 0ebe
00000360: d717 42bd 31b5 b93d 7d3f 21bc ac1f 0c3b
00000370: a78a 403d 1d9b a1bd 88d5 ea3d d083 293e
00000380: e2c9 b13d c96f 9dbe 0530 f93c 1331 23be
00000390: 58b6 10be b873 bf3d e68a edbd 9fc5 443e
000003a0: 3881 b83e f77c 493e c24f 22be 8db5 a93e
000003b0: 92d0 073e f5c2 0cbe 5955 1f3e 6021 43bd
000003c0: 03d0 86bd 4c38 013c 7040 e9bd 8a57 c5bd
000003d0: 9dd4 613d 0c22 7d3b 3c93 d73d 84ee ce3e
000003e0: 95bc ddbe fdc0 93be 5552 ce3d 6281 623d
000003f0: 0e54 a2bd 8cfd 21bd de0c 4b3e f5a2 253f

module.bn1.weight f4 [16]
2.4393234e-09 0.77592605 0.41153634 0.3414634 0.52034307 0.48734668 0.24014696 0.19430216
0.42565456 0.47426143 0.55608165 0.4167902 0.21918797 8.929795e-09 0.33643988 0.25557292
00000000: 08a1 2731 17a3 463f e4b4 d23e 4ad4 ae3e
00000010: 3435 053f 8185 f93e 16e9 753e 25f7 463e
00000020: 65ef d93e 65d2 f23e 5e5b 0e3f 8665 d53e
00000030: d072 603e a769 1932 d941 ac3e 74da 823e

module.bn1.bias f4 [16]
-1.4220617e-08 -0.36860895 0.035548247 -0.07574283 -0.1440144 0.16304629 0.018187081 0.01205639
-0.30074733 0.1580998 0.7621438 -0.045865487 0.067706615 -2.8514366e-08 -0.082233705 0.028993942
00000000: ef4e 74b2 50ba bcbe 0a9b 113d 0f1f 9bbd
00000010: 8378 13be 9bf5 263e 13fd 943c 2a88 453c
00000020: 8efb 99be eae4 213e db1b 433f 73dd 3bbd
00000030: c4a9 8a3d c1ef f4b2 256a a8bd b484 ed3c

module.bn1.running_mean f4 [16]
-7.1186164e-09 0.1283647 -0.0051013306 0.23093763 0.17784682 -0.1090839 0.13063698 0.011324324
-0.21274105 -0.055871952 0.07373065 0.026622843 0.0047901613 1.7524206e-08 -0.0033206511 0.018393718
00000000: 0398 f4b1 0972 033e 1029 a7bb ea7a 6c3e
00000010: 7a1d 363e 6167 dfbd b3c5 053e a889 393c
00000020: cad8 59be fdd9 64bd 1800 973d 2618 da3c
00000030: c9f6 9c3b 2388 9632 489f 59bb 6cae 963c

module.bn1.running_var f4 [16]
5.6272846e-15 1.3413335 3.6798484 1.3438233 1.3171383 6.4411983 0.99370396 0.6250438
1.1820948 3.9294133 1.2290852 2.8695962 2.0534058 9.437072e-15 0.4280087 0.4858112
00000000: 8abe ca27 d1b0 ab3f a382 6b40 6702 ac3f
00000010: fd97 a83f 4c1e ce40 6263 7e3f df02 203f
00000020: e24e 973f 827b 7b40 aa52 9d3f 77a7 3740
00000030: 006b 0340 d000 2a28 f523 db3e 3fbc f83e

module.residual_layers.0.0.conv1.weight f4 [16, 16, 3, 3]
-1.2852851e-08 -1.0022529e-08 -7.1888677e-09 -7.313211e-09 -5.0263758e-09 -3.7057728e-09 -2.6474531e-09 -2.1613504e-09
-5.437465e-10 0.026229635 0.0474701 -0.093265966 0.01712834 -0.12971345 0.113881014 0.051958278
0.1052274 0.18888898 0.08969002 0.009833137 0.06473985 -0.15074255 -0.0491863 0.18246602
-0.13156022 -0.1578968 -0.024168102 -0.023520539 0.0044204937 -0.14557137 -0.09124535 -0.021974802
-0.13776612 0.20931849 0.19691572 0.14384168 -0.02881522 -0.19728377 0.12684111 0.07037491
0.1544544 0.10141271 0.07907228 0.26830164 0.21238272 -0.17513524 0.03093821 -0.16760364
-0.1946548 0.1570749 0.014150109 0.15798365 0.12790734 0.107429795 -0.016574612 -0.09598989
-0.072983906 0.14667283 0.17327887 0.07745071 0.2005239 0.12255101 0.0015639337 -0.053635053
-0.27092424 -0.29431674 0.18015154 -0.022900889 -0.08355202 0.27192354 0.19198851 0.08679364
-0.008059076 0.011354521 -0.043664787 0.15087637 0.033982273 0.061055638 -0.062179662 -0.19979039
-0.21349151 -0.06065285 0.10494047 0.18156315 -0.13070323 0.15384395 0.087240934 -0.24515188
-0.11386592 0.006421754 -0.008548777 0.057168216 -0.054401036 -0.09252422 0.17528506 0.1264233
0.049122907 -0.020571178 -0.09169127 -0.28741077 -0.061106738 -0.06568306 -0.1755751 0.02253462
-0.04077405 0.0013134542 0.3531697 0.2655373 -0.16867201 -0.15900557 -0.16378206 -0.05198598
0.034172237 0.055475306 -0.05492093 0.108909026 0.06525221 -4.8305284e-09 -1.3819987e-09 5.2404223e-09
-2.410123e-09 2.9798688e-11 5.1348032e-09 -1.6204523e-09 6.599977e-10 3.7284758e-09 -0.043928694 0.007974762
-0.07943646 -0.16607118 -0.079310715 -0.054899734 0.10351575 0.10432187 0.08325285 -0.02596705
-0.1683682 -0.025705451 -0.049779255 -0.099472284 -0.016104456 0.17753002 0.08227442 0.12461831
1.709288e-09 6.821789e-09 3.9898462e-09 -3.7741454e-09 2.7314881e-09 -3.1795863e-10 -9.9488515e-09 -3.7015029e-09
-7.733892e-09 0.08354599 0.08238006 -0.13877396 0.071270354 -0.011321468 -0.07542837 0.0557148
-0.0327332 0.2467428 -0.20802982 0.110282704 -0.14837918 -0.23253797 0.15424916 0.064116985
-0.31535977 0.10020687 0.18996683 -0.025137551 -0.030046068 -0.22511663 -0.1991204 -0.14218087
-0.24853279 -0.18993118 -0.20236 -0.2558775 -0.1088158 0.08322576 -0.045026116 0.10417923
0.14431275 -0.22383021 0.037327025 0.13372624 0.051310703 0.16235171 0.1275602 -0.1328635
-0.2004926 -0.0011657831 0.087954484 -0.359782 -0.08695906 0.018253652 -0.015795095 -0.07559923
-0.123533376 0.05798197 0.037907694 0.08454757 0.055458684 0.16379784 0.19614348 -0.10077671
0.05507658 0.079913855 -0.12630548 0.06350912 0.089244716 -0.16043147 0.031196898 0.0040460993
-0.2159809 -0.07570045 -0.12773325 0.0013210421 0.02424324 -0.032241967 0.07349117 0.23578069
0.1864888 0.03170193 -0.019876955 0.11217523 -0.13785796 -0.0905814 0.024033578 -0.09494867
-0.17725912 -0.013353601 0.10079369 0.18610904 0.18335275 -0.024722831 -0.16207299 0.023850376
-0.33290482 -0.11543891 -0.2162592 0.004986139 0.08819403 -0.08377935 0.080668196 0.024604855
-0.041387312 0.05467876 0.13543242 0.10304408 0.12196262 0.1544059 0.114515476 -0.09262648
00000000: 70cf 5cb2 8c2f 2cb2 f301 f7b1 af47 fbb1
00000010: 78b4 acb1 a5a8 7eb1 7dee 35b1 e186 14b1
00000020: c276 15b0 88df d63c 0270 423d 3a02 bfbd
00000030: bc50 8c3c 9ad3 04be 733a e93d 34d2 543d
00000040: 7781 d73d 1d6c 413e 67af b73d 2a1b 213c
00000050: 5496 843d 415c 1abe 9377 49bd 5fd8 3a3e
00000060: b9b7 06be b3af 21be 2ffc c5bc 25ae c0bc
00000070: cad9 903b a910 15be d8de babd 8004 b4bc
00000080: 9012 0dbe 9657 563e 46a4 493e 3c4b 133e
00000090: e50d ecbc c204 4abe a3e2 013e b920 903d
000000a0: 4b29 1e3e 78b1 cf3d a6f0 a13d d55e 893e
000000b0: db7a 593e a756 33be 2172 fd3c 4aa0 2bbe
000000c0: 9753 47be 3ed8 203e dcd5 673c 77c6 213e
000000d0: 24fa 023e 2704 dc3d 7bc7 87bc 5996 c4bd
000000e0: 9678 95bd 6731 163e 0470 313e 7a9e 9e3d
000000f0: 2356 4d3e 06fc fa3d e8fc cc3a 6eb0 5bbd
00000100: 95b6 8abe afb0 96be a579 383e a59a bbbc
00000110: 521d abbd 9039 8b3e a398 443e ddc0 b13d
00000120: 370a 04bc 5008 3a3c d9d9 32bd 567f 1a3e
00000130: ff30 0b3d 7a15 7a3d 1ab0 7ebd da95 4cbe
00000140: 859d 5abe 1f6f 78bd 07eb d63d b1eb 393e
00000150: 11d7 05be 4589 1d3e 60ab b23d 1809 7bbe
00000160: 8932 e9bd 946d d23b 2b10 0cbc 3829 6a3d
00000170: 9fd3 5ebd 577d bdbd ed7d 333e 1c75 013e
00000180: 1a35 493d e384 a8bc a2c8 bbbd 8127 93be
00000190: 0f4b 7abd d784 86bd f6c9 33be 869a b83c
000001a0: b102 27bd 3628 ac3a a9d2 b43e 81f4 873e
000001b0: 5bb8 2cbe 5bd2 22be 7cb6 27be 40ef 54bd
000001c0: 30f8 0b3d 133a 633d c5f4 60bd b20b df3d
000001d0: f3a2 853d c7f9 a5b1 c2f0 bdb0 3e0f b431
000001e0: 559f 25b1 570e 032e 356e b031 99b6 deb0
000001f0: 366b 3530 051c 8031 93ee 33bd 93a8 023c
00000200: 95af a2bd 900e 2abe a86d a2bd 8bde 60bd
00000210: 1100 d43d b4a6 d53d 7880 aa3d dab8 d4bc
00000220: b768 2cbe 3d94 d2bc 55e5 4bbd 20b8 cbbd
00000230: 7eed 83bc 6eca 353e 7e7f a83d e237 ff3d
00000240: 3aec ea30 1765 ea31 0f17 8931 bcad 81b1
00000250: d9b4 3b31 b3cc aeaf 83eb 2ab2 875d 7eb1
00000260: 04de 04b2 291a ab3d e0b6 a83d c31a 0ebe
00000270: 31f6 913d ae7d 39bc 307a 9abd 3435 643d
00000280: 3f13 06bd 25aa 7c3e c505 55be e6db e13d
00000290: b6f0 17be 6f1e 6ebe 7ef3 1d3e c44f 833d
000002a0: d676 a1be 4239 cd3d aa86 423e 44ed cdbc
000002b0: 2c23 f6bc f984 66be 38e6 4bbe dd97 11be
000002c0: 617f 7ebe 527d 42be 7637 4fbe 6002 83be
000002d0: d1da debd 4472 aa3d 4e6d 38bd ec5b d53d
000002e0: b9c6 133e bf33 65be 39e4 183d 88ef 083e
000002f0: 2c2b 523d 873f 263e 249f 023e 5f0d 08be
00000300: ef4d 4dbe 31cd 98ba 7b21 b43d 5935 b8be
00000310: 9717 b2bd af88 953c b764 81bc c5d3 9abd
00000320: 11ff fcbd 817e 6d3d 1945 1b3d 4727 ad3d
00000330: a528 633d 9fba 273e d6d9 483e 0564 cebd
00000340: fb97 613d e0a9 a33d 3956 01be 1211 823d
00000350: efc5 b63d 2648 24be a390 ff3c 2495 843b
00000360: 192a 5dbe d608 9bbd 81cc 02be d126 ad3a
00000370: c299 c63c 2710 04bd 8a82 963d 7e70 713e
00000380: ecf6 3e3e e2d9 013d ffd4 a2bc 21bc e53d
00000390: a32a 0dbe be82 b9bd 11e2 c43c 7374 c2bd
000003a0: 6a83 35be 10c9 5abc ec6c ce3d 5e93 3e3e
000003b0: d3c0 3b3e 8987 cabc 76f6 25be dd61 c33c
000003c0: 8072 aabe 3c6b ecbd 0d73 5dbe c462 a33b
000003d0: 129f b43d 8294 abbd 5e35 a53d 1f90 c93c
000003e0: be85 29bd d6f6 5f3d ccae 0a3e c608 d33d
000003f0: 8ac7 f93d 951c 1e3e 1787 ea3d f4b2 bdbd

module.residual_layers.0.0.bn1.weight f4 [16]
0.5972742 0.56735796 0.8169499 0.4928764 0.71316296 0.50081754 0.54948366 0.6203466
0.78003025 0.6725052 0.49037382 0.7413745 0.7519694 0.7317312 0.6907133 0.6064583
00000000: f6e6 183f 5f3e 113f a123 513f 4c5a fc3e
00000010: d991 363f 9435 003f f6aa 0c3f 09cf 1e3f
00000020: 10b0 473f 4d29 2c3f 4712 fb3e b8ca 3d3f
00000030: 1181 403f bc52 3b3f 96d2 303f da40 1b3f

module.residual_layers.0.0.bn1.bias f4 [16]
-0.10038774 -0.021471227 -0.039601345 0.21288018 -0.113751605 -0.050414883 0.009758622 -0.18708813
-0.17395021 -0.2986321 0.030699842 -0.33467457 -0.07050885 -0.22984901 -0.20914547 -0.1710409
00000000: 1698 cdbd 6de4 afbc 0535 22bd 43fd 593e
00000010: 9af6 e8bd d67f 4ebd a1e2 1f3c 0894 3fbe
00000020: 0120 32be 4ee6 98be 3c7e fb3c 775a abbe
00000030: f266 90bd 8a5d 6bbe 3b2a 56be 5825 2fbe

module.residual_layers.0.0.bn1.running_mean f4 [16]
0.23248138 -0.6371605 -0.25058198 -0.3164382 -0.24925922 0.18186335 -0.30748293 -0.64900315
-0.12429123 -0.5804488 -0.35095653 -0.19791283 -0.0646342 -0.5353388 -0.54508334 -0.111778386
00000000: 990f 6e3e f31c 23bf 484c 80be 3004 a2be
00000010: cf3d 7fbe 633a 3a3e 676e 9dbe 1225 26bf
00000020: 678c febd 4b98 14bf 93b0 b3be a9a9 4abe
00000030: ef5e 84bd f70b 09bf 958a 0bbf 11ec e4bd

module.residual_layers.0.0.bn1.running_var f4 [16]
0.16499469 0.17531174 0.61216044 0.1980843 0.26704475 0.15323819 0.22933997 0.16387582
0.4503719 0.11184655 0.14263852 0.19571008 0.6103996 0.2191755 0.26378483 0.16371803
00000000: 5ef4 283e ec84 333e 8cb6 1c3f 9cd6 4a3e
00000010: 17ba 883e 79ea 1c3e 19d8 6a3e 10cf 273e
00000020: 2597 e63e ce0f e53d d50f 123e 3968 483e
00000030: 2643 1c3f 8b6f 603e ce0e 873e b3a5 273e

module.residual_layers.0.0.conv2.weight f4 [16, 16, 3, 3]
-0.024181882 -0.08047994 -0.036495734 0.045916043 -0.03908358 0.0054477598 0.074662566 0.014292186
0.13333437 -0.25421903 -0.16671102 -0.10713198 -0.12484885 -0.061138447 -0.031525176 0.037818052
0.066803955 0.13327065 0.10667725 0.09265002 0.10590124 0.04840632 -0.038542915 0.07973012
-0.13304563 -0.11563052 -0.097278364 -0.09414852 -0.19365233 -0.036115263 0.015360918 -0.052731633
0.05347887 0.27941465 0.16446231 0.21357122 0.09046386 0.10106175 0.09810712 -0.022784397
0.0549784 0.000956514 -0.08049289 -0.02352216 -0.12769617 0.10443026 -0.052666344 -0.0007233849
0.016282443 -0.11415928 -0.012001808 0.104468174 -0.0037236132 0.1531683 -0.22705506 -0.038281776
0.03576917 -0.08021118 -0.06084665 -0.034895137 0.17184561 0.17233606 0.08736294 0.054827206
0.13479874 0.09021042 -0.0111473715 0.035360146 0.07333841 -0.0280374 0.046049017 0.10046613
-0.30183238 -0.16259292 -0.16848512 -0.39256987 -0.26067176 -0.33579484 -0.34015176 -0.22560675
-0.2980133 0.11920798 0.06533572 0.020200117 -0.028487038 -0.084140114 0.021387346 -0.023069011
-0.067730404 0.0040964014 0.0006534488 0.016511016 -0.024909222 0.013988288 -0.05666251 -0.092741214
0.013089307 -0.14732727 -0.1261936 -0.16963838 -0.120578155 -0.17665277 -0.1306403 -0.08070337
-0.19561878 -0.06668904 -0.10243174 -0.090968736 -0.021973545 -0.0592451 0.025818933 -0.06613113
-0.064596824 -0.016402949 -0.096723 -0.07062514 -0.18061197 0.0576451 -0.012837377 0.0229091
0.15963705 -0.036766678 -0.005829592 0.22897345 0.03488644 -0.06517197 0.1583158 0.1461876
0.07670222 0.13540709 0.23550116 0.14110573 0.0076167537 0.14913419 0.1239917 0.01056555
0.003167909 0.13341314 0.03387022 0.07098128 0.038253255 -0.049423788 0.14089729 0.17952006
-0.15003926 -0.0275146 -0.0100123305 -0.1550547 0.016661735 -0.03310342 -0.10023439 -0.012632778
0.0019313281 0.008241484 0.17415865 0.083482 0.048318952 0.03387638 -0.07337792 0.08379903
0.11646178 0.06996052 0.0046924 -0.15147696 0.022789761 0.059736717 0.026641399 -0.019369783
0.04165463 0.02737648 0.0010599854 0.28867385 0.3392736 0.21485217 0.045924477 0.012366236
-0.18256938 -0.007302191 0.017593615 -0.0048978273 0.015412195 0.015829505 0.0023452116 0.060900584
0.04115929 0.04866659 0.018452767 -0.09913247 0.002524569 -0.009032357 -0.09310861 -0.041271206
-0.01832534 0.010104791 -0.057597384 -0.012435645 0.05038455 0.0050176657 0.13133375 -0.09609157
-0.2792864 0.14308402 0.08809916 0.0011511694 -0.03137569 0.041636687 0.12817399 -0.16196923
0.018546626 0.091299765 -0.040558655 0.07804715 0.109209314 -0.0013247684 -0.004810032 0.00061113416
-0.17414689 -0.2092558 -0.21251693 -0.05451983 -0.18850605 -0.2482491 0.013474694 -0.15913367
-0.12052868 -0.122987874 -0.025952175 0.061232332 0.043847132 0.053110544 0.022905609 0.02531556
-0.046193324 0.011540919 -0.00771803 0.13378537 0.0055498388 0.01769386 0.06232301 0.09196513
-0.17044543 0.01638392 0.027820958 0.057695344 -0.06793122 -0.03652077 0.02033478 -0.07642069
-0.06612225 0.08552047 -0.035305414 0.011882302 -0.010341376 0.041969806 0.0065983105 0.052134465
00000000: 1519 c6bc abd2 a4bd 8d7c 15bd 7612 3c3d
00000010: 1b16 20bd 1f83 b23b b0e8 983d c629 6a3c
00000020: ce88 083e ff28 82be 4bb6 2abe 0368 dbbd
00000030: c1b0 ffbd 4f6c 7abd 8b20 01bd 1ae7 1a3d
00000040: 83d0 883d 1a78 083e 9a79 da3d 4bbf bd3d
00000050: c0e2 d83d b545 463d 2ddf 1dbd 8c49 a33d
00000060: 1d3d 08be b2cf ecbd e139 c7bd f0d0 c0bd
00000070: cc4c 46be 99ed 13bd 5cac 7b3c 20fd 57bd
00000080: a90c 5b3d 700f 8f3e cf68 283e 6ab2 5a3e
00000090: 1e45 b93d 76f9 ce3d 63ec c83d 58a6 babc
000000a0: 0831 613d 91be 7a3a 75d9 a4bd 8bb1 c0bc
000000b0: c9c2 02be 88df d53d aab8 57bd 8aa1 3dba
000000c0: c262 853c 57cc e9bd 3ba3 44bc 69f3 d53d
000000d0: dd07 74bb 27d8 1c3e 1f81 68be 5acd 1cbd
000000e0: b182 123d c245 a4bd 563a 79bd 34ee 0ebd
000000f0: 4cf8 2f3e dd78 303e 57eb b23d 7e92 603d
00000100: ae08 0a3e 3ec0 b83d 77a3 36bc cdd5 103d
00000110: 7332 963d b1ae e5bc e59d 3c3d 30c1 cd3d
00000120: c689 9abe c27e 26be 5d87 2cbe ebfe c8be
00000130: c576 85be 4ded abbe 5f28 aebe 7505 67be
00000140: 3395 98be 5023 f43d bcce 853d b77a a53c
00000150: a65d e9bc a751 acbd 8434 af3c 39fb bcbc
00000160: 3db6 8abd 1b3b 863b 354c 2b3a 1c42 873c
00000170: 6d0e ccbc 222f 653c f316 68bd 1bef bdbd
00000180: 8874 563c f6dc 16be e538 01be afb5 2dbe
00000190: aef1 f6bd 77e4 34be 92c6 05be cf47 a5bd
000001a0: 4a50 48be 4394 88bd bbc7 d1bd d14d babd
000001b0: dd01 b4bc fdaa 72bd 3a82 d33c c26f 87bd
000001c0: 574b 84bd 7a5f 86bc b516 c6bd eaa3 90bd
000001d0: 58f2 38be 451d 6c3d dd53 52bc ddab bb3c
000001e0: e577 233e a898 16bd 2906 bfbb 0478 6a3e
000001f0: 15e5 0e3d e278 85bd 891d 223e 34b2 153e
00000200: 0e16 9d3d 28a8 0a3e 3727 713e 057e 103e
00000210: f695 f93b a2b6 183e 5cef fd3d 211b 2d3c
00000220: b29c 4f3b 749d 083e 80bb 0a3d a25e 913d
00000230: 72af 1c3d 9970 4abd 6147 103e 1bd4 373e
00000240: e4a3 19be 4c66 e1bc c20a 24bc a9c6 1ebe
00000250: 317e 883c 7497 07bd b047 cdbd b6f9 4ebc
00000260: 9e24 fd3a 4a07 073c a556 323e 9cf8 aa3d
00000270: 18ea 453d f6c1 0a3d 2a47 96bd d39e ab3d
00000280: 8483 ee3d 7647 8f3d b4c2 993b c71c 1bbe
00000290: 98b1 ba3c 7dae 743d 103f da3c 61ad 9ebc
000002a0: 0c9e 2a3d a444 e03c 35ef 8a3a 0fcd 933e
000002b0: 45b5 ad3e 3502 5c3e 4e1b 3c3d c19b 4a3c
000002c0: 78f3 3abe 3847 efbb 7c20 903c f47d a0bb
000002d0: 6e83 7c3c e1ac 813c 1fb2 193b e472 793d
000002e0: a596 283d 9e56 473d 422a 973c f705 cbbd
000002f0: 3d73 253b 73fc 13bc baaf bebd ff0b 29bd
00000300: 061f 96bc 918e 253c 3ceb 6bbd e0be 4bbc
00000310: 0860 4e3d 3b6b a43b 5b7c 063e a8cb c4bd
00000320: a1fe 8ebe 9e84 123e 556d b43d d6e2 963a
00000330: cc83 00bd 3b8b 2a3d 0b40 033e 43db 25be
00000340: 18ef 973c 5ffb ba3d d520 26bd 2fd7 9f3d
00000350: 22a9 df3d daa3 adba 799d 9dbb 8534 203a
00000360: 9053 32be 2747 56be 0a9e 59be 2f50 5fbd
00000370: bb07 41be 0335 7ebe f7c4 5c3c f0f3 22be
00000380: bed7 f6bd 11e1 fbbd a899 d4bc c1ce 7a3d
00000390: 0d99 333d 718a 593d 8ba4 bb3c 9462 cf3c
000003a0: 3635 3dbd 1f16 3d3c 87e7 fcbb 08ff 083e
000003b0: 6cdb b53b b7f2 903c 6a46 7f3d 3758 bc3d
000003c0: 3f89 2ebe 9237 863c c7e8 e33c f451 6c3d
000003d0: 861f 8bbd ce96 15bd 2095 a63c 7382 9cbd
000003e0: 1a6b 87bd 5b25 af3d 699c 10bd fdad 423c
000003f0: e06e 29bc 88e8 2b3d a436 d83b f38a 553d

module.residual_layers.0.0.bn2.weight f4 [16]
0.61737394 0.9206219 0.7663648 0.7639661 1.020707 0.6324995 0.88369375 0.43475106
0.57635844 0.9537996 0.92943466 0.43559238 0.42966357 1.0567237 0.5074867 0.69030684
00000000: 380c 1e3f e0ad 6b3f 7c30 443f 4893 433f
00000010: 87a6 823f 7deb 213f c139 623f b197 de3e
00000020: 3a8c 133f 362c 743f 6eef 6d3f f705 df3e
00000030: ddfc db3e b942 873f a6ea 013f f3b7 303f

module.residual_layers.0.0.bn2.bias f4 [16]
0.10416583 -0.12348667 -0.0016518884 0.05550974 -0.30145866 -0.19379109 -0.2763871 0.18888715
-0.18135221 -0.6828059 -1.5504311 -0.0056744074 0.38533735 -0.2661905 0.22382705 -0.043014143
00000000: e554 d53d 94e6 fcbd 2d84 d8ba 2e5e 633d
00000010: ca58 9abe 2c71 46be 9c82 8dbe a26b 413e
00000020: 65b4 39be 5ecc 2ebf 8774 c6bf 61f0 b9bb
00000030: f04a c53e 1f4a 88be eb32 653e 992f 30bd

module.residual_layers.0.0.bn2.running_mean f4 [16]
-0.2686972 -0.08752609 -0.23353799 0.39946827 -0.75933444 -0.14065203 -0.23419352 0.34572178
-0.32999074 -0.19012277 -0.38591796 0.30161637 -0.80001605 -0.94737244 -0.016895408 -0.15895498
00000000: ae92 89be e140 b3bd 9524 6fbe 1b87 cc3e
00000010: be63 42bf 1607 10be 6dd0 6fbe 7202 b13e
00000020: 8cf4 a8be 8baf 42be 0a97 c5be 766d 9a3e
00000030: dacd 4cbf 0087 72bf 3d68 8abc 18c5 22be

module.residual_layers.0.0.bn2.running_var f4 [16]
0.50857276 0.3407044 0.404598 0.31180727 0.85371464 0.29708576 0.5887939 0.23899004
0.14965887 0.34033662 0.20635231 0.24872932 0.2660106 0.8309566 0.29623625 0.267682
00000000: d331 023f cf70 ae3e 7827 cf3e 34a5 9f3e
00000010: 0b8d 5a3f a01b 983e 32bb 163f ceb9 743e
00000020: 2d40 193e 9a40 ae3e 054e 533e e6b2 7e3e
00000030: 8b32 883e 92b9 543f 47ac 973e 9d0d 893e

module.residual_layers.1.0.conv1.weight f4 [32, 16, 3, 3]
-0.08505443 -0.03265331 -0.0034120288 -0.022990268 -0.023479212 0.014879577 -0.11610374 -0.10292447
-0.060355857 -0.19852577 -0.15826468 -0.26788324 -0.021778032 0.04737098 -0.13278541 -0.01692836
0.037019473 -0.15238442 0.11652529 0.07929739 0.07567772 -0.114861 -0.09410281 -0.012364199
-0.19355136 -0.1848894 -0.0769493 -0.18472165 -0.16100706 -0.12825532 -0.061376274 -0.037127465
-0.034780234 -0.09132677 -0.115809195 -0.11217217 0.13233766 0.070643395 0.08620759 0.10116135
0.050021354 0.047033682 0.17535138 0.21519276 0.16609661 -0.06484826 -0.053000085 0.016624544
-0.08686929 -0.07006441 -0.08103657 -0.10253531 -0.13251027 -0.092644766 -0.12544405 -0.065586865
-0.11245509 -0.029835587 0.00992984 -0.02620386 -0.009586967 0.06694605 0.085510984 -0.0928127
-0.12839298 -0.16088267 -0.014989518 -0.093566984 -0.06666383 0.16684107 0.04847898 0.054985005
-0.2174045 -0.060333997 0.058281302 -0.156358 -0.06901739 -0.015822679 0.055229858 0.009925256
-0.031200323 -0.0008372182 0.0391052 0.03941177 -0.0043892064 0.036079835 0.05449937 0.040680904
0.060585495 0.049022306 0.054293018 -0.0062253634 -0.0028608055 -0.018242965 -0.010340902 -0.010589637
-0.114269525 -0.14088942 -0.1086126 0.030110657 0.052148543 0.14364153 0.056380045 -0.023003513
-0.0025728196 -0.031362493 -0.08215462 0.0566835 -0.111448705 -0.105641 -0.09216175 -0.050888665
-0.054465495 0.07191839 0.0079671005 0.124001674 0.2793762 -0.25895786 -0.24524395 -0.11524785
0.032308705 -0.08696165 -0.091970205 0.17040277 -0.013015977 -0.06871223 -0.023232795 -0.038870968
-0.069697164 -0.007317291 -0.0039940816 -0.008193247 0.06381224 0.010077295 0.010959344 0.014824894
-0.05700734 -0.050152514 -0.07627102 -0.09228717 -0.12807985 -0.18002622 -0.18364057 -0.17201987
0.071059495 0.13546787 0.120435685 0.09951987 0.14280836 0.09551051 0.15399466 0.115061894
0.09864138 0.053123843 0.021362757 0.032944914 -0.014222576 -0.028593782 0.00359226 -0.008259426
-0.0028574646 -0.002570156 -0.06284262 -0.10734716 -0.14702852 0.01923821 0.034046307 -0.05408375
-0.013363244 0.11484165 0.018936986 -0.038644142 0.00034053306 -0.07476097 -0.1194438 -0.039926186
-0.13441415 -0.0143891955 0.12085787 0.0077012544 -0.106694706 -0.10526988 -0.17949581 -0.009835159
-0.0889672 -0.16266817 -0.023785552 -0.0875659 -0.04751466 -0.11350563 -0.12397506 -0.11341848
-0.121599 -0.08698564 -0.05752594 -0.21263765 -0.0945537 0.040596254 -0.057418194 0.044206485
0.16964234 0.015738493 0.09292769 0.16936134 0.02646866 0.20668666 0.23186141 -0.2387353
-0.07417747 0.09634195 -0.17826594 0.024685765 0.21068555 -0.20985061 -0.016657753 0.17878741
0.020042023 -0.011579045 0.018656068 0.023878815 -0.0066994647 -0.007454349 0.106527716 0.036410596
0.027352747 -0.052035265 -0.046808247 -0.015024378 0.019320915 0.112043954 0.0840318 0.048180636
0.14122157 0.08484403 -0.06872504 0.028690817 0.09799881 0.009831363 0.040645648 0.01747553
0.09758982 0.06889978 0.019762183 0.013917959 -0.109141245 -0.005544101 0.045119975 -0.09403554
-0.059284095 0.013107618 -0.025539694 0.035793155 0.111290224 -0.0634481 -0.15744923 0.06935541
00000000: 0431 aebd 7abf 05bd 589c 5fbb 1656 bcbc
00000010: 7a57 c0bc 78c9 733c ccc7 edbd 11ca d2bd
00000020: b437 77bd 574a 4bbe 2310 22be fe27 89be
00000030: d867 b2bc 1308 423d e6f8 07be 58ad 8abc
00000040: bba1 173d a90a 1cbe d0a4 ee3d ac66 a23d
00000050: ecfc 9a3d 3e3c ebbd f9b8 c0bd 3693 4abc
00000060: 5432 46be a653 3dbe 9897 9dbd ac27 3dbe
00000070: 09df 24be 5d55 03be b065 7bbd f812 18bd
00000080: b875 0ebd 8809 bbbd 5f2d edbd 86ba e5bd
00000090: 8683 073e 7cad 903d 9b8d b03d af2d cf3d
000000a0: 31e3 4c3d 64a6 403d 508f 333e 7e5b 5c3e
000000b0: 3b15 2a3e 2acf 84bd 9e16 59bd 3230 883c
000000c0: 87e8 b1bd ee7d 8fbd 80f6 a5bd 08fe d1bd
000000d0: c6b0 07be 8abc bdbd 6874 00be 6852 86bd
000000e0: db4e e6bd c369 f4bc c5b0 223c 7aa9 d6bc
000000f0: a712 1dbc 031b 893d 6220 af3d 9614 bebd
00000100: 7379 03be 6dbe 24be 9896 75bc 0ca0 bfbd
00000110: 0c87 88bd 63d8 2a3e e591 463d f537 613d
00000120: 499f 5ebe c820 77bd 60b8 6e3d 501c 20be
00000130: fd58 8dbd 909e 81bc b438 623d 8a9d 223c
00000140: d297 ffbc c378 5bba c62c 203d 3c6e 213d
00000150: 55d3 8fbb 73c8 133d bb3a 5f3d 05a1 263d
00000160: 7f28 783d 9dcb 483d 5b62 5e3d 22fe cbbb
00000170: 5a7c 3bbb 4572 95bc e36c 29bc 2880 2dbc
00000180: 2406 eabd 5145 10be 4870 debd a0aa f63c
00000190: b699 553d c416 133e c3ee 663d dd71 bcbc
000001a0: c09c 28bb f575 00bd ae40 a8bd f52c 683d
000001b0: 383f e4bd 4f5a d8bd 4dbf bcbd a270 50bd
000001c0: 3617 5fbd f349 933d 7188 023c 97f4 fd3d
000001d0: 660a 8f3e 2096 84be 3b21 7bbe 1107 ecbd
000001e0: 2256 043d f318 b2bd e05a bcbd 107e 2e3e
000001f0: f740 55bc ffb8 8cbd b452 bebc 2a37 1fbd
00000200: 63bd 8ebd e3c5 efbb c9e0 82bb f83c 06bc
00000210: feaf 823d 3d1b 253c d28e 333c 1de4 723c
00000220: 8780 69bd b96c 4dbd fb33 9cbd 0e01 bdbd
00000230: 5d27 03be cb58 38be 460c 3cbe fa25 30be
00000240: a487 913d 17b8 0a3e fca6 f63d 13d1 cb3d
00000250: 5b3c 123e 049b c33d c7b0 1d3e 92a5 eb3d
00000260: 7e04 ca3d 6398 593d f300 af3c 3ff1 063d
00000270: cf05 69bc 823d eabc 1f6c 6b3b 8b52 07bc
00000280: 4d44 3bbb 1070 28bb a2b3 80bd d4d8 dbbd
00000290: a58e 16be 7399 9d3c 2474 0b3d ec86 5dbd
000002a0: 82f1 5abc 1932 eb3d bd21 9b3c 5249 1ebd
000002b0: 9389 b239 481c 99bd f39e f4bd a489 23bd
000002c0: dda3 09be a9c0 6bbc 5584 f73d ce5a fc3b
000002d0: c182 dabd bc97 d7bd c0cd 37be a623 21bc
000002e0: 6f34 b6bd 7c92 26be ebd9 c2bc c055 b3bd
000002f0: bb9e 42bd a475 e8bd a3e6 fdbd f347 e8bd
00000300: e608 f9bd 8725 b2bd 52a0 6bbd afbd 59be
00000310: 5fa5 c1bd 4248 263d 572f 6bbd dc11 353d
00000320: b9b6 2d3e 03ee 803c df50 be3d 0f6d 2d3e
00000330: ced4 d83c aba5 533e 146d 6d3e 0777 74be
00000340: 5bea 97bd ee4e c53d 598b 36be cd39 ca3c
00000350: f4bd 573e 14e3 56be d775 88bc 0c14 373e
00000360: 2b2f a43c 09b6 3dbc 9cd4 983c 819d c33c
00000370: 2f87 dbbb 9d43 f4bb 342b da3d 4723 153d
00000380: de12 e03c ee22 55bd 01ba 3fbd cf28 76bc
00000390: e546 9e3c 4d77 e53d dd18 ac3d 0f59 453d
000003a0: 639c 103e b5c2 ad3d b7bf 8cbd 0109 eb3c
000003b0: 9ab3 c83d ba13 213c 0d7c 263d d828 8f3c
000003c0: 2cdd c73d 541b 8d3d 4de4 a13c 2708 643c
000003d0: 7285 dfbd 4aab b5bb b9cf 383d b595 c0bd
000003e0: e1d3 72bd 56c1 563c 9f38 d1bc d89b 123d
000003f0: 21ec e33d 14f1 81bd 5f3a 21be 360a 8e3d

module.residual_layers.1.0.bn1.weight f4 [32]
0.8732108 0.5097987 0.9152265 1.0700786 0.882858 0.6378136 0.35140848 0.48297146
1.118117 0.8580593 1.1438009 0.80639744 0.8918613 0.41358054 0.79507 0.76836336
0.7633844 0.8860483 0.4526336 0.26760754 0.42838183 0.94819915 0.6935488 0.77912146
0.9213044 0.6539044 0.35293 0.8127474 0.7673878 0.70881367 0.8216221 0.8894315
00000000: be8a 5f3f 2b82 023f 494c 6a3f 56f8 883f
00000010: fb02 623f c147 233f d0eb b33e 0948 f73e
00000020: 751e 8f3f c6a9 5b3f 1168 923f 1070 4e3f
00000030: 0651 643f d4c0 d33e b589 4b3f 76b3 443f
00000040: 296d 433f 10d4 623f 97bf e73e db03 893e
00000050: dd54 db3e 2ebd 723f 6a8c 313f 8174 473f
00000060: 9bda 6b3f 4766 273f 3eb3 b43e 3710 503f
00000070: 8773 443f d074 353f d355 523f c8b1 633f

module.residual_layers.1.0.bn1.bias f4 [32]
-1.0437412 -0.5420004 -0.93654525 -1.1586615 -1.0835605 -0.687909 -0.28155154 -0.4125561
-1.6890289 -1.195376 -1.0282154 -0.94714105 -0.9972623 -0.36659497 -0.54559433 -0.7954634
-1.0078381 -1.1048372 -0.354854 -0.034747355 -0.30781275 -0.9579235 -0.68327445 -0.88901144
-0.6900655 -0.77679956 -0.32749283 -1.0411115 -0.82478774 -0.6579661 -0.8376991 -1.0828857
00000000: 5099 85bf 8ac0 0abf 6ec1 6fbf 054f 94bf
00000010: 1cb2 8abf ce1a 30bf 8627 90be 8e3a d3be
00000020: 1932 d8bf 1502 99bf 909c 83bf d677 72bf
00000030: 954c 7fbf 56b2 bbbe 12ac 0bbf 7da3 4bbf
00000040: d700 81bf 4e6b 8dbf 6caf b5be 3e53 0ebd
00000050: a299 9dbe 793a 75bf 13eb 2ebf 4196 63bf
00000060: 22a8 30bf 56dc 46bf 24ad a7be 2443 85bf
00000070: 4a25 53bf 7770 28bf 7373 56bf 009c 8abf

module.residual_layers.1.0.bn1.running_mean f4 [32]
-1.2806681 0.19045836 -0.8461643 -1.4420477 -1.8565483 -0.61844134 -0.01467608 -0.76455116
-0.50540036 -0.5303545 -1.9042661 -1.5125301 -0.041693453 -1.4787807 -1.3246483 -0.8189602
0.04953725 -0.531605 -1.1738394 -0.9122988 -0.86905134 -1.9498556 -1.4024974 -0.8757574
-1.7517402 -0.8268127 0.076462895 -0.6271969 -0.99582577 -1.1652466 -0.6241127 -1.3184913
00000000: efec a3bf 8407 433e 399e 58bf 0595 b8bf
00000010: 60a3 edbf 2c52 1ebf f173 70bc a0b9 43bf
00000020: eb61 01bf 50c5 07bf febe f3bf 969a c1bf
00000030: c1c6 2abd b048 bdbf 138e a9bf 60a7 51bf
00000040: 92e7 4a3d 4417 08bf 5f40 96bf 6a8c 69bf
00000050: 267a 5ebf de94 f9bf 0985 b3bf a331 60bf
00000060: 0639 e0bf ffa9 53bf 9498 9c3d fa8f 20bf
00000070: 70ee 7ebf cd26 95bf dac5 1fbf 53c4 a8bf

module.residual_layers.1.0.bn1.running_var f4 [32]
0.5815868 0.2249313 0.41199216 0.6500748 0.46933675 0.28103486 0.11165054 0.20401397
0.5357489 0.35754073 1.112154 0.3639119 0.32239246 0.1530269 0.4716218 0.23712642
0.5055378 0.3599799 0.24709998 0.23351462 0.22297181 0.7474958 0.24727747 0.5892233
0.90438247 0.25200194 0.13121264 0.34462082 0.3192713 0.54784673 0.5649967 0.37042567
00000000: dfe2 143f 6454 663e a3f0 d23e 4d6b 263f
00000010: e84c f03e cde3 8f3e 0aa9 e43d 0ae9 503e
00000020: d726 093f 940f b73e 105b 8e3f a952 ba3e
00000030: a010 a53e 15b3 1c3e 6a78 f13e 45d1 723e
00000040: ed6a 013f 494f b83e c707 7d3e 751e 6f3e
00000050: b952 643e e25b 3f3f 4e36 7d3e 57d7 163f
00000060: 9c85 673f 6606 813e 9b5c 063e 2472 b03e
00000070: 8777 a33e af3f 0c3f a0a3 103f 6fa8 bd3e

module.residual_layers.1.0.conv2.weight f4 [32, 32, 3, 3]
-0.049286205 -0.031702112 -0.034571957 -0.025770875 -0.0023542023 -0.011434558 -0.042517073 -0.014265722
-0.026988424 0.057605173 0.036805574 0.059168372 0.021553637 -0.00041898587 0.010298442 0.060408168
0.05786549 0.06366893 0.05136816 0.043529756 0.047937963 0.044612374 0.027853522 0.026169375
0.032947127 0.020772368 0.0073396363 0.031001566 0.008190983 0.028707827 2.8949776e-06 -0.017493507
-9.5719464e-05 0.023070844 -0.008522621 0.010616044 0.02361133 0.0199412 0.011570419 -0.013007764
-0.007799982 -0.029563129 -0.083807945 -0.05298941 -0.10220397 -0.026023636 0.0010076142 -0.022233682
-0.045994937 -0.021622755 -0.037862476 -0.071223065 -0.03198309 -0.044266637 -0.0018884742 0.010004044
0.052323893 -0.028141795 -0.021876844 0.008422305 -0.04276103 -0.034065213 -0.029425891 0.008941353
0.0010096375 -0.003240457 0.007219369 0.0021294176 -0.0061993552 -0.0296965 -0.030757897 -0.036364064
-0.09935493 -0.09092651 -0.083632976 -0.06574071 -0.059247617 -0.0705983 -0.024136117 -0.04804613
-0.0530095 -0.0286505 -0.0063144164 -0.011490544 -0.034555312 -0.01803795 -0.03449765 -0.013404248
-0.013287661 -0.01602976 0.03426661 0.026982982 0.052086376 0.040957123 0.028877275 0.04932255
0.033979308 0.030901583 0.047172576 -0.016512407 -0.021105781 -0.033847522 -0.0216971 -0.004003478
-0.03273562 -0.03337537 -0.010425095 -0.049990874 0.026842339 0.025245953 0.02982076 0.004071789
0.0028374724 0.020195523 0.010412915 0.013240633 0.026245093 -0.05926895 -0.038795613 -0.041287728
-0.01691902 -0.009016453 -0.014892783 0.009527322 0.003657509 0.014107195 0.044095267 0.020777365
0.036253646 0.013245899 -0.02336522 0.001958378 0.04962045 0.021997485 0.037038904 -0.060876463
-0.032219954 -0.06444466 -0.04710885 -0.029825766 -0.055937696 -0.048597064 -0.034369398 -0.05672173
-0.06535108 -0.049039617 -0.07551866 -0.026614351 -0.012408934 -0.042317733 -0.045042954 -0.020127855
-0.07117903 -0.02542935 -0.015847582 -0.043114483 -0.032917183 -0.012219168 -0.046259396 -0.038211964
-0.022864318 -0.045315646 0.076540805 0.06161372 0.07452701 0.075449914 0.04876924 0.06363754
0.08955671 0.06622931 0.083118476 0.019202778 0.020258747 0.01745664 0.034241147 -0.0058163386
0.015939467 0.04881109 0.009021961 0.054800365 -0.05577807 -0.042237584 -0.06797967 -0.06704333
-0.066904955 -0.077463575 -0.046516523 -0.04331977 -0.06858636 -0.086177856 -0.073898755 -0.08587552
-0.014945731 -0.010014016 -0.014434053 -0.010436675 -0.013930085 -0.009639973 0.061951745 0.047351807
0.060051806 0.03570257 0.026884386 0.044796325 0.06391721 0.043154195 0.06385145 -0.0014590252
-0.0052136155 -0.008376363 -0.017857542 -0.022337772 -0.033632923 -0.050281815 -0.050930463 -0.066267185
-0.08909171 -0.05406935 -0.07946474 -0.028234778 -0.018254787 -0.029586326 -0.04055426 -0.030091697
-0.028838808 -0.03081702 -0.018799607 -0.0014500199 -0.0063472087 -0.005686366 0.00030583085 -0.008018684
0.01142569 0.017873455 0.071060784 0.059654985 0.06815261 0.024998223 0.023001082 0.029558871
0.0058997334 -0.0030955279 0.00938713 -0.0038065023 -0.0017739467 -0.010923392 -0.007034344 0.010789523
-0.0031018113 -0.0026928836 0.016739514 0.0014821584 0.09534095 0.087239996 0.09172707 0.04497721
00000000: 55e0 49bd 13da 01bd 539b 0dbd 711d d3bc
00000010: f648 1abb 0358 3bbc 6226 2ebd c6ba 69bc
00000020: d416 ddbc 67f3 6b3d 71c1 163d 895a 723d
00000030: 4191 b03c 55ab dbb9 ccba 283c 8e6e 773d
00000040: 5d04 6d3d db64 823d 6b67 523d 424c 323d
00000050: 995a 443d 77bb 363d 122d e43c 2861 d63c
00000060: 91f3 063d d02a aa3c 5581 f03b fff6 fd3c
00000070: 7933 063c ad2c eb3c 5647 4236 8b4e 8fbc
00000080: ffbc c8b8 11ff bc3c 77a2 0bbc eaee 2d3c
00000090: 8c6c c13c ba5b a33c db91 3d3c 841e 55bc
000000a0: fe96 ffbb 602e f2bc 80a3 abbd 6c0b 59bd
000000b0: 5150 d1bd 852f d5bc ec11 843a 6923 b6bc
000000c0: 3065 3cbd 3422 b1bc af15 1bbd 66dd 91bd
000000d0: b300 03bd ef50 35bd ae86 f7ba 00e8 233c
000000e0: 9451 563d 9f89 e6bc 1137 b3bc b5fd 093c
000000f0: 3126 2fbd f787 0bbd 910e f1bc c17e 123c
00000100: d055 843a d95d 54bb 7590 ec3b b38d 0b3b
00000110: f623 cbbb 1346 f3bc fcf7 fbbc 7cf2 14bd
00000120: 997a cbbd ae37 babd c447 abbd 11a3 86bd
00000130: a1ad 72bd d795 90bd 1bb9 c5bc 05cc 44bd
00000140: 7d20 59bd 74b4 eabc 2ae9 cebb d642 3cbc
00000150: df89 0dbd 53c4 93bc 684d 0dbd 7e9d 5bbc
00000160: 7db4 59bc d850 83bc 255b 0c3d 6a0b dd3c
00000170: 8658 553d a8c2 273d 0990 ec3c 7106 4a3d
00000180: e32d 0b3d 5125 fd3c 0838 413d 0745 87bc
00000190: 08e6 acbc b3a3 0abd 1ebe b1bc 9c2f 83bb
000001a0: c915 06bd 9db4 08bd 05ce 2abc 3bc3 4cbd
000001b0: 77e4 db3c 9ad0 ce3c ab4a f43c a46c 853b
000001c0: e3f4 393b 1571 a53c ee9a 2a3c 3def 583c
000001d0: f3ff d63c 00c4 72bd 26e8 1ebd 521d 29bd
000001e0: c299 8abc bfb9 13bc dc00 74bc 7c18 1c3c
000001f0: d2b2 6f3b dd21 673c 3d9d 343d 4b35 aa3c
00000200: b47e 143d 5405 593c 6b68 bfbc 2158 003b
00000210: d03e 4b3d 1234 b43c 1bb6 173d 9959 79bd
00000220: 12f9 03bd 90fb 83bd 36f5 40bd 2a55 f4bc
00000230: ed1e 65bd b70d 47bd edc6 0cbd 0b55 68bd
00000240: c9d6 85bd c4dd 48bd 87a9 9abd 5706 dabc
00000250: d74e 4bbc 5c55 2dbd f67e 38bd 2ce3 a4bc
00000260: 50c6 91bd 3651 d0bc cad2 81bc d098 30bd
00000270: 2bd4 06bd e832 48bc 7e7a 3dbd 2684 1cbd
00000280: f34d bbbc e69c 39bd 6dc1 9c3d ab5e 7c3d
00000290: 9ea1 983d 7c85 9a3d 41c2 473d 6654 823d
000002a0: 8269 b73d 3ca3 873d 053a aa3d 254f 9d3c
000002b0: acf5 a53c 3a01 8f3c 7240 0c3d fc96 bebb
000002c0: 7c93 823c 23ee 473d d9d0 133c 5976 603d
000002d0: 8c77 64bd 5101 2dbd ed38 8bbd 034e 89bd
000002e0: 7705 89bd 39a5 9ebd 1c88 3ebd 1270 31bd
000002f0: 0177 8cbd 047e b0bd 3b58 97bd 81df afbd
00000300: f0de 74bc d411 24bc ce7c 6cbc 96fe 2abc
00000310: 033b 64bc faf0 1dbc 1dc1 7d3d f8f3 413d
00000320: e2f8 753d dc3c 123d a53c dc3c 5a7c 373d
00000330: 07e7 823d 74c2 303d 8dc4 823d c33c bfba
00000340: fad6 aabb 033d 09bc fb49 92bc b4fd b6bc
00000350: adc2 09bd 4ef4 4dbd 769c 50bd 17b7 87bd
00000360: b775 b6bd d377 5dbd 69be a2bd 9f4c e7bc
00000370: 108b 95bc 065f f2bc 391c 26bd dd82 f6bc
00000380: 5d3f ecbc fa73 fcbc a201 9abc 980e beba
00000390: 3ffc cfbb b254 babb ec57 a039 cc60 03bc
000003a0: d132 3b3c 5a6b 923c 5188 913d c958 743d
000003b0: 9893 8b3d 13c9 cc3c c46c bc3c 7225 f23c
000003c0: 8d52 c13b 57de 4abb 7acc 193c 8376 79bb
000003d0: c683 e8ba 07f8 32bc 5b80 e6bb 8ac6 303c
000003e0: c247 4bbb 177b 30bb 4e21 893c fc44 c23a
000003f0: 1e42 c33d e2aa b23d 67db bb3d 063a 383d

module.residual_layers.1.0.bn2.weight f4 [32]
1.5987523 1.8303691 1.9015468 1.9051026 1.6661226 1.5305631 1.7271603 1.6353617
1.77787 1.8370843 1.89114 1.9055288 1.7077698 1.6591967 1.9056017 1.7395793
1.7513467 1.8370059 1.5201412 1.84113 1.671792 1.8984408 1.8558551 1.7077637
1.8331378 1.8672981 1.7067603 1.700164 1.7799305 1.7162595 1.9630498 1.6792688
00000000: eaa3 cc3f 8949 ea3f e365 f33f 67da f33f
00000010: 8143 d53f 7ee9 c33f 9713 dd3f 8853 d13f
00000020: 3f91 e33f 9425 eb3f e010 f23f 5ee8 f33f
00000030: 3398 da3f 8f60 d43f c2ea f33f 89aa de3f
00000040: 212c e03f 0223 eb3f fd93 c23f 26aa eb3f
00000050: 48fd d53f 1c00 f33f a98c ed3f 0098 da3f
00000060: 42a4 ea3f a003 ef3f 1f77 da3f f99e d93f
00000070: c3d4 e33f 64ae db3f 3745 fb3f 48f2 d63f

module.residual_layers.1.0.bn2.bias f4 [32]
-0.46222484 -0.43218115 -0.42899364 -0.5722322 -0.54064447 -0.29992735 -0.5490243 -0.39025742
-0.51584494 -0.41302812 -0.5216155 -0.376974 -0.5256306 -0.31005222 -0.37863016 -0.50620794
-0.62224185 -0.4845878 -0.3915877 -0.5765188 -0.6284407 -0.34913334 -0.4742734 -0.5228165
-0.2488456 -0.5570427 -0.51729065 -0.29660434 -0.3253343 -0.58607596 -0.57675886 -0.53198725
00000000: bca8 ecbe d946 ddbe 0ea5 dbbe cf7d 12bf
00000010: ad67 0abf 1490 99be db8c 0cbf d2cf c7be
00000020: 6a0e 04bf 6c78 d3be 9888 05bf bc02 c1be
00000030: ba8f 06bf 2abf 9ebe d0db c1be d896 01bf
00000040: 3e4b 1fbf e41b f8be 2f7e c8be bc96 13bf
00000050: 7de1 20bf 9bc1 b2be f7d3 f2be 4dd7 05bf
00000060: 62d1 7ebe 5a9a 0ebf 296d 04bf 86dc 97be
00000070: 3892 a6be 1309 16bf 78a6 13bf 5130 08bf

module.residual_layers.1.0.bn2.running_mean f4 [32]
0.03788758 0.0023988914 0.012184408 -0.024562752 0.026265897 0.01424239 0.0038539758 -0.0025765898
0.0020747352 0.011824026 -0.0055533587 0.008848474 0.027918719 0.027260548 0.0118737705 0.0015426686
-0.038429774 -0.016149055 -0.00056995335 0.0103015015 0.043904457 0.014245539 0.0043295603 -0.01712208
0.012373855 0.007627389 -0.009786507 0.031979367 -0.010731796 -0.011158094 -0.0021592563 0.031782467
00000000: 0230 1b3d b836 1d3b 1ca1 473c d337 c9bc
00000010: 942b d73c ea58 693c fc92 7c3b 01dc 28bb
00000020: 48f8 073b 8fb9 413c f3f8 b5bb 31f9 103c
00000030: ccb5 e43c 8351 df3c 348a 423c 5e33 ca3a
00000040: 8a68 1dbd 064b 84bc ec68 15ba a1c7 283c
00000050: 29d5 333d 1f66 693c fcde 8d3b 9b43 8cbc
00000060: b6bb 4a3c 2def f93b 9657 20bc ccfc 023d
00000070: 6ad4 2fbc 70d0 36bc 4f82 0dbb 552e 023d

module.residual_layers.1.0.bn2.running_var f4 [32]
0.014639823 0.015227852 0.0127011435 0.014419644 0.0122037055 0.012836655 0.016322898 0.010973206
0.015647098 0.012359697 0.013808533 0.013586999 0.013510789 0.0097531825 0.014191138 0.012053808
0.015475743 0.013106242 0.011844715 0.014022756 0.015519856 0.013799642 0.016719371 0.011402736
0.011706112 0.013466436 0.014078012 0.011890683 0.009699664 0.0149800135 0.014500883 0.013303078
00000000: dedb 6f3c 3e7e 793c 7518 503c 5f40 6c3c
00000010: 0df2 473c d550 523c 99b7 853c f6c8 333c
00000020: 582e 803c 5480 4a3c 2f3d 623c 019c 5e3c
00000030: 5b5c 5d3c d0cb 1f3c f281 683c 567d 453c
00000040: f98d 7d3c 90bb 563c 5610 423c b4bf 653c
00000050: fe46 7e3c e517 623c 10f7 883c 8bd2 3a3c
00000060: feca 3f3c 54a2 5c3c 76a7 663c 24d1 423c
00000070: 57eb 1e3c bb6e 753c 1d95 6d3c 27f5 593c

module.residual_layers.1.0.shortcut.0.weight f4 [32, 16, 1, 1]
-0.0054889238 0.021054484 0.030754507 -0.02598338 -0.09316979 -0.052064594 0.023457449 -0.060026247
-0.0012385675 -0.034594316 0.002397608 -0.050530307 0.01687941 -0.010131729 -0.038184687 -0.0048199724
-0.005854201 -0.009033266 -0.0239928 0.013669858 -0.036516953 -0.046113092 -0.017901147 0.02360963
0.051405415 0.0042746784 0.06929801 0.03585276 -0.0012965475 0.0123081105 0.00084337033 -0.042470586
-0.0542144 -0.0008621547 -0.01669805 -0.022166448 0.05669346 -0.0036266865 -0.026669094 -0.013515671
0.0060845157 -0.005061334 0.018882412 -0.014958372 0.05127296 -0.0040717795 0.016986478 -0.014207784
0.07643614 0.03914282 -0.0121446885 0.0026415482 -0.03572463 -0.00044167723 -0.057528403 0.016499547
-0.0028931235 -0.022517504 -0.05384756 -0.020284703 -0.027468588 0.011774204 0.021248844 -0.0015814911
-0.062372968 0.021178987 -0.016615339 -0.02371866 -0.028185317 -0.0014597607 -0.016210008 -0.069670685
-0.032346424 -0.021915045 0.0121033965 0.03301164 0.013270354 -0.012809698 0.055124372 0.010979902
0.048720155 0.032115173 0.017144209 -0.052249428 0.018241195 -0.03791333 -0.084751666 -0.020672837
-0.017060824 0.03317373 -0.032453407 -0.0057762256 -0.0044068 0.030451111 0.0866283 0.08015621
0.051571876 0.0071351286 -0.057919875 -0.024702732 0.014106708 -0.00414715 -0.029966215 0.00042298905
0.06524957 -0.015609781 -0.028127303 -0.017539972 -0.118041486 -0.023201054 -0.017133296 -0.01694084
-0.08239373 -0.014655453 0.0060186414 -0.033226 0.056577284 0.011140552 0.021337098 -0.12996489
-0.059148617 -0.0065061436 -0.018898582 0.0102044465 0.0587702 0.07905204 0.08296303 0.032911174
0.016475553 0.0063108574 -0.013875857 0.0667161 0.049048904 -0.011945081 -0.02704596 0.016166538
0.027667537 -0.027307518 0.046613947 0.03464289 0.0030850526 0.029987471 -0.0055397847 0.008254193
0.04307167 0.023434915 0.003085085 -0.04391917 -0.082454406 -0.006457712 -0.020512747 0.04054283
0.008546426 -0.004305568 0.008956847 -0.02648986 -0.05927493 -0.031573698 -0.0016007794 0.007958233
0.07903482 -0.020868862 -0.005285752 0.031498462 0.040495332 -0.011356462 -0.009074633 0.030441577
0.02312547 -0.023467561 0.06903151 0.023630746 0.03745745 0.007258377 0.0034130856 -0.0005603606
-0.08778579 -0.009161074 -0.0065419385 -0.032355536 0.06215952 -0.0021957124 -0.014092948 -0.033094916
-0.010612662 0.0012894607 0.00274178 -0.009368759 0.05881487 0.028570456 0.020920305 -0.006030622
-0.042605545 0.017430741 -0.014475408 -0.018929895 -0.053463098 -0.022650948 -0.018713001 -0.0034746036
-0.022952978 -0.02364159 0.042271085 -0.02289453 -0.010360484 -0.05100441 0.048844356 0.02935504
0.056612372 -0.013369489 -0.032052282 -0.0041294787 -0.04330923 -0.037180647 -0.08528401 0.013984369
0.04916872 0.0026373041 0.025697509 -0.053062808 -0.036266502 0.007952343 -0.013363485 0.005451844
-0.095831305 -0.0100475475 -0.0059667123 -0.03390728 0.05754911 0.002991003 -0.015420091 -0.041325178
-0.011144689 0.00040673898 0.005754248 -0.005008776 0.059145033 0.016885575 0.02037485 -0.008723871
0.052018113 0.019166764 0.04825206 -0.037866533 0.025857553 0.018390477 -0.021118565 -0.019461188
-0.023470184 0.013627147 0.018999761 -0.010570222 0.008207842 -0.00057200465 0.028094936 0.062833905
00000000: 6edc b3bb 747a ac3c e0f0 fb3c 19db d4bc
00000010: cecf bebd af41 55bd d629 c03c 15de 75bd
00000020: 6e57 a2ba c5b2 0dbd 3021 1d3b def8 4ebd
00000030: b046 8a3c 8dff 25bc 8c67 1cbd dcf0 9dbb
00000040: 99d4 bfbb 4400 14bc 8c8c c4bc 8af7 5f3c
00000050: cd92 15bd 15e1 3cbd 6da5 92bc fc68 c13c
00000060: 7c8e 523d 9a12 8c3b 1dec 8d3d 58da 123d
00000070: eaf0 a9ba f5a7 493c a015 5d3a a3f5 2dbd
00000080: eb0f 5ebd 3902 62ba 59ca 88bc 6996 b5bc
00000090: 6737 683d b4ad 6dbb 2579 dabc d570 5dbc
000000a0: 9e60 c73b 8cd9 a5bb 4aaf 9a3c f613 75bc
000000b0: 9803 523d 906c 85bb 3a27 8b3c c4c7 68bc
000000c0: 8d8a 9c3d 3954 203d 84fa 46bc d31d 2d3b
000000d0: fd53 12bd ea90 e7b9 e7a2 6bbd 0f2a 873c
000000e0: 8f9a 3dbb a176 b8bc 428f 5cbd 1b2c a6bc
000000f0: ce05 e1bc 97e8 403c 0e12 ae3c 094a cfba
00000100: cc7a 7fbd 8e7f ad3c e41c 88bc a34d c2bc
00000110: e5e4 e6bc 7155 bfba daca 84bc 81af 8ebd
00000120: af7d 04bd 2e87 b3bc 534d 463c 3737 073d
00000130: e66b 593c c4df 51bc 18ca 613d 0ce5 333c
00000140: c98e 473d 338b 033d 0372 8c3c 7f03 56bd
00000150: 8f6e 953c 024b 1bbd 4892 adbd 155a a9bc
00000160: 24c3 8bbc 2de1 073d dded 04bd 7e46 bdbb
00000170: eb66 90bb 9c74 f93c 2e6a b13d f028 a43d
00000180: 083d 533d cccd e93b 643d 6dbd 625d cabc
00000190: d21f 673c d1e4 87bb b57b f5bc a1c4 dd39
000001a0: 91a1 853d 2bc0 7fbc 3b6b e6bc fdaf 8fbc
000001b0: bcbf f1bd 2310 bebc 205b 8cbc 84c7 8abc
000001c0: 0bbe a8bd 6d1d 70bc 0638 c53b fc17 08bd
000001d0: 95bd 673d dd86 363c 23cb ae3c 8415 05be
000001e0: d245 72bd 7d31 d5bb 33d1 9abc 8d30 273c
000001f0: 05b9 703d 09e6 a13d 85e8 a93d decd 063d
00000200: bdf7 863c 4fcb ce3b 9057 63bc 73a2 883d
00000210: 81e7 483d 4db5 43bc 7d8f ddbc b06f 843c
00000220: 08a7 e23c 04b4 dfbc 44ee 3e3d b4e5 0d3d
00000230: 982e 4a3b 49a8 f53c 1587 b5bb 983c 073c
00000240: eb6b 303d 94fa bf3c 232f 4a3b 96e4 33bd
00000250: dbdd a8bd 379b d3bb 590a a8bc 3d10 263d
00000260: 4f06 0c3c b915 8dbb bdbf 123c 4301 d9bc
00000270: 45ca 72bd 6c53 01bd 3ed1 d1ba 4063 023c
00000280: 02dd a13d 2df5 aabc 1a34 adbb 8804 013d
00000290: 6fde 253d 7410 3abc c5ad 14bc 9d60 f93c
000002a0: a071 bd3c 0b3f c0bc 6460 8d3d 4495 c13c
000002b0: fc6c 193d aed7 ed3b 13ae 5f3b 2ae5 12ba
000002c0: 09c9 b3bd 5418 16bc c25d d6bb 3d87 04bd
000002d0: fb9a 7e3d f1e5 0fbb 1ce6 66bc 898e 07bd
000002e0: bbe0 2dbc 1f03 a93a 6faf 333b 6c7f 19bc
000002f0: dce7 703d 970c ea3c 0f61 ab3c 869c c5bb
00000300: 2783 2ebd eaca 8e3c 432a 6dbc de12 9bbc
00000310: 1ffc 5abd 7b8e b9bc 024c 99bc 2db6 63bb
00000320: e207 bcbc 02ac c1bc 7224 2d3d 4f8d bbbc
00000330: 05bf 29bc 00ea 50bd 0511 483d fb79 f03c
00000340: 60e2 673d b40b 5bbc 4149 03bd 9450 87bb
00000350: 0565 31bd bc4a 18bd 62a9 aebd b21e 653c
00000360: 2465 493d 9fd6 2c3b 9583 d23c 6358 59bd
00000370: 2f8c 14bd 8b4a 023c 85f2 5abc 62a5 b23b
00000380: 3443 c4bd 789e 24bc 6984 c3bb 5ce2 0abd
00000390: 9eb8 6b3d b404 443b 8da4 7cbc 9744 29bd
000003a0: 3798 36bc 953f d539 218e bc3b a920 a4bb
000003b0: 1042 723d 9e53 8a3c 28e9 a63c 91ee 0ebc
000003c0: f210 553d 9e03 9d3c f4a3 453d f019 1bbd
000003d0: 38d3 d33c a0a7 963c d700 adbc 126d 9fbc
000003e0: 8b44 c0bc 6644 5f3c 63a5 9b3c b92e 2dbc
000003f0: 2f7a 063c 95f2 15ba 5a27 e63c 10af 803d

module.residual_layers.1.0.shortcut.1.weight f4 [32]
0.20236278 0.13842927 0.17417732 -0.1735293 0.18354003 0.27893108 0.20849217 0.3862751
0.14181867 0.20148103 0.17297772 0.24408402 0.14930198 0.18107264 0.23974927 0.13505323
0.12136591 0.14277555 0.1394468 0.20251912 0.15588403 0.27743262 0.21868056 0.13404663
0.25100395 0.29690248 0.14502591 0.31187543 0.21161932 0.19060005 0.17131203 0.16972983
00000000: 3038 4f3e 67c0 0d3e 8a5b 323e aab1 31be
00000010: ebf1 3b3e 0ed0 8e3e f97e 553e dac5 c53e
00000020: ea38 113e 0b51 4e3e 1221 313e 29f1 793e
00000030: 9ee2 183e 1b6b 393e d580 753e 654b 0a3e
00000040: b18e f83d c133 123e 24cb 0e3e 2c61 4f3e
00000050: 10a0 1f3e a60b 8e3e cced 5f3e 8543 093e
00000060: 9783 803e 9a03 983e ac81 143e 23ae 9f3e
00000070: bcb2 583e a92c 433e 6c6c 2f3e a8cd 2d3e

module.residual_layers.1.0.shortcut.1.bias f4 [32]
-0.46222484 -0.43218115 -0.42899364 -0.5722322 -0.54064447 -0.29992735 -0.5490243 -0.39025742
-0.51584494 -0.41302812 -0.5216155 -0.376974 -0.5256306 -0.31005222 -0.37863016 -0.50620794
-0.62224185 -0.4845878 -0.3915877 -0.5765188 -0.6284407 -0.34913334 -0.4742734 -0.5228165
-0.2488456 -0.5570427 -0.51729065 -0.29660434 -0.3253343 -0.58607596 -0.57675886 -0.53198725
00000000: bca8 ecbe d946 ddbe 0ea5 dbbe cf7d 12bf
00000010: ad67 0abf 1490 99be db8c 0cbf d2cf c7be
00000020: 6a0e 04bf 6c78 d3be 9888 05bf bc02 c1be
00000030: ba8f 06bf 2abf 9ebe d0db c1be d896 01bf
00000040: 3e4b 1fbf e41b f8be 2f7e c8be bc96 13bf
00000050: 7de1 20bf 9bc1 b2be f7d3 f2be 4dd7 05bf
00000060: 62d1 7ebe 5a9a 0ebf 296d 04bf 86dc 97be
00000070: 3892 a6be 1309 16bf 78a6 13bf 5130 08bf
