summaries/good_ResNet2_num_blocks1x1_num_channels16_conv5/ckpt.pth (torch, 225779 bytes, 32 tensors)

module.conv1.weight f4 [16, 3, 3, 3]
000000 88 f8 3b 3d ae e0 ac 3d fa 42 02 3e 36 c4 04 be
       0.045891315 0.08441292 0.12720862 -0.12965474
000010 31 a1 f3 be af 45 bc be 05 8a ee 3d b4 89 b0 bd
       -0.47583917 -0.36771914 0.11647419 -0.08620015
000020 a8 df c8 3d 12 9d 75 3e 84 3c e1 3d da 10 08 3e
       0.09808284 0.23985699 0.109978706 0.13287678
000030 71 cd 8e 3e f7 cf 82 be ed ff 64 be 70 f2 8b 3e
       0.27891114 -0.2554929 -0.22363253 0.27333403
000040 b2 32 9e bd 6d 33 57 3c 8a 73 59 bd f5 e2 a5 bd
       -0.07724513 0.013134819 -0.053088702 -0.08099929
000050 0b f2 d3 3d 42 91 8c bd 7b f2 d6 be c2 1b 49 be
       0.103489004 -0.06863643 -0.41981873 -0.19639495
000060 f6 a8 28 3d 8d fa 39 be 0f 28 92 3d a6 b2 45 bd
       0.04117676 -0.18161984 0.07136547 -0.048266076
000070 41 06 ae 3e 21 51 e2 3c 77 f5 c6 3e a8 be a9 3e
       0.33989146 0.027626576 0.3885915 0.33153272
000080 36 f5 91 3e 40 a6 78 be a5 9e 58 bf f2 85 43 be
       0.28507394 -0.2428217 -0.8461707 -0.19094065
000090 67 3a 26 be c4 3a 5b 3e cd 06 78 bd c4 93 22 3e
       -0.16233216 0.21409136 -0.06055336 0.1587668
0000a0 57 9a 38 3e 9e 97 52 3d 3b 7d 93 bd e5 d7 0c bf
       0.18027626 0.051414125 -0.0720162 -0.5501693
0000b0 87 f0 09 bd 13 ae b8 bd 28 40 3c 3e ef cb 8d bd
       -0.03367665 -0.09017577 0.18383849 -0.06923663
0000c0 c5 76 50 3e 7f 0c 0b 3e f1 6a 64 3c 93 28 e7 3d
       0.20357807 0.13578986 0.013941512 0.11287036
0000d0 a1 30 c1 be 8d 0b 6d 3d f7 f3 c2 be 62 6e 09 3e
       -0.37732413 0.057872344 -0.38076755 0.13421014
0000e0 c6 a0 d6 3e 55 e7 12 bf 51 78 39 bd fb 15 05 3f
       0.41919535 -0.57384235 -0.04528076 0.51986665
0000f0 ba 86 fa be c4 da 17 be 5f d3 04 3f 31 95 98 3c
       -0.48930913 -0.14829546 0.51885027 0.018625828
000100 89 d7 b3 ba 5c 1e 1b 3d 2b da a3 3d 6e e9 19 be
       -0.0013720851 0.03787075 0.080005966 -0.15030453
000110 d8 67 c5 bc f3 12 5b 3d 6f 5c 46 be d1 13 f9 3d
       -0.024097368 0.05348487 -0.19371198 0.12161983
000120 f4 61 a0 3e 9a aa 8a 3d 3c ea e9 be f2 c5 ec 3e
       0.31324732 0.06770821 -0.4568652 0.4624477
000130 d5 b3 19 3d 96 7e 0d bf 9c de df 3e 4f 6a a7 3d
       0.037525017 -0.5527128 0.43724525 0.08174574
000140 7e 79 82 be b6 e3 8f 3e 33 72 b1 bd 42 d6 98 be
       -0.25483316 0.28103417 -0.0866436 -0.29850966
000150 8f ac 8d 3d bd 7c f8 bd b8 e0 b6 be 2a 75 c7 3d
       0.069176786 -0.12133167 -0.35718322 0.09739144
000160 9c 44 7a bd ff 70 ca bd e2 b3 86 3e 38 89 bb 3d
       -0.061100587 -0.098848335 0.26309115 0.09157032
000170 c8 9c a5 bd ea 1f a2 bc 40 4f dc 3d 25 99 04 be
       -0.08086544 -0.019790608 0.10757303 -0.12949045
000180 32 bf 8e be dd 45 10 bd 81 bd 1a bd 4a 59 a3 be
       -0.27880245 -0.035222877 -0.03777838 -0.3190406
000190 e9 e5 d4 bd ff a1 dd bd de 06 22 3b 3b 20 05 3f
       -0.103954144 -0.10821914 0.0024723331 0.52002305
0001a0 22 d3 dd 3e 74 ac 7d be 20 61 79 3e c3 70 ba 3e
       0.43325144 -0.24772817 0.24353456 0.36414155
0001b0 31 bc 10 3e a4 11 6c bd b6 62 6a be d4 2d e3 be
       0.1413429 -0.05763401 -0.22889218 -0.44370902
0001c0 9c dc 7d 3e 1b 9d 3c 3b 7c 91 58 3d 67 af cd 3e
       0.24791187 0.0028780166 0.05287312 0.40172884
0001d0 51 81 2c be 4f 58 45 bd 85 84 b0 bd 2f ba 95 3d
       -0.16846205 -0.04817992 -0.08619026 0.07310902
0001e0 8e de 27 bf e5 80 83 3e 58 30 10 3f d1 2d aa be
       -0.65573967 0.25684276 0.56323767 -0.3323808
0001f0 89 90 2d 3e d9 85 81 3d 1b 0e 87 3c 5e e5 03 3e
       0.16949667 0.063243575 0.016486218 0.12880465
000200 67 03 c3 3d 3f 95 33 bf a5 1e 9a 3e c0 9a e6 3e
       0.09522133 -0.70149606 0.30101505 0.4503994
000210 ea 50 08 bf 39 0d e6 3d 8c c4 3c 3d 6a 41 11 bf
       -0.53248465 0.11232991 0.04608588 -0.5674044
000220 2d e7 01 bf 17 29 e4 be 8a 33 26 be f3 9f bc 3e
       -0.5074337 -0.445626 -0.16230598 0.36840782
000230 08 42 44 be d2 e8 8f bd 70 d5 57 3f e9 40 46 3f
       -0.19165814 -0.07026829 0.84310055 0.77442795
000240 33 df 11 3e 58 19 95 3e c1 8a 48 3d 09 12 de 3d
       0.142453 0.29120898 0.04896045 0.10843284
000250 94 1a a3 3e 89 82 06 bf 5a b7 3b be 39 06 59 3d
       0.31856215 -0.5254293 -0.18331662 0.05298445
000260 26 72 94 bd 7e bf 9d 3e 8c 7a 68 3e da 75 d2 3e
       -0.072483346 0.3081016 0.22702998 0.4110554
000270 99 36 75 3e 96 cd a8 3d aa 3e db be d6 4a 02 be
       0.23946609 0.082423374 -0.42821246 -0.1272386
000280 77 b7 b7 be d2 98 ef be 02 85 40 be f4 3b a1 bd
       -0.3588216 -0.4679628 -0.18800738 -0.07872763
000290 bf 01 5d be 90 89 24 3c 74 f6 47 3d d6 0a 6a be
       -0.21582697 0.010042563 0.04881902 -0.22855696
0002a0 a7 66 93 3e 46 06 87 3e 4c 30 3d 3d b6 67 38 be
       0.28789255 0.26371974 0.046188638 -0.18008313
0002b0 0a d7 1f bd 35 00 37 be 07 13 00 be af 29 a9 bc
       -0.039023437 -0.17871173 -0.12507258 -0.02064976
0002c0 f0 25 a9 be 73 30 74 ba 26 47 75 3d ba d8 32 be
       -0.33036757 -0.0009315081 0.059882306 -0.17465487
0002d0 b7 c1 59 bc 5c 6e d8 3d 93 93 b7 bc b5 d8 ea 3c
       -0.013290814 0.105679244 -0.022409236 0.028667787
0002e0 b5 97 98 3d 5a e0 71 be 01 bf 40 3e 82 95 58 3e
       0.07450811 -0.2362074 0.18822862 0.21150783
0002f0 e1 58 8f bc 4a 17 a4 be 46 0d df be 72 78 8f 3e
       -0.017498435 -0.32049018 -0.43564814 0.2802158
000300 ca c1 0f 3e c2 19 a4 3e de 5b 47 bb 27 8f 28 bc
       0.14038768 0.32050902 -0.0030419747 -0.010288036
000310 ca 38 bf 3d c3 f4 33 bd 18 60 1e be e8 a3 e2 be
       0.093370035 -0.043934595 -0.15466344 -0.44265676
000320 b8 e1 90 3e 44 6b 2e 3e c7 d6 6b 3e db c9 84 bd
       0.2829721 0.17033106 0.2303115 -0.064838134
000330 aa 26 36 bd 72 87 60 3d e8 6a 8e bd b9 db 81 be
       -0.044470467 0.05481667 -0.069539845 -0.25362948
000340 e1 ab da be f7 8d 40 3e 47 d6 83 3e a6 57 cc 3e
       -0.42709258 0.18804155 0.25749418 0.3991062
000350 8d 03 c3 bc e0 22 59 bd 05 cb 0e 3d 33 a8 ff bd
       -0.023805404 -0.053011775 0.034861583 -0.12483253
000360 4a e4 ad 30 ba 5b 22 30 27 0d 5d 30 aa 66 b0 30
       1.265229e-09 5.906561e-10 8.041802e-10 1.2834864e-09
000370 fc bb 23 30 7d 85 d1 30 ac af 50 30 48 60 52 30
       5.9566196e-10 1.5244691e-09 7.5919604e-10 7.653438e-10
000380 32 90 10 30 91 75 0a b0 46 a2 68 b0 53 ea ab af
       5.259181e-10 -5.037118e-10 -8.463171e-10 -3.1271216e-10
000390 7c 92 49 b0 fa cd 49 b0 cb 99 49 2e ce 7f 3d b0
       -7.333154e-10 -7.3416084e-10 4.5838704e-11 -6.893942e-10
0003a0 82 c6 97 b0 a1 df 66 af 4d 4d 9e 30 3b 7d 6c 30
       -1.1043115e-09 -2.0997827e-10 1.1517983e-09 8.6034263e-10
0003b0 71 bd 57 30 cc fc e7 30 df 55 d8 30 89 e8 98 2f
       7.8485757e-10 1.6879311e-09 1.5740474e-09 2.7813865e-10
0003c0 ad c9 89 30 69 63 4c 2f 5f 9b e8 ad 64 a8 07 3e
       1.0025382e-09 1.858901e-10 -2.6444345e-11 0.1324783
0003d0 6e 90 9c 3e a5 29 74 3e ec f5 af 3d 6f 63 a4 3e
       0.3057894 0.23844011 0.08591828 0.32107112
0003e0 6c 59 1d 3e c0 2a df 3d a3 3d 45 3e 84 78 a0 bc
       0.15366143 0.10896826 0.19261794 -0.019588716
0003f0 b1 08 8c be 48 b2 be be 8a b8 10 be d0 28 f6 be
       -0.2735038 -0.37245393 -0.14132896 -0.48078012

module.bn1.weight f4 [16]
000000 a3 5a 6b 3f 93 cd e3 3e 49 44 59 3e cc 13 c9 3e
       0.91935176 0.44492778 0.21217455 0.39272916
000010 05 14 ac 3e 94 f4 8b 3e 1d 06 c1 3e 79 6e 1d 3f
       0.33609024 0.27335036 0.37699977 0.6149669
000020 e1 71 f8 2f bb 5d 0f 3e 3d da 00 3e e0 77 12 3f
       4.5191853e-10 0.14000599 0.12583251 0.57214165
000030 76 76 ff 3e 4e 71 91 3e c0 67 9a 3e 94 c5 98 3e
       0.49895066 0.28406757 0.3015728 0.2983824

module.bn1.bias f4 [16]
000000 c9 78 56 bf a8 ef b4 bd e7 b1 c9 bb e8 04 8c be
       -0.83778054 -0.08834773 -0.006155241 -0.27347493
000010 83 b5 30 3e 6a 9a 39 3e 51 88 46 be 71 76 f8 be
       0.17256741 0.1812531 -0.19387938 -0.48527864
000020 fb 8e 1b b1 dd 8e 15 3e 21 ab 9f 3d 3b 4c 02 bf
       -2.2636744e-09 0.1460528 0.07796312 -0.5089757
000030 7f 5d 01 3f aa db d9 3d 28 6a 44 3e a0 19 31 bd
       0.5053329 0.10637601 0.1918112 -0.04323733

module.bn1.running_mean f4 [16]
000000 78 b8 ae 3e db 5c 9f bc 89 7e 0e 3c d3 4d 60 bd
       0.34125113 -0.019453457 0.0086971605 -0.05476172
000010 7b 9d 81 bc 67 8a 8d bd 6d c3 55 3e d0 d9 22 bd
       -0.015822163 -0.06911164 0.2087533 -0.039758503
000020 7c 86 4d b1 1c 72 0f be 1f 06 68 3d 6f fe 23 3d
       -2.9907872e-09 -0.14008373 0.056646463 0.04003757
000030 c1 67 b9 bd ef e2 a1 3c 97 e9 10 3d 56 15 88 3e
       -0.090529926 0.01976153 0.03537902 0.26578778

module.bn1.running_var f4 [16]
000000 e2 74 2a 40 3f e0 15 40 51 83 b4 3e d4 4e 11 3f
       2.663384 2.341812 0.35256436 0.5676091
000010 b0 51 45 40 ee f3 6f 3f a0 14 fe 3f 93 79 82 3f
       3.0831108 0.9373158 1.9850044 1.0193352
000020 7b 8b 30 25 e7 bf 8c 3f b1 d7 fd 3f 40 01 33 3f
       1.5312824e-16 1.0996064 1.9831449 0.6992378
000030 18 bd 92 3f 15 fb ab 40 df 5e 2e 40 d8 c1 db 3f
       1.1463957 5.3743997 2.7245405 1.7168531

module.residual_layers.0.0.conv1.weight f4 [16, 16, 5, 5]
000000 a1 a4 b8 bd 30 50 9b bd 90 95 ff bc 7d 9d 57 bc
       -0.090157755 -0.07583654 -0.031199247 -0.013160107
000010 64 26 55 3d 0b 8a bb 3b 9c 47 fa 3c fa bf 89 3d
       0.052038565 0.005723243 0.030551724 0.0672607
000020 65 41 b0 3c a3 3d 1b bd 0a f9 03 be 86 b1 36 bd
       0.021515558 -0.03790058 -0.1288797 -0.044602893
000030 d9 1e 73 bc 01 cb 32 bd 7d 61 24 bd 7a 09 33 3a
       -0.014838898 -0.04365063 -0.040132035 0.000682972
000040 68 f6 6c 3d 71 43 56 3d f4 f0 e1 bd 69 60 33 be
       0.05785218 0.05231041 -0.11032286 -0.17517246
000050 99 73 17 bd 13 82 28 bc a4 bf 83 3d de 7c ef bc
       -0.036975477 -0.010284918 0.06433037 -0.029234346
000060 ad d8 f9 bd ac 6b 72 bd 71 1a 02 be 58 12 64 bd
       -0.12199531 -0.059184715 -0.12705399 -0.055681556
000070 02 f5 e9 3c fe c1 49 3e 1f ac 06 be ab 9c 2a bd
       0.028559212 0.19702908 -0.13151596 -0.041653316
000080 82 4c 1a 3d 2f 86 8c 3d 67 da 0a 3e c8 b2 8c bd
       0.03767062 0.06861531 0.13559876 -0.06870037
000090 aa 44 d6 bb d6 e6 a2 bd d6 f2 61 be 75 8e 4d be
       -0.006538947 -0.07954185 -0.22065291 -0.20073874
0000a0 f1 65 a9 bd c4 5a 1f bd a5 8c 58 3d 4e f6 dc 3c
       -0.08271397 -0.03890492 0.052868504 0.026972916
0000b0 8d b3 6c 3d 2b 55 73 bc ba 0f 84 bd 49 01 4c bd
       0.05778842 -0.014851849 -0.06448312 -0.049805913
0000c0 df 54 7e bd fd 57 8e bb 23 ac d6 3d 76 55 59 3d
       -0.062092658 -0.004343985 0.10482051 0.053060018
0000d0 cf 96 8d bd b9 1c 12 bc d2 3e 15 3e 24 14 34 3e
       -0.0691353 -0.008917981 0.14574745 0.17585808
0000e0 40 6f 24 3e 29 1b 88 bc 7a 78 2d bd 1e 2d a2 bc
       0.16058064 -0.016614513 -0.042351224 -0.019796904
0000f0 19 e9 e7 3c 73 c3 61 3e 96 33 1c 3e 86 74 18 bd
       0.028309392 0.22047214 0.15254053 -0.0372205
000100 70 f3 b1 bd 71 a7 e8 bd 2b 29 27 3e 9a 17 28 3e
       -0.0868901 -0.11360062 0.16324298 0.16415253
000110 5e 0e 26 3c 35 f6 b0 bd 96 cb 17 be a3 10 9f 3d
       0.010135261 -0.0864071 -0.14823756 0.07766845
000120 4d 5d 36 3d d3 ef 97 ba 83 b0 b1 bd 4c 68 4c bc
       0.044522572 -0.0011591859 -0.08676245 -0.012476038
000130 71 d2 c1 bc a3 f2 74 bd 3b 9f a0 bc 41 13 3d 3d
       -0.023659917 -0.05980171 -0.019607177 0.04616094
000140 e7 28 78 bd 19 9d 28 bd 7d f6 a1 bc 83 c0 d2 bb
       -0.060585883 -0.041165445 -0.019770855 -0.0064316406
000150 e2 35 e5 3c 53 0c a8 bc 74 94 cf bd 9c 5b 80 bd
       0.027979795 -0.02051369 -0.10135737 -0.06267473
000160 98 d2 81 bd 60 21 45 be 7d d5 85 3d a4 11 bb 3d
       -0.06338996 -0.19251013 0.0653486 0.09134224
000170 e5 0d 7d 3d 41 1a ae bd 44 5c 56 be c6 ee e9 bd
       0.06178083 -0.08501101 -0.20933634 -0.114224955
000180 7d fd ea 3c 00 34 9b 3d 47 87 a9 3c 9b 54 a8 bd
       0.028685326 0.075782776 0.020694388 -0.08219262
000190 1f 91 0c 3d 9f 94 b2 3d 79 24 ac 3d b6 ea 10 3d
       0.034318086 0.087197535 0.08405394 0.035380088
0001a0 03 73 63 3e f2 7b 0d be 89 f1 d1 bd 14 0a cd bd
       0.22211842 -0.13816813 -0.10251147 -0.10011688
0001b0 0f f8 5d bc 77 99 34 3e 00 59 39 be 61 06 8c be
       -0.013547911 0.17636667 -0.18100357 -0.27348617
0001c0 ab 25 9b be 62 a0 0a be 05 aa 63 bd fe 7a c4 3c
       -0.30302176 -0.13537744 -0.055582065 0.023984428
0001d0 9a f8 2c be 77 b1 8f be 54 7f 6e be 01 32 6d be
       -0.16891709 -0.28065082 -0.2329076 -0.23163606
0001e0 98 c5 ed bc 00 c4 08 3d ae 6d fe 3c bf c8 e5 bd
       -0.029024884 0.033390045 0.031058159 -0.1121993
0001f0 15 a8 ac bc bb 52 b4 bd 59 64 a3 3a f4 0b 52 3d
       -0.021076242 -0.08804842 0.0012465819 0.05128093
000200 5c e5 5e 3d 27 c5 0e bd b5 87 7b be d3 7b 9b bd
       0.054417953 -0.034855988 -0.24563487 -0.07591977
000210 23 4c c3 3d ce fc 49 3e a0 d3 ca 3d 4f f9 03 bb
       0.09536006 0.19725344 0.099036455 -0.0020137613
000220 54 6a 47 3c 23 fd 85 3d 09 6c 35 3a 3a 7d 5d 3c
       0.012171347 0.065424226 0.00069207005 0.013518626
000230 9f 79 32 3e b7 a2 19 3d 4f 4f b3 bd dd 4e dc bd
       0.17429207 0.037508693 -0.08755361 -0.107572295
000240 80 92 8c 3d 6c 3b ce 3d a9 09 01 3d 60 64 1c be
       0.0686388 0.100699276 0.031503353 -0.15272665
000250 df 85 2d be 16 65 0a 3d 9b 19 b6 bd fd ce de bc
       -0.16945599 0.03378781 -0.088916026 -0.02719831
000260 20 59 46 3d c2 13 0b 3e e2 2f 61 3d 00 7c 4e bc
       0.04842484 0.13581756 0.054977305 -0.012602806
000270 49 8e 06 bd d8 87 f3 bc 0e 0e d5 3d b0 67 1f 3d
       -0.032850537 -0.029727861 0.10403071 0.038917243
000280 52 84 12 3c 3e e3 21 3d 56 64 e4 bc b7 92 be bc
       0.00894268 0.039523356 -0.027879875 -0.023263318
000290 f0 fa c2 bd 40 c6 3a bd 1f 72 d2 3b 87 38 86 bd
       -0.09520519 -0.045599222 0.0064222957 -0.065537505
0002a0 b3 ee a4 bc a9 45 aa bd bc fa 8b bc a2 02 9a 3d
       -0.020133352 -0.08314068 -0.017087333 0.075200334
0002b0 12 d2 13 3d a7 9d 6b 3d 9b 54 24 bc 60 0a 36 bd
       0.03608901 0.057523396 -0.010029937 -0.044443488
0002c0 44 71 42 bd 56 fb bc 3d 96 97 fc bb 8a 0b 25 bd
       -0.0474713 0.09227626 -0.0077085 -0.040294208
0002d0 a7 43 bb 3c 54 fb 14 3c 83 93 db 3b a1 86 55 bb
       0.022859408 0.009093124 0.0067009344 -0.0032581466
0002e0 e9 ef 30 bd da 39 97 3d bd ab 96 3d 68 a3 20 bc
       -0.043197546 0.07384081 0.07356975 -0.009804584
0002f0 8f 54 d6 bd cb d3 f7 3b 19 fc fb 3c 72 d9 f7 bc
       -0.10465347 0.0075630895 0.030759858 -0.030255053
000300 26 a4 71 bd 53 7d d7 3d 93 25 32 bc 02 99 b8 bd
       -0.058994435 0.105219506 -0.010873216 -0.09013559
000310 f5 9b cd bd 03 dd a2 b9 bf 96 83 bd d3 5a b6 bd
       -0.10039512 -0.00031063714 -0.06425237 -0.08904042
000320 0b 9f 0c 2e 51 cb 20 ae 33 18 9b 2d e8 40 99 af
       3.1973573e-11 -3.656037e-11 1.7632206e-11 -2.7876657e-10
000330 27 5a dd af 40 27 bc 2d 7f d9 8f 2f 73 c9 74 2d
       -4.0263723e-10 2.1390556e-11 2.616609e-10 1.3914525e-11
000340 c1 10 08 b0 f3 2a 04 b0 8f e1 56 2f cd 0a 2c 2f
       -4.950032e-10 -4.8082355e-10 1.9543321e-10 1.5647146e-10
000350 08 80 0e 2e 37 4c ef af e1 f1 2d b0 2f 51 c6 2f
       3.2400777e-11 -4.3528e-10 -6.3280764e-10 3.6073675e-10
000360 04 c5 82 2f 50 d1 46 2e 5b ac 8d af 05 7e 22 b0
       2.378685e-10 4.5205895e-11 -2.5770217e-10 -5.911434e-10
000370 89 90 02 30 69 5a 79 2f 0f 57 02 2f cd 54 b6 ae
       4.749912e-10 2.2678538e-10 1.185436e-10 -8.2914654e-11
000380 d8 22 b9 af ef b9 59 bd 2f f9 8a bd 86 0a 79 bd
       -3.3676062e-10 -0.053155836 -0.06785809 -0.06080105
000390 03 36 a5 bd 6d 46 b6 3a b6 cf 16 3d bc af c6 3b
       -0.080669425 0.0013906487 0.036819182 0.0060634296
0003a0 5e 94 62 bc ef a2 4f bd 65 8c 01 3c 9b 53 72 3d
       -0.013829319 -0.050692495 0.007907008 0.059161764
0003b0 4f 94 87 3c a8 d9 95 bb 52 31 c7 bc fa 63 9e 3c
       0.016550211 -0.004573066 -0.02431551 0.019334782
0003c0 40 4a ce 3b aa 64 12 bd 8e a2 9d bc b7 3f ea b9
       0.0062954724 -0.035740532 -0.019242551 -0.0004467943
0003d0 9d 3b 0f 3d 3f 0b 02 bd 6a e5 ab bd e6 8a 29 bd
       0.03496896 -0.031749006 -0.08393367 -0.04139223
0003e0 47 36 34 3c a7 0c 91 3d 38 63 b3 bc 00 3c 1c bd
       0.010999269 0.07082491 -0.021897897 -0.038143158
0003f0 99 82 4e bd 3d d5 ca bd d0 25 3c bd c9 19 19 3b
       -0.050417516 -0.09903953 -0.0459345 0.0023361316

module.residual_layers.0.0.bn1.weight f4 [16]
000000 93 a4 1a 3f bb 7b 1a 3f 3d 5e 34 3f ed 57 24 3f
       0.6040737 0.6034505 0.70456296 0.64196664
000010 56 b5 33 3f 49 c2 50 3f 32 65 5f 3f 6e 12 05 3f
       0.7019857 0.81546456 0.87263787 0.51981246
000020 57 cd 45 3f 1d 94 09 3f 83 d8 16 3f 24 bb 17 3f
       0.7726645 0.5374163 0.5892412 0.5926993
000030 f2 2a 2b 3f 90 5d c5 3e 6c 47 3e 3f 40 e8 33 3f
       0.66862404 0.38547945 0.7432773 0.7027626

module.residual_layers.0.0.bn1.bias f4 [16]
000000 ae 34 c6 bd d8 cc 14 be 91 51 0a be 15 e5 15 be
       -0.096780166 -0.14531267 -0.13507678 -0.14638169
000010 79 dc 4d be d7 a4 63 be d2 f0 c5 bd 47 bc 99 bd
       -0.20103635 -0.2223085 -0.096650735 -0.07506614
000020 0d 74 0f be 72 84 d6 bd ec 9f 03 be 97 26 e5 bd
       -0.14009114 -0.10474481 -0.12853974 -0.11189001
000030 9c 13 63 bd b9 21 95 3e 85 fe 41 be 4d f9 51 be
       -0.055438623 0.2912729 -0.18944748 -0.20505257

module.residual_layers.0.0.bn1.running_mean f4 [16]
000000 38 91 35 be e3 0a 64 be f6 9a 04 be 02 87 b2 be
       -0.17731178 -0.22269778 -0.12949738 -0.34868628
000010 8c 08 33 be fa 73 1e be 46 94 68 be a6 29 5e bd
       -0.17483729 -0.15473929 -0.22712812 -0.054238938
000020 dd c4 e8 be 90 d1 39 be 12 a2 c0 be ac 37 c2 3b
       -0.45462695 -0.18146348 -0.3762365 0.0059270468
000030 df 1c f5 bd 57 c0 47 bf 13 6f 1c be ca 24 a3 bd
       -0.11968397 -0.7802786 -0.15276746 -0.07966001

module.residual_layers.0.0.bn1.running_var f4 [16]
000000 e4 56 8c 3e a1 c2 7e 3e 05 20 c9 3e 8d bc 9a 3e
       0.27410042 0.24878933 0.3928224 0.30221978
000010 38 46 8f 3e 14 ca 89 3e b4 d3 80 3f 1a 1f 7a 3e
       0.2798326 0.26911986 1.0064607 0.24425927
000020 71 f7 b2 3e 7e 1c 1e 3e 16 ee 29 3e 3c 66 81 3e
       0.34954408 0.15440556 0.16594729 0.2527331
000030 02 14 2a 3f 06 3b a5 3e 8b 30 75 3e 4a 2c 5e 3e
       0.6643678 0.32271594 0.23944299 0.21696582

module.residual_layers.0.0.conv2.weight f4 [16, 16, 5, 5]
000000 69 15 55 3d 21 70 81 3d a6 e9 1d bc 38 09 f1 3d
       0.05202237 0.06320215 -0.009638226 0.117693365
000010 a1 ad 0f be 71 48 85 3d e0 75 24 3d 02 42 b0 bd
       -0.14031078 0.06507958 0.040151477 -0.0860634
000020 5e 0a 71 3c 67 91 3e be 39 be d6 3c 19 e4 9e 3d
       0.014711944 -0.18610154 0.026213752 0.0775835
000030 7e 3f 28 bd 28 d1 69 3c af 5c 16 be c1 d1 8c bd
       -0.041076176 0.014271058 -0.14683793 -0.06875945
000040 6a 11 b5 bc da bf 30 3d 1f 3a 12 3e 53 bd c9 bd
       -0.02210303 0.043151714 0.14279984 -0.09850564
000050 32 b2 ab bd 4c 24 e7 bd 88 e8 25 3d 13 1e 50 3e
       -0.083835974 -0.1128622 0.040504962 0.20323972
000060 3a 65 37 bc 4c bb 94 3d e3 80 10 3e f3 1d a5 3d
       -0.011193568 0.072622865 0.14111666 0.08062353
000070 de 36 4a 3d 38 17 99 bc a0 af da bd 1f a1 b5 3d
       0.04936873 -0.01868783 -0.10678029 0.08868622
000080 e9 e3 2c 3d 1c a0 bd 3c 5b 89 a3 bd 28 bc 71 bd
       0.04220954 0.023147635 -0.07985183 -0.05901733
000090 c1 de 97 3d b9 30 11 3d cd 00 13 3d 56 85 20 bd
       0.07415534 0.035446856 0.035889436 -0.03918966
0000a0 82 46 90 bd 5c de d7 bc 6f 12 10 3d 46 0d 84 3c
       -0.07044698 -0.026351146 0.03517383 0.01611961
0000b0 8a 8b 03 3d f3 1b 45 be fd ef 5e bd c2 a1 07 bc
       0.032115497 -0.19248943 -0.05442809 -0.008278312
0000c0 72 67 46 bc 78 10 ea 3c 97 78 41 3c 16 ad 92 ba
       -0.012109624 0.028572306 0.011808536 -0.00111905
0000d0 88 f1 9f 3c e1 b3 b2 3c ac 12 dd 3a bc 82 7b 3d
       0.01952435 0.021814289 0.0016866527 0.061403975
0000e0 21 a2 8c 3d df 21 50 3d bd 15 1f 3d 13 d2 49 bc
       0.06866861 0.050813552 0.03883909 -0.012318152
0000f0 9b 30 48 3d 9f 25 bc 3d 15 48 aa 3d f0 19 a8 39
       0.04887448 0.09186863 0.0831453 0.00032062782
000100 3b 60 d7 bd af 81 e2 3b 59 90 8a 3d ab e1 42 3d
       -0.105164014 0.006912432 0.067658134 0.047578495
000110 61 ec 46 bb e7 1b 5c bd 8f 43 15 bd 26 f2 56 3d
       -0.0030353295 -0.053737547 -0.036441382 0.052477024
000120 c2 6a 37 3d 19 09 7d bd 82 da 8a 3c e1 8d 98 bd
       0.044779547 -0.061776254 0.016949896 -0.07448936
000130 e2 98 1a be f4 74 2c be 21 cc ea bd 72 72 23 be
       -0.15097383 -0.16841489 -0.11464716 -0.15961626
000140 45 c6 a3 bd 04 b5 3a be cb b9 b7 bd 47 3a b9 bd
       -0.07996801 -0.18233114 -0.08970984 -0.09044319
000150 49 19 35 bd 6d 0f 5d 39 2f fe 96 bd 56 66 c6 bd
       -0.044213567 0.00021081949 -0.073727004 -0.09687488
000160 2f 27 3e bd f8 52 63 3b 33 c1 66 3d 7d 1a a7 bd
       -0.046424087 0.0034686904 0.056336593 -0.08159349
000170 74 6d 46 bd f2 ed 34 bd b0 9b 17 bc fd 44 30 3d
       -0.048444226 -0.044172235 -0.009253427 0.043034542
000180 ac 08 02 bd 70 7a e4 bd 63 4c eb bd b2 b1 c8 bd
       -0.03174655 -0.111561656 -0.11489179 -0.09799518
000190 5e 39 40 bd 00 b9 7a bd bb b3 3b be 52 3a a3 bd
       -0.04692971 -0.061211586 -0.1833028 -0.07970108
0001a0 4c b6 4b 3c a9 08 11 3d 5c 2b a9 bd 9e e4 86 bd
       0.0124336 0.03540865 -0.08260223 -0.06586574
0001b0 96 de ae 3c 6e 0b 81 bd 49 8b cb 3c 6f 1f 65 bd
       0.021346372 -0.06301008 0.02484669 -0.05593818
0001c0 a2 a6 9c 3d 4a 0f 7a 3c 08 92 a9 bd c4 98 30 be
       0.0764897 0.015262434 -0.082798064 -0.17245775
0001d0 5c 65 84 3d 60 15 12 3b 22 85 9e ba 64 ad 05 bd
       0.06464645 0.0022290573 -0.001209412 -0.03263606
0001e0 43 f0 73 be e0 1c 45 bd 75 25 be bc 5f a1 84 bc
       -0.23822121 -0.04812324 -0.02321122 -0.016190229
0001f0 75 b7 f7 bd 5c 44 08 bd b0 d9 65 bc 13 83 60 bc
       -0.120955385 -0.033268318 -0.0140289515 -0.0137031255
000200 15 cf 6d b9 9e f8 b0 3b 86 87 22 3e a8 0f 83 bd
       -0.00022679225 0.005400731 0.1587201 -0.063994706
000210 35 15 97 bd e1 5b a9 3c ef 14 4c 3b 09 16 20 3e
       -0.07377092 0.020673694 0.0031140407 0.15633406
000220 ca ac 0e bc fd f5 bc bd 79 58 f3 bd d5 7a 91 3c
       -0.008708188 -0.09226606 -0.11882109 0.017758766
000230 d9 6d a5 3d 85 38 37 bd 77 40 d1 bd 57 91 68 bd
       0.080775924 -0.044731636 -0.10217374 -0.056779232
000240 5b 9d 75 3d 9f 02 92 3d fc 31 77 bd ea ff d2 bd
       0.05996452 0.07129406 -0.060350403 -0.10302718
000250 37 59 d5 bd 96 04 d9 bc 2d fd 00 3e 5c 16 ad 3d
       -0.10417407 -0.026491445 0.12596579 0.0845153
000260 76 66 e2 3d 08 09 29 3c 7b ba 20 3a 40 52 b3 bb
       0.11054699 0.010317095 0.00061313034 -0.0054724514
000270 fe 32 57 bb 77 56 2e 3c 60 3f ff bc ad 43 6f bc
       -0.003283679 0.010640732 -0.03115815 -0.0146035375
000280 16 6d 99 3d f5 ad 8d 3d c6 c0 80 3c 4a b4 c2 3c
       0.074915096 0.06917945 0.015716922 0.02376761
000290 ed dc 2c 3d 2b 19 9c 3b 35 27 e2 3c 8e 8f d9 3c
       0.04220288 0.0047637424 0.027606586 0.02655771
0002a0 43 7b 3b bc 9e ab f9 3c c2 3b ba 3d 7d fd 4b 3d
       -0.011442962 0.030477341 0.09093429 0.049802292
0002b0 18 dd 35 3d 67 83 ac 3d 74 57 04 3e 30 c2 81 bd
       0.044400305 0.084235005 0.12923986 -0.063358665
0002c0 ef c7 f1 bd 6d 4a 3d bd 3a 30 7e bd e6 56 a1 bd
       -0.118057124 -0.046213556 -0.06205771 -0.07877903
0002d0 bf 17 6d bd 7f 50 91 bd 7e 68 5a 3d b9 c4 53 bc
       -0.057883974 -0.070954315 0.053322308 -0.01292532
0002e0 2f 3a 14 bd 4b 99 d4 bd a0 64 26 3d cf 97 2a 3e
       -0.0361883 -0.10380801 0.040623307 0.16659473
0002f0 01 62 1a 3e 07 41 d5 3d 61 dc 5e 3d 3e 86 9f 3d
       0.15076448 0.104127936 0.05440939 0.077892765
000300 4d a5 38 3e d6 6b 0f 3e b6 03 ce 3d 71 84 28 3d
       0.18031807 0.1400598 0.100593016 0.04114193
000310 25 0b 42 bc bc 41 c2 3d f6 ad 6e 3d e0 29 a9 3d
       -0.011843477 0.09485194 0.05827137 0.0825994
000320 f7 7a 72 3e d9 d6 fa 3d dd 1e 22 3e 05 18 8e 3d
       0.2367972 0.1224801 0.15832086 0.06938175
000330 66 1e 32 3e 4d 1f 05 3e 28 a3 42 3d 33 fc 93 3d
       0.17394409 0.13000222 0.04751888 0.072258376
000340 b3 fb af 3c f2 c2 8f 3d b4 dc 35 3e cf bf 53 3d
       0.021482324 0.07019605 0.17759973 0.051696595
000350 b5 02 bf 3d c3 16 f0 3c bf b0 01 3e 47 75 be 3d
       0.09326688 0.029307729 0.1266508 0.09299713
000360 84 c9 16 bd 5e be a6 3b 9f d4 7c bd f8 97 c4 3d
       -0.036813274 0.0050886115 -0.06172621 0.09599298
000370 04 30 19 3b 7a bd c6 bd 88 0d db 3c 87 94 d7 bd
       0.0023374567 -0.097041085 0.02673985 -0.10526376
000380 67 ea 6a bc c7 76 22 be ae 0e 31 be 8c 19 af bb
       -0.014338112 -0.15865622 -0.17290756 -0.0053436216
000390 20 9e ef bc f5 da d9 bc 68 7d 33 be 70 38 0e be
       -0.029250205 -0.026593665 -0.17528307 -0.13888717
0003a0 9a 8c 1a bd ca e1 b0 bd 64 c5 12 be 66 fc c6 3d
       -0.037731744 -0.08636816 -0.14333111 0.0971611
0003b0 61 7e dd 3d 23 0b d2 3d 92 db 24 3d cb 0e 95 bd
       0.108151205 0.102560304 0.04024846 -0.07278212
0003c0 7e 71 5e 3e 92 22 23 3e 84 f8 0d 3e c8 33 e1 3d
       0.21722981 0.15931156 0.13864332 0.109962046
0003d0 3f 91 a4 3d ce 97 b1 bc 9e 93 73 bd 7e e3 8a 3c
       0.08035516 -0.021678831 -0.05946695 0.01695418
0003e0 30 3c 28 3c f8 1a 8a 3d 3f 6c 28 3e 0c 86 01 3e
       0.010268256 0.06743425 0.16447543 0.12648791
0003f0 33 39 0f 3e 32 b9 ba 3d 91 1d 5b 3e be d1 bb bd
       0.13986664 0.091173545 0.21397997 -0.091708645

module.residual_layers.0.0.bn2.weight f4 [16]
000000 cf fb 45 3f 33 31 35 3f d4 77 84 3f b5 aa 6b 3f
       0.77337354 0.707782 1.0349069 0.92057353
000010 03 a6 79 3f 96 02 20 3f 7f 62 91 3f b9 79 6a 3f
       0.9751894 0.62503946 1.1358184 0.91591984
000020 05 03 2e 3f f1 bb d6 3e 49 8a 81 3f e5 ba 4d 3f
       0.6797336 0.41940263 1.0120326 0.80363303
000030 25 de 75 3f 5c ce 6e 3f 64 42 e3 3e c9 34 7e 3f
       0.9604209 0.9328363 0.4438659 0.99299294

module.residual_layers.0.0.bn2.bias f4 [16]
000000 ec 12 9d 3e 84 62 e6 bd b9 b7 ee be 2c 11 4c 3d
       0.306785 -0.11249259 -0.46624544 0.049821064
000010 ee 33 fe be ba 2d 49 be 30 cb 9c be 13 65 62 3c
       -0.49648994 -0.1964635 -0.3062377 0.013818043
000020 f1 fc 8e 3e fc fc f6 3d 77 4d 89 bd 81 d8 7e be
       0.27927354 0.12059972 -0.06704228 -0.24887277
000030 0c 7e 71 bf c0 c3 dc be 6e d6 38 3d b0 a7 e2 be
       -0.9433296 -0.43118095 0.04512637 -0.4426856

module.residual_layers.0.0.bn2.running_mean f4 [16]
000000 bf 13 36 3f 73 e7 95 be 04 df 5f bf 2c 47 f7 be
       0.7112388 -0.29278144 -0.8744967 -0.48296487
000010 f7 60 d7 be 5f ad 1f bf 14 a4 1b bf 5d c3 fe be
       -0.42066166 -0.6237392 -0.6079724 -0.49758425
000020 06 c2 a7 be c8 7b a7 3e cc f1 ce be 40 41 ff 3c
       -0.32765216 0.32711625 -0.4041885 0.031159043
000030 bd 7c 01 bf db 35 7e be 33 2a ed 3d 67 5b 0f be
       -0.5058096 -0.24825232 0.115803145 -0.13999711

module.residual_layers.0.0.bn2.running_var f4 [16]
000000 8c 05 38 3f 19 4f 33 3f 7e 99 53 3f fb f5 28 3f
       0.71883464 0.7004257 0.82656085 0.66000336
000010 5c 02 1d 3f 67 34 4b 3f 5c 7e d6 3f 78 2a 3f 3f
       0.61331725 0.79376835 1.6757312 0.7467418
000020 65 c7 3d 3f 2d 3c 0e 3f be aa 38 3f 1e bd 18 3f
       0.74132377 0.5556057 0.7213553 0.5966357
000030 05 af 15 3f 23 f5 12 3f 35 d7 0a 3f b6 10 38 3f
       0.58470184 0.574053 0.5423463 0.719005

module.residual_layers.1.0.conv1.weight f4 [32, 16, 5, 5]
000000 49 c2 12 be d5 2f d4 bd 43 32 22 bd 0f 7d 7e bd
       -0.14331926 -0.10360686 -0.039598715 -0.062130984
000010 21 57 8f bd 34 31 47 bd 90 59 87 bd 14 0a 8d bc
       -0.069990404 -0.048630908 -0.066088796 -0.01721672
000020 66 60 68 bd 08 d7 33 bd 83 18 8b 39 f1 09 af bc
       -0.056732558 -0.04390624 0.0002653041 -0.021367045
000030 b1 37 2f bc f3 ec 2f bd f4 4a 8e bb 38 fc df 3c
       -0.01069443 -0.04295058 -0.004342431 0.027341947
000040 51 3a 03 3c a1 4b 5b 3a 32 ff f7 bc 90 ab 06 3b
       0.008009509 0.00083654566 -0.030273054 0.0020549037
000050 b6 e6 fe bd 74 8d 9f bd 61 1d 07 bd 50 f7 35 bd
       -0.12446348 -0.07790652 -0.032987002 -0.04442531
000060 7e 53 67 bd 9b c5 46 3c 8b 10 c5 3d 43 13 b4 3d
       -0.05647611 0.012132074 0.09622296 0.087927364
000070 5c 6d dd 3d 98 0f b3 3d 70 87 88 3b 56 42 3a 3d
       0.10811874 0.08743209 0.004166536 0.04547342
000080 9c 2b 41 3c f0 0c c1 bb e7 93 75 3c af 1c 95 3c
       0.011790182 -0.005891435 0.014988876 0.018202154
000090 22 7a f6 bc b0 f6 a2 bd cf 5d db bd 87 66 ac bd
       -0.030087534 -0.07957208 -0.10711252 -0.08417993
0000a0 d6 93 db 3d 35 e4 54 3b 24 87 82 bd 6b 78 95 bd
       0.10721557 0.0032484655 -0.06373432 -0.072983585
0000b0 1c db f7 bc d0 92 e1 3d 44 18 c7 3d 24 9e 90 3b
       -0.030255847 0.110143304 0.09721425 0.004413383
0000c0 bd 6e 9e b9 be 02 c1 3c a0 10 c0 bd c1 b8 47 bc
       -0.00030218615 0.023560878 -0.09378171 -0.012190045
0000d0 07 7f 13 3d 03 5b 40 3d d2 54 98 3c 8c 45 d0 bd
       0.036009815 0.046961796 0.018595133 -0.10169515
0000e0 10 2a b7 bc d1 24 2c bd b6 01 3b 3c 40 5a e2 bc
       -0.022358924 -0.0420273 0.011413982 -0.027630925
0000f0 5c 92 55 bd d6 44 0c bb 7f 73 df bc e4 f3 13 bd
       -0.052141532 -0.0021403334 -0.027276753 -0.036121264
000100 11 e9 3b bd 54 8b 4f 39 ab a3 8f 3c 95 ff 92 bc
       -0.045876566 0.00019792962 0.017534098 -0.017944137
000110 c1 70 c5 3b 0a b8 08 bd 28 c2 a3 3d dc 62 38 3d
       0.006025404 -0.03337864 0.07996017 0.045016155
000120 fb d9 63 bc 38 79 51 bb 62 98 4a 3d d5 7f f7 bd
       -0.013906951 -0.003196312 0.04946173 -0.12084929
000130 2a 85 e5 bd 40 e8 7b bd 7a 46 7f bd c7 37 de bd
       -0.1120704 -0.061500788 -0.06232307 -0.108504824
000140 1e ce 61 bd 75 11 85 bc 28 42 8a bc 32 1e f6 bb
       -0.05512821 -0.016243676 -0.016877249 -0.007510924
000150 da 71 49 bd 5b 43 2f bd 58 96 05 3d d5 8f 99 3c
       -0.049180843 -0.042788845 0.032614082 0.018745342
000160 6c 9d 5e bc 3c e6 3f bd 23 d8 09 bd b3 08 e5 3c
       -0.013587337 -0.046850428 -0.03365339 0.02795825
000170 90 e6 b7 3b 8c 96 bb bb 20 4f 54 bd 7d 3e 0f 3d
       0.005612202 -0.0057247337 -0.051833272 0.034971703
000180 2b 07 61 3c ea 53 88 bc d9 06 14 3d 3e af 53 3c
       0.013734619 -0.016641576 0.036139343 0.012920199
000190 41 08 a2 bd a7 e3 90 bd 01 bf ca bc 10 33 16 3d
       -0.079117306 -0.07074671 -0.02474928 0.03666979
0001a0 37 13 8f 3d 24 14 af bc c6 15 6c bd 83 de 6c bd
       0.06986087 -0.021371908 -0.057637952 -0.05782939
0001b0 73 51 ab bc 7e 35 ea 3c f4 2c e6 bc 80 b7 17 bd
       -0.020912861 0.02858996 -0.028097607 -0.037040234
0001c0 0a f0 30 bd 2f 48 0d bd bf 21 d6 bc ca 3e 5a 3d
       -0.04319767 -0.034492668 -0.026139138 0.053282537
0001d0 0d 1c 03 3d d5 12 11 3d 0b a0 0e 3c 75 bd 85 bb
       0.032009173 0.03541835 0.008705149 -0.004081423
0001e0 73 20 b5 3c 6b bc c2 3d 68 0f aa 3d 70 08 d0 3d
       0.0221102 0.09508594 0.0830372 0.10157859
0001f0 c5 f6 21 3e 77 7d 47 bd 8c 22 45 bd 21 b3 52 bd
       0.15816791 -0.048703637 -0.04812865 -0.051440362
000200 44 2a a4 3b 01 5f 8d 3d ee fc c9 bd 85 46 8b bd
       0.0050099213 0.06902886 -0.09862696 -0.0680056
000210 9b 95 14 bd 13 94 1f bd d6 f7 64 3d 13 e4 80 bd
       -0.036275487 -0.038959574 0.055900417 -0.06293502
000220 d7 25 3e bc 29 96 5b bc d3 3d c6 bc 09 2d c0 3c
       -0.011605701 -0.0134025 -0.024199402 0.023458974
000230 e4 f9 49 bd d2 14 d0 3a db fd 10 3c 4f f2 8d bc
       -0.04931058 0.0015875346 0.008849586 -0.017327456
000240 1f da 95 3c c3 47 46 bd aa c1 bf 3b ce a8 80 3d
       0.018292485 -0.04840828 0.005851944 0.06282197
000250 d7 0f 4e 3d 3e 70 64 3d 9f ae 8a 3d 54 3a ad 3d
       0.050308075 0.055771105 0.067715876 0.08458391
000260 8d e5 00 3d ce a0 64 bc f0 dd d5 bc 78 12 18 3d
       0.031468917 -0.013954354 -0.026106805 0.03712699
000270 0f bb 71 3d 5d 91 71 3d ab 2f 98 b9 58 11 84 bd
       0.059016284 0.05897652 -0.00029027215 -0.064486206
000280 db 15 55 bd 1a d2 52 bd 5e 25 26 bd 56 d6 9e bd
       -0.052022796 -0.0514699 -0.04056298 -0.07755725
000290 89 d7 07 be 61 a5 89 bc 93 5d ad bd 27 5d 91 bd
       -0.13265814 -0.016802492 -0.084651135 -0.070978455
0002a0 0a 40 40 bd 78 b7 bc bd 20 b5 6e 3d 6d 6c 02 3b
       -0.046936072 -0.092146814 0.058278203 0.0019901053
0002b0 21 db 11 bd df 88 e2 bc 2c 4e 31 bd 1d ee 83 bd
       -0.03560937 -0.027653156 -0.04328744 -0.06441901
0002c0 83 09 ac bb a0 25 c6 3b 87 7f 42 3d b4 4f 99 3b
       -0.0052501573 0.0060469657 0.0474849 0.004678691
0002d0 55 8e 10 3d f2 f0 1a bc 29 1c ce bc 35 f1 65 3c
       0.03529199 -0.00945686 -0.025159912 0.014034559
0002e0 a9 05 0b bd 0f 1a 9d 3d a1 f6 57 bd 8b 6a a6 bd
       -0.033940945 0.07670986 -0.052725438 -0.0812579
0002f0 56 27 db bc da fb 1c be bd ef f8 3d fe 0a 43 3d
       -0.026752155 -0.15330449 0.121551014 0.047617905
000300 58 bb 87 3b 83 ac 07 3b bf 46 2f be fa 05 df 3d
       0.004142206 0.002070219 -0.17116831 0.10889812
000310 0d 0f 3f 3d 86 c9 96 3c d6 5a 87 bc 7c c2 fd bd
       0.046645213 0.01840664 -0.016522806 -0.123906106
000320 f3 62 cb 3c c3 fe 99 3c e8 10 51 3d 7a 95 78 3d
       0.024827456 0.018798238 0.051041514 0.060689427
000330 8c c9 6c 3d f7 cf 54 3d 31 d1 16 3d e0 f0 e5 3c
       0.057809398 0.051956143 0.036820594 0.02806896
000340 ed 73 34 bc 27 fc bc bd 9d 6f 33 3d 2d 01 02 bc
       -0.011013967 -0.09227782 0.043807615 -0.007934851
000350 70 c3 db 3b f8 2a 5b bd 3f a5 16 be 5b 83 30 3d
       0.0067066476 -0.053507775 -0.14711474 0.04309402
000360 1d 9a ed bc d0 6a 1a bd 8c 21 04 be 1f 13 48 be
       -0.029004151 -0.03769952 -0.12903422 -0.19538544
000370 00 1b 96 3c 3e 75 95 bd fd c7 13 be 61 8a 64 be
       0.018323421 -0.07297753 -0.14431758 -0.22318412
000380 e9 4a 9b be 59 86 1b 3e 47 b2 c1 3d 0d f3 f9 3d
       -0.3033059 0.15187968 0.09457832 0.122045614
000390 1c 7f 19 3e c9 3b 2e 3e 1c 56 4f 3d 73 fd e1 3c
       0.14989895 0.17014994 0.05061923 0.027586674
0003a0 72 70 76 3d 09 45 38 3d 25 17 6c 3d 25 ce 99 3b
       0.06016583 0.044987712 0.05763926 0.004693764
0003b0 f2 20 d8 bc 8b d3 ed 3a e9 fe 1c bd 64 c1 dc bc
       -0.026382897 0.001814471 -0.03832904 -0.026947685
0003c0 19 1c 60 bd 3d 44 b2 bd 73 6f 0c bd 60 24 ab bd
       -0.054714296 -0.08704422 -0.034285974 -0.08356547
0003d0 20 7c e5 bd ae 2a 07 be 70 98 f1 bd 4c 03 8a bd
       -0.112053156 -0.13199875 -0.11796653 -0.0673891
0003e0 92 9e e1 bd c6 d5 07 be fc 32 ac 3d f9 df 31 3d
       -0.11016573 -0.13265142 0.08408162 0.043426488
0003f0 6f ab a8 bc 4e 2f ec 3c 57 21 3e 3d c1 71 a7 3c
       -0.020589558 0.02883115 0.046418514 0.020439984

module.residual_layers.1.0.bn1.weight f4 [32]
000000 ca a5 af 3e 16 0d a9 3e 91 d0 20 3f 40 eb 51 3f
       0.34306175 0.33017796 0.6281825 0.8199959
000010 89 d2 2c 3f 8f f5 6e 3f 9a 57 2a 3f 26 b1 15 3f
       0.6750875 0.9334344 0.6653992 0.5847343
000020 2b cb 3f 3f 62 eb 85 3f 6d 12 7c 3f 87 2c 7e 3f
       0.74919385 1.0462458 0.98465616 0.99286693
000030 99 a4 59 3f cf 6d 6c 3f 1c 34 60 3f 50 20 5b 3f
       0.8501678 0.92355055 0.8757951 0.8559618
000040 4d 36 07 3f 3d 72 51 3f c5 38 60 3f 6d 86 4b 3f
       0.5281723 0.8181494 0.87586623 0.7950199
000050 c2 a1 3b 3f d8 89 83 3f 9f ac 30 3f 87 d5 ca 3e
       0.732937 1.0276442 0.690134 0.39616033
000060 19 95 7b 3f 2b 6e c4 3f 94 57 3a 3f 0c b7 35 3f
       0.9827438 1.534612 0.72789884 0.7098243
000070 7a 52 21 3f 69 51 71 3f 59 e3 99 3f 79 df 08 3e
       0.63016474 0.9426485 1.2022506 0.13366498

module.residual_layers.1.0.bn1.bias f4 [32]
000000 47 4c ed be a6 2d 9d be bd d3 65 bf 24 b6 8c bf
       -0.46347257 -0.3069889 -0.8977621 -1.0993085
000010 eb ef 79 bf 13 bf a5 bf 9b 42 8c bf 76 66 4c bf
       -0.9763171 -1.2948936 -1.0957826 -0.79843843
000020 7c f1 89 bf 38 ab 85 bf 50 f0 bf bf 96 de cc bf
       -1.077682 -1.0442877 -1.4995213 -1.6005428
000030 ec 17 75 bf e8 4e a4 bf d6 cc af bf 94 cc a5 bf
       -0.95739627 -1.283658 -1.3734386 -1.2953057
000040 30 3a f4 be 92 4f 94 bf 67 c4 a7 bf 17 a1 a8 bf
       -0.47700644 -1.1586783 -1.3106812 -1.3174161
000050 e7 06 85 bf 70 4d 91 bf 19 0d 75 bf 74 ac 12 bf
       -1.0392731 -1.1351757 -0.9572311 -0.5729439
000060 bb 0d b2 bf 60 43 0e c0 0a 10 80 bf 70 95 8e bf
       -1.391044 -2.2228622 -1.0004895 -1.1139355
000070 4d a0 4d bf 5b cd ce bf a5 6a e0 bf 94 7c 67 3d
       -0.80322725 -1.615642 -1.7532545 0.05651529

module.residual_layers.1.0.bn1.running_mean f4 [32]
000000 08 39 f7 bf 4d 75 1d bf 27 84 bf bf 5f 50 1a c0
       -1.931428 -0.6150711 -1.4962205 -2.4111555
000010 39 59 86 bf 1a 05 fa bf a2 b8 3e bf a3 5e 05 c0
       -1.0495979 -1.9532807 -0.7450048 -2.0839012
000020 51 3b 2a bf 4d 81 49 c0 1c 4f c4 bf 49 f1 04 c0
       -0.6649676 -3.148517 -1.5336642 -2.0772269
000030 59 38 08 c0 bd 0a 34 c0 55 2c d3 bf e9 6f c2 bf
       -2.1284392 -2.8131554 -1.6497904 -1.5190402
000040 f7 61 06 c0 9a df 27 c0 bc fc a0 bf 8d cb cc bf
       -2.0997293 -2.6230226 -1.2577128 -1.5999619
000050 cc 26 ae bf 16 5d 6e bf 3d 6b b5 bf c4 c1 b6 bd
       -1.360559 -0.9311079 -1.4173352 -0.089236766
000060 fc c8 b4 bf 2c d7 4f c0 d3 1d e2 bf 85 e2 9f bf
       -1.4123836 -3.247508 -1.7665352 -1.2491003
000070 a8 f1 20 c0 d9 75 da bf f1 d9 e0 bf ab 9f 94 bf
       -2.5147495 -1.7067214 -1.756651 -1.1611227

module.residual_layers.1.0.bn1.running_var f4 [32]
000000 d3 6c 73 3f c7 57 07 3f 05 be 45 3f bd 04 93 3f
       0.9508793 0.5286831 0.7724307 1.1485821
000010 cb 4a 4a 3f 67 67 81 3f 69 98 08 3f bb c4 a8 3f
       0.79020375 1.0109681 0.5335756 1.3185037
000020 cb e9 85 3f a3 19 93 40 f5 7e a0 3f ea b0 f1 3f
       1.0461973 4.5968795 1.2538744 1.8882115
000030 d7 be 1a 40 f3 73 95 3f ab c8 9b 3f 85 88 96 3f
       2.417898 1.167601 1.2170614 1.1760412
000040 2a d5 58 3f e6 c7 63 3f fe 24 6c 3f 9e 5c 9c 3f
       0.8470026 0.88976896 0.92243946 1.2215765
000050 b5 ae 9a 3f b5 1b fb 3f ac a2 63 3f 85 3a a9 3f
       1.2084566 1.961783 0.8892009 1.3220984
000060 f2 34 a7 3f 5d 72 53 40 46 68 f4 3f e3 42 7a 3f
       1.3063033 3.3038552 1.9094322 0.9775831
000070 d7 63 85 3f 78 03 87 3f a7 0e c4 3f eb b4 51 3f
       1.0421094 1.0547934 1.5316972 0.81916684

module.residual_layers.1.0.conv2.weight f4 [32, 32, 5, 5]
000000 c1 af 53 3d 64 81 46 3d d9 6d 32 3d 2f dc 41 3d
       0.051681284 0.04846324 0.04356179 0.047329124
000010 31 1d 43 3d fd 59 6f 3d 30 ac 4a 3d 41 f5 5e 3d
       0.04763526 0.05843543 0.049480617 0.05443311
000020 b0 d1 55 3d 6c dd 81 3d 78 bd 81 3d 03 34 3c 3d
       0.052201927 0.06341061 0.063349664 0.04594804
000030 bc 61 46 3d 6e c0 5d 3d 44 91 98 3d 60 4c 7f 3d
       0.04843305 0.054138593 0.07449582 0.062328696
000040 48 e4 31 3d 51 e9 33 3d 2f 2a 58 3d 6a 0e a2 3d
       0.043430597 0.04392368 0.052774604 0.079129055
000050 f7 05 73 3d 19 a4 2f 3d 69 80 49 3d 6d f5 62 3d
       0.05933186 0.042881105 0.049194727 0.055409838
000060 54 9d 97 3d a1 89 e5 3b 86 c8 2d 3b 16 3c 40 3c
       0.07403055 0.007004932 0.0026517226 0.011733076
000070 4a 33 e7 3a 59 c2 f6 3c bf 66 09 bb d7 5b db bb
       0.0017639187 0.030121969 -0.0020965782 -0.006694298
000080 69 95 9c 3a 0b d0 27 3b 45 67 18 3c 11 54 00 3a
       0.0011946383 0.002560618 0.009301965 0.00048953394
000090 2c 66 54 bc 9a 31 b9 bb 45 49 9d bb 32 33 a8 3b
       -0.012963813 -0.005651665 -0.004799994 0.005133056
0000a0 46 4f fd ba e5 31 97 bc 92 6d 77 bc 51 e6 ea bb
       -0.0019325993 -0.018456409 -0.015101807 -0.007168569
0000b0 fa a3 c4 3b ea cf da bb c7 33 60 bc 06 68 80 bc
       0.006000993 -0.0066776173 -0.01368422 -0.015674602
0000c0 4e ec e8 bb cd 02 7a 3a d8 ff a0 bd f8 17 7d bd
       -0.007108248 0.00095371605 -0.07861298 -0.061790437
0000d0 aa 99 5e bd 94 3c 6a bd 26 33 47 bd fa 71 88 bd
       -0.054345764 -0.057186678 -0.048632763 -0.06662364
0000e0 b8 01 33 bd 91 d2 19 bd bc 87 2c bd d7 2d 0d bd
       -0.04370281 -0.037554327 -0.042121634 -0.034467544
0000f0 b5 36 3a bd 84 d3 fb bc 82 09 e2 bc 24 cb 0f bd
       -0.04546233 -0.030740507 -0.027592424 -0.03510584
000100 a5 02 ad bc 79 21 84 bc 31 ac 50 bc 9d 9d c0 bc
       -0.021119425 -0.016129242 -0.012736366 -0.023512656
000110 95 2a dc bc d1 01 85 bc 63 9d 7d 3b dd 3c 05 ba
       -0.026875773 -0.016236218 0.0038698546 -0.00050826167
000120 32 29 2d bc 9e 39 41 3a 08 52 7b 39 fc 4a 7c bc
       -0.010568904 0.00073709514 0.00023967784 -0.015398737
000130 ec 75 82 bc 3c 66 dc bc c2 21 07 bd 67 03 1f bd
       -0.01592537 -0.026904218 -0.03299118 -0.038821604
000140 66 62 ca bc 48 3f 97 bc ce f8 e8 bc d9 30 0d bd
       -0.024705123 -0.018462792 -0.028438952 -0.034470413
000150 b2 ce e8 bc 9b 87 c0 bc 29 b6 8f bc f8 1e d0 bc
       -0.028418873 -0.023502162 -0.017542915 -0.025405392
000160 33 d9 f6 bc b9 62 cd bc 09 55 c3 bc c6 59 68 bc
       -0.030132866 -0.025071489 -0.023844259 -0.01418156
000170 2f 71 96 bc 14 57 f4 bc 00 44 da bc 0e 46 15 bd
       -0.018364517 -0.029826678 -0.026643753 -0.036443762
000180 ab e2 f2 bc 56 c7 12 bd b9 79 37 bd dc fc 32 bd
       -0.0296491 -0.035834633 -0.04479382 -0.043698177
000190 84 cf 84 bc 4f 08 77 bc b5 53 6f bc 12 94 96 bc
       -0.016212232 -0.0150776645 -0.01460736 -0.018381152
0001a0 fa 0f 0f bd 06 28 b4 bc e9 ee 94 bc 1f 18 99 bc
       -0.034927346 -0.02199174 -0.018180327 -0.01868826
0001b0 c5 b0 d3 bc 69 40 05 bd 97 3f 99 bc be cb 97 bc
       -0.025841126 -0.03253213 -0.01870708 -0.018529769
0001c0 89 64 a1 bc c9 09 bd bc 3a 29 f7 bc 91 bc ba bc
       -0.01970126 -0.023075955 -0.030171026 -0.022794994
0001d0 c3 48 d1 bc ef fa ee bc a5 69 d9 bc 7b 6c 04 bd
       -0.02554739 -0.029172389 -0.026539633 -0.032330018
0001e0 14 5c 15 bc 92 8c 84 bc 3e 07 53 bc 66 fb 64 bc
       -0.009116191 -0.01618031 -0.012880145 -0.013975954
0001f0 1f 5a 87 bc e4 c4 98 bc 18 b2 9a bc 97 8c 82 bc
       -0.016522465 -0.018648572 -0.01888375 -0.01593618
000200 19 95 75 bc f9 61 a8 bc 88 55 3e bc a0 af 09 bc
       -0.014989161 -0.02055453 -0.011617072 -0.008403689
000210 d0 c1 8e bb 7a f8 5b bb 89 4e 0f bc d6 0e 8d bc
       -0.0043566003 -0.0033564852 -0.008746752 -0.017218988
000220 8c 49 8b bc 50 0f 37 bc e8 0b 76 bc 39 c9 aa bc
       -0.017002843 -0.011173084 -0.015017487 -0.020847904
000230 34 c2 d5 bc b3 40 d1 bc 3d 07 b8 bc 36 dd 9f bc
       -0.02609358 -0.025543546 -0.022464389 -0.019514661
000240 8b 4e c9 bc 78 05 1b bd 5a 18 04 bd 71 cc bf bc
       -0.024573585 -0.037847012 -0.032249786 -0.023412915
000250 b0 31 bf bc b2 fb e9 bc 87 cc 52 bd c0 b8 0c bd
       -0.023339123 -0.0285624 -0.051464584 -0.03435588
000260 39 ce 00 bd 1f 86 09 bd 4b 44 33 bd cb a4 2b bd
       -0.03144667 -0.033575173 -0.0437663 -0.041905206
000270 0f 83 0e bd 3f 65 00 bd 12 4e 02 bd b0 b8 06 bd
       -0.034792956 -0.031346556 -0.031812735 -0.032890975
000280 96 4b f6 bc 27 99 d1 bc 0a e2 8f bc 08 56 be bc
       -0.030065339 -0.025585724 -0.017563839 -0.023234382
000290 dc a8 02 bd 56 05 c6 bc dc 0f bc bc 0d de 80 bc
       -0.031899318 -0.024172466 -0.022956781 -0.015730882
0002a0 6a 23 a8 bc f7 de 87 bc 0d f8 1e bc 10 a3 88 bc
       -0.0205247 -0.01658581 -0.009702695 -0.016679317
0002b0 f1 d3 61 bc 2f 1b 84 bc fe e2 5f bc 9f 74 51 bd
       -0.013783441 -0.016126243 -0.013664959 -0.05113661
0002c0 2a 15 3d bd ab d2 3a bd ff 57 50 bd bf ad 8c bd
       -0.04616276 -0.045611065 -0.05086517 -0.06869077
0002d0 29 87 2d bd 0a cc 23 bd fc db 30 bd eb d9 0d bd
       -0.042365227 -0.03998951 -0.043178543 -0.03463165
0002e0 70 10 37 bd 0f ba 29 bd 28 78 08 bd 16 0d 0e bd
       -0.04469341 -0.041437205 -0.033317715 -0.03468045
0002f0 18 20 de bc 66 35 0a bd f9 a0 09 bd 5b ad ef bc
       -0.027114913 -0.03374233 -0.03360078 -0.029257467
000300 b3 c5 d0 bc 12 36 c9 bc d6 ac 17 bd bd 28 26 bd
       -0.025484895 -0.024561916 -0.037030064 -0.040566195
000310 67 3c 25 bd 61 c6 e7 bc cb 68 16 bd 7e cd 62 bd
       -0.040340807 -0.028292837 -0.036721032 -0.055371754
000320 a8 47 a5 3d 3b bf 92 3d 35 da 8f 3d e6 97 81 3d
       0.08070308 0.071653806 0.070240416 0.063278005
000330 79 2e d3 3d a4 10 81 3d 4f b2 56 3d 39 76 70 3d
       0.10311598 0.06302002 0.052416142 0.058706496
000340 41 03 58 3d 7c c6 96 3d 24 5c 32 3d 27 77 24 3d
       0.05273748 0.07362077 0.043544903 0.040152695
000350 91 fe 57 3d 87 82 3f 3d 96 60 82 3d 1d 3e 1b 3c
       0.052733008 0.04675534 0.063660786 0.009475258
000360 64 d0 c2 3b bd 5e 98 3c 8f eb cc 3c ca c3 26 3d
       0.0059452523 0.018599862 0.025014667 0.040714063
000370 7a 6b 54 bc be 1b 23 bc e9 ed 00 bc 98 d0 13 bc
       -0.0129650775 -0.009955345 -0.007869222 -0.009021901
000380 95 29 e8 bb eb 47 9a bd 6d c8 22 bd 09 8e 1e bd
       -0.007085035 -0.075332485 -0.039741922 -0.038709674
000390 c0 0a 2d bd a0 b4 cc bd 18 64 c1 bc 76 b0 b8 b9
       -0.04224658 -0.09995389 -0.023607299 -0.00035226688
0003a0 27 0d ac 3b d5 e8 79 3b e1 24 0e bd 4f a5 d1 bc
       0.0052505913 0.0038133163 -0.03470314 -0.02559152
0003b0 79 99 08 bb 47 44 ae 3a e3 46 f6 bb d6 77 ca bc
       -0.002084343 0.0013295495 -0.0075157746 -0.024715345
0003c0 d5 ac ce bc 80 31 71 3a ec f2 f7 bb 31 d3 1c bc
       -0.025228897 0.00092007965 -0.0075668003 -0.009571836
0003d0 55 a4 b3 bc bf 24 14 bd 3b 57 03 bc 65 f6 81 bc
       -0.021928946 -0.036167856 -0.008016403 -0.01586456
0003e0 dc d5 b3 bc 75 35 09 bd 9e 48 77 3b 45 22 6c 3a
       -0.021952562 -0.033498246 0.0037732492 0.0009007792
0003f0 2d 96 04 3b 53 31 a0 3b 62 9c e9 3b 2d d2 bc bb
       0.0020231113 0.0048886924 0.007129238 -0.0057623596

module.residual_layers.1.0.bn2.weight f4 [32]
000000 90 fe e7 3f 60 8f ed 3f 93 ec dd 3f a3 94 e7 3f
       1.8124561 1.855938 1.7337822 1.8092235
000010 57 fd dd 3f c2 0c e5 3f c1 46 ec 3f 46 ca de 3f
       1.7342938 1.7894518 1.8459092 1.7405479
000020 0d cb d8 3f fd de e1 3f 0d 8f ef 3f 13 41 f6 3f
       1.6936966 1.7646176 1.8715531 1.9238609
000030 f8 c5 e2 3f a0 ec e7 3f ab f7 f0 3f a4 12 eb 3f
       1.7716665 1.8119087 1.8825582 1.8365064
000040 bd c8 ea 3f 78 18 fd 3f 3e a3 f0 3f 24 b8 e7 3f
       1.834251 1.9773092 1.8799818 1.810307
000050 45 31 d6 3f ee 37 e8 3f 75 a3 e6 3f 90 72 e2 3f
       1.6733786 1.8142068 1.8018633 1.7691212
000060 8f e5 de 3f c7 b4 e8 3f 25 72 e4 3f e8 da df 3f
       1.7413806 1.8180169 1.7847334 1.748868
000070 a2 7e ed 3f 11 15 e9 3f 2c 06 ea 3f f0 6b e6 3f
       1.855427 1.8209554 1.8283134 1.800169

module.residual_layers.1.0.bn2.bias f4 [32]
000000 2c 34 09 bf 93 79 30 bf 20 0f 5a be e1 89 0b bf
       -0.5359523 -0.6893551 -0.21294832 -0.5450726
000010 ff 40 0b bf 53 a7 29 bf ff db 81 be 35 89 60 be
       -0.5439605 -0.6627094 -0.25363156 -0.2192734
000020 18 b2 e0 be 73 ca d3 be 58 33 c5 be 4f 65 bf be
       -0.43885875 -0.41365394 -0.38515735 -0.3738198
000030 82 4e d3 be 2a 8b 16 bf 59 ad f0 be 2e f0 a7 be
       -0.41270834 -0.588061 -0.47007254 -0.3280043
000040 25 7d ea be 48 e2 04 bf b0 e1 dd be cf d9 f5 be
       -0.45798603 -0.5190778 -0.43336248 -0.48017737
000050 41 72 b6 be e9 03 aa be 62 c1 2b be 6e 48 f8 be
       -0.35634044 -0.33206108 -0.16772988 -0.4849276
000060 4b 55 b9 be 04 ac f4 be b4 57 fc be 27 26 02 bf
       -0.36197886 -0.47787488 -0.49285662 -0.50839466
000070 d6 cd bc be e8 3d 04 bf e9 38 48 be cd 95 3e be
       -0.3687579 -0.5165696 -0.1955296 -0.18611832

module.residual_layers.1.0.bn2.running_mean f4 [32]
000000 b2 7f 48 3a 82 65 67 ba 54 18 18 3b 64 b7 6e 3c
       0.00076484226 -0.00088270765 0.002320786 0.014570091
000010 f7 53 51 3c 5a df c4 3a de 0b 18 3b 08 1e a4 b8
       0.012776366 0.0015020177 0.0023200433 -7.825723e-05
000020 61 7a 6e 3c 2f f3 ba 3c 10 4f fb 3c 9b 57 97 3c
       0.014555545 0.022821037 0.030677348 0.01847439
000030 b4 95 8f 3c da df 02 3c ae 69 4d 3d 82 5a b5 3c
       0.017527439 0.007987941 0.050149612 0.022137884
000040 87 9c 53 3d ae e9 87 3c 89 8e 37 3b 28 44 d2 3c
       0.051662948 0.01659092 0.0028008542 0.025667265
000050 54 e4 e0 3c ba 5b f9 bb 01 6e 15 3d 8a 77 0b 3d
       0.027452625 -0.0076098116 0.03648186 0.03404955
000060 56 13 49 3c 2e 84 51 ba 64 50 2d 3c 39 81 07 3d
       0.012272676 -0.00079924136 0.010578249 0.03308222
000070 bb 5b 17 bc 73 cd 9a 3c b8 4a 03 3d 5c a7 0f 3d
       -0.009238179 0.018896794 0.03205368 0.035071716

module.residual_layers.1.0.bn2.running_var f4 [32]
000000 4e 0a 36 3c e3 a3 35 3c a2 fb 1c 3c 6a 2b 51 3c
       0.011110855 0.011086437 0.009581478 0.012766698
000010 5e 9b 2b 3c 01 2e 23 3c 71 aa 12 3c a5 2c 1c 3c
       0.010474054 0.009959699 0.008951769 0.009532128
000020 13 a3 1e 3c 5e 04 4d 3c e7 64 38 3c 66 fe 59 3c
       0.009682435 0.012513248 0.011254526 0.013305282
000030 11 b8 50 3c bb f3 2f 3c 95 e8 5c 3c fc 93 52 3c
       0.012739197 0.010739262 0.013483186 0.012852665
000040 d3 53 3f 3c 60 49 42 3c 84 86 3f 3c 56 df 25 3c
       0.0116777 0.011858314 0.011689786 0.010124048
000050 a3 62 2a 3c d4 66 48 3c f8 d3 44 3c 13 12 23 3c
       0.010399493 0.012231547 0.012013428 0.00995304
000060 de c5 44 3c f5 5f 46 3c a1 4f 4c 3c 09 d4 3b 3c
       0.012010066 0.012107839 0.012470157 0.011464127
000070 47 60 43 3c 38 52 3c 3c 9a df 45 3c a5 17 46 3c
       0.01192481 0.011494212 0.012077237 0.012090598
