summaries/good_ResNet3_num_blocks1x1x1_num_channels16_conv5/ckpt.pth (torch, 859069 bytes, 47 tensors)

module.conv1.weight f4 [16, 3, 3, 3]
0.033939574 0.098952755 0.10050256 0.06724029 0.19562684 0.18194321 0.010940114 0.111512735
0.043078758 -0.14566325 -0.14286731 -0.100510806 0.0013148974 0.024992097 0.025212927 0.071841106
0.078278355 0.020331588 -0.04758528 -0.0137851965 0.06301957 0.10761578 0.090514235 0.11019325
0.08031743 -0.015060417 -0.06953716 -0.086252876 -0.01729089 0.04835986 -0.22454296 0.09748468
0.103702925 -0.105722204 0.19136153 -0.017479172 -0.085073896 0.029830635 0.0514115 -0.21591677
0.1277357 0.091607235 -0.077235475 0.22262338 -0.004492309 -0.03570366 -0.0133669255 0.04728789
-0.19699451 0.01695567 0.045738284 -0.069017775 0.08720903 -0.06682127 0.29857668 -0.3652772
-0.46672922 0.5500836 0.7047487 -0.46321344 0.25997633 -0.02734187 -0.29174614 -0.079190254
-0.22477035 0.20689818 -0.14339805 0.55147475 0.3175512 -0.1593785 -0.44592413 -0.033554178
-0.18731916 -0.25948966 0.16651262 -0.2012387 0.33809894 0.37112176 -0.25850472 -0.32828826
0.2515976 0.05306602 0.33304593 0.084714495 0.13172671 0.3215315 0.042177606 0.049364954
0.14807948 0.26694953 -0.06102334 -0.22006877 -0.14159435 -0.31485713 -0.7026104 -0.5308035
-0.091529004 -0.48970404 -0.07746847 -0.0034820393 0.14819758 0.11932565 0.086880244 0.08153595
0.04290368 0.2629971 0.15869354 0.2788624 0.044678826 -0.30543816 -0.20366493 -0.09008073
-0.259064 -0.07462712 0.08465334 0.2760668 0.30267036 -0.027666511 -0.31709507 -0.19695403
-0.038144078 -0.11142508 -0.028008671 0.19106968 0.4154236 0.29895133 -0.0959672 -0.34653836
-0.1804142 -0.11147978 -0.15579297 -0.04035484 0.23967999 0.40621877 0.3173972 -0.0631332
0.08178371 0.10146987 0.085382804 0.020118317 0.04834346 0.114971034 -0.101048544 0.08329672
0.033026762 0.054720998 0.024673007 0.04198562 -0.16958396 -0.18146487 0.07402454 -0.18899322
-0.057680253 0.004484139 0.04299415 -0.0020569933 0.002087932 -0.20749837 -0.24986754 0.05054901
-0.2586696 -0.20272292 0.13567594 0.14144264 0.076725475 -0.32908335 -0.1446968 0.08932872
-0.19569743 0.00490809 0.1366273 0.02120845 0.11412672 0.17635924 -0.40995422 -0.13455738
0.2094119 -0.1841382 0.10259866 0.29514518 0.05180996 0.015146563 -0.0071529355 -0.28153482
-0.10407867 0.07510359 -0.09146393 0.13801126 0.18361309 1.5921767e-08 2.691799e-09 4.1000696e-09
8.443963e-09 -6.219869e-09 -3.2414906e-09 1.1968353e-08 -4.936083e-10 8.178247e-10 1.654133e-08 4.3978625e-09
7.368915e-09 1.2117737e-08 -1.1315182e-09 1.1660098e-09 1.3260172e-08 2.6905937e-09 5.1312683e-09 1.556017e-08
3.2574763e-09 5.8935163e-09 1.3596719e-08 -1.2889544e-09 2.224243e-09 1.3215291e-08 3.001817e-09 6.440633e-09
-0.384492 -0.4434552 -0.21891692 0.094349585 -0.60306257 0.38338777 0.17671414 0.7415682
0.5192763 0.1220158 0.25392422 0.25394702 0.2806176 -0.7684376 0.09603859 -0.11746023
-0.124734685 -0.20371795 -0.008552594 0.44489026 0.012045701 0.37157091 -0.28876337 0.1323715
-0.028350806 -0.3330699 -0.2951973 -0.07154398 0.33922789 0.14999522 0.025133451 0.12266355
-0.046905156 0.03682438 -0.22218126 -0.2798995 -0.06551922 0.31237587 0.023205908 -0.003873396
00000000: 3904 0b3d bea7 ca3d 49d4 cd3d 47b5 893d
00000010: 6752 483e 524f 3a3e 2a3e 333c ca60 e43d
00000020: 5a73 303d bf28 15be cf4b 12be 9cd8 cdbd
00000030: a358 ac3a 3abc cc3c 578b ce3c 6e21 933d
00000040: 6750 a03d 6e8e a63c c8e8 42bd 4edb 61bc
00000050: 6810 813d a965 dc3d 875f b93d 00ad e13d
00000060: 777d a43d f8bf 76bc 8069 8ebd 59a5 b0bd
00000070: a0a5 8dbc fd14 463d 97ee 65be 0ca6 c73d
00000080: 3362 d43d e284 d8bd 47f4 433e 7b30 8fbc
00000090: 393b aebd 605f f43c dd94 523d 4919 5dbe
000000a0: 26cd 023e 939c bb3d a22d 9ebd 62f7 633e
000000b0: 3834 93bb 003e 12bd f300 5bbc f2b0 413d
000000c0: eeb8 49be 9ee6 8a3c 1158 3b3d 3159 8dbd
000000d0: a69a b23d 97d9 88bd 0bdf 983e 9d05 bbbe
000000e0: 22f7 eebe 47d2 0c3f 696a 343f 502a edbe
000000f0: 9e1b 853e 0ffc dfbc c05f 95be 802e a2bd
00000100: 332a 66be 1edd 533e f0d6 12be 732d 0d3f
00000110: 1296 a23e 1e34 23be 2b50 e4be 1b70 09bd
00000120: 98d0 3fbe d4db 84be 4982 2a3e 8511 4ebe
00000130: 4e1b ad3e ac03 be3e bb5a 84be 6615 a8be
00000140: 67d1 803e c15b 593d ff84 aa3e cb7e ad3d
00000150: 5ee3 063e c79f a43e 6dc2 2c3d e832 4a3d
00000160: 26a2 173e 9cad 883e 9cf3 79bd b559 61be
00000170: 1cfe 10be f434 a1be 46de 33bf bde2 07bf
00000180: 8f73 bbbd 7dba fabe caa7 9ebd ed32 64bb
00000190: 1bc1 173e 0261 f43d 45ee b13d 52fc a63d
000001a0: c5bb 2f3d 8ea7 863e 8f80 223e 0dc7 8e3e
000001b0: 2501 373d 6462 9cbe 8a8d 50be 3f7c b8bd
000001c0: 09a4 84be 1ad6 98bd bb5e ad3d a158 8d3e
000001d0: 9cf7 9a3e e1a4 e2bc 495a a2be 51ae 49be
000001e0: f73c 1cbd d532 e4bd 7172 e5bc c5a7 433e
000001f0: 67b2 d43e 2610 993e 748a c4bd 7a6d b1be
00000200: 80be 38be 834f e4bd 3188 1fbe 1e4b 25bd
00000210: ac6e 753e e8fb cf3e e381 a23e fb4b 81bd
00000220: 387e a73d 6fcf cf3d 2edd ae3d 2bcf a43c
00000230: cb03 463d ef75 eb3d 8af2 cebd 7997 aa3d
00000240: 1247 073d 2023 603d 0c1f ca3c 1df9 2b3d
00000250: 6ba7 2dbe edd1 39be 2e9a 973d 7087 41be
00000260: 2142 6cbd afef 923b a21a 303d 9fce 06bb
00000270: b0d5 083b 747a 54be 47dd 7fbe 7b0c 4f3d
00000280: 5870 84be 9996 4fbe a2ee 0a3e 57d6 103e
00000290: 3f22 9d3d 9d7d a8be 662b 14be faf1 b63d
000002a0: e864 48be 0bd4 a03b 07e8 0b3e 58bd ad3c
000002b0: 45bb e93d 8497 343e 85e5 d1be 69c9 09be
000002c0: 1370 563e b98e 3cbe 3f1f d23d 451d 973e
000002d0: ae36 543d 4a29 783c 2c63 eabb 5525 90be
000002e0: 3327 d5bd e9cf 993d 7151 bbbd d352 0d3e
000002f0: 1205 3c3e 56c4 8832 a1fa 3831 98e0 8c31
00000300: f110 1132 8cb6 d5b1 e8c0 5eb1 609d 4d32
00000310: 99ae 07b0 4ccd 6030 c516 8e32 021c 9731
00000320: a931 fd31 5f2e 5032 c283 9bb0 5341 a030
00000330: dace 6332 6de5 3831 1d4f b031 2da9 8532
00000340: 21da 5f31 eb7f ca31 0197 6932 0d27 b1b0
00000350: 4cd9 1831 7709 6332 8648 4e31 684c dd31
00000360: 23dc c4be 8f0c e3be c22b 60be 5b3a c13d
00000370: 4f62 1abf 674b c43e 8df4 343e 6ad7 3d3f
00000380: 4bef 043f 6be3 f93d 5b02 823e 5805 823e
00000390: 1cad 8f3e 54b8 44bf e1af c43d fd8e f0bd
000003a0: e674 ffbd 709b 50be 2e20 0cbc a8c8 e33e
000003b0: 555b 453c 8b3e be3e cbd8 93be 658c 073e
000003c0: f33f e8bc 2388 aabe 1a24 97be a685 92bd
000003d0: 47af ad3e 5998 193e abe4 cd3c 0737 fb3d
000003e0: 9f1f 40bd 29d5 163d 7c83 63be fd4e 8fbe
000003f0: f12e 86bd bbef 9f3e 511a be3c cdd8 7dbb

module.bn1.weight f4 [16]
0.2590725 0.40748778 0.4189069 0.30135667 0.32147872 0.45301017 0.26146188 1.2947397e-08
0.38004845 0.33785698 0.63683677 7.2177556e-08 0.23501992 0.25780153 0.44488415 0.35083765
00000000: 27a5 843e 3da2 d03e f77a d63e 6c4b 9a3e
00000010: dc98 a43e f3f0 e73e 55de 853e 416f 5e32
00000020: b695 c23e 97fb ac3e bc07 233f 0800 9b33
00000030: 10a9 703e 90fe 833e dbc7 e33e fea0 b33e

module.bn1.bias f4 [16]
0.02221887 -0.32349914 0.32781544 0.11233589 0.22627555 -0.19815607 0.15119988 -3.7330572e-08
0.40264854 -0.043806206 -0.23386154 -2.2943789e-07 0.1781412 0.1702435 0.2600241 0.1528327
00000000: 5904 b63c aea1 a5be 6dd7 a73e 5c10 e63d
00000010: c7b4 673e 6de9 4abe 24d4 1a3e 6655 20b3
00000020: f327 ce3e 236e 33bd 6679 6fbe 685b 76b4
00000030: a66a 363e 5054 2e3e e121 853e 2d80 1c3e

module.bn1.running_mean f4 [16]
-0.27482045 -0.012685771 -0.08914657 0.080799684 0.032528896 0.22409602 0.008172581 -3.8192407e-08
0.038976904 -0.0066681444 0.30974206 1.9277677e-07 0.03448235 -0.072415724 -0.06951004 -0.04657821
00000000: 44b5 8cbe fbd7 4fbc 7a92 b6bd 4e7a a53d
00000010: 053d 053d 6d79 653e 4ae6 053c ff08 24b3
00000020: 3fa6 1f3d 7380 dabb 8396 9e3e 13fe 4e34
00000030: 5d3d 0d3d b24e 94bd 485b 8ebd cbc8 3ebd

module.bn1.running_var f4 [16]
1.5553071 0.5710445 1.1888236 0.7614317 4.341375 1.6290886 1.6653188 3.3162804e-14
0.59395415 1.4034702 2.267012 7.634569e-13 1.9099494 0.7989413 0.8296092 4.3286448
00000000: 4e14 c73f f92f 123f 5f2b 983f 30ed 423f
00000010: 8bec 8a40 fa85 d03f 2b29 d53f 1c5a 1529
00000020: 610d 183f e9a4 b33f b916 1140 dee4 562b
00000030: 3979 f43f 6b87 4c3f 4561 543f 4284 8a40

module.residual_layers.0.0.conv1.weight f4 [16, 16, 5, 5]
-0.07529336 -0.043946497 0.026883448 0.07690129 0.08528067 -0.108351685 -0.06763599 -0.003667903
0.057292342 0.10150824 -0.11270165 -0.08572985 -0.019867886 0.06405319 0.1333776 -0.07811489
-0.07005293 -0.028490273 0.03188246 0.086259894 -0.04529812 -0.051565796 -0.01649779 0.028137593
0.061365753 -0.025858205 -0.028842848 0.0074491366 0.0011217281 -0.002412547 -0.033281956 -0.024979739
0.0016824008 -0.03191416 0.034337796 -0.036363903 0.022824315 0.0014032759 -0.03798148 0.0053660306
-0.0062464164 0.043668676 -0.038223907 -0.05966098 -0.022563 0.013265108 0.016497435 -0.055943314
-0.042234436 -0.03872068 -0.025748048 -0.033783924 -0.04796584 -0.010581363 0.036936965 0.009815668
-0.014039529 -0.004584896 -0.06275135 0.008940354 -0.15098655 -0.0624346 0.0010027828 0.039103605
0.21395083 0.033336174 0.03174636 -0.062711 -0.15331158 -0.08352668 0.05109939 -0.017021697
-0.0545752 -0.050696757 0.020906897 -0.040975504 -0.009447749 0.0004999552 0.04231481 0.006209817
-0.05729636 -0.024746016 0.011787707 0.060358394 -0.007349991 -0.016440619 -0.027968613 0.014765498
0.017349567 -0.03366288 -0.06761216 -0.037811883 0.031030407 0.027895896 0.02826507 -0.031791616
-0.0072192885 0.012483882 -0.00013161484 0.036044195 -0.05042158 -0.02553381 0.02793025 0.052529756
0.113676615 -0.06646609 -0.056211554 -0.010869645 0.037517235 0.10226158 0.06068095 0.03532083
-0.002188476 -0.03794676 -0.06254139 0.13775992 0.049719926 -0.0080076875 -0.09176961 -0.14602654
0.06895357 0.015050282 0.0018771628 -0.059824396 -0.11891777 -0.03836389 0.03862216 0.048411436
0.031400766 0.0005957689 -0.017127085 0.0060419827 0.014098783 0.034791388 -0.0038405631 -0.009016745
-0.020788526 -0.0008391335 0.043815255 0.028494384 -0.036269266 -0.033017386 -0.031956434 0.014287139
0.03657213 -0.021443784 -0.029593043 -0.044759642 -0.012916613 0.005464273 -0.04034531 -0.047063638
0.043785412 -0.01212258 -0.052610897 -0.019231308 0.031308543 0.08624627 0.01910062 0.0041543483
0.031177722 0.07588123 0.09942834 0.030903123 -0.00675055 -0.04330041 -0.030147118 0.0499565
0.03304263 -0.008962854 -0.056838684 -0.039678782 0.05007101 -0.0025914758 -0.07177085 -2.9588865e-10
3.3458578e-10 -7.7012247e-10 -8.084435e-10 -7.3432505e-10 -3.0912964e-10 3.9743486e-10 -4.88199e-10 -2.339263e-10
-1.3801747e-10 -5.7190824e-10 7.898559e-11 -2.852264e-10 -4.5848277e-11 -1.4633592e-10 -1.5095798e-10 7.982165e-10
7.954451e-11 4.3663628e-10 4.540342e-10 3.17656e-10 9.3106195e-10 3.3648348e-10 1.8918522e-10 9.2543345e-10
-0.1423233 -0.0008713631 0.08861531 0.0031291556 0.094174534 -0.06305303 7.573507e-06 -0.069919966
0.03046191 0.047764152 0.08228382 0.008347002 -0.03258407 0.04261242 -0.026788447 0.01173392
0.00062371517 0.041126337 0.07837786 -0.033101734 0.099972345 0.081925936 0.120821305 -0.009567545
-0.053690296 0.040297564 -0.023282649 -0.024602184 0.0048104282 0.00034638436 0.048217095 -0.062311538
-0.06860395 -0.06359262 -0.06757187 -0.021394957 -0.023667287 0.0053783343 -0.0022139451 0.03559492
-0.08930701 -0.059105527 -0.04189913 -0.046314407 0.042258475 0.018446332 -0.0045090676 -0.034120325
-0.034031857 0.0018544495 -0.060123 -0.014338217 0.043614082 0.0034010413 -0.029953977 0.019385839
00000000: 6833 9abd 3e01 34bd ad3a dc3c 6c7e 9d3d
00000010: a2a7 ae3d 7de7 ddbd bd84 8abd 3361 70bb
00000020: 60ab 6a3d 8de3 cf3d 1fd0 e6bd 2293 afbd
00000030: fac1 a2bc 522e 833d 2394 083e b3fa 9fbd
00000040: e977 8fbd 6f64 e9bc 2f97 023d 07a9 b03d
00000050: 858a 39bd a836 53bd 6026 87bc cf80 e63c
00000060: a85a 7b3d 96d4 d3bc d647 ecbc e317 f43b
00000070: f306 933a d21b 1ebb a952 08bd 4fa2 ccbc
00000080: 0184 dc3a 6cb8 02bd caa5 0c3d 51f2 14bd
00000090: 0ffa ba3c 20ee b73a 7892 1bbd 87d5 af3b
000000a0: bdae ccbb eddd 323d ac90 1cbd 125f 74bd
000000b0: 0ad6 b8bc e555 593c a125 873c d124 65bd
000000c0: 04fe 2cbd 9399 1ebd 92ed d2bc 0361 0abd
000000d0: d477 44bd 745d 2dbc 374b 173d e5d1 203c
000000e0: 0d06 66bc e53c 96bb c883 80bd 907a 123c
000000f0: 389c 1abe 6cbb 7fbd cf6f 833a 1a2b 203d
00000100: ed15 5b3e 838b 083d 7908 023d a06e 80bd
00000110: b6fd 1cbe 0910 abbd 984d 513d 1671 8bbc
00000120: 3f8a 5fbd 67a7 4fbd f144 ab3c eed5 27bd
00000130: bbca 1abc 6d0f 033a 4b52 2d3d b87b cb3b
00000140: 97af 6abd 28b8 cabc 3a21 413c 5d3a 773d
00000150: 31d8 f0bb 7aae 86bc 6f1e e5bc fdea 713c
00000160: ae20 8e3c 17e2 09bd 3f78 8abd a2e0 1abd
00000170: 7b33 fe3c ef85 e43c 268c e73c ed37 02bd
00000180: c88f ecbb 3289 4c3c 1702 0ab9 14a3 133d
00000190: dc86 4ebd 482c d1bc fbcd e43c 7129 573d
000001a0: 49cf e83d 601f 88bd 163e 66bd 9816 32bc
000001b0: acab 193d 856e d13d 968c 783d 93ac 103d
000001c0: 896c 0fbb 106e 1bbd b315 80bd f010 0d3e
000001d0: 1fa7 4b3d ad32 03bc b5f1 bbbd fb87 15be
000001e0: 8837 8d3d 7595 763c 220b f63a 6d0a 75bd
000001f0: 298b f3bd 7423 1dbd 4532 1e3d 124b 463d
00000200: 179e 003d 602d 1c3a 1a4e 8cbc d3fb c53b
00000210: 95fe 663c 6a81 0e3d f5b1 7bbb f8ba 13bc
00000220: b34c aabc 4cf9 5bba a077 333d 0e6d e93c
00000230: 158f 14bd 3d3d 07bd c0e4 02bd 9b14 6a3c
00000240: a8cc 153d e0aa afbc 1c6d f2bc e355 37bd
00000250: 34a0 53bc a50d b33b 2041 25bd cdc5 40bd
00000260: 5558 333d c99d 46bc 867e 57bd fa8a 9dbc
00000270: 633d 003d e2a1 b03d e778 9c3c 3321 883b
00000280: 6c68 ff3c 9e67 9b3d 16a1 cb3d 8c28 fd3c
00000290: b833 ddbb c55b 31bd 17f7 f6bc 309f 4c3d
000002a0: b557 073d efd8 12bc aecf 68bd 3886 22bd
000002b0: 4217 4d3d c0d5 29bb 98fc 92bd a0aa a2af
000002c0: c3f0 b72f 8db0 53b0 2739 5eb0 88d9 49b0
000002d0: 21f2 a9af fc7d da2f f331 06b0 339a 80af
000002e0: 77c0 17af 7734 1db0 efb0 ad2e 0cce 9caf
000002f0: 92a4 49ae e6e5 20af e5fa 25af 7e69 5b30
00000300: 94eb ae2e 180b f02f a29b f92f 1ca2 ae2f
00000310: a9ed 7f30 d7fb b82f e802 502f 9761 7e30
00000320: 33bd 11be 306c 64ba f27b b53d 8512 4d3b
00000330: 94de c03d f221 81bd ee1f fe36 3332 8fbd
00000340: 418b f93c 58a4 433d 6b84 a83d ddc1 083c
00000350: e076 05bd 5c8a 2e3d 7273 dbbc a13f 403c
00000360: d180 233a 1774 283d 9284 a03d af95 07bd
00000370: 4dbe cc3d c9c8 a73d 2971 f73d 31c1 1cbc
00000380: 5bea 5bbd 0f0f 253d 41bb bebc 858a c9bc
00000390: cca0 9d3b ec9a b539 4a7f 453d 623a 7fbd
000003a0: 3a80 8cbd d93c 82bd 1f63 8abd 7a44 afbc
000003b0: e6e1 c1bc bd3c b03b d617 11bb fbcb 113d
000003c0: 98e6 b6bd a318 72bd 6c9e 2bbd 2db4 3dbd
000003d0: 3917 2d3d c31c 973c cdc0 93bb c1c1 0bbd
000003e0: fd64 0bbd 0011 f33a 8943 76bd d7ea 6abc
000003f0: aea4 323d 01e4 5e3b 0b62 f5bc 0dcf 9e3c

module.residual_layers.0.0.bn1.weight f4 [16]
0.42881182 0.27605858 0.43672505 0.6238834 0.33410648 0.37524593 0.35018918 0.54945475
0.64571553 0.64016503 0.331273 0.38660222 0.4549821 0.44187993 0.53964543 0.4890874
00000000: 398d db3e 8d57 8d3e 6d9a df3e d3b6 1f3f
00000010: 0110 ab3e 3c20 c03e ff4b b33e 11a9 0c3f
00000020: 9d4d 253f dbe1 233f 9d9c a93e baf0 c53e
00000030: 6af3 e83e 163e e23e 3426 0a3f aa69 fa3e

module.residual_layers.0.0.bn1.bias f4 [16]
-0.13956022 0.054476507 -0.07466868 0.23704198 0.09755928 -0.12188705 0.07436969 -0.32529572
0.33005488 -0.4508364 -0.07310484 -0.044500172 0.19078751 -0.1638227 -0.10915564 0.1167488
00000000: e0e8 0ebe c222 5f3d e5eb 98bd 22bb 723e
00000010: 29cd c73d eb9f f9bd 234f 983d 298d a6be
00000020: f4fc a83e 07d4 e6be feb7 95bd d045 36bd
00000030: cd5d 433e 23c1 27be fe8c dfbd ff19 ef3d

module.residual_layers.0.0.bn1.running_mean f4 [16]
-0.4931204 -0.5615586 -0.7879318 -0.5630013 -0.28048086 -0.41658354 -0.7682869 0.08952955
-0.48488352 0.6781864 -0.12237287 -0.8827233 -0.8207243 -0.75993115 -0.14951497 -0.7323041
00000000: 477a fcbe 4ec2 0fbf e6b5 49bf da20 10bf
00000010: 309b 8fbe 704a d5be 73ae 44bf 455b b73d
00000020: a742 f8be a09d 2d3f a19e fabd 27fa 61bf
00000030: fd1a 52bf d98a 42bf 741a 19be 4878 3bbf

module.residual_layers.0.0.bn1.running_var f4 [16]
0.31093666 0.14662689 0.28257635 0.3756921 0.18485907 0.17190228 0.23743872 0.17178863
0.30088866 0.25721803 0.1274587 0.47022337 0.39607516 0.1450129 0.68720514 0.41716716
00000000: 1733 9f3e 5c25 163e d9ad 903e b75a c03e
00000010: b24b 3d3e 2707 303e 2323 733e 5ce9 2f3e
00000020: 140e 9a3e 15b2 833e 8984 023e 1ec1 f03e
00000030: 5dca ca3e 437e 143e adec 2f3f ef96 d53e

module.residual_layers.0.0.conv2.weight f4 [16, 16, 5, 5]
-0.01830516 -0.0007237384 -0.003576483 -0.012156625 -0.0032679846 -0.013854758 -0.009168606 0.004519651
0.002411882 -0.011404288 -0.022466317 -0.036821343 -0.006781311 0.0011033367 -0.030109167 -0.009583771
-0.017148744 -0.020439452 0.00034230622 -0.014177932 0.037229463 0.03237631 0.006327234 0.006614024
0.0066991644 -0.044890847 -0.0038896268 0.03555352 0.045498703 0.06780013 -0.030080603 0.001443498
0.032328017 0.031020947 0.06955269 -0.03307335 -0.0039427113 -0.011662516 -0.026078535 -0.00018440372
-0.0674356 -0.059151094 -0.059585586 -0.10072625 -0.077110864 -0.051044483 -0.037233822 -0.027476493
-0.062375344 -0.057919968 -0.059068203 -0.047213633 0.008257254 -0.012507517 -0.07013305 -0.093048364
-0.034837164 0.0013177874 -0.028840786 -0.043056574 -0.03288443 0.022696482 0.030339248 0.024858152
0.016762735 0.019249277 0.04332835 0.023002526 0.040603198 0.021310348 0.10169714 0.100551724
0.086009964 0.08945874 0.066094235 -0.008598316 0.0047904016 -0.011430355 0.013297523 0.033998393
-0.0014099396 0.036893852 0.0255545 0.03587306 0.047036804 0.0027729017 0.042710572 -0.008648458
0.012913206 0.002700188 -0.011670664 0.0026373104 0.0030028936 -0.065706864 -0.028199542 0.012185857
0.00027918993 -0.011919004 -0.021898773 -0.04392163 -0.02451103 -0.07065405 -0.05088153 -0.08556583
-0.080059744 -0.030891718 -0.041117404 -0.022485903 -0.039114766 -0.053421546 0.041040674 0.03236043
0.0458957 -0.0015102343 -0.017485289 0.023179116 0.03610395 0.042629555 0.02456762 -0.019585662
-0.04250158 -0.03676324 0.019468963 0.029267974 0.0010582309 -0.09633639 -0.0745996 -0.016046995
-0.0029407518 0.05908713 -0.089259356 -0.08986648 -0.052458864 -0.02804804 0.06398454 -0.11135347
-0.117855705 -0.08308758 -0.030124012 0.06275886 -0.116261736 -0.10965075 -0.045347866 -0.042590685
0.019464403 -0.09625589 -0.060784187 0.023573916 -0.0034604266 0.016606612 0.122926876 0.072126605
0.032000665 -0.014570795 0.020627864 0.086376674 0.058446314 0.04875088 -0.016068414 -0.03166885
0.032499325 0.07192447 0.10431125 0.07732846 0.008972727 -0.07208571 0.02561408 0.12473399
0.115120456 0.06266139 -0.07494695 -0.017036984 0.077012256 0.10348712 0.09540702 0.03709994
0.028435292 0.011435012 0.018650865 0.0008291628 0.005408624 0.016571742 -0.0058636577 0.011388707
-0.00021185857 -0.023869963 0.0096590975 0.008758193 0.043832507 0.029237315 -0.013645712 0.013902733
0.0025960584 0.0134063745 0.005738956 -0.038609207 -0.024839424 -0.053665996 -0.045310974 -0.052109376
-0.017726772 -0.027266158 -0.018311273 0.012722358 -0.01426684 -0.041321147 -0.011063677 0.020183912
0.017198186 -0.021958794 0.0235077 0.010460509 0.07257428 0.0631306 -0.03270857 -0.0029401875
0.054119267 0.049269784 -0.039203454 0.02034847 -0.023428714 -0.0310108 -0.010008564 -0.008766701
0.00987867 -0.03824563 0.0054582017 0.06836213 0.048882503 0.047872346 -0.04159741 -0.002155063
0.04551793 0.00895665 0.0068953997 0.08058064 0.11259977 0.15993398 0.09195961 0.07230643
0.050780226 0.08562162 0.13348736 0.05799717 0.036948886 -0.09693372 -0.07032737 -0.019014152
-0.06411663 -0.077719755 -0.019777011 -0.0038617542 -0.035446893 0.0055353795 0.044160467 -0.02161765
00000000: b4f4 95bc 43b9 3dba 6e63 6abb 952c 47bc
00000010: af2b 56bb 11ff 62bc ec37 16bc 9519 943b
00000020: aa10 1e3b 0dd9 3abc 480b b8bc fad1 16bd
00000030: c235 debb d69d 903a 80a7 f6bc 4005 1dbc
00000040: 867b 8cbc a370 a7bc 9077 b339 8f4a 68bc
00000050: ec7d 183d 069d 043d b054 cf3b 74ba d83b
00000060: aa84 db3b 77df 37bd 1ce9 7ebb 91a0 113d
00000070: d95c 3a3d cbda 8a3d 996b f6bc c133 bd3a
00000080: 626a 043d a41f fe3c a471 8e3d ec77 07bd
00000090: dc31 81bb 2314 3fbc a7a2 d5bc 7f5c 41b9
000000a0: ad1b 8abd 6b48 72bd 0410 74bd 9049 cebd
000000b0: 4dec 9dbd 0514 51bd 7e82 18bd 6216 e1bc
000000c0: 4a7d 7fbd 7d3d 6dbd 80f1 71bd 1563 41bd
000000d0: 6f49 073c 54ec 4cbc eba1 8fbd 2490 bebd
000000e0: 6ab1 0ebd 9cb9 ac3a 8343 ecbc 175c 30bd
000000f0: d3b1 06bd f9ed b93c 048a f83c 53a3 cb3c
00000100: 0152 893c a9b0 9d3c 1179 313d cb6f bc3c
00000110: 8a4f 263d 0a93 ae3c 9746 d03d 10ee cd3d
00000120: fe25 b03d 2536 b73d 6a5c 873d f4df 0cbc
00000130: cdf8 9c3b 6246 3bbc dbdd 593c e641 0b3d
00000140: b9cd b8ba 021e 173d ac57 d13c a1ef 123d
00000150: aaa9 403d 92b9 353b 48f1 2e3d 43b2 0dbc
00000160: e991 533c a3f5 303b 5036 3fbc bad6 2c3b
00000170: 32cc 443b 5291 86bd ba02 e7bc 30a7 473c
00000180: 3d60 9239 ed47 43bc 0e65 b3bc 2be7 33bd
00000190: 5bcb c8bc 12b3 90bd 2769 50bd 233d afbd
000001a0: 5df6 a3bd a110 fdbc b96a 28bd 5b34 b8bc
000001b0: ce36 20bd 8dd0 5abd 441a 283d 5f8c 043d
000001c0: 21fd 3b3d 0ef3 c5ba 4f3d 8fbc 21e2 bd3c
000001d0: bce1 133d 549c 2e3d 0942 c93c 1c72 a0bc
000001e0: 2316 2ebd 0d95 16bd 607d 9f3c 64c3 ef3c
000001f0: 56b4 8a3a 034c c5bd adc7 98bd fd74 83bc
00000200: a1b9 40bb 5905 723d 9ccd b6bd eb0b b8bd
00000210: 1bdf 56bd 01c5 e5bc 540a 833d 4a0d e4bd
00000220: 555e f1bd d229 aabd a2c6 f6bc b887 803d
00000230: a21a eebd 9390 e0bd afbe 39bd 9273 2ebd
00000240: d073 9f3c cf21 c5bd d7f8 78bd 161e c13c
00000250: 53c8 62bb 970a 883c 16c1 fb3d 1db7 933d
00000260: 2113 033d 58ba 6ebc c4fb a83c 41e6 b03d
00000270: 6765 6f3d 01af 473d e8a1 83bc 32b7 01bd
00000280: 031e 053d 234d 933d 23a1 d53d 625e 9e3d
00000290: 5802 133c aca1 93bd 9ed4 d13c 8974 ff3d
000002a0: 46c4 eb3d 9d54 803d c97d 99bd 2591 8bbc
000002b0: 9ab8 9d3d 0ef1 d33d c164 c33d 1bf6 173d
000002c0: 21f1 e83c eb59 3b3c b3c9 983c 2c5c 593a
000002d0: d43a b13b 76c1 873c ed23 c0bb b397 3a3c
000002e0: 5a26 5eb9 f18a c3bc 3141 1e3c 867e 0f3c
000002f0: b789 333d 1883 ef3c 4492 5fbc 4ac8 633c
00000300: a222 2a3b 69a6 5b3c da0d bc3b b024 1ebd
00000310: 0c7c cbbc e0d0 5bbd 0098 39bd a470 55bd
00000320: bc37 91bc 475d dfbc 8601 96bc 7071 503c
00000330: 77bf 69bc 5d40 29bd 6d44 35bc bb58 a53c
00000340: 36e3 8c3c eee2 b3bc 3893 c03c 8e62 2b3c
00000350: d3a1 943d 9e4a 813d 6cf9 05bd 29b0 40bb
00000360: 2aac 5d3d 1dcf 493d cd93 20bd d6b1 a63c
00000370: 93ed bfbc 5c0a febc f6fa 23bc 36a2 0fbc
00000380: 25da 213c 73a7 1cbd b7da b23b 7201 8c3d
00000390: 0539 483d cb15 443d 0c62 2abd f53b 0dbb
000003a0: 0271 3a3d eabe 123c cef2 e13b 7607 a53d
000003b0: b59a e63d bcc5 233e 5255 bc3d 6515 943d
000003c0: edfe 4f3d 635a af3d e9b0 083e 718e 6d3d
000003d0: b757 173d 3085 c6bd cc07 90bd 91c3 9bbc
000003e0: 944f 83bd 892b 9fbd 6603 a2bc 7c15 7dbb
000003f0: c330 11bd 2162 b53b 9be1 343d 7f17 b1bc

module.residual_layers.0.0.bn2.weight f4 [16]
0.19651815 0.86282027 0.69109875 0.51120776 0.58363354 0.45584095 0.5649753 0.56874883
0.5181512 0.85980684 0.6104985 0.46020982 0.2659457 0.39395413 0.7920196 0.5592311
00000000: 0e3c 493e cae1 5c3f d9eb 303f 83de 023f
00000010: 0269 153f fc63 e93e 39a2 103f 8699 113f
00000020: 8fa5 043f 4d1c 5c3f a149 1c3f 9fa0 eb3e
00000030: 092a 883e 5bb4 c93e ccc1 4a3f c529 0f3f

module.residual_layers.0.0.bn2.bias f4 [16]
0.36393166 -0.15305582 -0.57888466 -0.38161117 -0.2917702 0.19729823 -0.26890513 0.20341927
-0.66876984 -0.28391805 -0.1496689 0.15799786 0.33878562 -0.32789734 -0.6061488 -0.24621284
00000000: 4055 ba3e aaba 1cbe c931 14bf 8a62 c3be
00000010: e762 95be 8c08 4a3e efad 89be 244d 503e
00000020: 8034 2bbf b55d 91be ce42 19be 31ca 213e
00000030: 4f75 ad3e 29e2 a7be 912c 1bbf 381f 7cbe

module.residual_layers.0.0.bn2.running_mean f4 [16]
0.19708563 -0.08071282 -0.109876975 0.387453 -0.14853269 -0.16649272 0.00867236 -0.40500677
-0.20246792 -0.0975458 -0.0548944 0.2084475 0.018232813 0.1997602 -0.16640614 -0.19887705
00000000: d1d0 493e c34c a5bd 2e07 e1bd 3d60 c63e
00000010: f418 18be 117d 2abe 8416 0e3c 0c5d cfbe
00000020: c053 4fbe 18c6 c7bd f3d8 60bd 4373 553e
00000030: fb5c 953c f08d 4c3e 5f66 2abe 6da6 4bbe

module.residual_layers.0.0.bn2.running_var f4 [16]
0.12923032 0.8517664 0.4024424 0.1469748 0.40378177 0.2366526 0.3185054 0.3714386
0.12993671 0.56855476 0.3403507 0.20627637 0.19214633 0.1291439 0.34211442 0.35891038
00000000: f454 043e 5d0d 5a3f ee0c ce3e 9080 163e
00000010: 7cbc ce3e 0f55 723e 2413 a33e 332d be3e
00000020: 210e 053e ce8c 113f 7242 ae3e 1d3a 533e
00000030: 02c2 443e 4c3e 043e 9f29 af3e 1ac3 b73e

module.residual_layers.1.0.conv1.weight f4 [32, 16, 5, 5]
0.04247434 -0.0012891266 -0.08658395 -0.12368018 -0.03391277 0.018518128 -0.013245588 -0.09189164
-0.12711996 -0.04297209 0.009684383 0.005173562 -0.065883465 -0.092864506 -0.027094457 0.042680316
0.039546728 -0.01930022 -0.057520382 -0.0056173704 0.09975711 0.085341044 0.026768776 -0.0069249957
0.016439565 -0.14170583 -0.10355807 -0.02148892 0.06789955 0.07396134 -0.13113236 -0.18419367
-0.045588035 0.10684318 0.13238236 -0.14448681 -0.13801828 -7.1762996e-05 0.12352081 0.12150197
-0.12823118 -0.107662395 0.056843825 0.18222995 0.10441399 -0.09177145 -0.02659762 0.096347734
0.12935634 0.07179829 0.048959434 0.08146377 0.026426997 -0.055174652 -0.028705774 0.15691294
0.19567715 0.1251416 -0.028606083 -0.09060794 0.1831153 0.18275642 0.078135796 0.0128403185
-0.08577855 0.02410824 0.10284296 0.035269435 -0.027587147 -0.036819473 -0.027077852 -0.009649914
-0.0017732722 -0.016008545 -0.016905233 -0.019213242 0.047515783 0.019774944 -0.023827577 -0.06848135
0.008469187 0.056052025 0.025436616 -0.02796337 -0.047560103 -0.023729093 0.019861883 0.007375809
-0.018662795 -0.02869625 0.010751807 0.054598574 0.018574562 -0.025700191 -0.010677139 0.0055705407
0.051434856 0.02180388 -0.032585572 -0.010849202 0.040906824 0.004344027 -0.019883439 -0.07584877
-0.056722976 0.10775578 0.053445 -0.019737551 -0.09495709 -0.07137747 0.12618673 0.023175966
0.027137788 -0.055645898 -0.09748896 -0.0033327024 -0.008688203 0.003359903 -0.025163379 -0.028961547
-0.022053162 -0.030186843 -0.010522105 -0.00068353716 -0.004747751 -0.0029961201 0.09594639 0.06885085
0.0060447124 -0.04596373 0.019956972 0.118915476 0.05063216 -0.024282712 -0.052766997 0.05526836
0.10869909 -0.009245619 -0.07646543 -0.09686745 0.07698725 0.11081419 0.008482979 -0.10585896
-0.1261679 0.069452375 0.02831831 -0.013095349 -0.084779784 -0.13445711 -0.1415784 0.008216537
0.06991672 0.09292733 0.071823984 -0.14305952 -0.0093231555 0.07195693 0.07851024 0.009088085
-0.16033411 -0.064769514 0.03755723 0.058887098 -0.0016467017 -0.15541878 -0.051477496 0.016546864
0.006112089 0.013973515 -0.10187743 -0.0058076256 -0.008279688 -0.047667775 0.0329143 0.006607953
0.013400458 -0.061663274 -0.09904096 0.018514892 0.022632845 0.019247675 -0.056121156 -0.098607
-0.044234216 0.04607909 0.015572027 -0.06473539 -0.10476269 -0.09457245 0.08749968 0.05975879
-0.05686243 -0.08572891 -0.068300106 0.12734593 0.07750179 -0.030087663 -0.08335146 -0.08808936
0.0143226525 -0.006742863 -0.060221072 -0.042309612 0.0076146177 0.06960473 0.022273904 -0.0015270908
-0.044080265 -0.032190453 0.035034794 0.04008133 -0.0043492825 -0.07080603 -0.08488977 0.044881355
0.045182817 0.0143914865 -0.053474464 -0.14992334 -0.0119166 0.055841662 0.05928594 0.0029871855
-0.049487296 -0.055652767 -0.049971893 -0.027671507 0.02306079 0.07354374 -0.08687872 -0.06566057
-0.07185161 -0.044348072 0.11594833 -0.07049001 -0.08057125 -0.05120008 -0.0017177608 0.07326408
-0.15633653 -0.09353123 -0.0204595 0.046600252 0.044111803 -0.11025081 -0.08960888 0.015631791
0.06302113 0.025045976 -0.04116068 0.03234901 0.06106305 0.00843947 -0.0631683 -0.02332101
00000000: 93f9 2d3d e9f7 a8ba ed52 b1bd 094c fdbd
00000010: 1ee8 0abd 54b3 973c 0604 59bc af31 bcbd
00000020: bc2b 02be 8103 30bd 3fab 1e3c fc86 a93b
00000030: e9ed 86bd bf2f bebd 32f5 ddbc 8ed1 2e3d
00000040: c0fb 213d 7f1b 9ebc 7e9a 6bbd eb11 b8bb
00000050: 754d cc3d 49c7 ae3d 314a db3c 13eb e2bb
00000060: 44ac 863c 551b 11be 4116 d4bd 8809 b0bc
00000070: eb0e 8b3d 0b79 973d 9047 06be 449d 3cbe
00000080: 85ba 3abd 99d0 da3d 3e8f 073e 5af4 13be
00000090: aa54 0dbe 777f 96b8 7af8 fc3d 06d6 f83d
000000a0: 094f 03be 1a7e dcbd 12d5 683d 7d9a 3a3e
000000b0: 01d7 d53d acf2 bbbd 41e3 d9bc f651 c53d
000000c0: fd75 043e fb0a 933d b089 483d 7ad6 a63d
000000d0: 6e7d d83c d1fe 61bd 5f28 ebbc c9ad 203e
000000e0: 975f 483e 1f25 003e 4e57 eabc a890 b9bd
000000f0: 9482 3b3e 8024 3b3e a905 a03d 3360 523c
00000100: aaac afbd a57e c53c 549f d23d af76 103d
00000110: 71fe e1bc 04d0 16bd 5fd2 ddbc ac1a 1ebc
00000120: 246d e8ba 5a24 83bc d87c 8abc 1765 9dbc
00000130: e99f 423d 10ff a13c 0d32 c3bc f33f 8cbd
00000140: 58c2 0a3c cf96 653d 7360 d03c 7013 e5bc
00000150: 62ce 42bd 8463 c2bc 63b5 a23c c5b0 f13b
00000160: b8e2 98bc 6614 ebbc 5928 303c c1a2 5f3d
00000170: ae29 983c 3589 d2bc 2bef 2ebc 1589 b63b
00000180: 5bad 523d 0d9e b23c 7378 05bd dac0 31bc
00000190: ea8d 273d 5758 8e3b 98e2 a2bc 9a56 9bbd
000001a0: 5a56 68bd 10af dc3d 25e9 5a3d a5b0 a1bc
000001b0: dd78 c2bd 5a2e 92bd 1837 013e 86db bd3c
000001c0: 1150 de3c f4ec 63bd 4ba8 c7bd 7869 5abb
000001d0: f758 0ebc d231 5c3b 6e23 cebc c440 edbc
000001e0: d5a8 b4bc 664a f7bc e864 2cbc 672f 33ba
000001f0: 0693 9bbb 8e5a 44bb 8a7f c43d ad01 8d3d
00000200: b912 c63b 7744 3cbd ce7c a33c f589 f33d
00000210: ab63 4f3d 8aec c6bc 3522 58bd 1361 623d
00000220: a19d de3d f07a 17bc e899 9cbd 7162 c6bd
00000230: 7eab 9d3d 8df2 e23d 31fc 0a3c 95cc d8bd
00000240: 2832 01be 0c3d 8e3d cdfb e73c e08d 56bc
00000250: 06a1 adbd 20af 09be eef9 10be a79e 063c
00000260: 7f30 8f3d af50 be3d 7418 933d 327e 12be
00000270: 26c0 18bc 285e 933d fac9 a03d 31e6 143c
00000280: a02e 24be e1a5 84bd 9cd5 193d 9933 713d
00000290: 24d6 d7ba 1a26 1fbe 11da 52bd 4a8d 873c
000002a0: eb47 c83b 2bf1 643c 1da5 d0bd e54d bebb
000002b0: 87a7 07bc 493f 43bd 25d1 063d 8787 d83b
000002c0: 988d 5b3c a192 7cbd fdd5 cabd 8bac 973c
000002d0: 8468 b93c 4dad 9d3c 4cdf 65bd 78f2 c9bd
000002e0: f02e 35bd 6ebd 3c3d d121 7f3c fd93 84bd
000002f0: d28d d6bd 33af c1bd 0833 b33d a2c5 743d
00000300: 94e8 68bd a492 afbd ede0 8bbd f966 023e
00000310: 42b9 9e3d 677a f6bc 2cb4 aabd 3268 b4bd
00000320: 8fa9 6a3c 3cf3 dcbb 5faa 76bd d84c 2dbd
00000330: 0b84 f93b ed8c 8e3d c377 b63c aa28 c8ba
00000340: 828d 34bd 23da 03bd a580 0f3d 522c 243d
00000350: 6d84 8ebb c002 91bd b0da adbd 83d5 373d
00000360: 9e11 393d 45ca 6b3c 0a08 5bbd 8185 19be
00000370: d83d 43bc 3aba 643d d0d5 723d a8c4 433b
00000380: 31b3 4abd 28f4 63bd 54af 4cbd 5baf e2bc
00000390: fbe9 bc3c 1a9e 963d 78ed b1bd 0d79 86bd
000003a0: f026 93bd 53a6 35bd 5176 ed3d 115d 90bd
000003b0: 8a02 a5bd 2db7 51bd 7d26 e1ba 7a0b 963d
000003c0: af16 20be 4d8d bfbd ae9a a7bc e8df 3e3d
000003d0: 94ae 343d 2dcb e1bd dc84 b7bd 3e0e 803c
000003e0: 3911 813d 382d cd3c 1a98 28bd 6580 043d
000003f0: 401d 7a3d b445 0a3c 625e 81bd b40b bfbc

module.residual_layers.1.0.bn1.weight f4 [32]
0.46237862 0.57324547 0.5365757 0.49689242 0.41607407 0.45878622 0.4076922 0.4557145
0.4243373 0.45757377 0.506326 0.5235308 0.41806638 0.43787014 0.58330023 0.4986858
0.50868833 0.40083608 0.37852615 0.53050154 0.42417395 0.38230786 0.52771235 0.41063368
0.55262446 0.4022119 0.5802591 0.46398064 0.45376477 0.438065 0.47941318 0.49967337
00000000: e4bc ec3e 37c0 123f 065d 093f af68 fe3e
00000010: a907 d53e 07e6 ea3e 08bd d03e 6953 e93e
00000020: bd42 d93e 1c47 ea3e 959e 013f 1d06 063f
00000030: cc0c d63e 8430 e03e 2a53 153f bf53 ff3e
00000040: 6639 023f 633a cd3e 2ece c13e f3ce 073f
00000050: 542d d93e dbbd c33e 2818 073f 943e d23e
00000060: cc78 0d3f b8ee cd3e dc8b 143f df8e ed3e
00000070: db53 e83e 0e4a e03e a575 f53e 30d5 ff3e

module.residual_layers.1.0.bn1.bias f4 [32]
-0.12974073 -0.35935542 -0.24974342 -0.035568777 -0.23810846 -0.2933737 -0.08448671 -0.29664057
-0.13399638 -0.17704615 -0.22325318 -0.22645937 -0.16149338 -0.22685066 -0.29270706 -0.24302825
-0.32782716 0.09019938 -0.1047772 -0.24875574 -0.17372535 0.117778234 -0.4201494 -0.05263792
-0.24034898 -0.038053554 -0.32355636 0.013945401 -0.11829501 -0.23924355 -0.036179043 -0.040658686
00000000: c1da 04be 6ffd b7be bdbc 7fbe 91b0 11bd
00000010: b4d2 73be 1435 96be 5e07 adbd 46e1 97be
00000020: 5936 09be 964b 35be 7b9c 64be f7e4 67be
00000030: 855e 25be 8a4b 68be b3dd 95be 66dc 78be
00000040: f6d8 a7be 74ba b83d 6e95 d6bd d3b9 7ebe
00000050: 0fe5 31be b735 f13d d21d d7be dc9a 57bd
00000060: 0b1e 76be 0bde 1bbd 2ea9 a5be 407b 643c
00000070: a744 f2bd 43fc 74be 7a30 14bd b989 26bd

module.residual_layers.1.0.bn1.running_mean f4 [32]
-0.6586758 -2.172547 -0.17934999 -1.7546198 -0.38447863 -0.30523837 -1.8089087 -0.2836414
-0.2891271 -0.49696624 -0.9697205 -1.3249525 -0.15231512 -0.8302211 -0.44306147 -0.19087054
-0.21847977 -1.1004837 -0.12716696 -1.0254986 -0.09404112 -1.2087561 -0.48742324 0.7041438
-0.8196008 0.044338096 -1.1664222 -1.1723065 -0.6226279 -1.0248877 -1.1004534 -1.0735947
00000000: fa9e 28bf 030b 0bc0 86a7 37be 6297 e0bf
00000010: 62da c4be 3448 9cbe 528a e7bf 7239 91be
00000020: 7808 94be 5c72 febe 9a3f 78bf 0b98 a9bf
00000030: 7ff8 1bbe 5f89 54bf f4d8 e2be 9173 43be
00000040: 29b9 5fbe a6dc 8cbf 0e38 02be 8a43 83bf
00000050: a198 c0bd 85b8 9abf 8a8f f9be c542 343f
00000060: 5cd1 51bf dd9b 353d 534d 95bf 240e 96bf
00000070: 8b64 1fbf 852f 83bf a8db 8cbf 8d6b 89bf

module.residual_layers.1.0.bn1.running_var f4 [32]
0.6248 0.7286883 0.6336527 0.81036454 0.40534768 0.5114935 0.73271674 0.5296667
0.73128235 0.5023779 0.64072347 0.8840906 0.52479583 0.37543252 0.58512896 0.5652183
0.5020739 0.82836324 0.4823996 0.562289 0.6410122 1.0193536 0.5498733 0.7061086
0.65930545 0.7415737 0.5642179 0.7100549 0.578717 0.65004194 0.8668107 0.80102694
00000000: e5f2 1f3f 518b 3a3f 1037 223f 0d74 4f3f
00000010: bb89 cf3e 3df1 023f 5393 3b3f 3d98 073f
00000020: 5235 3b3f d79b 003f 7406 243f c353 623f
00000030: 0559 063f b138 c03e 03cb 153f 26b2 103f
00000040: ea87 003f 9d0f 543f 15fd f63e 2cf2 0f3f
00000050: 6019 243f 2e7a 823f 7fc4 0c3f 89c3 343f
00000060: 3ec8 283f c6d7 3d3f 9670 103f 28c6 353f
00000070: cc26 143f 2669 263f 4ee7 5d3f 1a10 4d3f

module.residual_layers.1.0.conv2.weight f4 [32, 32, 5, 5]
0.057908554 0.037119035 0.09697885 0.15523833 0.080956176 0.036435463 -0.0036046354 0.01979366
0.053309064 -0.01416024 0.037419543 0.06534907 -0.014725828 -0.07475107 -0.071114406 -0.07381459
0.056822285 0.004802187 -0.016885765 -0.009409569 -0.17712934 -0.023574542 0.06330993 0.0139687685
0.012312187 -0.013535734 0.07798914 0.07367931 -0.016498333 0.01262732 -0.09510794 -0.022713382
0.013391888 -0.034314353 -0.093298845 -0.06872297 0.048811436 0.11347127 0.0610674 -0.059584048
0.065635286 0.088579446 -0.03329833 -0.0040087136 0.06860981 0.11789945 0.034454122 -0.098574504
-0.0013324755 0.07614075 -0.08659618 -0.0899005 -0.022431677 0.029247865 0.018893413 -0.04327553
-0.08770639 -0.060566634 0.032652393 0.053944096 0.00061146694 -0.0074497107 -0.059993077 0.03104601
0.095465004 -0.020377899 -0.08944259 -0.019879943 -0.009434054 0.0011517281 0.08599578 0.0032521314
-0.0013366537 0.027718898 -0.07576318 -0.05180106 -0.056077525 -0.020432323 -0.028472306 -0.08258616
0.012115147 -0.004358755 0.026596582 -0.01872347 -0.017728828 0.012513924 0.016682457 -0.01545147
-0.036846247 -0.03290813 -0.004403163 0.010833941 -0.009776106 -0.011562263 -0.062347732 -0.02582362
0.019283343 0.02787933 0.015090288 -0.07931107 0.022661762 -0.06005964 -0.07707757 -0.04885865
0.011484367 0.042659085 -0.02951371 -0.022028863 -0.026138829 -0.09553877 0.024717638 0.005326806
0.060387485 0.060694385 -0.08946474 0.01735384 -0.015197768 0.0029243405 0.10066248 0.021822127
-0.037147943 -0.030702231 0.05723547 0.13439444 -0.0024934635 0.14709538 0.020278929 -0.05458925
0.037297916 0.02198132 0.066691935 0.010149389 -0.026312316 0.029572347 0.0368649 -0.021947013
-0.010294766 -0.04056121 0.031648282 0.068483695 0.00935649 -0.0057736947 -0.016237853 0.0061062775
0.07012143 -0.018046275 0.045935523 -0.012051691 -0.012094541 0.0934273 0.005921803 -0.020126468
-0.010858889 0.0165107 -0.05488721 0.04266464 0.008393571 -0.01397789 -0.0028484084 -0.018992176
0.05196548 0.07536678 0.069409326 0.06778348 -0.019807398 -0.0062673613 0.051162485 0.070579134
0.044120364 -0.024617119 -0.0765628 -0.0872419 -0.06114259 -0.07516261 -0.061851114 -0.054154273
-0.075698465 -0.072329484 -0.042275205 0.019948436 -0.035275254 -0.030486792 0.03700123 0.10698621
0.048755445 -0.09388063 -0.04861894 -0.03421536 0.025515674 0.054258026 -0.046156015 0.045004
-0.035308525 -0.036707014 0.0010133832 0.030504558 0.056964803 0.026245756 -0.07782618 -0.07330846
-0.011366932 -0.039594226 -0.029336395 0.043219548 0.10749882 -0.072339065 -0.09808218 0.083859466
0.1523175 0.111518264 -0.0785464 -0.16097955 0.01747147 0.113827616 0.061280172 -0.07927069
-0.107184835 -0.06692652 -0.06325854 0.036519513 -0.054661993 -0.06383 -0.058751736 -0.023634516
0.057700507 0.01083598 0.041759633 0.027056389 0.0404616 0.031595785 0.004826667 0.007034119
-0.049932018 -0.029985845 -0.013895908 0.012625888 0.062223922 0.035346106 -0.007514853 0.011702289
0.0029639741 0.06748596 0.08673211 0.017532157 -0.08813235 0.0059704795 0.05085593 0.0031510084
-0.0053751096 -0.05185175 0.0052866545 0.026259016 -0.115032196 -0.10840673 -0.020838134 0.035780393
00000000: 8531 6d3d 210a 183d d99c c63d ccf6 1e3e
00000010: 5acc a53d 5a3d 153d bf3b 6cbb 5026 a23c
00000020: 9b5a 5a3d 5a00 68bc 3c45 193d bcd5 853d
00000030: 9944 71bc 1717 99bd 6ea4 91bd 1b2c 97bd
00000040: 7cbe 683d aa5b 9d3b 0454 8abc 982a 1abc
00000050: 6561 35be 661f c1bc a3a8 813d 43dd 643c
00000060: 0eb9 493c fcc4 5dbc c5b8 9f3d 2ee5 963d
00000070: 8327 87bc d2e2 4e3c f4c7 c2bd 6a11 babc
00000080: a669 5b3c 358d 0cbd 7713 bfbd a1be 8cbd
00000090: 80ee 473d a063 e83d cf21 7a3d 670e 74bd
000000a0: cb6b 863d 2469 b53d d463 08bd 875b 83bb
000000b0: 4d83 8c3d 4475 f13d c41f 0d3d 6ee1 c9bd
000000c0: 75a6 aeba aeef 9b3d 5759 b1bd c11d b8bd
000000d0: a3c2 b7bc 3899 ef3c 5cc6 9a3c af41 31bd
000000e0: 689f b3bd b814 78bd 84be 053d 7cf4 5c3d
000000f0: da4a 203a b41c f4bb 4dbb 75bd 3454 fe3c
00000100: 2883 c33d 8def a6bc ad2d b7bd 43db a2bc
00000110: 4a91 1abc 95f5 963a 8e1e b03d b621 553b
00000120: a832 afba be12 e33c ba29 9bbd 592d 54bd
00000130: 8cb1 65bd b061 a7bc c13e e9bc ef22 a9bd
00000140: 9c7e 463c e3d3 8ebb 13e1 d93c f661 99bc
00000150: 0c3c 91bc 3407 4d3c a6a9 883c 2a28 7dbc
00000160: 17ec 16bd adca 06bd 6948 90bb d880 313c
00000170: f62b 20bc a56f 3dbc 5660 7fbd 0e8c d3bc
00000180: 1af8 9d3c 3163 e43c 413d 773c d86d a2bd
00000190: 29a5 b93c 1901 76bd d8da 9dbd 0220 48bd
000001a0: ed28 3c3c 4bbb 2e3d bcc6 f1bc e075 b4bc
000001b0: 1921 d6bc d5a9 c3bd a57c ca3c 7d8c ae3b
000001c0: de58 773d ad9a 783d 4a39 b7bd a429 8e3c
000001d0: 0f00 79bc 4ba6 3f3b 2128 ce3d 51c4 b23c
000001e0: 7128 18bd 3f83 fbbc bd6f 6a3d b29e 093e
000001f0: 6069 23bb 2ca0 163e ff1f a63c fa98 5fbd
00000200: b3c5 183d 2b12 b43c c895 883d 9f49 263c
00000210: ed8c d7bc b541 f23c a6ff 163d 39ca b3bc
00000220: 61ab 28bc 8323 26bd a1a1 013d 2e41 8c3d
00000230: f74b 193c 4331 bdbb 3f05 85bc 2b17 c83b
00000240: d39b 8f3d c8d5 93bc e326 3c3d 7574 45bc
00000250: 2f28 46bc d056 bf3d af0b c23b 43e0 a4bc
00000260: 7be9 31bc 7341 873c 69d1 60bd 1ec1 2e3d
00000270: 3085 093c 8503 65bc 5dac 3abb 7b95 9bbc
00000280: c1d9 543d e659 9a3d 7a26 8e3d 11d2 8a3d
00000290: 2043 a2bc 705e cdbb c18f 513d cb8b 903d
000002a0: 8eb7 343d d7a9 c9bc f5cc 9cbd e2ab b2bd
000002b0: a770 7abd dbee 99bd 9857 7dbd dfd0 5dbd
000002c0: cc07 9bbd 7b21 94bd c428 2dbd e76a a33c
000002d0: c97c 10bd 70bf f9bc 9a8e 173d 961b db3d
000002e0: cab3 473d 7d44 c0bd a724 47bd 6825 0cbd
000002f0: 3f06 d13c aa3d 5e3d 170e 3dbd 1d56 383d
00000300: ac9f 10bd 185a 16bd 7fd3 843a b2e4 f93c
00000310: ed53 693d 5701 d73c 5563 9fbd bf22 96bd
00000320: 5e3c 3abc 8e2d 22bd e152 f0bc fb06 313d
00000330: 5728 dc3d 8126 94bd 4fdf c8bd 83be ab3d
00000340: 1ef9 1b3e b063 e43d efdc a0bd d3d7 24be
00000350: 5420 8f3c 741e e93d eb00 7b3d ac58 a2bd
00000360: b983 dbbd c510 89bd b28d 81bd 7c95 153d
00000370: 41e5 5fbd 4eb9 82bd a9a5 70bd 2c9d c1bc
00000380: 5e57 6c3d 6589 313c 260c 2b3d 5ca5 dd3c
00000390: 10bb 253d 956a 013d 0429 9e3b 787e e63b
000003a0: 8485 4cbd e0a4 f5bc aaab 63bc d0dc 4e3c
000003b0: 83de 7e3d 14c7 103d 283f f6bb f5ba 3f3c
000003c0: 3c3f 423b 1436 8a3d 9ba0 b13d 999f 8f3c
000003d0: bc7e b4bd 03a4 c33b 4f4e 503d 2681 4e3b
000003e0: b021 b0bb 8062 54bd ac3b ad3b 261d d73c
000003f0: 0096 ebbd 5904 debd bcb4 aabc 768e 123d

module.residual_layers.1.0.bn2.weight f4 [32]
0.6391033 0.63717926 0.55517703 0.5821548 0.40408748 0.43774924 0.5891932 0.6142554
0.58101267 0.7056311 0.33363074 0.72975326 0.64051265 0.60531914 0.6753827 0.5173795
0.5618198 0.64066935 0.5657948 0.6105207 0.6549663 0.7695909 0.5480842 0.5687819
0.5696181 0.52637374 0.63558936 0.38204664 0.4423133 0.66729003 0.6464098 0.5804358
00000000: 469c 233f 2e1e 233f 1520 0e3f 1908 153f
00000010: 8ee4 ce3e ab20 e03e 5ed5 163f d83f 1d3f
00000020: 3fbd 143f 3da4 343f a6d1 aa3e 1cd1 3a3f
00000030: a3f8 233f 32f6 1a3f e1e5 2c3f fc72 043f
00000040: 6cd3 0f3f e802 243f eed7 103f 164b 1c3f
00000050: dfab 273f e903 453f 3f4f 0c3f b19b 113f
00000060: 7ed2 113f 6ec0 063f fcb5 223f 9e9b c33e
00000070: e476 e23e 85d3 2a3f 1d7b 253f 7197 143f

module.residual_layers.1.0.bn2.bias f4 [32]
-0.28770083 -0.05396642 -0.049828183 -0.014439947 -0.089001514 0.032352254 0.0065237116 -0.16348624
-0.22691305 -0.24228129 -0.03307378 -0.38654265 -0.1871629 -0.04716403 -0.3007433 -0.16588616
-0.16031767 -0.26109067 -0.07769288 -0.14406139 -0.20030703 -0.33603823 -0.078212164 -0.20168316
-0.14218454 -0.06162754 -0.017402992 0.064017594 -0.072678 -0.24013615 -0.20980498 -0.19959548
00000000: 864d 93be e50b 5dbd a318 4cbd 8795 6cbc
00000010: 6d46 b6bd cc83 043d dcc4 d53b f068 27be
00000020: e55b 68be 9618 78be 5f78 07bd ebe8 c5be
00000030: a2a7 3fbe 122f 41bd 07fb 99be 10de 29be
00000040: 512a 24be adad 85be 721d 9fbd d484 13be
00000050: 491d 4dbe 340d acbe b32d a0bd 0886 4ebe
00000060: d398 11be 296d 7cbd b890 8ebc a81b 833d
00000070: 34d8 94bd 40e6 75be 1ed7 56be c262 4cbe

module.residual_layers.1.0.bn2.running_mean f4 [32]
-0.2985946 -0.14258699 0.021071974 -0.50786847 -0.12425042 -0.8876252 0.030346822 -0.029069178
-0.21545956 -0.34880552 -0.44439116 -0.7453852 -0.43521303 -0.56576777 -0.64960325 -0.6874899
0.10087443 -0.5562971 -0.41303995 -0.27440986 0.31536147 -0.8714222 -0.3617714 -0.4631949
-0.26238242 -1.0545889 -0.7281149 0.79932314 -0.45365244 -0.4631622 -0.34068528 -0.18193479
00000000: 64e1 98be 5302 12be 229f ac3c ab03 02bf
00000010: 0177 febd 683b 63bf e699 f83c 7c22 eebc
00000020: 6ea1 5cbe a396 b2be 3d87 e3be 91d1 3ebf
00000030: 3ed4 debe 28d6 10bf 664c 26bf 57ff 2fbf
00000040: 4197 ce3d 7d69 0ebf f979 d3be 737f 8cbe
00000050: 0f77 a13e 8615 5fbf 1a3a b9be e227 edbe
00000060: fd56 86be c5fc 86bf bd65 3abf 71a0 4c3f
00000070: 2245 e8be 9923 edbe 4d6e aebe 1d4d 3abe

module.residual_layers.1.0.bn2.running_var f4 [32]
0.24725896 0.29902467 0.27181196 0.2778583 0.14235613 0.27220172 0.276001 0.30624837
0.21874516 0.27016377 0.13632593 0.21722917 0.3059242 0.2545283 0.23663951 0.23270641
0.19259667 0.318407 0.29078552 0.24553552 0.2887314 0.27368662 0.25144818 0.27280477
0.22932926 0.22636242 0.34468338 0.18540049 0.2396593 0.22466545 0.20959519 0.21441184
00000000: 7431 7d3e c319 993e f02a 8b3e 7143 8e3e
00000010: cec5 113e 065e 8b3e 0150 8d3e 96cc 9c3e
00000020: bbfe 5f3e e852 8a3e 0699 0b3e 5371 5e3e
00000030: 19a2 9c3e 8951 823e a151 723e 974a 6e3e
00000040: 1038 453e 3e06 a33e d7e1 943e aa6d 7b3e
00000050: 9ad4 933e a720 8c3e d1bd 803e 11ad 8b3e
00000060: 4ad5 6a3e 8dcb 673e 577a b03e a0d9 3d3e
00000070: 3f69 753e b30e 663e 1fa0 563e c78e 5b3e

module.residual_layers.1.0.shortcut.0.weight f4 [32, 16, 1, 1]
0.031553004 0.028763007 0.017768707 -0.14883249 -0.1021086 -0.020632142 -0.012665845 0.08096178
0.04824918 -0.0016563502 -0.061549414 0.025427219 -0.011987693 -0.03151505 0.021725245 0.009121693
-0.01796201 -0.025047483 0.052043084 0.013024786 -0.0130824065 0.008162859 0.0154488385 -0.0012738843
0.00090834376 -0.026382044 -0.045295216 -0.0089135 0.015087559 0.019922674 0.057992004 -0.0039903447
0.022449654 -0.09039829 0.012797784 -0.026875718 -0.0056319586 0.017493706 -0.027229525 0.09720061
0.07644883 -0.0007130707 0.0032246509 -0.054902382 0.0046736426 -0.05686675 0.043762144 0.0061152824
-0.06052024 -0.02896511 -0.06648026 -0.10508146 -0.07545803 -0.108655676 -0.15622059 -0.0029841699
0.07785494 -0.030271562 -0.06944865 0.11808477 0.0121828485 0.09991406 -0.034919627 -0.13876127
0.36864895 0.028282417 -0.00934222 -0.007840739 0.032564588 -0.107869 0.07882297 -0.07601842
0.06503195 0.023046711 -0.03782695 0.29712844 0.27452904 -0.16296716 0.039817154 0.035744354
-0.061792724 0.020761862 0.03334054 -0.089188635 0.009327113 -0.0042305547 -0.073797844 -0.13429095
-0.022283169 -0.067146786 -0.111904584 0.021953346 0.059192743 0.036975075 -0.023377817 -0.01416347
0.014451866 0.06714501 0.016283695 -0.0031050257 -0.014101419 0.010496383 0.022082357 -0.0036849992
0.012132263 -0.057293817 0.013786732 0.016925532 -0.008862617 -0.012992791 -0.051770266 0.011716556
0.05791316 -0.012647086 -0.037886284 -0.04181643 -0.07984138 0.010047999 -0.04180502 0.01653764
-0.114440985 -0.05154362 -0.00074380066 0.0055995774 -0.02340183 -0.33688045 -0.023747742 -0.06946345
0.044911873 0.0009396278 -0.043911476 -0.09854899 -0.01123462 0.006827407 -0.02422766 0.036056716
-0.099799216 -0.021830404 -0.016201532 -0.15612736 0.029805083 -0.11730264 -0.021490248 -0.023182714
-0.021412842 -0.02103216 0.05768916 -0.1385223 0.026535276 -0.032880567 -0.04200127 0.029169694
0.017991621 -0.04053953 -0.00679612 0.011068497 -0.0046686167 0.020849321 -0.024323622 0.100589626
-0.5632341 -0.018200543 -0.019336456 -0.061514594 -0.05752437 -0.13840967 -0.014578343 0.09738096
0.111886494 -0.020532899 -0.005416341 0.013069298 0.17168444 -0.16084957 -0.022547072 -0.04775231
-0.038769174 -0.014714228 -0.060219884 -0.032177392 -0.038014762 -0.02616389 -0.05960797 0.040103022
-0.06239751 0.010556902 0.042462453 -0.072049096 -0.03920241 -0.0077634677 -0.05658334 0.012038086
-0.019677542 -0.032088213 0.03995147 0.026949627 -0.047284942 -0.075313 0.013046281 -0.07061755
0.013959861 -0.07840217 -0.01012467 -0.028939208 0.002888476 0.048291963 0.040597927 -0.04687749
-0.058854993 -0.0315441 -0.000502038 -0.08943443 -0.003422703 -0.021324906 0.02361679 0.1218767
0.009816586 0.0021125611 -0.10160081 0.014108996 0.074380524 0.17628276 -0.025441345 -0.075334154
-0.0015708508 -0.09399874 -0.030214362 0.014246135 0.0044182776 0.018954447 0.008481996 -0.036681693
-0.08478484 0.010261423 -0.030095225 -0.025834193 -0.06036084 -0.08106491 -0.015113801 -0.043585114
0.44231382 -0.011342566 0.00070025475 -0.1218309 0.026089307 -0.03769126 0.002271014 0.16904533
-0.08293958 -0.024790343 -0.020623103 -0.024731481 -0.24379678 -0.34933 0.010696037 0.033996306
00000000: b93d 013d 66a0 eb3c ae8f 913c 8b67 18be
00000010: 501e d1bd bd04 a9bc 6884 4fbc 4acf a53d
00000020: efa0 453d e419 d9ba 3d1b 7cbd be4c d03c
00000030: 0768 44bc ed15 01bd 24f9 b13c 2773 153c
00000040: 1125 93bc 6130 cdbc 212b 553d e965 553c
00000050: 9757 56bc 83bd 053c 201d 7d3c 77f8 a6ba
00000060: eb1d 6e3a 281f d8bc 7a87 39bd ee09 12bc
00000070: cf31 773c e034 a33c 0689 6d3d 70c1 82bb
00000080: 56e8 b73c bd22 b9bd ccad 513c 772a dcbc
00000090: 4b8c b8bb f64e 8f3c 7410 dfbc 1d11 c73d
000000a0: 3491 9c3d 5ded 3aba aa54 533b 52e1 60bd
000000b0: 5b25 993b 1ced 68bd ef3f 333d b562 c83b
000000c0: 12e4 77bd 3d48 edbc cd26 88bd f334 d7bd
000000d0: bd89 9abd de86 debd 4af8 1fbe 1092 43bb
000000e0: 6972 9f3d 11fc f7bc 183b 8ebd 6ed6 f13d
000000f0: 929a 473c be9f cc3d e207 0fbd 6f17 0ebe
00000100: 8ebf bc3e 87b0 e73c 1c10 19bc 7176 00bc
00000110: 7262 053d 6cea dcbd f06d a13d 8caf 9bbd
00000120: 792f 853d 75cc bc3c 6ff0 1abd 3821 983e
00000130: 128f 8c3e dde0 26be 5017 233d ac68 123d
00000140: 5e1a 7dbd c814 aa3c 1790 083d 88a8 b6bd
00000150: bfd0 183c 77a0 8abb 5323 97bd 9183 09be
00000160: 318b b6bc 4184 89bd 3b2e e5bd 81d7 b33c
00000170: 1774 723d 2d73 173d d682 bfbc e60d 68bc
00000180: 85c7 6c3c 5383 893d 6265 853c b07d 4bbb
00000190: a309 67bc 05f9 2b3c 0fe6 b43c 0780 71bb
000001a0: 66c6 463c ecac 6abd bfe1 613c 6aa7 8a3c
000001b0: 8334 11bc b7df 54bc 0f0d 54bd ccf6 3f3c
000001c0: 5a36 6d3d b935 4fbc a62e 1bbd b447 2bbd
000001d0: e183 a3bd 5da0 243c be3b 2bbd f279 873c
000001e0: 0960 eabd 671f 53bd 9efb 42ba a97c b73b
000001f0: 32b5 bfbc 987b acbe a08a c2bc da42 8ebd
00000200: 83f5 373d 5b51 763a 85dc 33bd 0ed4 c9bd
00000210: 6911 38bc 71b8 df3b 1679 c6bc 35b0 133d
00000220: 8863 ccbd add5 b2bc 13b9 84bc dadf 1fbe
00000230: ca29 f43c 5e3c f0bd 510c b0bc ade9 bdbc
00000240: fc69 afbc a34b acbc 784b 6c3d cad8 0dbe
00000250: 8260 d93c c6ad 06bd 8609 2cbd 48f5 ee3c
00000260: 2a63 933c c70c 26bd fdb1 debb a458 353c
00000270: 32fb 98bb 32cc aa3c 5542 c7bc ef01 ce3d
00000280: 1c30 10bf 4e19 95bc 7d67 9ebc baf6 7bbd
00000290: ac9e 6bbd 44bb 0dbe 01da 6ebc ab6f c73d
000002a0: bf24 e53d 9c34 a8bc 907b b1bb 9c20 563c
000002b0: 0cce 2f3e c0b5 24be a3b4 b8bc ed97 43bd
000002c0: 6dcc 1ebd f213 71bc 20a9 76bd 71cc 03bd
000002d0: 5eb5 1bbd a755 d6bc 7d27 74bd 1143 243d
000002e0: 8894 7fbd dbf6 2c3c 1ced 2d3d 7a8e 93bd
000002f0: b592 20bd b064 febb efc3 67bd 643b 453c
00000300: cc32 a1bc ee6e 03bd 27a4 233d 77c5 dc3c
00000310: dbad 41bd b43d 9abd 12c0 553c ef9f 90bd
00000320: e7b7 643c 5191 a0bd f2e1 25bc eb11 edbc
00000330: 964c 3d3b cbcd 453d 034a 263d 9c02 40bd
00000340: ef11 71bd 6334 01bd 339b 03ba 6629 b7bd
00000350: 6d4f 60bb 92b1 aebc 0078 c13c 7e9a f93d
00000360: bfd5 203c e572 0a3b 1614 d0bd 6b29 673c
00000370: d154 983d 7883 343e 5e6a d0bc cb48 9abd
00000380: 02e5 cdba 6982 c0bd 1c84 f7bc 9f68 693c
00000390: 33c7 903b 5b46 9b3c 12f8 0a3c 8b3f 16bd
000003a0: ada3 adbd 871f 283c 438a f6bc 3ba2 d3bc
000003b0: ee3c 77bd 5c05 a6bd e09f 77bc 4e86 32bd
000003c0: f576 e23e 2cd6 39bc 4d91 373a 7b82 f9bd
000003d0: 3eb9 d53c 2762 1abd 4bd5 143b 381a 2d3e
000003e0: 3adc a9bd 1e15 cbbc c8f1 a8bc ad99 cabc
000003f0: dda5 79be 62db b2be 6e3e 2f3c b63f 0b3d

module.residual_layers.1.0.shortcut.1.weight f4 [32]
0.0757202 0.013883769 0.037251804 0.11400033 0.2662746 0.04337209 0.013118545 0.1054619
0.06680404 0.050425462 0.29975465 0.05233274 0.036089152 0.10407472 0.043360576 0.30450657
0.06896372 0.09001811 0.044294193 0.09316756 0.10436233 0.05896568 0.040259663 0.059344806
-0.0022346072 0.12766401 0.0728054 0.24218735 0.13399751 -0.039354436 0.16728368 0.11299024
00000000: 3113 9b3d bf78 633c 5995 183d 0179 e93d
00000010: 2555 883e efa6 313d 2aef 563c 69fc d73d
00000020: 8ed0 883d ee8a 4e3d 7179 993e db5a 563d
00000030: 38d2 133d 2025 d53d dc9a 313d 49e8 9b3e
00000040: da3c 8d3d 6a5b b83d d46d 353d a2ce be3d
00000050: ebbb d53d ff85 713d 51e7 243d 8a13 733d
00000060: 7d72 12bb 5bba 023e ff1a 953d f6ff 773e
00000070: a536 093e 1e32 21bd 6a4c 2b3e 6d67 e73d
