summaries/good_ResNet2_num_blocks1x1_num_channels16_conv7/ckpt.pth (torch, 422387 bytes, 32 tensors)

module.conv1.weight f4 [16, 3, 3, 3]
000000 d2 01 3c bd 79 25 60 3e c0 22 95 3e d7 9e fe be
       -0.045900173 0.21889295 0.29128075 -0.4973056
000010 43 6c 8d 3c 85 5e 0c 3f 3b f6 fb be ff ee 8d be
       0.017263537 0.54831725 -0.49211296 -0.27721402
000020 f0 91 a7 3e 1d 89 8b be 0c 3f c2 bd c5 b4 26 3e
       0.3272853 -0.27253047 -0.094846815 0.16279896
000030 7e 72 f7 be 7b 1a 83 bd 3c a3 01 3f 85 cd 85 be
       -0.48329538 -0.06401535 0.506397 -0.2613336
000040 44 84 61 bd e3 0e fa 3e d2 d6 82 bd 1c 14 86 bd
       -0.05505778 0.48839483 -0.0638863 -0.06546804
000050 43 14 58 bc 8d f5 7a be 45 ab 18 be e7 9f 14 3e
       -0.0131884245 -0.24507733 -0.14909084 0.14514123
000060 f7 8a d7 3d a3 d0 bc bc c9 d3 86 3e c6 c7 a3 be
       0.10524552 -0.023048704 0.26333454 -0.31988353
000070 b1 6f 61 bf ab 39 06 bf 43 c9 a2 3d 94 89 2b be
       -0.8806105 -0.52431744 0.07948544 -0.167517
000080 2d 7d c0 bd ad 48 c2 3e c9 86 5e 3f 1c 33 14 3f
       -0.093988754 0.37946072 0.86924416 0.57890487
000090 ba 0f 79 3d 88 2c 36 be 27 6d 31 3d 82 de ff 3c
       0.060806014 -0.17790425 0.043316986 0.03123403
0000a0 56 3c 1e bd 35 24 fb 3c d8 c0 f7 bd 8b 57 99 3e
       -0.03863176 0.030656913 -0.12097329 0.29949602
0000b0 8b 52 d4 3d b4 a0 8e 3e a7 fd d6 3d 84 94 93 3e
       0.10367306 0.27856982 0.10497599 0.28824246
0000c0 ed eb 65 3d 28 29 d0 bd c7 c9 18 bd 9a 12 a0 be
       0.0561332 -0.101641 -0.037301805 -0.31264192
0000d0 54 58 f3 bd 00 75 96 be bb c6 8a 3e 72 6c c6 bd
       -0.11882082 -0.2938614 0.27104744 -0.09688653
0000e0 e3 0a 0c 3e f2 91 5d bd f2 cb 01 bf 66 6f f6 3d
       0.13676028 -0.054094262 -0.5070182 0.12032966
0000f0 b7 73 1b 3d f4 58 18 3d 8e ff a7 3d ed 7c 84 3d
       0.03795215 0.037194207 0.0820304 0.0646914
000100 fa f4 c4 bd 4e 5c 3d 3e 8d 88 18 be c4 e3 da be
       -0.09617038 0.18492243 -0.1489584 -0.42751896
000110 ac 3c 93 3e 43 6d a7 bd 78 9f 18 bd 6f d5 c3 3d
       0.28757226 -0.08175137 -0.037261456 0.095621936
000120 61 28 01 3e 14 10 ff bd 77 a7 59 3e 9b 20 f7 bd
       0.1261306 -0.124542385 0.21255289 -0.12066766
000130 c1 4a d0 be cd c2 93 3e 0f 66 51 bd 5a 1d 98 bc
       -0.40682033 0.2885956 -0.05112272 -0.018568683
000140 5e 86 80 3c c5 44 24 be 61 f4 c5 be 4e 76 a1 3c
       0.015689071 -0.16041858 -0.3866301 0.019709732
000150 ff 64 b1 be 59 90 13 bf 0a 33 4a be 47 bd 44 be
       -0.34647366 -0.5764213 -0.19746032 -0.19212829
000160 27 1a c3 be 41 53 7e 3b c7 f9 8d 3e cb 88 0b 3e
       -0.3810589 0.0038806947 0.27729627 0.13626401
000170 32 47 d6 3d 04 76 18 3e 60 eb 83 3d 7a 56 c3 bc
       0.10462798 0.1488877 0.064413786 -0.023844946
000180 ad 71 25 bc 1a 60 73 bd 1a be 84 bd 17 4c 8e 3e
       -0.010097903 -0.05941782 -0.064815715 0.27792427
000190 e7 c5 3b 3e 14 05 2b bd 53 5a ab 3e da 93 a7 3e
       0.18337213 -0.04175289 0.3346735 0.3272999
0001a0 29 2f 25 3d ec ef 5e 3e e0 27 7f 3e 96 39 68 3d
       0.04032818 0.2177121 0.24917555 0.056695543
0001b0 74 f0 cd bd 50 66 9e 3a e5 aa 1b 3d 36 62 09 be
       -0.100556284 0.0012084935 0.038004775 -0.13416371
0001c0 1d 80 55 3d 50 ca b4 3e f4 b5 ad bc fc 6c 94 3d
       0.05212413 0.35310602 -0.021204926 0.072473496
0001d0 2c a1 81 3e 7e 47 aa bb 9a 53 a6 be 47 85 ab be
       0.25318277 -0.005196511 -0.32485658 -0.3350012
0001e0 62 b2 18 3c 29 cd ed be 7e bf a0 be 87 95 d3 3e
       0.0093198735 -0.46445587 -0.31396097 0.41325018
0001f0 83 0e 8e bd 70 b7 93 bd 81 32 82 3e 0f ee c5 3e
       -0.06936362 -0.07212722 0.25429156 0.38658187
000200 c7 65 bf 3e 4f 08 ba ba 53 9b d6 bd 2a db 00 3b
       0.37382337 -0.001419315 -0.104788445 0.0019661882
000210 a3 45 f6 bd 01 b0 99 be 73 7a 8f be e1 75 83 be
       -0.12025001 -0.30017093 -0.2802311 -0.25675872
000220 a9 03 7e bd c6 22 bd 3e fc dd 2f be a3 0c df be
       -0.06201521 0.36940593 -0.17174524 -0.4356433
000230 08 80 e4 3d c8 33 99 3e cc 9a 85 bd 73 74 93 3d
       0.111572325 0.29922318 -0.06523666 0.07199945
000240 19 e2 d8 bd 4f 00 ff bd 91 64 05 3e 2d a7 71 3d
       -0.1059 -0.12451231 0.13026644 0.058997322
000250 55 01 9e be 86 de 46 bd 4e a0 55 3e fc 7b c1 bd
       -0.3086039 -0.04855206 0.20861933 -0.09447476
000260 e2 e8 f2 bd 3b 11 2c bd 21 ba d2 bd 6e 93 c7 bc
       -0.11860825 -0.04200862 -0.102894075 -0.024362292
000270 52 30 0d 3e 96 49 2f be 17 4a d8 bd bc c4 4c 3e
       0.13787964 -0.17117915 -0.105610065 0.19996923
000280 c2 1a 47 bb df 1c 14 be bf 8c 31 3f f9 8d 1c 3f
       -0.003038094 -0.14464138 0.69355386 0.61154133
000290 38 f9 a3 3d e6 ce 9b 3e 34 11 e8 bd 83 82 0a bf
       0.08006519 0.30431288 -0.11331406 -0.54105395
0002a0 c6 f5 80 3c f3 b2 d9 be 00 f9 1f bf 41 a6 70 be
       0.015742194 -0.4251934 -0.6248932 -0.23500921
0002b0 10 d7 57 be 86 5b 3f 3b 49 bf c9 bd 79 84 c3 bd
       -0.21078134 0.002919884 -0.09850938 -0.095467515
0002c0 79 40 08 3e e7 9b 21 3d e0 1e 27 3e 07 b6 b1 3e
       0.13305844 0.03945532 0.16320372 0.34709188
0002d0 cf 05 38 bf 08 3f e4 be bc eb a5 bd 14 79 87 be
       -0.71883863 -0.4457934 -0.081016034 -0.26459563
0002e0 90 d3 3a 3e d2 cb f6 3e e7 56 da bc b0 fd ca 3e
       0.18244767 0.48202378 -0.026652766 0.39646673
0002f0 74 bc d9 3e 6f 61 3c bc b7 4c 24 3e 9a c1 b8 be
       0.4252659 -0.011497839 0.1604489 -0.36085206
000300 9f e3 9f 3e 17 d5 7c bf 9b 44 82 3e 84 98 5d 3e
       0.3122835 -0.9876265 0.25442967 0.21640211
000310 05 15 1c 3f 00 f0 20 be 98 5d 91 3d 3d 92 83 3e
       0.60969573 -0.15716553 0.0709793 0.25697508
000320 4b 63 5f 3e 35 58 67 3e 26 3a a2 bf c0 9c 2b 3f
       0.21815221 0.22592242 -1.2673995 0.67036057
000330 93 b2 6b bc c3 47 15 bc 76 29 1c be d5 68 95 3c
       -0.014385837 -0.009111348 -0.15250191 0.018238464
000340 49 d7 06 3f 38 34 57 be c5 70 e6 bb 1e c8 57 bf
       0.5267225 -0.21016014 -0.007032486 -0.8428973
000350 cc 3c 04 3f 28 7f 27 be 7f 9a 74 bd 7c 3c 67 3e
       0.5165527 -0.163571 -0.05971765 0.22581667
000360 79 d4 64 3e 65 8e 0b 3e 20 b9 d5 bd 47 d7 8d 3e
       0.22346677 0.13628538 -0.104357004 0.27703306
000370 a6 b3 fe 3d ec 99 05 be f1 54 11 3e 1e 0f ef 3d
       0.12436609 -0.13046998 0.14192559 0.11672805
000380 8a da 38 3e 98 68 65 3d 17 79 fe bd ae f3 b2 be
       0.18052116 0.05600795 -0.1242544 -0.34951538
000390 ee 0e 79 bd 92 ce 87 be 9b a9 de be 04 8f 5e be
       -0.060805254 -0.26524788 -0.43488774 -0.21734244
0003a0 bc a8 7d be d8 9d 50 bd 59 35 d5 3e a0 ad 3e 3e
       -0.24771398 -0.05093178 0.41642264 0.1862092
0003b0 3a 5c 8f be 36 f1 e7 3e 8c eb 6a 3e 93 90 38 be
       -0.2800005 0.45301217 0.22941417 -0.180239
0003c0 09 74 ca 3d e9 0d 9e 3d 9e 52 6b 3d b9 bc b3 3e
       0.09885413 0.07717497 0.057451837 0.3510492
0003d0 c8 dd bd 3e 72 51 bf 3e 19 32 8e bc 7f 2a 1b bf
       0.37083268 0.37366825 -0.017357873 -0.6061172
0003e0 55 c7 a8 be b9 27 06 be 37 1b 31 be 62 34 af bd
       -0.32964578 -0.1310109 -0.17295538 -0.08554913
0003f0 18 49 44 3d dc e5 cf 3d 92 fb 75 3d 65 39 cf bd
       0.04792127 0.10151264 0.06005437 -0.10118369

module.bn1.weight f4 [16]
000000 81 87 a3 3e 3e 65 b3 3e 73 e0 4e 3f e6 ec 3a 3e
       0.3193932 0.3503818 0.8081123 0.18254432
000010 da 78 81 3e d9 dd 3a 3f 91 cc 9d 3e 04 d6 1c 3f
       0.25287515 0.7299476 0.30820134 0.6126406
000020 97 9e 56 3e 28 03 f9 3e ff 01 d6 3e de e1 ab 3e
       0.20958935 0.4863522 0.41798398 0.3357076
000030 e4 64 35 3e e4 0a 24 3f 5b e8 a4 bc 22 5e ae 3e
       0.17714268 0.6407912 -0.020130327 0.34056193

module.bn1.bias f4 [16]
000000 79 5e 48 3e 00 11 9e ba e8 c0 2a bf 09 90 ca 3d
       0.19567288 -0.001205951 -0.667006 0.09890754
000010 3a 8e 91 3c b8 ad 0e bf 8c 59 3b bd 97 35 c7 3e
       0.017768014 -0.55733824 -0.045739695 0.38908073
000020 8f dd cb 3d 76 52 af bd 27 b8 99 be 73 c0 6f be
       0.09954368 -0.0856065 -0.3002331 -0.23413257
000030 77 fe 17 3d 3d f5 81 3e c1 6f 1e 3f 05 bb 74 3b
       0.03710791 0.25382414 0.6188927 0.0037342918

module.bn1.running_mean f4 [16]
000000 60 40 f6 3c d7 fc a5 3b 86 79 1a 3e 8e 9c 39 3d
       0.030059993 0.0050655412 0.1508542 0.045315318
000010 f1 c7 36 3e 8b 88 96 3e 22 ba c6 bb 82 f4 b5 3d
       0.17849709 0.2940105 -0.006064669 0.08884527
000020 39 f3 90 bd a9 03 41 3e 7f 4a 83 be 88 87 f3 bc
       -0.07077641 0.18849052 -0.25642774 -0.029727712
000030 5c 70 30 ba 36 f0 a7 bd 34 bd b5 bb 9c 70 c3 3c
       -0.000673061 -0.082001135 -0.0055462364 0.023857407

module.bn1.running_var f4 [16]
000000 9b ef a9 40 48 e6 f7 3f 48 90 b9 3f fe 10 15 40
       5.3104987 1.9367151 1.4497156 2.3291621
000010 33 e4 3f 3f aa 0b df 3f 96 b1 01 3f fd fa a0 3f
       0.7495758 1.7425435 0.506616 1.2576596
000020 eb 10 fd 3f 1c f8 bc 3f 05 91 bf 3f 9c d2 5f 3f
       1.9770788 1.4763217 1.4966131 0.8743074
000030 0e 13 92 3f df 90 aa 3f 73 94 c6 3e 69 71 b4 40
       1.1412065 1.3325461 0.38785133 5.638844

module.residual_layers.0.0.conv1.weight f4 [16, 16, 7, 7]
000000 63 61 8f 3c 2f db 04 bd 62 58 c5 bd 41 f7 97 ba
       0.017502492 -0.032435592 -0.09635998 -0.0011594073
000010 fd 1a 35 bc 96 4b c7 3d 00 9c 80 3d 58 6f d8 3c
       -0.011053798 0.09731214 0.06279755 0.02642028
000020 71 ca 04 3d 2a 9f fb bc c6 a6 aa 3c fb f9 4b bd
       0.032419626 -0.030715544 0.020831477 -0.049798947
000030 40 cb 98 3d d3 c2 00 3d ea 70 19 bd fd f1 5c 3c
       0.07460642 0.0314358 -0.0374612 0.013485429
000040 0f 87 17 bd 7a dc df bc a9 b3 c0 bd bb 1a 0e 3d
       -0.036994036 -0.027326811 -0.094092675 0.03469346
000050 4b 14 83 3b c9 57 17 3b 41 25 39 3d 8f b6 4f 3b
       0.004000222 0.0023093096 0.045201544 0.0031694507
000060 08 3f b1 3c c4 3f 6e bc 75 ac 81 3d 86 20 9b 3d
       0.021636501 -0.01454157 0.06331722 0.07574563
000070 e0 ee de bc 5c 41 69 3c 8f 4f 1c bd 7c 1d ee bc
       -0.027213514 0.014236774 -0.03816181 -0.029066794
000080 98 c8 10 bd 01 2b 09 bc 5d e9 77 3d 6d ca a8 3c
       -0.03534755 -0.008372069 0.060525287 0.020604337
000090 6d e2 19 3d 24 79 0c bd 98 02 22 bc d0 7d 5b bc
       0.037569452 -0.034295216 -0.009888314 -0.013396695
0000a0 69 08 7c bc 16 5f 70 3d de 46 a3 3d 49 cb ff 3c
       -0.0153828645 0.05868443 0.07972501 0.031224864
0000b0 0f e0 38 bc 1a bf 10 3b f0 52 23 bd 82 ae 8a bc
       -0.0112838885 0.0022086562 -0.039874017 -0.016928915
0000c0 86 7c ca bc c9 58 ae 3d 02 65 c8 bb 73 91 0b bd
       -0.02471758 0.08513028 -0.0061155567 -0.034074258
0000d0 03 4e b8 bb fb af e2 bb e3 27 09 bd 0d 88 e2 bd
       -0.005624534 -0.006917951 -0.033485305 -0.11061106
0000e0 2a 15 8d 3d 20 ec e7 3c 7b f4 a6 bc dc bf 0c 3d
       0.06888802 0.028310835 -0.02038025 0.03436266
0000f0 90 b1 59 3b 45 60 2d bd 4a 40 82 bd 74 aa 32 3a
       0.0033217408 -0.042328138 -0.063599184 0.00068155606
000100 23 b7 07 3d 43 10 71 bc 61 75 b3 bd 02 32 23 be
       0.033133637 -0.01471335 -0.087626226 -0.15937045
000110 c4 f2 24 be 31 af bc bd c7 47 7e 3d c2 e4 f1 3d
       -0.16108233 -0.092131026 0.06208017 0.1181121
000120 8b cd f6 3b d3 e2 32 be 48 fd 74 be 7a 81 88 be
       0.007531827 -0.17469339 -0.23924744 -0.26661283
000130 99 3f 42 be 61 1e 87 3c df d9 8b 3c b7 70 a6 bd
       -0.18969573 0.016493978 0.017071662 -0.081269674
000140 fd e1 34 be 51 85 87 be 24 69 98 be 44 a9 3f be
       -0.17664333 -0.264689 -0.29767716 -0.18716913
000150 de 33 82 3c dd e4 26 3d d5 28 0c 3b 54 ed 80 bd
       0.015893873 0.040745605 0.0021386642 -0.06295267
000160 2c fa f0 bd 6e d6 d0 bd fc 5b b8 bd a5 e1 7c bc
       -0.117664665 -0.10197149 -0.090019196 -0.015434657
000170 62 81 18 3c b3 f8 cc 3c 5e 74 c1 3c fc 7d 04 3b
       0.009308191 0.025020933 0.023615059 0.0020216694
000180 43 f4 6b bc 61 37 9e bd f6 d2 93 bb 55 eb 7c bc
       -0.014401498 -0.077254064 -0.0045112325 -0.015436967
000190 59 6f d0 3a f5 27 d8 3c 44 da f8 3c 55 ea 37 bc
       0.0015902325 0.02638624 0.030377515 -0.011225303
0001a0 81 b9 a4 bd e6 58 4f bd 0e 5c 58 bd dd 7f df bd
       -0.080431946 -0.05062189 -0.052822165 -0.1091306
0001b0 31 fc 80 bd e5 d7 00 bb b7 52 52 bd 6a b2 b5 bd
       -0.06298102 -0.0019659933 -0.051348414 -0.088719204
0001c0 49 ae 11 bb f8 8d 81 bd ca d2 a1 bc f3 72 bf 3c
       -0.0022229126 -0.063259065 -0.019753832 0.023370242
0001d0 7c d7 ab 3c 3e 69 a7 3c 26 46 9a ba 04 7e dd bb
       0.020976774 0.020435926 -0.0011770173 -0.006759407
0001e0 7b 41 d5 bd 6b 07 6e bd 23 87 5a 3c 27 6c 44 3c
       -0.1041288 -0.058112543 0.013337883 0.011988676
0001f0 e1 c6 a9 3c 1e 42 8b ba 14 bc 92 bc 90 cd 90 bd
       0.020724716 -0.0010624563 -0.017911948 -0.07070458
000200 4d 93 79 bc d7 73 b0 bc 22 b5 42 3c 4c 6b a2 ba
       -0.015232873 -0.021539612 0.011884006 -0.0012391596
000210 32 48 00 bd ed 9c 8e 3d aa 9c e1 bc 47 ef ce ba
       -0.03131885 0.06963525 -0.027540524 -0.0015787863
000220 13 b8 ac 3b 0a 0d bd 3c 0e 1a b7 3c e6 2e 89 bc
       0.005270967 0.023077507 0.022351291 -0.016745996
000230 fb 6a 06 3e c6 24 86 3a 0b 0e 3e 3d 40 a5 0b 3d
       0.13126747 0.0010234348 0.04640011 0.03409314
000240 fd 3d 35 3d ff 74 f6 3c 02 c3 b5 3a fc f2 19 bd
       0.04424857 0.030085085 0.0013867321 -0.037585244
000250 f8 11 69 3c b5 18 3f bd 0f a9 48 bd b0 16 34 bd
       0.0142254755 -0.04665442 -0.04898935 -0.04396695
000260 d0 5c aa 3c f5 3d 6c 3c 7d 23 2c bb 24 02 82 3c
       0.02079621 0.014419069 -0.002626627 0.015870161
000270 cb cf 72 bd 3e 4b 0b bd f6 8d ad bc 4b a6 e6 3c
       -0.059280198 -0.034007303 -0.021185856 0.028155467
000280 3a 22 a2 3c 46 f5 06 3d bf bb 1c 3d 1d 3e 29 bd
       0.019791711 0.032948755 0.038264986 -0.041319
000290 97 5c 99 b9 60 c2 e6 bb c6 06 02 3d ff 51 15 3c
       -0.0002925142 -0.0070422143 0.03174474 0.009113788
0002a0 ca b2 d7 3c b4 88 3c 3d e4 a3 79 bc 36 32 4f 3c
       0.02633037 0.046028808 -0.0152368285 0.012646249
0002b0 02 7e bc b9 8f de 32 3d 18 1e c7 3b 89 07 90 bc
       -0.00035952037 0.04366928 0.0060765855 -0.017581718
0002c0 c7 33 70 3c d3 7c ff bc 6b 68 5b bc f4 bc 8d bc
       0.014660782 -0.03118745 -0.013391594 -0.017302014
0002d0 15 53 a6 3c 57 af 2f bd 14 3d 50 bc 82 e0 7b 3c
       0.020303288 -0.042891826 -0.012709875 0.015373351
0002e0 93 fc be bc d7 e1 c3 3c f1 5a 07 3d 2a 2b 69 3d
       -0.023313796 0.0239114 0.033045713 0.05692593
0002f0 1c 57 fa bc cd 74 46 bc fa 84 74 3c c5 31 3f bc
       -0.030559115 -0.012112808 0.014924282 -0.011669581
000300 bc b3 80 3d ff 28 a5 3d 25 b9 a9 3d 45 56 ef bc
       0.062842816 0.0806446 0.08287267 -0.029215941
000310 33 2a 05 bd 57 61 a9 bc bf 2b 84 bd 8c 2d 84 bd
       -0.032510947 -0.020676298 -0.064536564 -0.06454
000320 7b 25 29 bc e6 65 14 3d 52 12 00 bc 45 9b 2f bc
       -0.010323877 0.03622999 -0.007816868 -0.0107181715
000330 77 11 c4 bb 91 64 27 bd 33 b5 94 bd c4 ec 54 bb
       -0.0059835273 -0.040867392 -0.072611235 -0.0032489756
000340 0f 5d 63 3d 28 cc 4c 3d 30 ad 30 3d be 37 47 3d
       0.05550867 0.049999386 0.043133914 0.048637144
000350 ec 52 00 bc 29 ac 62 bd ea 84 ca 3c 67 b6 b0 3d
       -0.00783227 -0.055339966 0.024721581 0.086285405
000360 30 06 9d 3d 96 43 d6 3d 10 35 b4 3d 6d 61 bb ba
       0.07667196 0.1046211 0.08799183 -0.0014296003
000370 cc 28 12 bd fb b2 0b 3d b5 4f d8 3d 8a 63 91 3d
       -0.03568344 0.034106236 0.10562078 0.07099064
000380 a2 ed 35 3d 40 df 98 3c eb ea 8e bd 09 dc c1 bd
       0.044416077 0.018661141 -0.06978401 -0.094657965
000390 f1 e3 b7 bc dc 38 21 3d 69 ee 6e 3c 13 d4 91 3c
       -0.022447558 0.039360866 0.014583209 0.01780132
0003a0 be 92 51 3c 11 6b 5e bd 07 8c c1 bd df 70 53 bd
       0.012791334 -0.054301325 -0.09450536 -0.051621314
0003b0 09 3d 05 3d 82 5b f8 3c 34 78 cc 3c c3 ac 43 3d
       0.03252891 0.030317072 0.024959661 0.04777218
0003c0 90 7d b3 bc a6 f1 85 bd 29 cd b9 bc 14 98 5a 3d
       -0.021910459 -0.065402314 -0.022680836 0.05336769
0003d0 16 fa b7 3d 3c 26 72 3d 0d f6 3d 3d 3a b9 67 3d
       0.08983247 0.059118494 0.04637723 0.05657313
0003e0 57 1a 92 3c 58 28 37 3c 5e f3 58 3d 0c eb fb 3c
       0.017834825 0.011179052 0.052966468 0.030751728
0003f0 e0 62 1f 3d 66 83 6b 3d c3 b7 a7 3c b2 78 9d bc
       0.038912654 0.05749836 0.020473367 -0.019222591

module.residual_layers.0.0.bn1.weight f4 [16]
000000 c0 ab 35 3f 83 b7 38 3f f8 f1 0b 3f a0 8a 16 3f
       0.70965195 0.72155017 0.5466609 0.58805275
000010 7f aa 35 3f 4c 01 0c 3f 32 d7 3f 3f 6b 03 2a 3f
       0.7096328 0.5468948 0.74937737 0.66411465
000020 7c 75 1b 3f be 7f 3d 3f d8 83 36 3f 8f 2b 5e 3f
       0.6072614 0.74023044 0.7129493 0.86785215
000030 04 5b 09 3f 16 32 16 3f 28 a1 2a 3f 74 00 31 3f
       0.53654504 0.58670175 0.66652155 0.69141316

module.residual_layers.0.0.bn1.bias f4 [16]
000000 75 e9 9b bd 91 7f a9 be c8 d7 54 be 55 1d 82 be
       -0.07612888 -0.33105138 -0.20785439 -0.25413004
000010 2b e3 d8 bd b0 07 b9 bd e1 fa 95 be 8a 32 08 be
       -0.10590204 -0.090346694 -0.29292968 -0.13300529
000020 87 54 88 be d7 cb a5 be e1 4b 9a be 88 7b 2c be
       -0.2662699 -0.3238208 -0.30136016 -0.16843998
000030 43 87 81 bd 85 4c a2 be d1 18 b0 be f1 85 98 be
       -0.06324627 -0.31699005 -0.34393933 -0.2978969

module.residual_layers.0.0.bn1.running_mean f4 [16]
000000 24 c0 c5 bf cf d1 60 bf 4d 60 31 be ff 5d 30 bf
       -1.5449262 -0.8782014 -0.17321892 -0.68893427
000010 8d 0f c2 3d e4 2c 92 bf 43 ed 05 bf ef 9e 12 bf
       0.09475622 -1.141995 -0.5231516 -0.57273763
000020 d9 71 92 3e 8e a6 ae be 54 ad 12 bf 1a 23 a0 bd
       0.28602484 -0.34111446 -0.5729573 -0.07819195
000030 40 7e dd be 5d a2 f5 3d 38 32 8c be fc ef 76 bf
       -0.43260384 0.11993859 -0.27382064 -0.9645994

module.residual_layers.0.0.bn1.running_var f4 [16]
000000 88 d4 3c 3f be 94 ef 3e 35 32 20 3f be 9b 0f 3f
       0.73761797 0.4679317 0.6257661 0.5609702
000010 a9 4b cd 3f 49 6b e1 3e f7 f4 4f 3f 26 09 05 3f
       1.6038715 0.44027165 0.8123316 0.51967084
000020 fc fb a9 3e 3a 4d 47 3f 70 52 11 3f c2 9d 06 40
       0.3320006 0.77852213 0.56766415 2.1033788
000030 a1 4c bf 3e f2 59 db 3e 61 36 06 3f b4 cf 5c 3f
       0.3736315 0.4284206 0.52426726 0.8625443

module.residual_layers.0.0.conv2.weight f4 [16, 16, 7, 7]
000000 d6 99 26 bd fa 93 5d 3b db 24 b9 bc 47 e0 f7 bb
       -0.040674053 0.0033810125 -0.022600582 -0.0075645777
000010 05 97 3d bc a3 14 22 bc 62 a1 9b bd c7 8b 9f bd
       -0.01157165 -0.0098926155 -0.07599141 -0.07790332
000020 84 be 26 3d 94 52 3d bd c2 58 e7 bc 37 95 75 bd
       0.040709034 -0.04622133 -0.028240565 -0.059956755
000030 aa e9 5f 3d a9 39 10 3d 58 08 3e bd 4b 45 15 bc
       0.0546662 0.03521124 -0.046394676 -0.009110759
000040 12 b7 97 bc da 87 81 3a 87 0f b4 bd 0e 0e bd bc
       -0.018519912 0.0009882406 -0.08792024 -0.02307799
000050 fe fe 49 3e 39 03 4a 3d f4 b1 3e 3d 10 60 92 bc
       0.19726178 0.04931948 0.046556428 -0.017868072
000060 2e e8 fd ba 4d cb 6b bc 20 79 3c bc 6f be d7 3d
       -0.0019371563 -0.014391732 -0.011503488 0.10534369
000070 1b a6 8c 3c 63 9d a7 3d a7 5c 8f bd 62 98 bb 3c
       0.017169049 0.08184316 -0.07000094 0.02289981
000080 05 f0 6d bb 60 09 8e bd 0e 6f 1c 3d 6b 97 8d ba
       -0.0036306393 -0.06935382 0.038191848 -0.0010802572
000090 f5 df 65 3c 57 82 5a bd f6 b9 ba 3c 51 3a 68 bd
       0.014030446 -0.053346958 0.022793751 -0.05669624
0000a0 b3 ca be bc 2f b8 03 3d d8 f3 27 be 89 d3 2e bd
       -0.023290014 0.032158073 -0.16401613 -0.042682204
0000b0 a7 51 bb 3b 53 91 07 3d 7a 05 17 bd 22 19 b8 bd
       0.005716521 0.033097576 -0.036870457 -0.08989169
0000c0 61 45 4e 3d 81 d6 73 3d 77 f5 58 3d 47 c8 37 bd
       0.050359134 0.05953074 0.05296847 -0.044868734
0000d0 f5 ff 22 3d 42 ee 83 3d de 4d af bd 90 4d 67 3d
       0.03979488 0.064419284 -0.08559774 0.056470454
0000e0 7b 9a 17 bd 2d 45 94 3d 4c 94 0a 3e 5c 14 65 bd
       -0.03701256 0.07239757 0.13533133 -0.05592762
0000f0 9a d1 b7 bd ed d3 cb ba 62 fd 10 bd 6d 3c 12 3d
       -0.08975525 -0.001555083 -0.035397895 0.035702158
000100 e7 b6 0a 3d 1b 21 bd bd 30 a8 19 3d 3f e5 ba bd
       0.033865836 -0.0923483 0.03751391 -0.091257565
000110 95 6e a3 bd fb 42 02 bd 95 4d ba bd 48 8f 3b bd
       -0.07980076 -0.03180216 -0.09096829 -0.04579094
000120 9f f4 c0 3d f4 5d ea bd 4b 8c 29 3c 2b 99 34 3b
       0.09421658 -0.114437014 0.01034839 0.0027557116
000130 76 37 28 bd cd b2 60 3d 41 c9 a5 3b 59 c5 a4 bd
       -0.041068517 0.054858018 0.0050593917 -0.080454536
000140 77 d5 ba 3d a7 05 4b bc 29 75 dc b9 e6 3f 03 3e
       0.091227464 -0.012391484 -0.0004204896 0.12817344
000150 a0 80 fb bc 8a c7 91 3d 85 a5 5f 3d a2 f4 9f bd
       -0.030700982 0.07118137 0.05460121 -0.07810332
000160 11 97 a8 3d 91 5f 9e bd 03 2a 13 3d 3b f3 11 3e
       0.08231939 -0.077330716 0.035928737 0.14252941
000170 e2 00 03 3d 71 dc 36 be 9c bd 36 3d b3 d0 c0 bc
       0.031983264 -0.17857529 0.04461442 -0.023537016
000180 5a 51 21 3d de 95 f8 3d 11 5c 8d bd 58 60 7c 3b
       0.039384224 0.1213796 -0.06902326 0.0038509574
000190 38 32 87 3d 77 7e 8f 3d 09 11 52 bd 7c 8e ca 3c
       0.06601375 0.07006543 -0.051285777 0.024726145
0001a0 73 34 e5 3d 35 35 ac bd 6d de ea bc bc 79 97 bc
       0.111916445 -0.08408586 -0.028670514 -0.018490665
0001b0 c0 68 99 3b 5e 2b a9 3c 62 e2 f7 3b 75 f2 9c bc
       0.0046816766 0.020650562 0.0075648287 -0.019158581
0001c0 c2 82 9e bd 4a 76 1f bd aa f7 97 3b 0f 94 ce bb
       -0.07739784 -0.03893117 0.004637678 -0.006304271
0001d0 29 45 7e bc c6 1e 87 3d 24 b3 37 bd b8 68 a6 3c
       -0.015519419 0.065976664 -0.044848576 0.020313606
0001e0 73 00 65 bb 39 16 15 bd c8 b5 8b bc 0e f4 c4 3c
       -0.0034942895 -0.036398146 -0.017054453 0.024042156
0001f0 a1 0f 32 bb 0d d9 73 bd e3 57 67 3d 99 28 3f bc
       -0.002716996 -0.059533168 0.0564803 -0.011667394
000200 59 37 ef bc 3a 52 8d bd 2f 60 80 bd 64 26 16 bd
       -0.029201197 -0.06900449 -0.062683456 -0.036657706
000210 fb 2a 08 bd 1a 62 26 3d 7f 08 26 3d 6b 8e 23 3d
       -0.033244114 0.0406209 0.040535446 0.039930742
000220 57 17 67 bd a9 9b 5a bd 01 a6 60 bc 69 55 91 3d
       -0.056418743 -0.053371105 -0.013711453 0.07096369
000230 36 1b d2 3b 27 2e ab 3c 66 99 3d bd d6 2a 2c 3c
       0.006411935 0.02089603 -0.04628887 0.01050826
000240 f1 39 a9 bc cb d4 55 bd 53 b9 8e bb a9 26 00 3e
       -0.020657511 -0.05220489 -0.0043555885 0.12514748
000250 10 b0 a3 3c e8 ed 40 bd e0 c9 61 3d 8c d6 8e 3d
       0.019981414 -0.047101885 0.055124164 0.06974515
000260 c4 78 44 3d 3c 16 08 bc d6 e9 aa 3d dd 8e 2b bd
       0.047966734 -0.008306082 0.08345382 -0.041884292
000270 ff 3e d9 bd 32 17 62 bb 1a e9 0b bb 08 6f 2a 3d
       -0.10607719 -0.0034498689 -0.0021348656 0.041609794
000280 8a b5 58 3d a3 6f 74 3d 47 db b5 bc 25 48 a1 3b
       0.052907504 0.059676778 -0.022199286 0.0049219304
000290 45 b7 15 bd c2 be a1 bd 6d 95 07 3c 7f d1 04 3e
       -0.036551733 -0.07897712 0.008275372 0.12970541
0002a0 5c 19 c5 3c 94 18 8f 3d 73 35 9a 3d 5d ab e3 bc
       0.024059944 0.0698711 0.07529726 -0.027791673
0002b0 b2 2e bf bd bb 66 d1 bc 69 8d f7 3d bf 41 6f 3d
       -0.09335078 -0.025561681 0.12087519 0.05841231
0002c0 3f b6 a2 3d 3a 67 41 3d d4 1c 81 3a 14 73 ea bd
       0.07944917 0.047217585 0.000985051 -0.11447731
0002d0 70 34 c9 bc 26 81 9a 3d 60 89 93 3d 92 ea ca 39
       -0.024561137 0.07544164 0.072039366 0.0003870321
0002e0 11 80 9a 3b bb 11 1d bc 88 31 c4 bd 0a b3 90 3c
       0.0047149737 -0.009586747 -0.0957976 0.017663497
0002f0 c2 87 9d 3d 53 71 0b 3c 5b 3a af bd 3f 56 df bd
       0.076919094 0.008510905 -0.08556052 -0.10905122
000300 a0 28 8b bd 94 24 b7 bd b8 70 d1 3c df 22 b0 3d
       -0.06794858 -0.089425236 0.025566444 0.08600401
000310 cb a6 91 3d 6e 2e 33 3d 4d 8f 9b bc 49 82 05 3c
       0.07111891 0.04374545 -0.01898923 0.008148738
000320 17 98 c3 3b 54 c8 53 bc bd 91 be 3b e4 b5 9c 3c
       0.0059690583 -0.01292618 0.005815713 0.019129701
000330 a9 89 d8 3c 15 56 9a bc 93 21 96 bd 4e f6 c1 3c
       0.026432829 -0.018839875 -0.073306225 0.023677018
000340 ad 6a a8 3d e0 10 1f 3d 35 59 81 bd 0d 9d 98 bd
       0.08223472 0.038834453 -0.06315843 -0.0745183
000350 99 7f 53 bd 16 78 44 3c e0 27 53 bb dc af f9 3b
       -0.05163536 0.011991521 -0.0032219812 0.007619841
000360 12 fa 18 bd 51 69 f5 bd 4b c4 13 be 35 01 db bd
       -0.03734786 -0.11982978 -0.14430349 -0.106935896
000370 64 5b b4 bd 1f cd 34 bd a5 47 2a 3d 64 25 40 be
       -0.08806494 -0.04414093 0.04157223 -0.18764263
000380 ce a8 87 bd 57 b8 13 bd 54 37 a5 3c 26 6e 43 3d
       -0.06623994 -0.036064472 0.020167984 0.047712468
000390 13 63 78 bc 62 59 10 be 45 db 61 be b7 1f 63 3a
       -0.01516034 -0.14096597 -0.22056301 0.00086640887
0003a0 94 12 0c 3c 0d 90 84 3d 26 77 b4 3d a4 c0 8f 3d
       0.008549351 0.06472788 0.08811788 0.07019165
0003b0 44 56 2d 3d cd db 0d be e8 c5 e5 ba 59 3a e6 3d
       0.042318597 -0.13853379 -0.0017530294 0.11241598
0003c0 81 7a aa 3d fc 2e ab 3d 11 67 48 bb c9 9a 89 bd
       0.08324147 0.08358571 -0.003057901 -0.06718976
0003d0 a7 78 36 3d 2c 94 a7 3d d8 20 b8 bc d3 77 b7 bd
       0.044548657 0.081825584 -0.022476599 -0.089584015
0003e0 65 07 10 3d d3 2c 0c bc 35 f7 b0 3d 50 2c 44 3d
       0.035163302 -0.008555609 0.08640901 0.047893822
0003f0 d8 b2 92 bd 49 f3 78 bc 0b f5 36 3c 1e fe eb bb
       -0.07163018 -0.015194722 0.011166821 -0.007201924

module.residual_layers.0.0.bn2.weight f4 [16]
000000 de 54 84 3f 2a 5f 69 3f 0c 95 7e 3f 09 4b c6 3e
       1.03384 0.91160834 0.9944618 0.38729122
000010 a2 50 7e 3f 31 3a 5f 3f e6 31 4c 3f 9d b5 63 3f
       0.99341786 0.8719817 0.7976364 0.88948995
000020 e2 9c 90 3f bf 84 68 3f e5 1b 2a 3f 8b 4f 86 3f
       1.1297877 0.90827554 0.66448814 1.0493025
000030 72 30 68 3f a2 36 3f 3f 45 38 3f 3f 12 5a 45 3f
       0.9069892 0.7469274 0.74695235 0.7709056

module.residual_layers.0.0.bn2.bias f4 [16]
000000 6d ee e0 be d2 2d b6 be a1 31 b4 be 4a b3 62 3e
       -0.43931904 -0.35581833 -0.35194114 0.22138706
000010 7e fb e6 be d5 f5 10 be 03 06 47 3e 1e 7f 3f bf
       -0.45113748 -0.14156277 0.19435887 -0.7480334
000020 4e be ae be ea 0e 50 be a9 34 b2 3c 38 6b cc be
       -0.34129566 -0.2031819 0.021753626 -0.3992555
000030 6d 76 63 3b e2 0a 50 bf 74 e1 c9 be 64 d7 b2 3d
       0.0034708038 -0.81266606 -0.3942982 0.08732489

module.residual_layers.0.0.bn2.running_mean f4 [16]
000000 fd 4c 36 bf 81 80 4d bf 6e ad 52 bf 14 7e 51 be
       -0.71211225 -0.80274206 -0.8229588 -0.20458251
000010 07 e4 9b be ce e6 1a 3c 3b e6 33 3f f0 0b 19 bd
       -0.3044741 0.009454442 0.7027318 -0.0373649
000020 c8 7c 68 bf e0 28 1e bf 75 a0 84 be 43 b9 00 bf
       -0.908154 -0.6178112 -0.2590367 -0.50282687
000030 21 12 a9 be ea 53 16 bf 26 57 19 bf 89 3b 97 be
       -0.33021644 -0.5872179 -0.598986 -0.2953761

module.residual_layers.0.0.bn2.running_var f4 [16]
000000 a2 00 51 3f 97 ce 05 3f 81 a3 37 3f a4 1f 1b 3f
       0.8164159 0.52268356 0.7173386 0.60595155
000010 d7 0d 31 3f 04 8e 38 3f a1 b4 3d 3f 6d f0 1e 3f
       0.6916174 0.720917 0.7410374 0.6208561
000020 01 cc c2 3f ae 04 37 3f 52 be 1f 3f 9e ce 80 3f
       1.5218507 0.71491516 0.6239978 1.0063055
000030 6e 7c 67 3f b9 c2 0a 3f 29 60 52 3f 18 46 3d 3f
       0.9042424 0.54203373 0.8217798 0.7393508

module.residual_layers.1.0.conv1.weight f4 [32, 16, 7, 7]
000000 44 2d 90 bd 0f 7f 53 bd 28 07 31 3d e8 32 8f bb
       -0.07039884 -0.051634844 0.043219715 -0.004370082
000010 f5 43 99 3c 1f f4 ee 3c e7 12 9c bb 4c f1 73 bc
       0.018709162 0.02916914 -0.0047629955 -0.014889073
000020 3c 94 0b bd da d0 00 3d ac 3e c5 3c 19 e3 0a 3d
       -0.034076914 0.031449176 0.024077736 0.033907983
000030 9f f2 22 3d 84 25 5d bd 39 82 b0 bc 1d 37 ac bb
       0.039782163 -0.053990856 -0.02154647 -0.0052555935
000040 02 35 e7 3c 64 eb ad 3b 53 d1 53 3d c0 4c 1b 3d
       0.028223518 0.0053076018 0.0517133 0.03791499
000050 fd 95 9a bd 4c 2d b8 3b 7e 90 bc bc b6 26 0a bd
       -0.07548139 0.005620634 -0.023018118 -0.033728324
000060 d7 2f 84 3c cd de 2b 3d 62 37 e2 3b 7e bb 7b bd
       0.016136093 0.041960526 0.006903575 -0.061458103
000070 e4 6e 93 bc e2 58 7d bc 6b f2 62 bd a8 1c 4c bd
       -0.017997213 -0.015463086 -0.05540697 -0.049832016
000080 98 33 7d 3c 2e 09 29 ba ca b7 3a bd 54 2b f8 bc
       0.015454195 -0.0006448206 -0.04558543 -0.030294098
000090 fb 70 66 bd 61 f6 8d bd f0 d7 91 bd a4 e3 0b bc
       -0.05626009 -0.06931759 -0.07121265 -0.0085381605
0000a0 46 12 01 bd 4c 37 87 bd 55 a3 61 bd 90 38 88 bd
       -0.031511568 -0.06602344 -0.055087406 -0.066514134
0000b0 2b e3 81 bd 18 59 92 bd cf da bf 3c 79 3f 85 bd
       -0.06342157 -0.071458995 0.023419766 -0.06506247
0000c0 8c 03 a4 bd 06 3d fd 3c f0 21 ba bc b7 4a d7 3c
       -0.08008489 0.030912887 -0.02272126 0.026280744
0000d0 e4 46 e1 3c bf ec 8d bc 78 6b 18 bd e3 4c b0 3b
       0.027499624 -0.017324803 -0.037211865 0.0053802594
0000e0 d0 48 4b bc db f6 2a bd 64 1b 2e bc 83 08 b8 3c
       -0.012407497 -0.041739326 -0.010626648 0.022464996
0000f0 0d da 09 3c 94 48 dd bb cf 68 bf 3c 33 9a 20 3d
       0.008413804 -0.0067530368 0.023365406 0.039209556
000100 f1 31 0a 3d d5 4d 42 3d 13 ce 25 3c c6 71 40 3d
       0.033739034 0.047437508 0.010119933 0.046983503
000110 b2 ae c3 3c aa 9f 66 3d b9 85 dc 3b d1 94 1f 3d
       0.023887012 0.05630461 0.006729808 0.03896028
000120 51 01 4e 3d ae af 90 3c f7 75 5c 3c 0d ae af 3c
       0.050294224 0.017661896 0.013455859 0.021445299
000130 6e ae 99 3c 05 90 55 bb 72 40 f1 3c 8e eb ac 3c
       0.018759932 -0.0032587063 0.029449675 0.021108415
000140 70 f1 c5 bc f9 5e f6 bb 5e 97 d3 3b 2c 9a d9 bc
       -0.024162978 -0.007518646 0.0064572534 -0.026562773
000150 68 12 06 bc 16 50 3b 3b 46 16 7f 3b 7a 81 08 bd
       -0.008183099 0.002858167 0.0038923188 -0.033326603
000160 75 67 88 bc cf 91 96 3b 3b 4b 7c 3c 8b 8b 8b bd
       -0.016650895 0.0045950185 0.015398796 -0.06813725
000170 ba 5a df bc 75 57 52 3a b0 9e 1b bd 41 5c ea bc
       -0.027264941 0.00080238964 -0.037993133 -0.028608443
000180 b8 e6 bf 39 4a b6 23 3d 92 50 bd bd 41 f3 ab bd
       0.00036602258 0.039968766 -0.09243883 -0.083960064
000190 37 48 08 be e3 0b 8a bd d1 d1 15 be 37 05 13 bd
       -0.13308798 -0.067405485 -0.1463082 -0.035893645
0001a0 69 54 9c bd a6 32 d5 3c 19 88 c7 bb 90 a0 84 bd
       -0.076332875 0.026025128 -0.006089222 -0.06475937
0001b0 e8 0e 0c bd 14 09 a0 bd 69 84 1d bd 76 78 f3 bc
       -0.034193903 -0.078142315 -0.038456354 -0.029720526
0001c0 3e 9a 8a 3d d8 8e 35 3b ad 95 85 bc 8b be 30 bc
       0.067677006 0.002770355 -0.016306723 -0.0107876165
0001d0 bd 37 09 bd e8 0c d5 bc c5 f0 8b 3c f7 0d 29 3d
       -0.03350042 -0.02600713 0.017082581 0.041273084
0001e0 52 f7 cb bc b7 c4 af bc 43 10 5c bd f9 5d 34 bd
       -0.024898205 -0.021456106 -0.053726446 -0.04403493
0001f0 55 a5 c8 bd c7 de 2e bc eb b4 35 3d b3 35 ca bb
       -0.097971596 -0.010673231 0.04436199 -0.006170952
000200 b0 42 6e 3c 7d 7d 13 bd 1c 36 69 3c b1 e8 a4 bd
       0.014542267 -0.036008347 0.014234092 -0.08052195
000210 9c 58 ba 3b 6a 9a 43 3c 7a 91 06 bd 4d f7 9b 3c
       0.0056868326 0.011938671 -0.03285358 0.01903882
000220 f4 91 2c bd 95 6b 27 3d 2e 23 21 be 94 49 30 bd
       -0.04213138 0.040874083 -0.15736076 -0.04303892
000230 e8 2c bb 3d 60 15 c3 3d 57 c2 30 3e 31 f6 a3 3d
       0.091394246 0.09525561 0.17261635 0.08005942
000240 30 02 10 3e dd 04 5d bd dc 25 6b 3d f5 5a e3 3d
       0.14063334 -0.053959716 0.057409152 0.11101333
000250 45 6d 03 3d ec ee 8c 3d a8 da c4 bb df 89 ae 3c
       0.03208663 0.06881508 -0.006007511 0.021305976
000260 f8 6e 88 bd 44 fe c5 bd 82 5b 53 3d 49 b5 a8 bc
       -0.066617906 -0.09667638 0.05160094 -0.020594256
000270 ef 24 8b 3a d3 cb 8c bd e9 28 c7 bc 49 45 b5 bd
       0.0010615865 -0.06874814 -0.0243115 -0.08851106
000280 ad 31 bf bd 80 ed 7e 3c b4 15 f7 bc d8 62 0b bc
       -0.09335647 0.015559554 -0.030161716 -0.008507453
000290 2b 4a 92 bd 7a 82 53 bc c6 d3 91 bd 9f 6d 6a bd
       -0.07143053 -0.012909526 -0.07120471 -0.05723345
0002a0 ff ab 63 3c 3a c4 f5 bc 80 4e 3c 3c 78 2b 4d bd
       0.0138959875 -0.030000795 0.011493325 -0.050090283
0002b0 7f 7d 1c 3c db a7 21 bd a7 9c 71 3b d8 eb 3f 3b
       0.009551405 -0.03946672 0.0036867054 0.002928486
0002c0 e2 49 e2 bc 97 aa d1 3c c9 ec 01 bd ff 60 a0 3c
       -0.02762312 0.025594039 -0.031719957 0.019577501
0002d0 ea 03 79 bd a0 5a af 3b 15 5c 58 3c ce df 05 bd
       -0.06079475 0.0053513795 0.013205548 -0.03268414
0002e0 ec 68 01 3d 3f 4e 86 bc 1f 5a 78 3d 2c a0 ad bc
       0.031594202 -0.016394733 0.06063282 -0.02119454
0002f0 29 f7 4f 3d 90 7e 49 bb 89 35 91 bd 54 be 5d 3b
       0.05077282 -0.0030745603 -0.07090289 0.0033835368
000300 c9 dd 46 bd 92 07 6c 3d fe 99 85 bc 20 16 88 3d
       -0.048551355 0.057624407 -0.01630878 0.06644845
000310 81 ad c9 3d 10 52 c1 bc d3 47 1a bc 6f d7 44 bd
       0.09847546 -0.0235987 -0.009416538 -0.048057016
000320 dd 76 2e bc 54 d4 f3 bc a8 39 0b be ec 57 93 3d
       -0.010648456 -0.029764332 -0.13596213 0.07194504
000330 06 cc 9a 3b 5d ee 11 bd cf 81 8a bd ba d7 08 bd
       0.0047240285 -0.03562771 -0.0676304 -0.033408858
000340 b0 f6 18 bd b5 48 89 bd 10 c0 ed 3d 64 3c 1b 3d
       -0.037344635 -0.06703321 0.11608899 0.03789939
000350 ac a2 d7 bb 80 27 c9 bc 81 2e 9b bc 70 c1 d4 3c
       -0.0065806713 -0.024554968 -0.018943073 0.025971144
000360 73 99 45 3c a0 90 90 3d a3 a4 0e bd ff 90 23 bd
       0.012060511 0.07058835 -0.03482498 -0.0399332
000370 7f 27 86 bc 6b 3c d3 bc bf 89 19 3c d6 50 1e 3d
       -0.016376255 -0.025785645 0.00937122 0.03865131
000380 f7 3d cb 3c fc 43 4f bd 69 24 2b bd 2d c7 88 bc
       0.02480982 -0.050601944 -0.04178277 -0.016696537
000390 44 2e 03 3d 68 45 24 3c 16 b9 9b 3c ce eb 06 3d
       0.032026544 0.010026313 0.019009154 0.032939725
0003a0 ad 1c 17 bd 50 ba f2 bc a1 86 1c 3c ec 5b 3d 3d
       -0.03689258 -0.029629856 0.009553582 0.04623024
0003b0 96 d6 31 3d 3f 15 1f 3d 06 b6 a9 3b 68 39 4b bd
       0.043417536 0.03883862 0.0051791696 -0.049615294
0003c0 51 25 52 ba 16 a8 8c 3d 8e 52 bf 3d b7 71 c1 3d
       -0.0008016425 0.06867997 0.09341918 0.094455175
0003d0 a1 9e a1 3d 04 8e 63 3d 9f 1a b6 bc 86 5d 40 bc
       0.07891584 0.05555536 -0.02222949 -0.011741048
0003e0 77 f2 19 bd 74 df aa 3d cf 53 c6 3c 8d b4 85 3e
       -0.037584748 0.083434016 0.024209885 0.26114312
0003f0 3b 8a 0c 3e 1a f2 8c 3d 1f 9d 95 39 1b bd 8a bb
       0.13724606 0.06882115 0.0002853656 -0.004233969

module.residual_layers.1.0.bn1.weight f4 [32]
000000 19 da 3e 3f d1 d8 41 3f c3 47 b0 3f ba cc 28 3f
       0.7455154 0.7572146 1.37719 0.6593739
000010 41 e5 75 3f 0e c6 2f 3f c1 58 45 3f c7 7c 9c 3f
       0.9605294 0.6866158 0.7708855 1.2225579
000020 51 eb fc 3e 5e 82 6e 3f 91 ad 78 3f 30 b1 1e 3e
       0.49398282 0.93167675 0.9713984 0.15497279
000030 f7 7d 0a 3f 37 44 7a 3f fe 8a 41 3f 59 ea 41 3f
       0.5409846 0.9776034 0.7560271 0.7574821
000040 ed de 27 3f e0 f2 b5 3f d6 f1 43 3f 08 b8 d6 3e
       0.6557453 1.4214745 0.7654089 0.4193728
000050 65 75 70 3f ee c4 46 3f 9a 23 80 3f a4 9c 67 3f
       0.9392913 0.7764424 1.0010865 0.9047339
000060 54 fd 9a 3e dc c7 04 40 ac 32 7d 3f db a4 86 3f
       0.302714 2.0746984 0.98905444 1.051906
000070 4c 71 57 3f bd b0 93 3e 7f 65 90 3f 83 0f 6f 3f
       0.8415725 0.28845778 1.1280974 0.93383044

module.residual_layers.1.0.bn1.bias f4 [32]
000000 5d 36 84 bf 09 a3 6a bf 15 3b c4 bf 74 de 81 bf
       -1.032909 -0.9165502 -1.533053 -1.0146012
000010 40 2f b2 bf 7c 7d 87 bf f7 f9 8d bf 6f 23 c4 bf
       -1.392067 -1.058517 -1.1091908 -1.5323313
000020 19 91 33 bf 12 cc 9f bf bd 91 9f bf 99 d7 dc 3c
       -0.70143276 -1.2484152 -1.2466351 0.026958274
000030 49 57 28 bf 75 1e a5 bf cb ac 8d bf f7 c1 88 bf
       -0.65758187 -1.289992 -1.1068357 -1.0684193
000040 62 18 7c bf 46 10 04 c0 e6 5e a5 bf 42 97 26 bf
       -0.98474705 -2.0634933 -1.2919586 -0.6507455
000050 91 48 8b bf 2e 3d 69 bf 3e ac c3 bf b5 d7 b2 bf
       -1.088152 -0.9110898 -1.5286939 -1.3972079
000060 f4 6b 60 be 24 fa 1a c0 99 dc b5 bf 05 f4 b5 bf
       -0.21916181 -2.4215174 -1.4207946 -1.4215094
000070 41 35 83 bf 6b af 7e be 6e e9 a9 bf 38 9e 9b bf
       -1.0250627 -0.24871604 -1.3274362 -1.215766

module.residual_layers.1.0.bn1.running_mean f4 [32]
000000 e0 3b 14 c0 99 7d 60 c0 8a 75 9d c0 85 32 2a c0
       -2.3161545 -3.5076659 -4.920598 -2.6593335
000010 2f 06 02 c0 22 ff 14 c0 6c 63 02 c0 78 c0 64 c0
       -2.0316274 -2.328072 -2.0373182 -3.5742474
000020 e8 5f d7 bf 46 8a 14 c0 85 55 40 c0 e9 ae 5e 3e
       -1.6826143 -2.3209395 -3.0052197 0.2174641
000030 1a 2a ce bf 0f 2a 18 c0 76 63 0a c0 17 3c c9 bf
       -1.6106598 -2.377567 -2.1623206 -1.5721463
000040 4e 7a 14 c0 58 ad 88 c0 ac 22 d4 bf 9d 69 7a bf
       -2.319965 -4.27116 -1.6573081 -0.97817403
000050 42 6a 45 c0 48 d2 2f c0 63 7e 1e c0 12 ef 26 c0
       -3.0846105 -2.7472095 -2.476464 -2.6083417
000060 da a6 09 c0 f6 fe 89 c0 96 50 48 c0 44 8f 52 c0
       -2.1508088 -4.312373 -3.1299186 -3.2899942
000070 61 04 37 c0 42 2b aa 3e 5e e5 30 c0 d6 d9 25 c0
       -2.8596423 0.33236128 -2.7639995 -2.5914207

module.residual_layers.1.0.bn1.running_var f4 [32]
000000 de c1 d5 3f bf b8 23 40 7f 6c db 40 3a 67 ff 3f
       1.6699789 2.558151 6.856994 1.9953377
000010 47 03 14 40 87 7d fd 3f 97 c2 fa 3f de ca 82 40
       2.3127 1.9803933 1.9590634 4.087264
000020 32 57 88 3f 1b e1 f4 3f 6b 77 5d 40 eb 58 58 3f
       1.065161 1.9131197 3.4604137 0.8451068
000030 9d cd 93 3f a9 ae eb 3f a6 b5 db 3f 52 3d 0e 40
       1.1547123 1.8412677 1.716481 2.2224927
000040 98 17 ea 3f 2b a8 97 40 12 29 c2 3f b6 d1 da 3f
       1.828845 4.7392783 1.5168784 1.7095249
000050 e8 72 4f 40 a1 8a 3a 40 05 a4 26 40 ed 7b 07 40
       3.2413883 2.9147112 2.603761 2.1169388
000060 09 37 7e 3f d3 ba 0d 41 e0 ad 27 40 6c d1 60 40
       0.99302727 8.858111 2.6199875 3.512782
000070 29 a3 47 40 8b 10 09 3f 0c ed 36 40 f0 a1 1a 40
       3.1193335 0.5354087 2.8582182 2.4161339

module.residual_layers.1.0.conv2.weight f4 [32, 32, 7, 7]
000000 b6 ac fe bc 5b 75 81 bc e7 38 1b bc 80 8f 04 bc
       -0.031088214 -0.01580303 -0.009474016 -0.008090854
000010 60 4e 47 bc dd 2b 2a bc 05 dc ba bc c2 b3 b7 bc
       -0.012164682 -0.010386434 -0.022809992 -0.022424582
000020 ac e0 25 bc 73 33 b7 bb 81 dc e8 bb 4a 62 dd bb
       -0.010124367 -0.00559085 -0.0071063642 -0.0067561017
000030 3e 5b a2 bb c9 72 2d bc de 8a b0 bc 95 73 27 bc
       -0.0049547246 -0.010586449 -0.021550592 -0.010220428
000040 46 82 f5 bb 2a 56 d4 bb 40 b3 2b bc 81 11 0c bc
       -0.0074923364 -0.006479998 -0.010479748 -0.008549095
000050 68 68 6b bc 0b b1 8c bc 03 d0 13 bc 7f 1f 94 bb
       -0.014368154 -0.017174264 -0.009021762 -0.004520356
000060 6e 00 92 bb 0e c2 23 bc 5e db fe bb 3f 83 6e bc
       -0.0044556176 -0.009994997 -0.0077776155 -0.014557659
000070 11 09 67 bc 94 17 2a bc fd 9a ee bb d5 b4 95 bb
       -0.014101283 -0.010381598 -0.0072816596 -0.004568676
000080 76 a7 dd bb 2d da 09 bc 5a 86 79 bc ed 61 5f bc
       -0.0067643477 -0.008413834 -0.015229786 -0.013634187
000090 cc b8 3b bc 8b 8f e8 bb 47 88 a5 bb b9 b6 0c bc
       -0.011457633 -0.00709719 -0.005051646 -0.008588486
0000a0 f2 6a e5 bb bc 16 88 bc 5c b6 96 bc 30 ac 86 bc
       -0.0070012743 -0.016612403 -0.018397503 -0.016439527
0000b0 6c fb 5f bc 0a 9d 58 bc f5 e8 8e bc 0d 62 6b bc
       -0.0136707835 -0.013221035 -0.017445067 -0.014366639
0000c0 df 03 b4 bc 2e a8 1b bd d3 a5 d5 bc 1f 32 c4 bc
       -0.021974502 -0.038002186 -0.026080048 -0.02394968
0000d0 a4 fe d7 bc 7e fd cf bc dc 71 cc bc a8 3d 22 bd
       -0.02636654 -0.02538943 -0.024956636 -0.03960958
0000e0 18 a3 8a bc 55 ed d1 bb 1a 74 ad bb 86 c8 c2 bb
       -0.016923472 -0.006406466 -0.0052933814 -0.0059443144
0000f0 35 4f aa bb ba 0a cd ba 9c ee 4a bc 3a 64 3a bc
       -0.0051974305 -0.0015643456 -0.0123859905 -0.011376435
000100 52 41 35 bb 78 dd 9b bb 05 91 9c bb 57 5a 96 bb
       -0.0027657342 -0.0047566257 -0.00477803 -0.004588406
000110 ce 02 16 bb 07 f1 27 bc 62 74 05 bc 61 f7 49 bb
       -0.0022889855 -0.0102503365 -0.008145424 -0.0030817615
000120 74 c0 6a bb 10 04 b3 bb 48 38 c5 b9 5b 09 bc ba
       -0.0035820277 -0.005463131 -0.000376167 -0.001434605
000130 6a 59 21 bc cf b2 e4 bb 8b 4d 38 bb f5 01 82 ba
       -0.009847978 -0.0069793235 -0.002812239 -0.0009918796
000140 a9 aa e6 ba 8b e6 4b ba 83 ef f0 b9 3b 89 08 bc
       -0.0017598468 -0.0007778189 -0.00045954817 -0.0083335
000150 dd dc bf bb 0f 40 c3 bb 0a e8 a2 bb 60 83 3f bb
       -0.0058551864 -0.005958564 -0.004971509 -0.0029222593
000160 77 c2 07 bb 6e 9a 4e bb fe 77 6f bc 4c c0 a5 bc
       -0.0020715275 -0.0031525153 -0.014616011 -0.020233296
000170 1f 56 7c bc c2 da 81 bc 5f 41 88 bc 03 cc 56 bc
       -0.015401392 -0.015851382 -0.016632734 -0.013110164
000180 e0 68 43 bc 42 4d b2 bc f6 7c 0e bc 99 43 b1 bb
       -0.01192686 -0.021765355 -0.008696785 -0.0054096696
000190 0a 65 e6 bb 4d 5a 1e bc 0f 89 4d bc 05 b5 87 bc
       -0.0070310878 -0.009665084 -0.012544884 -0.016565809
0001a0 16 63 ca bc f2 71 62 bb 0b 8d b2 ba 4d 85 51 bb
       -0.024705451 -0.003455278 -0.0013622356 -0.0031970323
0001b0 eb d9 4b bb 0a 75 3a bb fb 0b c4 bb e5 a6 8e bc
       -0.003110523 -0.0028451108 -0.0059828735 -0.017413566
0001c0 6b e8 86 b9 a9 75 ba ba 61 85 f1 b9 c2 ca 85 bb
       -0.00025731637 -0.0014225739 -0.00046066477 -0.0040830085
0001d0 43 9c b3 bb 22 38 f8 bb 4a 24 80 bc 89 c0 a3 b9
       -0.0054812743 -0.007575051 -0.015642304 -0.00031233233
0001e0 a7 3e 62 ba 88 29 55 ba b4 c3 43 bb 63 26 d8 bb
       -0.0008630552 -0.0008131494 -0.0029871287 -0.006596373
0001f0 a1 e1 ca bb 1a 23 6e bc 19 06 fe 3a 47 ef a7 3a
       -0.006191448 -0.014534736 0.0019380479 0.0012812399
000200 ac 8e 18 3a ba bc d5 38 3b 6c 5c bb 46 39 99 bb
       0.00058195996 0.000101917845 -0.0033633846 -0.004676017
000210 e9 f0 23 bc 2e 24 f0 3a 20 30 d1 39 21 c5 f8 38
       -0.010006168 0.0018321329 0.00039899442 0.0001186228
000220 99 9b d2 ba 4d ad 3d bb 3a 90 91 bb 0b 7e 36 bc
       -0.00160681 -0.0028942407 -0.004442242 -0.011138449
000230 80 1a 63 36 7f 82 3b bb b1 65 77 bb 66 0a ce bb
       3.384106e-06 -0.0028611717 -0.0037749822 -0.0062878607
000240 08 ec ba bb 05 4c f4 bb a6 dd 3d bc f6 e6 fa 3c
       -0.0057044066 -0.0074553513 -0.01158849 0.030627709
000250 3b 9e 84 3c 45 e2 5a 3c a3 7b 4e 3c f4 86 89 3c
       0.016188731 0.013359611 0.0126027195 0.016787983
000260 20 55 8b 3c d3 0c be 3c a4 89 91 3c fe ad fe 3b
       0.017008364 0.023199474 0.017765827 0.0077722063
000270 68 bb 3c 3b 4d 00 55 3b 4d 3f 0a 3c 82 3b 28 3c
       0.0028798226 0.00325014 0.008437944 0.010268094
000280 a0 41 89 3c b5 01 95 3c 54 5e bc 3b c6 ae 90 3b
       0.016754925 0.01818929 0.0057485495 0.004415366
000290 53 60 c2 3b 70 05 04 3c 9e d1 47 3c ba 3b bc 3c
       0.005931893 0.008057937 0.012195973 0.022977699
0002a0 23 d6 54 3c 69 c6 70 3b 23 0d 6d 3b b7 7a 8e 3b
       0.012990507 0.0036739355 0.003617116 0.004348125
0002b0 b1 e3 a5 3b 74 ab c4 3b f7 a1 95 3c 0e da 83 3c
       0.0050625433 0.006001884 0.018265707 0.016095188
0002c0 ac 29 b0 3b d8 0a b3 3b 5f 8c 90 3b 77 85 7e 3b
       0.0053760614 0.005463939 0.004411265 0.0038836875
0002d0 be 76 da 3b 0a ef b1 3c 5b 2c b5 3c c4 57 e1 3b
       0.006666987 0.021720428 0.022115877 0.0068769176
0002e0 b3 56 03 3c c5 04 ed 3b 75 4f 01 3c 00 31 07 3c
       0.008016276 0.0072332346 0.007892479 0.008251429
0002f0 5d 11 c5 3c b5 bf 19 3d 3b f5 a1 3c 47 ff 99 3c
       0.024056131 0.03753634 0.019770255 0.018798484
000300 86 87 a1 3c e4 e7 a1 3c 7d 85 a4 3c 97 b6 0d 3d
       0.019717943 0.019763894 0.020083183 0.03459796
000310 48 3f 6a 3c 27 20 f2 3b de 9f de 3b b5 cc a5 3a
       0.014297314 0.0073890868 0.00679396 0.0012649508
000320 c7 b4 01 3b 23 dd ff b9 fc fa dc 3b 7c 4f 41 3c
       0.001979159 -0.0004880215 0.006743787 0.011798736
000330 a8 c7 a3 3b 0e 20 62 3b a2 e6 6a 3a 00 a7 c6 3a
       0.004998166 0.003450397 0.00089607586 0.0015155971
000340 e2 60 bb 3a b1 96 b0 3b bf 1e fb 3b 5b 24 98 3a
       0.0014295841 0.0053890576 0.0076635773 0.0011607514
000350 e5 15 9b 38 09 09 b9 ba b4 a8 2f 3b 4d 3e 0c 3b
       7.395054e-05 -0.0014117073 0.0026803436 0.002139944
000360 8a 07 c7 3b 73 30 93 3b 71 59 76 3a cf 99 7f 37
       0.006073897 0.0044918596 0.0009397483 1.5234996e-05
000370 2f 40 f2 b9 c1 14 1e ba cf 7e 22 3b b0 ee a7 3b
       -0.00046205657 -0.0006030314 0.0024794822 0.0051248893
000380 69 3d 95 3b e1 34 37 3b 96 32 b3 39 6c 8d ff b8
       0.00455444 0.0027955102 0.0003417923 -0.000121856894
000390 aa b9 11 bb b5 3a 47 3b 1f 28 0a 3c c2 a7 5d 3c
       -0.0022235909 0.0030399982 0.008432417 0.013528766
0003a0 92 44 14 3c 5b 12 1f 3c 98 89 0b 3c f7 45 e2 3b
       0.009049552 0.009708966 0.008516692 0.006905313
0003b0 39 60 0a 3c d8 09 5a 3c 52 21 cf 3c 95 c6 9a 3c
       0.008445793 0.013308011 0.025284443 0.01889352
0003c0 71 b6 a2 3c e6 2b 97 3c a6 aa 86 3c ac 27 71 3c
       0.019862385 0.01845355 0.016438793 0.014718931
0003d0 f7 f3 ab 3c 0d b7 a5 3b 07 a9 6c 3b f7 0c 9f 3a
       0.020990355 0.0050572217 0.003611149 0.0012134601
0003e0 45 ef 2e ba 2f 19 bc 39 0c 5c 95 3b 12 6d c3 3b
       -0.0006673227 0.00035876918 0.004558092 0.00596393
0003f0 05 8b c5 3b 39 c8 72 3b 84 df b9 ba 70 a6 9f b9
       0.0060285353 0.0037045612 -0.0014180993 -0.0003045085

module.residual_layers.1.0.bn2.weight f4 [32]
000000 96 d2 e9 3f be c5 df 3f ce ad f3 3f 12 2d e4 3f
       1.8267391 1.7482221 1.9037416 1.7826254
000010 be a1 e1 3f 27 e4 d3 3f 57 34 ee 3f 04 2c ec 3f
       1.7627485 1.6554002 1.8609723 1.8450933
000020 9f 8a db 3f f7 56 e1 3f 2d 32 e7 3f 48 4b d5 3f
       1.7151679 1.7604665 1.8062187 1.6663599
000030 36 88 dd 3f 11 db ed 3f 93 3a f6 3f fa 0f e3 3f
       1.7307193 1.8582479 1.9236625 1.7739251
000040 d1 e7 df 3f 19 48 de 3f b0 eb f0 3f 6e 17 e8 3f
       1.749262 1.7365752 1.8821926 1.813215
000050 f6 fd da 3f 4e e8 e1 3f 02 a9 d7 3f 13 b5 d2 3f
       1.7108753 1.7649019 1.6848452 1.646151
000060 4d fb db 3f c1 3e e6 3f ff 2b e1 3f c8 aa cb 3f
       1.7186066 1.7987901 1.7591552 1.5911493
000070 41 80 e1 3f 79 23 df 3f 71 c9 da 3f fd b0 e6 3f
       1.7617265 1.74327 1.7092725 1.8022763

module.residual_layers.1.0.bn2.bias f4 [32]
000000 ca 34 d9 bd 8f bc b5 be b1 43 98 be c2 15 b6 be
       -0.10605772 -0.3549542 -0.29739144 -0.35563475
000010 a1 5e a5 be bf c6 ec be f1 ca be be 00 4a 88 be
       -0.3229876 -0.4624538 -0.37264207 -0.26618958
000020 c0 64 80 be 9d 5f e4 be 50 98 41 be 7f 0e f5 be
       -0.25076866 -0.44604197 -0.18905759 -0.47862622
000030 0e 0a a4 be 36 96 15 be fc 40 ef be ee 9d c7 be
       -0.3203892 -0.14608082 -0.46729267 -0.38987678
000040 f6 0d a5 be 3d 10 20 be 57 84 a6 be 13 69 cf bd
       -0.32237214 -0.15631194 -0.32522842 -0.10127463
000050 b4 34 73 be f6 27 6c be 87 ac de be 5a ad 92 be
       -0.23750573 -0.23062119 -0.43491003 -0.28647882
000060 7a 0b b9 be 75 02 86 be 6e af f8 be 33 a8 b1 be
       -0.36141568 -0.2617375 -0.48571342 -0.34698638
000070 dc 28 ab be c6 29 25 be 5d df cc be 2f 42 c3 bd
       -0.3342961 -0.16129217 -0.40014163 -0.09534108

module.residual_layers.1.0.bn2.running_mean f4 [32]
000000 aa fc ba bc de 14 93 bc 73 49 0c bd 0a 44 93 bd
       -0.022825558 -0.017954286 -0.034249734 -0.07190712
000010 58 98 7c bd c5 c2 47 bd e2 d8 38 bd 5a 14 2d bd
       -0.061668724 -0.04876973 -0.04512871 -0.042255737
000020 b5 50 1f bd a4 85 c3 bd d9 27 8d bd f8 2c 5e bd
       -0.038895328 -0.09546974 -0.06892366 -0.054242104
000030 83 bc 87 bd 53 9a 8e bc f4 a4 53 bd 7d 32 9f bd
       -0.06627753 -0.017407572 -0.051670983 -0.07773302
000040 8e 9e 87 bd 9d 48 1d bd a1 8f 1d bd 3f c7 ca bc
       -0.06622039 -0.038399328 -0.038467053 -0.024753211
000050 56 3a 72 bd d5 3c 69 bd f5 4e 5e bd c4 58 5e bd
       -0.059137665 -0.05694278 -0.054274518 -0.054283872
000060 0f 37 92 bd 91 7a 8b bd 30 fe 6a bd 7d fb 97 bd
       -0.07139408 -0.06810487 -0.05737132 -0.074210145
000070 77 c6 70 bd c2 de 23 bd 45 8a 79 bd 04 22 92 bc
       -0.05878302 -0.04000736 -0.06092288 -0.017838486

module.residual_layers.1.0.bn2.running_var f4 [32]
000000 d0 f2 7f 3c d2 55 4a 3c 93 c4 79 3c 05 ac 5a 3c
       0.015621856 0.012349563 0.015244621 0.013346677
000010 c9 c9 74 3c 46 75 23 3c 6e 05 75 3c f4 bb 5a 3c
       0.014940687 0.009976691 0.014954908 0.013350476
000020 a5 e3 54 3c b2 de 57 3c d3 e4 81 3c ef 77 47 3c
       0.012993728 0.013175653 0.015856182 0.0121745905
000030 82 ce 54 3c d4 2f 75 3c d5 fd 79 3c 7c 15 5f 3c
       0.012988688 0.014965016 0.015258272 0.013615962
000040 09 98 75 3c ab 16 3a 3c 52 d0 6d 3c 91 0a 77 3c
       0.014989861 0.0113579435 0.014514999 0.015078203
000050 9d 1b 5b 3c 84 a8 3a 3c 9f 54 3b 3c be 33 13 3c
       0.013373283 0.011392716 0.011433749 0.008984504
000060 12 27 4b 3c d9 82 6d 3c 47 b3 48 3c cf 50 53 3c
       0.012399452 0.014496529 0.012249774 0.012897684
000070 ba 1a 4f 3c d4 43 3e 3c da 21 60 3c 1e fd 3c 3c
       0.012640649 0.011612851 0.013679946 0.011534957
