summaries/vanilla_ResNet2_num_blocks2x1_num_channels16_conv3/ckpt.pth (torch, 117839 bytes, 42 tensors)

module.conv1.weight f4 [16, 3, 3, 3]
000000 4e e4 b8 be 35 50 e8 be 99 41 b9 be d4 bd 57 be
       -0.36111683 -0.45373693 -0.3618286 -0.21068507
000010 aa 07 9a be 4c 10 37 3f 7c 7a 0f 3f 6c da 8b 3e
       -0.30083972 0.7150924 0.5604627 0.2731508
000020 01 55 10 be de 88 ba 3d f2 a5 15 3e b0 c1 b5 3e
       -0.14094926 0.091081366 0.14614084 0.35499334
000030 2e d2 b8 be b1 0b 1a be 8a 87 93 3f 69 a5 17 be
       -0.36097854 -0.15043522 1.1525738 -0.14809193
000040 08 a1 51 be 9f 61 8e be 39 8c 99 3d 14 70 a6 bd
       -0.20471585 -0.27808854 0.074974485 -0.08126846
000050 8d 0d 7f 3c 67 1b a6 be e4 49 be be ba 40 30 3f
       0.015567196 -0.3244278 -0.3716575 0.68848765
000060 f5 23 35 be 2e 26 44 be ee 7b 54 be 9a 98 4d bb
       -0.17689498 -0.1915519 -0.207504 -0.0031371475
000070 49 d0 72 be 2f 58 b3 3d d0 77 91 be 3f 4f d9 be
       -0.23712267 0.08757054 -0.28411722 -0.42443272
000080 dd f4 66 be 06 f6 d7 be 5d fa 3c bf cf 4a 3c be
       -0.22554345 -0.42179888 -0.73819524 -0.18387912
000090 3c 59 94 3e 57 ec 22 3e a6 fd ed 3d ed b4 f3 3d
       0.2897433 0.15910469 0.11620645 0.11899743
0000a0 d4 49 92 3e 94 fa b9 3b 3c 51 10 3d 45 f5 22 bc
       0.2857195 0.005675623 0.03523372 -0.009946172
0000b0 be e3 a7 3d 09 dc 42 be cc 2d dd bd 67 28 a3 be
       0.08197735 -0.19029249 -0.10799751 -0.31866762
0000c0 ac 61 70 3e 85 0f 21 3f de 12 81 3d a3 7a f2 3e
       0.23474759 0.62914306 0.06302427 0.4735919
0000d0 17 b9 07 3f 21 3e 55 3e 6a 86 b4 3d 32 8a 72 3d
       0.530168 0.20824482 0.088147 0.059213825
0000e0 bf 34 c7 3d dc 13 9c 3e 6f 84 1d be c8 97 34 3d
       0.097268574 0.30483902 -0.1538255 0.044090062
0000f0 bf f9 b1 3d 03 a4 f2 be 01 07 b3 be ee 61 20 3c
       0.086902134 -0.47390756 -0.3496628 0.009788973
000100 77 92 6c 3d c0 e9 12 be e4 c3 44 3b 75 15 ab be
       0.057756867 -0.14346981 0.0030023986 -0.33414808
000110 07 7a 84 be 19 3a 61 bd f5 7e d4 be ca 59 c6 be
       -0.2587435 -0.054987047 -0.4150311 -0.3874038
000120 ee 0e b8 3d d8 35 64 3e f8 32 98 3b 10 60 40 3e
       0.089872226 0.22286165 0.004644748 0.18786645
000130 3e 3e 45 bc 0c 32 dc 3c 6c ea 8e 3d 78 79 c3 bd
       -0.0120387655 0.026879333 0.06978306 -0.09544653
000140 44 f6 07 bd 23 82 1a be 10 35 9b 3e 58 5b c8 3e
       -0.03319384 -0.15088706 0.3031392 0.3913219
000150 76 24 48 bf cc d2 4f bf d6 f7 32 3f df a6 a2 be
       -0.78180635 -0.81181026 0.6990942 -0.31767938
000160 38 90 eb 3e 78 ad be 3e 92 07 85 3e 90 fc 90 3e
       0.46008468 0.3724172 0.25982338 0.2831769
000170 33 3e 00 be 5d 31 ad bd df c3 5f bf 2a f3 ae bd
       -0.12523727 -0.08456681 -0.8740825 -0.085424736
000180 71 8c d9 3e 3b ba f4 3e 20 97 62 be 3c 67 8d 3e
       0.4248996 0.47798333 -0.22127962 0.27617824
000190 2c 8d 00 3f a5 37 60 be 50 5f 9c bd b1 1b 18 bf
       0.5021541 -0.21896227 -0.07635367 -0.59417254
0001a0 be 2a 4e be 9e 2b cc 3d 72 82 86 3e bc 7d 13 be
       -0.20133492 0.09969257 0.26271397 -0.14403433
0001b0 f6 00 5f 31 c0 c0 b0 2f de d1 49 31 aa 01 67 31
       3.2451317e-09 3.215117e-10 2.9368645e-09 3.361587e-09
0001c0 89 e2 47 31 0f f3 1e 30 fb 4c 20 31 be 49 a5 2f
       2.9087082e-09 5.782547e-10 2.3326823e-09 3.0065722e-10
0001d0 51 fc 08 31 9a 65 82 b0 21 65 52 30 ae 56 20 30
       1.993403e-09 -9.487622e-10 7.654127e-10 5.833084e-10
0001e0 df 08 0e 31 f6 5d 28 31 2d 17 cc b0 bb ce bf 30
       2.0668762e-09 2.4500628e-09 -1.484954e-09 1.3955835e-09
0001f0 8f 90 e1 30 ea 0b 91 2f 90 6f 4a 31 88 c4 06 30
       1.6411991e-09 2.6383812e-10 2.9458285e-09 4.9028204e-10
000200 53 fb c0 30 e2 dc eb 30 de eb 56 b0 67 c4 22 b1
       1.4041269e-09 1.7161279e-09 -7.8187934e-10 -2.3685744e-09
000210 59 b1 0a 31 1e 89 0a b1 07 8b b5 ae 17 27 98 bd
       2.0182453e-09 -2.0159585e-09 -8.255623e-11 -0.07429331
000220 ba 66 fb 3d 39 15 73 3e b9 64 99 3e 52 6b b5 3e
       0.12275453 0.23738565 0.29959658 0.3543344
000230 62 2c e6 3d 9f 5b 8b 3b c3 da cd 3d 05 4f f5 3c
       0.11238934 0.0042528654 0.10051491 0.029944906
000240 c0 46 9e be 2b a5 a5 be 82 8a cc bd 10 81 6a 3d
       -0.30913353 -0.32352576 -0.09987356 0.05725199
000250 2e 29 d3 bd ae 26 5c be 81 0e 16 be 45 96 04 be
       -0.10310589 -0.2149913 -0.1465397 -0.12947948
000260 e5 eb 89 bd 4a 7d 06 3d d3 f9 67 be 32 09 94 bd
       -0.067344464 0.03283433 -0.22653894 -0.07228316
000270 03 7c 6c 3d ba 86 c5 be d5 d8 c2 be d5 2f ea bd
       0.057735454 -0.3857935 -0.38056055 -0.114349045
000280 96 e4 8e be 6d b5 0a bd 41 a9 8d b5 26 b7 a7 b5
       -0.27908772 -0.033864427 -1.0554578e-06 -1.2495773e-06
000290 83 a8 a3 b5 66 dd 28 b5 9b fb d9 b4 ac db 77 34
       -1.219349e-06 -6.2907054e-07 -4.0602467e-07 2.3083584e-07
0002a0 b2 56 82 35 66 10 fd 35 2e 57 ea 35 b7 eb 12 35
       9.710986e-07 1.8854741e-06 1.7459731e-06 5.473225e-07
0002b0 96 4a 5f 34 f0 ad 9b b3 94 3e 82 b5 88 6b 80 b5
       2.0795628e-07 -7.249389e-08 -9.703967e-07 -9.568039e-07
0002c0 3e bc a4 b4 a0 93 a0 b2 2e c6 b8 34 cb 39 91 34
       -3.0684345e-07 -1.8693584e-08 3.4416865e-07 2.7050405e-07
0002d0 55 92 90 35 c6 3e 92 35 33 16 a2 35 b0 99 cf b5
       1.0771424e-06 1.0896117e-06 1.2076401e-06 -1.5467431e-06
0002e0 15 22 e9 b5 d5 2d 56 b5 ee 0d e0 b5 01 20 01 b6
       -1.7369772e-06 -7.9787907e-07 -1.6693355e-06 -1.9241127e-06
0002f0 cb ff ed b5 95 e6 3a be eb d5 a8 bc f1 0c 96 3b
       -1.7732322e-06 -0.18252023 -0.020609817 0.0045791795
000300 fb a3 db be c5 25 71 be eb ce b3 be 5a 21 26 be
       -0.42898545 -0.23549564 -0.35118803 -0.1622366
000310 48 ce c0 bd 15 d4 da bc 9c c0 39 bd ae 2b 8d 3e
       -0.09414345 -0.026712457 -0.045349702 0.27572387
000320 aa 41 40 3c 34 d5 ac be 3d ed 54 3d 2e 52 a5 be
       0.0117344055 -0.3375641 0.05198406 -0.3228926
000330 37 99 33 bd c3 93 11 3d b1 dd b6 bd 6e 75 88 3e
       -0.04384729 0.035541307 -0.08929003 0.26652092
000340 92 96 1c 3f 97 b0 7f 3e cf 29 f0 3d c0 eb 0f 3f
       0.6116725 0.24969707 0.11726724 0.562191
000350 62 3f f9 3d 06 83 56 3c 3f 08 08 3d 84 bc 29 be
       0.121702924 0.013092762 0.03321099 -0.16575819
000360 f7 fb c6 bd 17 69 80 3e 41 13 af 3d e7 f9 4e be
       -0.09716027 0.25080177 0.08548594 -0.20212518
000370 91 cb f6 3d 59 2c ca bb 0e e8 86 be 67 b4 ec 3d
       0.12050546 -0.0061698374 -0.2634892 0.115578465
000380 06 44 d0 3d fe ae bb bc 98 e7 a8 3e f7 69 eb 3d
       0.101692244 -0.022910591 0.32989192 0.114948206
000390 14 4c 91 bb 4f 63 50 3e b0 89 f3 bc 51 52 c0 bd
       -0.004434118 0.20350383 -0.02972874 -0.093907006
0003a0 9e 66 d0 3d 5a 7b 6e bd 47 da e2 3d 54 d8 83 3e
       0.10175823 -0.058223106 0.11076789 0.25750983
0003b0 27 60 ee bd c2 d8 4a 3e 52 99 fb 3d e7 66 a0 be
       -0.11639433 0.19809249 0.12285103 -0.31328508
0003c0 2e 85 5d 3e 03 0c 04 3e b5 ef 9d be d1 5e cc 3e
       0.21632835 0.12895207 -0.30846944 0.3991609
0003d0 33 32 3c 3f 3c 5c 07 3f 93 ad 1c 3d d7 91 de 3d
       0.735141 0.52875113 0.03825147 0.108676605
0003e0 b8 99 1e be 3e d4 04 bf 65 b4 06 bf f8 bb f9 be
       -0.15488327 -0.51886356 -0.5261901 -0.4877622
0003f0 bd d1 80 3d 9e 89 15 3f 8a 39 71 3e 49 15 5a bd
       0.062900044 0.5841311 0.23557106 -0.053242955

module.bn1.weight f4 [16]
000000 1c 2b fe 3e 70 c1 91 3e 00 47 30 3f 43 26 f8 3e
       0.49642265 0.28467894 0.6885834 0.4846669
000010 ac 4a 27 31 2b 36 c5 3e b6 0a 89 34 eb cc e5 3e
       2.4344144e-09 0.3851789 2.5526032e-07 0.44882903
000020 1c d5 d7 3e cb b7 fa 3e 85 9c 01 b4 b1 fa fb 3e
       0.42154777 0.48968348 -1.2071003e-07 0.492147
000030 a5 e5 0d 3f eb 31 ba 3e c3 e6 ed 3e 21 c6 c3 3e
       0.55428535 0.3636621 0.4646512 0.38237098

module.bn1.bias f4 [16]
000000 99 ae 96 3e 51 73 36 3e 7e 30 cd be 81 13 9c 3e
       0.29430082 0.17817427 -0.4007606 0.3048363
000010 3d ba fd b1 36 d4 bd bd fa 65 23 b6 3f 57 4d bd
       -7.384442e-09 -0.09268992 -2.434825e-06 -0.050132032
000020 96 a0 90 be 44 95 a9 3d 5e 4a 4f b7 d1 ac 4e 3f
       -0.28247517 0.08280423 -1.2355476e-05 0.80732447
000030 8a 87 9b 3e 71 cf 13 bd fb a2 a2 3e 2e 24 12 3d
       0.30376846 -0.036086503 0.3176497 0.035679035

module.bn1.running_mean f4 [16]
000000 ae c8 da bd c1 ab 85 ba 81 f9 2b bf 24 09 7c bd
       -0.10682808 -0.0010198281 -0.6717759 -0.061532155
000010 aa 0b 5f 32 44 32 16 bf 03 e9 46 b6 57 19 1b be
       1.29829605e-08 -0.5867045 -2.963993e-06 -0.15146385
000020 19 3b ed 3e c1 2f 80 bb 4a 44 96 b7 6e 32 9f bc
       0.4633415 -0.0039119427 -1.7913193e-05 -0.019433226
000030 ba 1c 16 bd 4f ee 1e bd 1f d1 f1 bc 66 6c d3 bd
       -0.03664849 -0.038801488 -0.029518662 -0.1032341

module.bn1.running_var f4 [16]
000000 f1 09 d8 3d 70 a1 de 3d 2c 79 33 3e 26 38 a5 3d
       0.10548771 0.108706355 0.17526692 0.0806735
000010 5e f7 39 24 2e 6d 1d 3e 5c d5 55 2c 75 a9 e3 3d
       4.032501e-17 0.1537368 3.0387559e-12 0.11116306
000020 54 95 94 3d 0f 33 93 3e 68 d8 d4 2e 8b 14 67 3d
       0.072550446 0.28749892 9.679085e-11 0.056416076
000030 5a da fc 3e 4a f0 d1 3d 41 53 de 3e c0 ec b6 3d
       0.4938534 0.102509096 0.43422893 0.08931875

module.residual_layers.0.0.conv1.weight f4 [16, 16, 3, 3]
000000 11 fb 07 bd ee 0f 9c 3d 4c 91 13 be e9 f9 e8 bc
       -0.03319842 0.07620226 -0.14410895 -0.028439479
000010 2e 8d 50 3e bc 5b 2c be 60 3f 68 3d f7 aa 69 3c
       0.20366356 -0.16831869 0.056701064 0.014261953
000020 5c 41 be 3d b2 89 0f bf 11 2f 1d be 89 0f c5 3e
       0.0928981 -0.5606948 -0.15349986 0.38488415
000030 ac 6d b6 be 25 45 97 3d 36 3b 16 3f a4 2c 46 be
       -0.35630548 0.07386235 0.586841 -0.19352967
000040 8f 72 2d 3e 77 20 f4 3e 3e 18 03 be 2b c4 91 be
       0.16938232 0.4768102 -0.12802216 -0.28469977
000050 ed 90 52 be 3f 92 b7 bc 29 9b d6 3d 1e 0d ee 3d
       -0.20563097 -0.022408603 0.10478813 0.11623596
000060 36 02 2a be 75 c7 eb 3d d4 ec 4b 3e 13 b9 46 3e
       -0.16602406 0.11512653 0.19914562 0.19406538
000070 b7 fa 6b bd 32 6d 08 be a9 76 0d bd e2 f6 cd be
       -0.057612147 -0.13322905 -0.03453699 -0.4022742
000080 bf cc da bd e1 e7 54 be c8 91 9e be 54 dc c5 3e
       -0.106835835 -0.2079158 -0.30970597 0.3864466
000090 0e 91 3d b0 e2 f3 1d 30 4b 66 19 ae 0a b0 84 b0
       -6.8963935e-10 5.7462846e-10 -3.4879027e-11 -9.654297e-10
0000a0 8c 20 51 ae 91 42 52 30 48 8b ed 2f c5 d6 ae 2f
       -4.7550006e-11 7.649215e-10 4.3209014e-10 3.1803019e-10
0000b0 3b d7 63 af ad fe e3 3e b0 e0 16 3e 30 8d b1 bc
       -2.0721995e-10 0.4453024 0.14734149 -0.021673769
0000c0 65 4d 82 3e 58 58 09 be 9b e9 96 be 19 4a ca 3d
       0.25449672 -0.13412607 -0.29475102 0.09877414
0000d0 a4 48 5b be 98 aa 96 be 74 fb f1 b4 cb fd 08 b5
       -0.21414429 -0.29427028 -4.5072704e-07 -5.1033265e-07
0000e0 1c 93 09 b4 e9 0a 9c b5 87 e6 93 b5 cc 4a 2f b5
       -1.2812637e-07 -1.1626081e-06 -1.1019446e-06 -6.5301424e-07
0000f0 dc 8a d0 b4 10 80 20 b5 4c 60 00 b5 6e 57 d0 be
       -3.8844053e-07 -5.9791e-07 -4.7823846e-07 -0.40691704
000100 77 44 05 be b7 56 18 3a d6 66 e6 be 86 da 4c be
       -0.13014399 0.00058112614 -0.45000333 -0.20005235
000110 fe 5d 08 3d 7d 4e d3 bd 3a 6a 59 3e 12 fc e5 3e
       0.033292763 -0.10317705 0.21231928 0.44918877
000120 ac 24 e6 3d 03 c2 95 3c 10 ed 1e bd f8 3b 5d 3d
       0.11237463 0.018280989 -0.0388003 0.05401227
000130 b0 a5 39 be 2c a8 4e be f0 81 01 3e 5a ff 6b 3d
       -0.18129611 -0.2018134 0.12647223 0.05761657
000140 4f 4e 8e bd b3 c9 78 3d 3c 62 28 3e f4 4f 35 3e
       -0.0694853 0.06073923 0.16443723 0.17706281
000150 da 32 e7 3d db 23 d4 3d 3e b3 c6 bd f9 6d 05 3e
       0.11288996 0.103584014 -0.097021565 0.13030232
000160 0d 77 72 bc 90 4b 0e be ba 23 96 b6 9f 26 68 b6
       -0.014798892 -0.13896012 -4.4745075e-06 -3.4593174e-06
000170 15 37 61 b6 da 2d 58 b5 59 5a 23 35 27 35 b5 2e
       -3.3559675e-06 -8.0532993e-07 6.0853705e-07 8.240369e-11
000180 db e0 cc b4 94 ab 6f 35 13 ac 81 34 17 6f 77 be
       -3.8161565e-07 8.928412e-07 2.4153323e-07 -0.24163471
000190 57 13 9c 3d 34 f2 a9 3e bd 6c d0 3c 50 6c 6b 3e
       0.07620876 0.331926 0.025442475 0.22990537
0001a0 65 d3 79 3c 4e 8e 17 3e a8 00 0e be 94 9b 4e be
       0.015248154 0.14800379 -0.13867438 -0.20176536
0001b0 b9 0c fc 3d 77 cd 60 be bb 1e 2a 3e 58 61 9f bd
       0.12307114 -0.21953379 0.16613285 -0.07782239
0001c0 c3 3c f0 bd 02 a8 96 ba 9f 79 c0 bc 0e 99 56 3e
       -0.117303394 -0.0011494162 -0.023495493 0.20956823
0001d0 0a 8c 36 3d fc 80 38 be 6b f4 7a bd 28 e9 f6 3d
       0.044567145 -0.18017954 -0.06126825 0.1205619
0001e0 08 b4 7d be 5b 7a cd bc d1 c5 8a 3d 05 82 34 be
       -0.24775708 -0.025082758 0.06776012 -0.17627724
0001f0 a4 9f 89 bd f8 06 9d 3d ca a2 8f bd a2 5d 14 bc
       -0.06719902 0.07667345 -0.070134714 -0.009055527
000200 7d 8a 16 bd 8a 99 a4 3d 16 bb d7 3d fa c3 1e 3d
       -0.036753166 0.08037098 0.10533731 0.038761117
000210 a6 d8 4e 3e 0c e3 ef bc 78 24 dc bd 2b 37 84 3e
       0.20199832 -0.02928307 -0.10749143 0.2582334
000220 78 fd c2 3d d5 39 8a bd d0 75 a7 3d 5a a7 75 be
       0.095210016 -0.06749312 0.08176768 -0.23989621
000230 f8 9e 96 be 1c ad 94 3d 4b ce 8d be 95 a4 60 be
       -0.2941816 0.072595805 -0.27696452 -0.21937783
000240 65 e0 6b bd 39 bc f3 3d 75 d1 36 3e 89 f5 70 3d
       -0.057587046 0.11901135 0.17853339 0.05882791
000250 e9 48 1d bf 68 32 9f 3e 7a 54 83 3d 23 c0 4e be
       -0.6143938 0.31093144 0.06412597 -0.20190482
000260 92 46 87 3e c9 f7 11 3e e0 c9 ed bc b7 2f ea 3d
       0.26421028 0.14254679 -0.029026926 0.11434882
000270 f1 e9 1b 3e fc 0e b7 3d 08 69 59 be b2 95 a6 3d
       0.1522596 0.08938405 -0.21231472 0.08134021
000280 f2 f3 bd 3d 89 8c 09 be 55 ab af be de 57 a6 bd
       0.092750445 -0.13432516 -0.34310403 -0.08122228
000290 a0 68 a3 3e 28 15 81 3c 9a 4e 23 3d bb df 7d 3e
       0.3191576 0.015757158 0.039869882 0.24792378
0002a0 d3 d0 94 3c 7a 89 16 bd e5 44 48 bd c5 8c f6 3b
       0.018165981 -0.0367522 -0.048893828 0.0075241053
0002b0 af c8 b2 3e eb 52 cf be 9e c1 fd bd 4e c5 54 be
       0.34918734 -0.4049295 -0.12390445 -0.20778391
0002c0 28 74 ac 3e 58 e1 d0 3c 4d 3d b6 3d a5 74 bf bd
       0.3368237 0.025498077 0.08898411 -0.0934842
0002d0 91 88 9a af c1 f8 00 b0 65 d6 15 b0 10 ac 3c 2e
       -2.8109473e-10 -4.691963e-10 -5.4510557e-10 4.2899073e-11
0002e0 c4 5c 52 30 6d fe 0f 2f fa f4 46 b0 1a 5e fe 2e
       7.6529383e-10 1.3096164e-10 -7.2380113e-10 1.15672985e-10
0002f0 81 0f 5d 30 32 4a 0b be f2 a4 3e be de dd 0f be
       8.0421364e-10 -0.13602522 -0.18617609 -0.1404948
000300 c3 d2 0a bc 24 e9 ef bb c1 63 10 3e 02 d4 85 3e
       -0.008473101 -0.0073214937 0.14100553 0.26138312
000310 0d 9c 23 3e 6d bc 8f 3e 01 af 5f 34 f7 e0 eb 34
       0.15977497 0.28073445 2.083216e-07 4.3935844e-07
000320 0f dc bc 34 9e ac 1d b4 c7 44 53 34 c2 5d 9b 35
       3.5177843e-07 -1.4684562e-07 1.9675927e-07 1.1575687e-06
000330 9d af 44 34 48 63 fb 34 42 c3 85 35 81 a8 b5 3c
       1.831781e-07 4.682463e-07 9.9661e-07 0.022175075
000340 f7 25 10 3e cd 1e 04 3e 16 8e bb bd c7 e9 d4 3d
       0.14076982 0.12902375 -0.0915796 0.10396152
000350 b9 12 17 be c7 9b 31 3e 0d 11 c5 bd ff 22 ab be
       -0.14753236 0.1734458 -0.09622393 -0.33425137
000360 ae 34 0f bd 4b 04 5e be fa 0f 19 be 7d 22 e0 3d
       -0.03496235 -0.21681325 -0.14947501 0.10944078
000370 fb b6 11 3e 1b bd 2d bb 6c f0 92 3d c0 af 51 3e
       0.14229958 -0.002651042 0.07174763 0.204772
000380 82 ea 16 3e 1c 76 e5 bd b6 9a 26 bd f3 e4 90 be
       0.14737895 -0.11204168 -0.040674888 -0.28299674
000390 1d c2 22 3b 6a 27 3f 3e 7d 01 08 3c 7b fd 12 3d
       0.0024834939 0.18667379 0.008301136 0.03588627
0003a0 91 e4 cc bd 0d 04 f3 bd 04 3b 2b 36 fa b6 0b b6
       -0.10004533 -0.11866007 2.5515337e-06 -2.081912e-06
0003b0 01 2b 3b b5 12 89 fc b4 60 eb 83 b6 8f 3f 65 b6
       -6.972551e-07 -4.703839e-07 -3.9315055e-06 -3.4160655e-06
0003c0 fd ab 38 36 ce c2 4e b5 0e b3 07 b6 d5 84 1f 3d
       2.7518247e-06 -7.702446e-07 -2.0220791e-06 0.038945038
0003d0 28 68 ab 3e 9b ad f3 3d a8 a7 87 3e 70 bc 86 bf
       0.33477902 0.11898347 0.264951 -1.0526257
0003e0 e2 d5 3b 3f e5 91 ce bd c7 fd 01 3e 4b 2a b5 bd
       0.73373234 -0.10086421 0.12694465 -0.08845957
0003f0 63 78 60 3d 65 fe df bd 71 44 97 bc 47 56 e1 bd
       0.05480231 -0.10937194 -0.018465253 -0.11002784

module.residual_layers.0.0.bn1.weight f4 [16]
000000 48 cf 1f 3f c1 39 28 3f 45 3e 50 3f bf a7 0f 3f
       0.6242566 0.65713125 0.81345016 0.56115335
000010 44 0b 2c 3f 67 dc 2e 3f 70 9f 12 3f 85 f8 03 3f
       0.6720469 0.6830506 0.5727453 0.51551086
000020 bb fa 2a 3f 6a 8b 09 3f 53 08 3c 3f f2 af 23 3f
       0.66788834 0.53728354 0.734502 0.63940346
000030 62 7c 47 3f b4 a5 18 3f 69 de 15 3f 67 5e 0d 3f
       0.7792417 0.5962784 0.58542496 0.5522217

module.residual_layers.0.0.bn1.bias f4 [16]
000000 25 69 ac bd 47 00 da 3e a9 c6 aa be 12 ed b2 3e
       -0.08418492 0.42578337 -0.3335469 0.34946495
000010 48 42 d1 be db 07 26 3c 0d ed 71 3e fc f4 7a be
       -0.4087088 0.010133709 0.23625584 -0.24507517
000020 81 72 5f be 9b f4 68 3e 18 35 dd be 9d 32 54 bf
       -0.21821024 0.2274956 -0.4320457 -0.8288973
000030 49 ce 03 bf b8 ac 4c 3d 53 4a 26 3f 8d 04 e4 3e
       -0.5148664 0.049969405 0.6495716 0.44534722

module.residual_layers.0.0.bn1.running_mean f4 [16]
000000 a9 4c 40 bb 67 81 cf 3e 09 bc 8d be 6d 68 a7 be
       -0.0029342568 0.40528414 -0.27682522 -0.32696858
000010 60 cf a5 bf be 3e 1c bf 0d ee 91 bf 3b b9 8d 3f
       -1.2953911 -0.61033237 -1.1400772 1.1072153
000020 97 d9 02 bf 69 46 49 bf 37 de b2 be 2f 74 6e bd
       -0.51113266 -0.7862306 -0.3493516 -0.05821627
000030 28 7a 15 3f 06 f9 8f bf 67 6c 6d bf aa b8 2d bf
       0.5838952 -1.1247871 -0.92743534 -0.678599

module.residual_layers.0.0.bn1.running_var f4 [16]
000000 21 d9 76 3e b3 d7 db 3e f8 43 10 3f a3 8a fe 3e
       0.24106266 0.42938003 0.5635371 0.49715146
000010 07 ab 76 3e 10 ea 17 3f 95 94 2a 3f ab 2f c8 3e
       0.24088679 0.59341526 0.6663297 0.39098868
000020 c5 e2 ba 3e 24 44 89 3e 7a 50 f1 3e 65 3a 2e 3e
       0.36501136 0.268098 0.4713171 0.17014463
000030 73 c2 88 3e 1f c5 ed 3e 88 46 bf 3e ec a7 9d 3f
       0.26710853 0.46439454 0.373585 1.2316871

module.residual_layers.0.0.conv2.weight f4 [16, 16, 3, 3]
000000 55 91 cc bd 6d f6 bf be e4 1b d0 bd a9 7a 0f be
       -0.099886574 -0.37492695 -0.1016157 -0.14011635
000010 ba ff 86 be e2 5e a7 3b 77 ea 1f 3e 04 d8 d0 3d
       -0.2636698 0.0051077465 0.15616785 0.10197452
000020 3b aa a3 3e 2d d2 a2 bd c5 53 da 3c d7 ed d8 3d
       0.31965813 -0.07950244 0.026651273 0.10592239
000030 41 1c 10 be 11 91 99 3e fe a8 9d bc e3 75 96 bd
       -0.14073278 0.2999349 -0.01924562 -0.07346704
000040 71 6d f7 3d d9 50 1d bd bc cd a3 3d eb 0d 9b bd
       0.12081421 -0.03840718 0.07998225 -0.07571014
000050 12 fb 50 3e 82 73 1c 3a 00 67 13 3e c5 75 7e 3d
       0.20408276 0.000596814 0.1439476 0.062124033
000060 2f 4d 12 be 17 24 29 3a 52 0b 8f 3c 2f 88 ae bd
       -0.14287256 0.0006452216 0.017461453 -0.08522069
000070 3c 6c 94 3d 66 8c 46 be 28 a7 93 3d 2b 35 14 be
       0.072472066 -0.19389495 0.07209617 -0.14473407
000080 26 aa 0e be 83 df 99 3d bd 7a 87 3e ab fd 3c be
       -0.13932094 0.075133346 0.2646083 -0.18456142
000090 3b ae db bd 25 31 9b bd 83 23 44 bd e9 9d b8 bd
       -0.10726591 -0.07577733 -0.04788543 -0.09014494
0000a0 60 b4 c1 bd c5 c9 a1 3c 0e 29 a2 3d 44 5b 1f 3e
       -0.09458232 0.019749532 0.07917987 0.15562159
0000b0 64 f6 bd 3d e8 8b 4f be 77 51 78 bd 9d 52 dc bd
       0.09275511 -0.20268214 -0.060624566 -0.10757945
0000c0 36 92 3f bc 5f 18 9e bd 96 c9 7c be 57 d1 ad 3d
       -0.011692574 -0.07719492 -0.24686274 0.08487194
0000d0 0a 3e c5 bd f3 db 04 be 21 ae 67 bd 04 f9 67 3d
       -0.09630974 -0.12974529 -0.056562547 0.056633964
0000e0 78 fd 80 3e 05 b8 e8 bd d3 1b 35 3e 2a 54 20 bd
       0.2519338 -0.11363224 0.17686395 -0.039142765
0000f0 0a 39 93 bc f7 82 f6 3d 03 7b 64 3e 28 b7 2c bd
       -0.017971534 0.12036698 0.2231255 -0.04216686
000100 2f 68 19 be 74 87 25 be bc 90 5d 3c 11 c4 3e bd
       -0.14981149 -0.16164953 0.013523277 -0.046573702
000110 1d dc 49 be 16 ea 15 3d 34 cc 02 be 18 02 98 bd
       -0.19712873 0.036600195 -0.1277321 -0.07422274
000120 e1 62 91 3e d7 36 8d 3c d4 15 f1 3b 0d 1b 09 be
       0.2839575 0.017238064 0.0073573384 -0.13389225
000130 b8 74 53 be 19 dc 52 be 3c 61 8e 3c 69 b4 2e bd
       -0.20649993 -0.20591773 0.01738035 -0.04265252
000140 6e c8 8d 3c b5 48 1e 3e a7 df 15 3e 6e 2b 58 3e
       0.017307486 0.15457423 0.14636098 0.21110317
000150 e2 be 38 3c 87 db 57 bd d2 95 e2 bd 99 18 f0 bd
       0.011275979 -0.052699592 -0.11063732 -0.11723442
000160 c5 c2 b4 be 59 02 4f be 4e f1 bc be 91 d6 3f 3d
       -0.35304847 -0.2021574 -0.3690285 0.046835486
000170 6f e7 6c 3d ba 34 0c 3d e2 91 00 bd 6f 07 b4 3d
       0.0578379 0.03422997 -0.031389125 0.0879048
000180 c8 a9 0a 3d 36 89 08 3e 1c bd 05 bd 55 e2 14 be
       0.033853322 0.13333592 -0.032651052 -0.14539464
000190 99 0f 36 be 1d d6 7f be 52 08 0c be 74 df ed bd
       -0.17779388 -0.24984021 -0.13675049 -0.11614886
0001a0 f8 0c c7 bd b5 eb 88 be c9 4b 84 be 78 d6 24 be
       -0.097192705 -0.2674233 -0.2583907 -0.16097438
0001b0 b9 fd 0d be b4 3e 2f be 89 9c 8e bd bf 87 8d bd
       -0.13866319 -0.17113763 -0.069634505 -0.06910657
0001c0 cb 81 3e 3e 43 e0 76 3d 8d 2f 48 be ae be 51 be
       0.186042 0.060272466 -0.19549389 -0.20482895
0001d0 a3 fb 84 3c a8 d3 3c bb 3d a2 50 3e ed ab b1 bc
       0.016233271 -0.002881268 0.20374389 -0.021688426
0001e0 7f 09 a6 3d c2 25 44 3e bd c1 0f bd fb 35 26 3e
       0.0810728 0.19155028 -0.035096873 0.1623153
0001f0 b3 d2 bd 3e db dc 2c 3e d8 54 ae be b7 1d aa be
       0.37074813 0.16881125 -0.34049106 -0.33225796
000200 88 4f d6 3d 84 42 0e be 52 c4 10 3e 6a 89 a3 3e
       0.10464388 -0.13892561 0.1413739 0.31940776
000210 69 b1 42 3e ba 29 08 3d 27 ab 72 3d 45 ee f9 bc
       0.19012989 0.03324292 0.059245255 -0.030509124
000220 42 5c 68 be e0 24 43 be 8f 1d 16 be 31 c0 b7 bd
       -0.22691444 -0.19057035 -0.14659713 -0.089722045
000230 ec 5f 86 bd 5d ed f0 bd 2d 78 93 3e 4c 17 74 3e
       -0.065612644 -0.117640235 0.28802624 0.23837012
000240 04 ac 2d bd 7e 39 45 3e 74 07 08 3d 1b 2d 29 bd
       -0.042400375 0.19260213 0.033210233 -0.04130278
000250 4b 58 2e 3d 27 89 fc bd 84 88 ad 3d 59 c7 17 3e
       0.04256467 -0.12330847 0.08473304 0.14822139
000260 89 55 41 be b4 05 a6 be dd 94 50 3d b0 40 89 bd
       -0.18880285 -0.32426226 0.050923217 -0.06701791
000270 9d 53 59 bf 41 32 0e 3f e8 49 9e 3d a9 b5 d3 bd
       -0.8489321 0.5554543 0.0772894 -0.10337383
000280 2d b8 6b 3d 14 d8 94 3d d1 40 4b bd 95 35 07 3b
       0.05754869 0.07267776 -0.04962236 0.0020631303
000290 6b 49 77 bc 4d 52 5d 3d 0c 4c b0 bd 71 18 ff 39
       -0.015093188 0.054033566 -0.08608255 0.000486556
0002a0 f1 15 2b be ad 57 b2 bd 17 14 4e 3d c0 c9 02 3d
       -0.16707589 -0.08708129 0.050312128 0.031930685
0002b0 c5 37 81 3d 99 b8 2b 3e 95 63 88 be 9d de de bd
       0.06309465 0.16769637 -0.26638475 -0.10882304
0002c0 98 5b da 3d c6 08 05 bc 2f 99 a0 3e f2 87 dd bd
       0.10662001 -0.0081197675 0.3136687 -0.10816945
0002d0 9d 86 d2 3d 6b 1c bb 3c ed 9e 11 3c 70 91 d1 3c
       0.10279582 0.0228407 0.0088879885 0.025582045
0002e0 e1 41 d8 bc 20 b6 16 be 60 ea 10 3e e5 af 40 3e
       -0.026398601 -0.14717913 0.14151907 0.18817098
0002f0 b7 89 a7 3d 0d 63 50 bd 77 8e 28 be 94 f5 6f bd
       0.08180564 -0.050875712 -0.16460596 -0.05858381
000300 8c af 1c be 43 79 03 bc eb a2 48 be 58 70 1c be
       -0.15301341 -0.0080245165 -0.19593398 -0.1527723
000310 09 8f 3f bb 0b 1c 4c bd b1 27 6d bd 1b 01 19 be
       -0.0029229543 -0.04983143 -0.05789918 -0.14941828
000320 63 2c af 3d a9 0a b7 3c cd 22 88 be 64 81 b5 3c
       0.08553388 0.02234395 -0.2658905 0.022156425
000330 43 b7 d3 bc c0 a4 d2 bc 78 eb 39 be 89 78 cf bd
       -0.025844222 -0.025713325 -0.1815623 -0.10130412
000340 d7 4b 0f be 9c c9 79 be 03 4f eb 3d fc 32 b6 3c
       -0.13993774 -0.24393314 0.1148968 0.022241108
000350 b3 d4 81 bd 9b 18 1f bd d3 41 4f bd 73 c1 73 bc
       -0.06339397 -0.038841825 -0.050599884 -0.014877665
000360 56 31 8f be 67 1b 42 be 6b 1e 94 3d f1 56 75 be
       -0.27967328 -0.18955766 0.07232364 -0.23958947
000370 3b 68 97 bc f6 75 0f be 28 bb 48 be e1 98 95 be
       -0.018482318 -0.14009842 -0.19602644 -0.292182
000380 c5 c3 62 bd bb 4e 50 bd 8b c2 9d 3e d1 d3 95 3d
       -0.05536248 -0.050856333 0.30812487 0.073157914
000390 4b d2 64 bd f8 3d 93 3d f0 f1 ae be 3e 89 88 3d
       -0.055864614 0.07189554 -0.3416896 0.06666802
0003a0 13 a1 8e be 37 06 d7 bd 13 c7 3e 3d 79 97 2f 3d
       -0.27857265 -0.10499232 0.04657657 0.042869065
0003b0 a8 bf 8b 3d 2c e0 ad bd bd 36 e3 bd 67 f2 d7 3c
       0.06823665 -0.08490023 -0.11094425 0.026360704
0003c0 a7 ba 5c bc 5c 84 76 3e d0 24 f6 bd 62 47 a7 3d
       -0.013472236 0.24073929 -0.1201874 0.08167912
0003d0 eb 56 07 3e c6 68 3f 3c 2c a1 89 bb 8d ca 8f 3d
       0.1321675 0.011682695 -0.0042001214 0.07021055
0003e0 fa b5 42 bd 75 4b c8 3d 3b a6 80 3d c1 5e b6 bc
       -0.047536828 0.09780017 0.06281706 -0.022261979
0003f0 91 26 92 bb 58 1f 1e 3d 98 09 42 3e bc 00 5e be
       -0.004460164 0.03860411 0.18948972 -0.21679968

module.residual_layers.0.0.bn2.weight f4 [16]
000000 04 4d 42 3f b1 e6 4b 3f 63 6d 19 3f 41 4b 57 3f
       0.75898767 0.7964888 0.59932536 0.84099203
000010 e5 e2 2e 3f 1d 81 5c 3f d1 bf 48 3f 7a 59 22 3f
       0.68314964 0.8613451 0.7841769 0.6341778
000020 2d e5 2a 3f 99 ca 2d 3f a9 59 24 3f 25 cb 48 3f
       0.66755944 0.67887264 0.6419931 0.78434974
000030 42 2e 55 3f dc df 43 3f 65 d2 26 3f 68 72 51 3f
       0.8327371 0.7651346 0.65164787 0.81815195

module.residual_layers.0.0.bn2.bias f4 [16]
000000 92 39 49 bf 3d 72 58 3d cb aa 8c 3c b2 63 0f bf
       -0.7860347 0.05284332 0.017171284 -0.560115
000010 f6 e6 69 3e 1a 47 12 bf 6a 42 c6 be 81 79 00 3e
       0.22842011 -0.5713974 -0.38722545 0.1254635
000020 62 9f 97 3e ea 00 97 be 92 b0 93 be 1d 0b 4b be
       0.29613787 -0.29492885 -0.2884565 -0.19828458
000030 91 1e 11 bf 7b e2 43 be c1 74 a0 be 17 b6 ef be
       -0.56687266 -0.19129364 -0.31339076 -0.4681861

module.residual_layers.0.0.bn2.running_mean f4 [16]
000000 20 fa 9c be be d5 2f bf ae d9 a7 bf 2d bb 7b 3e
       -0.3065958 -0.6868552 -1.3113306 0.2458312
000010 af a6 22 bf 46 7b 73 bc 5e 49 75 3f 2b 24 85 3d
       -0.6353559 -0.014860934 0.95815074 0.06501039
000020 fa bc 51 be 4f 43 2c 3e ff 39 a8 bd 27 0c 9b bf
       -0.20482245 0.16822551 -0.08214187 -1.2113084
000030 70 78 23 bf de 90 50 be ef bd 3f be 67 43 84 3e
       -0.6385565 -0.20367762 -0.18724798 0.25832674

module.residual_layers.0.0.bn2.running_var f4 [16]
000000 92 12 36 3f 1a 41 af 3f a6 13 7d 3f 79 51 29 3f
       0.71122086 1.3691742 0.98858106 0.6613994
000010 08 1e 73 3f 2c ae 70 3f b7 aa 63 3f b0 d7 38 3f
       0.949677 0.94015765 0.88932365 0.72204113
000020 14 23 52 3f ec 9d b9 3f d7 b1 15 3f 4b 35 98 3f
       0.82084775 1.4501319 0.5847449 1.1891264
000030 be d4 ab 3f ad 95 51 3f b0 61 a6 3f 17 74 48 3f
       1.3424299 0.8186901 1.2998562 0.7830214

module.residual_layers.0.1.conv1.weight f4 [16, 16, 3, 3]
000000 db 86 1f be 1e 6d a2 bd 3a 50 ba bc 8e 41 f6 bd
       -0.15578787 -0.07930969 -0.022743333 -0.12024222
000010 06 48 ea bd 31 49 09 3e 6e f9 65 be cb bd e1 bd
       -0.11439519 0.13406827 -0.22458431 -0.11022528
000020 be 3d 19 3d 6e 9b 68 3d 1a b9 13 3e 41 a4 a3 bc
       0.037412398 0.056788854 0.1442608 -0.019975783
000030 74 94 fb bb e9 5b 3d bd 65 14 ef 3d 71 b5 09 be
       -0.007677609 -0.04623023 0.11673812 -0.1344812
000040 9d 8e 2a be 31 63 42 bd e4 a7 1a 3d 9a 47 d9 bc
       -0.16655965 -0.047457878 0.03775777 -0.0265234
000050 1a 99 00 3e 8c 72 bb 3d 5c 16 cf 3d 66 f0 7a 3e
       0.12558404 0.091527075 0.101116866 0.24505767
000060 ff d1 f7 bd c4 65 b4 ba 7b 48 dc bd fb 68 23 be
       -0.121006005 -0.0013763239 -0.10756012 -0.15958016
000070 57 c0 66 3d 35 bc a5 bd 1f b5 1c be 51 02 3f be
       0.056335773 -0.08092538 -0.15303467 -0.18653227
000080 a1 17 2b be ff 24 09 3f e4 bf e5 3e 36 fe e0 3e
       -0.16708232 0.53572077 0.44872963 0.43943948
000090 23 ba e3 bd 5e 9d e4 3d 1b 48 91 be e0 d5 64 be
       -0.11119487 0.11162828 -0.28375325 -0.22347212
0000a0 79 c3 20 3e 6f 33 c8 bd bb 25 92 3d 5f 8f 2b 3d
       0.15699567 -0.09775435 0.07136103 0.041884776
0000b0 5e ac 33 be bd e4 65 3e e8 47 38 bc da b0 18 3e
       -0.17546222 0.22450538 -0.011247613 0.14911214
0000c0 8a 4f 61 3d 0a 30 e6 bd 7d 22 6b bd c8 78 b6 3d
       0.055007495 -0.112396315 -0.057405937 0.08909756
0000d0 db f6 6a 3e 6b 51 56 3d 2a e8 fa 3d 12 2c d8 bc
       0.2294573 0.05232374 0.12251313 -0.026388202
0000e0 6f 85 f2 bd 86 0a 27 3d fe 8c 08 bc 79 b8 21 bd
       -0.11841857 0.04078152 -0.008334396 -0.039482567
0000f0 45 c8 e8 3c 9a 35 82 bd 2b f8 d3 bd 9a 0c cc bc
       0.028415808 -0.0635788 -0.10350069 -0.024908353
000100 1c 4d 8e 3b ee eb 82 be 29 d5 a2 3d 85 13 34 3e
       0.0043426882 -0.25570625 0.07950813 0.17585571
000110 84 b1 e2 bd fb b7 bd bb f3 e0 c5 3d 1c 17 44 3d
       -0.11069015 -0.0057897544 0.09662046 0.0478736
000120 6d 8d c5 3c ce 54 38 be 82 4a 11 3f 9e 29 17 be
       0.024115289 -0.180011 0.56754315 -0.1476197
000130 f4 3a 56 3d c6 5b 56 3e a9 3a 80 be b7 13 65 3e
       0.052302316 0.20933446 -0.25044754 0.22370802
000140 d5 7f 2d 3e d8 86 5c be 59 7f cc bd 2a 9a 3f be
       0.16943295 -0.21535814 -0.09985227 -0.18711153
000150 8b 71 31 be 5a 39 9b be 2a b7 6e be 9a 9f 97 be
       -0.1732847 -0.30317193 -0.23312059 -0.29613954
000160 e6 d5 1a be de 8c e6 bd ed 3d 3f 3e e4 7b 59 be
       -0.15120658 -0.11257337 0.18675967 -0.21238667
000170 b4 66 e1 bd 0c d5 bd 3d 5c 80 a8 bd b1 03 33 3e
       -0.11005917 0.09269151 -0.082276076 0.17481877
000180 42 0b 79 ba fa c8 6e be d5 88 47 3e 7f 05 44 bd
       -0.0009500274 -0.23318854 0.19485791 -0.047856804
000190 50 c1 b0 bb 67 e2 2b bd 58 b8 77 bb c9 fe 85 3d
       -0.0053941384 -0.04196396 -0.0037799086 0.06542737
0001a0 05 c8 2c 3d 17 93 38 3e 8c a1 d4 3c 42 08 d6 3d
       0.04218294 0.1802486 0.025955938 0.10450794
0001b0 4d 4b a3 bd f7 ed de bd 76 45 2a bd dd 6a 23 3e
       -0.07973347 -0.10885232 -0.04157015 0.15958734
0001c0 31 24 03 be 05 a5 02 3d f2 bb f4 3d 57 2b 59 be
       -0.12806775 0.031895656 0.1194991 -0.21207939
0001d0 81 0a 5f 3a 7e 50 87 bd e3 a8 b2 bc b0 b9 80 bd
       0.000850834 -0.066071495 -0.021809047 -0.06285417
0001e0 49 16 b1 bd 81 e5 0f 3e 5f 02 b5 bd 77 93 95 be
       -0.08646829 0.14052393 -0.08838343 -0.2921407
0001f0 c6 de f5 bd 7e e4 66 be ae 9a bf bd c7 60 f7 bd
       -0.12005381 -0.225481 -0.09355675 -0.12079006
000200 73 86 f8 bc 07 c7 a6 be 43 6e be bd bb 4c da bd
       -0.030337548 -0.3257372 -0.092983745 -0.106591664
000210 b0 01 9d be 3f a5 86 be 4b c1 6a be b1 14 2f be
       -0.3066535 -0.26297948 -0.22925298 -0.17097737
000220 dd 33 43 3d 2e 12 6f bd 67 ff a6 3b 3e 5e 34 3e
       0.047656883 -0.058366947 0.0050963643 0.17614076
000230 d7 21 a9 3d f3 61 8f be d6 f8 27 3e e9 7d 8a bd
       0.082584076 -0.28004417 0.16403517 -0.06762297
000240 47 c3 33 be d9 2f a3 bc 53 0b 6a be 82 41 fc 3d
       -0.17554961 -0.019920276 -0.22855882 0.12317182
000250 28 cd bd 3d 1e 53 d2 3d b9 24 31 3e 40 1e 9f 3d
       0.09267646 0.102697596 0.17299165 0.077694416
000260 c3 8c ec 3d d3 94 96 bd 4e c5 b8 3e 99 80 c8 3e
       0.11550286 -0.07352605 0.36088032 0.39160612
000270 8a cd 46 be ee ae 7a be aa 06 56 be 93 37 cf 3d
       -0.19414344 -0.24480793 -0.2090098 0.10118022
000280 3e da 15 be 1d 5a 54 3d 22 f9 2b bd 51 de fe 3d
       -0.14634034 0.05184375 -0.04198564 0.12444747
000290 e7 94 ac 3d 06 8c b0 bd c7 1b 8b bd 07 12 36 be
       0.08426838 -0.08620457 -0.067924075 -0.17780314
0002a0 dc f0 d2 bb e7 41 a5 bc 84 67 97 bc f9 e3 fc 3d
       -0.006437404 -0.020173026 -0.018481977 0.1234817
0002b0 63 76 aa bd ac 49 50 3e ac f4 d1 bd 0a 48 be bd
       -0.08323362 0.20340604 -0.102517456 -0.09291084
0002c0 80 6f a6 3e 4d eb 35 be 78 80 63 be 77 d7 2c be
       0.32506943 -0.17765541 -0.22216976 -0.16879068
0002d0 3a f9 46 bd f0 d5 40 3e 6e c6 02 3d fc d3 b9 bd
       -0.048577525 0.1883161 0.03192752 -0.09073636
0002e0 5a c6 25 3e d8 f0 9e 3e 07 14 7b bc ea fc 20 be
       0.16188946 0.31043124 -0.015324599 -0.15721479
0002f0 19 e3 93 3c db a6 9e 3e 12 e9 f3 3c 1c 79 d6 bd
       0.018052625 0.30986676 0.029774223 -0.104723185
000300 d8 fe f8 bd ff 78 78 3e 2e 26 68 be 2c a7 fc 3d
       -0.121579826 0.24264906 -0.22670814 0.12336573
000310 7e f0 12 3d 9e a9 d3 bd a5 fc 6a 3e b2 46 6c 3e
       0.035873882 -0.10335086 0.22947939 0.23073843
000320 7f ff 38 3d 0f 52 ff bd 5f bf 5c be 74 e3 4e 3d
       0.045165535 -0.12466823 -0.21557377 0.050509885
000330 44 d6 0f be 1e 91 bd be 02 5b e0 3d c9 dd b3 bd
       -0.1404658 -0.37024778 0.10954858 -0.087825365
000340 59 55 70 be 5c 8f 22 3e c1 e7 b0 bd 59 0c 87 bd
       -0.23470058 0.15875 -0.086379535 -0.06594152
000350 bc 6a 4d 3e 5a 95 f7 3d a4 f2 36 be 9e 02 e0 3d
       0.20060247 0.120890334 -0.17865998 0.10937999
000360 fc f3 45 3d f2 a8 70 3d 27 6f 85 be 8b d8 b2 bc
       0.048328385 0.05875487 -0.26061365 -0.021831771
000370 8a 07 ce 3d e7 69 a2 3d 4e 3c 02 be dc 58 06 bd
       0.10060032 0.079303555 -0.12718317 -0.032799587
000380 f4 28 ad 3e 5b 5e fc 3c 55 ae 46 be 7f 0d da be
       0.33820307 0.030806711 -0.1940244 -0.42588422
000390 80 2b 23 bd 57 13 5b 3d a0 ed 9a 3d c9 f5 be bb
       -0.039836407 0.05348524 0.075648546 -0.0058276397
0003a0 d3 c8 5d bd ca e2 b6 bd 9c 8b 7e bd 1f 3b d2 3c
       -0.0541466 -0.08929975 -0.06214486 0.025662957
0003b0 9f 76 90 3e 1e 76 33 be ec 96 3f be cc 96 06 3e
       0.282155 -0.17525527 -0.18709916 0.13143462
0003c0 d4 90 f1 3c f9 e3 56 be 68 96 00 bd 46 89 3a bb
       0.029488005 -0.20985402 -0.03139344 -0.002846317
0003d0 cd 3e 83 be 21 97 d4 bd d2 a7 de bd 24 bf 95 3d
       -0.2563385 -0.10380388 -0.10871853 0.07311848
0003e0 7d 4e fb bc 2c ae 42 3d 25 8e 56 3e bb e5 cb 3e
       -0.030677075 0.047529384 0.20952661 0.39823708
0003f0 67 f4 3e be 33 31 28 be f0 c2 9e 3e 7b 69 f9 3d
       -0.1864792 -0.16425018 0.310081 0.12178322

module.residual_layers.0.1.bn1.weight f4 [16]
000000 c7 bd 26 3f 1d ac 42 3f df 38 1c 3f 3e 71 18 3f
       0.6513333 0.76043874 0.6102428 0.59547794
000010 e8 44 78 3f 7d 1e 3d 3f 69 d1 52 3f 05 33 45 3f
       0.9698014 0.73874646 0.82350785 0.77030975
000020 f4 54 20 3f cb 73 e9 3e 56 74 5e 3f 3b ce 5d 3f
       0.6262963 0.45596156 0.86896265 0.8664281
000030 33 c1 5d 3f 33 16 47 3f 56 4c 52 3f 94 f2 37 3f
       0.86622924 0.7776825 0.8214773 0.7185452

module.residual_layers.0.1.bn1.bias f4 [16]
000000 de 59 57 3d d3 8a 9c be ee ac e6 3e 67 a3 a3 be
       0.05257594 -0.30574664 0.4505381 -0.31960604
000010 53 df 59 be 51 c4 7e be 7f 66 ee be 5d a3 85 be
       -0.21276598 -0.24879576 -0.46562573 -0.261012
000020 da 64 bc 3d 81 35 82 3e a2 e1 16 be ae 1b cf be
       0.091989234 0.25431445 -0.1473451 -0.40450805
000030 b6 8c 10 be cd a7 df be d4 03 26 be 5a 37 43 be
       -0.14116177 -0.4368271 -0.16212398 -0.19064084

module.residual_layers.0.1.bn1.running_mean f4 [16]
000000 14 d0 25 bf 5a 8b 84 bd 7a e0 be be bc 2b f8 3d
       -0.6477063 -0.06471892 -0.37280637 0.12117717
000010 41 dc b7 bd 37 57 8c bd a0 35 ad bf 2c 18 10 bd
       -0.08977557 -0.068525724 -1.353199 -0.035179302
000020 87 e9 5f bf 6a 42 86 3e d7 c7 24 bf ff a6 f8 bf
       -0.8746571 0.26222545 -0.6436743 -1.9425963
000030 b4 01 26 be 52 3e 22 bf de 2c 45 3f 20 c8 2c bf
       -0.16211587 -0.63376343 0.77021587 -0.67492867

module.residual_layers.0.1.bn1.running_var f4 [16]
000000 f3 a7 96 3f 72 ad 7d 3f d4 1c c7 3f f1 e6 54 3f
       1.1770004 0.9909278 1.5555673 0.8316489
000010 2f f6 1a 40 ac 3b 69 3f 84 5a a6 3f 39 77 da 3f
       2.4212759 0.9110668 1.2996373 1.7067634
000020 62 54 de 3f da cb 8f 3f 59 d0 14 40 d2 c0 b6 3f
       1.7369502 1.1234086 2.3252165 1.4277594
000030 d9 96 44 40 1b 44 5d 3f 94 dc b7 3f eb 22 11 40
       3.071707 0.86432046 1.436419 2.2677562

module.residual_layers.0.1.conv2.weight f4 [16, 16, 3, 3]
000000 20 a5 71 be c4 b0 7d be 55 e6 11 be 02 4d 1b 3d
       -0.23598146 -0.24774462 -0.14248021 0.037915237
000010 06 bf 3d 3d a7 8b ed bd 51 a5 4f be 66 a4 cd be
       0.046324752 -0.11598902 -0.20277907 -0.4016449
000020 af 90 c7 be 87 95 f8 bd e5 75 5a be bb d5 1e be
       -0.38977572 -0.12137895 -0.21334036 -0.15511219
000030 67 06 05 3d 4e 33 cb bc 9c 61 78 3d 15 0a 45 3e
       0.03247681 -0.024804737 0.060639963 0.19242127
000040 36 57 6c 3d 07 7b 16 bd 01 80 b1 be 4e cd 1d 3d
       0.05770036 -0.03673842 -0.34667972 0.038525872
000050 dc 8a 83 be 11 d1 4a be 99 14 8c 3d 81 62 95 3b
       -0.2569188 -0.19806315 0.06839866 0.0045588617
000060 9c 89 3e be 39 c0 81 bd 65 79 3e 3b 8a 68 4e be
       -0.18607181 -0.06335492 0.0029064056 -0.20157066
000070 4e 6f 96 bd 8a 29 2e be cc 61 1e be cb dd 25 be
       -0.073454484 -0.17008033 -0.15466994 -0.16197889
000080 f9 ed ad bd ad e6 74 3d b9 94 42 bd a2 90 90 3d
       -0.08492655 0.059790302 -0.047505114 0.070588365
000090 48 76 26 be 4a 6c 0d be 9c 88 01 be bf b0 16 3d
       -0.16256058 -0.1381084 -0.12649769 0.036789652
0000a0 9f 16 74 3d b6 64 bc 3c 43 43 5b 3e b8 49 e4 3d
       0.059591886 0.022997241 0.21412377 0.11146873
0000b0 54 30 9c bc e1 85 8e be 28 d1 95 be f9 8a 8b be
       -0.019066013 -0.27836516 -0.29261136 -0.27254465
0000c0 b8 72 4c be 38 d1 06 be 24 86 fc be 99 81 f8 bc
       -0.19965637 -0.13165748 -0.4932109 -0.030335234
0000d0 c2 82 dc 3c 3f d4 e1 bd e7 e5 b1 bd 91 1f 2a be
       0.026917819 -0.11026811 -0.086864285 -0.16613604
0000e0 07 6d 54 bd 76 44 5a 3e 80 fa c3 bc ab 2d 53 bd
       -0.05186179 0.21315178 -0.023923159 -0.051557224
0000f0 5e 27 25 be ca 7d c2 bd 52 d7 3e be f3 3a 8f bd
       -0.16128299 -0.094966486 -0.18636826 -0.069936655
000100 d6 d6 14 be d4 55 15 3c 23 eb 36 be e9 13 db bd
       -0.14535078 0.009114701 -0.17863135 -0.10697157
000110 a4 83 0b bd e1 32 bf bd f6 3d 9c be ff df 6b be
       -0.03406109 -0.09335876 -0.30516022 -0.23034666
000120 97 33 f5 be 58 47 33 3e 49 76 43 3e 1f d0 bd be
       -0.47890922 0.17507684 0.19088091 -0.37072846
000130 19 40 b7 bc 39 ba 6f 3e 48 a5 c9 be 78 86 0a be
       -0.022369431 0.23410882 -0.39383912 -0.13527858
000140 e0 fc 82 3d 23 be 48 3e 28 c6 94 3e 0f 11 dc 3c
       0.06395888 0.19603781 0.2905743 0.026863603
000150 5b f6 03 3c db 6d 2f 3d bb 55 23 3e a1 da a1 3e
       0.008054341 0.042829376 0.15950672 0.31612113
000160 f5 df 87 3e 31 c0 a1 3e 8f 9a 51 bd e1 17 53 be
       0.26538053 0.31591943 -0.05117279 -0.20614578
000170 54 bd 64 be 69 fc 54 3c 4e 8a 7b bb e0 b6 35 bd
       -0.22337848 0.012999632 -0.0038381997 -0.044363856
000180 f3 75 1e 3e 6e 21 91 3d 98 34 0f 3e df d0 1e be
       0.15474682 0.07086454 0.13984907 -0.15509365
000190 cb 94 dc 3d 00 12 23 3e ed 39 d9 bc 3f 50 b9 3d
       0.107705675 0.15924835 -0.026516879 0.09048509
0001a0 1c 39 e5 3d 7a b5 0c be ea 1d b1 3d 65 f7 61 3d
       0.111925334 -0.13741103 0.08648284 0.055167574
0001b0 79 86 84 be db 37 ed bd d4 69 fd bd 63 bf 62 bc
       -0.25883844 -0.11582919 -0.12373701 -0.013839575
0001c0 66 b1 28 3c 7f 59 64 3c 95 ad 03 3e 44 0f 91 3e
       0.010296201 0.013937353 0.12859185 0.2833196
0001d0 90 ae 1f 3d 26 33 21 be 89 76 15 3e ec 1f 90 bc
       0.038984835 -0.15742168 0.14595999 -0.017593347
0001e0 f0 1a f4 3c a5 9a 0c 3e cd a5 67 3e 5c 66 ba 3c
       0.029798001 0.13730867 0.22621842 0.022753887
0001f0 23 b2 84 3e 9e ee ee 3c e7 14 ed 3d 51 23 a2 3d
       0.25917158 0.029166516 0.115762524 0.07916892
000200 2d b9 cf 3c d3 62 41 3e 25 ce 0f bd 3f b7 3a 3d
       0.025356853 0.18885355 -0.035108704 0.045584913
000210 61 ac 37 3e 57 50 30 bd 06 28 2f be 53 c7 fa bd
       0.17936851 -0.043045368 -0.17105111 -0.12245049
000220 9a bd 10 bd 48 19 c9 3d 6b 60 99 3d 4c 6e ee bc
       -0.03533707 0.09819275 0.074890934 -0.029105328
000230 96 b9 c8 3d 61 63 06 3e b7 a3 76 bd 2b 99 e9 3d
       0.09801023 0.13123848 -0.060214724 0.114061676
000240 c8 30 e8 3c 44 59 ad 3e c6 9c d0 3d 55 76 f7 ba
       0.028343573 0.33857167 0.10186152 -0.001887987
000250 37 11 2c 3e b5 c2 83 3e 69 66 72 be 70 60 23 be
       0.16803442 0.25734487 -0.23671879 -0.15954757
000260 08 38 f3 bd 3c 5d 9d bd d1 08 57 3d 84 22 e9 bc
       -0.118759215 -0.07683799 0.052498642 -0.028458841
000270 10 37 7a 3d fe 9c 92 3c bf f0 26 be 4d f7 34 be
       0.061087668 0.017897125 -0.16302775 -0.17672463
000280 d4 f9 53 bd dc 62 53 bd 0a 51 ea 3e d1 67 0b 3e
       -0.051751927 -0.05160795 0.45764953 0.13613822
000290 3f 08 db 3e d2 7d ef bc 20 bc ff bd 71 66 31 3d
       0.4277973 -0.0292348 -0.12487054 0.043310586
0002a0 4a a9 2b 3b dd d6 1f be 14 83 57 bd 52 d8 9d bd
       0.0026193433 -0.15609308 -0.05261524 -0.077072755
0002b0 a9 5c 77 bd c3 ed 1a be 57 4b e4 bd 1c 5c 25 be
       -0.060391102 -0.15129761 -0.111471824 -0.16148418
0002c0 cd ea 3a be 8c a9 dd bb a2 b9 e2 bd 06 9a 06 be
       -0.18253632 -0.0067645963 -0.11070563 -0.13144693
0002d0 d9 70 8c 3c d7 a0 d3 bd 2d 46 77 bd 2e 1f 36 be
       0.017143654 -0.10333412 -0.06036966 -0.17785332
0002e0 b6 e0 78 3c 49 2f 8f bd cf 35 b8 3d fb c3 c5 3e
       0.015190294 -0.06991441 0.08994638 0.38626084
0002f0 82 77 63 3e 14 e9 51 be 45 71 80 bb e3 98 77 bd
       0.22213557 -0.20499068 -0.003919753 -0.06044854
000300 78 16 13 be 9a 3d a7 3d e8 46 b9 bd 92 99 a6 bd
       -0.1436404 0.081660464 -0.090467274 -0.0813476
000310 16 a9 7d 3e 1a 3e 01 3e fe c6 5a 3d fe 0c 2f 3e
       0.24771532 0.12621346 0.05341243 0.170948
000320 29 02 3b 3e f2 d9 91 3d a7 1a 9a 3e f4 42 12 3e
       0.18262543 0.07121648 0.3009846 0.14283353
000330 b7 32 8d 3e ce 49 39 3e 3f 60 63 3e f3 a8 6a 3e
       0.27577755 0.1809456 0.22204684 0.22916012
000340 a4 87 c7 3b 5d 06 26 be 6f aa bb 3d 57 1c 85 bc
       0.0060891677 -0.16213365 0.09163367 -0.016248865
000350 9b b4 f0 bd d8 ff 04 bd a9 58 c6 bd ca 84 90 3d
       -0.11753198 -0.032470554 -0.09684879 0.070565775
000360 25 2e 31 3e a5 8d 5a 3e be 2e 5f 3e a1 b1 12 3e
       0.17302759 0.21343096 0.21795174 0.14325573
000370 49 7e 5d bb 5b be f5 bc 02 8d 2b bc a9 c7 28 bd
       -0.0033797196 -0.029997995 -0.010470631 -0.041206036
000380 59 7c 9b bd 24 24 5e 3e 3c c6 f7 bc 72 cb 3e bd
       -0.07592077 0.21693474 -0.030245893 -0.04658074
000390 08 49 36 3e 26 06 52 3c 70 e4 3f bd 06 94 3f 3e
       0.17801297 0.012818849 -0.046848714 0.1870881
0003a0 8c 37 8a 3e 1b 41 ea 3d 93 97 a6 be fa 8b 87 be
       0.26995504 0.11438199 -0.32537517 -0.2647398
0003b0 6b 7d 52 be b0 40 0b be 71 53 5b be c8 61 8a 3c
       -0.20555656 -0.13598895 -0.21418549 0.016892329
0003c0 91 4e 4c bd 38 82 3c bc ca 9a b7 3d 61 c5 41 be
       -0.049879614 -0.011505656 0.089650705 -0.1892295
0003d0 56 7a 28 be 72 0c 89 bc 13 d0 a5 be fb a4 a7 bd
       -0.16452917 -0.016729567 -0.3238531 -0.081857644
0003e0 ca 27 15 3e a4 1d 8a bd 9c 3f 2e 3e 7b b3 aa 3e
       0.1456596 -0.06743935 0.17016453 0.33340058
0003f0 8a a7 dc bd 2e 82 5d be 9f c4 08 be a6 e1 52 3c
       -0.10774143 -0.21631691 -0.13356255 0.012871182

module.residual_layers.0.1.bn2.weight f4 [16]
000000 f9 fe 79 3f 31 fe 7b 3f 63 a8 7b 3f 93 0e 94 3f
       0.9765468 0.9843474 0.9830381 1.1566948
000010 dd 50 79 3f 47 dc 37 3f 39 0c 6f 3f 00 68 08 3f
       0.9738901 0.7182049 0.93378025 0.5328369
000020 e6 90 33 3f 9c e9 3d 3f a5 f6 89 3f d8 9c 88 3f
       0.7014297 0.74184585 1.0778395 1.0672865
000030 36 ec 80 3f 74 99 7e 3f 57 9d 36 3f 1b 4c 8f 3f
       1.0072086 0.994529 0.7133383 1.11951

module.residual_layers.0.1.bn2.bias f4 [16]
000000 09 18 7f 3e 23 d3 a3 bd c9 a1 12 be 36 6c 71 be
       0.24911512 -0.079992555 -0.14319529 -0.23576435
000010 4e fa 0e 3e d4 f6 25 3d d1 55 4f bd ec 31 83 bd
       0.13962671 0.040518597 -0.05061895 -0.06406006
000020 d4 e9 0c 3f 95 22 87 3e c5 f0 5e 3d d1 d7 3b bf
       0.55044293 0.26393571 0.054428834 -0.73376185
000030 c4 95 da 3e b8 06 ff 3b d0 a8 56 be 32 b3 1d bf
       0.42692387 0.0077827834 -0.20962834 -0.61601555

module.residual_layers.0.1.bn2.running_mean f4 [16]
000000 84 ab 8f bf db fc 55 3f 61 88 dc be cb bc 80 3e
       -1.1224217 0.8358895 -0.430728 0.25144038
000010 a6 8f af 3e db c3 5f 3f d8 e6 89 bf 45 5e 63 bf
       0.34289283 0.87408227 -1.0773573 -0.8881572
000020 07 b6 8d 3d 39 ca df 3c db 72 95 bf b7 8b 42 be
       0.069194846 0.027318107 -1.1675676 -0.1899861
000030 65 4e 72 be 28 76 bf bf 2a bf ed 3e 81 76 54 bf
       -0.23662718 -1.4957933 0.4643491 -0.8299332

module.residual_layers.0.1.bn2.running_var f4 [16]
000000 8d 18 b3 3f 4b cf 6b 3f 9a f1 77 3f 0d 25 55 3f
       1.3991867 0.9211318 0.9685303 0.8325966
000010 98 0a 93 3f ea b0 17 3f 2c da 33 3f 19 ed 1f 3f
       1.1487608 0.59254324 0.7025478 0.6247116
000020 28 86 2e 3f d9 18 49 3f c5 ea a5 3f 84 73 3f 3f
       0.68173456 0.7855354 1.2962271 0.7478564
000030 48 f0 52 3f 8d 05 5e 3f 01 4f 07 3f d9 38 44 3f
       0.8239789 0.8672722 0.52854925 0.7664924
