summaries/vanilla_ResNet2_num_blocks2x1_num_channels16_conv3/ckpt.pth (torch, 117839 bytes, 42 tensors)

module.conv1.weight f4 [16, 3, 3, 3]
-0.3336345 -0.4138924 -0.2557193 -0.1247718 -0.3026599 0.51772094 0.44174835 0.31636754
-0.10054913 0.11800623 0.17614628 0.27953613 -0.21951313 -0.18055998 0.9141993 -0.15619221
-0.16812198 -0.27736434 0.08403644 0.08141644 -0.06789332 -0.20677589 -0.36584815 0.48221236
-0.11521966 -0.1336565 -0.1511942 -0.012514499 -0.2224589 0.096682936 -0.13404217 -0.35680246
-0.1522845 -0.28000402 -0.5608889 -0.07975287 0.2881161 0.17567568 0.15540549 0.1536623
0.19261397 -0.06460615 -0.017295886 -0.067861505 0.014799622 -0.20207053 -0.16793123 -0.2928621
0.13990153 0.45675668 -0.017376019 0.41300792 0.45830116 0.14240116 0.09426713 -0.030186828
0.06993004 0.22019038 -0.055013143 -0.014812715 0.12238631 -0.30934066 -0.4097775 0.021112358
0.0558764 -0.06842524 -0.03839012 -0.16655639 -0.2047645 -0.09760561 -0.2656984 -0.436277
0.06700894 0.20822378 0.041589774 0.07391344 0.026357802 0.042151015 -0.009382372 0.019144367
-0.026320279 -0.059602045 0.21695651 0.38900498 -0.66106856 -0.7008554 0.5163304 -0.2583599
0.34100083 0.3398567 0.21090022 0.2066101 -0.13945167 -0.08460917 -0.67395073 -0.11767165
0.34093854 0.44618937 -0.16268685 0.11175089 0.40924293 -0.17732972 -0.044956077 -0.42766783
-0.13850673 0.10021986 0.15383668 -0.1056547 7.719236e-10 7.647692e-11 6.985769e-10 7.99624e-10
6.918698e-10 1.3754804e-10 5.548719e-10 7.151579e-11 4.7417853e-10 -2.2567663e-10 1.8205905e-10 1.38751e-10
4.916703e-10 5.827848e-10 -3.5322384e-10 3.3195746e-10 3.903817e-10 6.275804e-11 7.0073297e-10 1.1662733e-10
3.3400546e-10 4.0822118e-10 -1.8599046e-10 -5.634461e-10 4.800582e-10 -4.795191e-10 -1.9638983e-11 -0.09216669
0.02229839 0.2187556 0.21008112 0.31237173 0.07519113 -0.04286388 0.02144596 0.071259625
-0.20524769 -0.31220952 -0.05993106 0.06213827 -0.0067058336 -0.18084742 -0.091261856 -0.06533069
-0.03126146 0.11041001 -0.18214649 0.044538457 0.02609283 -0.35453668 -0.2871885 -0.003250458
-0.21151136 0.040644743 -2.5107562e-07 -2.9722875e-07 -2.9005906e-07 -1.496327e-07 -9.657732e-08 5.4908107e-08
2.3098863e-07 4.4849827e-07 4.1530694e-07 1.3019199e-07 4.9467527e-08 -1.7244055e-08 -2.3082109e-07 -2.2759346e-07
-7.2986744e-08 -4.4466733e-09 8.1866226e-08 6.434559e-08 2.562085e-07 2.5917748e-07 2.8726018e-07 -3.679162e-07
-4.1317813e-07 -1.8979468e-07 -3.97081e-07 -4.5769116e-07 -4.2180815e-07 -0.06482512 -0.059748422 0.033003066
-0.3093181 -0.17910981 -0.24423462 -0.12349358 -0.0054612616 0.0032073965 0.001209993 0.202413
0.036676828 -0.38631517 0.026308758 -0.26619098 -0.06506998 0.034893256 -0.12148 0.25607595
0.4559972 0.1831105 0.022835264 0.44252855 0.103968844 0.07138303 0.02310671 -0.11731607
0.048445392 0.19459106 0.0645289 -0.053906295 0.08674899 -0.061103474 -0.121329606 0.1083522
0.017131463 0.009377191 0.28009954 0.13347629 -0.051232085 0.11508325 -0.024323817 -0.111520894
0.06817984 -0.00860547 0.09501886 0.26261047 -0.07268769 0.0837602 0.1003753 -0.25583264
0.11953404 0.12944995 -0.2176242 0.31163687 0.5709857 0.3663832 0.023699405 0.0836657
-0.15536322 -0.48143107 -0.4944472 -0.3641777 -0.046614528 0.39497584 0.053884268 -0.02720313
00000000: 24d2 aabe b4e9 d3be a4ed 82be 5c88 ffbd
00000010: 3df6 9abe 5c89 043f d72c e23e edfa a13e
00000020: b4ec cdbd 40ad f13d b15f 343e 5c1f 8f3e
00000030: 0dc8 60be b7e4 38be f708 6a3f daf0 1fbe
00000040: 2b28 2cbe b302 8ebe 4c1b ac3d aabd a63d
00000050: a70b 8bbd 0fbd 53be 7350 bbbe 8ae4 f63e
00000060: 49f8 ebbd 40dd 08be a7d2 1abe 9d09 4dbc
00000070: 44cc 63be b401 c63d 5a42 09be d0ae b6be
00000080: 78f0 1bbe b05c 8fbe 6a96 0fbf 7955 a3bd
00000090: f483 933e 53e4 333e 9e22 1f3e a659 1d3e
000000a0: 993c 453e 3b50 84bd 1ab0 8dbc f9fa 8abd
000000b0: 1d7a 723c 94eb 4ebe 2af6 2bbe 05f2 95be
000000c0: 5942 0f3e 03dc e93e 2758 8ebc c675 d33e
000000d0: 73a6 ea3e 9cd1 113e 200f c13d 5e4a f7bc
000000e0: 7b37 8f3d 9679 613e 7655 61bd 08b1 72bc
000000f0: aca5 fa3d e661 9ebe 5bce d1be d3f3 ac3c
00000100: a7de 643d 8822 8cbd f53e 1dbd c28d 2abe
00000110: c9ad 51be 73e5 c7bd 9f09 88be b35f dfbe
00000120: fc3b 893d 9d38 553e 0a5a 2a3d ee5f 973d
00000130: 51ec d73c 8ba6 2c3d 85b8 19bc a6d4 9c3c
00000140: a09d d7bc 4621 74bd d929 5e3e a92b c73e
00000150: ca3b 29bf 426b 33bf 3b2e 043f c047 84be
00000160: a997 ae3e b301 ae3e 3af6 573e 9991 533e
00000170: 6bcc 0ebe 9347 adbd 0988 2cbf d6fd f0bd
00000180: 7f8f ae3e ef72 e43e 6297 26be a7dd e43d
00000190: 4a88 d13e ec95 35be dd23 38bd 47f7 dabe
000001a0: b5d4 0dbe 1240 cd3d 5d87 1d3e 7e61 d8bd
000001b0: 4b2f 5430 ae2c a82e fb05 4030 89cc 5b30
000001c0: 022e 3e30 553c 172f a485 1830 d043 9d2e
000001d0: 5957 0230 5322 78af 112d 482f ef8e 182f
000001e0: 3926 0730 d631 2030 d62f c2af dc7e b62f
000001f0: 579d d62f a301 8a2e b39d 4030 ad3b 002f
00000200: 179f b72f 066c e02f a97f 4caf ffe0 1ab0
00000210: 18f5 0330 28cf 03b0 0fbf acad e4c1 bcbd
00000220: 1dab b63c 7801 603e 811f 573e 30ef 9f3e
00000230: cffd 993d 0992 2fbd 70af af3c 91f0 913d
00000240: 732c 52be edd9 9fbe 457a 75bd b384 7e3d
00000250: 9cbc dbbb 1130 39be 7fe7 babd 19cc 85bd
00000260: 040c 00bd a51e e23d 9c84 3abe f56d 363d
00000270: a1c0 d53c d585 b5be 5f0a 93be a305 55bb
00000280: 6f96 58be 1a7b 263d 92cb 86b4 cf92 9fb4
00000290: 6ab9 9bb4 b9aa 20b4 f165 cfb3 1ad4 6b33
000002a0: ac05 7834 22c9 f034 5af7 de34 e7ca 0b34
000002b0: 1f76 5433 1420 94b2 9ed7 77b4 6a60 74b4
000002c0: e3bc 9cb3 5ac9 98b1 6fce af33 5d2e 8a33
000002d0: 078d 8934 1525 8b34 bd38 9a34 0486 c5b4
000002e0: c5d2 ddb4 5dca 4bb4 662e d5b4 98b8 f5b4
000002f0: df74 e2b4 08c3 84bd c3ba 74bd 392e 073d
00000300: f15e 9ebe 9068 37be a418 7abe 34ea fcbd
00000310: 62f4 b2bb 2f33 523b a198 9e3a 5a45 4f3e
00000320: 713a 163d 1acb c5be 7785 d73c 2f4a 88be
00000330: 6943 85bd 3bec 0e3d 82ca f8bd 631c 833e
00000340: 7778 e93e 5281 3b3e 0511 bb3c 1a93 e23e
00000350: 9eed d43d 4431 923d 484a bd3c 6843 f0bd
00000360: ad6e 463d e142 473e ba27 843d d9cc 5cbd
00000370: 74a9 b13d a347 7abd a87b f8bd c2e7 dd3d
00000380: 4857 8c3c caa2 193c 3569 8f3e 02ae 083e
00000390: bcd8 51bd c4b0 eb3d be42 c7bc 1165 e4bd
000003a0: dfa1 8b3d f5fd 0cbc 4099 c23d e174 863e
000003b0: 49dd 94bd 788a ab3d 9191 cd3d 7ffc 82be
000003c0: 43ce f43d 878e 043e e1d8 5ebe de8e 9f3e
000003d0: 1e2c 123f 9496 bb3e 4125 c23c ec58 ab3d
000003e0: 8917 1fbe 227e f6be 2f28 fdbe 8075 babe
000003f0: e0ee 3ebd 463a ca3e c0b5 5c3d 19d9 debc

module.bn1.weight f4 [16]
0.33484343 0.21646132 0.5207131 0.37395227 5.790582e-10 0.29387072 6.072043e-08 0.3279223
0.32920268 0.35713708 -2.8714103e-08 0.32215273 0.38192615 0.31673878 0.35142487 0.2814738
00000000: 9970 ab3e 09a8 5d3e 744d 053f ac76 bf3e
00000010: 992b 1f30 3976 963e 6965 8233 6fe5 a73e
00000020: 418d a83e acda b63e fba6 f6b2 34f1 a43e
00000030: d38b c33e 962b a23e f6ed b33e 551d 903e

module.bn1.bias f4 [16]
0.19138148 0.17305999 -0.33088547 0.19299386 -1.7564845e-09 -0.053648397 -5.7923916e-07 -0.06967643
-0.20028776 0.06317924 -2.93892e-06 0.51449025 0.19267657 0.008049683 0.20854829 0.063070305
00000000: 82f9 433e a336 313e d269 a9be 2fa0 453e
00000010: ce68 f1b0 6cbe 5bbd 037d 1bb5 84b2 8ebd
00000020: 3c18 4dbe 1e64 813d 433a 45b6 a2b5 033f
00000030: 024d 453e d1e2 033c af8d 553e 012b 813d

module.bn1.running_mean f4 [16]
-0.06578881 -0.017270677 -0.50911117 -0.020530669 3.0757352e-09 -0.3901315 -7.1020236e-07 -0.073828325
0.43830788 -0.06390097 -4.2233514e-06 -0.04246577 -0.05968669 -0.0012451777 -0.042827796 -0.063454054
00000000: 49bc 86bd 3c7b 8dbc 1c55 02bf ef2f a8bc
00000010: e85c 5331 51bf c7be bca4 3eb5 4e33 97bd
00000020: e469 e03e 83de 82bd 50b6 8db6 96f0 2dbd
00000030: 087a 74bd 3b35 a3ba 336c 2fbd 33f4 81bd

module.bn1.running_var f4 [16]
0.049597796 0.050240416 0.110090226 0.053032678 2.2507578e-18 0.06359231 1.7036864e-13 0.06423064
0.06252735 0.13991606 5.4023543e-12 0.030091211 0.2644266 0.071008876 0.23469852 0.055791337
00000000: 0f27 4b3d e5c8 4d3d fc76 e13d cb38 593d
00000010: 9d13 2622 af3c 823d 6bd1 3f2a 5b8b 833d
00000020: 570e 803d 2846 0f3e 1514 be2c d881 f63c
00000030: ec62 873e 1a6d 913d cf54 703e 7585 643d

module.residual_layers.0.0.conv1.weight f4 [16, 16, 3, 3]
-0.084942974 0.029281586 -0.07463627 -0.06418097 0.2063406 -0.074242346 0.05028012 -0.08909506
0.09345138 -0.34828642 -0.13534184 0.3200935 -0.24790584 0.038110532 0.4243684 -0.1026916
0.14291736 0.30445462 -0.025139377 -0.3228807 -0.16380751 -0.008680301 0.11011449 0.17033978
-0.10912395 0.10418818 0.15288456 0.10869351 -0.027125526 -0.14780329 0.035805315 -0.33698913
-0.11745875 -0.11739442 -0.2387643 0.26393342 -1.6404153e-10 1.3668067e-10 -8.296477e-12 -2.29638e-10
-1.1310921e-11 1.8194397e-10 1.02783095e-10 7.5648626e-11 -4.9293833e-11 0.37960166 0.13270554 -0.07079328
0.2454913 -0.15224133 -0.2936968 0.09681895 -0.19168405 -0.28122807 -1.0721328e-07 -1.2139495e-07
-3.0478876e-08 -2.7655284e-07 -2.621296e-07 -1.5532709e-07 -9.2396e-08 -1.4222518e-07 -1.13758084e-07 -0.22831528
-0.051124707 -0.040320117 -0.32874113 -0.16441683 0.001983629 -0.02986348 0.1035421 0.28329235
0.21475677 -0.005338891 -0.014890876 0.1599034 -0.20099393 -0.19874987 0.11989233 -0.0047861487
-0.028288703 0.024069944 0.20664717 0.08433745 0.076874346 0.10667566 -0.023933657 0.1244515
-0.019588297 -0.23155399 -1.0643948e-06 -8.2284953e-07 -7.9826697e-07 -1.9155972e-07 1.447693e-07 1.9601824e-11
-9.077695e-08 2.1237442e-07 5.7455303e-08 -0.15558541 0.02106025 0.24129897 0.05335073 0.08041392
0.001834236 0.14460792 -0.04032205 -0.1440452 0.12992424 -0.182868 0.14699776 -0.083508655
-0.11142584 0.016860459 -0.020822473 0.25388896 -0.028217347 -0.11107103 0.0122006545 0.08003982
-0.2994149 -0.049355514 0.07963931 -0.15661748 -0.061314445 0.1356637 0.045416854 -0.045515887
-0.09454424 0.096526384 0.05813299 0.07052929 0.1897478 -0.114304535 -0.05841362 0.2197994
0.075199 -0.10074324 0.05561394 -0.11633989 -0.21948601 0.057567902 -0.12740484 -0.13561402
-0.008137461 0.14477418 0.09099892 0.035704385 -0.5473046 0.32252276 0.069191314 -0.12749921
0.17235084 0.06785903 -0.015559447 0.10302631 0.05298763 0.06682311 -0.18342377 0.008854815
0.0747877 -0.03175346 -0.2609315 0.0014789248 0.23280534 0.017565817 0.011401493 0.04381853
0.015959647 -0.028068887 0.012940302 0.019143248 0.24167094 -0.31603903 -0.11136691 -0.15114556
0.27979726 0.043277428 0.058222096 -0.06404562 -6.6861065e-11 -1.1160862e-10 -1.2966835e-10 1.0204634e-11
1.8203088e-10 3.1150017e-11 -1.7217365e-10 2.7515204e-11 1.9130124e-10 -0.15450534 -0.1611761 -0.1799581
-0.0019228165 -0.00829049 0.11468843 0.26138994 0.080362275 0.1705171 4.9553705e-08 1.0451179e-07
8.367911e-08 -3.4929112e-08 4.6802008e-08 2.7535302e-07 4.356928e-08 1.1138298e-07 2.3705867e-07 -0.08328004
0.21514565 0.11554383 -0.093516946 0.07907078 -0.14064978 0.20794815 -0.11056085 -0.22538565
-0.067003615 -0.1432468 -0.08340478 0.062395353 0.16519742 0.044723112 0.036247607 0.11462374
0.06725636 -0.028210187 -0.048068557 -0.25436634 0.039126277 0.1763625 0.017608711 0.07060274
-0.092114344 -0.1681425 6.0691804e-07 -4.9518417e-07 -1.6585379e-07 -1.11890635e-07 -9.352091e-07 -8.1257537e-07
6.5456e-07 -1.8322982e-07 -4.809999e-07 0.023934918 0.24798723 0.14536263 0.1992819 -0.8051172
0.54352146 -0.058131292 0.12376435 -0.070160754 0.072998494 -0.061778154 -0.005218997 -0.058891956
00000000: 95f6 adbd f0df ef3c e7da 98bd 5071 83bd
00000010: f34a 533e 5f0c 98bd 87f2 4d3d 7977 b6bd
00000020: 7063 bf3d 9952 b2be 0d97 0abe 4ce3 a33e
00000030: 07db 7dbe ca19 1c3d d146 d93e f94f d2bd
00000040: ee58 123e 7ae1 9b3e 18f1 cdbc 9e50 a5be
00000050: 28bd 27be d237 0ebc b583 e13d 8d6d 2e3e
00000060: 617c dfbd 9d60 d53d c58d 1c3e b49a de3d
00000070: 5a36 debc bf59 17be 98a8 123d d789 acbe
00000080: 378e f0bd 7c6c f0bd a17e 74be 4822 873e
00000090: 965d 34af 3048 162f 03f4 11ad 5a7d 7caf
000000a0: dcfb 46ad ad0c 482f bd05 e22e 645a a62e
000000b0: eccb 58ae 265b c23e f6e3 073e 11fc 90bd
000000c0: 1262 7b3e 27e5 1bbe 6d5f 96be 0349 c63d
000000d0: d348 44be 20fd 8fbe 203d e6b3 ca58 02b4
000000e0: e1e7 02b3 2279 94b4 d1ba 8cb4 fcc7 26b4
000000f0: 3d6b c6b3 8fb6 18b4 2b4b f4b3 7bcb 69be
00000100: 2468 51bd b526 25bd c250 a8be e35c 28be
00000110: c6ff 013b 42a4 f4bc e10d d43d b20b 913e
00000120: 33e9 5b3e ddf1 aebb dcf8 73bc b8bd 233e
00000130: 5ad1 4dbe 1685 4bbe 1c8a f53d 20d5 9cbb
00000140: b6bd e7bc 552e c53c 519b 533e 1db9 ac3d
00000150: 4c70 9d3d c578 da3d 8410 c4bc 6ee0 fe3d
00000160: a377 a0bc 7d1c 6dbe 54dc 8eb5 cae1 5cb5
00000170: 7d48 56b5 89af 4db4 e271 1b34 626b ac2d
00000180: 28f1 c2b3 0909 6434 c6c4 7633 c851 1fbe
00000190: 8c86 ac3c 1417 773e 4c86 5a3d 0eb0 a43d
000001a0: bf6a f03a 1914 143e bc28 25bd 9680 13be
000001b0: dc0a 053e c041 3bbe 9586 163e 9606 abbd
000001c0: 3b33 e4bd f21e 8a3c e493 aabc bcfd 813e
000001d0: 1128 e7bc 3579 e3bd 41e5 473c ebeb a33d
000001e0: e94c 99be 0229 4abd ef19 a33d 5560 20be
000001f0: db24 7bbd 6deb 0a3e 0607 3a3d de6e 3abd
00000200: 69a0 c1bd a0af c53d dc1c 6e3d a971 903d
00000210: 3f4d 423e 7f18 eabd 1f43 6fbd 1813 613e
00000220: ef01 9a3d 7952 cebd 71cb 633d 9c43 eebd
00000230: f1c0 60be 52cc 6b3d 6a76 02be 67de 0abe
00000240: fc52 05bc af3f 143e a45d ba3d c33e 123d
00000250: 271c 0cbf b421 a53e 2db4 8d3d 278f 02be
00000260: bd7c 303e adf9 8a3d 0ded 7ebc 75ff d23d
00000270: 8f09 593d 8eda 883d 71d3 3bbe c913 113c
00000280: 4b2a 993d eb0f 02bd d098 85be 7bd8 c13a
00000290: 8664 6e3e 30e6 8f3c 54cd 3a3c 0f7b 333d
000002a0: cebd 823c b9f0 e5bc 8f03 543c 4dd2 9c3c
000002b0: 9678 773e decf a1be 5614 e4bd e7c5 1abe
000002c0: 9641 8f3e ac43 313d 4b7a 6e3d 5a2a 83bd
000002d0: 6f07 93ae 116e f5ae 6592 0eaf 9685 332d
000002e0: 2325 482f cdff 082e 934e 3daf bb06 f22d
000002f0: 8356 522f a636 1ebe 590b 25be f046 38be
00000300: 0407 fcba d6d4 07bc c5e1 ea3d e7d4 853e
00000310: fa94 a43d 099c 2e3e e0d4 5433 f76f e033
00000320: 14b3 b333 f704 16b3 5a03 4933 3bd4 9334
00000330: ee20 3b33 7131 ef33 318a 7e34 ba8e aabd
00000340: 244f 5c3e 3ea2 ec3d d085 bfbd dcef a13d
00000350: 7f06 10be 5cf0 543e ba6d e2bd 7fcb 66be
00000360: 3139 89bd 4aaf 12be 20d0 aabd 4592 7f3d
00000370: 8329 293e 952f 373d 5f78 143d dabf ea3d
00000380: b4bd 893d 0d19 e7bc 89e3 44bd 4e3c 82be
00000390: e042 203d 5f98 343e 2540 903c 2b98 903d
000003a0: 72a6 bcbd 8c2d 2cbe 17eb 2235 ccec 04b5
000003b0: 8b15 32b4 8748 f0b3 140b 7bb5 c11f 5ab5
000003c0: 05b5 2f35 d4bd 44b4 101e 01b5 2913 c43c
000003d0: 5df0 7d3e f1d9 143e 8e10 4c3e 291c 4ebf
000003e0: 3924 0b3f 141b 6ebd 2a78 fd3d 71b0 8fbd
000003f0: 3c80 953d 170b 7dbd 1f04 abbb b138 71bd

module.residual_layers.0.0.bn1.weight f4 [16]
0.46423158 0.47890323 0.58830136 0.4545078 0.6004022 0.5095106 0.4383004 0.42572674
0.55406326 0.4134991 0.57713276 0.6040262 0.5755619 0.52050084 0.41060594 0.42836928
00000000: c3af ed3e ce32 f53e eb9a 163f 3fb5 e83e
00000010: f5b3 193f 496f 023f e968 e03e dbf8 d93e
00000020: 17d7 0d3f 27b6 d33e f9be 133f 76a1 1a3f
00000030: 0658 133f 8b3f 053f f13a d23e 3853 db3e

module.residual_layers.0.0.bn1.bias f4 [16]
-0.08678742 0.26459473 -0.2340029 0.21863794 -0.32705677 0.0033030508 0.17874457 -0.08982624
-0.19160716 0.16375582 -0.2676042 -0.67722803 -0.37592095 0.057350777 0.5373082 0.3348121
00000000: 9abd b1bd f678 873e 759e 6fbe a0e2 5f3e
00000010: fc73 a7be ff77 583b d108 373e d2f6 b7bd
00000020: ab34 44be 9baf 273e 6b03 89be d15e 2dbf
00000030: b678 c0be a6e8 6a3d 088d 093f 7e6c ab3e

module.residual_layers.0.0.bn1.running_mean f4 [16]
0.019705193 0.2276349 -0.094482385 -0.24071063 -0.61065584 -0.20164233 -0.6226157 0.50898576
-0.20601282 -0.4418644 -0.19607757 -0.093184814 0.2416964 -0.5096839 -0.4407577 -0.35307473
00000000: c96c a13c 2019 693e fb7f c1bd d97c 76be
00000010: f153 1cbf 547b 4ebe be63 1fbf e44c 023f
00000020: 06f5 52be 0d3c e2be 8fc8 48be aed7 bebd
00000030: 437f 773e a57a 02bf feaa e1be 36c6 b4be

module.residual_layers.0.0.bn1.running_var f4 [16]
0.062246025 0.11876023 0.14668235 0.13360588 0.068684146 0.14961642 0.19864535 0.10554786
0.10331928 0.07677978 0.11327291 0.046893664 0.06915186 0.1334036 0.098675124 0.31099415
00000000: b0f5 7e3d 9038 f33d e633 163e fbcf 083e
00000010: 46aa 8c3d 0c35 193e b069 4b3e 7a29 d83d
00000020: 0f99 d33d b83e 9d3d a1fb e73d 9213 403d
00000030: 7e9f 8d3d f49a 083e 2f16 ca3d a03a 9f3e

module.residual_layers.0.0.conv2.weight f4 [16, 16, 3, 3]
-0.05601609 -0.2768555 -0.056517404 -0.20613645 -0.20383923 0.069688134 0.19243212 0.12836713
0.17236897 -0.11428919 0.028196028 0.09717482 -0.0740004 0.22223331 0.029173361 -0.04605089
0.08203059 -0.108412534 0.043486383 -0.060151946 0.18422161 4.854916e-07 0.16689503 0.039091926
0.024486257 0.01873511 -0.004973122 -0.1522152 -0.00021531619 -0.19511275 0.0790105 -0.153781
-0.047067665 0.05763713 0.15667415 -0.02666659 -0.030162068 -0.035421237 0.0018046526 -0.0365419
-0.014075424 -0.021463262 0.1261817 -0.014284089 0.1230737 -0.16344404 0.034874946 -0.07873572
0.04096851 -0.01642451 -0.19269909 -0.0023543432 -0.07909651 0.037977647 -0.032113604 0.089104556
0.1922961 0.024653949 0.18310355 -0.014695515 0.04280719 -0.0506622 0.13197051 -0.009532868
-0.09559772 -0.09194602 9.926832e-05 -0.04523706 -0.18226172 0.010024747 -0.09533797 0.015466108
0.32402703 -0.11000167 -0.026237398 -0.17954043 -0.20026623 -0.13571201 -0.01754454 -0.007866008
-0.04093207 0.09720814 0.15456742 0.10145304 0.03677528 0.006849994 -0.1646299 -0.13543332
-0.34747225 -0.052080818 -0.2925799 0.13032714 -0.028846845 -0.061493266 -0.03802293 0.053052805
0.021695156 0.13855313 -0.103876874 -0.11401943 -0.15437505 -0.2386189 -0.1856891 0.02505498
-0.056508403 -0.25168344 -0.104554005 -0.10013057 -0.12283536 -0.16392471 -0.110947035 -0.025334265
0.13226378 0.06948629 -0.18495879 -0.14750524 -0.004198221 0.0022287443 0.27479118 -0.05451704
0.08204764 0.14231113 0.0037863043 0.094372734 0.32215813 0.069230415 -0.19836979 -0.2704549
0.10178229 -0.09999384 0.12078955 0.2509861 0.20553884 0.01294774 0.026822843 -0.10884839
-0.13782874 -0.17544492 -0.22308674 -0.049040493 0.054484297 -0.107366934 0.25100872 0.21242554
-0.0111904945 0.13183348 0.044525553 0.017518774 -0.0027294895 -0.09963816 0.10320729 0.065369114
-0.14950295 -0.20864211 -0.008094964 -0.015735447 -0.7072442 0.44970894 -0.0513713 -0.1090879
0.041567996 0.059240326 -0.024602352 0.059592005 0.044517167 -0.060420405 0.01016522 0.020972982
-0.12088707 -0.08891551 0.05146793 0.058915477 0.07949485 0.12277212 -0.23178847 -0.037559085
0.024923373 -0.02569905 0.21277875 -0.071304254 0.002235725 0.043842547 -0.08157866 0.035460617
0.07631899 -0.11048319 0.00018589053 0.25702876 0.06978821 -0.0030823646 -0.11709839 -0.13132223
-0.066286616 0.05074308 -0.17889315 -0.14858201 -0.03594534 0.0019721282 -0.015284966 -0.08198284
0.13304375 0.07526756 -0.25511247 0.036309823 0.0069373655 -0.081450425 -0.11504361 -0.05533501
-0.08064782 -0.20278443 0.13471761 -0.060449984 -0.02782532 -0.08148855 0.01798915 0.0015008021
-0.23262952 -0.14916052 -0.0075988066 -0.1533874 0.06060464 -0.10667822 -0.03378717 -0.23865941
-0.05857439 -0.11203862 0.20350707 0.14052358 0.009084575 0.03001749 -0.18898045 0.12976216
-0.27054715 -0.11025454 0.002304655 0.11127699 0.0969198 -0.09479524 -0.024539046 -0.0137885045
-0.036764856 0.19856927 -0.10370697 0.09228418 0.0903485 -0.03525844 0.0060279006 0.040229548
0.010582557 -0.013703294 0.15828556 -0.06280556 0.09613078 -0.01834925 0.21983095 -0.2000703
00000000: 2171 65bd 01c0 8dbe cb7e 67bd 6f15 53be
00000010: 3bbb 50be a7b8 8e3d ed0c 453e ac72 033e
00000020: 7e81 303e 7310 eabd 5bfb e63c 9803 c73d
00000030: 868d 97bd 2191 633e f9fc ee3c dc9f 3cbd
00000040: a7ff a73d 6407 debd c71e 323d e361 76bd
00000050: 97a4 3c3e bb52 0235 88e6 2a3e db1e 203d
00000060: 6797 c83c 607a 993c 92f5 a2bb 4dde 1bbe
00000070: 80c6 61b9 a3cb 47be 42d0 a13d c478 1dbe
00000080: 06ca 40bd e914 6c3d 306f 203e e473 dabc
00000090: 7116 f7bc dc15 11bd 188a ec3a f6ac 15bd
000000a0: 9b9c 66bc b9d3 afbc c735 013e d007 6abc
000000b0: 100e fc3d e05d 27be 08d9 0e3d 3140 a1bd
000000c0: 99ce 273d b28c 86bc e952 45be 534b 1abb
000000d0: 5afd a1bd 738e 1b3d 8e89 03bd 737c b63d
000000e0: 45e9 443e 14f7 c93c 7f7f 3b3e 75c5 70bc
000000f0: 9856 2f3d 2b83 4fbd 4723 073e bf2f 1cbc
00000100: bdc8 c3bd 324e bcbd 462e d038 7f4a 39bd
00000110: d1a2 3abe d63e 243c 8e40 c3bd 8f65 7d3c
00000120: dfe6 a53e 8e48 e1bd d0ef d6bc 72d9 37be
00000130: 9712 4dbe 17f8 0abe 91b9 8fbc 6ee0 00bc
00000140: 63a8 27bd 1015 c73d ec46 1e3e 9dc6 cf3d
00000150: ada1 163d ea75 e03b be94 28be 08af 0abe
00000160: e2e7 b1be b252 55bd 08cd 95be 7a74 053e
00000170: 3850 ecbc 5de0 7bbd efbd 1bbd e64d 593d
00000180: 0aba b13c dfe0 0d3e 66bd d4bd 0583 e9bd
00000190: 7e14 1ebe 8358 74be 4925 3ebe 1a40 cd3c
000001a0: 5b75 67bd a7dc 80be 6920 d6bd 4211 cdbd
000001b0: 1b91 fbbd e1db 27be 3338 e3bd ce89 cfbc
000001c0: 2870 073e d44e 8e3d d665 3dbe 9d0b 17be
000001d0: 3b91 89bb 2010 123b 6eb1 8c3e 424d 5fbd
000001e0: 9808 a83d 02ba 113e a523 783b 7e46 c13d
000001f0: e9f1 a43e adc8 8d3d 7321 4bbe 1179 8abe
00000200: 3c73 d03d 92c9 ccbd 8360 f73d 4081 803e
00000210: c678 523e c222 543c 94bb db3c e8eb debd
00000220: fa22 0dbe d5a7 33be da70 64be afde 48bd
00000230: ed2a 5f3d 32e3 dbbd 3784 803e 1586 593e
00000240: 5658 37bc 5bff 063e 6d60 363d 8883 8f3c
00000250: 3ce1 32bb 170f ccbd 585e d33d 3ee0 853d
00000260: 4d17 19be 47a6 55be bda0 04bc a0e7 80bc
00000270: f50d 35bf 4040 e63e b66a 52bd 7a69 dfbd
00000280: 3443 2a3d fca5 723d df8a c9bc bf16 743d
00000290: a257 363d 637b 77bd 068c 263c 88cf ab3c
000002a0: a493 f7bd 5619 b6bd 09d0 523d 5b51 713d
000002b0: 32ce a23d f36f fb3d f559 6dbe 8ed7 19bd
000002c0: 1a2c cc3c d086 d2bc ace2 593e f707 92bd
000002d0: 3e85 123b 3e94 333d b612 a7bd 273f 113d
000002e0: 214d 9c3d 0345 e2bd 9ceb 4239 4699 833e
000002f0: 1fed 8e3d 7f01 4abb 48d1 efbd 5679 06be
00000300: 47c1 87bd fad7 4f3d c42f 37be e225 18be
00000310: 6c3b 13bd d23e 013b cb6d 7abc 9fe6 a7bd
00000320: 9f3c 083e e125 9a3d 1a9e 82be 9cb9 143d
00000330: d752 e33b 7bcf a6bd fc9b ebbd f7a6 62bd
00000340: af2a a5bd b9a6 4fbe 6af3 093e 679a 77bd
00000350: edf1 e3bc 78e3 a6bd fb5d 933c 90b6 c43a
00000360: 6f36 6ebe 89bd 18be 69ff f8bb 9611 1dbe
00000370: 923c 783d 1c7a dabd 6a64 0abd 2263 74be
00000380: b3eb 6fbd 8174 e5bd 2864 503e 6ae5 0f3e
00000390: 78d7 143c 3de7 f53c 1784 41be 5fe0 043e
000003a0: 2885 8abe 22cd e1bd b209 173b 31e5 e33d
000003b0: e37d c63d 0224 c2bd 1c06 c9bc 2ee9 61bc
000003c0: bf96 16bd be55 4b3e 5264 d4bd 7dff bc3d
000003d0: a208 b93d 276b 10bd b285 c53b bdc7 243d
000003e0: 7662 2d3c c883 60bc 9c15 223e 34a0 80bd
000003f0: 37e0 c43d 2b51 96bc 5d1b 613e 3bdf 4cbe

module.residual_layers.0.0.bn2.weight f4 [16]
0.6497949 0.6138804 0.49618095 0.6455936 0.56499135 0.6990486 0.6018274 0.5567172
0.5410571 0.4822036 0.53796697 0.58507216 0.62845147 0.6277948 0.45208994 0.6503724
00000000: f558 263f 4427 1d3f 6e0b fe3e 9f45 253f
00000010: 46a3 103f d9f4 323f 5c11 1a3f 0585 0e3f
00000020: b882 0a3f 64e3 f63e 34b8 093f 4ac7 153f
00000030: 32e2 203f 29b7 203f 5578 e73e ce7e 263f

module.residual_layers.0.0.bn2.bias f4 [16]
-0.5310429 0.07672074 -0.015413197 -0.35711312 0.10316982 -0.4375629 -0.28782654 0.06877782
0.19423053 -0.15736833 -0.20984764 -0.09252088 -0.43231973 -0.18687509 -0.24379846 -0.36610642
00000000: 6df2 07bf c31f 9d3d a287 7cbc 88d7 b6be
00000010: b34a d33d 3f08 e0be 005e 93be 63db 8c3d
00000020: 5ee4 463e 2a25 21be 4de2 56be 967b bdbd
00000030: 0359 ddbe 2f5c 3fbe 4ea6 79be 4d72 bbbe

module.residual_layers.0.0.bn2.running_mean f4 [16]
-0.04799785 -0.36649767 -0.5715757 0.210603 -0.44116703 -0.08185885 0.71198505 0.07913099
-0.13803624 0.04040757 -0.061564818 -0.7461972 -0.38389927 -0.2869661 -0.03254253 0.100607745
00000000: 6599 44bd 95a5 bbbe c952 12bf 50a8 573e
00000010: a5e0 e1be 9da5 a7bd a744 363f 6e0f a23d
00000020: 5f59 0dbe 6882 253d 642b 7cbd c806 3fbf
00000030: 728e c4be 38ed 92be 514b 05bd 6f0b ce3d

module.residual_layers.0.0.bn2.running_var f4 [16]
0.23692663 0.39331406 0.29927686 0.21491443 0.28135595 0.27491772 0.27153552 0.20440222
0.29323646 0.43301225 0.16397282 0.37875572 0.38202935 0.26219687 0.36071396 0.21539919
00000000: e59c 723e 7660 c93e d13a 993e 8712 5c3e
00000010: e30d 903e 04c2 8c3e b406 8b3e d14e 513e
00000020: 1723 963e c8b3 dd3e 7ee8 273e 45ec c13e
00000030: 5a99 c33e ab3e 863e 80af b83e 9b91 5c3e

module.residual_layers.0.1.conv1.weight f4 [16, 16, 3, 3]
-0.07423501 -0.06338765 -0.031723425 -0.16283202 -0.16403013 0.10955476 -0.13522586 -0.06343562
-0.06849788 0.08402398 0.075411856 -0.10847601 -0.06308038 -0.007565131 0.09188979 -0.08113262
-0.17422284 0.0027413985 0.05319424 -0.041464206 0.022289887 0.107701056 -0.014088942 0.16549899
-0.16080989 0.07640684 0.0006727781 -0.083099775 0.004659135 -0.1003499 -0.10913122 -0.07375866
-0.13993187 0.32221815 0.33411485 0.27531525 -0.11975941 0.086483136 -0.19887698 -0.22153307
0.12808505 -0.07111189 0.068149894 -0.05550758 -0.08365266 0.19042361 -0.031490818 0.13667998
0.023640087 -0.09368986 -0.10635334 -0.030168407 0.3260452 -0.017659679 0.1725484 0.017641027
-0.14675051 0.006565135 0.04905551 -0.042961847 -0.030887783 0.049297184 -0.083161645 -0.047949184
0.076170154 -0.16353177 0.019705053 0.24097669 -0.08617479 -0.088925816 0.13303505 0.05966219
0.15819514 -0.20713688 0.39298636 -0.12824671 0.03489606 0.121641435 -0.16001429 0.17449427
0.14099653 -0.18188998 -0.14388637 -0.13697354 -0.14954242 -0.26945007 -0.1745803 -0.30183953
-0.091484174 -0.106672175 0.035951756 -0.13919093 -0.1126847 0.14351317 -0.028148085 0.11160942
0.039749548 -0.30038732 0.19490488 -0.0015191558 0.012466817 -0.04503612 0.013775691 0.028220829
0.053442772 0.17893651 0.021180509 0.05595313 -0.12522097 0.0012438288 -0.06647081 0.095175825
-0.08552875 0.03660965 0.17263329 -0.19597359 0.010309388 0.00827073 -0.021096691 -0.023177113
-0.07958393 0.11121799 -0.080861755 -0.2751104 -0.0014765032 -0.2110975 -0.026168825 -0.09828119
-0.064512745 -0.31007144 -0.11935829 -0.124740675 -0.2605753 -0.07573346 -0.17875114 -0.08844948
0.066508375 -0.041484445 0.017012395 0.15744682 0.08661633 -0.20137605 0.10503376 -0.08722936
-0.04859762 -0.05914617 -0.09486049 -0.0023411904 0.1616154 0.0436101 0.1176256 0.015406693
0.071168564 -0.08120418 0.31016415 0.395029 -0.120583974 -0.20151798 -0.23860206 0.04577984
-0.1824365 0.07295593 0.035733517 0.11196672 -0.0017274846 -0.09724773 -0.14430921 -0.09623629
-0.028118936 -0.1386081 0.055376295 0.074928395 -0.0008091857 0.23390998 -0.17199188 -0.16524808
0.26269585 -0.01580187 -0.20268212 -0.18098216 -0.14021902 0.07990638 0.017060803 -0.12068734
0.1864404 0.24722058 0.007860124 -0.1993228 0.012262131 0.27265137 -0.022842199 -0.009647807
-0.04320953 0.21914203 -0.20466074 0.025528714 -0.05817889 0.040429592 0.12665138 0.31437314
0.003175333 -0.17573419 -0.10188011 0.017342558 -0.013368353 -0.286295 0.08199457 -0.13735853
-0.16457076 0.12813683 -0.010008134 -0.1040132 0.17389359 0.05376228 -0.0729027 0.029707262
0.017179223 0.06758893 -0.16058032 0.037722602 0.0036216602 0.12347896 -0.08461627 -0.071045585
0.18889463 -0.00044742296 -0.22167417 -0.34530896 -0.036177285 0.09167149 0.03757413 0.069495715
-0.051739573 -0.16169022 -0.008060246 0.033390902 0.26615903 -0.05484272 -0.14482023 0.11724804
0.015376854 -0.17085686 -0.022251697 -0.033754952 -0.21094413 -0.016199302 -0.10873236 0.061809193
-0.042059172 0.052616272 0.19710286 0.23690699 -0.08452527 -0.11912478 0.24071595 0.09452677
00000000: 8608 98bd 62d1 81bd 6cf0 01bd 70bd 26be
00000010: 84f7 27be 3f5e e03d a678 0abe 89ea 81bd
00000020: 9e48 8cbd c414 ac3d 8871 9a3d ac28 debd
00000030: 4930 81bd ebe4 f7bb b730 bc3d dc28 a6bd
00000040: 7967 32be 09a9 333b 34e2 593d 5fd6 29bd
00000050: 4899 b63c 5f92 dc3d 4ed5 66bc 9178 293e
00000060: 59ab 24be 307b 9c3d 605d 303a 3730 aabd
00000070: a8ab 983b 4084 cdbd 3080 dfbd c80e 97bd
00000080: 4d4a 0fbe c7f9 a43e 1a11 ab3e 1ff6 8c3e
00000090: 6c44 f5bd 121e b13d 68a6 4bbe 91d9 62be
000000a0: ba28 033e 1ca3 91bd 2c92 8b3d eb5b 63bd
000000b0: 1652 abbd 68fe 423e 84fc 00bd d6f5 0b3e
000000c0: dba8 c13c 78e0 bfbd c8cf d9bd bc23 f7bc
000000d0: 65ef a63e 08ab 90bc 87b0 303e ea83 903c
000000e0: c445 16be 5820 d73b 6eee 483d c3f8 2fbd
000000f0: 6008 fdbc d8eb 493d a750 aabd 5d66 44bd
00000100: 19ff 9b3d df74 27be 7e6c a13c 98c2 763e
00000110: 697c b0bd bd1e b6bd 573a 083e 5760 743d
00000120: e8fd 213e b11b 54be 8235 c93e 1b53 03be
00000130: 2cef 0e3d 251f f93d c9da 23be a0ae 323e
00000140: 6561 103e 5e41 3abe f356 13be cb42 0cbe
00000150: a621 19be 5cf5 89be 2ec5 32be b68a 9abe
00000160: 0e5c bbbd f176 dabd 2642 133d 1188 0ebe
00000170: 3cc7 e6bd 1ef5 123e d096 e6bc 7b93 e43d
00000180: 6cd0 223d 5ecc 99be 2595 473e 691e c7ba
00000190: 9f41 4c3c cb77 38bd 70b3 613c 5e2f e73c
000001a0: cfe6 5a3d 223b 373e bf82 ad3c 1c2f 653d
000001b0: ed39 00be f807 a33a d921 88bd 8beb c23d
000001c0: b329 afbd 00f4 153d c8c6 303e 4dad 48be
000001d0: b5e8 283c f581 073c f8d2 acbc eedd bdbc
000001e0: e6fc a2bd 42c6 e33d d99a a5bd 45db 8cbe
000001f0: 3a87 c1ba f129 58be 0160 d6bc a647 c9bd
00000200: 421f 84bd afc1 9ebe 1f72 f4bd 0a78 ffbd
00000210: 206a 85be 251a 9bbd 8a0a 37be 0025 b5bd
00000220: 8b35 883d 98eb 29bd 945d 8b3c bd39 213e
00000230: e763 b13d 8635 4ebe f11b d73d 4fa5 b2bd
00000240: 4c0e 47bd 4143 72bd 3746 c2bd a86e 19bb
00000250: 827e 253e 81a0 323d b1e5 f03d 5b6c 7c3c
00000260: d3c0 913d 614e a6bd d6cd 9e3e 3e41 ca3e
00000270: bbf4 f6bd bb5a 4ebe 1954 74be a483 3b3d
00000280: a2d0 3abe eb69 953d 4f5d 123d cf4e e53d
00000290: c46c e2ba d129 c7bd cbc5 13be 8817 c5bd
000002a0: af59 e6bc 48ef 0dbe 41d2 623d 0f74 993d
000002b0: 881f 54ba 1986 6f3e a41e 30be cb36 29be
000002c0: 1280 863e ec72 81bc e78b 4fbe 6353 39be
000002d0: 9395 0fbe f5a5 a33d 19c3 8b3c ed2a f7bd
000002e0: 3bea 3e3e 6427 7d3e c0c7 003c 471b 4cbe
000002f0: 1be7 483c f698 8b3e 901f bbbc d611 1ebc
00000300: 7afc 30bd c566 603e 9692 51be 9821 d13c
00000310: fd4c 6ebd 8099 253d e6b0 013e 84f5 a03e
00000320: 3f19 503b aaf3 33be 85a6 d0bd fb11 8e3c
00000330: f006 5bbc 4295 92be c5ec a73d b7a7 0cbe
00000340: 3d85 28be 4d36 033e 28f9 23bc df04 d5bd
00000350: 2911 323e d635 5c3d 034e 95bd a55c f33c
00000360: 71bb 8c3c 116c 8a3d 2b6f 24be 0483 1a3d
00000370: 6059 6d3b 89e2 fc3d 4c4b adbd 5980 91bd
00000380: 986d 413e 1894 eab9 8efe 62be 56cc b0be
00000390: a22e 14bd 43be bb3d 55e7 193d c553 8e3d
000003a0: e0ec 53bd 1f92 25be 1f0f 04bc e6c4 083d
000003b0: ff45 883e c3a2 60bd c14b 14be be1f f03d
000003c0: 33ef 7b3c 1af5 2ebe 3149 b6bc a242 0abd
000003d0: bd01 58be 66b4 84bc 12af debd a32b 7d3d
000003e0: 3d46 2cbd 2984 573d 55d5 493e bf97 723e
000003f0: 961b adbd b1f7 f3bd 3e7e 763e 4097 c13d

module.residual_layers.0.1.bn1.weight f4 [16]
0.5136265 0.6002249 0.4486155 0.519602 0.6403782 0.6067911 0.7062013 0.64942247
0.56184936 0.39064434 0.63199896 0.6093986 0.6203324 0.62147963 0.57239884 0.53471106
00000000: 077d 033f 57a8 193f eeb0 e53e a304 053f
00000010: d3ef 233f a956 1b3f 9cc9 343f 8d40 263f
00000020: 5cd5 0f3f 8902 c83e afca 213f 8c01 1c3f
00000030: 1bce 1e3f 4a19 1f3f bb88 123f d3e2 083f

module.residual_layers.0.1.bn1.bias f4 [16]
0.055162873 -0.20445272 0.29948178 -0.2792458 -0.17134851 -0.21208096 -0.4201616 -0.20904519
0.028829066 0.14500965 -0.17320119 -0.2821988 -0.08444412 -0.39375183 -0.10188896 -0.10799669
00000000: 77f2 613d 0e5c 51be ad55 993e 4ef9 8ebe
00000010: fc75 2fbe c02b 59be 6c1f d7be f10f 56be
00000020: ef2a ec3c 697d 143e a75b 31be 5c7c 90be
00000030: 0af1 acbd d799 c9be 29ab d0bd 5e2d ddbd

module.residual_layers.0.1.bn1.running_mean f4 [16]
-0.37751126 -0.17236924 -0.19667202 -0.13587964 0.031181691 -0.32200384 -0.7696384 0.009022033
-0.4674858 0.2013967 -0.26856217 -1.1091182 -0.1908972 -0.4146931 0.17087692 -0.46460277
00000000: 2849 c1be 9081 30be 6464 49be 0824 0bbe
00000010: bf70 ff3c b0dd a4be 0607 45bf 26d1 133c
00000020: 4c5a efbe f03a 4e3e fb80 89be 96f7 8dbf
00000030: 8e7a 43be a752 d4be 5cfa 2e3e 6ae0 edbe

module.residual_layers.0.1.bn1.running_var f4 [16]
0.36462536 0.30478412 0.48389405 0.26894096 0.651476 0.31545475 0.38421172 0.44930008
0.4827607 0.32003114 0.6114347 0.38202545 0.80888885 0.25671872 0.38634112 0.59282875
00000000: 2db0 ba3e aa0c 9c3e f6c0 f73e a1b2 893e
00000010: 22c7 263f 4983 a13e 66b7 c43e a90a e63e
00000020: 692c f73e 1fdb a33e fc86 1c3f d798 c33e
00000030: 5713 4f3f a370 833e 81ce c53e a0c3 173f

module.residual_layers.0.1.conv2.weight f4 [16, 16, 3, 3]
-0.18424596 -0.28132206 -0.037673816 -0.047463827 0.09358509 -0.1101799 -0.064782456 -0.29485992
-0.2646441 -0.15838349 -0.0787186 -0.093392536 0.05529353 -0.0013135595 0.10095931 0.16709928
0.061072152 -0.054056644 -0.23631226 0.18589997 -0.28084368 -0.18835922 0.085874185 0.048297346
-0.15143469 -0.028338997 0.095042676 -0.15538353 -0.019958554 -0.1415834 -0.0721973 -0.12618966
-0.07055285 0.057129093 -0.033262014 0.073095776 -0.19976075 -0.13554002 -0.059825983 0.048312306
0.0036058524 -0.0018963111 0.09274677 0.073733054 -0.01978457 -0.17388104 -0.27014372 -0.25116158
-0.17266573 -0.17094581 -0.25229493 -0.050863065 -0.03249454 -0.054208357 -0.031294733 -0.07806432
0.07007444 0.16541696 0.013856203 -0.1469238 -0.11601598 -0.029338371 -0.056898925 -0.10690149
-0.048196703 0.07724206 -0.14735873 -0.09055329 -0.0072024814 -0.07012968 -0.25215116 -0.17999296
-0.38840276 0.0854843 0.11544294 -0.25002727 0.045224484 0.16744018 -0.111118674 -0.08353166
0.008384363 0.1638819 0.26299712 -0.06724993 -0.00070221943 -0.04286088 0.19602099 0.26337537
0.11263576 0.23006532 0.0025532516 -0.16734222 -0.19071156 -0.06773122 -0.011466469 -0.026509963
0.16359319 -0.03353309 0.07032872 -0.10616053 0.06618218 0.121222496 -0.087575816 0.08139706
0.08950361 -0.18583085 0.084240004 -0.020557133 -0.21453159 -0.1548391 -0.073091604 0.05307811
-0.020442603 0.03699095 0.11189238 0.2805723 -0.023309328 -0.13069084 0.10472438 -0.0447919
0.0039431197 0.059548806 0.21726845 0.06264712 0.18651839 -0.05972153 0.12747191 -0.023288172
0.026831308 0.07401781 -0.122130394 0.04967116 0.107825994 -0.050712924 -0.17807709 -0.102940984
0.06479703 0.111837335 0.020291379 -0.043175552 0.12000984 0.118338265 -0.10742242 0.16702431
0.100331575 0.26755488 -0.010881404 -0.026402539 0.17770599 0.110747345 -0.13103728 -0.21802388
-0.00913797 -0.10484103 0.111069776 -0.049060795 -0.00601923 -0.00921377 -0.0008801701 -0.14880343
-0.027342355 0.0018214674 0.3546722 0.058080856 0.27113837 -0.01643367 -0.028111976 0.0055701085
-0.06651472 -0.10233307 -0.05285304 -0.008012251 -0.12522386 -0.05061951 -0.05930334 -0.04992636
-0.1426053 -0.027423875 -0.0017342713 -0.0664254 -0.017755166 -0.02849873 -0.059635215 -0.1866809
0.0119010955 -0.060493633 0.087853685 0.28067875 0.14790572 -0.12249624 -0.030841557 -0.05676129
-0.15525492 0.062171254 -0.13122721 -0.068931654 0.24160159 0.13594927 -0.033139605 0.16326883
0.16716409 0.0005559669 0.29812342 0.08382226 0.19218174 0.108661145 0.11770032 0.06872794
0.047260568 -0.10166557 0.035410997 0.015650086 -0.11489864 -0.03157097 -0.077879645 0.09465678
0.07107909 0.16170932 0.14966819 0.0738401 0.035559036 0.010939988 0.037805837 -0.1047934
-0.11858137 0.28704688 -0.043863192 -0.12127459 0.04419409 0.00030953577 0.008287641 0.109901704
0.24403106 0.03233844 -0.19099818 -0.15427767 -0.107864045 -0.13555047 -0.15592618 0.09383363
-0.10235153 -0.034384843 0.114854865 -0.12676094 -0.08877489 -0.067014255 -0.2733969 -0.0806619
0.03372144 -0.03209774 0.14855245 0.25804713 -0.043609418 -0.16404943 -0.0865023 0.042294517
00000000: f9aa 3cbe 7209 90be dc4f 1abd 6e69 42bd
00000010: 8aa9 bf3d 00a6 e1bd aaac 84bd e1f7 96be
00000020: 6e7f 87be 482f 22be 3837 a1bd 9644 bfbd
00000030: 787b 623d be2b acba c1c3 ce3d 131c 2b3e
00000040: cb26 7a3d 806a 5dbd d7fb 71be 905c 3e3e
00000050: beca 8fbe 3de1 40be cede af3d 70d3 453d
00000060: b211 1bbe 2f27 e8bc bca5 c23d dc1c 1fbe
00000070: 1f80 a3bc 3dfb 10be 2edc 93bd dd37 01be
00000080: 037e 90bd 3200 6a3d c03d 08bd 3db3 953d
00000090: 158e 4cbe 01cb 0abe 170c 75bd 20e3 453d
000000a0: 2a50 6c3b a48d f8ba 05f2 bd3d 5b01 973d
000000b0: 4013 a2bc df0d 32be 4750 8abe 4098 80be
000000c0: 49cf 30be 6b0c 2fbe cd2c 81be ca55 50bd
000000d0: ff18 05bd 9509 5ebd e82e 00bd 30e0 9fbd
000000e0: 3083 8f3d 1063 293e 2105 633c 3173 16be
000000f0: c999 edbd 0657 f0bc d90e 69bd 2bef dabd
00000100: e869 45bd 1631 9e3d 35e5 16be 0174 b9bd
00000110: cb02 ecbb 26a0 8fbd f519 81be 1350 38be
00000120: badc c6be 6512 af3d 596d ec3d 9303 80be
00000130: 4f3d 393d 7075 2b3e 3092 e3bd a612 abbd
00000140: 915e 093c a8d0 273e 8fa7 863e 55ba 89bd
00000150: 2615 38ba e48e 2fbd bab9 483e 23d9 863e
00000160: 94ad e63d 3e96 6b3e 7454 273b c25b 2bbe
00000170: e449 43be aab6 8abd dbdd 3bbc 6c2b d9bc
00000180: f984 273e fe59 09bd 8108 903d b16a d9bd
00000190: 868a 873d 8043 f83d f35a b3bd 80b3 a63d
000001a0: ab4d b73d 714a 3ebe 0686 ac3d 6f67 a8bc
000001b0: 2bae 5bbe 248e 1ebe 0db1 95bd 6f68 593d
000001c0: 3f77 a7bc d383 173d d527 e53d 2ca7 8f3e
000001d0: 34f3 bebc d2d3 05be bc79 d63d b677 37bd
000001e0: 4935 813b 73e9 733d 9f7b 5e3e 224d 803d
000001f0: adfe 3e3e 909e 74bd ff87 023e d6c6 bebc
00000200: 55cd db3c a696 973d 801f fabd fc73 4b3d
00000210: e0d3 dc3d 5bb8 4fbd d759 36be b9d2 d2bd
00000220: 4eb4 843d f90a e53d 1b3a a63c d9d8 30bd
00000230: b8c7 f53d 555b f23d 4900 dcbd 6c08 2b3e
00000240: a47a cd3d f4fc 883e eb47 32bc 234a d8bc
00000250: 8ff8 353e 81cf e23d a32e 06be a741 5fbe
00000260: 6db7 15bc e5b6 d6bd 8d78 e33d f9f3 48bd
00000270: f63c c5bb 5af5 16bc 37bb 66ba ed5f 18be
00000280: 13fd dfbc 4ebe ee3a 9897 b53e 31e6 6d3d
00000290: a6d2 8a3e e79f 86bc 164b e6bc 7585 b63b
000002a0: df38 88bd 0094 d1bd 6e7c 58bd d145 03bc
000002b0: af3a 00be 6756 4fbd 0fe8 72bd 957f 4cbd
000002c0: 2007 12be 09a8 e0bc 7d50 e3ba 0a0a 88bd
000002d0: 4873 91bc 2b76 e9bc 0e44 74bd 4729 3fbe
000002e0: d0fc 423c 2cc8 77bd a2ec b33d 20b5 8f3e
000002f0: 9974 173e 4fdf fabd 6fa7 fcbc 877e 68bd
00000300: 25fb 1ebe 49a7 7e3d 6d60 06be 0a2c 8dbd
00000310: 6866 773e 4936 0b3e 65bd 07bd f22f 273e
00000320: 102d 2b3e 4fbe 113a a2a3 983e 01ab ab3d
00000330: 4acb 443e bc89 de3d de0c f13d 3cc1 8c3d
00000340: 4c94 413d 0a36 d0bd 1f0b 113d 9c34 803c
00000350: fa4f ebbd 9050 01bd 5d7f 9fbd 6adb c13d
00000360: ea91 913d 2197 253e 9e42 193e 7a39 973d
00000370: 5aa6 113d a33d 333c 4bda 1a3d ec9d d6bd
00000380: cada f2bd cff7 923e e4a9 33bd d05e f8bd
00000390: dd04 353d 3049 a239 e3c8 073c 2514 e13d
000003a0: 47e3 793e 5075 043d 0795 43be f7fa 1dbe
000003b0: d3e7 dcbd becd 0abe 1dab 1fbe d92b c03d
000003c0: ae9d d1bd 1fd7 0cbd 0739 eb3d 9fcd 01be
000003d0: 9ccf b5bd c53e 89bd aefa 8bbe 1132 a5bd
000003e0: 7e1f 0a3d eb78 03bd 221e 183e c11e 843e
000003f0: ca9f 32bd 93fc 27be 1e28 b1bd 043d 2d3d

module.residual_layers.0.1.bn2.weight f4 [16]
0.8015075 0.719642 0.87749314 0.94580865 0.79194885 0.5907314 0.81921226 0.5056675
0.5923459 0.59855705 0.8712688 0.8652007 0.7635536 0.82553226 0.6262003 0.9168181
00000000: 982f 4d3f 753a 383f 64a3 603f 8420 723f
00000010: 29bd 4a3f 2c3a 173f e5b7 513f 6d73 013f
00000020: fba3 173f 093b 193f 790b 5f3f cb7d 5d3f
00000030: 4078 433f 1556 533f aa4e 203f 97b4 6a3f

module.residual_layers.0.1.bn2.bias f4 [16]
0.09113202 -0.12174167 -0.20524253 -0.24503082 0.1806215 0.029591028 -0.14218575 0.0021006651
0.36875442 0.20206872 0.028505849 -0.5108262 0.2808634 -0.064157836 -0.14328048 -0.4533019
00000000: 6da3 ba3d b253 f9bd 192b 52be 5ce9 7abe
00000010: d8f4 383e e268 f23c 2499 11be 50ab 093b
00000020: 61cd bc3e 1aeb 4e3e 1985 e93c 81c5 02bf
00000030: 54cd 8f3e 2f65 83bd 1eb8 12be 3017 e8be

module.residual_layers.0.1.bn2.running_mean f4 [16]
-0.62300503 0.397937 -0.3410764 0.061872598 0.10848943 0.31717044 -0.69983363 -0.42145208
-0.024985477 0.021713655 -0.48268726 -0.09586869 -0.12882718 -0.79498404 0.057242587 -0.46087974
00000000: 427d 1fbf 66be cb3e 91a1 aebe 1f6e 7d3d
00000010: b52f de3d 2a64 a23e 4c28 33bf 91c8 d7be
00000020: 58ae ccbc d6e0 b13c c922 f7be ce56 c4bd
00000030: 46eb 03be 1384 4bbf 3477 6a3d 6ef8 ebbe

module.residual_layers.0.1.bn2.running_var f4 [16]
0.37361556 0.23806179 0.27809358 0.23643395 0.3103712 0.1783829 0.24423137 0.18474382
0.23029882 0.23800665 0.32225126 0.21580328 0.22830495 0.2316225 0.1594761 0.23067601
00000000: 8a4a bf3e 78c6 733e 4862 8e3e be1b 723e
00000010: f9e8 9e3e 02aa 363e ca17 7a3e 7c2d 3d3e
00000020: 74d3 6b3e 04b8 733e 1efe a43e 89fb 5c3e
00000030: c6c8 693e 732e 6d3e b44d 233e 5536 6c3e

module.residual_layers.1.0.conv1.weight f4 [32, 16, 3, 3]
-0.0673357 -0.06589612 -0.084100805 0.08958145 0.0066615473 0.21104316 0.039818022 0.018004302
0.34111577 0.1684964 0.033479795 0.29548967 0.011400845 0.11830082 -0.070467345 0.21092652
0.12234455 -0.019913523 -0.040440578 0.11202116 -0.08454966 0.17701687 0.009170306 0.101364225
-0.07085347 0.10044827 0.05880159 0.088974 0.0770487 0.25762102 -0.040766764 0.014969039
-0.13283388 0.06751995 -0.16162568 -0.15694112 0.0053087506 0.09525222 0.050715737 -0.1521901
0.05750789 -0.045085747 -0.12147895 -0.12786025 -0.11884029 -0.31316635 -0.23445283 -0.2662241
-0.06730745 -0.019776622 -0.015327732 0.007622794 -0.10049668 0.020204762 -0.1547587 -0.18748248
-0.06881857 -0.12864679 -0.02136151 0.091772676 -0.07545517 -0.04764941 0.031305645 -0.07665817
-0.24043934 -0.12693559 -0.1553402 0.13851693 0.09951434 -0.066049114 0.114404134 -0.058695063
0.05813141 0.028670857 -0.005301746 -0.038055066 0.022881618 -0.018653633 0.04203182 0.05453134
0.19750246 0.034803808 0.028159186 -0.13049023 -0.17495562 0.101365544 0.12493604 0.004918409
-0.029241411 -0.14894746 0.047821414 -0.10770715 -0.013109037 0.028291052 -0.03727003 -0.0060480186
0.03113112 0.023929004 -0.004325613 -0.056059852 -0.039515994 0.13494131 -0.12118506 0.09244114
0.093017384 0.04414688 0.1577663 -0.10486716 0.034953408 -0.018621372 0.21235391 -0.16018543
0.033681512 0.0252442 -0.047748305 0.026845146 -0.15932105 0.11282099 0.14675248 0.10093149
0.068971924 0.07243266 0.08838331 0.09801143 0.081157535 -0.02269513 0.05015458 0.11468015
-0.006543083 0.23969625 0.046585895 0.16303355 0.17047666 0.12213199 0.11950078 0.10047975
-0.11321164 0.05973802 0.045527242 0.15919457 -0.04746167 -0.05258363 -0.10771517 -0.01076453
0.07688525 -0.010256701 0.1073316 0.049563356 0.044313893 0.1603566 -0.07081591 0.072935864
0.10682874 -0.15525636 -0.034919314 -0.091197744 0.16389236 -0.03947401 0.0327235 -0.24202359
0.007198633 -0.18532996 0.06369995 0.10608933 -0.12001769 -0.027177943 -0.069453195 -0.21009676
0.21915358 0.12879147 -0.13771372 -0.3043422 -0.070749365 -0.22881137 -0.09378999 0.0883213
0.036323573 0.022169689 0.07214797 -0.0742208 0.06222529 0.143402 -0.054943684 -0.03582514
-0.047345825 0.058994904 0.08074864 0.1803055 0.13531384 0.02729481 0.17762958 0.09010286
-0.09114247 0.012891318 -0.037800517 0.045729563 0.01839581 -0.0894525 0.10606976 0.13166466
0.06621644 -0.101097316 -0.10443679 -0.13523906 -0.044057842 -0.016495228 0.019063754 0.05529266
0.10186634 -0.15656938 0.09918143 -0.071550645 -0.13290699 0.0835047 0.106664695 -0.09509608
-0.1024625 -0.1458776 -0.10706972 -0.07475292 -0.056332916 -0.0627744 -0.17851321 -0.034183767
-0.027209789 -0.13739459 -0.2627981 -0.07036072 0.13426988 -0.23888588 -0.1820176 -0.18174782
0.021091398 -0.21583648 -0.09455991 -0.029231653 0.07005764 0.039825484 -0.13503283 0.061190456
-0.10976679 0.09470952 -0.041516177 0.012903653 0.027480422 -0.17018771 0.052510433 0.016463745
0.14606574 0.035421245 -0.0026100208 -0.017878247 -0.066270046 -0.13677002 0.11196302 0.006973368
00000000: 4de7 89bd 8cf4 86bd 0b3d acbd 7b76 b73d
00000010: 1c49 da3b b31b 583e 3918 233d c27d 933c
00000020: baa6 ae3e 528a 2c3e 1c22 093d 6c4a 973e
00000030: 9cca 3a3c b347 f23d 2f51 90bd 1ffd 573e
00000040: c88f fa3d af21 a3bc 05a5 25bd 5a6b e53d
00000050: 5f28 adbd e943 353e 0d3f 163c 0c98 cf3d
00000060: a01b 91bd d3b7 cd3d f0d9 703d 0038 b63d
00000070: b5cb 9d3d e7e6 833e 0dfb 26bd b340 753c
00000080: 9b05 08be e647 8a3d 3481 25be 2cb5 20be
00000090: 07f5 ad3b 9913 c33d 4ebb 4f3d b9d7 1bbe
000000a0: 658d 6b3d d5ab 38bd f5c9 f8bd cced 02be
000000b0: 8a62 f3bd 5757 a0be 6714 70be 864e 88be
000000c0: 7dd8 89bd 9502 a2bc 2b21 7bbc a1c8 f93b
000000d0: 34d1 cdbd 7584 a53c 1179 1ebe 68fb 3fbe
000000e0: c0f0 8cbd fcbb 03be 55fe aebc 50f3 bb3d
000000f0: 3d88 9abd 072c 43bd 593a 003d f5fe 9cbd
00000100: bb35 76be 67fb 01be 8011 1fbe 62d7 0d3e
00000110: 2dce cb3d c244 87bd b74c ea3d 3c6a 70bd
00000120: 341b 6e3d 25df ea3c 45ba adbb a1df 1bbd
00000130: 3b72 bb3c 81cf 98bc 8f29 2c3d 415c 5f3d
00000140: 163e 4a3e 708e 0e3d 18ae e63c 3b9f 05be
00000150: 9127 33be bd98 cf3d 77de ff3d 9b2a a13b
00000160: af8b efbc af85 18be 63e0 433d 9195 dcbd
00000170: 49c7 56bc a3c2 e73c 75a8 18bd 752e c6bb
00000180: b106 ff3c c206 c43c dfbd 8dbb 049f 65bd
00000190: 86db 21bd 0e2e 0a3e df2f f8bd c851 bd3d
000001a0: e67f be3d 5cd3 343d 7d8d 213e 98c4 d6bd
000001b0: 4e2b 0f3d d98b 98bc 4e73 593e a607 24be
000001c0: a0f5 093d edcc ce3c ba93 43bd 5aea db3c
000001d0: 0f25 23be b10e e73d 4846 163e 2bb5 ce3d
000001e0: 2741 8d3d 9357 943d 4f02 b53d 37ba c83d
000001f0: ec35 a63d 23eb b9bc e46e 4d3d 6ddd ea3d
00000200: 5c67 d6bb ef72 753e dad0 3e3d 44f2 263e
00000210: 6f91 2e3e 5620 fa3d d3bc f43d 54c8 cd3d
00000220: 81db e7bd dbaf 743d c67a 3a3d e703 233e
00000230: 2b67 42bd ef61 57bd c599 dcbd b65d 30bc
00000240: 0476 9d3d b90b 28bc abd0 db3d f202 4b3d
00000250: 7c82 353d 8534 243e ef07 91bd 665f 953d
00000260: 07c9 da3d 86fb 1ebe 8e07 0fbd e2c5 babd
00000270: 66d3 273e 80af 21bd 1409 063d 08d5 77be
00000280: 83e2 eb3b 23c7 3dbe 1f75 823d 5d45 d93d
00000290: d6cb f5bd 47a4 debc 7a3d 8ebd 9b23 57be
000002a0: cc69 603e e9e1 033e d304 0dbe bed2 9bbe
000002b0: 0be5 90bd 874d 6abe f714 c0bd cce1 b43d
000002c0: 07c8 143d 359d b53c 51c2 933d 1301 98bd
000002d0: f2df 7e3d f9d7 123e a10c 61bd 62bd 12bd
000002e0: b2ed 41bd a4a4 713d 8b5f a53d 01a2 383e
000002f0: b68f 0a3e 5e99 df3c 87e4 353e d987 b83d
00000300: e7a8 babd 1b36 533c b7d4 1abd ec4e 3b3d
00000310: cfb2 963c df32 b7bd 1a3b d93d 1ad3 063e
00000320: 7c9c 873d 1c0c cfbd f5e2 d5bd 1c7c 0abe
00000330: ff75 34bd 0021 87bc 972b 9c3c 8e7a 623d
00000340: 4d9f d03d b953 20be a21f cb3d 2589 92bd
00000350: c518 08be 8304 ab3d 0573 da3d bcc1 c2bd
00000360: dcd7 d1bd f060 15be 5f47 dbbd 0f18 99bd
00000370: 58bd 66bd dd8f 80bd 2bcc 36be 4704 0cbd
00000380: 10e7 debc 2bb1 0cbe 798d 86be 4819 90bd
00000390: 0b7e 093e 809e 74be d262 3abe 1a1c 3abe
000003a0: dec7 ac3c 3d04 5dbe a0a8 c1bd 3877 efbc
000003b0: 617a 8f3d 0c20 233d 0c46 0abe d8a2 7a3d
000003c0: 69cd e0bd 11f7 c13d de0c 2abd d869 533c
000003d0: 9f1e e13c b045 2ebe 2e15 573d fade 863c
000003e0: 4292 153e de15 113d e20c 2bbb 6775 92bc
000003f0: 97b8 87bd 710d 0cbe de4c e53d da80 e43b

module.residual_layers.1.0.bn1.weight f4 [32]
0.5920223 0.4899432 0.63867646 0.65039515 0.48693404 0.6242193 0.54428136 0.43063313
0.54241025 0.5485554 0.44802055 0.48472288 0.5248589 0.54822546 0.5930328 0.5086135
0.5062782 0.5736866 0.43399078 0.5430933 0.56170356 0.4991039 0.5241492 0.33969036
0.59542406 0.528168 0.5818765 0.5279693 0.4319457 0.5440298 0.5589867 0.51988524
00000000: c68e 173f d6d9 fa3e 4d80 233f 4c80 263f
00000010: 6b4f f93e d6cc 1f3f 0656 0b3f f27b dc3e
00000020: 66db 0a3f 206e 0c3f f362 e53e 992d f83e
00000030: 275d 063f 8158 0c3f ffd0 173f 7f34 023f
00000040: 739b 013f 20dd 123f 0a34 de3e 2a08 0b3f
00000050: cecb 0f3f 8c8a ff3e a42e 063f e5eb ad3e
00000060: b66d 183f 0536 073f dcf5 143f ff28 073f
00000070: fd27 dd3e 8945 0b3f c119 0f3f 3317 053f

module.residual_layers.1.0.bn1.bias f4 [32]
-0.8808835 -0.44347307 -0.7494787 -0.872531 -0.5808955 -0.76125604 -0.5140229 -0.36102635
-0.62237483 -0.54746854 -0.25209114 -0.49296364 -0.6439585 -0.45348164 -0.65534025 -0.4229889
-0.5832739 -0.604383 -0.34874833 -0.5564892 -0.6537754 -0.43132597 -0.49238864 -0.13403754
-0.75634754 -0.45383197 -0.9337187 -0.7123607 -0.30087197 -0.5706339 -0.5876778 -0.46407583
00000000: 9581 61bf e70e e3be d6dd 3fbf 315e 5fbf
00000010: 91b5 14bf ade1 42bf 0197 03bf 72d8 b8be
00000020: f553 1fbf e626 0cbf 1712 81be bb65 fcbe
00000030: 77da 24bf bf2e e8be 61c4 27bf 0092 d8be
00000040: 7051 15bf d8b8 1abf 248f b2be 1476 0ebf
00000050: d35d 27bf c2d6 dcbe 5d1a fcbe 2341 09be
00000060: fe9f 41bf aa5c e8be 3008 6fbf 455d 36bf
00000070: e40b 9abe 1015 12bf 0d72 16bf 599b edbe

module.residual_layers.1.0.bn1.running_mean f4 [32]
0.6822341 -0.94922537 -0.9579572 -1.8476558 0.69560856 -1.4759989 -0.8934211 0.3698868
0.66522896 -2.7960804 -1.1270807 -1.9526222 -1.5460316 -0.9289244 -1.7990971 -1.1095431
-0.40443048 -1.5540642 -1.6549803 -1.3828514 -1.2703958 -0.3482133 -1.0677971 -0.98032266
-0.5976299 -0.09865912 -1.1278613 -0.29964355 -0.56456035 -1.5457908 -1.3255657 -0.058745176
00000000: e5a6 2e3f 6f00 73bf af3c 75bf fc7f ecbf
00000010: 6713 323f 88ed bcbf 3fb7 64bf cd61 bd3e
00000020: 724c 2a3f fbf2 32c0 2e44 90bf 86ef f9bf
00000030: 5de4 c5bf fdcd 6dbf d048 e6bf 8205 8ebf
00000040: 8311 cfbe 93eb c6bf 65d6 d3bf 4601 b1bf
00000050: 549c a2bf 0349 b2be 93ad 88bf 6df6 7abf
00000060: 46fe 18bf cb0d cabd c25d 90bf e16a 99be
00000070: 0787 10bf 79dc c5bf 23ac a9bf c89e 70bd

module.residual_layers.1.0.bn1.running_var f4 [32]
0.60144943 0.4455111 0.7997808 0.7069787 0.31753218 0.68580776 0.5786489 0.4110005
0.52959144 0.74753934 0.5966664 0.7078487 0.48249635 0.73293626 0.8968626 0.6937142
0.51974344 0.5675051 0.3163619 0.555567 0.666966 0.55314714 0.526697 0.36263245
0.82959896 0.5251014 0.400028 0.47307077 0.7355201 0.48261756 0.7355334 0.533855
00000000: 97f8 193f 081a e43e 6fbe 4c3f 8efc 343f
00000010: 9493 a23e 1991 2f3f 5622 143f a86e d23e
00000020: 4e93 073f bd5e 3f3f 21bf 183f 9335 353f
00000030: c309 f73e b6a1 3b3f ca98 653f 4197 313f
00000040: e80d 053f 0448 113f 30fa a13e a439 0e3f
00000050: 49be 2a3f 0d9b 0d3f 9dd5 063f f6aa b93e
00000060: 9960 543f 0c6d 063f 78d0 cc3e 5536 f23e
00000070: 0c4b 3c3f a619 f73e eb4b 3c3f b9aa 083f
