summaries/vanilla_ResNet2_num_blocks1x1_num_channels16_conv5/ckpt.pth (torch, 225715 bytes, 32 tensors)

module.conv1.weight f4 [16, 3, 3, 3]
000000 a0 af 04 be 17 0f 5f 3d c4 f2 8d 3e 7b cc 9e bc
       -0.1295762 0.05445775 0.27724278 -0.019384613
000010 6b 83 2a 3e 55 32 83 3e 2c 93 b1 3d 12 b7 81 3e
       0.16651694 0.25624338 0.08670649 0.25334984
000020 dd 6a 4c 3e bd 94 76 be d5 0c f3 bd 78 dc 8d 3d
       0.1996264 -0.24080177 -0.11867682 0.06926817
000030 f5 41 9f bd 12 b8 43 3d d9 bf 05 3e b3 5c 83 3d
       -0.07776252 0.047782965 0.13061465 0.06414165
000040 d2 ed 47 3e 91 3c 22 3e 24 91 92 be ef 17 2c be
       0.19524315 0.15843417 -0.28626359 -0.16806005
000050 e3 02 6c 3d 17 b5 2b be 54 10 19 bd e7 c3 9e 3d
       0.05761994 -0.16768299 -0.037369087 0.07752209
000060 d4 b8 4e bd ab 13 b2 3d 28 7c b6 3d 94 7e 42 bd
       -0.050469235 0.086951576 0.089104 -0.047483996
000070 6e 3b ac be d9 8c 5e 3e 72 e5 ae be 5b c2 97 be
       -0.3363909 0.21733417 -0.34159428 -0.2964047
000080 a1 75 81 3f d7 6a a7 3d 11 39 23 be cc de b2 3c
       1.0114022 0.08174675 -0.15939738 0.021834753
000090 a8 7e 60 be 2b b1 fe be 32 25 cc 3e 35 e9 cb be
       -0.21923316 -0.49744543 0.39872128 -0.3982636
0000a0 3e 41 cb be cc ff 89 3f f3 d2 94 3d 43 12 5a be
       -0.39698213 1.0781188 0.07266798 -0.21296029
0000b0 99 90 89 3d d9 ff 0a be 57 2d b7 be a1 07 9d 3e
       0.06717033 -0.1357416 -0.3577678 0.30669883
0000c0 05 48 f8 be b7 68 d8 be 7f ff 5a 3f 9e a4 31 3d
       -0.48492447 -0.4226739 0.85546106 0.04336988
0000d0 34 46 05 be da b4 5d 3e 26 38 6f 3d fa a8 60 be
       -0.13015062 0.2165102 0.058403157 -0.2193946
0000e0 54 36 06 3d 0d 55 65 3e ea d3 b3 bd 1d ea bd 3c
       0.032766655 0.22395726 -0.08780654 0.023182923
0000f0 4b f1 07 bc cf 80 f3 bd 35 14 c9 bd 5f fd 16 be
       -0.008297275 -0.11889803 -0.09818307 -0.14745091
000100 97 f5 0c bf d3 57 ee be 6d ac 2b 3e a4 f0 24 be
       -0.5506224 -0.4655138 0.16764994 -0.16107422
000110 09 69 22 be a7 d0 2c 3e c2 fe 4b 3d f0 d0 99 3b
       -0.1586038 0.1687647 0.049803503 0.0046940967
000120 9f cc 0e 3e 8e 5f 5c be 54 c4 3e be 86 52 6b 3e
       0.13945244 -0.21520826 -0.1862958 0.22980699
000130 e4 ee ce bd 89 01 18 be 06 f8 47 3e c1 16 7c 3a
       -0.101041585 -0.14844336 0.19528207 0.00096164277
000140 c2 a7 e8 bd 66 9d 8a bc 91 ac 68 3e e4 2c 10 be
       -0.11360122 -0.016920757 0.22722079 -0.14079624
000150 83 e5 18 3c 29 a0 38 3e 10 10 07 be 36 0e 8d be
       0.009332064 0.18029846 -0.13189721 -0.27549905
000160 05 7f 61 be 3c 72 93 be 87 0a a2 bd bb ef 6d 3e
       -0.2202111 -0.2879809 -0.07912164 0.23235981
000170 13 d1 53 be 35 24 95 ba d9 d4 92 3e fc c7 bc bd
       -0.20685224 -0.0011378588 0.28678015 -0.092178315
000180 18 97 5b be bc 44 f1 bc 21 c9 05 be 96 3e 95 3d
       -0.21444356 -0.02945172 -0.13065006 0.07287328
000190 b5 90 cc 3e ee 7f d3 3c 55 ec 46 3e 31 91 01 3f
       0.39954153 0.025817838 0.19426091 0.5061217
0001a0 5d f2 45 3e 31 91 a0 3b e6 16 6c 3e 85 8f 13 3e
       0.19330736 0.0049001207 0.2305561 0.14410217
0001b0 2e 62 5f 3f 6f 1c 2e 3f 39 1d e1 3e 4f 63 ad 3e
       0.87259185 0.68012136 0.43967608 0.3386483
0001c0 54 7b 94 bd 2d 83 c3 be 05 07 71 be e8 32 3b bf
       -0.072500855 -0.38186017 -0.23537834 -0.7312455
0001d0 8c 5f 6c bf 5e 64 cc be 68 f4 be be 47 22 a8 bd
       -0.9233329 -0.39920324 -0.37295842 -0.08209663
0001e0 f5 f2 91 be ab 08 71 bd ce b0 17 be a9 8b 85 3e
       -0.28505674 -0.058846157 -0.1481354 0.26083115
0001f0 f3 f8 12 3f eb 90 1e 3e 9a 72 71 bf 59 15 1e bf
       0.57411116 0.1548497 -0.94315493 -0.61751324
000200 41 7e 13 be 6a a5 00 bf 6b 7c 61 3e 59 ca a7 3e
       -0.14403631 -0.502524 0.22020118 0.32771567
000210 32 8c 92 3d 12 75 5d 3f 8f 44 18 3f 01 43 fa 3e
       0.071556464 0.8650676 0.5947961 0.48879245
000220 ca 21 51 3f ce 43 17 3f 5b 07 01 bd 92 92 f4 bd
       0.81692183 0.59087837 -0.031501155 -0.119420186
000230 01 fc 39 3e 53 65 e4 be d6 c2 5d bf 91 9d 98 be
       0.18162538 -0.44608554 -0.8662542 -0.29807714
000240 57 63 a5 3e bc 9d 3b 3f fc 1b e0 3e 3f 7a d0 bd
       0.32302353 0.7328756 0.4377135 -0.101795666
000250 6c ae 28 be ec 7c 90 bd 0e 49 8a be db a8 29 bf
       -0.16472787 -0.07055077 -0.2700886 -0.6627328
000260 1e 4c df be 10 1b 36 3e 79 27 dd 3e e0 a0 80 3e
       -0.4361276 0.17783761 0.43194178 0.25122738
000270 de f7 ed bd 4d d7 60 be ce c9 9c bd d2 45 f5 bc
       -0.116195425 -0.2195713 -0.07655679 -0.02994052
000280 9e 19 b6 be e2 20 15 be 01 61 af be 41 b3 21 bf
       -0.3556642 -0.14563325 -0.34253696 -0.63164145
000290 ca 79 83 be 16 97 34 be e5 84 e1 be 0e 2a 08 be
       -0.25678855 -0.1763576 -0.44046703 -0.13297293
0002a0 a7 03 3e be 88 60 cb be e8 f9 12 3d 61 e2 ee 3e
       -0.18556081 -0.39722085 0.03588286 0.46657088
0002b0 3f 03 00 3f bd 18 95 3e 0d e2 62 3f 32 41 6a 3f
       0.50004953 0.29120436 0.88626176 0.9150573
0002c0 72 f6 0a 3f 8a 7a ac 3e 0f 19 aa 3e 21 34 6c 3e
       0.54282296 0.3368724 0.33222243 0.2306676
0002d0 24 cf 37 be 2e 35 0a bf 82 29 3a be 6f 4d 0b be
       -0.17950112 -0.53987396 -0.18179896 -0.13603757
0002e0 d0 13 f5 be 77 d8 05 be 37 5e 9c be c3 72 00 bf
       -0.47866678 -0.13070856 -0.3054063 -0.5017511
0002f0 cb 37 4e 3d 02 5f 2c bf 67 12 87 be 0f 9f dc 3e
       0.050346177 -0.6733247 -0.26381227 0.43090102
000300 a2 4d a0 ba 55 77 ad bc 81 c7 bd 3c 1e f6 f2 3e
       -0.0012230168 -0.021175066 0.02316642 0.47453398
000310 bf d4 96 3d f5 dd bc be a0 73 b5 be 98 b9 24 3c
       0.07364797 -0.3688809 -0.35439777 0.010054015
000320 52 5e 0a 3f eb 09 a4 3d 6a b4 db 3d 6f f2 a9 3c
       0.5405017 0.08009704 0.107277706 0.020745484
000330 97 a3 91 3e 0d 51 9c 3c d5 0e e6 be 8a f4 8d be
       0.28445122 0.019081617 -0.4493319 -0.2772563
000340 e2 2f 0b bc 3d ef b0 3e c6 d0 22 3e c6 2e ef bc
       -0.008495303 0.34557524 0.15899953 -0.029197108
000350 ab cc 33 be 70 30 82 3e ef 6e 8d bd 93 03 e2 be
       -0.17558543 0.2542758 -0.069059245 -0.44143352
000360 c1 32 3c 3e 07 c8 37 ba c9 e0 11 3d 2d f7 d7 3e
       0.18378736 -0.00070107024 0.035614762 0.42180768
000370 45 36 e0 3d e8 4e 78 3d 91 2e 9b 3e 6a b0 e7 3d
       0.10947851 0.060622126 0.30308965 0.11312945
000380 f3 17 7b 3d d6 de 55 be fd 1a ee be b0 77 f3 be
       0.061302137 -0.20885786 -0.46504965 -0.47552252
000390 59 c7 26 bd d8 ab cd be 54 97 fc be 2f b7 9c bd
       -0.040717456 -0.4017017 -0.49334204 -0.07652127
0003a0 c7 51 8b be 01 c8 a9 be 49 0c 93 3e 58 fa 12 3e
       -0.2721083 -0.33160403 0.2872031 0.14353311
0003b0 94 ad b4 3d d4 23 e8 3e 3b b0 6e 3e da 4a 1e 3e
       0.0882217 0.45339835 0.23309414 0.15458241
0003c0 62 34 d7 3d 08 80 17 3d 3d 18 8d 3b 24 18 34 bf
       0.10508038 0.036987334 0.004305868 -0.70349336
0003d0 74 f4 91 bf 14 31 2e bf 60 15 94 3d 30 7c b5 bd
       -1.1402726 -0.6804364 0.072306395 -0.088615775
0003e0 e4 99 7c 3d 48 80 79 3f c8 83 75 3f a2 f5 11 3f
       0.0616702 0.97461367 0.9590421 0.5701543
0003f0 78 d8 e3 3e b7 88 80 3e ff dd d9 3e c9 cd 86 bd
       0.4450109 0.25104305 0.42552182 -0.06582219

module.bn1.weight f4 [16]
000000 a8 ec 0b 3f dc 4b 4b 3f 3a 54 2a 3f ed 0b e8 3e
       0.54657984 0.7941263 0.6653477 0.453216
000010 83 b6 21 3f 05 42 28 3f 5f 1c e7 3e 45 e8 45 3f
       0.63169116 0.6572574 0.45138833 0.7730754
000020 ef b0 82 3e 56 5c fa 3e d3 b0 36 3f b0 ea 2e 3f
       0.25525615 0.48898572 0.7136356 0.68326855
000030 2a 8b 8e 3f c7 12 9e 3e 03 6e af 3e 64 b8 19 3f
       1.113622 0.308737 0.3426362 0.6004698

module.bn1.bias f4 [16]
000000 55 1c b4 be 0f 99 a1 3e 81 52 10 bf be 73 11 be
       -0.35177866 0.31562087 -0.5637589 -0.14204308
000010 d0 a4 5e be 02 e8 44 bd 5e f1 4d bb bb 93 48 bf
       -0.21742558 -0.048072822 -0.0031424384 -0.7835042
000020 67 4e 7a 3c fc 05 73 be 43 9c 9f bd e8 d6 1a 3f
       0.015277482 -0.23732752 -0.077934764 0.6048417
000030 26 c9 5e 3f 1d f1 ef 3e 0d 7f 27 3e 00 87 20 3d
       0.8702568 0.46863642 0.1635706 0.039191246

module.bn1.running_mean f4 [16]
000000 8e 08 f5 3e 8b e8 d3 bd 34 f2 44 bf 4a 95 ec 3e
       0.4785809 -0.103470884 -0.7693207 0.4620765
000010 f7 04 83 bd 9e f3 79 bd 42 f8 1e be 66 cd a3 ba
       -0.06397431 -0.061023347 -0.1552439 -0.0012497127
000020 f7 30 8b bd ba 98 eb bd bc 52 b4 bd 9c bf a7 bd
       -0.06796449 -0.1150374 -0.08804843 -0.081908435
000030 16 bb 1c bd 4a 0f af be fd b3 b5 be be 66 60 be
       -0.038264357 -0.34191352 -0.35488883 -0.21914193

module.bn1.running_var f4 [16]
000000 70 b8 f1 3d 8b 3a ab 3e ec e2 4e 3e 69 4e 15 3e
       0.11802757 0.33443102 0.20203751 0.14580692
000010 5b 76 5a 3d 8e 4f 19 3f cf 77 db 3d 64 d0 1e 3d
       0.05333553 0.59887016 0.10716211 0.038772956
000020 e4 fa a3 3d 7b 71 24 3d aa 69 e8 3e 3e 61 fd 3d
       0.08006838 0.040147286 0.45393115 0.12372063
000030 5d 5a e8 3d 9d 44 16 3e de 72 54 3e 72 35 da 3e
       0.113453604 0.14674611 0.20746943 0.426189

module.residual_layers.0.0.conv1.weight f4 [16, 16, 5, 5]
000000 92 1a df 3d 76 26 74 3d 98 44 b3 3d 22 69 2e 3d
       0.1089374 0.05960699 0.087533176 0.04258073
000010 73 63 f1 3c ce ee 17 3e 3b c0 98 3d a5 8f 6c 3d
       0.029466366 0.1483719 0.0745854 0.057754178
000020 c7 ac e6 bb e5 cd f0 bc 9a 8d ca 3d 66 79 3c 3c
       -0.0070396396 -0.029395053 0.098902896 0.011503553
000030 3f 52 80 bc cc bd 81 bd f5 26 84 bd d9 ca 84 3d
       -0.015664218 -0.06335029 -0.06452743 0.064840026
000040 74 ce 9b 3c 47 fe 6b 3c 93 11 f3 bc e9 85 b4 bc
       0.019019343 0.014403886 -0.029671466 -0.02203651
000050 85 8f 39 bc ba 43 55 bd 10 54 0a bd 43 d2 8e bd
       -0.011325722 -0.052066542 -0.033771574 -0.06973698
000060 57 e2 2a bd 62 0b e9 bd 74 ee c9 bc 03 44 08 3e
       -0.04171976 -0.11379124 -0.024649836 0.13307194
000070 73 93 ef 3d 50 c2 a2 3d 57 9b b8 3d 6a b5 a5 bd
       0.116980456 0.079472184 0.09014004 -0.080912426
000080 41 8c 93 bd a7 09 c4 bd 75 29 47 bd bd 44 d0 3c
       -0.07204486 -0.095721535 -0.04862352 0.025423402
000090 c6 b7 34 bd 2d d8 64 3d e1 18 01 be a1 9d b8 bd
       -0.044120573 0.055870224 -0.12607147 -0.0901444
0000a0 3a 2a 1d bd 2e 81 fc bc e1 da be bc 1c 45 22 bd
       -0.03837035 -0.030823316 -0.023297729 -0.03961669
0000b0 ab 25 b0 bd 69 d6 dd bd b3 09 5f bd e0 30 f2 bb
       -0.086009346 -0.10831911 -0.05445261 -0.0073910803
0000c0 28 cd bb bc 82 41 a7 bc 90 6a fa 3d e5 85 71 3d
       -0.022924975 -0.020416979 0.122273564 0.058965582
0000d0 03 40 57 3d d6 ab a2 3d c5 c8 5d 3e e4 ef 43 bd
       0.05255128 0.07942931 0.21658619 -0.0478362
0000e0 ec 2f 1b bd 1c 8b 07 bd 3e 82 86 bc 38 b3 8c bc
       -0.0378875 -0.03309165 -0.016419526 -0.017175302
0000f0 cb 6f 4f bd 04 eb d4 bc 20 45 63 bc 6f e8 60 3d
       -0.050643723 -0.02599097 -0.013871461 0.054909166
000100 ba 24 3f bb 60 fe 72 3c 07 bd 4d 3c 50 34 8f bd
       -0.0029166178 0.014831156 0.012557275 -0.069924
000110 87 d5 9b bd 3c 04 b4 bd 2f aa b5 3c 66 a5 67 3d
       -0.076090865 -0.0878987 0.022175876 0.05655422
000120 f1 93 fd bc 47 bf 03 be 64 24 c9 bd 58 29 1c bd
       -0.030954333 -0.12865935 -0.09821394 -0.038125366
000130 66 2e e2 bd b5 94 59 bd 75 1b 4c bd 2d 3f 92 bd
       -0.11044006 -0.053120334 -0.049830873 -0.07140956
000140 9c 8a 99 3c 6f d4 c6 3c f8 53 70 3d b9 73 90 3c
       0.018742852 0.024271218 0.05867383 0.017633306
000150 08 f5 00 bc 27 a7 96 3a 38 ae 63 3d 71 1e cb 3d
       -0.00787092 0.0011493907 0.05558607 0.099179156
000160 44 21 4a 3d c8 1b 32 3d 79 e7 52 3b 2a ff d9 bb
       0.04934813 0.043483526 0.0032181425 -0.0066527324
000170 f1 f5 6b 3d 20 09 1d 3d 63 99 54 3d ed 8f 61 3d
       0.057607595 0.03833878 0.051904093 0.0550689
000180 ab a1 57 3c dd b4 80 3d 81 a8 9f 3c d7 e4 54 bc
       0.013161103 0.06284497 0.019489529 -0.012994013
000190 45 da 00 3e e6 89 ec 3c 21 d8 25 bd 5a d7 0d be
       0.12583263 0.028874349 -0.04048932 -0.13851681
0001a0 15 b3 eb bd b2 2e 4a 3e 3b 53 33 3e 63 88 80 3e
       -0.115087666 0.19744375 0.17512219 0.25104055
0001b0 ec 08 6a 3e bc a8 25 3e 34 91 d5 bc 14 6a ad bd
       0.22854966 0.16177648 -0.026070215 -0.084674984
0001c0 35 79 b5 3b fd 52 dc 3c cb 14 5f 3d b4 4b 86 bd
       0.0055381306 0.02689504 0.05446319 -0.06557408
0001d0 7b d9 96 bd 4d 6b be bc 62 19 18 bd a8 80 4b 3d
       -0.073657 -0.023244524 -0.037133582 0.049683243
0001e0 f1 58 9a 3c 80 6d 13 be 00 42 2d be c1 11 78 bb
       0.018841239 -0.1439724 -0.16919708 -0.003785238
0001f0 75 0d ca 3d 6e 25 e0 bb 51 a1 82 bd 81 41 ac bd
       0.09865848 -0.0068403995 -0.06378425 -0.084109314
000200 12 8f bf bd 0d 5d 24 bd 85 e7 68 3e 06 c1 0e 3e
       -0.0935346 -0.040127803 0.22744568 0.1394082
000210 e7 29 53 3c 2b 89 e4 bd 53 9b 08 be 72 d5 1d 3e
       0.012888408 -0.11158975 -0.13340501 0.15413454
000220 b0 64 22 3e f7 c9 99 3c c7 1f 1b be 16 fb 88 be
       0.15858722 0.018773062 -0.15148841 -0.26754063
000230 9d ad 85 bd 70 52 46 bd 0a f6 ff bd e2 45 34 be
       -0.06527255 -0.048418462 -0.124981 -0.17604783
000240 81 24 68 be f3 bf 44 3e ab 73 54 3e 95 9c fe 3d
       -0.22670175 0.19213848 0.20747249 0.124322094
000250 a9 35 be 3d c3 71 ab 3d 2c a3 57 3d 09 cf cd 3d
       0.092875786 0.08371308 0.052645847 0.100492544
000260 e3 27 9d 3d 59 56 be bc c6 f4 a5 bd fd a6 da bc
       0.076736234 -0.023234533 -0.081033275 -0.026690954
000270 dd 7e 72 3d 66 4d 9f 3d e6 7c f6 3b 92 4a 5a bc
       0.059203018 0.077784345 0.0075222133 -0.013323443
000280 70 f6 38 bc 3c 36 05 3d 2c a9 41 3c b0 66 a4 bb
       -0.011289224 0.032522425 0.011820119 -0.005017124
000290 cc 8f 09 3c 4f 89 1c bd d8 c3 05 bc 67 72 4d bd
       0.0083961 -0.038216885 -0.008164369 -0.05015793
0002a0 8c 3b a0 bd 02 1c 98 bd 7a 07 05 be e4 a2 db bd
       -0.07823858 -0.07427217 -0.12991133 -0.10724428
0002b0 a0 b1 d9 bd 81 93 19 be 09 30 1d be 65 e5 b6 bd
       -0.106295824 -0.14997675 -0.15350355 -0.08930472
0002c0 bf a0 d9 bd d4 98 70 bc f4 d7 35 3d 93 6c 57 3e
       -0.10626363 -0.014684875 0.044395402 0.21037512
0002d0 f9 43 c3 bd 02 a1 79 3c af ad 9a 3d 70 30 6a 3d
       -0.09534449 0.015236141 0.07552659 0.0571751
0002e0 0f 89 34 3e 2d 75 d7 bd fa 72 e7 bd 88 ae 80 bd
       0.17630409 -0.105203964 -0.11301227 -0.06283289
0002f0 91 86 89 bc 81 fe 32 3c 4f c4 ef 3c 2b fe 84 bd
       -0.0167878 0.010924936 0.029268412 -0.06493791
000300 fe 03 33 bd 91 2b 98 bc 18 bd bb 3d 74 e1 18 bc
       -0.04370498 -0.018575462 0.09166926 -0.009331096
000310 93 4c 91 3c 6b 80 1f 3d 72 32 72 3d 60 50 8e bc
       0.017736709 0.03894083 0.05913014 -0.01737231
000320 0a 11 a4 bb b9 f3 83 bc 02 8b 4e 3c 7b fc 1d 3c
       -0.005006914 -0.016107427 0.012606384 0.009642716
000330 ba 5d 40 bd 6d 4e 0b 3c 06 8e 0f bb 45 be 44 3d
       -0.046964385 0.008502585 -0.002190472 0.048033018
000340 9a a1 da 3c 33 cd 82 bd f7 e6 82 3c a6 eb 64 bd
       0.026688386 -0.06386795 0.015979273 -0.055888794
000350 18 87 fc bc 93 08 b1 3b df 7c e3 bc d7 ec 0f 3d
       -0.030826136 0.0054026335 -0.027769504 0.035137977
000360 11 0f 77 bd 17 4b d4 bd 33 e4 41 bd 97 ae 09 bd
       -0.060317103 -0.10365885 -0.04733677 -0.033613767
000370 96 0d 0f 3d 90 8c 0f bd be 20 de bd 3f e0 9b bd
       0.034925066 -0.03504616 -0.10846089 -0.07611131
000380 af d3 51 bd 9d ae 4a 3e 54 fc 15 3e bc 86 28 3d
       -0.051227268 0.19793172 0.14647037 0.041144118
000390 7a 97 ac bc 4c 24 07 be 8f 94 7d 3e 0e 35 88 3e
       -0.021068323 -0.1319744 0.24763702 0.26602978
0003a0 fe 12 48 3e 57 6b ff 3d 66 ba 8b bc 78 06 7b bc
       0.19538495 0.12471645 -0.017056655 -0.0153213665
0003b0 48 89 8b bd 06 d4 2a bd 41 58 0c 3d 94 49 0c bd
       -0.06813294 -0.041706108 0.034263853 -0.034249857
0003c0 49 d3 1e be bc fa 0e be e5 b1 16 be 16 79 6f bd
       -0.15510286 -0.13962835 -0.14716299 -0.058465086
0003d0 51 aa 35 bd 26 6a 4b be d4 c0 a4 bd 4a 88 da bd
       -0.04435188 -0.19864711 -0.080445915 -0.10670526
0003e0 77 d1 76 bd 14 7d 72 bd 0a 0f 19 be 17 04 52 3c
       -0.060258355 -0.059201315 -0.14947143 0.012818358
0003f0 c7 71 fc 3d fc 3c 36 3e b6 6f 9b bd 22 2d c4 bd
       0.12326389 0.17796701 -0.075896665 -0.09578921

module.residual_layers.0.0.bn1.weight f4 [16]
000000 16 55 1b 3f d9 2e 6c 3f c2 3e a7 3f d9 5f 65 3f
       0.60676706 0.92258984 1.3066027 0.89599377
000010 41 6f 5e 3f 59 58 95 3f 91 51 92 3f 40 22 8c 3f
       0.8688851 1.1667587 1.1431142 1.0947952
000020 95 6d 58 3f 26 1e 68 3f ec cf 52 3f 37 eb 8d 3f
       0.8454221 0.90671 0.82348514 1.1087407
000030 8f 41 48 3f 88 a1 24 3f 21 35 5e 3f f2 09 53 3f
       0.78225034 0.6430898 0.8679982 0.8243705

module.residual_layers.0.0.bn1.bias f4 [16]
000000 ed 53 48 3d 76 c7 be be 94 ea 18 bf 57 4c 02 be
       0.048908163 -0.37261552 -0.5973294 -0.12724434
000010 79 71 e8 be 3f 0a 40 be 5d b3 d1 be 94 73 0e bf
       -0.45399073 -0.18753909 -0.40957156 -0.5564511
000020 bb e8 98 be 4d a8 96 be 1c 1a d4 be 36 32 ad be
       -0.2986506 -0.29425278 -0.4142617 -0.3382737
000030 7e da d3 3d c8 1c 89 3e 12 43 10 be 21 4d 64 be
       0.103444085 0.2677977 -0.14088085 -0.22295047

module.residual_layers.0.0.bn1.running_mean f4 [16]
000000 62 96 56 3f 95 6d 71 bf b5 bb 38 bf d1 b3 c2 be
       0.83823216 -0.94307834 -0.7216142 -0.38027814
000010 b4 1c 16 3f cb 4a 45 bf 1c 45 82 be 96 4f 08 c0
       0.5863755 -0.7706725 -0.2544335 -2.1298575
000020 61 31 eb be 2b e8 11 bf a9 75 83 bf 40 f4 22 bf
       -0.4593611 -0.56994885 -1.0270282 -0.63653946
000030 11 9e d9 be da 8d 28 bf cb 00 a6 bf 42 2e 4c bf
       -0.42503408 -0.6584145 -1.2968992 -0.79758084

module.residual_layers.0.0.bn1.running_var f4 [16]
000000 1a ea 0b 40 dc 7b 97 40 73 f7 8f 40 5b 74 06 40
       2.1861634 4.7338696 4.498956 2.1008518
000010 0f 84 32 40 d4 b6 19 41 de 49 7d 40 e1 1b f9 3f
       2.7893102 9.607136 3.9576335 1.9461633
000020 9f e4 2d 40 2a 88 4e 40 85 b6 db 3f 1e 41 c4 40
       2.717079 3.2270608 1.7165076 6.132949
000030 77 f4 06 40 a1 87 09 40 47 b4 10 40 1f ab ec 3f
       2.108671 2.1489031 2.2610033 1.8489722

module.residual_layers.0.0.conv2.weight f4 [16, 16, 5, 5]
000000 fa b9 6f 3c 9d c7 0a be 4f ca c5 bd 31 6b 65 bd
       0.014631743 -0.13552709 -0.09657728 -0.05601043
000010 5b 34 c2 3c d1 bb 4d bd b0 b1 2c be d7 75 74 be
       0.023706606 -0.050227944 -0.16864657 -0.23873077
000020 58 4c 30 be 07 68 65 bd ac ea 0d be bb 5d 15 be
       -0.17216623 -0.05600741 -0.13859051 -0.14586537
000030 05 19 05 be 32 28 05 bd 38 36 af bd 34 38 a7 3d
       -0.12997825 -0.032509036 -0.08555263 0.08165017
000040 6b 2d 25 bc 6a d8 0b bd 16 1b 92 3d c9 6e 82 bd
       -0.010081629 -0.034141935 0.071340725 -0.06368787
000050 8f d2 1c be 03 b4 1a be 38 c8 d3 bd 88 74 50 3d
       -0.15314697 -0.15107732 -0.10340923 0.050892383
000060 a7 7d ab bc 79 bc 33 be 26 e3 c4 3c 78 2d 02 be
       -0.02093394 -0.17552365 0.024034094 -0.12712657
000070 02 d3 50 bc 7f fc 4f be cd 2d 33 be f6 7d f3 bd
       -0.012745621 -0.20311163 -0.1749794 -0.118892595
000080 a4 cf 3c be ba 32 a8 bd eb f7 58 be e2 ca 1b bd
       -0.18438584 -0.082128 -0.21188323 -0.03803528
000090 41 8c a2 bd b3 2a d9 bd 3e d8 15 be 57 73 48 bd
       -0.079369076 -0.10603847 -0.14633271 -0.04893812
0000a0 23 07 b5 bd b0 e3 cd bd 09 a1 22 be db af 98 bd
       -0.08839252 -0.100531936 -0.15881743 -0.07455417
0000b0 ea d7 82 bd 33 ee f4 3b 0e bc c5 bd 99 7a 1f be
       -0.063888386 0.0074746846 -0.09655009 -0.15574111
0000c0 da 24 2f bc 8b 57 b0 bd 40 8a 83 3a db e7 87 be
       -0.010689938 -0.086104475 0.0010035709 -0.2654408
0000d0 c0 23 63 be 71 67 65 be d7 6f 3a be 32 6a 79 be
       -0.22181606 -0.22402741 -0.18206726 -0.24356917
0000e0 b8 57 e9 be 07 70 b2 be 9e 6e 49 be d0 ea d4 bd
       -0.45574737 -0.34851095 -0.19671103 -0.103963494
0000f0 fb e5 4b be d4 43 52 be 65 be 2a be 8d d8 95 be
       -0.1991195 -0.20533687 -0.16674192 -0.29266778
000100 5b 2f b7 be ef a7 90 be 32 35 9c be 9f 23 af be
       -0.35778317 -0.28253123 -0.30509335 -0.34206864
000110 e8 41 99 be 22 c2 cc be 26 61 7a be 2b 12 87 be
       -0.29933095 -0.39991862 -0.24451122 -0.2638105
000120 ea f9 87 be 01 c2 7c be b9 2d 9f be 5d f0 40 3e
       -0.26557857 -0.24683382 -0.3108957 0.18841691
000130 ee 78 a7 bd 8e bc 04 3d 62 8d f5 3c cc 0a ff 3d
       -0.081773624 0.032406382 0.029974643 0.12453231
000140 43 95 3f be 64 ba 2d be f0 96 a8 be 7e 33 7e bd
       -0.18709283 -0.16965634 -0.32927656 -0.062060826
000150 c8 a4 b6 bd ba 0c a1 3d 78 31 e2 3d 9a 0d 8a 3b
       -0.08918148 0.078637555 0.11044592 0.004213047
000160 79 9f 07 3e 46 61 e9 bd 56 36 c8 3d db da 6d 3e
       0.13244428 -0.113955066 0.09775989 0.23228018
000170 da df c4 3d 71 2b 45 3d 24 e0 90 bd 3c 30 45 be
       0.09613009 0.048137132 -0.070740014 -0.19256681
000180 6d 76 83 3d b1 c6 c5 3d 56 67 2c be 72 00 18 be
       0.06419072 0.09657038 -0.16836295 -0.1484392
000190 99 2b d9 3c 8c 3e d8 bd a0 73 04 be ea b0 fe 3d
       0.026510047 -0.10558805 -0.12934732 0.124360874
0001a0 ac 1f 1e 3e 81 9b 62 3d b8 19 07 be 6a f9 11 be
       0.1544177 0.05532408 -0.13193405 -0.142553
0001b0 e4 b6 86 3c 7c 34 06 3e 64 80 c2 3d 89 d2 04 be
       0.01644463 0.13105959 0.09497145 -0.12970938
0001c0 2c 25 ae bd 10 53 3e bd e2 55 01 3d 87 42 69 be
       -0.08503184 -0.046465933 0.031576045 -0.22779284
0001d0 1e dd 48 be 89 75 dc bc f5 b1 ec bc 87 61 13 be
       -0.196156 -0.026911514 -0.02889345 -0.14392672
0001e0 18 bb 55 be aa 32 b6 3d c4 2f 19 3e 47 f1 e8 bc
       -0.20872152 0.08896382 0.14959627 -0.028435363
0001f0 49 9e a4 3a d8 f2 c4 3e 6f 44 c5 3d cd 46 9f bd
       0.001255938 0.38466525 0.09632193 -0.07777176
000200 43 c2 66 be 8c 29 f0 bd fa 72 d4 3d 33 f1 67 bd
       -0.22535042 -0.117266744 0.103734925 -0.05662651
000210 8d 5f 65 be 77 57 52 be da 11 50 bd 6a d3 90 bd
       -0.22399731 -0.20541178 -0.050798275 -0.07071574
000220 a5 ae 3e be 93 2e 90 bd aa 7d 87 bd 14 22 c3 3d
       -0.18621309 -0.07040133 -0.066157654 0.09527984
000230 ae 84 cf bd 95 82 c7 bc 91 bb 2f be 31 81 80 3d
       -0.101327285 -0.024354259 -0.17161395 0.06274641
000240 fb 3a 67 3d f8 de 88 3d 25 f4 44 3d 39 08 6e be
       0.056452733 0.06683153 0.048084397 -0.23245324
000250 ac 41 29 3e 82 a5 08 3d 50 fb 8f 3e 0b 9b 17 3d
       0.16528958 0.033360966 0.28121424 0.037013095
000260 18 ba 13 3e bc 4e b5 bb 8e 3c 66 bd ef 85 a9 3d
       0.14426458 -0.0055330675 -0.056210093 0.08277499
000270 a8 23 08 be 72 f8 26 3e c6 af bc 3d 61 dc 64 3d
       -0.13294852 0.16305712 0.092132136 0.055874232
000280 e0 70 9b bc 92 43 70 3e bf 50 9b 3e 79 9e ec 3e
       -0.018974721 0.23463276 0.30335042 0.46214655
000290 c5 31 13 bd a7 d3 84 3e f0 29 6f 3d 5d dd 8a 3c
       -0.035936136 0.25942728 0.058389604 0.016951257
0002a0 86 5d 22 3e e8 a9 12 3e 69 3f c8 3e f8 c2 82 bd
       0.15855989 0.14322627 0.39110878 -0.063848436
0002b0 2e 68 1f bd 90 ea 6e bd c3 30 cd bd 79 e4 5c 3e
       -0.038917713 -0.058329165 -0.10019066 0.2157153
0002c0 bf 79 01 3d 0b d7 98 3e 0e 3a d2 3b d3 49 8f 3d
       0.031610247 0.29851565 0.006415612 0.06996503
0002d0 b9 7a 53 3e 42 8e 61 3e 5c 07 1f 3e b6 88 c5 bd
       0.20652284 0.22026923 0.15530151 -0.09645216
0002e0 7f a1 57 b9 55 70 87 3e 3e 5b d2 bc 26 36 85 3e
       -0.0002056416 0.2645289 -0.025678273 0.26017874
0002f0 4f 84 8a 3d db a9 22 3e 6d ac d8 3c b9 75 46 3e
       0.06763517 0.15885107 0.026449407 0.19380845
000300 c3 36 cd 3d bb f2 4c bb fe 6b a0 3d 5a 9f 27 3e
       0.100202106 -0.0031272608 0.07833098 0.16369382
000310 46 20 b3 bd df 6a 1b 3e 90 f3 ef bd f6 90 a0 3d
       -0.0874639 0.15177487 -0.11716378 0.07840149
000320 11 e9 ae 3d b6 7f 83 3d d1 93 56 bc 62 b1 d1 bd
       0.08540548 0.06420843 -0.013096766 -0.10238911
000330 48 a8 cb 3b ab 8a 64 3e ec e2 a7 3d 69 53 5c 3d
       0.006215129 0.22318523 0.08197579 0.053790484
000340 9d a4 84 3c 9a bf 69 3e 30 01 9d 3e 43 0b d5 39
       0.016191775 0.22826996 0.30664968 0.00040634917
000350 80 d7 cc bc 3b 5c 3b 3d a5 72 c6 3d 4a ba 5a 3d
       -0.025005102 0.045742255 0.096898355 0.053400315
000360 cd d2 4e bd 06 5a ad 3d 00 37 8b bc 87 2d 23 3e
       -0.050494004 0.08464436 -0.016994 0.15935336
000370 95 97 71 3c cc 2b f3 bb a2 d0 46 3d 40 5a 97 bd
       0.014745613 -0.0074209925 0.04853881 -0.07390261
000380 55 9a a5 bd e6 55 04 3e 98 d3 03 3e 66 fc c7 3c
       -0.08086077 0.12923393 0.12873685 0.024412345
000390 48 87 99 bb 78 f9 89 3e e2 a4 77 3e 66 8d 73 3e
       -0.0046853162 0.26948142 0.24183992 0.23784408
0003a0 c7 98 be 3e 4a 85 bf 3d d6 9c 9b 3d a7 59 8b bc
       0.37225935 0.09351595 0.075982735 -0.017010523
0003b0 16 37 ce 3d 20 e4 f0 3c d6 7e 17 be b4 cb cf bd
       0.100691006 0.029405653 -0.14794478 -0.10146275
0003c0 19 6d 45 bd 4f 28 e1 ba 19 42 74 3d ae 2c 08 be
       -0.048199747 -0.0017178151 0.059633348 -0.13298294
0003d0 c6 82 8b 3d b1 e3 e7 3d 8a 43 b9 bc f7 90 8b bd
       0.068120524 0.113227256 -0.022615213 -0.06814759
0003e0 4f 50 2d bd 8f da a6 3e 47 83 83 3d 4d 6a 24 3c
       -0.042312916 0.32588622 0.064215235 0.01003511
0003f0 50 2d 85 3d 3b 37 ea 3d 71 29 87 bc eb 9a 2f 3d
       0.06502783 0.114363156 -0.016499253 0.04287235

module.residual_layers.0.0.bn2.weight f4 [16]
000000 15 0e 88 3f 0a b1 80 3f a3 b4 ab 3f ed 52 4e 3f
       1.0629297 1.0054028 1.3414501 0.80595285
000010 e4 ed a0 3f 12 09 8c 3f 53 70 99 3f 57 dd a7 3f
       1.2572598 1.0940268 1.1987404 1.3114423
000020 10 16 c3 3f 1d 12 af 3f 7d 2a a7 3f 54 58 a2 3f
       1.5241108 1.3677403 1.3059841 1.2683206
000030 72 99 9a 3f 0b 72 63 3f 0c 4e 60 3f d8 54 8f 3f
       1.2078078 0.8884589 0.8761909 1.1197767

module.residual_layers.0.0.bn2.bias f4 [16]
000000 cc dc 0b 3e f2 b1 13 be 59 3a ca be ba ca ee bd
       0.13658446 -0.1442335 -0.3949764 -0.11659761
000010 fb a3 8c be 78 47 39 bc b4 81 0c be a0 5e a4 3b
       -0.27468857 -0.011308543 -0.13721353 0.005016163
000020 ba c7 b9 be 54 21 ab bd 7a 44 03 3c c6 45 04 bf
       -0.36285192 -0.08355966 0.008011932 -0.51668966
000030 b2 de a2 bf 5b b6 94 be b8 f3 9e bd fe d7 05 bf
       -1.2724211 -0.29045376 -0.077613294 -0.522827

module.residual_layers.0.0.bn2.running_mean f4 [16]
000000 54 f1 3f bf f5 ed 8e bf 87 10 9d bf 2f e9 30 bf
       -0.7497761 -1.1166369 -1.2270669 -0.6910581
000010 71 56 66 bf 9d 25 c8 bf 38 de b3 bf fc 6d eb bf
       -0.8997565 -1.5636479 -1.4052191 -1.839294
000020 05 5a 20 c0 1f bd 17 c0 6b 1f 03 c0 39 9c 92 3d
       -2.5054944 -2.370918 -2.0487926 0.07158703
000030 29 84 24 bf 7a 18 be bf b7 fd 81 bf c5 2a 88 bf
       -0.6426416 -1.485122 -1.0155553 -1.0638052

module.residual_layers.0.0.bn2.running_var f4 [16]
000000 34 9a 9f 40 c1 cd 3e 40 49 a5 70 40 87 46 10 40
       4.9875736 2.9813082 3.7600882 2.2543046
000010 c8 fe 3c 40 f3 28 7e 40 e2 8d 58 40 e5 1f 78 40
       2.9530506 3.9712493 3.3836598 3.8769467
000020 05 83 c5 40 cc c4 86 40 a2 7f 80 40 18 99 82 40
       6.1722436 4.211523 4.01558 4.081188
000030 12 9c 3d 40 c0 38 40 40 e5 ca 34 40 57 24 25 40
       2.9626508 3.0034637 2.8248837 2.580343

module.residual_layers.1.0.conv1.weight f4 [32, 16, 5, 5]
000000 b2 34 ff bd ae 3e 9f 3d d6 ef 3d bd 56 07 6c bd
       -0.12461223 0.07775627 -0.046371303 -0.057624184
000010 2e f6 09 be 9b 8a d8 3d fc e9 b0 3d d7 a0 cf 3d
       -0.13472816 0.10573312 0.08638379 0.101381
000020 6d 7f 91 bc 52 18 99 3c f8 ee 8d bd c8 03 07 3e
       -0.017760957 0.018688355 -0.06930345 0.13185036
000030 f1 33 4b bc bb 56 de bc de 99 0e be 48 99 3d bc
       -0.0124025205 -0.027140966 -0.13925883 -0.01157219
000040 4a dd 87 3e 3d fd af 3c b7 cc 34 be 6b 8d 3e be
       0.26536018 0.021483058 -0.17656218 -0.18608634
000050 ee 40 23 bd d2 e4 0f 3e 53 7a a4 bd 01 d7 fb bc
       -0.039856844 0.14052132 -0.08031144 -0.03074217
000060 ac 5e 62 bd 81 b7 c5 bd d0 8f be bd 58 3c 7c bd
       -0.055266067 -0.09654141 -0.09304774 -0.061580986
000070 31 e0 5f bd f3 44 2e be 96 a2 13 be 59 46 d9 bd
       -0.054657165 -0.1701849 -0.1441749 -0.10609121
000080 31 9b 1c be 97 30 17 be c3 00 fe bd 2c ed 43 be
       -0.15293576 -0.1476463 -0.12402489 -0.19133443
000090 6a 8a b2 bd a9 d2 31 be 3c 74 a7 bd 29 33 8a b9
       -0.08717807 -0.17365517 -0.08176467 -0.00026359528
0000a0 78 92 55 bc b4 4e 70 bd 7e b0 15 be 34 07 17 bd
       -0.013035409 -0.058668807 -0.14618108 -0.036872104
0000b0 bb 70 9c 3d 23 9f ed bc a3 74 10 be 13 09 3b be
       0.07638689 -0.029006546 -0.14106993 -0.1826518
0000c0 10 5a 0d be ae 72 ac 3c ea 4c d0 3d 59 22 4c 3d
       -0.13803887 0.021050777 0.1017092 0.049837444
0000d0 bb 55 39 bd 45 41 06 bd 84 59 1b be 93 78 df 3c
       -0.045247775 -0.03277709 -0.15170866 0.027279174
0000e0 39 4b e0 3b 37 fd 1d bc b5 a9 22 be 94 82 06 be
       0.0068449047 -0.009642891 -0.1588505 -0.13135749
0000f0 6b 64 09 bb 5e 96 39 bd ca 98 cf 3d a8 fe 01 be
       -0.0020964395 -0.045309417 0.10136564 -0.126948
000100 3e 9d 6e bd 7e 50 21 3e 1f 89 0e 3e d9 b3 9f 3c
       -0.058255427 0.15753362 0.13919495 0.019494938
000110 0d 5e 2d bd 82 4c 74 3d 96 6d d0 3d 02 01 d3 bc
       -0.042326022 0.059643276 0.10177152 -0.025757316
000120 4f aa 06 3e f1 8b 39 bd be 82 57 3d f4 5f 7d 3d
       0.13150905 -0.045299474 0.05261492 0.061859086
000130 93 6c 83 3d 2a 58 29 3e 06 57 3c 3e da 9f 09 3e
       0.06417193 0.16537538 0.18392572 0.13439885
000140 7d dc bf bb 16 93 f9 ba 7f 07 b7 3d d1 30 1f be
       -0.0058551417 -0.0019041027 0.08936977 -0.15545966
000150 2c f1 79 bd 5b ab eb 3d 73 c7 3c bd 66 08 24 be
       -0.061021015 0.11507293 -0.046088647 -0.16018829
000160 31 12 98 be f9 83 8d bd d0 1e 35 bd 04 96 ae bd
       -0.2970138 -0.069099374 -0.04421884 -0.08524707
000170 fb 79 1a be 6c ac e7 bd 84 cb 18 bc 0b 71 0b 3c
       -0.15085594 -0.11312184 -0.009325866 0.008510838
000180 52 a2 37 3d fe 2d 5b bd 96 cc 36 3d 60 10 18 bd
       0.044832535 -0.05351066 0.044628702 -0.03712499
000190 98 9f ac bd 66 d5 2d be 12 9d 83 be 2f d2 00 3d
       -0.084288776 -0.16975936 -0.25705773 0.031450447
0001a0 ab c1 30 3e 4f db 95 bd 23 4e 2b be fe e3 ea bd
       0.17261378 -0.073172204 -0.16729026 -0.11469267
0001b0 d7 3e 7a 3d e8 a1 69 3e 5c f5 a5 3d 37 9e cf bd
       0.061095085 0.22815669 0.08103439 -0.10137599
0001c0 db 5d 36 bd 49 fe d3 3c b5 d5 84 3d fb 8e 99 bd
       -0.0445231 0.025878089 0.06486074 -0.074979745
0001d0 be 32 2c bd 00 1f bf bd 8e fd 86 3d 45 c7 03 3e
       -0.04204058 -0.09332085 0.065913305 0.12868984
0001e0 c6 d7 bb bd bf b8 0e be be 81 a8 bd 20 ba e1 bc
       -0.09172015 -0.13937663 -0.08227871 -0.027554572
0001f0 11 ac 8c bd e3 f9 3c 3d ea 37 bc bd a6 92 a9 bd
       -0.068687566 0.046136748 -0.09190352 -0.08279924
000200 af 73 c9 bd 1e b0 4a be 14 36 29 3e d9 14 09 bd
       -0.09836518 -0.19793746 0.16524535 -0.033467147
000210 46 bb 23 be 9c 73 18 be 09 73 f5 bd 4c f7 82 3e
       -0.15989408 -0.14887851 -0.11984832 0.25579298
000220 04 e0 32 bd d3 8e 86 bd 37 72 ba bd 6c 3c bc bd
       -0.04367067 -0.0657021 -0.09103816 -0.09191212
000230 3b b1 5c 3e 7a 0f 77 3d 0c 85 28 be 62 86 96 be
       0.21551983 0.060317494 -0.16457003 -0.293994
000240 11 ac 4c be 79 23 87 3e 18 c6 c5 3d b9 0c 60 bd
       -0.19987513 0.2639425 0.09656924 -0.054699633
000250 e4 8e 74 be a3 99 8a be c2 e1 4b 3e 77 74 00 3e
       -0.23882633 -0.2707034 0.19910339 0.12544428
000260 ef 64 9e 38 90 85 9a bd 7f e0 fe bd e8 24 e5 3d
       7.5528274e-05 -0.07545006 -0.12445163 0.1118868
000270 3a a6 00 3c ac a8 f8 3c 43 69 6d bd 45 f6 42 3b
       0.0078521315 0.030353867 -0.057961714 0.002974884
000280 ba 37 c3 3d 0e 99 61 bd c0 c9 75 3d e7 91 8f 3c
       0.095321134 -0.055077605 0.060006857 0.017525626
000290 b1 86 be bc 93 28 4d bd 61 55 4f bd 00 b7 16 3b
       -0.023257585 -0.050087523 -0.050618533 0.002299726
0002a0 73 0f b5 bc 89 72 9d bd 73 ec 77 3d d0 a9 36 3d
       -0.022102093 -0.076878615 0.06052823 0.04459554
0002b0 e5 74 09 bd 5c 97 c1 3c 9e df ae bd f1 52 2a be
       -0.033558745 0.023631744 -0.08538745 -0.16633202
0002c0 e9 d9 74 3d a2 b1 1d 3b 78 4a 74 3e cf db 3f 3e
       0.059778128 0.0024062176 0.23856533 0.18736194
0002d0 fc b0 e9 bd 8e a1 e3 bd 20 db d6 bd 68 88 91 3d
       -0.1141071 -0.111147985 -0.104910135 0.071060956
0002e0 c6 9f a9 3d 58 1c 7e be 39 bb 03 3d 0a b9 bd 3d
       0.082824275 -0.248155 0.03216097 0.09263809
0002f0 8c 9c 38 3e fb 90 3f 3e a0 8a cd bd 03 4e 97 3c
       0.18028468 0.1870765 -0.10036206 0.018469816
000300 82 43 fe bc b1 55 f5 3d c8 66 12 3e b7 a7 63 bd
       -0.03103805 0.11979235 0.1429702 -0.055579867
000310 92 17 55 bd 2e 4e 1d 3d de c4 d7 3d 97 2e 17 3d
       -0.05202443 0.038404636 0.10535596 0.036909666
000320 9c 70 db bd 5b 78 61 3d bf 29 f2 bd 40 63 08 be
       -0.10714838 0.05504642 -0.11824369 -0.13319111
000330 b3 a4 1e be 33 77 ba 3d a1 c4 be 3d 7e 39 7f 3d
       -0.15492515 0.09104767 0.09314848 0.06231069
000340 3f 5d a6 bd 8a a6 1e be b7 74 ec 3d 89 5e bb 3d
       -0.08123254 -0.15493217 0.11545699 0.091488905
000350 70 cc 81 bc fd 5a 43 be 05 0a 8c be f5 b6 69 3e
       -0.015844554 -0.19077678 -0.27351394 0.22823699
000360 d2 7a fe 3d 78 7d 9b 3c 08 30 0c be 1a bf 72 be
       0.1242577 0.018980727 -0.13690197 -0.23705712
000370 e9 6e 16 3e 95 82 36 3d a8 97 9f bc 77 cc 0e be
       0.14690746 0.044558126 -0.019481495 -0.13945185
000380 57 c7 45 be e5 b7 33 3e a5 e3 05 3e a0 bd 1b bc
       -0.19314323 0.17550619 0.13075121 -0.009505659
000390 a4 b9 30 3b 8d 5f 56 3b 83 11 b5 3d 94 12 82 3d
       0.002696612 0.0032710761 0.08841231 0.063512
0003a0 ba 59 27 bd 45 2a 49 bc 7f 62 8a 3d 86 28 ec 3d
       -0.040857054 -0.012278144 0.06757068 0.11531167
0003b0 3f 4c bd bd 52 47 1a be df bf ed bd 10 9e eb bb
       -0.092430584 -0.15066269 -0.11608862 -0.0071904734
0003c0 47 86 d3 3d 2e 1e 39 3e d5 05 cf 3c 0b fb 28 bd
       0.10328346 0.18077919 0.025271336 -0.04125504
0003d0 25 3c 9c 3b 86 c7 8b 3e b3 bc 4a 3d a3 21 93 3c
       0.004767912 0.27300662 0.049496364 0.017960375
0003e0 9e 87 70 bd 8e 65 ac bd ff 26 31 be c8 f5 85 bd
       -0.058723085 -0.084178075 -0.17300032 -0.0654102
0003f0 8e 6c b0 3d 11 16 03 be ef 79 3c be 5e 6e 2e be
       0.08614455 -0.12801386 -0.18405889 -0.17034289

module.residual_layers.1.0.bn1.weight f4 [32]
000000 6b dc 40 3f 5a b7 4a 3f 08 e6 48 3f e4 ab 22 3f
       0.7533633 0.7918602 0.78476 0.63543534
000010 b2 61 72 3f 63 e6 49 3f ce c7 37 3f 36 5e 21 3f
       0.9468032 0.7886717 0.7178925 0.6303438
000020 9b db 4f 3f 34 1e 81 3f 93 42 5c 3f 56 d6 57 3f
       0.81194466 1.0087342 0.86039084 0.84311426
000030 19 a9 6f 3f 20 3e 5d 3f 12 88 61 3f 5e e7 36 3f
       0.936174 0.8642292 0.8809825 0.7144679
000040 83 b0 4f 3f f0 aa 35 3f 51 60 65 3f 66 aa 25 3f
       0.8112871 0.70963955 0.8960009 0.6471313
000050 c8 88 4c 3f c2 1f 3a 3f d3 8e 64 3f 7b dd 2b 3f
       0.7989621 0.7270471 0.8928043 0.6713483
000060 e5 15 33 3f 91 3f 70 3f 66 20 53 3f 46 82 7f 3f
       0.69955283 0.93846995 0.8247131 0.99808156
000070 e6 09 34 3f 2e 81 2f 3f 9c 68 2c 3f ef da 4f 3f
       0.70327604 0.6855649 0.6734712 0.8119344

module.residual_layers.1.0.bn1.bias f4 [32]
000000 e5 e7 37 bf 7c b1 4f bf 39 d1 4f bf 52 9b a3 be
       -0.7183822 -0.81130195 -0.81178623 -0.31954437
000010 84 f7 38 bf e5 56 2c bf ed aa 3d bf 62 c0 45 bf
       -0.7225268 -0.6732009 -0.7408894 -0.7724668
000020 30 43 9d bf 18 61 a1 bf cf 78 0c bf bc 18 23 bf
       -1.2286129 -1.2607756 -0.5487184 -0.63709617
000030 0d 50 b3 bf 9c c4 8c bf 93 0b 5b bf 91 32 53 bf
       -1.4008805 -1.09975 -0.85564536 -0.82499033
000040 fb 14 6a bf 84 2b 0a bf fa 05 5c bf 70 4e fc be
       -0.91438264 -0.5397265 -0.8594662 -0.49278593
000050 6d 29 65 bf e6 c1 10 bf b7 b6 5e bf 9a b7 18 bf
       -0.89516336 -0.56545866 -0.8699755 -0.59655154
000060 4d 83 cb be f0 4c 98 bf 48 0b 5a bf 0f e6 ac bf
       -0.39748612 -1.189848 -0.85173464 -1.3507708
000070 a5 10 36 bf 3b d4 fa be 6b f7 57 bf 1b b7 6c bf
       -0.7111915 -0.48990044 -0.84361905 -0.92466897

module.residual_layers.1.0.bn1.running_mean f4 [32]
000000 fd ad 8c c0 5b 59 72 c0 65 eb e5 bf 0d 88 8f bf
       -4.396239 -3.7867038 -1.7962462 -1.1213394
000010 3f 0f a2 c0 58 66 27 c0 4d 91 82 c0 d0 a2 57 bf
       -5.064361 -2.6156216 -4.080237 -0.8423281
000020 c2 35 1b c0 a7 14 81 c0 d5 ee fb bf 6c 79 a5 c0
       -2.425156 -4.033771 -1.9682261 -5.171072
000030 da 74 93 c0 b9 5a 10 c0 c8 5d 48 c0 06 cb a2 c0
       -4.608014 -2.2555373 -3.130724 -5.087283
000040 1f 97 95 c0 df ab 2a c0 fc 00 39 c0 43 cf d9 be
       -4.6746974 -2.6667402 -2.890685 -0.4254094
000050 4a 61 16 c0 72 58 40 c0 bb c9 88 c0 8e c3 87 bf
       -2.349688 -3.0053983 -4.2746253 -1.0606554
000060 a9 04 6b bf 63 47 94 c0 c9 55 03 c0 3e ed 84 c0
       -0.91803986 -4.633714 -2.052111 -4.15396
000070 b3 9c 39 c0 40 c7 ed bf 2b 9a 36 c0 9f 17 39 c0
       -2.9001892 -1.8576431 -2.8531597 -2.8920667

module.residual_layers.1.0.bn1.running_var f4 [32]
000000 2a 12 9b 40 ff e4 99 40 03 84 9c 40 8b e0 6a 40
       4.8459673 4.8092036 4.8911147 3.669955
000010 5e 5e ae 40 78 c8 a8 40 fd 9a 90 40 7d bd 87 40
       5.4490194 5.2744713 4.5189195 4.241881
000020 f2 9c 72 40 78 34 cf 40 c5 79 97 40 88 2d b3 40
       3.7908292 6.475155 4.7336144 5.599308
000030 ea b7 a8 40 6d b6 8d 40 a2 7f 9b 40 7a bd 96 40
       5.2724504 4.428519 4.85933 4.7106295
000040 61 e0 b1 40 a3 b2 98 40 8e 5c d1 40 4d f9 44 40
       5.55864 4.7718062 6.542548 3.077716
000050 a1 50 af 40 56 69 ad 40 72 87 c1 40 2c d0 a4 40
       5.4785924 5.4191084 6.047784 5.1504116
000060 a5 c5 b2 40 88 ff bc 40 35 46 b5 40 96 7a c2 40
       5.5866265 5.906193 5.66482 6.077464
000070 5c e2 c4 40 ed 3c 93 40 f1 0a 7e 40 da 4f c1 40
       6.1526318 4.601187 3.9694178 6.0409975

module.residual_layers.1.0.conv2.weight f4 [32, 32, 5, 5]
000000 4d fc e4 bd 25 28 8a bd a3 a0 95 bc 2f 15 c2 ba
       -0.11180935 -0.06745938 -0.018265074 -0.0014807339
000010 84 2d 07 3d d1 bd 2b bd 7e cc 8a 3b 18 a8 77 3c
       0.03300239 -0.04192907 0.004235803 0.01511576
000020 99 d1 90 3c 52 d7 4a 3d 74 13 57 3b 46 a1 4b 3d
       0.017678069 0.04952175 0.0032817991 0.04971435
000030 ba a4 88 3d 8d 8c 99 3d b1 fb d2 3d 6b 23 25 3d
       0.06672044 0.07497511 0.103019126 0.04031698
000040 ec cd f0 3c f8 fb 16 3d 66 e4 10 3d 62 22 89 3d
       0.029395066 0.03686139 0.035374068 0.06696011
000050 b4 56 e7 3d e3 c2 b0 3d 40 99 b2 3d 50 05 bc 3d
       0.11295834 0.08630922 0.08720636 0.09180701
000060 0c 06 6e 3d 40 65 9d 3c e5 30 36 bc 60 66 14 bc
       0.058111235 0.019213319 -0.011120056 -0.009057611
000070 ab f2 9d 3c c7 33 89 3d e9 11 64 3c fb ed 4f 3b
       0.019280752 0.06699329 0.013920286 0.003172754
000080 44 6d f6 3c 6a 94 b4 3c 87 3f c2 3d 57 c1 a2 3c
       0.030081399 0.022043426 0.09484773 0.019867582
000090 29 2c 50 3c 45 7c dc 3c 9f 59 5e 3d d9 dc f5 3d
       0.012705841 0.026914725 0.054284688 0.12005014
0000a0 58 1a 96 3c fb 37 4d 3d 3f 23 74 3d b8 fb 66 3d
       0.018323109 0.050102215 0.059603926 0.0563924
0000b0 15 fd d9 3d 6b 7b 35 bd 52 e6 a0 3b 2e 57 ea 3c
       0.10643975 -0.044307154 0.004910269 0.028606024
0000c0 2a b6 f5 3c 5a e1 0b 3d 02 d4 93 3d a9 ae bb 3d
       0.02999409 0.03415046 0.07218172 0.09164173
0000d0 c7 f8 d3 3d 48 a9 00 3e 59 ef 05 3e 76 21 e7 3d
       0.10350185 0.12564576 0.13079585 0.11285679
0000e0 6e de c4 3d 60 a5 06 3e 57 2a 07 3e f2 ad 17 3e
       0.096127376 0.13149023 0.13199745 0.14812449
0000f0 b1 ce e1 3d 18 67 c1 3d 35 a5 e8 3d 9f 00 e9 3d
       0.110257514 0.09443492 0.11359636 0.113770716
000100 b1 65 06 3e 2f 7f 6b 3d 6d d1 12 3d f9 05 7c 3d
       0.1312473 0.05749434 0.035844255 0.061529133
000110 02 6d b1 3d e4 02 d0 3d b8 3f 4a 3d d1 f4 64 3d
       0.0866337 0.10156801 0.049377173 0.055897538
000120 c9 25 6c 3d 12 b5 bc 3d 62 8c c2 3d 04 7a ba bc
       0.057653222 0.09214224 0.09499432 -0.02276326
000130 00 c4 97 3c 0f 13 52 ba 49 76 47 bc 50 24 5e bc
       0.018526077 -0.0008013704 -0.0121741975 -0.013558462
000140 40 45 f2 bc ac 4d e6 bb 02 a8 9a 3b 40 11 ad 3a
       -0.029574037 -0.007028302 0.004719735 0.0013203993
000150 54 87 fb bc 04 68 e0 bc ac 31 51 3c a8 8b ce 3c
       -0.030704178 -0.027393349 0.01276819 0.025213078
000160 86 9b 7a 3c bb fe da bc 45 e2 9a bd fe c5 f7 bc
       0.015295869 -0.026732793 -0.07562689 -0.030245777
000170 d4 77 5b bc 82 c6 f1 bc c9 57 b5 bd 68 7a e7 bd
       -0.0133952685 -0.029513601 -0.08854634 -0.11302644
000180 a5 6c b0 bd 5f 3e ea bd 4d 60 b7 bd cd b8 9f bd
       -0.08614472 -0.114376776 -0.08953915 -0.0779892
000190 88 f1 a6 3c 92 4e 2a 3d 89 ec dc 3c 64 ec a8 3c
       0.020378843 0.041578837 0.026968258 0.020620532
0001a0 a9 8c 4f 3c 33 c9 bc 3c 3b 2b 46 3d 46 0b 1e 3d
       0.012667813 0.023045158 0.04838107 0.03858497
0001b0 47 ab 43 3d e9 4b 54 3d 56 18 aa 3b bf c6 0f 3d
       0.047770765 0.051830206 0.0051908894 0.03510165
0001c0 aa ba 1f 3d 40 6a da 3c 59 7e 89 3c f1 97 60 bc
       0.038996376 0.026661992 0.01678388 -0.013708101
0001d0 8a 28 82 3c 32 c7 0a 3c 37 06 98 3c dd b9 84 bc
       0.015888471 0.008470343 0.018557651 -0.016201908
0001e0 65 59 1e 3d e2 f8 ff 3c 92 79 36 3d 31 fe 13 3c
       0.038659472 0.031246606 0.044549532 0.009032772
0001f0 e6 71 2f 3c 0d 6c 87 bd 64 b5 99 bd 15 c7 a1 bd
       0.010708308 -0.06612406 -0.07505301 -0.078993
000200 e8 ae 66 bd 2f 57 a5 bd ae 0b 4d bd a1 6c 8c bd
       -0.056319147 -0.080732696 -0.050059967 -0.06856657
000210 22 1d 87 bd 96 15 5b bd fb 8d 8d bd 8d 3f 26 bd
       -0.065973535 -0.053487383 -0.06911846 -0.04058795
000220 e9 f7 96 bd a0 68 84 bd 25 07 8b bd d6 89 9a bd
       -0.07371504 -0.06465268 -0.06788472 -0.07545821
000230 c9 d8 bd bc d8 6c ab bd 8f 86 8e bd 61 cb ad bd
       -0.02317466 -0.0837037 -0.06959259 -0.08486057
000240 d6 28 ce bd 86 15 56 bd 28 2c 95 bd 49 06 44 bd
       -0.100663826 -0.05226662 -0.07283813 -0.047857556
000250 ed 7b 9d bd 83 47 77 bd 2d 27 6c 3b a1 5a 30 3d
       -0.076896526 -0.060370933 0.0036034093 0.04305518
000260 04 8f 36 3d 01 2b 4a 3d 2c 0d 12 3d d6 f1 30 3d
       0.044569984 0.049357418 0.035657093 0.043199383
000270 86 99 90 ba 4b 0a 38 3c c3 d6 21 3d 16 a4 d7 3b
       -0.0011032082 0.011232923 0.039511453 0.00658084
000280 8d 2d c8 3c 57 88 d5 3b 99 9c b4 3c e8 69 4d bb
       0.024435783 0.006516497 0.022047328 -0.0031343643
000290 cf 8e 16 bc bc 89 c9 bc 3f df 37 bc 95 ef e7 bc
       -0.009189322 -0.02460181 -0.01122266 -0.028312484
0002a0 d0 04 35 bd 9d d1 41 bd 51 8f 2f bd 56 9f 0d bd
       -0.044194043 -0.047319043 -0.042861287 -0.034575783
0002b0 15 18 ad bc 02 5e 27 bd e6 fb 95 bd b5 ef 8d bd
       -0.021129647 -0.040861137 -0.073234364 -0.06930486
0002c0 ad 4a 2b bd 6d 33 37 bc 00 5e 1d bd 1b 00 87 bd
       -0.041819263 -0.011181694 -0.038419724 -0.06591817
0002d0 12 a7 86 bd 9b e9 df bc a1 53 44 bd 50 91 3c bd
       -0.06574835 -0.027333071 -0.047931317 -0.04603702
0002e0 d0 96 6b bd 57 6b 76 bd ac dc 1c bd 2b bd 96 bd
       -0.057516873 -0.06016096 -0.038296387 -0.073603
0002f0 af 62 92 bd 04 01 71 bd 18 98 d1 bc 5b 98 2b bd
       -0.07147729 -0.05883886 -0.02558522 -0.041893344
000300 a4 c3 83 bd 5b 3a 68 bd 02 18 36 bd ce fb b9 3b
       -0.064338 -0.056696277 -0.04445649 0.0056757694
000310 9a 0a 70 bc 48 98 50 bc 5a 7a c8 bb 93 1a b4 bc
       -0.014650965 -0.012731619 -0.006118101 -0.021985328
000320 96 8c f6 3d c5 9f d6 3d bf 9d a1 3d e5 f4 8e 3d
       0.120385334 0.10479692 0.07891416 0.06980304
000330 7d 7b 98 3d 1e b1 a0 3d cc 4f 8f 3d 47 9b 18 3d
       0.074454285 0.078462824 0.06997642 0.03725746
000340 8e 87 25 3d db 71 e2 3c d5 3f d7 3c d8 1d 9c 3c
       0.04041248 0.027642181 0.026275555 0.0190572
000350 a6 b2 94 bc e8 25 6e bc 9e 46 07 bc 98 79 c4 bc
       -0.018151592 -0.014535405 -0.008256583 -0.023983762
000360 ad b0 12 bd 35 f6 6b bd 42 d0 62 bd 09 2e a9 bd
       -0.035813022 -0.05760785 -0.05537439 -0.08260734
000370 75 b1 99 bd 3a a1 ba bd dd ef c3 bd ae 9f d0 bd
       -0.0750455 -0.09112783 -0.09567235 -0.101867065
000380 19 df f0 bd 70 99 c4 bd 62 bd a6 bd b0 8f c1 bd
       -0.117613025 -0.095995784 -0.08141591 -0.09451234
000390 15 ac 67 bd 1d d1 bf bd 1f ec be bd 54 94 c4 bd
       -0.056560595 -0.09366057 -0.0932238 -0.09598604
0003a0 25 59 c3 bd 2b 90 93 bd 16 dd 89 bd b4 0d bb bd
       -0.09538487 -0.07205232 -0.06731622 -0.09133473
0003b0 cc 5c a5 bd 29 fb 7a bd 47 bb 91 bd f2 84 81 bd
       -0.0807434 -0.06127468 -0.071157984 -0.063241854
0003c0 b4 ac cb bd c2 01 98 bd b7 59 ad bd 5e c7 b8 bd
       -0.0994505 -0.0742221 -0.084643774 -0.09022401
0003d0 d1 5f 8b bd 0e 0c c2 bd 58 f3 54 bd 8f 49 4a bd
       -0.06805385 -0.094749555 -0.051989883 -0.049386557
0003e0 1c a4 74 bd b9 c7 04 bd 6d ed f2 bc 1a f0 9f bc
       -0.05972682 -0.032417033 -0.029654229 -0.019523669
0003f0 ea 5f bf 3b d7 44 46 3d 86 e8 5e 3d 85 e8 48 bc
       0.0058402913 0.048405495 0.05442097 -0.012262468

module.residual_layers.1.0.bn2.weight f4 [32]
000000 59 9b 07 40 04 ab 11 40 21 81 26 40 13 a5 00 40
       2.1188567 2.276063 2.6016314 2.0100753
000010 31 8a d1 3f 39 35 42 40 cb 44 03 40 0c 0f 2a 40
       1.6370298 3.0344985 2.0510738 2.6571684
000020 93 2a d3 3f 60 63 0b 40 23 9d f8 3f 22 a8 0c 40
       1.6497368 2.1779404 1.9422954 2.197762
000030 ef 07 cf 3f 44 cf c3 3f 71 87 fa 3f 60 d3 0c 40
       1.6174296 1.5297627 1.9572583 2.2004013
000040 b3 3b f8 3f 54 a6 06 40 69 c3 52 40 93 00 05 40
       1.9393219 2.1039019 3.293177 2.07816
000050 ed 27 1a 40 71 47 ce 3f 8c 97 37 40 8d f1 00 40
       2.4086869 1.6115552 2.8686247 2.014743
000060 95 60 2d 40 91 e2 b0 3f 19 5e 1f 40 e8 0e 0d 40
       2.70902 1.3819143 2.4901183 2.2040348
000070 6d f7 ee 3f e8 e5 a7 3f 4d e9 07 40 e3 c6 1a 40
       1.8669258 1.3117037 2.1236145 2.418389

module.residual_layers.1.0.bn2.bias f4 [32]
000000 55 85 83 be d5 cf 56 be e3 ce 2d bf 51 7f 91 be
       -0.25687662 -0.20977719 -0.6789381 -0.28417447
000010 6c 0c f8 3d c1 7a 15 bf 7e aa a9 be 32 4c 19 bf
       0.12111744 -0.5839043 -0.33137888 -0.5988189
000020 73 5c 82 be 52 4b 1a be 0f a3 ff b9 4f 2f a8 bd
       -0.25461158 -0.15067795 -0.00048758878 -0.082121484
000030 eb 8d 28 be 96 1a 98 bd 4e dd 34 bd 0e 46 7c be
       -0.16460387 -0.07426946 -0.044156365 -0.24636099
000040 8a d5 03 3a 04 2a 3c bd bb 8a 37 bf af 89 c2 be
       0.0005029073 -0.045938507 -0.7169606 -0.3799567
000050 2b 3e ae be 8d 5b f6 bd 6a 6b 5f bf f7 9b 6e 3e
       -0.34031805 -0.12029181 -0.87273276 0.23301683
000060 a1 1d 93 be 3b ae 1f 3c 02 9c 18 bd 48 fa 25 be
       -0.28733543 0.00974613 -0.037258156 -0.16208756
000070 dd 46 7e 3d 0c 10 a5 3d ca c0 4e be 68 2b 84 be
       0.0620793 0.08059701 -0.2019073 -0.25814366

module.residual_layers.1.0.bn2.running_mean f4 [32]
000000 1c 36 d6 3d ff 58 5d 3e b4 c5 87 3d 7d 22 e6 3e
       0.10459539 0.2161598 0.06629506 0.44948187
000010 ad 85 d7 3d e5 04 8d 3d 58 fa a3 bd ca b2 e9 3d
       0.105235435 0.06885699 -0.08006734 0.114110544
000020 1e 00 d1 3e ad 84 50 be 20 75 c1 3e 52 ca 82 bd
       0.40820402 -0.20363112 0.37784672 -0.06386246
000030 af ba e4 3d 96 d5 06 be 9c 99 aa 3e 68 7d 6a 3e
       0.111684196 -0.13167414 0.3332032 0.22899401
000040 bb 4a 02 3e 07 4f 78 3d 6e 10 69 bd c4 a0 93 3d
       0.1272382 0.06062224 -0.056900434 0.07208398
000050 b8 12 9e 3d 0c 28 c9 3d 3a a1 55 bd 4e f0 02 3e
       0.07718414 0.098220915 -0.05215571 0.12786981
000060 16 dd be 3d 5c 51 56 be 22 0a f8 3e 1d d8 24 be
       0.093195125 -0.20929474 0.4844523 -0.16098066
000070 04 f8 fb bc ec 9e ab be b8 0f ad 3e a8 b2 72 3e
       -0.030757912 -0.33519685 0.33801055 0.23700964

module.residual_layers.1.0.bn2.running_var f4 [32]
000000 d2 bf 62 3e 26 cb 83 3e 58 dc 92 3e b8 e2 48 3e
       0.22143486 0.25740927 0.28683734 0.19617736
000010 35 f1 2c 3e 00 f3 ed 3e 8d 32 47 3e 60 22 a5 3e
       0.16888888 0.46474457 0.19452877 0.3225279
000020 67 e6 22 3e ad 49 85 3e 46 f6 51 3e 45 09 74 3e
       0.15908204 0.26032773 0.20504102 0.23831661
000030 52 f2 22 3e 97 ef 05 3e 63 16 6e 3e 17 a2 95 3e
       0.1591275 0.13079678 0.23250727 0.29225227
000040 e9 96 60 3e 26 a8 83 3e be 0d 01 3f 8f 7d 55 3e
       0.21932568 0.25714225 0.50411594 0.20848678
000050 d7 5e a2 3e 61 7e 2d 3e ae f8 c1 3e 88 06 6e 3e
       0.31712982 0.16942741 0.3788504 0.23244679
000060 e3 a4 c7 3e 2d 0d bf 3d be cf a0 3e 71 20 82 3e
       0.38992986 0.09328685 0.31408495 0.25415376
000070 2a 1c 63 3e 90 a5 c6 3d 2b b4 7c 3e a6 1b 86 3e
       0.22178712 0.09699547 0.24678104 0.2619297
