summaries/good_ResNet3_num_blocks2x2x1_num_channels16_conv3/ckpt.pth (torch, 436981 bytes, 67 tensors)

module.conv1.weight f4 [16, 3, 3, 3]
00000000: 2c7f e9bd b18d 7abe 00b6 233e 1716 bebe
00000010: 5cac fbbe 6f98 8cbc c06c 4fbe 27dc cabe
00000020: d4dc d63d cbf8 84bd da57 57bc a2f6 0a3d
00000030: 6c26 343d f1d5 f83d c0a8 f43c aad3 8c3d
00000040: c3bb 8ebd adc8 93bc 6782 c33d a06c 5f3e
00000050: 0e33 9bbc 2045 da3e 3c12 173f bc5a ea3d
00000060: 572b 403e 8405 e83d 1529 2fbe e03b 39be
00000070: c991 57be 0ac5 21be dce4 933d 3c40 b23c
00000080: f445 f8bd 8d21 503e f6a3 8f3e 4765 f83d
00000090: 93d6 66be c6cc 8bbe 458b 7cbe 2b18 b93d
000000a0: 63e7 9d3d d5bd cbbd cb7b 6b3e 0bc7 b33e
000000b0: 4317 293e 8ab4 31be a4e0 3cbe 7257 debd
000000c0: 9e3e 403d 8621 e73c 2126 e0bd f480 563e
000000d0: c44e 6d3e 4e8f 4f3d 4756 3a3e 5a62 bebe
000000e0: ca55 eebd 1bcd cf3d 347a 2c3f 3095 8fbe
000000f0: b61f 813e faa3 823c ae7f 28be 674c 163e
00000100: 58ca e5be 114d 30bd e66d 70bd 288a 0c3f
00000110: b41f 333b 2a49 863d c899 a4be 0c57 0cbe
00000120: 862a d1bd 0944 81be c8b4 8a3e 8ab3 bebe
00000130: 972c b33e bc43 df3e 6687 39be 917d 87be
00000140: 0b1a 213e 441e 8e3d 0de3 963e 5c04 d7bd
00000150: 166d d33d ef0a 853e e33d 963d b65d 333d
00000160: 323b ae3d 6ab6 483d 9c3e 97bd 3f65 08be
00000170: d953 85bc cffc 79be a3f0 fabe 6873 06be
00000180: dcab b5bc 8b45 82be 22d7 6e3b 5e2f 96bc
00000190: d974 c6bb df2d 183e 81b5 01be c088 80be
000001a0: 712f c53c 2910 ee3c d993 9dbd c213 9e3d
000001b0: 60f7 97be 685f c4bd 89ef f5bd 0553 e6bd
000001c0: 070f d63e f4a6 8f3e 5b68 26bd aa91 1a3f
000001d0: fbe3 a53e 0cf8 923d b578 a6be cd60 c2bd
000001e0: 766b 203c 91b0 3bbf f026 b4be 5328 1e3e
000001f0: f478 c5be b66b b4bd 3f43 603e cf97 fd3e
00000200: 3027 763e bec5 693e 0993 633e 7f18 e83c
00000210: 845e 0cbe 3f23 06be 5202 49be ed71 b63c
00000220: d1a1 fbbc 7869 163e 6957 17be bd8d 17bf
00000230: 004e 853d 66c0 213e e473 81bd 9efb bb3d
00000240: 0f84 6e3d 8963 61bd 60b3 a5bc 0121 22be
00000250: be1f 0fbf c5b6 5abd 8e5e 213e b8d8 77bd
00000260: 4221 0e3d c26a 523e 6e68 8f3d 714e ab3d
00000270: 7f33 723c e938 aebe f1f6 983d 09ed 503d
00000280: 6689 a7bd ba0d 273d cbf5 bd32 6b01 92b3
00000290: 23d7 62b3 1d00 4033 9a29 c6b3 5d70 90b3
000002a0: c700 39b2 f6de 9cb3 b916 6433 e833 9bb3
000002b0: 223f 51b4 049d 5bb4 ddd8 8132 b74e 7ab4
000002c0: 39ff abb4 7e67 83b3 2fb2 7ab4 c821 44b4
000002d0: 099a 5034 3cd9 a233 7de3 bdb2 9d81 ad34
000002e0: 1a04 4c33 82db 2db4 3a8b 0a34 860e 90b3
000002f0: 6574 07b4 5cdb 693d 8ee6 923e b196 a73e
00000300: 9c36 65be d008 a23e dd77 b73d ed51 c4be
00000310: 570f 10bf 5072 593c ccc4 823d e6c0 d7bd
00000320: 3d73 62be 2ca6 ad3d 79c2 c23e fbd4 b2be
00000330: f30e fa3c 850a 043d 71f1 193e 3e7d a8bc
00000340: 26ae 97be cde5 93be 2aa0 433e 6c15 963e
00000350: 1fda e6be 2247 773e 2597 bd3e a120 b13d
00000360: 468a 40be 6308 333e 2565 343e 3e1a 9abc
00000370: 1ffc 003f 762d b73e b7e0 ddbd 3e81 ed3d
00000380: 4d64 bcbc 0c5d 893c 48ef b6bd 9326 dfbb
00000390: 1316 7abd a966 0dbe 7af1 b4bd 2cf8 7bbd
000003a0: 9804 4dbe a053 1bbe ceeb c03d afb8 bcbd
000003b0: 25aa c4bd c5f7 823d 45e8 c3bd 11a8 07be
000003c0: ca76 9e3d 3fe6 f5bc c612 a7bd 10ee 4f3e
000003d0: 5544 923e 67ff 5a3e f486 3e3b c572 7bbc
000003e0: 5832 573e f4fc 72be 00f2 cbbe 0d24 18be
000003f0: 4336 443e 1763 853e f8c5 833d a8d0 51bc
-0.11401209 -0.24468113 0.15987396 -0.37126228 -0.49154937 -0.01716253 -0.20256329 -0.39621088
0.10491338 -0.06492766 -0.013143504 0.033926614 0.043981954 0.12150181 0.029865623 0.06876309
-0.069694065 -0.018040026 0.09546357 0.21818781 -0.018945243 0.42630863 0.590122 0.114430875
0.18766533 0.11329177 -0.17105515 -0.18089247 -0.21051706 -0.1579782 0.07221386 0.021759145
-0.121227175 0.20325299 0.2805478 0.12128692 -0.22542791 -0.27304667 -0.24662502 0.09037813
0.07710149 -0.09948317 0.22996442 0.35112795 0.1651278 -0.17354026 -0.18445069 -0.108565226
0.046934716 0.028214227 -0.109447725 0.20947629 0.23174578 0.050673775 0.18196975 -0.3718441
-0.11637457 0.10146543 0.6737397 -0.2804351 0.25219506 0.01594733 -0.16454956 0.14677583
-0.4488094 -0.043042246 -0.058698557 0.5489831 0.002733213 0.06556924 -0.32148576 -0.13705081
-0.10213189 -0.2524722 0.2709105 -0.37246352 0.34994957 0.43606365 -0.18118057 -0.26462987
0.15732591 0.069393665 0.294701 -0.10498878 0.10323541 0.25984904 0.07336023 0.04379054
0.08507384 0.04900209 -0.07384989 -0.13319872 -0.016275333 -0.24412845 -0.49011716 -0.13129961
-0.022176675 -0.25443682 0.0036444147 -0.018333133 -0.00605641 0.14861248 -0.12666894 -0.25104332
0.024070473 0.02906044 -0.07694215 0.07718612 -0.2968092 -0.0958851 -0.12008578 -0.112463035
0.4180834 0.28057063 -0.040626865 0.60378516 0.32400498 0.071762174 -0.32513967 -0.094911195
0.009791246 -0.73316294 -0.35185957 0.1544507 -0.38568842 -0.08809607 0.21900652 0.49529883
0.24038386 0.22829339 0.22224058 0.028331993 -0.1370793 -0.13099383 -0.19629791 0.02227112
-0.030716809 0.1468867 -0.14779438 -0.5920065 0.06509018 0.1579605 -0.063209325 0.091788515
0.05823141 -0.055026565 -0.020227134 -0.15832902 -0.5590781 -0.05339696 0.15758726 -0.060509413
0.034699686 0.20548537 0.0700234 0.08364571 0.014782785 -0.34027794 0.07468975 0.051007304
-0.081805035 0.040784575 2.211427e-08 -6.798913e-08 -5.281539e-08 4.4703587e-08 -9.227661e-08 -6.725961e-08
-1.0768594e-08 -7.3048724e-08 5.3106053e-08 -7.227192e-08 -1.948761e-07 -2.0453086e-07 1.5116195e-08 -2.33117e-07
-3.203693e-07 -6.118988e-08 -2.3347887e-07 -1.8266212e-07 1.9427547e-07 7.5832276e-08 -2.2105946e-08 3.2318067e-07
4.750118e-08 -1.6191737e-07 1.2902902e-07 -6.708164e-08 -1.2615199e-07 0.057093963 0.28691524 0.32732156
-0.22384113 0.31647348 0.08958409 -0.38343754 -0.56273407 0.013271883 0.06385192 -0.10534839
-0.22114272 0.084789604 0.38038996 -0.34928116 0.030524706 0.032236595 0.15033509 -0.020567533
-0.29625052 -0.28886262 0.19104066 0.2931322 -0.45088288 0.24148229 0.37029377 0.086488016
-0.18802747 0.17483668 0.17616709 -0.018811341 0.50384706 0.3577687 -0.108338766 0.115969166
-0.022997046 0.016768001 -0.08932358 -0.0068100183 -0.061056208 -0.13808693 -0.088351205 -0.061515972
-0.20021284 -0.15168619 0.09419976 -0.09214913 -0.09602765 0.063949145 -0.09565786 -0.13247706
0.07737501 -0.030017016 -0.081578776 0.20305657 0.28567758 0.21386491 0.0029072138 -0.015347187
0.21015298 -0.23729306 -0.3983307 -0.14857502 0.19161324 0.26052162 0.06434244 -0.012806095

module.bn1.weight f4 [16]
00000000: 66d6 963e 979a 9e3e bdf8 a23e 75c8 ec3e
00000010: 8258 803e 5037 3f3f 1c18 b933 2a93 7d3e
00000020: 8c26 3e3e 04b3 dc3e 506d a33e ff4a 4f3e
00000030: 4299 7730 05f7 963e 6e0b a33e b03c 873e
0.29460448 0.30977318 0.31830397 0.46246687 0.25067526 0.74693775 8.619119e-08 0.2476317
0.18569392 0.43105328 0.31919336 0.20243452 9.007587e-10 0.29485336 0.31844658 0.26413488

module.bn1.bias f4 [16]
00000000: 963d 403e 2095 253e 7200 e03e 3997 55be
00000010: ca24 563e 216d aebe 2cec c0b4 96f2 e03e
00000020: 41b2 a63d 4f79 b43b 84ec 7f3e 9362 8f3d
00000030: b14c 0fb1 020b 2c3e fa4d d83e 6e1d fcbc
0.18773493 0.16170168 0.4375034 -0.20858468 0.20912471 -0.34067634 -3.5934625e-07 0.43935078
0.08139468 0.005507625 0.24992567 0.070012234 -2.0852833e-09 0.16801074 0.4224699 -0.030775752

module.bn1.running_mean f4 [16]
00000000: 414c 09bd 1f72 28bd ea05 87bd 7d5d 773e
00000010: 8c5c a2bc ed82 b63e 9c39 dd34 a9d9 8fbd
00000020: 7609 473c 2db5 c73c b02e 163c 9cc4 063e
00000030: 68da e530 58d8 10bd 33ab 773c 0e4c 70be
-0.033519987 -0.04112446 -0.06592925 0.24156757 -0.01981952 0.35646763 4.1206374e-07 -0.07023937
0.012148252 0.024378384 0.009166405 0.13160938 1.6724018e-09 -0.03536257 0.015116501 -0.23466513

module.bn1.running_var f4 [16]
00000000: 6014 c23f 4613 4940 63c8 213f c22b 9d3f
00000010: 6baf d73e 8df5 2540 db89 682c bb20 e63e
00000020: c0e2 cc3e d34f 4740 9018 a640 d71f 4f3f
00000030: f622 5f24 3703 2a3f 61d2 033f 55d4 863f
1.5162468 3.1418014 0.6319639 1.2278979 0.4212602 2.5931122 3.3045708e-12 0.44946846
0.40016747 3.114247 5.1904984 0.8090796 4.838503e-17 0.66411155 0.5149289 1.0533549

module.residual_layers.0.0.conv1.weight f4 [16, 16, 3, 3]
00000000: 883a 20be e702 793d 66b6 e33d f635 59be
00000010: 1336 ce3c 596a 673e 560c 8ebe f5c6 0dbe
00000020: 195b 673d ba12 c53c c5bf bebb d970 2abd
00000030: 784c 2e3d 5ddc 75bc 05d8 66bd 8f1d 9dbc
00000040: 68da c9bc 19c7 e8bc ff4b 5c3e 32c5 96bd
00000050: 82e4 dcbd 5114 3b3e b153 743d f71b bcbd
00000060: beaa de3d 8035 053e 55a0 a1bc 4b2b 9f3d
00000070: cedd 18be 04e0 5ebe b899 263e be02 bebd
00000080: e27e 6bbe 40f0 7f3e 466c b73d b630 78bd
00000090: a347 2ebc 7b6b 21be a735 9fbd 30a0 3a3e
000000a0: 4c6f cbbc 7c6e 2dbe f517 da3d 81ea d03d
000000b0: 1fa3 2f3d 9805 ffbc 3d0c 08bd f107 133d
000000c0: 9afe 6fbd 3fba 80bd 3dbf 77bd 6644 cd3a
000000d0: 52b4 163d e482 1c3d 75e8 3fb2 006c 64b3
000000e0: 9e4c 06b1 c301 2533 b677 8032 d016 10b2
000000f0: 58d0 6a32 75cc 8432 f490 20b3 d288 22be
00000100: a0ba 1b3d 0cc9 7c3e 0cec 72be dd88 32be
00000110: 0dea 5c3e d6be 7dbc e30e 52be 416a babd
00000120: 354a 30bc 60c6 6cbd 8c52 223c 29c4 57bc
00000130: 5e83 c6bd 3948 10bd 4397 ee3c e84b b9bd
00000140: fb19 eabd c776 4cbd 3f24 913b f6fd 013d
00000150: 22c4 40bd 4e14 13bd 6d16 d83d c212 c4bc
00000160: 1d89 0abe 4b28 71bd e6d4 18be e610 b2bc
00000170: 0177 c83c bf2e b1bd 3d10 8b3d 87f9 753d
00000180: 66f1 f9bd f492 adbc 6be6 f9b9 87cf fc3c
00000190: fff9 f4bc 514b 82bd 4432 7b3d 0a35 f73c
000001a0: daf4 d8ba 3770 e73c 4e8f 6a3d 6a1b ac3b
000001b0: 27fb 8baf 9859 26af 3291 312f 512c 422f
000001c0: 17cf ecae 8308 29af 38a9 d1ae 14ae 9a2d
000001d0: 446a 992b 4f2d a43c 96b0 c7bd ace3 e9bc
000001e0: ae31 563d d87d c6bd 1a52 b2bd ac94 2f3e
000001f0: 5d0e 853d 71fa 0dbd 0657 19be c52e 0dbc
00000200: a9f0 3d3e fdac 65bd 7d9f f23c cb33 ff3d
00000210: 65b3 c1bd 20f8 09be f098 babd d7e3 a83d
00000220: bbcd 6fbd f051 9dbd 9821 ff3d cc95 39bd
00000230: eeee 01be 56bb 423e ab88 b73d 8233 d7bc
00000240: 8587 e2bd 1900 31be a6aa 89be 510a 013d
00000250: e364 843c 2632 0ebe 2e96 f23d a7b7 5d3e
00000260: 9500 c83d 4bc5 7abd 690d 93bb a8bc 163c
00000270: 93ce 67bb 5774 a8bc 0497 ccbc b8a2 1e3d
00000280: b858 743d 8374 26bd 366f f5bd 1657 79bd
00000290: fed0 103e 1654 423d 40c5 3abe 05d7 43bd
000002a0: 4388 253e e652 b0bc 951c 01be de82 53ba
000002b0: b367 143e 9b59 1b3e 5b45 abbd b0e4 853c
000002c0: 8e5f 7c3d 97e7 18be 92c3 33be 47a6 0abe
000002d0: 619d 0ebd 9e2a 183e ce29 0d3e b686 59be
000002e0: bcea 10be 4693 693d 722a 41bd bb5f 5ebd
000002f0: b6f3 f03d 1015 783d 5f7a c53d 33bf d1bc
00000300: 1f0d 18bc 02b1 253c 2ae0 91bd 5123 c0bc
00000310: 6a19 bbbd f756 72bd 86af e5b2 23fd fa32
00000320: 3ea8 a733 1f38 c6b3 5527 81b2 6b26 2d33
00000330: 9155 2bb4 b939 3ab3 6d39 76b2 35fe 1d3e
00000340: 6876 fa3d 4def 90be c134 a93d 94fd ab3e
00000350: 78a6 3c3d 55f4 80be 4691 90bc 71e4 e43d
00000360: 9306 853d ae2c 393e 9d27 a03d e265 76bd
00000370: fedb 1f3d 73c9 793d 8504 7dbe 315e 22be
00000380: 5965 74bb 0234 2abd 4d6b 63bd cfad c1bd
00000390: 05df 2c3d f633 203c 9c37 3abe 7e24 0b3d
000003a0: b67d d63d 779c 4bbd ea94 1d3d dbb0 023d
000003b0: f764 54bd ce29 5bbd 876d 8d3c 7fda cfbc
000003c0: 962e f1bc cfb1 a93c def3 61bc 1bc8 063d
000003d0: fc25 6abb cd0c aa3c 66cb 153d 1e9d 893c
000003e0: 7b15 703c c124 a23d a106 413d 03ec 473d
000003f0: 827e fbae 5e81 bcae ed14 9eaf 1d5b a42e
-0.15647328 0.060793784 0.11118774 -0.2121199 0.025172269 0.22599162 -0.27743787 -0.13845427
0.056483362 0.024056781 -0.0058212006 -0.041611526 0.042553395 -0.015006152 -0.056358356 -0.019179134
-0.024640277 -0.02841525 0.21513365 -0.07361831 -0.10785772 0.18269469 0.059650127 -0.09185021
0.1087241 0.1300869 -0.019729773 0.07771929 -0.14928362 -0.21765143 0.16269577 -0.09277867
-0.2299762 0.24993992 0.089561984 -0.06059333 -0.010637197 -0.15763657 -0.07773905 0.18225169
-0.024833344 -0.16936678 0.10649101 0.10200978 0.042880174 -0.031130597 -0.033214796 0.035896245
-0.058592416 -0.062855236 -0.060485113 0.0015660643 0.03679306 0.038210765 -1.1170518e-08 -5.3183612e-08
-1.9543118e-09 3.841866e-08 1.49556e-08 -8.38709e-09 1.36679645e-08 1.5459799e-08 -3.7384737e-08 -0.15872505
0.038019776 0.24686068 -0.23722857 -0.17435022 0.21573658 -0.015487393 -0.20513491 -0.091022976
-0.01075988 -0.057806373 0.009907376 -0.013169327 -0.09693025 -0.035225127 0.029124862 -0.09047681
-0.11430737 -0.049917962 0.0044293697 0.031736337 -0.047062047 -0.035908036 0.105511524 -0.023934726
-0.13528867 -0.058876317 -0.14924964 -0.021736573 0.024470808 -0.08651494 0.067902066 0.06005242
-0.12204246 -0.021188237 -0.00047664656 0.030860675 -0.029904364 -0.06362022 0.061327234 0.030176658
-0.0016552464 0.02825175 0.057265572 0.0052522914 -2.5462407e-10 -1.5129442e-10 1.614964e-10 1.7659942e-10
-1.0768824e-10 -1.5373484e-10 -9.534279e-11 1.758508e-11 1.0900798e-12 0.020041136 -0.09750478 -0.028550945
0.052293472 -0.096919715 -0.08707066 0.17146558 0.0649688 -0.034662668 -0.14974603 -0.008617108
0.18548836 -0.056073178 0.029617066 0.124610506 -0.09458045 -0.13473558 -0.09111202 0.08246582
-0.05854581 -0.07681644 0.124575794 -0.045308873 -0.126888 0.19016775 0.08961614 -0.026269678
-0.110610045 -0.17285194 -0.26888007 0.03150398 0.016161388 -0.13886318 0.11845051 0.21652089
0.09765736 -0.06122331 -0.0044876826 0.009200253 -0.003537093 -0.020563288 -0.024974354 0.0387294
0.05965492 -0.040638458 -0.119841024 -0.060874067 0.14142224 0.04744347 -0.18239307 -0.04781248
0.16165261 -0.021523904 -0.1260856 -0.0008068512 0.14492683 0.151709 -0.08362838 0.016344398
0.061614566 -0.14932095 -0.17555073 -0.13539992 -0.034818057 0.14860007 0.13785478 -0.21242794
-0.14152044 0.057025217 -0.04715962 -0.054290514 0.11765234 0.06056696 0.09642481 -0.025603866
-0.009280472 0.010113003 -0.07122834 -0.02345434 -0.09135707 -0.059164967 -2.6738928e-08 2.9218944e-08
7.8071466e-08 -9.230302e-08 -1.5035463e-08 4.0314642e-08 -1.5956745e-07 -4.3358998e-08 -1.4332142e-08 0.15429004
0.122296154 -0.28307572 0.08262015 0.33591902 0.046057194 -0.2518641 -0.017647397 0.11176384
0.064953946 0.1808345 0.07820056 -0.060155757 0.03902816 0.060983133 -0.24708755 -0.15856244
-0.0037291853 -0.041553505 -0.055522252 -0.094569795 0.042204875 0.009778013 -0.18185276 0.03397035
0.10473196 -0.049709763 0.038472094 0.031906944 -0.0518541 -0.053506665 0.01726414 -0.025372742
-0.02944116 0.020714669 -0.013791053 0.03290568 -0.0035728207 0.020758057 0.03657093 0.016798552
0.014653559 0.079171665 0.047125462 0.048809063 -1.1436631e-10 -8.5722304e-11 -2.87549e-10 7.4740415e-11

module.residual_layers.0.0.bn1.weight f4 [16]
00000000: 3121 c43e 0af4 c83e 0797 eb3e 5b07 a03e
00000010: b9f7 c33e e8e1 9e3e 7cad 163f b31d ae3e
00000020: 8794 993e 013e ab3e 8456 e33e 615c dc3e
00000030: 59f8 893e 2c82 b43e 7bc1 c03e f19e d83e
0.38306573 0.39248687 0.46013662 0.31255612 0.38274935 0.31031728 0.58858466 0.34007034
0.2999613 0.33445743 0.44401944 0.4303923 0.26947287 0.35255563 0.37647614 0.42308763

module.residual_layers.0.0.bn1.bias f4 [16]
00000000: 7126 2dbe f1bc dfbd d546 8a3d 8992 e93c
00000010: 7874 0ebe 8f83 9bbe 8e42 e2be 0bf5 673e
00000020: 4668 473e 1b9b efbd c0cd 813e f99f 9e3e
00000030: a543 5f3e 9365 e6bd 33c1 6e3e cc24 aabe
-0.16909195 -0.109247096 0.067517914 0.028512256 -0.13911617 -0.3037381 -0.44191402 0.2265207
0.19473371 -0.11699506 0.25352287 0.30981424 0.21803148 -0.112498425 0.23315887 -0.332312

module.residual_layers.0.0.bn1.running_mean f4 [16]
00000000: 0db4 a0be e0bf c4bc 9bbb e8be 4ccc 0fbf
00000010: 99cc 21bf 48ce 15be 7e30 2d3f 97ae cebd
00000020: 5c8e 96be 18d6 aebe a639 15be 4e2c dc3d
00000030: 32f9 d2bc 7792 bdbe 7cdc 3ebf 5d96 7c3d
-0.31387368 -0.024017274 -0.45455632 -0.5617111 -0.63202816 -0.14629471 0.6765212 -0.10091894
-0.29405487 -0.34147716 -0.14572772 0.10750638 -0.025753591 -0.37025806 -0.7455518 0.061666835

module.residual_layers.0.0.bn1.running_var f4 [16]
00000000: 6df0 8e3d efa9 7e3d 638c 153e 7162 653d
00000010: 4564 553d 2581 283d c146 bd3d 9b06 283e
00000020: 45ff c63d ef1c 453d 6e8f e83d 821b 093e
00000030: 7af7 643d 288d 313d e199 a53e 1d46 673d
0.06979451 0.06217378 0.14604335 0.056002084 0.052097578 0.041138787 0.09242011 0.1640877
0.097166575 0.048123296 0.11355482 0.133894 0.055900075 0.043347508 0.32343963 0.05646335

module.residual_layers.0.0.conv2.weight f4 [16, 16, 3, 3]
00000000: e423 7fbd 689d 0a3e d687 1a3d 3411 983d
00000010: 361a 8c3e f0e5 d43d be80 023d 2168 2f3e
00000020: 0da5 f23d 3de9 803d b2d9 1f3e ada3 1fbd
00000030: df3a 0b3c 67cb 743e 91bd ea3d ba03 51bd
00000040: 96cf 8d3d 4b2d 883d 736c a3bd 5aa9 97bb
00000050: c81d cf3d 40d1 2fbd f133 ac3d 2c5f 803d
00000060: 0e1d 333d 28a9 813d fe0d e7bb 7227 b33b
00000070: 041a d23d dadb 793d ffbd 763d 5904 713c
00000080: 42d5 bfbd 755f 8abb 1539 c3bd 41ef ddbd
00000090: 3923 d1bb 4a24 03be 915c 4cbd 52c2 94bd
000000a0: d9b3 9bbd 5c4b 23bd f95d fcbc 4ab4 943d
000000b0: 87bb dd3c d30f 343d e101 a5bb 8463 8c3d
000000c0: 0c81 5abc a8be 393b 454b 873d 59aa aa3c
000000d0: eba8 053e ade6 3a3e 8251 d0bc d9a1 b0bd
000000e0: a71b 6bbd 6bfa 08bc c2d5 ffbc 301e 983c
000000f0: 8697 87bd 1708 53bd a859 27bd 2a28 c3bc
00000100: f08d b93d e35c b93d 164a c4bd ad83 b63c
00000110: 5957 6e3d 1b16 38bd 9fdc 213c c0cd d83b
00000120: 3b2b 113d 392b 4ebc 661b f5bd b497 d1bc
00000130: 9e75 12bd eaac b2bc e020 dabc 0281 203d
00000140: 08bb 163e 23a7 39bc db26 6abd 9570 e4bd
00000150: 5a99 f9ba 18a9 07be 81db 10be 992f bc3c
00000160: ad80 92bd e2c4 8cbd 73e6 c23d fa35 13bd
00000170: 4cfa b6bd 14e0 4bbd eaeb b5bd eab3 d7bc
00000180: a859 aebb f260 a63d e615 b53d ad10 283d
00000190: 1645 0b3e 217e 793d c99f c33d 9c5c 9a3d
000001a0: afd2 4abd 77ac 303e 210c bcbc b384 26be
000001b0: 49f9 133e 3c1f 5f3e 15f8 1f3e 932c 293e
000001c0: 60a0 433d 15f6 16be c824 803c b8f3 30be
000001d0: 2690 9abe ed76 513c 24c8 ef3d 08e0 44ba
000001e0: f9d5 763d 9ae4 a63d f20f d7bb 931a 20bd
000001f0: 52ad 7abd 5e36 eebc da0e c63c 6ba0 8abd
00000200: b713 88bb baa6 fbbd 7976 d4bd c057 6b3d
00000210: 6de1 8bbd 575d ac3d e074 4f3e 7b64 1d3d
00000220: 451b 423d 38db 06bd 8974 653d 8fd6 b63d
00000230: a2a0 0bbd 5777 e23a 02d6 0b3d 31b4 86bd
00000240: 9d05 c73d a5e1 9cbd bd94 5fbd 9c92 893d
00000250: d9ac 5eba 1369 57bd d441 76bd 0c0d 6a3c
00000260: f36b c1bc 76b2 7f3d 995e bebc b5d9 1f3d
00000270: 461d 843d 6a3a e1bb 6077 70bd d595 6d3c
00000280: c114 1cbd 565e c6bd 4ae8 a8bd 89b0 abbd
00000290: d149 b7bc 816c fdbd fa4a c93d 12b2 cbbd
000002a0: bce2 72bc 0600 7fbc 0211 adbd d61f 37bd
000002b0: 5814 6fbd c3e9 1b3d 2ea5 753d 9dd9 8b3d
000002c0: 6f04 ff3a 95fa c33d 24fb 283d 5c06 c1bd
000002d0: a4de 173e 5532 013d e36c 50bd b2c3 c03d
000002e0: 404a 0cbe 659c 86bd c309 7abc fe8c b4bd
000002f0: e839 ba3c a6ff 623c 324e be3c 3ae8 b0bd
00000300: ee82 bd3c 7523 e43d 7126 cf3a 8a65 c53c
00000310: d0ee 853d 29b1 aebc 0964 87bd 8346 14be
00000320: d47d 40be 2e42 92bd fc5e d8bd 18e7 23be
00000330: 1ed6 80bc 54e1 9cbd 8054 dabd 5d62 16bc
00000340: 1f2c f6bd 6c48 e0bc 87d7 0ebd 52e9 febd
00000350: b20c 37bd 09e1 e93c 11ea 473d 42e2 fe3c
00000360: 5ee8 f0bc 9ec2 383d 479a f7bc 862e 963c
00000370: 15f3 993b 722a d33b 61a8 4f3d 7040 b3bb
00000380: 6b9e f8bd 9dd3 1bbc 1c65 703c b52d 233d
00000390: f3f4 2c3d 5b10 333d 9ca3 3cbc ee8d 713d
000003a0: c5ef f23c 968d d13c 32ea 01bd 2401 603d
000003b0: 2ba4 7ebd 804f eebd 1190 8b3e 4df4 6dbe
000003c0: e192 47bd 1557 2bbe 6f69 e03d ea97 89bd
000003d0: 069c 8abc 0cd9 93bd dc11 01be 3015 64bc
000003e0: 26fb a23c 06b7 28bc 94a0 f73d 3e87 a0bc
000003f0: c6cd ecbc 1c2d c5bd 8b9e d43d 9f78 4ebd
-0.062290087 0.13536608 0.0377272 0.07425156 0.27363747 0.103954196 0.03186106 0.17129566
0.11847887 0.06294487 0.15610388 -0.038974453 0.008497923 0.23905717 0.11461938 -0.051028945
0.069243595 0.06649264 -0.079796694 -0.0046283426 0.10113102 -0.042924166 0.084083445 0.062681526
0.04372888 0.06331092 -0.0070512285 0.0054673487 0.10258868 0.061000682 0.06023979 0.014710509
-0.093668476 -0.004222805 -0.09532372 -0.1083665 -0.0063823727 -0.12806812 -0.049892966 -0.07263626
-0.076026626 -0.03986679 -0.030806528 0.0726095 0.027066959 0.043960404 -0.0050356244 0.068549186
-0.013336431 0.00283424 0.066061534 0.020833181 0.13052718 0.18252058 -0.025429491 -0.0862462
-0.05739942 -0.008360486 -0.031229857 0.018569082 -0.06620698 -0.051521387 -0.040856987 -0.023822863
0.090602756 0.0905092 -0.09584443 0.022279585 0.05818877 -0.044942956 0.00987926 0.006616324
0.03544162 -0.012583547 -0.119681165 -0.025585033 -0.0357567 -0.021810967 -0.026627004 0.03918553
0.14719784 -0.011331352 -0.05716596 -0.11154286 -0.0019042895 -0.13248098 -0.14146234 0.022971915
-0.07153449 -0.0687349 0.09516611 -0.035940148 -0.08934459 -0.049774244 -0.08882888 -0.026330907
-0.0053207465 0.081239596 0.088420674 0.04103153 0.13600573 0.0609113 0.09551961 0.07537195
-0.04951733 0.1725329 -0.022955002 -0.16261558 0.14450563 0.21789259 0.1562198 0.1652091
0.047760367 -0.1474231 0.015642539 -0.17280471 -0.30188102 0.012784702 0.11708096 -0.000751019
0.060262654 0.08149071 -0.00656318 -0.039087843 -0.061200447 -0.029078659 0.024177004 -0.067688785
-0.004152741 -0.1228766 -0.10374159 0.05745673 -0.06830106 0.08416241 0.20259428 0.038425904
0.047389288 -0.032923907 0.05601934 0.089276426 -0.03408874 0.0017277998 0.03413964 -0.065773375
0.097178675 -0.07660226 -0.054585207 0.06717417 -0.0008494384 -0.05259044 -0.060121372 0.014285337
-0.023611045 0.062426053 -0.023238467 0.03902598 0.06450896 -0.0068734186 -0.058707595 0.014501055
-0.03810573 -0.09685962 -0.082474306 -0.08383281 -0.022374066 -0.12374211 0.09828754 -0.099460736
-0.0148245655 -0.01556397 -0.084505096 -0.044708095 -0.05836901 0.03806473 0.05997198 0.06828616
0.0019456277 0.09569279 0.04125513 -0.09425041 0.14831024 0.03154214 -0.050885092 0.09412326
-0.13700199 -0.06572799 -0.015261116 -0.088159546 0.02273269 0.013854897 0.023230646 -0.08638044
0.023133721 0.111395754 0.0015804303 0.02409627 0.065396905 -0.02132471 -0.06610877 -0.14480023
-0.18798 -0.07141529 -0.10564992 -0.16006124 -0.015727099 -0.076601654 -0.10660648 -0.009178725
-0.12020134 -0.027378283 -0.03487351 -0.12446846 -0.04468984 0.028549688 0.048807207 0.031113748
-0.029407676 0.045107476 -0.030224932 0.018332731 0.004698167 0.006444269 0.050697688 -0.005470328
-0.12139591 -0.009510902 0.014672544 0.03983851 0.04222579 0.04371677 -0.011513617 0.058973245
0.029655347 0.025580209 -0.031717487 0.054688588 -0.06216828 -0.11636257 0.2725835 -0.23237725
-0.04872406 -0.16732438 0.1095761 -0.067184284 -0.0169201 -0.07219133 -0.12604469 -0.013921067
0.019895148 -0.010297542 0.12091175 -0.019595739 -0.028906714 -0.096277446 0.10381802 -0.050408002

module.residual_layers.0.0.bn2.weight f4 [16]
00000000: 1e27 723e 5928 d93e ae40 1f3f 6271 8f3e
00000010: bfc8 b83e 1dc9 983e 34b7 fb3e ffca 1e3f
00000020: 3723 183f a98e ae3e 274b ec3e bb09 003f
00000030: e90c dd3e 7b35 db3e 5e9a 143f 3f10 963e
0.23647735 0.42413595 0.6220807 0.28016192 0.36090657 0.29840937 0.4916321 0.620285
0.59428734 0.34093216 0.46151087 0.5001485 0.43173912 0.4281424 0.58048046 0.2930927

module.residual_layers.0.0.bn2.bias f4 [16]
00000000: a648 be3e 2f57 853e 7c7e e23c 6797 af3e
00000010: c519 76be 9824 43bd 4ddd a2bd 3ee4 97bd
00000020: 325d 7dbe bb50 363b 56c0 3c3d d7db 3bbe
00000030: e263 a13e 4851 7abe 611b b2bd 655d b83e
0.371648 0.26043078 0.027648203 0.34295198 -0.24033268 -0.04764232 -0.07952366 -0.074165806
-0.24742582 0.0027819115 0.046081863 -0.18345581 0.31521517 -0.24445069 -0.08696628 0.36008754

module.residual_layers.0.0.bn2.running_mean f4 [16]
00000000: 86b8 763e e941 c7be 409d 27be 7946 6bbd
00000010: b3bf 5ebd 8604 ca3c 79bf aa3e 4668 5ebb
00000020: e881 73be 5c5a 3dbe 6ab3 e1bd 1307 4cbd
00000030: 293d 08be 4587 383e 5fcd 87be c247 c3bd
0.24093828 -0.38917473 -0.1636858 -0.057440255 -0.054382037 0.02466036 0.33349207 -0.0033936664
-0.23780024 -0.184915 -0.11020549 -0.049811434 -0.13304581 0.18020351 -0.26523873 -0.09535171

module.residual_layers.0.0.bn2.running_var f4 [16]
00000000: 9c09 a53d 18b7 bb3d a94a 423e 5d63 6b3d
00000010: 4a8b 323d a428 1a3d 4bc6 dc3d 12f3 203e
00000020: f1c1 f93d 0a5d e93d 3891 fa3d 65d1 ec3d
00000030: 9dbb 993d d5b6 613d 561e eb3d d28b 7a3d
0.080584735 0.09165782 0.18973793 0.057467807 0.043589868 0.037636414 0.10780009 0.15717724
0.121951945 0.11394699 0.122347295 0.11563376 0.075064875 0.055106003 0.114803955 0.0611685

module.residual_layers.0.1.conv1.weight f4 [16, 16, 3, 3]
00000000: 6ce4 293e b202 a23e b668 5f3e bc87 83bc
00000010: b69f cb3c 282a 77bd 95a5 1dbe 814e 47be
00000020: 686b 84be 3d60 9d3c 7c2f 90bc 378f 08be
00000030: e466 d1bd ce31 09bc 87fe 893d eb38 eabb
00000040: 5fd2 c03b 018f 843d dc98 1bbe a3c5 1bbd
00000050: 5a2a 3abe 3c1d 8dbd 40cd 1abd b0ab acbd
00000060: 7f91 873d 0d57 983d 2a8d a8bb 1ea7 0bbe
00000070: 886a 59be 4724 56be 7457 88bd 54cc eebd
00000080: 4ac4 65bd ece4 9d3d 9d86 e93d 3656 3a3e
00000090: b8a0 bfbd 48bc a2bd 7463 c2bd 6b94 e73d
000000a0: 9a2e fa3d 658e 693d 49ac ad3d e834 5e3d
000000b0: 99ba bd3b 6610 d13d 2ee6 c43d 0c9a 5bbd
000000c0: 997e e0bc 48b7 973d 98e9 8dbd 2690 95bd
000000d0: dd55 86bd 8885 bbbd 1459 70bd e67b 443d
000000e0: 0864 9cbc d2c5 cebc 9279 e33c 2063 923c
000000f0: a560 a5bb 1d7a 0bbd b36e e53c fa66 b8bd
00000100: 5c08 973d 7b6a eb3d 510f d53c 73ee 41bd
00000110: 83af 34be 4faf 1b3e a36b 8e3d fff9 39bd
00000120: 0b26 7bbd 3ba6 99bc d7a8 87bb f933 c0bc
00000130: 509c dabc 90fc 9d3c 42fc f73c 7492 ef3c
00000140: 337c 0b3d 5915 20be b828 973c 7b0d e9bd
00000150: ec2c d3bd 00d0 cbbd e5e3 09be b5e4 0a3c
00000160: 9dbf 343d 7caa 0a3c f753 8fbc e145 8a3d
00000170: dafd 9a3d 4b55 afbc 6b90 a33d c39e a83d
00000180: a27f f73d ffcc 853d 2b19 48bc 9b11 adbd
00000190: 00a1 4c3d e8f0 02bd 784b a8bd 76b3 9fbd
000001a0: e2e7 ecbc 0cdd 8dbd dfe0 033c 7f9d 423d
000001b0: 4ff0 b23d 773c 95bc 6b7d 1b3c b6ac cbbd
000001c0: 4902 58bd 8b2e 883d 75ac ce3d 7895 ea3c
000001d0: ebd8 0b3e afa5 d53d cd01 453d 3592 073d
000001e0: efa1 5b3c 7749 60bd 5bc8 6abd 21a4 b2bd
000001f0: af5f b3bd fe25 b03c f2d1 98bc 0a46 803d
00000200: 8568 41bc 1555 b7bd 0caf a8bd 6cd0 cbbd
00000210: cd92 08bc 2d77 3fbc 4225 7abd 1a7b 1cbd
00000220: 4fe8 15be ee80 f8bd cd90 08bd 1b3b ffbd
00000230: 9e48 9dbd e17b 753e fa97 423e e4e1 3a3e
00000240: b5a2 ab3c 41b6 56bd 07ec 2a3d 2582 223d
00000250: 0dc9 fdbd 89c0 85bc aa2d 0b3d b0fb 2abd
00000260: 6c0d deba 72ab 36bd f797 feb9 ad75 243e
00000270: e8c2 13bc 31aa b5bb d278 4a3d dd93 083e
00000280: aff9 70bd 5ce0 98bd 9fb3 343d 706f e13d
00000290: 80c6 a4bc c95c 6ebd 7172 42bd 08bd a3bc
000002a0: 1098 ed3b d7d5 343d 82c0 05be 1e79 143c
000002b0: 94f7 ce3d 1615 1ebd 1f38 dfbd eb1a 2c3e
000002c0: 3fd9 1c3e 70eb a0bd 79cf f8bc 1896 f13d
000002d0: 97ea 0fbe edc1 533b 4442 96bd 7fad 38be
000002e0: 2277 403b b9ca 17bd 6e32 7cbd a80f e6bd
000002f0: e595 263d d8fd f13c e33c b5bd e2c8 b03d
00000300: dfac 843d ba77 973c eb8b 04be e100 ca3b
00000310: 9399 f83b ce30 64bd be0a 84bd 7012 a6bd
00000320: e266 abbd c768 4c3d cbfe 43bd 0ffd 64bd
00000330: 3fbc d33d 0e13 65bd f7b6 9fbd 4e39 b4bc
00000340: 1673 883d d87a bf3d 9257 a5bd 741f 7fbd
00000350: 1575 f33d 5723 ed3d 4275 66be 294d 0fbe
00000360: ce31 2dbd e465 233d f501 623d 44e1 38bc
00000370: 80f4 e6bb 6153 bd3b 4f21 e8bd 17b2 bb3c
00000380: 5321 a8bc e830 cd3d 31b1 053e 9502 fdbd
00000390: d4f2 b9bd e674 763d c8f2 413d eef7 e3bc
000003a0: c4c2 103d 226d fd3d 7254 c8bd 5795 d6bd
000003b0: f8f6 5bbe 2627 e33c 3c2a 453e 8562 f5bc
000003c0: ec38 0bbe 3ea3 5a3d 455d 193e 21f7 65bc
000003d0: d96a c5bd 7e5a 2cbe b5b6 233d bb24 f83c
000003e0: 077c 07bd 1a49 3f3d f705 e63d a5d8 933d
000003f0: 037a f23c eb75 46bd 6015 15be c7f7 063e
0.16591042 0.3164268 0.21817288 -0.016055934 0.02485643 -0.060342938 -0.15395196 -0.1946354
-0.25863194 0.019210929 -0.017600767 -0.13335882 -0.10224703 -0.008373691 0.06738 -0.0071478984
0.005884453 0.06472588 -0.1519503 -0.038030278 -0.18180218 -0.06890342 -0.037793398 -0.08431184
0.06619548 0.074384786 -0.005143781 -0.13637969 -0.21232045 -0.20912276 -0.06657305 -0.11660066
-0.0560954 0.07709679 0.114026286 0.1819695 -0.093568265 -0.07946068 -0.094916254 0.11307605
0.1221592 0.057020564 0.084801264 0.054249674 0.0057900664 0.10208206 0.09614216 -0.053613707
-0.027404116 0.07408005 -0.0692932 -0.07302885 -0.06559346 -0.091563284 -0.0586787 0.04796972
-0.019090667 -0.025240812 0.02776793 0.017869532 -0.0050469213 -0.034052003 0.028006887 -0.09004016
0.07374641 0.11494919 0.02600828 -0.047346544 -0.17645077 0.15203594 0.06954124 -0.04540443
-0.061315577 -0.018756023 -0.0041400003 -0.023462282 -0.026685864 0.01928547 0.030271653 0.029244639
0.034053992 -0.15633143 0.018452033 -0.11379524 -0.103113025 -0.09951782 -0.13465841 0.00847738
0.04412805 0.008463498 -0.017496092 0.067516096 0.075679496 -0.021402976 0.0798653 0.082334064
0.12084891 0.065332405 -0.012213032 -0.084506236 0.04995823 -0.031968027 -0.082175195 -0.07797901
-0.028919164 -0.06926927 0.008049219 0.04751348 0.087372415 -0.018217308 0.009490351 -0.09945051
-0.052736554 0.06649502 0.10091487 0.028635725 0.13656966 0.10431992 0.04809742 0.03309842
0.013405307 -0.05475756 -0.05731998 -0.08722711 -0.087584846 0.021502491 -0.018654797 0.06263359
-0.011804705 -0.08951775 -0.082365125 -0.09951863 -0.008335781 -0.011686129 -0.061070688 -0.038203336
-0.146394 -0.121339664 -0.033341218 -0.12462445 -0.07679866 0.23973037 0.19003287 0.18250233
0.020951608 -0.052419905 0.041729 0.039674897 -0.12391863 -0.01632716 0.033979096 -0.041743934
-0.0016941256 -0.044597097 -0.00048559878 0.16060515 -0.009018637 -0.00554397 0.04943163 0.13337655
-0.058831867 -0.07464668 0.044116613 0.11007583 -0.020114183 -0.058193956 -0.04747242 -0.019987598
0.0072507933 0.044149246 -0.13061717 0.00906208 0.101058155 -0.038594328 -0.10899376 0.16807143
0.15317248 -0.07857406 -0.030372368 0.11796206 -0.14054333 0.0032311634 -0.07336858 -0.18034934
0.0029367884 -0.037058566 -0.06157153 -0.11233455 0.040670294 0.029539987 -0.08849504 0.08632065
0.06478285 0.018489707 -0.12944 0.0061646556 0.007586667 -0.055710606 -0.064473614 -0.081089854
-0.08369233 0.04990461 -0.04785041 -0.055905398 0.103386395 -0.055926375 -0.0779857 -0.021999981
0.06662576 0.093496025 -0.08073343 -0.062285855 0.11887566 0.11579006 -0.22505668 -0.13994278
-0.042283826 0.039892092 0.055177648 -0.011284176 -0.0070481896 0.005777762 -0.11334478 0.022912068
-0.020523703 0.10019094 0.13055874 -0.12354008 -0.09079519 0.060170077 0.047350675 -0.027828183
0.035341993 0.12374331 -0.09781732 -0.10477703 -0.2148093 0.027728628 0.19254392 -0.029954204
-0.13595933 0.053378336 0.14976986 -0.014035971 -0.0963952 -0.16831395 0.039969165 0.030290952
-0.033077266 0.046700574 0.112316065 0.07219056 0.029599195 -0.0484523 -0.14558935 0.13180457

module.residual_layers.0.1.bn1.weight f4 [16]
00000000: 638c da3e cc64 de3e 090f 013f 355a e43e
00000010: bd55 d83e e7f0 e43e b431 023f cd07 f13e
00000020: 0585 c73e a20f 073f 6ebb df3e 9050 d83e
00000030: b0fa cb3e 102c ff3e 501b 003f ca52 ea3e
0.42685232 0.43436277 0.50413567 0.44600073 0.42252913 0.44715044 0.5085709 0.47076264
0.38968673 0.5275823 0.43697685 0.42248964 0.39839697 0.49838305 0.50041676 0.45766288

module.residual_layers.0.1.bn1.bias f4 [16]
00000000: 71ab 01be 7a3b afbd 6b79 96bd fb8a 81be
00000010: 51ee 0a3e e0b8 53bd e2be 31bd 00dd 06be
00000020: 77c7 f0bd 3891 cebd cab5 19be bccc 36be
00000030: 08eb 70bd 9e86 64be 9908 9bbd 6626 01be
-0.12663056 -0.08556266 -0.073473774 -0.25301346 0.13567473 -0.051689982 -0.04339493 -0.13170242
-0.11756795 -0.10086292 -0.15010753 -0.17851537 -0.058817893 -0.22316977 -0.07569999 -0.12612304

module.residual_layers.0.1.bn1.running_mean f4 [16]
00000000: b5f4 f0be 4317 36be feaf 27be 4556 5bbe
00000010: a6f4 bdbf cd0b e33d d353 febd 2184 923d
00000020: 1ad4 473d d1c5 d2be 0dab 02bf 7353 5ebf
00000030: db3d 9bbe 698e fd3d 55eb 7dbc 0126 01bf
-0.47061697 -0.17782311 -0.1637573 -0.21419628 -1.4840286 0.11086235 -0.12418332 0.07154108
0.04878626 -0.41166547 -0.5104225 -0.86846083 -0.3032063 0.12380678 -0.015498002 -0.50448614

module.residual_layers.0.1.bn1.running_var f4 [16]
00000000: 985d a83e de12 f53e 2681 283f 07b1 073e
00000010: e316 dc3e b4ec 1f3f 873f aa3f 4ec0 2e3f
00000020: 9c17 993e 9614 753f e002 943e 8001 823e
00000030: 903d c23e b4f6 a63e 2ec9 843f 523b fd3e
0.32883906 0.47865957 0.65822065 0.13251124 0.4298621 0.62470555 1.3300637 0.68262184
0.29900825 0.95734537 0.28908443 0.2539177 0.37937593 0.32610095 1.0373895 0.4945932

module.residual_layers.0.1.conv2.weight f4 [16, 16, 3, 3]
00000000: dbd3 fb3c b3fb 2a3d 4647 99bb d7cf 09bd
00000010: 46d1 84bd 39b3 c1bd 4cc1 90bd f7fe e4bd
00000020: 6aef fabd a1a9 713c 0f88 84bd 4505 fabc
00000030: 1a46 153d 9c11 20bb 347a 26bd b8a2 cf3c
00000040: 3579 993c 2d0c 643c a10b 873c 52c8 63bd
00000050: af99 2dbd fdf3 a8bc 15d2 5c3c 7475 aabc
00000060: c9df 9ebc ccea 27ba d31c 97bc 0e8e 033d
00000070: aadf a13c 5eb7 cfbc 780c f83c fc64 63bb
00000080: 7d67 59bb c39c d13c 4a52 b63b 91f8 a03b
00000090: 1d22 1f3d 24e4 7e3d c8e5 ab3c 5582 2a3c
000000a0: 21f4 4f3d 5f46 533d 6f14 37bd 6730 303d
000000b0: c8ef e23c 2952 37bd de81 bd3c 1bb6 313d
000000c0: cb38 f33a f460 513d 0203 123d 8cc9 f03d
000000d0: b6ba af3d 4bca 0ebd 03f7 053c f8b8 183c
000000e0: f135 c93a e966 f1bc f712 d3bc c120 41bd
000000f0: a0b5 353d 1cb4 583d 7b7b fe3a 93bd fe3c
00000100: 979b 3c3b 43e5 cabc b636 5bbb a505 da3b
00000110: b7a4 d8bb d5d2 463d 0b91 0c3d ac67 0fbb
00000120: 22f9 88bc 6b13 2ebd 8084 6e3b 241d 98bd
00000130: 5ee2 b6bd c44e 85bb 1622 04bd 8023 c73c
00000140: 6456 0e3e f9dc f7bb 8ca3 343c c5d5 96bb
00000150: f636 9c3c 7710 de3c 1bc8 c03c bab5 1e3c
00000160: 46e0 563c 6b9c 7b3d 517c 013c c1b5 a5bc
00000170: b136 e5bc 7b15 ef3c 9ccb 273c 20f2 1abc
00000180: fdce 67bb 4892 32bc c16d 40bc af83 55bb
00000190: f415 343d 183b 653c cfc8 2a3b dc92 993d
000001a0: 927d c73c fd46 91ba f10f 673d 7c98 083c
000001b0: 26b2 a6bb 0452 2bbc d3fc b43b 1b24 72bc
000001c0: 1e03 eabc 1968 1ebd 5b89 c63b e841 6bbd
000001d0: 170b 1fbd b4f7 093d d2fc eebc 7030 8abd
000001e0: e697 b23c d212 8ebd 2732 66bd e3cf c03b
000001f0: 9b15 00bd 309d 54bd 401a ed3c 1d2b 8539
00000200: c026 86bc 3246 513d 23b9 e23c 6508 ab3a
00000210: b1df 033d c896 413c 20d4 81bd 2fbe 45bd
00000220: 894b c43b 97fc 293c 2f1d 443d a22a 8cbc
00000230: bb5c 2bbd 97d0 863d 2090 f1bc 0126 0ebd
00000240: 7a97 b93c c22e 2fbd 6e19 3d3d 798c 75bd
00000250: d419 dfba 583d 2d3e bec9 9b3b 0dda d13d
00000260: 2a91 103e 9376 1e3c ba0a 54bd 1744 a33c
00000270: 716b b83d c120 3d3d 2a78 423b 505b 473e
00000280: a7db 053e 8ef6 8fbb 6338 96bc d709 cdbc
00000290: d315 15bd 03ae e5bd a562 4abe 8b35 1cbe
000002a0: 005e 9abd da37 cfbd 44a7 39be 53a0 b0bc
000002b0: 16be 563d 0775 0b3d 7414 0b3c ca4c 2d3d
000002c0: 2134 533d 7af1 9b3d afce 0d3c 6da1 473d
000002d0: 7f88 1c3c cdd4 9bbd b3fe 613c 4543 8a3d
000002e0: d03e a5bc 91e8 e23d 225e 64bb cfa1 993c
000002f0: 33bd b43d ff77 5fbd e1cc c2ba aff8 b9bc
00000300: 7662 36be b5ce 0cbe 6995 f2bd 8f85 423d
00000310: 4364 6a3b a8ca 48bd c677 823c 01fb 4cbd
00000320: 8269 4dbd b469 713c f92a 8ebd 2365 3fbd
00000330: 97e4 2bbd 1635 7bbd 14e6 95bb 83f0 e93c
00000340: e51a f83d 74a0 d33d 48a0 e63c d2f7 d0bc
00000350: 1fd7 b83c db6b bf3d 515a 723d 5acb 82bc
00000360: 6ad9 94bd 8f2e 14be 39f1 11be 9c83 febd
00000370: 293f 8cbd b650 dabd a57c 3abd 5888 96bc
00000380: 138d 78bd 0ed5 95bd 03d2 fcbd bfa6 ebbd
00000390: 3084 b8bd c700 abbe 5e51 93be 2e06 21bd
000003a0: 4aa1 29be dfda 4dbe f9ba 823b acc4 ac3d
000003b0: 6e8a 3d3d 8a8f 13bd 7abf 093d 30b3 5f3d
000003c0: fce4 c03d 704d 9ebc dacb e23d e35e 1b3c
000003d0: 62a9 ba3d d808 d23d f84f a93c f092 ca3d
000003e0: 54b1 b63d c3a3 39bc 8a61 cf3d 1438 be3c
000003f0: eda6 8bbd d88f debd 2df9 f1bc 27ae aabd
0.030740669 0.041743945 -0.004677686 -0.033645477 -0.06485228 -0.09458012 -0.070681185 -0.11181443
-0.12252696 0.014749915 -0.064712636 -0.03052009 0.036443807 -0.0024424559 -0.040643886 0.025346145
0.018734554 0.013918919 0.016485037 -0.055610962 -0.042382892 -0.020624155 0.013477822 -0.02080796
-0.019393818 -0.0006405532 -0.018446362 0.032117896 0.019759972 -0.025355991 0.030279383 -0.0034697643
-0.0033173256 0.025587445 0.005564009 0.004912444 0.038850892 0.06222929 0.020983592 0.01040705
0.05076993 0.051580783 -0.04469722 0.04301491 0.027702227 -0.04475609 0.023133215 0.04338656
0.0018556354 0.051117852 0.0356474 0.11757192 0.08580534 -0.03486089 0.008176568 0.009321444
0.0015351159 -0.029468017 -0.02576588 -0.047150377 0.044362664 0.05290614 0.0019415462 0.031096255
0.0028779262 -0.024767524 -0.0033449358 0.006653505 -0.0066114324 0.04854091 0.03431801 -0.0021881862
-0.016720358 -0.042498987 0.0036394894 -0.07427433 -0.08929895 -0.0040682275 -0.03225907 0.02430892
0.13900143 -0.007564184 0.011025321 -0.00460312 0.019069176 0.02710746 0.023532918 0.009686882
0.013114994 0.06142847 0.0079031745 -0.020228269 -0.02798018 0.029185047 0.010241415 -0.009457141
-0.0035371177 -0.010899134 -0.011744917 -0.003257971 0.04396625 0.01399114 0.0026059633 0.07498714
0.024351869 -0.0011083778 0.056411687 0.008337136 -0.005087155 -0.010456566 0.005523303 -0.014779116
-0.02856594 -0.038673494 0.0060588545 -0.0574359 -0.038828935 0.033683494 -0.029173288 -0.0674752
0.021800946 -0.069371834 -0.056200173 0.005884157 -0.031270605 -0.05190772 0.028943181 0.0002539986
-0.0163759 0.051092334 0.02767617 0.0013048766 0.03219575 0.011815734 -0.06339288 -0.048277076
0.00599045 0.0103751635 0.047879394 -0.017110173 -0.04183648 0.06582754 -0.02948767 -0.034704212
0.022655237 -0.0427692 0.04616683 -0.05994842 -0.0017021247 0.16917932 0.004754274 0.10246668
0.14117876 0.009671825 -0.051768042 0.019929929 0.09004868 0.046173815 0.0029673674 0.19468427
0.13072072 -0.0043934053 -0.018337434 -0.025029106 -0.036397766 -0.11214831 -0.19764192 -0.152548
-0.0753746 -0.10118075 -0.18130213 -0.021560824 0.052427374 0.034047153 0.008488763 0.04230956
0.051563386 0.076144174 0.008655234 0.048737932 0.009554028 -0.07608948 0.013793635 0.06751112
-0.020171553 0.11079515 -0.0034846147 0.018753914 0.088251494 -0.054557797 -0.0014862084 -0.02270159
-0.17810997 -0.13750727 -0.11844904 0.047490653 0.0035765327 -0.049021393 0.015926253 -0.050044063
-0.05014945 0.014734674 -0.0694179 -0.04672731 -0.041966047 -0.061329924 -0.0045745466 0.028557068
0.12114505 0.103333384 0.0281526 -0.025508795 0.022563515 0.09346744 0.059168164 -0.015966106
-0.07268031 -0.14470886 -0.14252175 -0.12427446 -0.06847984 -0.10659926 -0.045529027 -0.01837556
-0.060681414 -0.073160276 -0.12344744 -0.11506414 -0.09009588 -0.3339903 -0.28773016 -0.039312534
-0.16565433 -0.20103024 0.003989574 0.0843595 0.046274595 -0.03602556 0.033629872 0.054614246
0.09418675 -0.019324034 0.11074038 0.009483072 0.091143385 0.10255593 0.020668015 0.09891307
0.089205414 -0.011330548 0.10126026 0.0232201 -0.06818948 -0.1086728 -0.029537762 -0.08333998

module.residual_layers.0.1.bn2.weight f4 [16]
00000000: 64b5 a8bd 894b 233f 85d5 8a3e f496 a83e
00000010: f120 e93e 5f2f 943e d183 c03e 543f bb3e
00000020: d631 cd3e 6c29 623e 4bda e23e d3d8 bf3e
00000030: e5c2 0a3f 1a5b 2d3e 0cba 233f 1823 903e
-0.082377225 0.6378713 0.27116027 0.32927668 0.45532945 0.2894239 0.37600568 0.36571753
0.40077084 0.22086114 0.4430717 0.3747011 0.54203635 0.16929284 0.6395576 0.28151774

module.residual_layers.0.1.bn2.bias f4 [16]
00000000: 3496 533d 46f3 2c3d be26 d4be 9c4a e73d
00000010: 0c6b ca3e 490c b43e c12a 6b3e 3326 cabe
00000020: 940d 433e 4af9 8e3e e229 a6be 661c 373e
00000030: d9e6 443e b9fd 143d 24fe 5ebd cd59 3a3e
0.051656917 0.04222419 -0.41435808 0.112935275 0.39534795 0.35165623 0.22965528 -0.3948227
0.19048148 0.27924567 -0.3245383 0.17881927 0.19228686 0.03637478 -0.054441586 0.18198319

module.residual_layers.0.1.bn2.running_mean f4 [16]
00000000: 8b69 273d a7c8 04bf b53a 383e 846c 82be
00000010: 873c b6bd 6c72 c83d 794c 2fbe a0a4 2e3e
00000020: 0629 1fbf 4e6f 913e 83d4 553d d7ab 063e
00000030: 8658 54be 2caf 4dbd a5e3 36be cdc8 263d
0.040872138 -0.5186867 0.17991145 -0.25473416 -0.088982634 0.09787449 -0.17119016 0.17054987
-0.6217197 0.2840523 0.05220462 0.13151489 -0.20736894 -0.050215885 -0.17860277 0.040718842

module.residual_layers.0.1.bn2.running_var f4 [16]
00000000: c4da c73c 6e4d 6d3e 44de 433d a3eb 8d3d
00000010: 652c e73d f0bc 7e3d 20e1 a93d 4e8a 643d
00000020: 2e5f ad3d ec7a 963d df08 963d 5c1a c03d
00000030: 3cc8 283e 1b5b 2d3d 45e9 f53d 7134 853d
0.024396308 0.23174068 0.04781939 0.0692971 0.112877645 0.062191904 0.08294892 0.05579596
0.0846542 0.07347664 0.07325911 0.09380028 0.16482633 0.042323213 0.12007383 0.06504143

module.residual_layers.1.0.conv1.weight f4 [32, 16, 3, 3]
00000000: 07ab 0fbd fbac 28bd 9721 89bd 826f 3cbd
00000010: 0527 13bd 1dd1 adbd 6393 923c b3a2 d53b
00000020: 78fe 64bd 52ad 813d f520 a93d 0e09 3b3d
00000030: e602 903d 2ab8 ce3d ceb1 9b3d e39c b83d
00000040: 5caf ba3d 8119 9f3d b3ce e3bd b9a6 36be
00000050: e33c 09be fc6a 01be 261a 2bbe 3844 d9bd
00000060: 56c9 fdbc ef82 a1bd f6f4 53bd a409 813c
00000070: ee60 28bd 53df 823c c5d5 ab3c d4d0 ccbc
00000080: 026b 8e3d a67a 1c3d 1293 753c f65e a53d
00000090: 405c 21be 3a59 0bbe 9e8c 2dbe 43fb e4bd
000000a0: 7019 11be f0e1 fabd d0d3 ddbd 76a9 03be
000000b0: b045 b1bd b7e5 95bd 6a39 eebd 2f97 aa3b
000000c0: 3527 40bd 6bd4 9dbd 679d 5dbd 267d 4ebd
000000d0: 7efd a4bd d88d afbd 76b8 8dbc 3984 583d
000000e0: 4846 393e 3868 16bd 9cec 4b3d 38a3 d93d
000000f0: eea1 3fbd 67c4 43bb 0b26 353d 2b67 a03d
00000100: 9bf9 0a3e e7e7 d23d 5abe cc3d ec52 203e
00000110: 8792 ce3d 712f 313e a101 173e ea66 0f3d
00000120: e3c1 d93d 7ae9 9d3d afa0 293d 24d7 033e
00000130: fb1b 033c 0dea 8d3c 94ae 873c 6ece babd
00000140: bc11 a2bd d26b b8bd 050a 8fbd 77e4 f3bd
00000150: 8801 01bd 324c 8ebc e5c4 55bd a962 f9bb
00000160: 925c 813d 41df 553d 5345 2a3e e21b 853e
00000170: 3a6f b63d 3aef 383e f535 5e3e f9d1 f43d
00000180: 7546 dd3d 5803 ee3d c5c2 393d 4ec3 f43c
00000190: 6ed8 2abd e03d 76bd 6a8a ae3d 4a46 de3d
000001a0: 0f24 013d 2311 083d cf2f 253d bd8a be3d
000001b0: 4b0a e13d 3751 763d a714 1ebd 3782 af3b
000001c0: c516 4bbd 80f0 0bbd 8ca7 25be 86f2 00be
000001d0: 3f6c d8bc 80f4 37be 3d67 0abe 850a 8bbc
000001e0: 4548 1dbe 68bb 01be b285 f6bd 378c 94bd
000001f0: 404e 8bbd 9324 e7bd 2b24 26bd 763a 0a3d
00000200: 969f 983d b897 07bd 015a 12bb 3a4f 243d
00000210: 1cb3 07be 83ee d0bd 8402 bbbd 34ac b03d
00000220: a127 7a3d 688a 763c a28b 853d 0702 643d
00000230: 87ff 0b3d 8f60 fdbc f0ea ebbd ffac 0dbe
00000240: 1127 edbd 291e c1bd 3b89 f3bd 6041 11bd
00000250: 625d 07bb 663a 00bd 9492 e1bc 8f7e 123c
00000260: 267d 073b 1e76 9fbd f2bb dfbd b005 34bd
00000270: eff8 88bd a3fe 42bd daaf 4bbd f771 05bd
00000280: 11df abbd 816d 9cbd d93e 2b3e e102 d03d
00000290: 4227 d9bd 972b ad3d fd39 b3bc 252a 0abe
000002a0: 168a 24bd 8b59 babd c2ad f4bd f55b 193d
000002b0: 40d2 76bd acf0 593c f98a babd f40b b5bd
000002c0: 4137 febc b512 f7bd 6e9a 7dbd 7441 efbb
000002d0: b34b 24bc 2467 58bd a278 22bd f164 acbd
000002e0: 953f f4bd ada2 d4bd d33b bbbd 7e2d bbbd
000002f0: 129f 40bd 0b4b 1fbd 1d59 a4bd 52bf 60bd
00000300: ddf4 a6bc e230 7fbd bb0a 58bd 9e52 9c3b
00000310: bb26 8fbc c531 bebc 12f0 7fbb d8a8 263d
00000320: 95a0 8f3d a5a6 513d 2db5 c83d fc1d f33d
00000330: e4cf 903c a8fb 8b3c 04e5 963d 4c12 f5bd
00000340: 5a60 29bd 15f9 743d c474 73bd a05f 253d
00000350: 17fb 4c3d cf90 3cbd eca1 a63d 4128 a23d
00000360: b88f 74bc 41dc d63d ab57 843d c7f0 883d
00000370: 93bc 0b3e 8233 0b3e 0cbe f23d 6697 553e
00000380: 2a47 343e a6f3 5a3d 8710 303d f1d0 503d
00000390: 1b0c 263d ad86 1bbd 46e7 27be b04c 06be
000003a0: a9e0 24be c848 3ebe 5e42 ccbd 2d4d 32bb
000003b0: 8f9a 1b3d 0655 84bd 61c2 b63c 4b4d 643d
000003c0: 9b5d edbc c982 4f3d 1eb0 f13c 7ea3 6dbd
000003d0: fcb8 fcbd 1c67 22be aca6 a8bd 1da8 96bd
000003e0: 29d3 93bd 0777 11bc 40d7 73bc 6f81 c33d
000003f0: 8bbb 393d 0d49 04bc 5771 64bd f849 0ebd
-0.035075214 -0.041180592 -0.0669586 -0.04600478 -0.035925884 -0.08487151 0.017892545 0.0065196394
-0.055906743 0.06331886 0.08258239 0.045662932 0.07031803 0.1009372 0.07602273 0.09014299
0.091154784 0.07768536 -0.11123409 -0.17837037 -0.13402133 -0.12638468 -0.16709194 -0.10608715
-0.030979794 -0.07886302 -0.051747285 0.015751667 -0.041108064 0.01597563 0.020975957 -0.02500192
0.06954004 0.038202904 0.014988678 0.08074753 -0.15757847 -0.13608256 -0.16948172 -0.11180737
-0.1416986 -0.122501254 -0.10831416 -0.12857613 -0.0865587 -0.07319205 -0.116320446 0.005206011
-0.04691239 -0.07706531 -0.05410519 -0.05041232 -0.08056162 -0.085719764 -0.017299872 0.052860472
0.18093216 -0.036720484 0.049786195 0.10626835 -0.046785288 -0.0029871704 0.044225734 0.07832178
0.1357178 0.10298138 0.09997244 0.15656632 0.100865416 0.17303254 0.14746715 0.035010256
0.10632684 0.07710548 0.041413005 0.12875038 0.0080022765 0.017323518 0.016562738 -0.091214046
-0.07913539 -0.0900494 -0.06984333 -0.119088106 -0.0314956 -0.017370317 -0.052189726 -0.007610638
0.063164845 0.052214865 0.16628008 0.25997835 0.089079335 0.18060008 0.2170027 0.119541116
0.10804454 0.116217315 0.045351762 0.029878285 -0.04171031 -0.060117602 0.08522494 0.1085325
0.03152853 0.033219468 0.040328797 0.09303806 0.10988291 0.060136046 -0.038593914 0.005356099
-0.04958226 -0.034164906 -0.16177195 -0.12592515 -0.026418803 -0.17964363 -0.13515945 -0.01697279
-0.153596 -0.12669146 -0.12037219 -0.07253306 -0.068020344 -0.11286273 -0.040561836 0.03374716
0.074523136 -0.033103675 -0.0022331479 0.04011462 -0.13251919 -0.102017425 -0.09131339 0.08626595
0.06107295 0.015047647 0.065207735 0.055665996 0.034179237 -0.030929832 -0.1151942 -0.13835524
-0.11579717 -0.09429581 -0.11891409 -0.035462737 -0.0020655026 -0.031305693 -0.027535714 0.008941307
0.002067396 -0.07786201 -0.109245196 -0.043950737 -0.06688105 -0.04760612 -0.049728252 -0.03257939
-0.08392156 -0.07638074 0.16723193 0.10156799 -0.10603191 0.0845558 -0.021878237 -0.1349264
-0.04017075 -0.0909911 -0.11947204 0.037441213 -0.060259104 0.01330201 -0.09108538 -0.088401705
-0.031032206 -0.12064115 -0.061914854 -0.007301504 -0.010027814 -0.052832738 -0.039665826 -0.084176905
-0.1192619 -0.103825904 -0.0914227 -0.09139536 -0.0470267 -0.038889926 -0.080248095 -0.054869957
-0.020380432 -0.062302478 -0.05274461 0.004770591 -0.017474523 -0.023217091 -0.0039053005 0.040688366
0.070130505 0.051184315 0.098001815 0.118709534 0.017677255 0.017087772 0.073679 -0.119663805
-0.041351654 0.059807856 -0.05943753 0.0403744 0.050044145 -0.046036538 0.08136353 0.07917834
-0.014926843 0.10491229 0.06462034 0.0668655 0.13646154 0.13593867 0.11852655 0.20858535
0.17605272 0.053455018 0.04298451 0.050980512 0.04053889 -0.037970234 -0.16396818 -0.13115191
-0.16101326 -0.18582451 -0.09973596 -0.0027206645 0.037989195 -0.064615294 0.022309484 0.055737775
-0.028975299 0.050661836 0.029502925 -0.058017246 -0.123399705 -0.15859646 -0.08234915 -0.07356284
-0.0721801 -0.008878476 -0.014882863 0.09546172 0.04534487 -0.008074057 -0.05577215 -0.03473851

module.residual_layers.1.0.bn1.weight f4 [32]
00000000: a8cf be3e d82b cb3e ffff a83e cf3b 053f
00000010: b355 c83e c1b4 e83e 6f79 fe3e 2920 b23e
00000020: 327f a93e 43ac b63e 1ed6 d03e 7a90 f03e
00000030: ba49 173f 4805 ce3e f642 a93e fd53 e83e
00000040: 141b d03e dae6 cb3e 1d55 ba3e d5de c43e
00000050: 7036 073f 22ba cd3e 56b0 aa3e 3fa2 083f
00000060: c741 bc3e a245 e93e e27a 933e e185 b33e
00000070: a752 053f a920 e93e b4ce c13e 1b75 e73e
0.37267804 0.39681888 0.3300781 0.52044386 0.39127883 0.45450404 0.4970202 0.3479016
0.33104855 0.356783 0.40788358 0.46985227 0.5909687 0.40238404 0.330589 0.45376578
0.4064566 0.39824563 0.3639306 0.38451257 0.5281744 0.4018107 0.3333766 0.5337257
0.36768934 0.45560938 0.2880469 0.3506308 0.5207924 0.4553273 0.37853014 0.45206532

module.residual_layers.1.0.bn1.bias f4 [32]
00000000: e0ee 113d 7b7c ebbc c11b c43b cf94 51be
00000010: 4681 1fbe e778 0abd 2a19 04be de02 74bd
00000020: 068b f4bc 5407 3bbe 38f5 90bd 7eb0 8dbe
00000030: f9a5 0cbd 4930 9bbd f0e6 463d b430 47bd
00000040: 2cc9 8b3d ece0 b33d 467e 15bd 7459 04be
00000050: 5306 71be 5322 f0bd 2d69 633e b0a8 9dbd
00000060: 95bd 06be df32 93bd 9ccf b93d 1a30 dfbd
00000070: 9d07 4abe a7d1 40be de18 453e 614a 80bd
0.0356282 -0.02874588 0.005984754 -0.20466922 -0.15576658 -0.033806708 -0.12900224 -0.059573047
-0.029851448 -0.18264514 -0.07078022 -0.27673715 -0.03433797 -0.07577569 0.048560083 -0.04863043
0.0682548 0.08783135 -0.036497377 -0.12924749 -0.23537569 -0.11725297 0.2220809 -0.0769819
-0.13158257 -0.07187437 0.090728015 -0.108978465 -0.19729467 -0.18829976 0.19247767 -0.06264187

module.residual_layers.1.0.bn1.running_mean f4 [32]
00000000: 0ed2 20bf 6e8a bebf 670c 0640 7948 e9be
00000010: e0ac 44bf 6e09 b3bf 23f8 a73e 11af 0d3f
00000020: e759 a2bf 7a3b bbbf b18d 413e 61da 4bbf
00000030: a59e eebe d73d aebe 9bd4 133f 0327 cbbf
00000040: f9cb ef3e 88cd 483e 1039 81be 53bf 843e
00000050: f7a0 96bf 2855 973e 9699 b3bf 7c8d c2bf
00000060: 2673 afbe ccb5 39bf 8604 47bf 7527 a7bf
00000070: 4da9 f13d 2d38 b2be ea55 02be 1298 423c
-0.6282052 -1.4885995 2.094507 -0.45563105 -0.76826286 -1.3987253 0.328065 0.55345255
-1.2683686 -1.4627526 0.18901707 -0.79630095 -0.4660541 -0.34031555 0.57746285 -1.587128
0.46835306 0.19609654 -0.25238848 0.2592722 -1.1767873 0.29557157 -1.4031246 -1.5199428
-0.3426754 -0.72543025 -0.7774128 -1.3058916 0.1179987 -0.34808484 -0.12728086 0.011877077

module.residual_layers.1.0.bn1.running_var f4 [32]
00000000: 861f cf3e 0781 cd3e 5d92 e63e 2290 e73e
00000010: f4a6 8a3e b241 c93e 7f49 143f 2482 483f
00000020: ff96 d23e ed3d 833e d1d4 d53e 3504 453f
00000030: 04c2 283f b0a3 a53e 6324 143f bf4a b13e
00000040: 27d7 023f 67fd 2a3f d35c e83e f831 b43e
00000050: 52da ef3e 3d3b c63e f9e7 4e3f 8dfd 313f
00000060: 47ea 953e 50bf be3e 3803 e23e 16cc 9f3e
00000070: 8793 113f ebe7 9c3e 2d8f 313f eadf 503f
0.40453738 0.40137503 0.4503354 0.45227152 0.270805 0.39307934 0.57924646 0.7832358
0.41130826 0.25633183 0.4176393 0.76959544 0.65921044 0.32351446 0.5786802 0.3462734
0.51109546 0.6679291 0.4538332 0.35194373 0.46846253 0.3871707 0.8082271 0.6952751
0.29280302 0.37255335 0.4414308 0.31210393 0.56865734 0.3064569 0.69359094 0.81591666
