summaries/good_ResNet2_num_blocks2x2_num_channels16_conv5/ckpt.pth (torch, 491819 bytes, 52 tensors)

module.conv1.weight f4 [16, 3, 3, 3]
0	0xbddcd46e	-0.10782705
1	0xbe0db58f	-0.1383879
2	0xbe424ce5	-0.18974645
3	0xbe6981f4	-0.2280348
4	0xbe8ec2db	-0.27883038
5	0xbe891763	-0.26775655
6	0xbddb48a2	-0.10707213
7	0xbe2ae539	-0.16689004
8	0xbddcf00a	-0.10787971
9	0xbdf08c9f	-0.11745571
10	0x3ec54f9a	0.38537294
11	0x3e3401d7	0.17578827
12	0x3e0c3521	0.13692142
13	0x3f4fc1b9	0.8115497
14	0x3f30ec01	0.69110113
15	0x3b1c8649	0.002388375
16	0x3eede347	0.4646246
17	0x3ed4c11c	0.4155358
18	0x3de6a84d	0.112625696
19	0xbe0759a9	-0.13217796
20	0xbe385ca1	-0.18004085
21	0xbde44369	-0.1114567
22	0xbecdb9e2	-0.4018088
23	0xbeacb1c9	-0.3372939
24	0x3d082412	0.033237524
25	0xbeb73fd8	-0.35790896
26	0xbe784372	-0.24244478
27	0xbd3edb5e	-0.046595924
28	0xbeac2906	-0.33625048
29	0xbe9c1b10	-0.30489397
30	0xbbb3c78d	-0.005486435
31	0xbd7f2219	-0.062288377
32	0xbda8eac2	-0.082479015
33	0x3d9e30ed	0.077241756
34	0x3eb580f7	0.35449955
35	0x3e6097a2	0.21932843
36	0xbd9783a9	-0.07398159
37	0xbe9f03ad	-0.31057492
38	0xbe848edc	-0.25890243
39	0xb9100ab8	-0.00013736903
40	0xbd9f922d	-0.07791553
41	0xbde5fbcb	-0.11229666
42	0x3e031189	0.12799658
43	0x3ea2ffd6	0.31835812
44	0x3e242bcf	0.16032337
45	0x3cc1af5e	0.023643192
46	0xbdcf26a4	-0.10114792
47	0xbdc0ffb4	-0.094237715
48	0x3d0ed934	0.03487511
49	0x3c83416d	0.016022408
50	0xbce0374c	-0.027370118
51	0x3df1abe6	0.11800365
52	0x3e9598d9	0.29218176
53	0x3e17b85b	0.1481642
54	0x3cfd2915	0.030903379
55	0x3dcedd64	0.10100821
56	0x3e4b9961	0.19882728
57	0xbdaa79a1	-0.0832398
58	0x3e01f409	0.12690748
59	0x3ea34a85	0.3189279
60	0xbe4807be	-0.19534203
61	0xbe3b9d03	-0.18321614
62	0x3d1cdba2	0.038295396
63	0xbdbaa73c	-0.09113929
64	0xbe15a95b	-0.14615385
65	0xba21d9e7	-0.00061741326
66	0xbe84a3e9	-0.25906304
67	0xbe1defae	-0.15423462
68	0x3dd0beab	0.10192617
69	0xbea115fb	-0.31462082
70	0xbeb43827	-0.3519909
71	0xbd4c71cc	-0.049913213
72	0xbd967d30	-0.07348096
73	0xbd9291cd	-0.071567155
74	0xbd9c28cc	-0.07624969
75	0x3e0e451c	0.1389355
76	0x3e9c84d0	0.30570078
77	0x3eae27f5	0.3401486
78	0x3da2857b	0.07935616
79	0x3e21f878	0.1581744
80	0x3e775ebf	0.24157237
81	0xbdf8793d	-0.12132499
82	0x3defb7d1	0.11704982
83	0x3dade3ee	0.0849074
84	0x3d39dcf1	0.04537672
85	0x3e8d6cae	0.2762198
86	0x3db6f860	0.089340925
87	0x3d635d85	0.05550911
88	0x3e237a15	0.1596454
89	0xbe057058	-0.13031137
90	0xbe4a2b24	-0.1974302
91	0xbd085451	-0.033283535
92	0xbd379a75	-0.044825036
93	0x3d1c96a8	0.038229614
94	0x3e3558b1	0.17709614
95	0x3cc2457a	0.02371477
96	0x3cf48697	0.029849334
97	0x3d35a81b	0.04434977
98	0xbe08b26d	-0.13349314
99	0x3e5815e7	0.21102105
100	0x3e524f39	0.20538034
101	0x3dae6886	0.0851603
102	0x3e2fb319	0.17158164
103	0x3e016f15	0.1264003
104	0xbd187594	-0.037221506
105	0xbd283d81	-0.04107428
106	0xbe43defc	-0.1912803
107	0xbe9bc77e	-0.30425638
108	0x3e0d7816	0.1381534
109	0x3e6dfd8f	0.23241256
110	0x3ce4ca4d	0.027928496
111	0x3e00d4ca	0.12581173
112	0xbec9c4ea	-0.39408046
113	0xbe178bdd	-0.14799447
114	0x3e72f818	0.23727453
115	0xbeb10109	-0.34571102
116	0xbd893473	-0.06699457
117	0xbcb2535c	-0.021768264
118	0xbd17d79d	-0.03707086
119	0x3d8a1e50	0.06744063
120	0xbe036958	-0.12833154
121	0xbef9254d	-0.4866127
122	0x3a750b4d	0.0009347692
123	0x3d944bbd	0.072410084
124	0xbe9ee8bf	-0.31036946
125	0x3dd1a37a	0.10236259
126	0x3d58ce5c	0.052931175
127	0xbd37648d	-0.044773627
128	0xbcb2f675	-0.021846035
129	0xbd2647d7	-0.040595856
130	0xbe979a8a	-0.2961009
131	0x3d0dc0bb	0.03460763
132	0x3d983bf3	0.074333094
133	0xbde10395	-0.10987011
134	0x3e1d8e53	0.15386324
135	0x2f8e0bc1	2.5838e-10
136	0x3083fa50	9.602648e-10
137	0xb05b4298	-7.976637e-10
138	0x31e3047c	6.6070793e-09
139	0x31f2b788	7.063992e-09
140	0x31a52021	4.8057847e-09
141	0x321d7a8a	9.166465e-09
142	0x32215807	9.3914485e-09
143	0x31db6b9b	6.385972e-09
144	0xb0231aef	-5.933733e-10
145	0x305c6925	8.0184953e-10
146	0xb04a81c3	-7.3671574e-10
147	0x305e5e0a	8.0896767e-10
148	0x30924ac0	1.0644143e-09
149	0xb06a2b23	-8.5190005e-10
150	0x2f97b915	2.759825e-10
151	0xb06fcb28	-8.7236396e-10
152	0xb162d03a	-3.3005692e-09
153	0x31bb54f9	5.4520766e-09
154	0x32181be3	8.853905e-09
155	0x31e1df44	6.573744e-09
156	0x30cc896e	1.4882013e-09
157	0x310b3328	2.0256241e-09
158	0xb04aff66	-7.3850115e-10
159	0xb141f023	-2.8221698e-09
160	0xb18e8116	-4.1474193e-09
161	0xb1d2f7d4	-6.139979e-09
162	0xb54affdf	-7.5623205e-07
163	0xb550342d	-7.7561964e-07
164	0xb4e22094	-4.2119484e-07
165	0xb51398f1	-5.4984326e-07
166	0xb437fd2d	-1.7135308e-07
167	0x333830e2	4.2885297e-08
168	0xb4c18067	-3.6042476e-07
169	0xb32880b3	-3.92326e-08
170	0x343aa6a1	1.7383219e-07
171	0xb584a72c	-9.88342e-07
172	0xb56d7c05	-8.846985e-07
173	0xb523b56e	-6.0986247e-07
174	0xb4ad8ff9	-3.2328515e-07
175	0x34b2df15	3.3317397e-07
176	0x34fdd187	4.7277373e-07
177	0xb44286df	-1.8116724e-07
178	0x34a80a6e	3.1300027e-07
179	0x34c9b300	3.7569407e-07
180	0xb52256a0	-6.047576e-07
181	0xb4bba4cd	-3.4951373e-07
182	0xb3a8ea1a	-7.8656925e-08
183	0x359bee5c	1.1617772e-06
184	0x36082ecf	2.0292825e-06
185	0x36125dac	2.181022e-06
186	0x35c21dc3	1.4462788e-06
187	0x360adae1	2.0691007e-06
188	0x360e2518	2.118124e-06
189	0x3ef26219	0.47340468
190	0x3f33f013	0.702882
191	0x3d7d713a	0.06187556
192	0x3ec900ff	0.39258572
193	0xbedb3e49	-0.42820957
194	0xbe223098	-0.1583885
195	0x3defee8c	0.11715421
196	0xbf110e38	-0.5666232
197	0xbf291623	-0.660494
198	0xbe8af0b9	-0.27136782
199	0xbdf232bc	-0.11826083
200	0xbe6b9974	-0.23007756
201	0xbcedb51c	-0.029017024
202	0xbe709fab	-0.23498408
203	0x3f09e708	0.5386815
204	0x3dc20fdd	0.09475682
205	0x3e265de0	0.16246748
206	0x3e46b2a6	0.19404086
207	0xbeb37382	-0.35049063
208	0xbe4aebec	-0.1981656
209	0xbe9f2b02	-0.310875
210	0xbe2078b1	-0.1567104
211	0xbd0ed7cc	-0.03487377
212	0x3efdf85c	0.49603546
213	0xbdbe7bf3	-0.09300985
214	0x3e8cc111	0.27491048
215	0x3eb097a1	0.34490684
216	0xbe6693b9	-0.22517289
217	0xbe01526a	-0.12629095
218	0xbe160d40	-0.14653492
219	0xbe6949c2	-0.22782043
220	0x3e20e715	0.15713151
221	0x3e245055	0.16046269
222	0x3d87c777	0.06629842
223	0x3e900c03	0.28134164
224	0x3e3192c1	0.17341138
225	0xbe0cc4e0	-0.13746977
226	0x3e079ba3	0.13242964
227	0xbcba16f0	-0.022716016
228	0xbe9c0a49	-0.30476597
229	0x3e92a465	0.28641048
230	0x3e6b3665	0.22969969
231	0xbe898ec4	-0.26866734
232	0x3d18363e	0.037161104
233	0xbd53b3d5	-0.051685173
234	0xbe667ca0	-0.22508478
235	0x3e0e3fb4	0.13891488
236	0x3d828493	0.06372943
237	0xbef13bdb	-0.4711598
238	0x3e99cfc2	0.3004132
239	0x3ecc5055	0.39905038
240	0xbec8e0f1	-0.39234117
241	0x3dc8bc56	0.09801547
242	0x3df9244f	0.121651284
243	0x3d20d738	0.03926775
244	0x3d96c99f	0.07362675
245	0x3e066d95	0.1312774
246	0xbe8315e3	-0.25602636
247	0xbe448f31	-0.19195248
248	0xbe429420	-0.19001818
249	0x3d9a232d	0.075262405
250	0x3e457a9e	0.19285056
251	0x3dfcd77b	0.12345787
252	0x3df65b4f	0.120291345
253	0x3dd95c3e	0.10613297
254	0x3e1d1945	0.15341671
255	0xbe28ecd7	-0.16496597

module.bn1.weight f4 [16]
0	0x3e9b315e	0.30311102
1	0x3ed874ad	0.42276517
2	0x3e7146f6	0.23562226
3	0x3ea0483e	0.31305116
4	0x3f5610c5	0.8361934
5	0x31571f35	3.1304357e-09
6	0x35021cfa	4.847094e-07
7	0x3e9dc6ea	0.30815822
8	0x3eaf3560	0.3422041
9	0x3ee209ba	0.44148046
10	0x3ee2d493	0.44302806
11	0x3ed942c5	0.42433754
12	0x2f95ba1e	2.7235186e-10
13	0x3e93c53f	0.28861424
14	0x3e937d53	0.28806552
15	0x3ebf3905	0.3734819

module.bn1.bias f4 [16]
0	0x3e497147	0.19672118
1	0xbae0edb9	-0.0017160691
2	0x3e2520f8	0.16125858
3	0x3d6904cb	0.056889337
4	0xbece9b29	-0.40352753
5	0xb26999cb	-1.35973535e-08
6	0xb627a7e5	-2.4982667e-06
7	0x3f02082d	0.50793725
8	0x3e9046bc	0.28178966
9	0xbe9b75b2	-0.30363232
10	0x3ef1059e	0.47074598
11	0x3f22cb69	0.6359163
12	0xb1515c46	-3.0465954e-09
13	0x3d85e296	0.065373585
14	0x3e69063a	0.22756281
15	0x3e1e5c1e	0.15464827

module.bn1.running_mean f4 [16]
0	0xbbe11246	-0.0068686334
1	0x3c3c81ec	0.011505585
2	0xbcb15a7d	-0.021649593
3	0xbe83e1b5	-0.25758138
4	0x3edde26b	0.43336806
5	0xb2899476	-1.6016411e-08
6	0xb5db57d6	-1.6342335e-06
7	0xbc2811a6	-0.010258114
8	0xbd91133a	-0.07083745
9	0x3d959bb1	0.073050864
10	0xbd70ecc4	-0.058819547
11	0x3d262376	0.040561162
12	0xb04147cd	-7.0315026e-10
13	0x3e40ad9b	0.18816225
14	0x3d75a5ce	0.059972577
15	0x3c953156	0.018212002

module.bn1.running_var f4 [16]
0	0x3f609ded	0.87740976
1	0x402efc96	2.7341666
2	0x3f98eb69	1.1946841
3	0x3fa5d53d	1.29557
4	0x4042b923	3.0425498
5	0x278658c9	3.7288732e-15
6	0x2eebf95f	1.073086e-10
7	0x3eb7f390	0.3592801
8	0x401ff68b	2.4994228
9	0x3f0f1296	0.55887735
10	0x3f5fa43e	0.8735999
11	0x3f29e8c7	0.66370815
12	0x24d49c4c	9.220512e-17
13	0x3f6e2f92	0.93041337
14	0x402424f8	2.5647564
15	0x4085196e	4.159354

module.residual_layers.0.0.conv1.weight f4 [16, 16, 5, 5]
0	0xbd0924d0	-0.033482373
1	0x3ba0fc5c	0.004912896
2	0x3cfaa137	0.030594451
3	0x3d7ffb05	0.06249525
4	0x3d98e333	0.0746521
5	0xbd7d3abb	-0.061823588
6	0xbd255a78	-0.04036948
7	0x3cbff1cc	0.023430727
8	0x3db4122c	0.087925285
9	0x3e0864ef	0.13319753
10	0xbdc9b368	-0.09848672
11	0xbe009c63	-0.12559657
12	0xbd50d8e4	-0.050988093
13	0x3d283dd1	0.041074578
14	0x3e00d2e8	0.12580454
15	0xbd5411ed	-0.051774908
16	0xbde65380	-0.11246395
17	0xbd97c2c5	-0.07410196
18	0xbcd78354	-0.02630774
19	0x3cae5d28	0.021284655
20	0x3b3ff24f	0.0029288714
21	0xbd0fc69d	-0.03510152
22	0xbce1cf2b	-0.027564606
23	0xbd82b941	-0.06382991
24	0xbdbaf4bd	-0.091287114
25	0xbd717436	-0.058948718
26	0x3b54ecbc	0.0032489737
27	0xbc0ffe94	-0.0087887235
28	0xbcbb6dc4	-0.022879489
29	0xbdccd78b	-0.10002049
30	0xbd42f1d8	-0.04759392
31	0xbc9ba4bc	-0.01899945
32	0xbcd0604a	-0.02543654
33	0xbca193aa	-0.019723732
34	0xbcb767cc	-0.022388361
35	0xbd08bd7c	-0.03338383
36	0xbbe63c78	-0.0070262514
37	0x3d029637	0.031881537
38	0x3cff71b6	0.031182151
39	0x3c31c6b0	0.010850593
40	0xbd6d6d17	-0.057965364
41	0xbd6e99bc	-0.05825208
42	0xbcaa7b06	-0.020810615
43	0x3d694de8	0.056959063
44	0x3d8dbd1a	0.06920834
45	0x3d2b3ad2	0.041804142
46	0xbcbe0ebc	-0.023200385
47	0xbd6cf374	-0.057849362
48	0x3b1be06b	0.0023784887
49	0x3daa4676	0.083142206
50	0xbda442bf	-0.08020543
51	0xbcfcb6a3	-0.030848807
52	0xbc1b1bd7	-0.009467087
53	0x3d1bdf27	0.03805461
54	0x3cd9d9ea	0.026593167
55	0xbd3499ba	-0.044091918
56	0xbd301cea	-0.042996325
57	0xbd233f0d	-0.03985505
58	0x3c70307c	0.014659997
59	0x37f25bfa	2.8891478e-05
60	0x3cf350a5	0.02970154
61	0x3b90918a	0.004411881
62	0xbd186949	-0.037209783
63	0xbc479b90	-0.012183085
64	0xbc8d796e	-0.017269816
65	0x3c705502	0.014668705
66	0x3ca018f5	0.01954315
67	0xbd1dba9c	-0.038508043
68	0xbd084184	-0.033265606
69	0xbcc0c2f8	-0.023530468
70	0xbd8b0317	-0.06787699
71	0xbbd1eaf3	-0.006406182
72	0xbc073ee0	-0.008254737
73	0xbcba9028	-0.022773817
74	0xbc9597e0	-0.018260896
75	0x3d25aa0f	0.040445384
76	0x3d86cd70	0.06582153
77	0x3d044812	0.032295294
78	0xbd0d1351	-0.03444225
79	0xbd2def6e	-0.042464666
80	0xbd148050	-0.03625518
81	0x3d415e5a	0.04720912
82	0x3d023a75	0.03179403
83	0xbd14dfe9	-0.03634635
84	0xbc974fca	-0.018470664
85	0xbd325650	-0.043539345
86	0x3d213947	0.039361265
87	0x3b49ba35	0.0030781154
88	0xbd272449	-0.04080609
89	0xbc7aa43c	-0.015297946
90	0x3d38c677	0.045111146
91	0x3d86c068	0.06579667
92	0x3ca0f560	0.019648254
93	0xbd381a59	-0.044947002
94	0xbd5d312c	-0.054001972
95	0x3d936c48	0.071983874
96	0x3d36a878	0.044594258
97	0x3ce24f33	0.027625656
98	0xbdaa8b47	-0.08327346
99	0xbe0a935e	-0.13532779
100	0xbdbd27e8	-0.09236127
101	0xbb4dd1d7	-0.0031405592
102	0x3c044dbe	0.008075176
103	0x3cbd0ef0	0.023078412
104	0x3dc65c4c	0.09685573
105	0xbe1681d3	-0.14697962
106	0xbd1bd649	-0.038046155
107	0xbd501aa9	-0.050806675
108	0x3c4d597e	0.012533544
109	0x3d886978	0.066607416
110	0xbd69d41b	-0.057087045
111	0x3aed880d	0.0018122211
112	0xbd10bf35	-0.0353386
113	0xbd04d84e	-0.032432847
114	0x3bee3519	0.0072695133
115	0xbc64b738	-0.013959698
116	0xbc0d5736	-0.00862675
117	0xbd36afae	-0.044601135
118	0xbdc77bd3	-0.097404145
119	0xbdadbcae	-0.084832534
120	0x3c6bc46f	0.014390095
121	0x3cb808ba	0.022465099
122	0x3cad61d3	0.02116481
123	0xbd21aae5	-0.03946962
124	0x3b07d82f	0.002072822
125	0xb08658b8	-9.774999e-10
126	0xb08a1651	-1.0047164e-09
127	0xb01c73d0	-5.691705e-10
128	0xb01afa5f	-5.638067e-10
129	0xb0897cc3	-1.0003521e-09
130	0xb098e302	-1.1123975e-09
131	0xb05dfa50	-8.0755047e-10
132	0xafdb548f	-3.989595e-10
133	0xafb662a6	-3.31757e-10
134	0xb0546e44	-7.728185e-10
135	0xb0accf9a	-1.2573651e-09
136	0xb04d7121	-7.473933e-10
137	0xb058c3c6	-7.8858553e-10
138	0xb03fe5f2	-6.9812167e-10
139	0xb03f766a	-6.965367e-10
140	0xb0b0772b	-1.2839555e-09
141	0xb06b7df2	-8.567148e-10
142	0xb05791d7	-7.8423795e-10
143	0xb033e49e	-6.5444705e-10
144	0xb003436d	-4.775334e-10
145	0xb07aa264	-9.118024e-10
146	0xaff5def7	-4.4723666e-10
147	0xb0247912	-5.9834904e-10
148	0xaf2e0b56	-1.5829235e-10
149	0xaf7b3cf2	-2.2849969e-10
150	0xb4a5348c	-3.0771878e-07
151	0xb4a22763	-3.020351e-07
152	0xb43664c3	-1.6986728e-07
153	0xb2b33c72	-2.086583e-08
154	0x337b07e7	5.844768e-08
155	0xb4d1b256	-3.905904e-07
156	0xb5058dd6	-4.975276e-07
157	0xb4f54bd9	-4.5689993e-07
158	0xb4adb033	-3.2351963e-07
159	0xb466aad9	-2.1482573e-07
160	0xb494d38a	-2.7721063e-07
161	0xb5012093	-4.8103647e-07
162	0xb50f5b80	-5.34048e-07
163	0xb4e3553c	-4.234406e-07
164	0xb48ec52c	-2.6593023e-07
165	0xb308ca3e	-3.1848906e-08
166	0xb4826a0b	-2.4291543e-07
167	0xb4b82428	-3.4298978e-07
168	0xb4ab66ff	-3.1926172e-07
169	0xb45a36db	-2.0322788e-07
170	0x33db2f5a	1.02065954e-07
171	0xb337dcfa	-4.2808985e-08
172	0xb3adbdbd	-8.0904535e-08
173	0xb3bbee8d	-8.751258e-08
174	0xb3a33e41	-7.601603e-08
175	0xbd7ad48a	-0.06123785
176	0x3cc573fe	0.024103161
177	0x3e3b00cf	0.18262027
178	0x3e46fb83	0.19431882
179	0x3d7327b5	0.05936404
180	0xbe0e2be1	-0.13883926
181	0xbe4946ad	-0.19655867
182	0xbd241ec2	-0.040068395
183	0x3e04d309	0.12971129
184	0xbdac99d5	-0.08427779
185	0x3ce11c75	0.02747939
186	0xbd7d2582	-0.06180335
187	0xbdd4fb52	-0.10399498
188	0xbcca7f23	-0.024718827
189	0xbde2f822	-0.11082484
190	0x3e060021	0.13085987
191	0x3d9d29a1	0.07673956
192	0xbca97529	-0.02068575
193	0x3cd45f22	0.02592427
194	0xbde0bc46	-0.1097341
195	0x3d41aac6	0.047282003
196	0x3d80d913	0.062914036
197	0xbd1d22d4	-0.038363293
198	0x3d89882b	0.06715425
199	0xbc738dfa	-0.014865393
200	0xbd3fc582	-0.046819218
201	0x3d98d2d9	0.07462091
202	0x3d078dba	0.033094145
203	0xbcf0e837	-0.029407604
204	0xbdaf06f7	-0.0854625
205	0xbc941da0	-0.018080533
206	0x3d23c111	0.039979044
207	0x3d8d8719	0.069105335
208	0x3d2e60c5	0.042572755
209	0xbd034e84	-0.0320573
210	0x3d6df78b	0.058097403
211	0xb9a48a76	-0.0003138368
212	0x3ca7c4a8	0.020479515
213	0x3d43bb10	0.04778582
214	0x3ce6bb75	0.028165558
215	0x3d2273ca	0.039661206
216	0xbd50a874	-0.0509419
217	0xbd952a19	-0.0728342
218	0xbcbc3b1b	-0.022977402
219	0x3d018681	0.031622414
220	0xbd77a5c8	-0.060460836
221	0xbd91c875	-0.07118312
222	0xbd63d847	-0.05562618
223	0xbcff8740	-0.031192422
224	0x3d8d08a9	0.068864174
225	0x3c09259f	0.008370786
226	0x3c7dd282	0.0154920835
227	0xbba3ad67	-0.0049950364
228	0xb925e70c	-0.00015821698
229	0x3cbe1eca	0.02320804
230	0xbd0f2312	-0.034945555
231	0xbb9738ac	-0.00461491
232	0xbb163bc6	-0.0022923811
233	0x3c113d78	0.008864753
234	0x3d22a5c1	0.039708856
235	0xbce21d96	-0.027601998
236	0xbbd44cc0	-0.006478876
237	0x3a6c408b	0.0009012303
238	0x3d308fea	0.043105997
239	0x3d694424	0.05694975
240	0x3c5d63d2	0.013512569
241	0x3cd5299d	0.02602082
242	0x3c33e7e5	0.010980581
243	0x3bc44ac7	0.0059903595
244	0x3c827b7b	0.01592802
245	0xbcd88b50	-0.026433617
246	0xbc4378c3	-0.011930647
247	0xbc71c2e1	-0.014755935
248	0xbbce5d4d	-0.0062977434
249	0x3bec6247	0.007213864
250	0xbd7b2f26	-0.06132426
251	0xbd714c81	-0.05891085
252	0xbc9f3aeb	-0.019437274
253	0x3e000dcb	0.12505262
254	0xbc8e03e1	-0.017335834
255	0xbb169ce1	-0.002298169

module.residual_layers.0.0.bn1.weight f4 [16]
0	0x3ee980c2	0.45606047
1	0x3ebd0be7	0.36923143
2	0x3ebadd37	0.364969
3	0x3eed1cd7	0.46311066
4	0x3f07ad7b	0.52999085
5	0x3f05dbc9	0.5228849
6	0x3f014c9e	0.50507534
7	0x3ee5caf4	0.44881403
8	0x3f387938	0.72059965
9	0x3f0a4f57	0.54027313
10	0x3eb24020	0.34814548
11	0x3ed3cb30	0.41365957
12	0x3ed1eaf3	0.40999565
13	0x3ef04c0e	0.46933025
14	0x3eb990f9	0.36243418
15	0x3f20a4c7	0.6275143

module.residual_layers.0.0.bn1.bias f4 [16]
0	0xbe5e8ff0	-0.21734595
1	0xbd5c84d2	-0.053837605
2	0x3e6773d3	0.22602777
3	0x3de2e5b4	0.11078969
4	0xbecc8cbf	-0.3995113
5	0xbe98df98	-0.29858088
6	0xbe8daa42	-0.2766896
7	0xbdc13a68	-0.09434968
8	0xbf00cfd3	-0.50317115
9	0x3eb4f473	0.3534275
10	0xbd36ff4f	-0.044677075
11	0xbe2d0e28	-0.16899931
12	0xbe2f4fd1	-0.17120291
13	0xbec9ec59	-0.3943813
14	0xbd755b78	-0.059901685
15	0x3e6dccc9	0.2322265

module.residual_layers.0.0.bn1.running_mean f4 [16]
0	0xbf8413c5	-1.0318533
1	0xbf0d347f	-0.5515823
2	0x3f6007e7	0.8751206
3	0xbf2e71e6	-0.68142545
4	0xbe246922	-0.1605573
5	0xbec58a26	-0.3858196
6	0xbe532543	-0.20619683
7	0xbf16bbe8	-0.5888047
8	0x3f57cdee	0.842986
9	0xbe60779f	-0.21920632
10	0x3e99b1a1	0.30018333
11	0xbe37b5d4	-0.17940456
12	0xbe987d95	-0.2978331
13	0xbeef7d45	-0.4677526
14	0xbf198ae2	-0.59977543
15	0xbea6ba94	-0.32564223

module.residual_layers.0.0.bn1.running_var f4 [16]
0	0x3e7e48cc	0.24832457
1	0x3e63bb14	0.22239333
2	0x3eeff64f	0.46867606
3	0x3f0ee9f5	0.5582574
4	0x3e4e5871	0.20150925
5	0x3eb5488e	0.35406917
6	0x3ebec2ca	0.37257987
7	0x3eaafc51	0.33395627
8	0x3eef1db5	0.46702352
9	0x3e8b8fdc	0.27258193
10	0x3efd725e	0.49501318
11	0x3e64cc15	0.22343476
12	0x3e4e598b	0.20151345
13	0x3e448254	0.19190341
14	0x3e1dbadf	0.15403317
15	0x3f21bb0d	0.6317604

module.residual_layers.0.0.conv2.weight f4 [16, 16, 5, 5]
0	0xbdd6aa55	-0.10481707
1	0xbd86e8d1	-0.06587375
2	0xbd423570	-0.047414243
3	0xbc970e46	-0.018439423
4	0xbcf41ac4	-0.02979792
5	0x3cdb42ff	0.026765345
6	0xbbe8fd46	-0.0071102707
7	0xbd640a78	-0.055674046
8	0x3c34fe63	0.011046979
9	0xbc6122fe	-0.013741253
10	0x3d737f82	0.059447773
11	0x3d5ac551	0.05341083
12	0xbc793f87	-0.0152129
13	0xbcfb2873	-0.030658936
14	0xbbcf4838	-0.006325748
15	0x39436fb9	0.00018638269
16	0x3ddbb366	0.10727577
17	0x3d8330f6	0.06405823
18	0xbc1d0807	-0.009584433
19	0x3c83d70c	0.016093753
20	0xbd8abf45	-0.06774763
21	0xbb87833b	-0.004135517
22	0x3ba417ac	0.0050077047
23	0xbc7250e3	-0.014789793
24	0x3ca38538	0.019960985
25	0xbd4bb2d3	-0.049731087
26	0xbc242164	-0.010017727
27	0x3dbcb530	0.09214246
28	0x3e015c4a	0.12632862
29	0x3d4319ee	0.04763215
30	0xbdc8e91c	-0.09810087
31	0xbd890545	-0.06690458
32	0x3d9d22f6	0.07672684
33	0x3e1ad471	0.15120102
34	0x3db0fdad	0.08642135
35	0xbdc10a2c	-0.09425768
36	0xbde53293	-0.11191287
37	0xbd6a9a05	-0.05727579
38	0x3dbbd23a	0.09170957
39	0x3e13dcbf	0.14439677
40	0xbd536763	-0.05161227
41	0xbdf0d62f	-0.11759602
42	0xbe11b435	-0.142289
43	0xbd15d8db	-0.036583763
44	0x3dab436e	0.083624706
45	0x3cab2c23	0.02089507
46	0x3c1a105d	0.009403315
47	0xbd2c880e	-0.04212194
48	0xbd0bef35	-0.034163672
49	0x3d9da293	0.07697024
50	0x3c9e4c1c	0.019323401
51	0xbd0b539a	-0.034015276
52	0xbd5fc6d2	-0.05463297
53	0x3d91fe39	0.07128567
54	0xb983acb2	-0.00025114935
55	0xbcfb64e2	-0.030687753
56	0xbd7e1f43	-0.062041532
57	0xbd8ff769	-0.070296116
58	0xbcd4afd7	-0.025962753
59	0xbc85f86d	-0.01635381
60	0xbca85abd	-0.02055108
61	0xbb032b46	-0.0020014807
62	0xbd466727	-0.048438217
63	0xbdb9fa86	-0.09080987
64	0xbb1f780a	-0.0024333023
65	0x3ceed92d	0.029156292
66	0x3d158df3	0.036512326
67	0xbbdc2234	-0.0067179445
68	0xbd3de2c5	-0.046358842
69	0xbbb783e9	-0.0056004417
70	0x3de9fa36	0.11424677
71	0x3da750f0	0.081697345
72	0x3cf5e0d6	0.030014437
73	0x3d632cd1	0.055462662
74	0xbbd6b8a6	-0.0065527735
75	0xbba3e47d	-0.005001603
76	0x3d9e5dbd	0.07732723
77	0x3d061015	0.03273018
78	0xbca67208	-0.020318046
79	0xbdef21e0	-0.11676383
80	0x3ca55bc3	0.020185357
81	0x3e1641bf	0.14673518
82	0x3e15d0f2	0.14630488
83	0xbd38c14b	-0.045106214
84	0xbe11e87f	-0.14248846
85	0x3d73c187	0.059510734
86	0x3e7259d4	0.23667079
87	0x3e7d63cd	0.24745102
88	0x3d1c5cd4	0.038174465
89	0xbdebabe5	-0.11507396
90	0x3beb1778	0.0071744286
91	0x3dc29c5c	0.095024794
92	0x3dd2af06	0.10287289
93	0x3ceb52d2	0.028726015
94	0xbe033275	-0.12812217
95	0xbc546421	-0.012963326
96	0x3cc7aa7e	0.02437329
97	0x3d9dd1ec	0.07706055
98	0x3c8d5005	0.01725007
99	0xbdc0bf70	-0.09411514
100	0x3c2f348e	0.010693682
101	0x3bc2549c	0.0059304964
102	0x3a39e2cb	0.0007090985
103	0xbcac2d3a	-0.02101766
104	0xbd1d1bfc	-0.038356766
105	0x3c51877a	0.012788648
106	0x3d0d5e76	0.034513913
107	0xbc69ea44	-0.014277045
108	0xbd41360a	-0.047170676
109	0xbd2aab08	-0.041667014
110	0xbcad8755	-0.021182695
111	0x3bf3e48d	0.007443017
112	0xbca032be	-0.019555446
113	0xbcd0496e	-0.025425639
114	0xbd21cc3a	-0.039501406
115	0xbcd50c73	-0.026006913
116	0xbd0389da	-0.032113887
117	0xbd21f41b	-0.039539438
118	0xbcab135a	-0.020883251
119	0xbd4b92c1	-0.049700502
120	0xbd734b78	-0.059398144
121	0xbcf7c746	-0.030246388
122	0xbd12c971	-0.03583664
123	0xbc2c3d9a	-0.010512734
124	0xbbea0928	-0.007142205
125	0xbcaea401	-0.021318438
126	0x3d2c0884	0.04200031
127	0x3cef8265	0.029236982
128	0xb9b06ff8	-0.0003365276
129	0xbd18cedf	-0.037306663
130	0xbd11e32a	-0.03561703
131	0x3d037dec	0.03210251
132	0xbb9bfb4f	-0.004760183
133	0xbd1f6662	-0.038916
134	0xbb3d11d1	-0.002884973
135	0xbdc922fc	-0.09821126
136	0x3d271e28	0.040800244
137	0xbd8a56ce	-0.06754838
138	0xbdbf8e9b	-0.09353372
139	0x3cafd310	0.021462947
140	0xbdb7d466	-0.08976059
141	0xbc55a031	-0.013038681
142	0xbdc6d60f	-0.09708797
143	0xbce88dbf	-0.028387902
144	0x3ca63fd6	0.020294111
145	0xbd11adde	-0.035566203
146	0xbbcb8c8c	-0.006211823
147	0xbd9c31f5	-0.07626716
148	0xbce76e38	-0.028250799
149	0xbc976157	-0.018479032
150	0xbd2eec4f	-0.04270583
151	0xbdfae76a	-0.1225117
152	0xbdd7de37	-0.10540431
153	0xbd4fd9ec	-0.050744936
154	0xbd269a45	-0.040674467
155	0xbc8d18d7	-0.017223759
156	0xbd7340ba	-0.0593879
157	0xbd2b1c62	-0.041775115
158	0x3bc93de0	0.0061414093
159	0x3b76ddbb	0.0037668783
160	0xbc38e3da	-0.011284793
161	0xbc9575da	-0.018244673
162	0xbcf76689	-0.03020026
163	0x3c8250da	0.015907694
164	0xbc389892	-0.011266844
165	0xbc8ec0ce	-0.01742592
166	0xbbc98776	-0.0061501814
167	0x3c89eace	0.016835596
168	0x3b4bf27e	0.0031119878
169	0xbd85168e	-0.064984426
170	0xbca4984d	-0.020092154
171	0x3d1756d7	0.03694805
172	0x3d9588f4	0.07301512
173	0xbc29c2e2	-0.010361405
174	0xbde829ea	-0.113361195
175	0x3d9ac4a6	0.07557039
176	0x3dbb696c	0.09150967
177	0x3da10510	0.07862294
178	0xbce33d99	-0.027739333
179	0x3d1c2c2f	0.038128074
180	0x3d39b517	0.045338716
181	0x3d1ec561	0.038762454
182	0x3bb38389	0.0054783267
183	0xbd80412d	-0.06262431
184	0x3d63d658	0.055624336
185	0x3c9167e9	0.017749744
186	0xbcce0dd6	-0.025153082
187	0xbda3036c	-0.07959637
188	0x3c9f1b6b	0.019422254
189	0x3d5443d5	0.051822502
190	0xbd675598	-0.056478113
191	0xbd25d415	-0.04048546
192	0x3d6ea3bc	0.058261618
193	0x3df48b7a	0.119406655
194	0x3daa8d4c	0.083277315
195	0xbd2d55de	-0.042318217
196	0xbd925bd9	-0.07146425
197	0xbc874cd7	-0.016516132
198	0x3cd317fa	0.025768269
199	0x3ddfb2e6	0.10922794
200	0x3c7cb563	0.015424105
201	0xbd22f40f	-0.039783534
202	0x3d835508	0.06412703
203	0xbdb3523b	-0.087559186
204	0xbc88375b	-0.016627958
205	0xbc4d4100	-0.012527704
206	0xbd2adaf5	-0.04171272
207	0x3dc4a843	0.09602406
208	0xbd763dfd	-0.06011771
209	0xbce81dbb	-0.02833449
210	0x3d04638e	0.032321505
211	0x3c7df2e0	0.0154998
212	0x3e1f91af	0.15582918
213	0x3b18c636	0.0023311502
214	0xbc041984	-0.008062724
215	0x3bf830be	0.00757417
216	0xbd0047e2	-0.031318553
217	0x3dad032a	0.08447869
218	0xbd65b955	-0.05608495
219	0xbcb30b52	-0.021855984
220	0xbd0f4e94	-0.034987047
221	0xbd98c86e	-0.07460104
222	0x3d25b011	0.040451113
223	0xbdeba430	-0.11505926
224	0xbd1f1939	-0.038842414
225	0x3cc08029	0.023498612
226	0xbcadeaad	-0.021230066
227	0x3d33da1b	0.043909173
228	0x3c2e3dbb	0.010634835
229	0x3c44c405	0.012009625
230	0x3d0acdf3	0.033887815
231	0xbce2366e	-0.027613845
232	0x3d804d2c	0.06264719
233	0x3ccc64d4	0.024950422
234	0x3cf7b76c	0.03023883
235	0x3d5e5f91	0.054290358
236	0x3d80d136	0.06289904
237	0x3dcb4224	0.09924725
238	0xbd3f7a4d	-0.046747494
239	0x3d82ef55	0.06393305
240	0xbc608465	-0.01370344
241	0xbd33af7c	-0.043868527
242	0xbbb151eb	-0.0054113767
243	0x3c95d021	0.01828772
244	0x3bd52a8d	0.0065053166
245	0xbd2ac762	-0.041694053
246	0xbc1d2a12	-0.00959255
247	0xbd333322	-0.043749936
248	0xbc1226bb	-0.008920367
249	0xbd851d4b	-0.06499728
250	0xbd052cdc	-0.032513484
251	0x3c2b7fb0	0.010467455
252	0xbbaaf163	-0.005216764
253	0x3c856e41	0.016287925
254	0x3d08edaf	0.033429798
255	0xbd2f3e00	-0.042783737

module.residual_layers.0.0.bn2.weight f4 [16]
0	0x3ee23d2f	0.44187304
1	0x3ecffe16	0.4062354
2	0x3f03ff5c	0.5156152
3	0x3eb9c69a	0.36284333
4	0x3ed8df41	0.4235783
5	0x3f0fcb49	0.56169564
6	0x3f0b9c1c	0.5453508
7	0x3f23b6a5	0.6395057
8	0x3edc727c	0.43056095
9	0x3ed991c4	0.42494023
10	0x3f275083	0.65357226
11	0x3f20a7fa	0.6275631
12	0x3ee31a94	0.44356215
13	0x3f184cf5	0.5949243
14	0x3e977028	0.29577756
15	0x3ebd0934	0.36921084

module.residual_layers.0.0.bn2.bias f4 [16]
0	0xbeb7bd20	-0.35886478
1	0xbdff8c46	-0.12477927
2	0xbe3ecdf1	-0.18633248
3	0x3d9fbb69	0.077994175
4	0xbd08146e	-0.03322261
5	0x3b54b480	0.003245622
6	0x3d87d33e	0.06632088
7	0xbcd506b1	-0.026004167
8	0xbd246174	-0.040132
9	0x3e6d98b2	0.2320278
10	0xbe24cf22	-0.1609464
11	0xbe84dd5d	-0.25950137
12	0x3e1b1f69	0.15148701
13	0x3d9a3f5d	0.07531617
14	0x3e847767	0.25872347
15	0xbc4bc6f9	-0.0124375755

module.residual_layers.0.0.bn2.running_mean f4 [16]
0	0x3e95393c	0.2914523
1	0xbd2bfe83	-0.04199077
2	0xbe81f5b7	-0.25382778
3	0xbe0987c1	-0.13430692
4	0x3df5f87a	0.12010284
5	0xbed974f3	-0.42472038
6	0xbf357945	-0.7088817
7	0xbe92d221	-0.2867594
8	0xbf12ef42	-0.5739633
9	0xbf0159af	-0.5052747
10	0xbf14f3ff	-0.5818481
11	0xbf49c0ff	-0.78810114
12	0xbe975b05	-0.2956163
13	0xbe904654	-0.28178656
14	0x3dbbba97	0.091664486
15	0xbdb07c36	-0.08617441

module.residual_layers.0.0.bn2.running_var f4 [16]
0	0x3e3a85be	0.18215081
1	0x3e8b86b9	0.27251223
2	0x3e8e4311	0.27785543
3	0x3e5b3e75	0.21410544
4	0x3e813eec	0.25243318
5	0x3e3b2aaf	0.18278001
6	0x3eadb894	0.33929884
7	0x3e8db268	0.27675176
8	0x3ebda3a0	0.37038898
9	0x3e95ff92	0.29296547
10	0x3ecd7849	0.40130833
11	0x3eba4fc8	0.36388993
12	0x3e518395	0.20460351
13	0x3ebbc81b	0.36676106
14	0x3e9527cc	0.29131925
15	0x3ea231c3	0.3167859

module.residual_layers.0.1.conv1.weight f4 [16, 16, 5, 5]
0	0xbd3bd9bc	-0.045861945
1	0xbc783444	-0.01514918
2	0xbb6d0fe3	-0.00361728
3	0x3b537b10	0.0032269396
4	0x3d7e4db7	0.062085833
5	0xbdb2e82b	-0.08735689
6	0xbd2cee8e	-0.04221969
7	0xbd13e84f	-0.03611022
8	0x3b0e9d41	0.002176121
9	0x3d63bbe5	0.055599112
10	0xbe090eea	-0.13384596
11	0xbdb5239c	-0.088446826
12	0xbd099967	-0.03359356
13	0x3c88d964	0.016705222
14	0x3d57d9ce	0.05269795
15	0xbe0673a5	-0.13130052
16	0xbdc6fbb2	-0.09715976
17	0xbc1ceff0	-0.00957869
18	0x3d4956b0	0.049154937
19	0x3d3893d9	0.045062874
20	0xbe0325aa	-0.12807336
21	0xbdc80b5a	-0.0976779
22	0xbb3766b1	-0.0027984793
23	0x3cf7b9dc	0.030239992
24	0x3bbac0d4	0.0056992564
25	0xbba26029	-0.004955311
26	0x3d6320c9	0.05545119
27	0x3dd59eb0	0.10430658
28	0x3aa16145	0.0012312314
29	0xbd3e9af8	-0.04653451
30	0xbd844086	-0.06457619
31	0xbd220729	-0.03955761
32	0x3d7ce639	0.061742995
33	0xbcaab30b	-0.020837327
34	0xbc810105	-0.015747556
35	0xbccce7bb	-0.025012841
36	0xbddd5f43	-0.10809185
37	0xbca35ecb	-0.019942662
38	0xbca10aad	-0.01965841
39	0xbd760b1e	-0.060069196
40	0x3d0ecb9d	0.03486215
41	0xbd825c26	-0.06365232
42	0x3cbc4780	0.022983313
43	0x3d69d45c	0.057087287
44	0x3d0c8136	0.034302913
45	0xbc9b948f	-0.018991737
46	0xbc88ea21	-0.016713204
47	0x3d420f61	0.047377948
48	0xbc4a085d	-0.0123310955
49	0xbcd2eb0e	-0.025746848
50	0x3b730e70	0.0037087463
51	0xbc599748	-0.013280697
52	0xbcd6114d	-0.026131297
53	0xbd898fd9	-0.0671689
54	0xbd9ac93b	-0.07557913
55	0x3dbb74e9	0.09153158
56	0x3d8263c6	0.063666865
57	0xbd3abaac	-0.04558818
58	0xbd22e9b0	-0.039773643
59	0xbd8f5949	-0.06999452
60	0xbb14e909	-0.0022721908
61	0x3b57609d	0.0032863982
62	0xbcebb800	-0.028774261
63	0xbd9584fb	-0.07300755
64	0xbcc144bb	-0.023592344
65	0x3cc01d15	0.023451367
66	0xbc30ada3	-0.010783586
67	0x3ccb04c9	0.024782555
68	0xbd81cc96	-0.0633785
69	0xbc81a95b	-0.015827825
70	0xbc078faa	-0.008273998
71	0xbc83e4ae	-0.016100254
72	0x3d1afe42	0.037840135
73	0x3c35bc89	0.011092314
74	0xbd437525	-0.04771914
75	0xbd4e068d	-0.050299216
76	0xbc8c62d3	-0.017136967
77	0x3d82ccd6	0.063867256
78	0x3d46baf9	0.048518155
79	0xbd473816	-0.048637472
80	0xbbcce61e	-0.006253018
81	0x3bad79a3	0.0052940412
82	0x3db3ae70	0.08773506
83	0x3d7fce0b	0.062452357
84	0xbd130449	-0.03589276
85	0xbbeb312e	-0.0071774935
86	0x3caa2670	0.020770282
87	0x3b0211cb	0.0019847031
88	0x3d4d9d44	0.05019881
89	0xbc291d94	-0.010321993
90	0xbcbf01cb	-0.023316285
91	0xbd02ed5e	-0.031964652
92	0xbcccdf2a	-0.025008757
93	0x3cfdce71	0.030982228
94	0xbd509558	-0.050923675
95	0xbc78af39	-0.015178495
96	0xbc85cf63	-0.016334241
97	0xbd709432	-0.05873508
98	0xbcdcbd47	-0.026945723
99	0xbd71f444	-0.05907084
100	0xbda04d17	-0.07827204
101	0xbb90d065	-0.004419374
102	0x3cd0ba3a	0.025479425
103	0x3cab4426	0.02090652
104	0x3be27993	0.0069114654
105	0x3cadaf20	0.02120167
106	0xbd2bfd18	-0.041989416
107	0x3c846553	0.016161596
108	0x3ce4897d	0.02789759
109	0x3cb19e91	0.021682056
110	0x3d2af4f4	0.04173751
111	0xbd84361d	-0.06455634
112	0xbd6ac50b	-0.05731682
113	0x3d160625	0.036626954
114	0x3c6ed5cf	0.014577343
115	0xbd1ccff5	-0.03828426
116	0xbd0340a8	-0.032044083
117	0xbd47add5	-0.048749764
118	0xbc8f9433	-0.017526722
119	0xbdde7889	-0.10862834
120	0xbc7fb528	-0.015607156
121	0x3d57c757	0.05268034
122	0xbb5a3130	-0.0033293478
123	0xbdc5deb6	-0.09661619
124	0xbe192c6c	-0.14958352
125	0xbd4a1a74	-0.049341634
126	0xbe12dfdc	-0.14343208
127	0xbd357f18	-0.04431066
128	0xbc36e2d0	-0.011162475
129	0xbd32e0fc	-0.043671593
130	0xbcf997e5	-0.030467937
131	0xbdf4f2f3	-0.119604014
132	0xbbf0f2e6	-0.0073531745
133	0x3c5d45e2	0.013505431
134	0x3d5a8a97	0.053354826
135	0x3c8d6ddc	0.0172643
136	0x3a92d2ee	0.0011201778
137	0xbb8cce1e	-0.004297032
138	0x3d4ef53b	0.05052684
139	0x3d254fe1	0.04035938
140	0x3c01b08b	0.007915626
141	0x3b49c6e9	0.0030788726
142	0x3c4c176b	0.012456755
143	0xbbfd9a27	-0.0077393237
144	0xbd0ca30b	-0.034335177
145	0xbd36d515	-0.044636805
146	0xbd2ce79c	-0.042213067
147	0xbc366dbc	-0.011134561
148	0xbd81e6d3	-0.06342854
149	0xbcef0f51	-0.029182108
150	0xbe0296d8	-0.12752855
151	0xbcc8a4a4	-0.02449257
152	0x3d562339	0.052279685
153	0x3d364f60	0.04450929
154	0x3e2115b4	0.15730935
155	0xbdb72887	-0.08943277
156	0xbcf28e4b	-0.029608866
157	0x3cd9bb2c	0.026578508
158	0x3d73c086	0.059509777
159	0x3e132a12	0.14371517
160	0xbde26bae	-0.110556945
161	0xbde2a8e6	-0.11067371
162	0xbc600ff9	-0.013675683
163	0x3d80a972	0.06282319
164	0x3e144f56	0.1448339
165	0xbdbcb31d	-0.09213851
166	0xbdd67ee0	-0.10473418
167	0xbd2931c1	-0.041307215
168	0x3d9ce297	0.07660406
169	0x3e039f3c	0.12853712
170	0xbda6ec82	-0.08150579
171	0xbde93527	-0.11387091
172	0xbd06d89c	-0.03292142
173	0x3d908315	0.07056252
174	0x3dc366c4	0.09541085
175	0xbd73c7f4	-0.059516862
176	0xbdf534f0	-0.11972988
177	0x3c074396	0.00825586
178	0x3cae443b	0.02127277
179	0x3d9a29a0	0.075274706
180	0xbb9d6057	-0.0048027444
181	0xbc175868	-0.009237386
182	0xbd83a4a8	-0.0642789
183	0x3da6a9c8	0.08137852
184	0x3d4812f3	0.048846196
185	0xbc4fbd3a	-0.0126793925
186	0xbd3bc39c	-0.045840845
187	0xbc9050c0	-0.01761663
188	0x3bcbe4da	0.0062223496
189	0x3c086499	0.008324766
190	0x3d4dc2a6	0.05023446
191	0x3dd4e3f9	0.10395045
192	0x3c12fd83	0.008971575
193	0x3b670299	0.003524935
194	0xbd2358d6	-0.039879642
195	0xb9d7dce9	-0.00041172586
196	0x3c4eae6c	0.012614828
197	0x3db2ae33	0.08724632
198	0xbde408aa	-0.11134465
199	0xbcd22d8d	-0.025656486
200	0x3cca0fa4	0.024665661
201	0x3d2f3c63	0.0427822
202	0x3d6c4e2f	0.05769175
203	0x3c179b63	0.009253356
204	0x3d884329	0.06653435
205	0x3a59b967	0.000830552
206	0x3d7cc158	0.061707824
207	0x3cfc14c2	0.030771617
208	0x3cc3726e	0.023858275
209	0x3d61d9dc	0.055139408
210	0xbbe5f700	-0.00701797
211	0x3d918662	0.071057096
212	0x3d800f45	0.062529124
213	0x3da7e65c	0.081982344
214	0x3d95dbeb	0.07317337
215	0xbcf92939	-0.030415164
216	0xbd75eaeb	-0.06003849
217	0x3c153e0c	0.009109031
218	0x3d8b58a6	0.06804018
219	0x3d8391b0	0.06424272
220	0xbd05ffe4	-0.03271474
221	0xbd897b18	-0.067129314
222	0xbcee9d96	-0.029127877
223	0x3d456a57	0.048197117
224	0x3d1ae259	0.03781352
225	0x3d15148b	0.036396544
226	0xbdca1c44	-0.098686725
227	0xbe1a8834	-0.1509102
228	0xbd186485	-0.037205238
229	0x3d0e8d08	0.034802467
230	0x3dc5daa7	0.09660845
231	0xbc82cabc	-0.015965812
232	0xbdd9c3ab	-0.10633024
233	0xbd6a867d	-0.057257164
234	0xbd19fdc8	-0.03759554
235	0x3e170207	0.14746867
236	0x3d6aa22b	0.05728356
237	0xbd48f828	-0.049064785
238	0xbd0b9794	-0.034080103
239	0xbc910867	-0.017704202
240	0x3d2c2919	0.04203138
241	0xbc1c0ce4	-0.009524558
242	0xbd3bc41e	-0.04584133
243	0xbc9f2f0a	-0.01943161
244	0xbc03ca1f	-0.008043795
245	0x3d6f6d04	0.058453575
246	0x3d878b2b	0.06618341
247	0xbc3a55e9	-0.011373022
248	0xbc8a5593	-0.016886508
249	0xbcda0532	-0.026613805
250	0xbdfd9e17	-0.12383669
251	0x3dc6e14c	0.09710941
252	0x3d115c65	0.035488505
253	0x3d7fd068	0.06245461
254	0x3d991d80	0.0747633
255	0xbe90c821	-0.28277686

module.residual_layers.0.1.bn1.weight f4 [16]
0	0x3f008078	0.5019603
1	0x3f047667	0.5174317
2	0x3f0a60eb	0.54054135
3	0x3ee027cc	0.43780363
4	0x3f01f2d9	0.5076118
5	0x3f048cb1	0.5177718
6	0x3ef02051	0.46899655
7	0x3f05331f	0.5203113
8	0x3eeb92e5	0.4601051
9	0x3f07a4ff	0.5298614
10	0x3f0920dc	0.53565764
11	0x3f0bf3c9	0.5466886
12	0x3f0d726d	0.55252725
13	0x3f01c353	0.50688666
14	0x3f00d8c1	0.5033074
15	0x3ecf7ae8	0.40523458

module.residual_layers.0.1.bn1.bias f4 [16]
0	0xbebc2db6	-0.36753625
1	0xbe153c18	-0.14573705
2	0xbe8e2c32	-0.27768093
3	0xbeb15dab	-0.34641775
4	0xbe06d62b	-0.13167636
5	0xbe65af9d	-0.22430272
6	0xbde7dc64	-0.11321333
7	0xbe57903a	-0.21051112
8	0xbe8669fe	-0.2625274
9	0xbe147f82	-0.14501765
10	0xbecf4cb6	-0.40488213
11	0xbec2d54f	-0.38053367
12	0xbdc487e8	-0.095962346
13	0xbdcde35a	-0.100531295
14	0xbea7308b	-0.32654223
15	0xbe8dbb86	-0.27682132

module.residual_layers.0.1.bn1.running_mean f4 [16]
0	0xbf28086e	-0.6563786
1	0xbead515c	-0.33851135
2	0xbf310860	-0.69153404
3	0xbf026dc0	-0.50948715
4	0xbf2d8acc	-0.6778991
5	0xbeaa550a	-0.33268005
6	0x3e3699c5	0.17832096
7	0xbf50f086	-0.8161701
8	0xbd984537	-0.07435077
9	0xbef5f2c0	-0.48036766
10	0xbfc25e90	-1.5185108
11	0xbf828866	-1.0197875
12	0x3e87e748	0.2654364
13	0xbf20cf0d	-0.62815934
14	0x3efe9279	0.49721125
15	0x3eb1adbd	0.34702864

module.residual_layers.0.1.bn1.running_var f4 [16]
0	0x3f2c1af9	0.67228657
1	0x3f8a19eb	1.078916
2	0x3f8c824b	1.0977262
3	0x3ebc8d7b	0.3682669
4	0x3f56b838	0.83874846
5	0x3f8d453c	1.1036754
6	0x3fe1935e	1.7623098
7	0x3f2aa2d6	0.6665472
8	0x3f1cd817	0.61267227
9	0x3fee0f55	1.8598429
10	0x3f1c21dc	0.60989165
11	0x3f14542f	0.57940954
12	0x40094ceb	2.1453197
13	0x3fc43fcb	1.5331968
14	0x3f06ea64	0.527014
15	0x3efffe12	0.49998528

module.residual_layers.0.1.conv2.weight f4 [16, 16, 5, 5]
0	0x3d705646	0.058676027
1	0xbc6de2f2	-0.01451944
2	0xbd41f19f	-0.04734957
3	0xbd8a8929	-0.067644425
4	0xbe042a9a	-0.12906876
5	0x3e0036e1	0.12520935
6	0x3c40a6dd	0.011758533
7	0xbdb07c89	-0.08617503
8	0xbdce8d8f	-0.10085594
9	0xbe31b2bf	-0.17353342
10	0x3dd11b4f	0.10210287
11	0x3a04a3f9	0.0005059834
12	0xbdc9edfc	-0.09859845
13	0xbe028209	-0.12744917
14	0xbe3a9317	-0.18220173
15	0x3d88280a	0.06648262
16	0xbc882957	-0.016621275
17	0xbdb8c6d8	-0.090223014
18	0xbdfbaae9	-0.12288458
19	0xbe3dfa57	-0.18552528
20	0xbce0a5bb	-0.027422776
21	0xbd02cee9	-0.031935606
22	0xbd92f7f9	-0.07176203
23	0xbdc3d951	-0.09562934
24	0xbde52b54	-0.11189905
25	0x3d2f759a	0.042836763
26	0xbd6d1fcd	-0.057891656
27	0x3b7bfdaf	0.0038450768
28	0x3d1789b9	0.036996577
29	0xbc3032c7	-0.010754294
30	0x3d9e7b0e	0.077383146
31	0xbd3061ee	-0.043062143
32	0xbdb515ca	-0.088420466
33	0xbd2b8965	-0.041879077
34	0x3d2562b5	0.040377337
35	0x3e1d924a	0.15387836
36	0x3cf0981b	0.029369405
37	0xbd917dd7	-0.0710408
38	0xbc9031b5	-0.017601827
39	0x3d6b6edc	0.05747877
40	0x3e21dbea	0.15806547
41	0x3dc538fb	0.09630009
42	0xbb83f0a3	-0.004026489
43	0x3ce596cc	0.028026007
44	0x3c722a85	0.014780645
45	0x3d896548	0.06708771
46	0x3d894a24	0.06703594
47	0xbc539890	-0.012914792
48	0xbca44265	-0.02005119
49	0xbcf8a213	-0.03035072
50	0x3d08970a	0.033347167
51	0x3a89fac6	0.0010527007
52	0x3d73047d	0.059330452
53	0x3d8510b1	0.06497324
54	0x3d1daaf9	0.03849313
55	0x3d9b4441	0.07581378
56	0x3c18966e	0.009313209
57	0xbc923e42	-0.017851952
58	0x3d0d8df4	0.034559205
59	0x3d8a6337	0.06757205
60	0x3d9e5787	0.07731538
61	0xbba0ad76	-0.0049034907
62	0xbd822284	-0.063542396
63	0xbd537549	-0.051625524
64	0xbcdd0cdc	-0.02698367
65	0x3c51792a	0.012785235
66	0x3c7cf36b	0.015438895
67	0xbc9b9954	-0.018994011
68	0xbd834dc0	-0.06411314
69	0xbbed130c	-0.0072349366
70	0x3cb69271	0.022286626
71	0xb909cf5a	-0.00013142583
72	0x3cb062be	0.021531459
73	0xbcec1920	-0.028820574
74	0xbd804e23	-0.062649034
75	0x3c2e7b3a	0.010649497
76	0x3c07e07b	0.008293266
77	0x3da2636d	0.0792912
78	0xbae0cb15	-0.0017150367
79	0xbd1455d9	-0.036214683
80	0x3d1ce602	0.03830529
81	0x3d8d32d5	0.06894461
82	0x3d9ac102	0.075563446
83	0xbcb6c59e	-0.022311028
84	0xbd2c2352	-0.04202587
85	0x3d38b2a1	0.04509223
86	0x3d9e63b2	0.07733859
87	0x3d640634	0.05566998
88	0xbc9d67c1	-0.019214513
89	0xbcc8f707	-0.024531854
90	0x3cd52741	0.026019694
91	0x3d1d430d	0.038394023
92	0x3d186f98	0.0372158
93	0xbc173243	-0.009228292
94	0xbb62ec0e	-0.0034625563
95	0xbcd7c477	-0.026338799
96	0xbcf54982	-0.029942278
97	0x3c8383cb	0.016054055
98	0x3cb7f31a	0.022454787
99	0x3baa6280	0.0051997304
100	0xbcbd0b04	-0.023076542
101	0x3c228cd2	0.0099212695
102	0xbce699d5	-0.028149525
103	0xbd067bd3	-0.03283293
104	0x3da90151	0.08252204
105	0x3c891b43	0.016736632
106	0x3db20bdf	0.086936705
107	0xbca33c27	-0.019926144
108	0xbcb5214b	-0.022110602
109	0x3c0bcf49	0.008533307
110	0x3d606ea9	0.054793034
111	0x3d5883b7	0.052859988
112	0x3da24a04	0.079242736
113	0xbbd18892	-0.0063944543
114	0x3d9b9b3e	0.075979695
115	0xbd85e86a	-0.0653847
116	0x3bce7e8e	0.0063017076
117	0x3c29090b	0.010317097
118	0x3cf22233	0.029557323
119	0x3d8a0a7d	0.06740282
120	0xbd92c583	-0.071665786
121	0xbd66ec36	-0.056377612
122	0xbd8b45d3	-0.06800427
123	0xbb44a825	-0.0030007449
124	0x3d9b18f1	0.075731166
125	0x3e017b92	0.12644795
126	0x3cdfd562	0.027323429
127	0x3c7ae08a	0.015312323
128	0x3aec92e5	0.0018049149
129	0xbbb62122	-0.005558149
130	0x3dc1b6b7	0.09458678
131	0x3c9d4b6d	0.019201005
132	0xbc76071e	-0.015016345
133	0xbd05b516	-0.0326434
134	0x3caa4d47	0.020788802
135	0x3c5f8135	0.013641645
136	0xb95b21f4	-0.00020898116
137	0xbd589659	-0.052877758
138	0xbdbf3a99	-0.093373485
139	0xbca2e509	-0.019884603
140	0x3b5e34e4	0.0033906037
141	0xbc95578e	-0.018230226
142	0x3c6cac14	0.0144453235
143	0xbc920c9f	-0.017828284
144	0xbd4aa6d9	-0.049475525
145	0x3c802011	0.01564029
146	0xbb4e2ae4	-0.003145867
147	0xba53459c	-0.0008059384
148	0x3b9c8d80	0.0047776103
149	0xbd02f0ad	-0.031967808
150	0xbd1622b0	-0.036654174
151	0x3cb61c78	0.022230372
152	0x3cc89822	0.024486605
153	0x3d6e47ec	0.05817406
154	0x3da4e4d5	0.08051459
155	0xbd171045	-0.03688075
156	0xbc37b2c6	-0.0112120565
157	0xbb947d63	-0.004531549
158	0x3c0a966d	0.008458716
159	0xbb37e53b	-0.0028060216
160	0xbd906697	-0.070508175
161	0xbd2d11d6	-0.042253338
162	0x3c068e99	0.008212709
163	0x3c323eef	0.010879262
164	0xbc47285d	-0.012155619
165	0x3bf89283	0.007585825
166	0x3ca57a5b	0.020199945
167	0x3d716679	0.058935616
168	0x3d7183fc	0.05896376
169	0x3ceb1921	0.028698506
170	0x3cee0c93	0.02905873
171	0x3dd132be	0.102147564
172	0x3e27c312	0.16383007
173	0x3dd43132	0.10360946
174	0x3cbbe3e4	0.022935815
175	0xbd489539	-0.048970435
176	0xbd94703a	-0.07247968
177	0x3a7f519d	0.00097396394
178	0x3d6bfd8f	0.05761486
179	0x3d7b900b	0.061416667
180	0xbd58a7ca	-0.05289439
181	0xbdaa451d	-0.083139636
182	0x3cdf0212	0.027222667
183	0x3d8e1d0d	0.06939135
184	0x3beaa066	0.0071602343
185	0xbaec54a5	-0.0018030597
186	0xbcc635ec	-0.024195634
187	0x3d95cc02	0.07314302
188	0x3d7ff90e	0.062493376
189	0xbcb2b788	-0.02181603
190	0x3d59d70a	0.053183593
191	0x3d532f28	0.051558644
192	0x3d9cc040	0.07653856
193	0x3d413286	0.047167324
194	0xbcd509da	-0.026005674
195	0x3d36de9e	0.044645898
196	0x3c1f6648	0.009728976
197	0x3bf593b1	0.007494413
198	0x3c44ebba	0.012019092
199	0x3bfcac98	0.0077110045
200	0xbd3e962d	-0.046529938
201	0xbcdeb3c7	-0.027185334
202	0xbae23f14	-0.001726123
203	0xbd4754f1	-0.04866499
204	0xbdfa0eb1	-0.122098334
205	0xbcd2446f	-0.025667397
206	0xbcdb7690	-0.026789933
207	0x3d39ed7f	0.04539251
208	0x3c88de20	0.01670748
209	0xbd5a81fc	-0.05334662
210	0xbd23f880	-0.04003191
211	0xbd2e13b6	-0.042499267
212	0x3c553f46	0.013015574
213	0x3dbea94f	0.09309637
214	0xbb878b94	-0.004136512
215	0x3b058712	0.0020374698
216	0xbd250175	-0.040284593
217	0x3bc2b0db	0.005941493
218	0x3dd74b5b	0.1051242
219	0x3dea7e1f	0.11449837
220	0x3cdca817	0.02693562
221	0xbcc575db	-0.02410405
222	0xbc552874	-0.013010133
223	0x3d0feff6	0.035140954
224	0x3d9d83f2	0.07691182
225	0x3d95fe1a	0.07323857
226	0x3d02895f	0.03186929
227	0xbdbbd73b	-0.09171911
228	0xbde59754	-0.11210504
229	0x3d288441	0.041141752
230	0x3d3edc63	0.046596896
231	0x3c0370ed	0.008022529
232	0xbddc9867	-0.10771256
233	0xbe032287	-0.1280614
234	0xbcb28dff	-0.021796225
235	0x3cef9a40	0.029248357
236	0x3d2e617e	0.042573445
237	0xbd6ea469	-0.058262262
238	0xbd86a229	-0.06573898
239	0x3d0ab42e	0.03386324
240	0x3bc93729	0.006140609
241	0x3d2af20d	0.041734744
242	0xbcccf2fc	-0.025018208
243	0xbd665080	-0.056229115
244	0x3d372b97	0.044719305
245	0xbd119636	-0.035543643
246	0x3ad10a28	0.0015948461
247	0xbd050343	-0.032473814
248	0xbe092c68	-0.13395846
249	0xbd67862e	-0.056524448
250	0x3ddb2447	0.10700279
251	0x3cc4bc44	0.024015553
252	0xbd0ba7d5	-0.034095604
253	0x3bfc1b44	0.00769368
254	0xbcbc59f7	-0.022992117
255	0x3dbf787e	0.09349154

module.residual_layers.0.1.bn2.weight f4 [16]
0	0x3e828811	0.25494435
1	0x3ebb9938	0.36640334
2	0x3f3179e8	0.6932664
3	0x3e90c945	0.28278556
4	0x3e947ae9	0.29000023
5	0x3f2b7499	0.6697479
6	0x3f5f30d7	0.871839
7	0x3f2b4fd3	0.6691868
8	0x3ea31f15	0.3185965
9	0x3ef7f9ad	0.48432675
10	0x3ee739ec	0.45161378
11	0x3f4bd1c8	0.79616976
12	0x3ef7ec6a	0.48422557
13	0x3ebfc51b	0.37455067
14	0x3d99a68f	0.07502472
15	0x3eaafacd	0.3339447

module.residual_layers.0.1.bn2.bias f4 [16]
0	0x3d135bdd	0.03597628
1	0x3d90c1c7	0.0706821
2	0xbdef9f7c	-0.11700341
3	0x3e9ae5fe	0.30253595
4	0x3e2e5567	0.17024766
5	0xbdf164ce	-0.11786805
6	0xbe581289	-0.2110082
7	0xbefd25d8	-0.49442935
8	0x3e054857	0.13015877
9	0x3d8b2324	0.06793812
10	0xbee61665	-0.4493896
11	0xbe373ea0	-0.17894983
12	0x3e0c7470	0.13716292
13	0xbe803150	-0.25037622
14	0x3cd38121	0.02581841
15	0xbde145c6	-0.10999636

module.residual_layers.0.1.bn2.running_mean f4 [16]
0	0x3e109895	0.14120705
1	0x3e21496b	0.15750663
2	0xbf456537	-0.77107567
3	0x3e19e763	0.15029673
4	0x3efc7475	0.493076
5	0xbe6314e4	-0.22175938
6	0xbf2d8c65	-0.6779235
7	0xbd82bc69	-0.06383593
8	0xbe059274	-0.13044149
9	0xbe2fcbd4	-0.17167598
10	0xbc7fb337	-0.015606693
11	0xbeeca701	-0.46221164
12	0xbec28b4c	-0.379969
13	0x3cc6fdc2	0.024290923
14	0xbd5c5242	-0.053789385
15	0x3e649a2c	0.22324437

module.residual_layers.0.1.bn2.running_var f4 [16]
0	0x3e008759	0.12551631
1	0x3e328787	0.17434512
2	0x3ea2fb27	0.3183224
3	0x3e0292ba	0.12751284
4	0x3e1ae2ad	0.15125532
5	0x3e5f134b	0.21784703
6	0x3ec722a7	0.38893625
7	0x3e1ade9b	0.1512398
8	0x3e1634d8	0.14668596
9	0x3e785eee	0.24254963
10	0x3dfd1c9a	0.12358971
11	0x3ef4c9d7	0.47810242
12	0x3e913f34	0.28368533
13	0x3df20847	0.11817985
14	0x3d0b621b	0.034029108
15	0x3e22303e	0.15838715

module.residual_layers.1.0.conv1.weight f4 [32, 16, 5, 5]
0	0x3d194f34	0.03742905
1	0x3d08d50d	0.033406306
2	0x3aeb5812	0.0017955324
3	0xbd700971	-0.058602754
4	0xbdc099bf	-0.09404325
5	0xbc479619	-0.012181782
6	0xbbc5171b	-0.0060147173
7	0xbd46d6bd	-0.048544634
8	0xbda8c82a	-0.08241303
9	0xbde43344	-0.11142591
10	0xbb797df7	-0.0038069466
11	0xbcc7c7da	-0.024387289
12	0xbcf8d81f	-0.030376492
13	0xbd1c1bd5	-0.03811248
14	0xbc06f738	-0.0082376525
15	0xbcc7e9e8	-0.024403527
16	0xbd6b5401	-0.05745316
17	0xbd62f5e8	-0.055410296
18	0x3c92921b	0.017891934
19	0x3da30f48	0.07961899
20	0xbcdf82b8	-0.027284011
21	0xbd2a03dc	-0.041507587
22	0xbbf79145	-0.0075551593
23	0x3d3935cc	0.04521732
24	0x3d8659ac	0.06560072
25	0xbc442626	-0.011971986
26	0x3dd03e08	0.101680815
27	0x3e1d9574	0.15389043
28	0x3df3fc49	0.11913354
29	0xbb4affbc	-0.0030975183
30	0x3d8e599c	0.069506854
31	0x3e197f33	0.14989929
32	0x3e209be7	0.15684472
33	0x3e04a21c	0.12952465
34	0xbc2ec8d7	-0.010668001
35	0x3d5f55db	0.054525238
36	0x3db3fd78	0.0878858
37	0x3d1c2979	0.03812549
38	0x3c90460a	0.017611522
39	0x3c855fd3	0.016281044
40	0x3a73dbc8	0.00093024643
41	0xbc690cb7	-0.014224223
42	0xbd8473f4	-0.06467429
43	0xbbfbc707	-0.007683638
44	0x3d0674ce	0.032826237
45	0xbc3353e3	-0.010945293
46	0xbd58a98f	-0.05289608
47	0xbd5db915	-0.054131586
48	0x3c31b2c2	0.010845842
49	0x3cc2440c	0.023714088
50	0x3ce54e2d	0.027991379
51	0x3d16db4c	0.03683023
52	0x3d553fcf	0.052062806
53	0x3d2ec687	0.0426698
54	0x3d1f5a36	0.03890439
55	0xbb8b4fda	-0.0042514624
56	0x3c64549c	0.013936188
57	0x3c58a7c0	0.0132235885
58	0xb9d0eab7	-0.00039847728
59	0xbc9caf27	-0.019126488
60	0xbd94747d	-0.07248781
61	0xbdd66aa7	-0.10469561
62	0xbd8b784b	-0.068100534
63	0xbc35e525	-0.011101996
64	0x3cd8e91b	0.02647834
65	0xbd97a39d	-0.07404254
66	0xbd78361f	-0.06059849
67	0xbd6cf512	-0.057850905
68	0xbafc045e	-0.0019227376
69	0x3d2f89ef	0.042856153
70	0xbd259161	-0.040421847
71	0xbcef21a1	-0.02919084
72	0x3afb2f64	0.0019163904
73	0x3d737114	0.05943401
74	0x3d2bca76	0.04194113
75	0x3e089f14	0.13341933
76	0x3d9b93da	0.0759656
77	0x3c89f642	0.016841058
78	0x3bfd5304	0.0077308435
79	0x3c04da1e	0.008108644
80	0x3e06d111	0.1316569
81	0x3d8860e9	0.06659109
82	0x3c26d9c5	0.010183756
83	0xbd0fa0f8	-0.03506562
84	0xbca92f33	-0.02065239
85	0x3da9105b	0.08255073
86	0x3bec243b	0.0072064674
87	0xbc98bf16	-0.018645804
88	0xbca6da4e	-0.020367768
89	0xbc69089d	-0.014223245
90	0x3d5ab78a	0.053397693
91	0x3b526c21	0.0032107907
92	0x3c771c64	0.015082452
93	0x3b366be6	0.0027835309
94	0x3c16bff5	0.00920104
95	0x3dd102f5	0.10205642
96	0x3d8e87c3	0.06959488
97	0x3cf012d1	0.029305847
98	0x3d46e37d	0.048556793
99	0x3ba1c365	0.004936623
100	0x3d8bc821	0.06825281
101	0x3d54f132	0.051987834
102	0x3d051ee2	0.032500155
103	0x3da0b741	0.07847453
104	0x3dc212ff	0.094762795
105	0x3cfe67a1	0.031055273
106	0xbce353d6	-0.027749937
107	0xbc62f8d3	-0.01385327
108	0xbc7a9a6a	-0.015295604
109	0x3ceb7778	0.02874349
110	0xbd6ae719	-0.0573493
111	0xbdf44246	-0.11926703
112	0xbe019bc5	-0.12657078
113	0xbdcf1ded	-0.1011313
114	0xbd02da67	-0.031946566
115	0xbde7eb47	-0.113241725
116	0xbe274652	-0.16335419
117	0xbe2b055c	-0.16701263
118	0xbdc48d4d	-0.095972635
119	0xbcd6fb24	-0.0262428
120	0xbdfa5656	-0.122234985
121	0xbe0905bf	-0.13381098
122	0xbdea26b6	-0.11433165
123	0xbd512478	-0.05106017
124	0xbc1eef70	-0.009700641
125	0xbda82835	-0.08210794
126	0xbce72d14	-0.028219737
127	0xbab30b79	-0.0013660035
128	0xbd653ec8	-0.055968076
129	0xbcd9478e	-0.026523378
130	0xbdc291db	-0.09500476
131	0xbd4e6f06	-0.05039885
132	0xbd4c9469	-0.049946222
133	0xbdbbbd44	-0.09166959
134	0xbd56c2de	-0.052431934
135	0xbd17c2a7	-0.03705087
136	0xb8ea3b5f	-0.00011169048
137	0x3c315a4d	0.010824752
138	0xbb9f9b32	-0.0048707956
139	0x3c168e8d	0.00918926
140	0xbd183a07	-0.037164714
141	0xbc8e5686	-0.017375242
142	0xbc6d278e	-0.014474763
143	0xbcd7e8b7	-0.026356084
144	0xbc63aa53	-0.013895589
145	0xbd80047c	-0.06250855
146	0xbc1fee45	-0.009761398
147	0xbcd0960d	-0.025462175
148	0x3c4ee386	0.012627488
149	0xbcc13f56	-0.023589771
150	0x3c72f453	0.014828759
151	0x3ac6a347	0.0015154862
152	0xbcaf1e38	-0.021376714
153	0xbcba7064	-0.02275867
154	0xbc3c250f	-0.011483445
155	0xbd25bc9a	-0.040463068
156	0xbd4a1e09	-0.04934505
157	0xbdade00c	-0.08489999
158	0xbb733ec1	-0.0037116262
159	0xbd8a043d	-0.0673909
160	0xbd5270b4	-0.051377013
161	0xbdd403a4	-0.10352257
162	0xbe0bbc34	-0.13646013
163	0xbd349495	-0.04408701
164	0xbd8c448e	-0.06849013
165	0xbdb35752	-0.087568894
166	0xbddfc26d	-0.10925756
167	0xbe0da729	-0.13833298
168	0xbdde765d	-0.1086242
169	0xbdbfb736	-0.093611166
170	0xbd54e330	-0.051974475
171	0xbdb87c65	-0.090081014
172	0xbe3811ef	-0.17975591
173	0xbe1b0d6e	-0.15141842
174	0xbde48e24	-0.11159924
175	0x3798074e	1.8123214e-05
176	0x3c8c4033	0.017120456
177	0x3d5e3052	0.0542453
178	0x3dba0572	0.0908307
179	0x3bde8210	0.006790407
180	0x3c89168b	0.016734382
181	0x3c89d3bf	0.016824601
182	0x3cdc0988	0.026860014
183	0x3d0b6e3d	0.03404068
184	0xbb36e58b	-0.0027907814
185	0x3c1fdc6a	0.009757141
186	0xbd3da6d4	-0.046301678
187	0xbd840e4f	-0.06448042
188	0xbd1826c2	-0.037146337
189	0x3d28a42c	0.04117219
190	0xbd01def7	-0.031706776
191	0xbdb7a14e	-0.08966313
192	0xbe016483	-0.12635998
193	0xbd3b4b45	-0.04572608
194	0xbce5f905	-0.028072843
195	0xbd4f71ee	-0.05064576
196	0xbda4960f	-0.08036434
197	0xbdbebc95	-0.09313313
198	0xbcd2a224	-0.02571208
199	0xbbaaae04	-0.0052087326
200	0xbc9298ba	-0.017895091
201	0xbb73ac30	-0.003718149
202	0xbc4f52f1	-0.012654052
203	0x3d2d3560	0.04228723
204	0x3d932bbb	0.07186075
205	0xbbd48863	-0.006485985
206	0xbc7ee89a	-0.015558386
207	0xbd60e544	-0.054906145
208	0xbcc0c895	-0.023533145
209	0x3b95204a	0.0045509683
210	0xbd662737	-0.056189742
211	0xbd3f1a9a	-0.04665623
212	0xbd96a6ee	-0.07356058
213	0xbda091b5	-0.078402914
214	0xbd19e11d	-0.0375682
215	0xbdd84b94	-0.105612904
216	0xbe01c3ac	-0.12672299
217	0xbe13149b	-0.14363329
218	0xbe1ec8fa	-0.15506354
219	0xbdb75154	-0.08951059
220	0xbd5dfddb	-0.054197174
221	0xbd3f257a	-0.0466666
222	0xbd573704	-0.0525427
223	0xbdbcf936	-0.09227221
224	0xbd29c655	-0.04144891
225	0x3d75e303	0.06003095
226	0x3cfbac64	0.03072185
227	0xbd16b55b	-0.036794048
228	0xbd6039cf	-0.05474263
229	0xbdb64ece	-0.089017496
230	0x3d993b9c	0.07482073
231	0xbb123a18	-0.0022312459
232	0xbdcaaeb2	-0.09896602
233	0xbe1c4426	-0.15260372
234	0xbe1cea57	-0.15323769
235	0x3df09ed2	0.117490426
236	0x3d460713	0.04834659
237	0xbd5207a2	-0.05127681
238	0xbdbdd433	-0.092689894
239	0xbd7e161b	-0.0620328
240	0x3db899e2	0.09013726
241	0x3c8ace90	0.0169442
242	0xbd3acfb8	-0.045608252
243	0xbd8f673f	-0.070021145
244	0xbd7e4902	-0.062081344
245	0x3df96a2b	0.12178453
246	0x3d9932c7	0.07480388
247	0x3cf46157	0.029831572
248	0x3c42ba27	0.0118852025
249	0xbceab189	-0.028649108
250	0x3c10bfaa	0.008834759
251	0xbc5d3f1f	-0.013503819
252	0x3d1b62e0	0.03793609
253	0x3d87fcf2	0.06640042
254	0x3d6174e7	0.055043127
255	0xba85a045	-0.0010194859

module.residual_layers.1.0.bn1.weight f4 [32]
0	0x3ef13312	0.47109276
1	0x3ed6630f	0.4187245
2	0x3f19352f	0.59846777
3	0x3f09004d	0.53516084
4	0x3f058cb4	0.5216782
5	0x3f289e56	0.658666
6	0x3eea0afb	0.45711502
7	0x3f036df4	0.5133965
8	0x3f3c6b0b	0.73600835
9	0x3ef72028	0.4826672
10	0x3f027e46	0.5097393
11	0x3f021b80	0.5082321
12	0x3f0a000f	0.5390634
13	0x3f01bd83	0.50679797
14	0x3f0b353f	0.5437812
15	0x3f0639c4	0.52431893
16	0x3f10f459	0.56622845
17	0x3ed739ac	0.42036188
18	0x3f10c590	0.56551456
19	0x3eeb76aa	0.4598897
20	0x3efacaec	0.48982942
21	0x3eead932	0.45868832
22	0x3f28d144	0.65944314
23	0x3f268921	0.6505299
24	0x3ef48c4b	0.47763285
25	0x3f15c38a	0.58501494
26	0x3eddafe6	0.43298262
27	0x3f00d317	0.503221
28	0x3f0ba19b	0.54543465
29	0x3f0f676a	0.5601717
30	0x3f101262	0.5627805
31	0x3f08a601	0.533783
