summaries/vanilla_ResNet2_num_blocks2x1_num_channels16_conv5/ckpt.pth (torch, 281679 bytes, 42 tensors)

module.conv1.weight f4 [16, 3, 3, 3]
0.57404095 0.84207076 -0.15573889 -0.035339475 -1.3160932 0.34078413 0.6631611 -0.18641724
-0.8027881 0.116064 0.3460973 -0.09620059 -0.5867428 -1.2878331 0.87398773 0.43656704
0.17192051 -0.10893315 -0.17942601 0.29962474 -0.30404168 -0.6175683 -0.75493115 0.9595968
-0.020041455 0.5275205 0.30120975 -0.08569787 -0.16956957 0.01744082 -0.28715503 -0.2661026
0.3294915 -0.2271352 -0.12794231 0.43163028 -0.28347877 -0.16408879 0.19266897 -0.36212116
-0.06372707 0.7037581 -0.41837958 0.029866941 0.75572646 -0.23242523 -0.29758367 -0.10222505
-0.22497974 -0.11418868 0.45700955 -0.19867949 0.11651632 0.65995777 -0.039203867 -0.10533752
-0.094986536 -0.054502074 -0.07158236 -0.19401146 0.14228567 0.17170538 -0.0027802335 -0.13201712
-0.16581105 -0.11334008 -0.049481455 -0.03517125 -0.1464736 0.15642497 0.22209421 0.04786606
0.03286684 -0.0030796865 0.072585896 0.18732432 0.19851987 0.0773505 0.32906976 0.38799205
0.18865405 -0.25891817 -0.282005 0.12177755 -0.63748217 -0.73618317 -0.25981352 -0.3960274
-0.42570648 0.103933275 0.13645297 0.23555665 0.12965222 0.09409825 0.062259212 -0.07367938
0.12639055 0.09903715 0.061336417 0.30506504 0.43308285 0.06649647 0.4400363 0.41697988
-0.043642536 0.26242158 0.18816435 -0.18131748 -0.38035634 -0.35460812 -0.11712496 -0.2984732
-0.4078471 -0.28096232 -0.14494258 -0.36152956 -0.25598305 0.14454897 0.56831175 0.5789258
0.5584264 0.9012167 0.6777113 0.35890797 0.5030991 0.20424034 -0.18414067 -0.3936522
-0.15508725 -0.1453483 -0.46561232 -0.33740988 -0.0233531 -0.41830128 -0.36272755 0.05648023
0.2470387 -0.020164985 0.12359623 0.09660126 -0.02883785 0.06835241 -0.20977867 -0.20009339
-0.31686476 -0.004323537 -0.25067577 -0.23221223 -0.11379362 -0.1731408 -0.31344527 -0.45933956
-0.3828976 0.13955626 0.5179383 0.21364923 0.3963295 0.559289 0.43241936 0.024336195
-0.14552587 -0.14281332 0.17677633 0.29587746 0.47293586 -0.014271649 -0.22950752 0.18556942
-0.23744012 -0.43146363 0.021427775 0.18708234 0.37922108 0.43455216 -0.11950523 -0.22282882
0.0851926 -0.3463704 -0.39506415 0.014669603 0.21338716 0.334381 0.32102472 -0.06436393
-0.20252228 -0.013936999 -0.2944375 -0.37167087 -0.068785645 -0.18618615 -0.3116536 -0.17670213
-0.10917699 0.012070572 0.005774741 -0.10627869 0.2544544 0.23216482 -0.2391945 -0.27588737
-0.015754102 -0.15113705 0.04670983 0.14839251 -0.10209535 0.29807827 0.36176077 -0.027878106
-0.17981648 -0.011547883 -0.3701659 -0.3226545 -0.18528852 -0.2789833 -0.038638633 0.098073274
0.087314345 0.105877824 0.07667875 0.2709455 0.21390979 -0.05635422 0.18169281 0.113961354
-0.0013677031 0.084807955 0.0133055905 -0.10211025 0.22404787 0.10742091 -0.21654297 0.15684323
0.09872844 -0.017494705 0.074459605 -0.060716346 -0.2475912 0.07628261 -0.09186172 -0.41268748
-0.03939804 -0.13912271 -0.20734146 -0.0057574464 -0.46676466 -0.4100288 -0.11728483 -0.5634603
-0.65649015 0.23575985 0.77972835 0.67407006 0.18212172 -0.06744582 -0.15957478 0.013762705
00000000: 59f4 123f f391 573f 047a 1fbe 20c0 10bd
00000010: be75 a8bf 427b ae3e edc4 293f 29e4 3ebe
00000020: 8583 4dbf f6b2 ed3d aa33 b13e d104 c5bd
00000030: c734 16bf b7d7 a4bf a9bd 5f3f b785 df3e
00000040: ee0b 303e 5818 dfbd 74bb 37be 6a68 993e
00000050: 5aab 9bbe f518 1ebf 2b43 41bf 23a8 753f
00000060: fa2d a4bc 950b 073f 2a38 9a3e 5d82 afbd
00000070: a5a3 2dbe 0de0 8e3c fc05 93be 9a3e 88be
00000080: 1cb3 a83e 2196 68be 4f03 03be a5fe dc3e
00000090: 2124 91be e406 28be 044b 453e f267 b9be
000000a0: 5783 82bd 7e29 343f d935 d6be 84ab f43c
000000b0: 4a77 413f e100 6ebe e35c 98be 5e5b d1bd
000000c0: 1761 66be c1db e9bd 28fd e93e a372 4bbe
000000d0: 1ca0 ee3d fef2 283f 3c94 20bd 33bb d7bd
000000e0: 4d88 c2bd 913d 5fbd c699 92bd f1aa 46be
000000f0: 56b3 113e 89d3 2f3e 9434 36bb 7f2f 07be
00000100: 5fca 29be d81e e8bd 11ad 4abd bb0f 10bd
00000110: 2dfd 15be de2d 203e aa6c 633e 340f 443d
00000120: 619f 063d 91d4 49bb eaa7 943d f2d1 3f3e
00000130: cb48 4b3e f069 9e3d d57b a83e e5a6 c63e
00000140: 872e 413e ec90 84be f662 90be 8266 f93d
00000150: 0832 23bf 8076 3cbf 4706 85be 1ac4 cabe
00000160: 33f6 d9be f8da d43d 54ba 0b3e c335 713e
00000170: 8dc3 043e 95b6 c03d 8403 7f3d 37e5 96bd
00000180: 866c 013e fdd3 ca3d e53b 7b3d 7c31 9c3e
00000190: 09bd dd3e 4d2f 883d 704c e13e 637e d53e
000001a0: 84c2 32bd 1f5c 863e 28ae 403e 4aab 39be
000001b0: 11be c2be 328f b5be 36df efbd 7bd1 98be
000001c0: 56d1 d0be 4bda 8fbe d46b 14be 671a b9be
000001d0: 3610 83be a504 143e e17c 113f 7b34 143f
000001e0: 08f5 0e3f 23b6 663f 7d7e 2d3f c9c2 b73e
000001f0: 1acb 003f 6124 513e 5f8f 3cbe c88c c9be
00000200: 31cf 1ebe 2fd6 14be bd64 eebe fdc0 acbe
00000210: 004f bfbc 962b d6be 6db7 b9be d057 673d
00000220: b7f7 7c3e 0a31 a5bc 0520 fd3d e2d6 c53d
00000230: 5b3d ecbc 59fc 8b3d 38d0 56be 48e5 4cbe
00000240: 193c a2be 75ac 8dbb 9358 80be 0bc9 6dbe
00000250: a10c e9bd d24b 31be e67b a0be 8e2e ebbe
00000260: 270b c4be d6e7 0e3e 9b97 043f ddc6 5a3e
00000270: b3eb ca3e 902d 0f3f 1266 dd3e b35c c73c
00000280: bc04 15be a83d 12be db04 353e 407d 973e
00000290: a624 f23e a2d3 69bc 0504 6bbe e905 3e3e
000002a0: 8123 73be cde8 dcbe 4d89 af3c 8392 3f3e
000002b0: 4429 c23e 9f7d de3e 28bf f4bd 3d2d 64be
000002c0: 7579 ae3d 7657 b1be d945 cabe c658 703c
000002d0: 2a82 5a3e fd33 ab3e 5a5d a43e 3cd1 83bd
000002e0: 0062 4fbe 0358 64bc 83c0 96be a54b bebe
000002f0: 7ddf 8cbd 95a7 3ebe 1091 9fbe 67f1 34be
00000300: 3098 dfbd a6c3 453c 0a3a bd3b a4a8 d9bd
00000310: d947 823e 9dbc 6d3e 67ef 74be 1c41 8dbe
00000320: bf0e 81bc acc3 1abe cf52 3f3d 35f4 173e
00000330: 5e17 d1bd b79d 983e b538 b93e a060 e4bc
00000340: d021 38be 5533 3dbc 6386 bdbe f832 a5be
00000350: 46bc 3dbe e6d6 8ebe 8b43 1ebd a4da c83d
00000360: ddd1 b23d 79d6 d83d c009 9d3d 5eb9 8a3e
00000370: 2b0b 5b3e afd3 66bd ae0d 3a3e 9264 e93d
00000380: 8044 b3ba cbaf ad3d b1ff 593c 2e1f d1bd
00000390: ce6c 653e 7eff db3d 71bd 5dbe 839b 203e
000003a0: 2332 ca3d 0e51 8fbc 477e 983d b4b1 78bd
000003b0: 8c88 7dbe 0f3a 9c3d ff21 bcbd c64b d3be
000003c0: d75f 21bd 2f76 0ebe 5251 54be f6a8 bcbb
000003d0: c7fb eebe 4bef d1be 0733 f0bd ef3e 10bf
000003e0: bd0f 28bf 086b 713e 479c 473f db8f 2c3f
000003f0: 1e7e 3a3e 0921 8abd 9267 23be f87c 613c

module.bn1.weight f4 [16]
0.6925094 0.5416652 0.5765444 0.305368 0.39334732 0.43067133 0.5075274 0.7490578
0.3784328 0.67555094 0.44495046 0.55078113 0.26901162 0.3707337 0.98245025 0.59805995
00000000: 4c48 313f 92aa 0a3f 6a98 133f 3259 9c3e
00000010: d264 c93e f480 dc3e 51ed 013f 41c2 3f3f
00000020: f2c1 c13e e8f0 2c3f 8cd0 e33e feff 0c3f
00000030: e4bb 893e cfd0 bd3e dc81 7b3f 751a 193f

module.bn1.bias f4 [16]
0.55340034 0.09485609 -0.3260762 0.13364592 0.04728653 -0.06876214 -0.065076925 -0.6897408
-0.37687257 0.25355506 -0.0955518 -0.16676278 0.10532823 -0.36642978 0.8031436 -0.05480733
00000000: a5ab 0d3f e943 c23d 76f3 a6be 7ada 083e
00000010: 85af 413d 2ad3 8cbd 0d47 85bd da92 30bf
00000020: 71f5 c0be f8d1 813e aab0 c3bd ddc3 2abe
00000030: 54b6 d73d af9c bbbe d29a 4d3f a77d 60bd

module.bn1.running_mean f4 [16]
-0.05393388 -0.16421333 0.39910927 -0.099116154 -0.18347202 0.004462665 -0.015515377 -0.8210817
0.17934322 -0.10733057 -0.470303 -0.617357 0.18903747 0.2459716 0.042053603 -0.1629594
00000000: c6e9 5cbd 8a27 28be 0d58 cc3e 69fd cabd
00000010: 17e0 3bbe 8c3b 923b 3534 7ebc 6932 52bf
00000020: c0a5 373e 21d0 dbbd 8ecb f0be 1c0b 1ebf
00000030: 0a93 413e fbdf 7b3e 6640 2c3d d4de 26be

module.bn1.running_var f4 [16]
0.09524716 0.32355812 0.12198151 0.14985299 0.10128921 0.10815426 0.27005658 0.2545695
0.07109395 0.3281318 0.088524096 0.13118255 0.14858921 0.039010182 0.13450725 0.37049183
00000000: f110 c33d 69a9 a53e 71d1 f93d 1073 193e
00000010: b870 cf3d fb7f dd3d db44 8a3e ef56 823e
00000020: b499 913d e400 a83e 1f4c b53d b854 063e
00000030: c527 183e 24c9 1f3d 45bc 093e 1bb1 bd3e

module.residual_layers.0.0.conv1.weight f4 [16, 16, 5, 5]
0.08931548 0.10437195 -0.012602276 -0.20169215 -0.035951033 0.0616976 0.120087974 0.14515904
-0.27877232 -0.12898073 0.1716997 0.38005343 0.19405 -0.22230516 -0.31286937 -0.13608187
-0.04364882 -0.067744434 0.07643634 0.18613356 -0.07552213 0.05721921 -0.021251246 -0.058519885
-0.0196598 0.017421087 0.077524915 0.08322046 -0.031979192 -0.09713027 0.060234167 0.18533741
0.2628383 0.06258854 -0.13346961 -0.01745435 0.1250216 0.2529653 0.116226606 -0.116583146
-0.1090635 0.04312604 0.14156836 0.10746068 -0.08831066 -0.08817071 -0.015274214 0.04718759
0.104277276 -0.024171585 -0.024243878 -0.0009481458 0.022951039 0.055351533 0.0023295954 -0.052002545
-0.04117247 -0.029430537 0.048313748 0.100136906 -0.07580373 -0.057203013 -0.0680134 -0.02332532
0.051854864 -0.049841285 -0.056142587 -0.060444783 -0.04087424 -0.021088742 -0.049417984 -0.050672077
-0.07216084 -0.05009292 -0.05004461 0.06681403 0.039649606 -0.027468259 -0.036527663 0.0022951341
0.051878385 0.0514371 -0.027920691 -0.055464685 -0.021730648 0.044513702 0.068490565 -0.0069047557
-0.07168612 -0.086914696 -0.001118982 0.050178796 0.022433622 -0.040532142 -0.08097701 -0.01633754
0.04426577 0.035208516 -0.022432657 -0.05133422 -0.054420114 -0.07473968 -0.07599319 0.044865448
0.15915324 -0.060252525 -0.12203097 -0.1255031 -0.009648322 0.13608533 -0.05321434 -0.10456235
-0.13062595 -0.03751552 0.11145229 -0.020819865 -0.027989702 -0.062931396 -0.041049264 0.06803285
-0.014096289 0.010619253 0.03763597 0.0055606994 0.02782781 0.059872825 -0.038702853 -0.114644155
-0.13732839 -0.05452157 0.048321053 -0.071557574 -0.15658209 -0.1626578 -0.14491719 -0.025166579
-0.07124267 -0.03809791 -0.019068163 -0.10289859 -0.012746868 -0.040986758 -0.024332888 -0.015959485
-0.07291776 0.04754297 0.057353668 0.057298906 0.022655137 0.006869289 0.13761471 0.091187336
-0.03245529 -0.034721296 -0.01769815 0.167331 0.17744854 0.038632162 -0.08282971 -0.10365942
-0.061050255 0.09579832 0.1445533 0.04147457 -0.07005776 -0.109598316 -0.047134064 0.098929234
0.09811209 -0.07185793 -0.05393441 -0.038381718 0.04351136 0.06432461 -0.15060525 0.0027771213
-0.040172413 -0.07715347 -0.028713185 -0.07343309 0.035244536 -0.022332478 -0.05562155 0.004038383
-0.027292127 -0.0038362953 -0.03457895 -0.03704509 -0.07119464 -0.084277004 -0.009084358 0.060043085
0.06529038 -0.033914447 -0.1074914 0.049468305 0.120762765 0.050822522 -0.023245834 -0.069975086
-0.04910923 -0.047711972 -0.04143114 -0.001942628 0.030815253 -0.07193896 -0.06497224 -0.07115695
-0.013412017 0.03305797 -0.077757046 -0.058715113 -0.06904624 -0.0029273771 -0.0093186805 -0.05477521
-0.042413604 -0.05287347 -0.01467729 -0.055831596 -0.0037979162 -0.004799416 -0.04220498 -0.017722636
-0.048406653 -0.1663631 -0.15243386 -0.021281667 0.12389009 0.15028083 -0.14744064 -0.29367128
-0.25238466 0.028601494 0.32461363 -0.09353912 -0.32832867 -0.32090652 -0.1524092 0.13131228
0.1291829 -0.13520423 -0.20288022 -0.117712855 -0.00061781146 0.16441129 0.010238299 -0.15188569
-0.080277964 -0.024723703 0.069251925 0.027142785 -0.10587135 -0.11460946 -0.20165707 0.08590178
00000000: 09eb b63d f6c0 d53d c779 4ebc 6388 4ebe
00000010: 6441 13bd 9fb6 7c3d aff0 f53d 92a4 143e
00000020: 3fbb 8ebe 8613 04be 0cd2 2f3e 5d96 c23e
00000030: 0bb5 463e f7a3 63be 6a30 a0be 0c59 0bbe
00000040: 1bc9 32bd 98bd 8abd a88a 9c3d cc99 3e3e
00000050: 59ab 9abd b15e 6a3d 1817 aebc 8cb2 6fbd
00000060: 970d a1bc abb6 8e3c 62c5 9e3d 7d6f aa3d
00000070: 9dfc 02bd 3cec c6bd 1ab8 763d 17c9 3d3e
00000080: be92 863e 6c2e 803d 42ac 08be 6dfc 8ebc
00000090: aa05 003e ab84 813e 3708 ee3d 25c3 eebd
000000a0: af5c dfbd eea4 303d 4cf7 103e 5814 dc3d
000000b0: 38dc b4bd d892 b4bd b240 7abc c647 413d
000000c0: 538f d53d 7d03 c6bc 199b c6bc fd8c 78ba
000000d0: d103 bc3c 4ab8 623d 20ac 183b 9f00 55bd
000000e0: 77a4 28bd 4f18 f1bc a3e4 453d 9414 cd3d
000000f0: fc3e 9bbd b54d 6abd 9c4a 8bbd be14 bfbc
00000100: c465 543d 6026 4cbd c5f5 65bd f394 77bd
00000110: bf6b 27bd 4cc2 acbc 836a 4abd 868d 4fbd
00000120: 10c9 93bd 3c2e 4dbd 94fb 4cbd cbd5 883d
00000130: a067 223d 1d05 e1bc 089e 15bd f669 163b
00000140: 6e7e 543d b5af 523d efb9 e4bc f02e 63bd
00000150: 7904 b2bc 0054 363d c844 8c3d 4a41 e2bb
00000160: 2cd0 92bd 5500 b2bd ceaa 92ba 4888 4d3d
00000170: b7c6 b73c 0805 26bd 46d7 a5bd 4ed6 85bc
00000180: 0650 353d ce36 103d b1c4 b7bc d543 52bd
00000190: a0e7 5ebd 1e11 99bd 51a2 9bbd d5c4 373d
000001a0: 11f9 223e 5acb 76bd 60eb f9bd e283 00be
000001b0: ff13 1ebc f459 0b3e 48f7 59bd c924 d6bd
000001c0: cfc2 05be e0a9 19bd 1941 e43d 6c8e aabc
000001d0: a94a e5bc 2de2 80bd 4623 28bd cf54 8b3d
000001e0: 1ff4 66bc 60fc 2d3c 2d28 1a3d 8736 b63b
000001f0: 26f7 e33c 353d 753d e286 1ebd 8eca eabd
00000200: d09f 0cbe 0352 5fbd 4cec 453d c78c 92bd
00000210: 0e57 20be c48f 26be 2c65 14be 242a cebc
00000220: ade7 91bd 8e0c 1cbd d634 9cbc 7fbc d2bd
00000230: 3dd8 50bc bbe1 27bd c455 c7bc 77bd 82bc
00000240: e855 95bd 6bbc 423d aeeb 6a3d 42b2 6a3d
00000250: 4497 b93c c617 e13b dfea 0c3e 6dc0 ba3d
00000260: d7ef 04bd eb37 0ebd b6fb 90bc d158 2b3e
00000270: 12b5 353e c23c 1e3d 9fa2 a9bd 644b d4bd
00000280: d50f 7abd e931 c43d c805 143e 3de1 293d
00000290: 717a 8fbd 1575 e0bd a60f 41bd 699b ca3d
000002a0: feee c83d 402a 93bd 54ea 5cbd 2636 1dbd
000002b0: f838 323d 9fbc 833d 4338 1abe 5d00 363b
000002c0: d48b 24bd a302 9ebd ea37 ebbc 1664 96bd
000002d0: 935c 103d 9af2 b6bc 6cd3 63bd 6954 843b
000002e0: bd93 dfbc 5b6a 7bbb a8a2 0dbd 98bc 17bd
000002f0: 7fce 91bd 6c99 acbd 8fd6 14bc bdef 753d
00000300: f6b6 853d e0e9 0abd 7324 dcbd 479f 4a3d
00000310: 7852 f73d 472b 503d 0c6e bebc 194f 8fbd
00000320: c326 49bd a16d 43bd b3b3 29bd c79f feba
00000330: 4570 fc3c bc54 93bd 2a10 85bd bcba 91bd
00000340: 14be 5bbc cb67 073d 163f 9fbd 427f 70bd
00000350: 1d68 8dbd 3dd9 3fbb 61ad 18bc f85b 60bd
00000360: e3b9 2dbd da91 58bd 0479 70bc acaf 64bd
00000370: 76e6 78bb 6b44 9dbb 21df 2cbd 102f 91bc
00000380: 0e46 46bd 175b 2abe 9f17 1cbe e456 aebc
00000390: 16ba fd3d 38e3 193e aefa 16be 155c 96be
000003a0: 9038 81be ae4d ea3c c233 a63e 7091 bfbd
000003b0: b21a a8be dc4d a4be 2811 1cbe ba76 063e
000003c0: 8648 043e fa72 0abe d5bf 4fbe 7013 f1bd
000003d0: a0f4 21ba 6f5b 283e 8abe 273c ec87 1bbe
000003e0: c668 a4bd 5d89 cabc f4d3 8d3d 8c5a de3c
000003f0: 14d3 d8bd 5db8 eabd 317f 4ebe 46ed af3d

module.residual_layers.0.0.bn1.weight f4 [16]
0.80947477 0.7637119 1.0227779 0.9803655 0.78147036 0.61836576 0.828853 0.8139314
0.68771565 0.795453 0.91179603 1.0919507 0.71519595 0.9840881 0.6794582 0.6874815
00000000: bd39 4f3f a082 433f 63ea 823f 3cf9 7a3f
00000010: 710e 483f 384d 1e3f b62f 543f cf5d 503f
00000020: 220e 303f cfa2 4b3f 776b 693f 0ac5 8b3f
00000030: 1517 373f 33ed 7b3f f9f0 2d3f cafe 2f3f

module.residual_layers.0.0.bn1.bias f4 [16]
-0.3466665 -0.36028975 -0.32829088 0.3821418 0.072296664 -0.14647593 -0.26999718 -0.47434908
-0.34765622 -0.4164451 -0.31569394 -0.3987986 0.45705596 -0.118274696 0.15160975 -0.23203328
00000000: 467e b1be e677 b8be be15 a8be 17a8 c33e
00000010: 4610 943d c9fd 15be 123d 8abe e2dd f2be
00000020: ffff b1be 4b38 d5be a3a2 a1be 552f ccbe
00000030: 3d03 ea3e 013a f2bd 963f 1b3e 229a 6dbe

module.residual_layers.0.0.bn1.running_mean f4 [16]
-1.3585235 -0.8297542 -0.8401327 -2.0134974 -2.1538923 -0.407826 -2.4398642 1.3245441
-0.2382919 0.33419108 -1.7980326 -0.49096963 -0.6084532 -0.87294334 0.06686673 -0.5575438
00000000: 19e4 adbf c56a 54bf f012 57bf 24dd 00c0
00000010: 5fd9 09c0 92ce d0be bc26 1cc0 a98a a93f
00000020: cb02 74be 181b ab3e ef25 e6bf 5f60 fbbe
00000030: 97c3 1bbf 3779 5fbf 6df1 883d 31bb 0ebf

module.residual_layers.0.0.bn1.running_var f4 [16]
2.6674433 0.83805335 2.690884 2.8992715 1.6727419 0.96660686 2.0089762 1.4419131
1.3243387 1.550095 1.9075929 3.4634626 1.3732487 5.387548 1.3453692 1.6810579
00000000: 64b7 2a40 aa8a 563f 7237 2c40 aa8d 3940
00000010: 681c d63f 8c73 773f 1193 0040 9c90 b83f
00000020: ee83 a93f 8369 c63f 012c f43f 5fa9 5d40
00000030: 9dc6 af3f cb66 ac40 0f35 ac3f e82c d73f

module.residual_layers.0.0.conv2.weight f4 [16, 16, 5, 5]
-0.0073951376 0.088401556 -0.1823248 0.035015497 0.26353905 0.1254463 0.10463356 -0.015973492
0.07013375 0.20913972 -0.023745656 -0.005103892 0.046666555 0.03697072 0.16733181 0.07265837
0.059175316 0.04199072 -0.0056408807 0.09862975 0.09854841 0.117487095 0.14596686 0.094704255
-0.09931953 -0.033887703 -0.06558648 -0.025536643 0.093313694 0.03874544 -0.06548178 -0.24275947
-0.101675466 0.17729494 -0.049972508 0.034806855 -0.115903065 -0.2717765 0.06066163 0.043545935
0.21931262 0.06906255 -0.04082693 0.07031142 -0.075116046 0.110298075 0.072357684 -0.15103632
0.13194771 -0.043603003 -0.061243758 -0.24216895 0.13216317 0.22258061 0.0120626865 -0.10922411
-0.23109199 -0.23541749 0.024183141 0.2837774 -0.099325 -0.13937435 -0.22769816 -0.2278041
-0.16970871 0.14407614 -0.09531484 -0.05059118 -0.2360304 0.014436868 0.028900592 0.21315582
-0.18288745 -0.15270881 -0.34740588 0.20108469 0.054344796 -0.054211803 -0.035680577 0.0947777
-0.071783744 0.036813844 0.38030565 0.07216237 -0.16305554 -0.00824118 0.083380006 -0.007142255
0.2312627 -0.18170533 0.048417825 0.1567624 0.06063942 0.012272926 0.008699265 0.03845361
-0.06547988 -0.23690188 -0.008475181 0.091986395 -0.105646506 0.04781962 0.116462834 0.00096894114
-0.046322852 -0.037006263 -0.017863601 -0.010145697 0.024261838 -0.10932698 -0.004910422 0.067438535
0.01391755 -0.13256226 0.08874151 0.030076804 0.009041753 0.21319506 0.10409419 0.15117313
-0.28457972 -0.029657409 -0.10611343 0.084642805 0.013688885 0.0479351 0.09876226 -0.074649714
0.030578708 0.00860716 0.12256491 0.098683156 -0.09435685 -0.05126904 -0.1081983 0.15905818
0.00393999 -0.18920681 -0.12153434 -0.054512694 0.07634689 -0.03715205 -0.15031992 -0.12989804
0.011544976 -0.012926372 -0.022261212 -0.16448529 -0.12628779 -0.07368117 -0.12836574 0.11504643
0.1847794 -0.020448083 -0.09538468 -0.04167234 -0.094593406 0.10908279 0.27454653 0.05665957
-0.14139853 0.12087456 0.021398474 0.1300746 -0.022607176 -0.10901923 -0.045464624 -0.009024593
0.048088983 -0.09944084 0.08598146 0.07696425 -0.135734 0.13371056 -0.09307493 -0.07661434
-0.039586414 0.045102928 -0.0031941307 -0.074240535 0.055191703 -0.02120842 0.0142314425 -0.10014334
-0.21080576 0.0006995935 -0.15561989 -0.07740662 0.038650118 -0.14102921 0.23215695 0.012144524
-0.06319145 -0.047940813 -0.010611951 -0.01843703 -0.10199433 -0.06953571 -0.14863494 -0.25627384
-0.13276267 0.10241863 0.10011271 0.034834437 0.116948254 0.019197544 -0.098882996 -0.027511029
-0.0050190184 0.17020546 -0.09631196 -0.08396607 0.0042625135 -0.1619809 0.05205001 0.051895455
0.13161084 -0.009797914 -0.06540662 0.035793576 -0.13255876 -0.10349846 -0.031984452 -0.14518821
-0.029606456 -0.08489124 -0.007601012 0.10368991 -0.05714236 0.06707873 -0.13239978 0.09797955
-0.008814807 -0.034016926 -0.041532613 0.023180274 -0.004908838 -0.018834097 -0.008505547 0.0004016992
-0.029320344 0.08135553 -0.021654963 -0.06366271 0.088044934 -0.07534565 -0.1286103 -0.17309453
-0.13520531 -0.10396971 0.032946363 -0.07556651 -0.18387902 -0.114731826 -0.011775068 0.19993737
00000000: e952 f2bb e00b b53d 5ab3 3abe 696c 0f3d
00000010: 97ee 863e ff74 003e 1f4a d63d d7da 82bc
00000020: 49a2 8f3d b928 563e 4086 c2bc 8d3e a7bb
00000030: 6e25 3f3d 9c6e 173d 0859 2b3e e9cd 943d
00000040: d161 723d 76fe 2b3d 23d7 b8bb 65fe c93d
00000050: c0d3 c93d 139d f03d 5678 153e 4ef4 c13d
00000060: 0a68 cbbd d5cd 0abd 3452 86bd 3932 d1bc
00000070: 401b bf3d 8ab3 1e3d 501b 86bd f095 78be
00000080: 3a3b d0bd ce8c 353e f9af 4cbd a291 0e3d
00000090: 965e edbd 4a26 8bbe 5478 783d 395d 323d
000000a0: 7d93 603e ab70 8d3d 243a 27bd 6fff 8f3d
000000b0: 71d6 99bd f5e3 e13d 4430 943d 44a9 1abe
000000c0: 4d1d 073e 1099 32bd bcda 7abd 23fb 77be
000000d0: c855 073e 2cec 633e 93a2 453c e4b0 dfbd
000000e0: 61a3 6cbe 4811 71be b91b c63c 454b 913e
000000f0: e86a cbbd 26b8 0ebe b529 69be 7a45 69be
00000100: 1fc8 2dbe b288 133e 6d34 c3bd b238 4fbd
00000110: f4b1 71be 9d88 6c3c efc0 ec3c 8545 5a3e
00000120: d946 3bbe b35f 1cbe 2fdf b1be 25e9 4d3e
00000130: a698 5e3d 320d 5ebd cc25 12bd d01a c23d
00000140: 5b03 93bd 1dca 163d 6cb7 c23e ddc9 933d
00000150: 08f8 26be 0406 07bc 23c3 aa3d 9409 eabb
00000160: 21d0 6c3e f610 3abe c551 463d 5386 203e
00000170: 0a61 783d 6214 493c 5d87 0e3c 8881 1d3d
00000180: 511a 86bd 6896 72be 7cdb 0abc 5d63 bc3d
00000190: 325d d8bd 82de 433d 1184 ee3d 8a00 7e3a
000001a0: 08bd 3dbd e193 17bd b056 92bc 233a 26bc
000001b0: c3c0 c63c d3e6 dfbd 9be7 a0bb 371d 8a3d
000001c0: 7006 643c 67be 07be 1cbe b53d a163 f63c
000001d0: dc23 143c ce4f 5a3e 562f d53d 21cd 1a3e
000001e0: 6fb4 91be 18f4 f2bc ff51 d9bd 3559 ad3d
000001f0: 5847 603c 9857 443d de43 ca3d f3e1 98bd
00000200: 3380 fa3c 0c05 0d3c 5003 fb3d 651a ca3d
00000210: 2a3e c1bd 7cff 51bd 1297 ddbd 26e0 223e
00000220: 081b 813b 6ebf 41be ffe6 f8bd b448 5fbd
00000230: c25b 9c3d bf2c 18bd 77ed 19be fe03 05be
00000240: 2427 3d3c 22c9 53bc 255d b6bc d56e 28be
00000250: 9651 01be 27e6 96bd 4f72 03be 769d eb3d
00000260: d036 3d3e bd82 a7bc 0b59 c3bd 9eb0 2abd
00000270: 30ba c1bd cc66 df3d 5d91 8c3e de13 683d
00000280: c7ca 10be 158d f73d da4b af3c 4732 053e
00000290: af32 b9bc 7945 dfbd 1d39 3abd e3db 13bc
000002a0: f4f8 443d a4a7 cbbd 0c17 b03d 6f9f 9d3d
000002b0: dbfd 0abe 6ceb 083e 129e bebd fbe7 9cbd
000002c0: 5d25 22bd d9bd 383d 9f54 51bb 6c0b 98bd
000002d0: b210 623d 48bd adbc ff2a 693c f417 cdbd
000002e0: 77dd 57be ed64 373a d25a 1fbe 5d87 9ebd
000002f0: 964f 1e3d f669 10be 8dba 6d3e d3f9 463c
00000300: 856a 81bd 965d 44bd c0dd 2dbc 4109 97bc
00000310: 67e2 d0bd bd68 8ebd c233 18be 5336 83be
00000320: f0f2 07be dcc0 d13d e407 cd3d 8eae 0e3d
00000330: 9182 ef3d 2b44 9d3c 2b83 cabd cf5e e1bc
00000340: 9476 a4bb 574a 2e3e 343f c5bd 67f6 abbd
00000350: 8eac 8b3b 52de 25be 6432 553d 5490 543d
00000360: fec4 063e 6e87 20bc e8f3 85bd 499c 123d
00000370: 7cbd 07be 00f7 d3bd 2102 03bd 38ac 14be
00000380: 3d89 f2bc 75db adbd e911 f9bb 605b d43d
00000390: 1b0e 6abd 9360 893d cf93 07be 81a9 c83d
000003a0: fb6b 10bc 5555 0bbd 1a1e 2abd 8fe4 bd3c
000003b0: 51da a0bb f749 9abc da5a 0bbc 279b d239
000003c0: 3831 f0bc ba9d a63d c065 b1bc 9861 82bd
000003d0: e750 b43d d24e 9abd 6bb2 03be b13f 31be
000003e0: 4373 0abe 12ee d4bd c4f2 063d 9dc2 9abd
000003f0: c84a 3cbe 85f8 eabd 37ec 40bc 62bc 4c3e

module.residual_layers.0.0.bn2.weight f4 [16]
1.111996 0.66963625 0.9077451 0.8359827 0.74970275 0.8388428 1.2651315 0.8552067
0.9989888 0.75993615 0.86822045 1.0517423 0.9033366 0.9542231 0.8996659 0.9395527
00000000: e355 8e3f 486d 2b3f fc61 683f f602 563f
00000010: 85ec 3f3f 67be 563f d4ef a13f d4ee 5a3f
00000020: bbbd 7f3f 2d8b 423f b243 5e3f 7e9f 863f
00000030: 1141 673f f747 743f 8150 663f 8786 703f

module.residual_layers.0.0.bn2.bias f4 [16]
-0.5280779 0.3265213 -0.0012205989 -0.19667344 0.10503695 -0.015722632 -0.51145345 0.057196636
-0.65100384 -0.47149575 -0.41784477 -0.079219505 -0.57815194 -0.18370318 -1.2295724 -0.2585626
00000000: 1d30 07bf cd2d a73e 81fc 9fba c364 49be
00000010: 9d1d d73d c0cc 80bc 9dee 02bf 0547 6a3d
00000020: 30a8 26bf e467 f1be c0ef d5be d63d a2bd
00000030: c401 14bf b01c 3cbe a162 9dbf 5162 84be

module.residual_layers.0.0.bn2.running_mean f4 [16]
-0.706548 0.4879462 -1.3981824 -1.4196184 0.0789388 -0.29527548 -1.564505 -0.2866746
-0.7128904 -0.79968196 -1.5361737 -1.6624935 -0.8095167 -1.1025025 -0.32948413 -0.95441943
00000000: 54e0 34bf 16d4 f93e a4f7 b2bf 0eb6 b5bf
00000010: aaaa a13d 592e 97be b341 c8bf 03c7 92be
00000020: fc7f 36bf f5b7 4cbf 57a1 c4bf 96cc d4bf
00000030: 7d3c 4fbf cd1e 8dbf 25b2 a8be d554 74bf

module.residual_layers.0.0.bn2.running_var f4 [16]
3.3225336 2.4022171 2.672592 2.4738793 2.9705005 3.4033625 3.5400884 2.460416
2.0248637 2.9879386 2.9096713 4.1874413 3.301133 2.5662773 3.0152926 2.2505596
00000000: 64a4 5440 edbd 1940 bf0b 2b40 0a54 1e40
00000010: ae1c 3e40 b1d0 5940 cf90 6240 7577 1d40
00000020: 5e97 0140 633a 3f40 0e38 3a40 85ff 8540
00000030: c345 5340 e33d 2440 8efa 4040 2b09 1040

module.residual_layers.0.1.conv1.weight f4 [16, 16, 5, 5]
0.3103916 -0.02405913 -0.054364312 -0.051183622 -0.09639534 0.104126975 -0.04294717 -0.021582795
-0.09994726 -0.0020827649 0.09471802 -0.015169823 -0.10008674 0.008518987 0.025477195 0.06192815
-0.11850275 -0.012211435 0.17570522 0.1507576 0.09336344 -0.1113397 -0.13126147 -0.005318733
0.03911138 -0.38705206 -0.38862643 0.054672096 -0.12587847 -0.17466843 -0.10244027 0.081401445
0.4139639 0.12459409 0.021312227 -0.12629037 0.007926723 0.10765284 -0.07960264 -0.0606005
0.041845325 -0.025353419 0.022228546 -0.04528882 -0.044471256 0.021814726 -0.07137626 0.15674739
0.098224476 0.11179301 -0.041147314 0.04910096 0.062404763 -0.10555399 -0.00093198224 0.008592665
0.038918402 0.054830123 -0.13259897 -0.032929085 -0.0558782 0.2278017 0.033811897 -0.08592129
-0.012716563 0.01572572 0.13558662 0.021737574 -0.098957084 0.053749096 0.012692404 0.02414251
0.005574643 6.244393e-05 -0.014991583 0.08576299 0.01052852 0.15897883 0.16082077 0.046267197
-0.08920845 0.0048141405 0.036015216 0.08608481 -0.010192987 -0.048055626 -0.064476505 -0.023732612
-0.0006490384 0.18461868 0.060234096 -0.04607918 -0.03707248 0.16002783 0.22597776 0.03841571
-0.15314136 -0.17791972 0.20864496 -0.015044241 0.01855463 -0.11059893 -0.079659194 -0.040811494
0.036036093 -0.0038252661 0.014955133 0.16752334 0.047035355 -0.057128046 -0.08699018 -0.091136046
-0.0053242557 -0.029268663 -0.09479425 0.03446063 -0.09351675 -0.0523992 0.11014829 0.13746914
0.0038412744 -0.0711722 -0.036568284 0.12814118 0.07091068 -0.28742608 -0.2706136 -0.023607755
0.19140851 0.025724994 -0.36506012 -0.28320476 0.0649873 0.24885166 0.04515373 -0.45225814
-0.29256845 0.061230052 0.24482928 0.12819616 -0.17497687 -0.3370037 -0.04811599 0.09106562
0.15350196 -0.09961043 -0.1250344 0.0030975316 0.16486265 0.23884708 0.044333573 0.03374773
0.123959474 0.13880922 0.20902486 -0.15932229 -0.061097965 -0.006096273 0.07254468 0.045357376
-0.017743124 -0.015556368 0.16308488 -0.020383399 -0.17935824 -0.073669374 -0.002754758 -0.05032159
-0.09862271 0.02772501 -0.06671043 0.09281178 0.0265459 -0.039228216 0.02097531 -0.10708869
0.00044643524 0.06810826 0.066378795 -0.0385208 0.09779636 0.14026676 0.13753417 0.19981672
-0.054839104 -0.01202301 0.031150077 -0.026378259 -0.10029339 -0.08633391 -0.09066547 0.022368263
0.010626552 -0.028483396 0.16466157 -0.085284024 0.0035707734 0.15034784 0.021007169 0.056685545
0.22890194 0.11162087 0.08913269 -0.09423152 0.16616912 -0.10034328 0.08476538 0.094363496
0.04492825 0.11143788 -0.21951902 0.23456916 0.13200676 0.21397555 -0.00413681 -0.11104979
0.08546343 0.017395446 0.023819912 -0.026027268 -0.085415274 0.12016646 0.14970829 -0.08120168
0.011654649 -0.21157984 -0.21576723 -0.08714527 0.09725255 0.10232677 -0.48627037 -0.44855356
-0.21031992 0.10379881 0.19811273 -0.36182588 -0.3753578 -0.03575162 -0.045042373 0.03769634
-0.48090386 -0.42669442 -0.082084216 0.012235392 0.0707073 -0.37250564 -0.03391873 0.11144081
0.0825144 0.34232172 -0.09146686 0.15653488 0.10456819 -0.024534008 0.026828006 -0.0054984447
00000000: a6eb 9e3e a717 c5bc 1dad 5ebd eba5 51bd
00000010: ec6a c5bd 8640 d53d 5fe9 2fbd 67ce b0bc
00000020: 26b1 ccbd ff7e 08bb 85fb c13d d98a 78bc
00000030: 47fa ccbd 3993 0b3c 8db5 d03c 5fa8 7d3d
00000040: 92b1 f2bd 7812 48bc 12ec 333e 3360 1a3e
00000050: 5535 bf3d 1206 e4bd 6869 06be c448 aebb
00000060: 4133 203d b02b c6be 0bfa c6be d9ef 5f3d
00000070: 49e6 00be 48dc 32be 34cc d1bd cdb5 a63d
00000080: 14f3 d33e 302b ff3d fb96 ae3c 4352 01be
00000090: 16df 013c 1879 dc3d b506 a3bd 3b38 78bd
000000a0: 0166 2b3d f9b1 cfbc a418 b63c c580 39bd
000000b0: 7e27 36bd ccb4 b23c b72d 92bd 6382 203e
000000c0: ea29 c93d bcf3 e43d 168a 28bd 171e 493d
000000d0: 239c 7f3d b12c d8bd 4550 74ba 40c8 0c3c
000000e0: e768 1f3d 8d95 603d 06c8 07be a6e0 06bd
000000f0: 8ae0 64bd d944 693e 587e 0a3d 80f7 afbd
00000100: 2259 50bc 3ad3 803c 38d7 0a3e ff12 b23c
00000110: 03aa cabd 0328 5c3d cdf3 4f3c 83c6 c53c
00000120: 7fab b63b 54f4 8238 429f 75bc 82a4 af3d
00000130: d07f 2c3c 59cb 223e 33ae 243e ac82 3d3d
00000140: ebb2 b6bd f0bf 9d3b b184 133d 3c4d b03d
00000150: 7c00 27bc fad5 44bd 420c 84bd e56a c2bc
00000160: 3b24 2aba ae0c 3d3e 07b8 763d 86bd 3cbd
00000170: 50d9 17bd 56de 233e b766 673e cb59 1d3d
00000180: 17d1 1cbe 9630 36be 06a7 553e 1f7c 76bc
00000190: e1ff 973c b181 e2bd 5c24 a3bd f429 27bd
000001a0: 959a 133d 51b1 7abb 6006 753c 3d8b 2b3e
000001b0: 25a8 403d 19ff 69bd e827 b2bd 89a5 babd
000001c0: 1877 aebb d6c4 efbc 7d23 c2bd 9726 0d3d
000001d0: b685 bfbd 8ba0 56bd 6d95 e13d b6c4 0c3e
000001e0: e4bd 7b3b bbc2 91bd a0c8 15bd 7137 033e
000001f0: 9e39 913d 8329 93be de8d 8abe 0d65 c1bc
00000200: 9800 443e 39bd d23c 29e9 babe 3700 91be
00000210: 1018 853d f8d2 7e3e 1ef3 383d 618e e7be
00000220: 88cb 95be 5dcc 7a3d 87b4 7a3e db45 033e
00000230: 232d 33be c08b acbe 4615 45bd 9d80 ba3d
00000240: 9e2f 1d3e 8e00 ccbd 0509 00be f5ff 4a3b
00000250: c1d1 283e 5494 743e 1f97 353d 0f3b 0a3d
00000260: 77de fd3d 0124 0e3e 9d0a 563e 6225 23be
00000270: dc41 7abd 3fc3 c7bb 4e92 943d a8c8 393d
00000280: 075a 91bc 23e0 7ebc b9ff 263e 16fb a6bc
00000290: b0a9 37be f8df 96bd 2c89 34bb 031e 4ebd
000002a0: b4fa c9bd 8f1f e33c 7a9f 88bd 1a14 be3d
000002b0: ca76 d93c c4ad 20bd 6ad4 ab3c 5151 dbbd
000002c0: 860f ea39 587c 8b3d 9bf1 873d fdc7 1dbd
000002d0: 7549 c83d 17a2 0f3e c2d5 0c3e c19c 4c3e
000002e0: f89e 60bd 29fc 44bc 722e ff3c 3817 d8bc
000002f0: 9f66 cdbd d5cf b0bd d1ae b9bd a63d b73c
00000300: fd1a 2e3c 0356 e9bc 0b9d 283e 64a9 aebd
00000310: a303 6a3b c9f4 193e 3a17 ac3c 1a2f 683d
00000320: 4565 6a3e 7c99 e43d 338b b63d 75fc c0bd
00000330: 3d28 2a3e c780 cdbd 7999 ad3d a641 c13d
00000340: af06 383d 8b39 e43d 98c9 60be e632 703e
00000350: c82c 073e 681c 5b3e 148e 87bb 136e e3bd
00000360: 7307 af3d e580 8e3c fa21 c33c 2337 d5bc
00000370: 34ee aebd d519 f63d 214d 193e 114d a6bd
00000380: 24f3 3e3c 63a8 58be 16f2 5cbe 3879 b2bd
00000390: 582c c73d b390 d13d 6ef8 f8be d0a8 e5be
000003a0: 1b5e 57be 7894 d43d 10de 4a3e 3e41 b9be
000003b0: e62e c0be 4a70 12bd 5a7e 38bd 7a67 1a3d
000003c0: 0839 f6be b177 dabe c51b a8bd f476 483c
000003d0: fdce 903d 0fb9 bebe 5eee 0abd 143b e43d
000003e0: 4ffd a83d cb44 af3e fa52 bbbd ae4a 203e
000003f0: d927 d63d 8bfb c8bc 68c6 db3c 4c2c b4bb

module.residual_layers.0.1.bn1.weight f4 [16]
0.89716613 0.7746685 0.7818488 0.6790902 0.8545937 0.7560024 0.81620836 0.9767677
0.7861039 0.95968837 0.9637103 0.8441184 0.86375445 0.80353844 0.7207688 0.8453096
00000000: aeac 653f ad50 463f 3e27 483f dbd8 2d3f
00000010: a7c6 5a3f 6089 413f 08f3 503f 730d 7a3f
00000020: 1b3e 493f 23ae 753f b8b5 763f 2518 583f
00000030: 031f 5d3f b2b4 4d3f 4e84 383f 3666 583f

module.residual_layers.0.1.bn1.bias f4 [16]
-0.3913976 -0.31403983 -0.5793744 0.14239082 -0.40947676 -0.01205619 -0.5830036 -0.5702782
-0.35707858 -0.6165754 -0.6387632 -0.4135105 -0.65315217 -0.34955934 -0.14968024 -0.25988245
00000000: 4465 c8be d4c9 a0be e151 14bf e6ce 113e
00000010: f0a6 d1be 5387 45bc b93f 15bf c1fd 11bf
00000020: 01d3 b6be e3d7 1dbf fc85 23bf a6b7 d3be
00000030: fb34 27bf 71f9 b2be c745 19be 500f 85be

module.residual_layers.0.1.bn1.running_mean f4 [16]
-1.1607692 -0.42343116 -1.6966311 0.47477293 -1.8758717 -0.65540206 -1.7339221 -2.0251133
-0.8465294 -2.228315 -1.8337835 -2.0851548 -0.19977543 -1.0638722 -2.5490994 -2.034505
00000000: 1694 94bf f8cb d8be 352b d9bf 7015 f33e
00000010: 901c f0bf 6ec8 27bf 29f1 ddbf 759b 01c0
00000020: 27b6 58bf b79c 0ec0 6bb9 eabf 2d73 05c0
00000030: ee91 4cbe f72c 88bf 7224 23c0 5435 02c0

module.residual_layers.0.1.bn1.running_var f4 [16]
4.606932 3.5951202 3.7597084 5.1286077 5.1308565 5.065591 3.4753425 4.837293
4.0910654 5.5929966 4.086283 3.8822353 3.553161 4.253353 4.4264374 4.6513786
00000000: fd6b 9340 7316 6640 109f 7040 8e1d a440
00000010: fa2f a440 5219 a240 036c 5e40 1bcb 9a40
00000020: 02ea 8240 d4f9 b240 d5c2 8240 8b76 7840
00000030: fd66 6340 781b 8840 60a5 8d40 18d8 9440

module.residual_layers.0.1.conv2.weight f4 [16, 16, 5, 5]
0.15615192 0.1814647 0.2531253 0.013809756 0.17922421 -0.09466502 0.006901418 0.04568914
-0.2845388 -0.048525173 0.08808222 0.03758318 0.11289475 -0.081765085 0.07712285 -0.014932779
0.15523025 0.043751437 -0.042901166 0.015284669 0.043475185 0.095646076 -0.014587556 -0.16802415
0.07337944 -0.00832288 -0.20997953 -0.09876908 -0.029233208 0.053065024 0.10632174 -0.110813156
0.046939902 0.0107827475 0.012564505 -0.078816995 -0.023997502 -0.01311412 -0.08068529 -0.050539635
-0.104795605 -0.057968583 0.006785639 -0.13112836 -0.12896188 -0.14822675 -0.061261073 0.07099783
-0.03628428 -0.119977824 0.15949117 0.057162646 0.12610306 0.062371567 0.014551524 0.16612962
0.20208226 0.161541 0.02425661 0.2108034 -0.01204015 0.13047525 0.12805603 -0.029135741
0.113527805 -0.0690019 0.071574114 0.048693787 -0.044284243 0.022749897 -0.07577336 -0.09186509
-0.078185804 -0.09801691 -0.2776175 -0.12461057 -0.053151302 -0.26729488 -0.22376423 -0.22741337
0.03914457 0.05769774 0.09931412 -0.028971935 0.0745868 -0.018941084 -0.06026383 0.13469909
-0.051695548 0.025497423 0.04389427 -0.065740965 0.05270033 -0.046637326 0.09246106 0.056581322
0.10925936 0.010061118 -0.0057827723 0.22803025 -0.012299822 -0.041179128 0.07314846 0.13196293
0.18365312 0.01040106 0.071445495 0.20094948 0.16250172 0.24593788 -0.07991331 -0.14630468
0.052444663 -0.010418037 -0.049457263 0.033254627 0.0017760345 0.13863555 0.037826374 0.073123656
-0.053087875 -0.08082578 0.07867064 0.07011774 0.07945018 0.21076262 0.00011107666 0.06807859
0.00052063033 0.018220158 0.0006211589 -0.12373732 -0.048911393 -0.045197375 -0.14825551 0.005039274
-0.20391434 -0.10131942 -0.011254586 -0.08068062 0.068093374 0.018185914 -0.036711928 0.121664
-0.030211756 -0.12355681 -0.042888265 -0.14968821 -0.11761049 -0.29820928 -0.19305092 0.022601822
0.07237374 0.17165552 0.018546594 -0.1473332 0.10294312 0.053990576 -0.0093332585 -0.026503962
-0.06293179 -0.10463128 -0.083935544 -0.023514144 -0.021969927 -0.12954433 -0.14730774 -0.13107179
-0.030935582 -0.048833333 0.015633967 -0.09118133 -0.13635194 0.022745796 -0.09578006 -0.19759771
-0.14156169 -0.122668296 -0.047353763 0.03332075 0.042953413 -0.034333818 -0.19269219 0.10034852
-0.115804404 -0.042033795 -0.03795608 -0.049984004 0.008246135 0.09926926 -0.06422607 -0.05509582
-0.13082722 -0.070402876 -0.05348138 0.14094022 -0.058662344 -0.10585301 -0.061338603 -0.07584405
0.13184592 0.115168944 0.08935115 0.016551316 0.23387912 -0.09365321 0.096403435 0.21338637
0.06278094 0.25883225 0.29839426 -0.086974666 0.12598102 0.0283046 0.022993226 0.018724646
0.0076412805 0.15835387 0.118338205 0.07475614 -0.036804736 0.0052174195 -0.23638114 -0.11350841
-0.22380847 -0.1424105 0.029326018 -0.06712312 0.26738477 0.14162922 0.029521221 -0.08072943
-0.24307197 -0.009213214 0.017577896 -0.012959742 0.13814978 -0.19797412 0.22790186 -0.13755609
-0.013212526 -0.060844705 -0.10977727 -0.00039096942 0.020467497 0.051318884 -0.018971888 -0.042016845
0.033244777 0.08362145 -0.27410966 -0.20034562 0.05611399 -0.004986259 -0.10387656 -0.16130635
00000000: 4ae6 1f3e e2d1 393e a499 813e 5142 623c
00000010: 8d86 373e bcdf c1bd 4a25 e23b 8924 3b3d
00000020: 12af 91be 55c2 46bd 7364 b43d d2f0 193d
00000030: 5d35 e73d 7474 a7bd 96f2 9d3d 9da8 74bc
00000040: aef4 1e3e b534 333d 22b9 2fbd 8c6c 7a3c
00000050: 0913 323d 17e2 c33d a500 6fbc 860e 2cbe
00000060: f647 963d b05c 08bc e004 57be 7247 cabd
00000070: 7b7a efbc b65a 593d 36bf d93d 02f2 e2bd
00000080: 0e44 403d 1faa 303c 5bdb 4d3c ce6a a1bd
00000090: 6996 c4bc 9bdc 56bc 543e a5bd a602 4fbd
000000a0: 149f d6bd 7770 6dbd 115a de3b 8346 06be
000000b0: 950e 04be c1c8 17be e4ec 7abd 4f67 913d
000000c0: d39e 14bd efb6 f5bd a751 233e 6123 6a3d
000000d0: 2921 013e 5479 7f3d 8469 6e3c e21d 2a3e
000000e0: a7ee 4e3e 016b 253e ccb5 c63c d9dc 573e
000000f0: 0d44 45bc 4e9b 053e 1f21 033e 14ae eebc
00000100: 4481 e83d de50 8dbd 7395 923d 2373 473d
00000110: 6563 35bd fe5d ba3c 102f 9bbd c423 bcbd
00000120: e11f a0bd 17bd c8bd e223 8ebe d433 ffbd
00000130: 2eb5 59bd e0da 88be 7322 65be 0ddf 68be
00000140: 0e56 203d 7754 6c3d 3465 cb3d 8d56 edbc
00000150: f7c0 983d 552a 9bbc 35d7 76bd 8fee 093e
00000160: b6be 53bd f9df d03c 7aca 333d 33a3 86bd
00000170: 4ddc 573d c806 3fbd 395c bd3d d1c1 673d
00000180: 5fc3 df3d 63d7 243c 697d bdbb c380 693e
00000190: 3185 49bc 72ab 28bd dcce 953d 4a21 073e
000001a0: 900f 3c3e 3569 2a3c 0452 923d b3c5 4d3e
000001b0: da66 263e 24d7 7b3e 97a9 a3bd e5d0 15be
000001c0: 37d0 563d 6ab0 2abc b393 4abd 0136 083d
000001d0: d4c9 e83a 7af6 0d3e d4ef 1a3d dbc1 953d
000001e0: ac72 59bd fd87 a5bd 131e a13d e499 8f3d
000001f0: c7b6 a23d 28d2 573e d4f1 e838 ca6c 8b3d
00000200: e97a 083a 7142 953c 45d5 223a fe69 fdbd
00000210: 5057 48bd e220 39bd 4bd0 17be 7f20 a53b
00000220: ecce 50be 8e80 cfbd 2865 38bc e23b a5bd
00000230: 8a74 8b3d a0fa 943c 3f5f 16bd fa2a f93d
00000240: a57e f7bc 5a0b fdbd 9bab 2fbd de47 19be
00000250: c5dd f0bd e3ae 98be 24af 45be 7527 b93c
00000260: af38 943d 77c6 2f3e 07ef 973c 84de 16be
00000270: d8d3 d23d 3925 5d3d 86ea 18bc d61e d9bc
00000280: 62e2 80bd ed48 d6bd 66e6 abbd bca0 c0bc
00000290: 47fa b3bc 45a7 04be d7d7 16be af37 06be
000002a0: 9e6c fdbc 7605 48bd ce12 803c 47bd babd
000002b0: d89f 0bbe 6455 ba3c 5628 c4bd 0e57 4abe
000002c0: 8cf5 10be 8439 fbbd 05f6 41bd 577b 083d
000002d0: ebef 2f3d 9ea1 0cbd 1a51 45be 8683 cd3d
000002e0: dc2a edbd a12b 2cbd d677 1bbd 07bc 4cbd
000002f0: cc1a 073c af4d cb3d f588 83bd 28ac 61bd
00000300: 92f7 05be 622f 90bd 4b0f 5bbd a252 103e
00000310: ed47 70bd 77c9 d8bd 303e 7bbd 2054 9bbd
00000320: 9e02 073e b2dd eb3d bcfd b63d a096 873c
00000330: 027e 6f3e 41cd bfbd 2a6f c53d f581 5a3e
00000340: 4b93 803d a985 843e 22c7 983e c61f b2bd
00000350: 2b01 013e 0cdf e73c 4a5c bc3c 6e64 993c
00000360: b563 fa3b 8427 223e 4d5b f23d bf19 993d
00000370: 90c0 16bd e3f6 aa3b e60d 72be 1977 e8bd
00000380: 0c2e 65be 0fd4 11be 1e3d f03c d977 89bd
00000390: a8e6 883e 4007 113e 7dd6 f13c 7955 a5bd
000003a0: dce7 78be 05f3 16bc 85ff 8f3c 1955 54bc
000003b0: 2377 0d3e bab9 4abe 1b5f 693e 81db 0cbe
000003c0: 5a79 58bc 4c38 79bd e8d2 e0bd 07fb ccb9
000003d0: 74ab a73c c033 523d ef6a 9bbc db19 2cbd
000003e0: ad2b 083d b941 ab3d 1a58 8cbe 6727 4dbe
000003f0: c8d7 653d c663 a3bb 3cbd d4bd 7e2d 25be

module.residual_layers.0.1.bn2.weight f4 [16]
0.9145345 0.8064925 1.1206976 0.8656337 0.53818727 1.1758821 0.8848571 0.7234349
0.7803865 0.98543113 0.6939942 1.0760106 1.0428661 0.79018915 0.9218116 0.98523796
00000000: ef1e 6a3f 4b76 4e3f 0573 8f3f 2c9a 5d3f
00000010: a4c6 093f 4e83 963f ff85 623f 0833 393f
00000020: 69c7 473f 3745 7c3f 9ba9 313f b7ba 893f
00000030: a37c 853f d649 4a3f d8fb 6b3f 8e38 7c3f

module.residual_layers.0.1.bn2.bias f4 [16]
-0.6756624 -0.24739924 -0.30849513 -0.12195752 -0.3209745 -0.3542439 -0.4534826 -0.13504422
0.10218692 -0.43643838 0.081884295 -0.42188245 -0.47159776 0.07567767 -0.79847825 -0.5198964
00000000: 36f8 2cbf 3a56 7dbe 13f3 9dbe ddc4 f9bd
00000010: c556 a4be 755f b5be df2e e8be 0849 0abe
00000020: 6047 d13d da74 dfbe f4b2 a73d fa00 d8be
00000030: 4375 f1be e5fc 9a3d 1269 4cbf ee17 05bf

module.residual_layers.0.1.bn2.running_mean f4 [16]
-0.077137396 -0.83318526 -2.1302896 -0.47621584 0.5586276 -1.8396295 -0.98728424 -1.8529292
-0.83258784 -1.1283113 0.22054893 0.40160808 -1.436914 -0.8624277 -1.6545117 -0.9180986
00000000: 36fa 9dbd a14b 55bf aa56 08c0 90d2 f3be
00000010: 3802 0f3f fb78 ebbf a9be 7cbf c92c edbf
00000020: 7a24 55bf 816c 90bf 94d7 613e 939f cd3e
00000030: ccec b7bf 10c8 5cbf 0ac7 d3bf 8308 6bbf

module.residual_layers.0.1.bn2.running_var f4 [16]
1.3542799 1.6394223 2.0402827 2.2446089 1.1230444 2.7029843 1.3883284 1.9292985
1.5525075 1.6744848 1.3911732 2.0224595 1.613344 1.7748816 1.1929976 1.617939
00000000: 0b59 ad3f 97d8 d13f fe93 0240 aca7 0f40
00000010: ebbf 8f3f b2fd 2c40 bfb4 b13f 41f3 f63f
00000020: 91b8 c63f 8555 d63f f711 b23f fa6f 0140
00000030: 0e82 ce3f 522f e33f 25b4 983f a018 cf3f

module.residual_layers.1.0.conv1.weight f4 [32, 16, 5, 5]
-0.053970516 -0.07599036 0.012770426 -0.0219238 -0.23803508 0.055037983 0.019378029 0.07514784
-0.1624463 -0.047310468 -0.00371184 0.08109458 0.123094015 -0.02415728 0.07236539 0.10899846
-0.07665557 0.096281454 -0.07243757 -0.047625124 0.036009602 -0.042859763 0.042805772 0.03693119
-5.0574306e-07 -0.19092424 0.12647156 0.10472242 0.12689409 0.19816484 0.14413764 0.11085067
-0.023353668 -0.03578531 -0.18866237 -0.22795556 -0.135551 0.017592154 -0.091740295 0.07909583
0.08302344 0.034516778 -0.06098487 -0.16225931 -0.13204598 -0.25459936 0.22310501 -0.19589135
-0.1711171 -0.27454337 -0.19892162 -0.15703326 -0.17310375 -0.013609522 0.16883162 -0.246527
0.017324468 -0.12216805 -0.12082426 -0.15929759 -0.05792318 0.042008463 -0.13243711 -0.11867175
0.07211119 0.13751358 0.09823989 -0.019865187 0.010809725 0.04635312 0.19263695 -0.042018633
-0.025562048 -0.09356437 0.013944407 0.09562545 0.024900502 -0.15913434 -0.11006501 0.08578379
0.0649442 -0.058551118 0.0014324884 0.1433538 0.19779846 -0.03262446 0.032466345 -0.09959165
-0.18033028 0.121694684 -0.037672058 -0.20255393 -0.010594621 -0.069220684 0.03576841 -0.13297223
-0.1325645 -0.1800562 -0.08187271 -0.0093290415 -0.042052146 -0.058187786 -0.2359778 -0.048304416
-0.13672332 0.026802532 -0.023418864 -0.023441412 -0.043182448 -0.2014607 -0.22477293 0.14837287
0.0076628975 -0.053491514 -0.06342887 -0.053380203 0.12864861 0.09569584 0.123620905 -0.023200244
0.20037074 0.29664272 0.113246806 0.096866965 0.23876496 0.025367754 0.018517807 0.21359582
0.09149559 0.16565204 0.024283642 0.093222715 0.22675614 -0.13921614 0.016420167 0.01600612
-0.021438926 0.1205263 0.045283087 -0.112891555 0.09820671 0.14498803 0.014263882 0.10513379
-0.0916472 0.040413745 0.023045903 -0.056589007 -0.18575434 -0.13021289 0.07568049 -0.027436918
-0.061515246 0.06148433 -0.039238628 0.1013207 0.10092816 -0.038722668 0.027427593 -0.07903556
-0.04832769 0.012528066 0.030960811 -0.08779169 -0.0574975 0.1403948 -0.028633049 -0.06989504
0.027593026 -0.15607876 -0.14385639 -0.3038332 -0.22024406 -0.24847323 -0.28188854 0.14456676
-0.067843646 0.03424848 -0.012448153 0.073026314 -0.10408147 -0.24184267 -0.120030165 -0.04687399
0.027170401 -0.10814643 -0.21488258 -0.08429223 0.077156164 -0.01051135 0.0460691 -0.3075284
0.026368927 -0.0497844 0.16036151 -0.313138 -0.376746 -0.32149628 -0.27053204 -0.16151425
-0.100096785 -0.15404923 -0.2906772 -0.03251631 0.13720427 -0.014991285 0.042901788 -0.05029909
0.0038571388 0.0041609877 -0.0889467 -0.047122836 -0.024553176 -0.0018141312 0.15004809 -0.31466627
-0.18167172 -0.1951246 -0.014571913 -0.019562583 -0.3081676 -0.21632792 -0.18932216 -0.084678
0.049273122 -0.016201133 0.20624538 0.16242191 0.39398977 0.25320983 0.04130581 0.19785123
0.054504056 0.08175846 -0.0422302 -0.062338576 -0.035762772 -0.15139532 -0.069981255 0.025926054
-0.09004205 -0.11088934 -0.10353091 -0.011893925 -0.014253156 0.07088582 0.12953398 -0.04497405
-0.050166737 0.02665069 -0.18644919 -0.3200083 -0.20900874 -0.27018398 -0.25790733 0.03016763
00000000: 3010 5dbd d5a0 9bbd 0d3b 513c 8b99 b3bc
00000010: 78bf 73be 826f 613d acbe 9e3c 1ce7 993d
00000020: 5358 26be 9fc8 41bd 5742 73bb ea14 a63d
00000030: b718 fc3d 7de5 c5bc 4e34 943d 963a df3d
00000040: 98fd 9cbd 362f c53d 265a 94bd 9012 43bd
00000050: ce7e 133d b88d 2fbd 1b55 2f3d 2945 173d
00000060: 66c2 07b5 a581 43be c381 013e b578 d63d
00000070: 86f0 013e b9eb 4a3e d198 133e ad05 e33d
00000080: 3150 bfbc 9e93 12bd b530 41be 2f6d 69be
00000090: e2cd 0abe 6c1d 903c 56e2 bbbd fffc a13d
000000a0: 3108 aa3d 7761 0d3d 45cb 79bd 4e27 26be
000000b0: 1037 07be d95a 82be a475 643e be97 48be
000000c0: 5239 2fbe f390 8cbe 1cb2 4bbe 54cd 20be
000000d0: 1c42 31be 79fa 5ebc 32e2 2c3e 9371 7cbe
000000e0: 0bec 8d3c 3e33 fabd b672 f7bd e81e 23be
000000f0: db40 6dbd 1111 2c3d 989d 07be 2d0a f3bd
00000100: 08af 933d 5cd0 0c3e ff31 c93d 51bc a2bc
00000110: 461b 313c c5dc 3d3d 9f42 453e bb1b 2cbd
00000120: 8067 d1bc ad9e bfbd 1577 643c 47d7 c33d
00000130: 23fc cb3c 1df4 22be c469 e1bd 69af af3d
00000140: 7701 853d 4cd3 6fbd 56c2 bb3a 57cb 123e
00000150: ae8b 4a3e 3aa1 05bd 6efb 043d b5f6 cbbd
00000160: 80a8 38be 103b f93d 044e 1abd 4c6a 4fbe
00000170: 1095 2dbc 93c3 8dbd e581 123d df29 08be
00000180: fdbe 07be a760 38be e1ac a7bd d6d8 18bc
00000190: df3e 2cbd 5156 6ebd 2aa4 71be dada 45bd
000001a0: 3301 0cbe fc90 db3c ebd8 bfbc 3408 c0bc
000001b0: 14e0 30bd b74b 4ebe e02a 66be 0fef 173e
000001c0: 0b19 fb3b eb19 5bbd ffe6 81bd 33a5 5abd
000001d0: 76bc 033e 2efc c33d f52c fd3d 700e bebc
000001e0: fd2d 4d3e 8ee1 973e f1ed e73d 3062 c63d
000001f0: cd7e 743e 09d0 cf3c a8b2 973c ddb8 5a3e
00000200: 0a62 bb3d b0a0 293e 7dee c63c 8deb be3d
00000210: c332 683e ad8e 0ebe 9683 863c 441f 833c
00000220: b0a0 afbc 7ed6 f63d c27a 393d b033 e7bd
00000230: 9920 c93d be77 143e 0fb3 693c 6250 d73d
00000240: 87b1 bbbd e288 253d c3ca bc3c e0c9 67bd
00000250: 6336 3ebe 8756 05be 5ffe 9a3d 63c3 e0bc
00000260: 69f7 7bbd fed6 7b3d afb8 20bd 3a81 cf3d
00000270: 6cb3 ce3d a99b 1ebd d5af e03c 65dd a1bd
00000280: 42f3 45bd 8442 4d3c 87a1 fd3c 21cc b3bd
00000290: 8082 6bbd a8c3 0f3e db8f eabc 2125 8fbd
000002a0: c50a e23c 1cd3 1fbe 174f 13be 0690 9bbe
000002b0: a987 61be c46f 7ebe b253 90be 4f09 143e
000002c0: 9cf1 8abd 2248 0c3d 57f3 4bbc d28e 953d
000002d0: aa28 d5bd 9ba5 77be 60d2 f5bd f1fe 3fbd
000002e0: 7694 de3c e07b ddbd 2e0a 5cbe 68a1 acbd
000002f0: 0d04 9e3d cc37 2cbc f4b2 3c3d 5d74 9dbe
00000300: a603 d83c baea 4bbd cf35 243e a053 a0be
00000310: dae4 c0be 299b a4be 2d83 8abe fe63 25be
00000320: 8bff ccbd 15bf 1dbe a4d3 94be d32f 05bd
00000330: 477f 0c3e 029e 75bc c9b9 2f3d 6b06 4ebd
00000340: 0dc8 7c3b e558 883b b029 b6bd e003 41bd
00000350: be23 c9bc 24c8 edba 35a6 193e f01b a1be
00000360: 2708 3abe bece 47be 08bf 6ebc b641 a0bc
00000370: 25c8 9dbe 1185 5dbe abdd 41be a96b adbd
00000380: 9dd2 493d 3db8 84bc fd31 533e ee51 263e
00000390: 07b9 c93e b8a4 813e 4830 293d 8399 4a3e
000003a0: a53f 5f3d fb70 a73d 93f9 2cbd bc56 7fbd
000003b0: fc7b 12bd 6007 1bbe 5552 8fbd e062 d43c
000003c0: f767 b8bd f319 e3bd 0408 d4bd bdde 42bc
000003d0: 1286 69bc 962c 913d 8ea4 043e b636 38bd
000003e0: a37b 4dbd 8c52 da3c 89ec 3ebe 21d8 a3be
000003f0: 6306 56be 8e55 8abe 6e0c 84be 1b22 f73c

module.residual_layers.1.0.bn1.weight f4 [32]
0.82508993 0.8228637 0.7163024 0.75816345 0.7021493 0.62566507 0.73665774 0.81290615
0.7806899 0.7097952 0.8235355 0.74365515 0.586431 0.7104779 0.68474317 0.7644136
0.648318 0.7606355 0.74961776 0.76541173 0.67847484 0.846244 0.4817075 0.6543096
0.78855425 0.66695446 0.7447428 0.6787569 0.7528625 0.8060335 0.453208 0.7970359
00000000: 1839 533f 32a7 523f 985f 373f 0017 423f
00000010: 0ec0 333f 962b 203f 9a95 3c3f 9e1a 503f
00000020: 4bdb 473f 23b5 353f 39d3 523f 2f60 3e3f
00000030: 5820 163f e1e1 353f 544b 2f3f 9cb0 433f
00000040: 2bf8 253f 02b9 423f f3e6 3f3f 06f2 433f
00000050: 87b0 2d3f 72a3 583f 5ea2 f63e d580 273f
00000060: b1de 493f 87bd 2a3f 77a7 3e3f 03c3 2d3f
00000070: 99bb 403f 3658 4e3f e10a e83e 8b0a 4c3f

module.residual_layers.1.0.bn1.bias f4 [32]
-1.1167492 -1.3018814 -0.75626284 -0.648669 -0.7808404 -0.681723 -0.7051579 -1.034401
-0.77793866 -0.71058196 -1.389755 -0.8629312 -0.65207225 -0.678058 -0.7987325 -0.5125681
-0.8017129 -0.78994775 -1.0201873 -0.8186028 -0.87210155 -0.86615664 -0.35272318 -0.76062465
-0.77345604 -0.73174775 -0.6622775 -0.6323208 -0.806175 -0.8308414 -0.3304679 -1.0809566
00000000: a3f1 8ebf 0da4 a6bf 719a 41bf 2c0f 26bf
00000010: 28e5 47bf 6685 2ebf 3a85 34bf 4167 84bf
00000020: fd26 47bf b3e8 35bf 7ee3 b1bf 0fe9 5cbf
00000030: 35ee 26bf 3695 2dbf bc79 4cbf aa37 03bf
00000040: 0e3d 4dbf 043a 4abf 7f95 82bf f48f 51bf
00000050: 0c42 5fbf 71bc 5dbf 2298 b4be 4cb8 42bf
00000060: 3701 46bf d253 3bbf 058b 29bf c7df 21bf
00000070: 7c61 4ebf 06b2 54bf 1733 a9be c95c 8abf

module.residual_layers.1.0.bn1.running_mean f4 [32]
-4.228227 -3.630173 -3.999566 -1.5676669 -1.4177788 -2.6848445 -2.6854892 -4.8777637
-2.833068 -3.646501 -1.771322 -2.3206458 -2.727015 -4.684974 -1.485913 -3.0605834
-1.2597687 -3.0203326 -3.3147738 -4.613161 -2.7298083 -4.2682953 -1.0772702 0.0358034
-4.569659 -2.4964576 -3.493388 -1.3105339 -3.314206 -3.7610755 -0.89971113 -4.1074934
00000000: a34d 87c0 c154 68c0 e4f8 7fc0 4fa9 c8bf
00000010: c779 b5bf 7ed4 2bc0 0edf 2bc0 a416 9cc0
00000020: fc50 35c0 4660 69c0 aeba e2bf 7685 14c0
00000030: 6a87 2ec0 4feb 95c0 6632 bebf 99e0 43c0
00000040: 1a40 a1bf 214d 41c0 4125 54c0 049f 93c0
00000050: 2eb5 2ec0 e095 88c0 fde3 89bf 96a6 123d
00000060: a63a 92c0 f6c5 1fc0 ab93 5fc0 93bf a7bf
00000070: f31b 54c0 76b5 70c0 7853 66bf 9670 83c0

module.residual_layers.1.0.bn1.running_var f4 [32]
5.5272985 5.336792 3.831425 3.3294818 3.8740463 3.807149 3.87846 4.7452426
4.182199 4.235222 3.7940924 3.504448 3.5422451 4.2914944 3.9969914 4.0397124
4.073882 3.5236926 4.477292 3.9377925 3.785004 3.7980337 3.1553428 3.3025756
4.0348463 3.1833625 3.4568062 3.2579613 5.1795335 3.6246727 2.7862074 3.8966348
00000000: a1df b040 00c7 aa40 1136 7540 3b16 5540
00000010: 60f0 7740 54a8 7340 b038 7840 07d9 9740
00000020: 93d4 8540 f086 8740 69d2 7240 e048 6040
00000030: 25b4 6240 ec53 8940 b5ce 7f40 5345 8140
00000040: 3e5d 8240 2e84 6140 fa45 8f40 cb04 7c40
00000050: 813d 7240 fc12 7340 23f1 4940 665d 5340
00000060: 761d 8140 36bc 4b40 503c 5d40 7082 5040
00000070: bdbe a540 a3fa 6740 3951 3240 7762 7940
