summaries/vanilla_ResNet2_num_blocks1x1_num_channels16_conv7/ckpt.pth (torch, 422323 bytes, 32 tensors)

module.conv1.weight f4 [16, 3, 3, 3]
0.25981095 -0.2049594 0.28212154 1.1091785 -0.6712723 -0.32232556 0.322582 -0.43304434
-0.12094924 0.24997604 -0.54172754 0.0007260142 1.1576134 -0.8643096 -0.42244422 0.34633714
-0.42003918 0.058985505 0.292238 -0.33236313 -0.051976733 1.1700505 -0.6446108 -0.43028724
0.40970403 -0.24450326 0.08031841 0.3211757 0.73062736 0.089149445 -0.1673853 0.46405154
-0.3932942 -0.621119 -0.34451985 -0.4728459 -0.042786494 0.5506062 -0.09268 -0.26943463
0.52927136 -0.34310317 -0.32365534 0.10536473 -0.06865596 -0.3461832 0.101669244 -0.4818196
-0.26412436 0.47572732 -0.38251778 0.15364358 0.60966736 0.3434721 -0.05598349 -0.0547474
-0.08920149 -0.02695999 -0.001663263 -0.111855716 -0.011049785 0.033493795 -0.06992508 -0.08923557
-0.10699879 -0.18969537 -0.057214003 -0.034730207 -0.20889461 -0.040445704 0.02125208 -0.14641237
0.2173983 0.17721741 -0.09704507 0.3349036 0.36136472 0.010608752 0.3598797 0.44602832
0.12685022 0.2393866 -0.0861795 0.18833093 -0.75308883 -1.3712474 0.54563504 -0.23697755
1.5782328 -0.32975557 0.79646367 0.06027474 0.14006576 -0.49721572 -1.1616124 0.31223828
-0.19645907 1.5672404 -0.86024725 0.596761 -0.05380707 -0.04854198 -0.19307686 -1.1744881
0.25908056 0.14101774 1.3986282 -0.7674925 0.019716408 -0.003813419 -0.07749654 0.12327155
0.1904811 0.08670765 0.062031142 0.23354442 0.19209845 -0.026762018 -0.06427982 -0.26151106
0.062830634 0.105857976 -0.15396169 0.022739232 0.18155797 -0.0026196125 0.16169588 0.08391019
-0.31884867 0.3017347 0.30108193 -0.16065137 0.17391975 0.29634663 -0.056048658 0.20026836
0.33397847 0.24997552 0.21499367 0.21993434 0.23291849 -0.17032738 -0.21048515 -0.17236127
-0.1579751 -0.19022575 -0.20789917 -0.036970846 -0.15194361 -0.059758816 -0.25715604 -0.34331086
-0.20867737 -0.005939885 0.007068146 0.012306547 -0.012535384 -0.045768302 0.084416546 -0.25144303
-0.25780043 -0.08468136 -0.06982592 1.0393033 0.025134303 -0.15044147 -0.9271112 -0.034628794
0.18925822 -0.47229058 0.1492974 0.043955028 1.2687246 0.23815392 -0.30630884 -1.0568873
-0.23097357 0.14459328 -0.4339965 -0.022224436 -0.11064042 1.1023943 0.093216024 -0.21444678
-0.77144593 -0.06927717 0.33368447 -0.204168 0.03481529 0.18681984 0.24873959 -0.58207035
-0.13691965 -0.893733 1.1297847 0.41136736 -0.8705604 0.59297013 0.041230924 0.083976224
-0.19758771 -0.47784412 -1.165493 1.5469428 0.09921732 -1.0581161 0.97964644 0.08298795
0.22971418 -0.39930305 -0.29435748 -0.8781792 1.246039 0.20310968 -0.97487384 0.7674829
-0.033129957 -0.39743453 -0.30842742 -0.3030881 -0.5786999 -0.46398067 -0.4602302 -0.71054196
-0.5557355 0.1801689 0.13550326 0.0342518 0.122942865 0.21090661 0.12464821 -0.23075783
-0.13742118 -0.12307931 0.23394695 0.43629298 0.1235199 0.44024777 0.8041177 0.5048593
0.0291634 0.39138755 0.21245559 -0.72495395 -0.9308359 -0.9114309 0.13872819 0.104454786
-0.206026 0.8002844 1.0557303 0.6035557 0.25612104 0.19365017 0.03355106 0.08479713
00000000: f105 853e e1e0 51be 3c72 903e 90f9 8d3f
00000010: 80d8 2bbf db07 a5be 7829 a53e fdb7 ddbe
00000020: 3cb4 f7bd b8f9 7f3e a8ae 0abf fd51 3e3a
00000030: ad2c 943f 6543 5dbf 9c4a d8be 1a53 b13e
00000040: 600f d7be c99a 713d 38a0 953e 802b aabe
00000050: 8ee5 54bd 37c4 953f 3705 25bf 9c4e dcbe
00000060: bac4 d13e 105f 7abe fb7d a43d 2471 a43e
00000070: 650a 3b3f fc93 b63d 0d67 2bbe 2a98 ed3e
00000080: db5d c9be a801 1fbf e864 b0be dc18 f2be
00000090: e440 2fbd 87f4 0c3f 03cf bdbd 56f3 89be
000000a0: 547e 073f 38ab afbe 27b6 a5be 77c9 d73d
000000b0: 7f9b 8cbd ed3e b1be f737 d03d 0fb1 f6be
000000c0: 4f3b 87be 8892 f33e 5fd9 c3be be54 1d3e
000000d0: 2913 1c3f 93db af3e f24e 65bd cf3e 60bd
000000e0: 45af b6bd 32db dcbc d801 daba 9c14 e5bd
000000f0: 280a 35bc ca30 093d e134 8fbd 23c1 b6bd
00000100: 2e22 dbbd 813f 42be 3b59 6abd 4341 0ebd
00000110: 78e8 55be 65aa 25bd d818 ae3c 20ed 15be
00000120: a99d 5e3e 7b78 353e 91bf c6bd 7c78 ab3e
00000130: cc04 b93e 55d0 2d3c 2742 b83e d35d e43e
00000140: 06e5 013e c321 753e e17e b0bd d3d9 403e
00000150: 6eca 40bf 0985 afbf bdae 0b3f 3eaa 72be
00000160: 8803 ca3f b9d5 a8be 0be5 4b3f a5e2 763d
00000170: 666d 0f3e 0f93 febe b7af 94bf b2dd 9f3e
00000180: 912c 49be 559b c83f 2a39 5cbf 54c5 183f
00000190: cd64 5cbd f5d3 46bd f1b5 45be a055 96bf
000001a0: 35a6 843e f466 103e 4006 b33f 637a 44bf
000001b0: 4e84 a13c 8eea 79bb 82b6 9ebd cb75 fc3d
000001c0: 7a0d 433e c893 b13d 5e14 7e3d 4526 6f3e
000001d0: 75b5 443e 053c dbbc 23a5 83bd c7e4 85be
000001e0: 59ad 803d 11cc d83d 22a8 1dbe a047 ba3c
000001f0: 55ea 393e cead 2bbb 9b93 253e 1bd9 ab3d
00000200: 2240 a3be f87c 9a3e 6927 9a3e cb81 24be
00000210: 0518 323e bfba 973e 4793 65bd 2613 4d3e
00000220: 3aff aa3e 95f9 7f3e 4d27 5c3e 7836 613e
00000230: 2f82 6e3e 4d6a 2ebe 6b89 57be 797f 30be
00000240: 3ac4 21be 8aca 42be 85e3 54be be6e 17bd
00000250: 1b97 1bbe a9c5 74bd f5a9 83be 71c6 afbe
00000260: 85af 55be 5ea3 c2bb e89b e73b 66a1 493c
00000270: 3661 4dbc 8b77 3bbd 95e2 ac3d 24bd 80be
00000280: 6bfe 83be 6c6d adbd e400 8fbd e407 853f
00000290: 74e6 cd3c 540d 1abe 2957 6dbf ecd6 0dbd
000002a0: e8cc 413e 12d0 f1be 6be1 183e 300a 343d
000002b0: 9165 a23f 9fde 733e 83d4 9cbe 1548 87bf
000002c0: 5684 6cbe 4310 143e ca34 debe 0510 b6bc
000002d0: 7297 e2bd 421b 8d3f 0be8 be3d f097 5bbe
000002e0: 7b7d 45bf 30e1 8dbd b1d8 aa3e 6b11 51be
000002f0: 7a9a 0e3d b34d 3f3e 97b5 7e3e 9002 15bf
00000300: aa34 0cbe b0cb 64bf c99c 903f be9e d23e
00000310: 0cdd 5ebf e4cc 173f c2e1 283d bafb ab3d
00000320: 6f54 4abe fca7 f4be e02e 95bf 3902 c63f
00000330: 7332 cb3d 5970 87bf 1cca 7a3f 96f5 a93d
00000340: 323a 6b3e 7371 ccbe 06b6 96be 5ad0 60bf
00000350: 357e 9f3f fcfb 4f3e 5591 79bf c279 443f
00000360: 47b3 07bd 8a7c cbbe 33ea 9dbe 5d2e 9bbe
00000370: ad25 14bf e08e edbe 4ba3 ebbe 14e6 35bf
00000380: af44 0ebf 327e 383e 5ec1 0a3e 9e4b 0c3d
00000390: 78c9 fb3d e7f7 573e 9047 ff3d c84b 6cbe
000003a0: 23b8 0cbe 0111 fcbd ca8f 6f3e cb61 df3e
000003b0: 00f8 fc3d 2868 e13e a8da 4d3f 763e 013f
000003c0: 15e8 ee3c f363 c83e f58d 593e 9596 39bf
000003d0: 434b 6ebf 8953 69bf c30e 0e3e 64ec d53d
000003e0: 7bf8 52be 70df 4c3f 2c22 873f a082 1a3f
000003f0: 4c22 833e 3b4c 463e d66c 093d 1eaa ad3d

module.bn1.weight f4 [16]
1.1333035 0.42759445 0.47922114 1.2989944 0.42087427 0.34283486 1.0376924 1.3377106
0.34807608 0.6302893 0.69083416 0.6718967 0.6916554 0.5732639 0.34844467 0.53533655
00000000: 1710 913f a9ed da3e 795c f53e 7345 a63f
00000010: d57c d73e 0d88 af3e 1bd3 843f 1a3a ab3f
00000020: 0737 b23e a45a 213f 82da 303f 6c01 2c3f
00000030: 5410 313f 6cc1 123f 5767 b23e d10b 093f

module.bn1.bias f4 [16]
-0.18631561 0.4392333 -0.38562396 0.81952035 -0.047335345 -0.078738905 -0.12000803 0.5851428
0.22124703 -0.16605444 -0.6916016 -0.36944756 -0.46001673 -0.36487463 0.26675063 0.059606917
00000000: 85c9 3ebe 30e3 e03e 8170 c5be 16cc 513f
00000010: b5e2 41bd dd41 a1bd c5c6 f5bd ebcb 153f
00000020: 958e 623e 2d0a 2abe cd0c 31bf 3b28 bdbe
00000030: 5087 ebbe d9d0 babe 8a93 883e 6226 743d

module.bn1.running_mean f4 [16]
-0.10878652 -0.008533186 0.29942688 -0.03217718 0.63348943 -0.5151806 -0.14093044 -0.097890764
-0.24752024 0.06554816 -0.23738848 0.10841237 -0.9268897 -0.35414428 -0.17648916 -0.09898457
00000000: 78cb debd c7ce 0bbc 7b4e 993e 38cc 03bd
00000010: 5d2c 223f e0e2 03bf 1250 10be f47a c8bd
00000020: f275 7dbe 1d3e 863d f715 73be 4e07 de3d
00000030: a548 6dbf 6652 b5be 93b9 34be 6cb8 cabd

module.bn1.running_var f4 [16]
0.46628687 0.112327114 0.10399344 0.17621599 0.14949621 0.1393384 0.2905228 0.42956495
0.34524283 0.049923494 0.07707376 0.07873905 0.28429005 0.09244186 0.21451947 0.10913923
00000000: 27bd ee3e c20b e63d 83fa d43d f771 343e
00000010: 8915 193e baae 0e3e 68bf 943e f0ef db3e
00000020: abc3 b03e 947c 4c3d d9d8 9d3d f041 a13d
00000030: 778e 913e 2852 bd3d feaa 5b3e 6384 df3d

module.residual_layers.0.0.conv1.weight f4 [16, 16, 7, 7]
-0.04969415 0.019811712 0.05257358 0.06946349 -0.19468407 -0.3613545 0.021196432 0.10985205
0.0048503033 0.023388868 0.11606336 0.023517704 -0.35687694 -0.0802393 0.08726718 -0.05575475
-0.05272854 0.03092047 0.48932537 -0.10904798 -0.25608903 -0.07848949 -0.11880445 -0.06193453
-0.28139943 0.044818923 0.58087516 -0.106887594 -0.060055166 -0.105370015 -0.026530445 -0.08448068
-0.5058724 0.08874532 0.19472286 -0.030771257 0.015353629 -0.13549401 0.05041844 -0.10707486
-0.22663006 0.041731 -0.1543161 0.011595063 -0.07712974 0.017858991 0.13374181 0.007585561
-0.060399123 -0.06476652 0.058444597 0.063266054 -0.116406105 -0.08466772 0.18845926 0.1528649
-0.048974697 -0.016089443 0.08801765 -0.030016905 -0.16311178 0.08777767 0.15595308 0.007853309
0.07118574 0.06628983 0.12927447 -0.18752232 -0.15681824 0.3477786 -0.037415765 0.064003326
0.0077022356 0.0590344 0.08582258 -0.37465715 0.15195718 -0.028010828 0.04600249 0.036700245
-0.07759001 0.27639154 -0.14655937 -0.15967366 0.043676704 0.08557454 0.029271917 -0.07997928
0.10550171 0.0702931 -0.09486193 0.025543094 0.06795072 -0.033892777 -0.0922825 -0.02784931
-0.01690258 -0.03443592 0.008767941 0.0100797415 0.06630108 -0.0052471105 -0.024949294 0.015857674
0.027823651 -7.593637e-05 -0.00940701 0.02388969 -0.017139712 -0.045231417 -0.018204462 0.0042158393
-0.00059313106 -0.005109799 -0.01509479 -0.04092644 -0.020899141 -0.051382665 -0.052760355 0.0074312426
0.027305724 0.02410345 -0.02462129 0.03135407 -0.04826137 -0.07553623 0.01787703 0.023882244
0.069785066 0.003047366 0.023791429 -0.03370889 -0.07700176 0.028672133 0.015202268 0.07615412
0.050073814 0.02841215 -0.0028703208 -0.036957845 0.030148739 0.047581024 0.091817655 0.082296655
0.04876749 0.017727546 0.046084423 0.07052626 0.049333047 0.056152485 -0.1330854 -0.264653
0.14765295 0.034848385 -0.04426017 -0.00574128 -0.03944332 0.6635589 -0.07181767 -0.9112829
-0.07418645 -0.12195364 -0.10166158 -0.350433 -0.3201876 1.3060676 -0.16250135 -0.44481218
0.10937943 -0.07086396 0.108931504 -0.698114 -0.37071294 0.5712868 0.02135766 0.09315178
-0.0035186869 -0.11577669 0.28813016 -0.22702184 -0.20607989 -0.14633377 -0.009347622 0.07931622
-0.02939272 -0.18060707 0.019229922 0.011095058 0.18197303 -0.054524414 0.021359257 0.014005856
0.004750566 0.101900175 -0.119773544 0.15514241 0.01174318 -0.0084500685 0.001861174 -0.074151985
-0.093967974 -0.052967105 -0.057948083 0.029078012 -0.0074034296 0.0039788876 -0.034565832 -0.07050112
-0.04502176 -0.05326926 0.033282734 -0.021720162 -0.03354979 0.002669057 0.012923638 -0.045102563
-0.07478402 0.03333694 -0.008200956 -0.046076287 -0.028716872 0.07666043 -0.016900923 -0.07083217
0.019382775 -0.014172613 -0.030402878 -0.088741556 0.004595676 -0.025605137 -0.067969635 0.026664626
-0.021386055 -0.003532718 -0.060501497 -0.0509469 -0.06593456 -0.06499444 0.058901604 0.009070812
0.035399582 0.0036665353 -0.0094232485 -0.05377705 -0.0030657041 -0.059841163 0.00815548 -0.0137506975
0.046499368 0.089789055 0.006776165 -0.06655829 -0.04691382 -0.0029146273 -0.061459348 0.00071981666
00000000: 188c 4bbd 2c4c a23c 6557 573d e042 8e3d
00000010: 435b 47be 7503 b9be 24a4 ad3c 1dfa e03d
00000020: 4bef 9e3b 039a bf3c a0b2 ed3d 33a8 c03c
00000030: 93b8 b6be 8154 a4bd 23b9 b23d 185f 64bd
00000040: e2f9 57bd ed4c fd3c db88 fa3e 8c54 dfbd
00000050: 1a1e 83be 19bf a0bd bf4f f3bd 10af 7dbd
00000060: 9613 90be 0c94 373d 3cb4 143f e2e7 dabd
00000070: 68fc 75bd 3ccc d7bd 6056 d9bc 3504 adbd
00000080: db80 01bf 1bc0 b53d 6e65 473e 0114 fcbc
00000090: ca8d 7b3c f1be 0abe 9183 4e3d 104a dbbd
000000a0: b611 68be 20ee 2a3d 0a05 1ebe 38f9 3d3c
000000b0: 32f6 9dbd 054d 923c 9df3 083e 4c90 f83b
000000c0: 1265 77bd 4fa4 84bd 9a63 6f3d a291 813d
000000d0: 5366 eebd 4566 adbd 77fb 403e 9e88 1c3e
000000e0: b199 48bd 02ce 83bc 9942 b43d 03e6 f5bc
000000f0: c606 27be c7c4 b33d 2ab2 1f3e 2aab 003c
00000100: d4c9 913d f6c2 873d 8760 043e da05 40be
00000110: f694 20be 0910 b23e 4641 19bd 2d14 833d
00000120: 0963 fc3b 0ece 713d c0c3 af3d 10d3 bfbe
00000130: aa9a 1b3e f776 e5bc 1b6d 3c3d ff52 163d
00000140: 83e7 9ebd 3183 8d3e a913 16be 7e81 23be
00000150: 58e6 323d b441 af3d a9cb ef3c 2dcc a3bd
00000160: 4811 d83d d4f5 8f3d f946 c2bd c03f d13c
00000170: bf29 8b3d 27d3 0abd 9bfe bcbd 3c24 e4bc
00000180: 4877 8abc ae0c 0dbd 69a7 0f3c 8025 253c
00000190: dcc8 873d f4ef abbb 7662 ccbc f4e7 813c
000001a0: 6dee e33c 0740 9fb8 dc1f 1abc 50b4 c33c
000001b0: 9568 8cbc 9444 39bd 8621 95bc 0625 8a3b
000001c0: 5a7c 1bba 1a70 a7bb 2350 77bc 7ca2 27bd
000001d0: ad34 abbc a176 52bd 3e1b 58bd c881 f33b
000001e0: 41b0 df3c 9974 c53c 96b2 c9bc 206d 003d
000001f0: b7ad 45bd bdb2 9abd d972 923c b2a4 c33c
00000200: 79eb 8e3d 51b6 473b 3ee6 c23c 5512 0abd
00000210: 19b3 9dbd d2e1 ea3c ef12 793c b1f6 9b3d
00000220: 331a 4d3d 99c0 e83c fe1b 3cbb 1c61 17bd
00000230: 7dfa f63c 52e4 423d e50a bc3d 268b a83d
00000240: 6bc0 473d 5c39 913c 05c3 3c3d 1270 903d
00000250: 7311 4a3d 2600 663d 8a47 08be 9980 87be
00000260: 5632 173e 2ebd 0e3d 274a 35bd 5921 bcbb
00000270: 528f 21bd ffde 293f 2415 93bd d649 69bf
00000280: 11ef 97bd d4c2 f9bd f233 d0bd f46b b3be
00000290: a1ef a3be 392d a73f c166 26be 6cbe e3be
000002a0: 5302 e03d 2021 91bd 7b17 df3d 99b7 32bf
000002b0: 16ce bdbe da3f 123f 42f6 ae3c 5cc6 be3d
000002c0: c599 66bb 541c edbd cc85 933e 6a78 68be
000002d0: 9b06 53be 85d8 15be c526 19bc 8b70 a23d
000002e0: 00c9 f0bc 0ff1 38be 1288 9d3c 0cc8 353c
000002f0: 2357 3a3e fe54 5fbd 9cf9 ae3c d178 653c
00000300: a3aa 9b3b 0ab1 d03d d54b f5bd a7dd 1e3e
00000310: 7866 403c 2872 0abc a3f2 f33a ffdc 97bd
00000320: 4872 c0bd 09f4 58bd f85a 6dbd 0335 ee3c
00000330: 7898 f2bb 5461 823b e794 0dbd e462 90bd
00000340: bd68 38bd de30 5abd 7a53 083d 7bee b1bc
00000350: 816b 09bd 59eb 2e3b abbd 533c 77bd 38bd
00000360: 5d28 99bd 518c 083d 4d5d 06bc 7dba 3cbd
00000370: a53f ebbc 2500 9d3d ce73 8abc 7510 91bd
00000380: a0c8 9e3c 3f34 68bc 750f f9bc 22be b5bd
00000390: 5397 963b ddc1 d1bc aa33 8bbd c66f da3c
000003a0: cf31 afbc 2c85 67bb 6bd0 77bd b2ad 50bd
000003b0: b308 87bd ce1b 85bd cf42 713d be9d 143c
000003c0: 27ff 103d 414a 703b f863 1abc 5345 5cbd
000003d0: fbe9 48bb 021c 75bd 909e 053c 9b4a 61bc
000003e0: 1f76 3e3d 53e3 b73d 980a de3b b64f 88bd
000003f0: b528 40bd 5503 3fbb ccbc 7bbd 14b2 3c3a

module.residual_layers.0.0.bn1.weight f4 [16]
1.4296038 0.9058751 1.060047 0.6085172 0.93194723 1.2661058 0.897575 0.82775843
1.1389629 0.7997298 0.8023279 0.543292 0.95666134 0.8207288 0.8359656 1.113102
00000000: 42fd b63f 6ee7 673f 9faf 873f c9c7 1b3f
00000010: 1894 6e3f c10f a23f 7ac7 653f fae7 533f
00000020: 89c9 913f 18bb 4c3f 5c65 4d3f 2f15 0b3f
00000030: c2e7 743f 481b 523f d701 563f 207a 8e3f

module.residual_layers.0.0.bn1.bias f4 [16]
-0.60982 -0.057132885 0.7593521 -0.14106888 -0.39731616 -0.4652346 -0.60332215 -0.70153224
-0.39633775 0.28673422 -0.44643727 -0.08484892 -0.35493246 -0.41901132 -0.28206384 -0.35244387
00000000: 2a1d 1cbf 2c04 6abd e664 423f 5c74 10be
00000010: 066d cbbe 3b33 eebe 5273 1abf 9e97 33bf
00000020: c8ec cabe d4ce 923e 6d93 e4be 45c5 adbd
00000030: b5b9 b5be a788 d6be ac6a 90be 8673 b4be

module.residual_layers.0.0.bn1.running_mean f4 [16]
-2.810959 -2.1186275 -1.2943772 -2.9556477 0.37425062 -2.1671236 0.5725934 2.6532378
-1.9836375 -2.0621428 -1.7762638 -1.5334638 -3.1665206 -2.8882349 -1.897614 -0.7400715
00000000: c1e6 33c0 9897 07c0 27ae a5bf 5529 3dc0
00000010: c79d bf3e 27b2 0ac0 7b95 123f a6ce 2940
00000020: d5e7 fdbf 26fa 03c0 9d5c e3bf 8b48 c4bf
00000030: 46a8 4ac0 d7d8 38c0 04e5 f2bf 5375 3dbf

module.residual_layers.0.0.bn1.running_var f4 [16]
12.097539 5.2304587 7.4213214 4.5448947 8.347307 6.5028043 4.8822203 3.0041497
12.928258 6.2519016 3.4600697 3.233557 9.769758 5.332068 6.183633 10.471168
00000000: 858f 4141 eb5f a740 777b ed40 c76f 9140
00000010: 928e 0541 f916 d040 263b 9c40 fd43 4040
00000020: 25da 4e41 940f c840 c871 5d40 99f2 4e40
00000030: ee50 1c41 4da0 aa40 52e0 c540 e789 2741

module.residual_layers.0.0.conv2.weight f4 [16, 16, 7, 7]
-0.021955155 0.15448678 0.20523217 0.07875722 -0.030322835 -0.07513089 -0.018435674 0.060690757
-0.14889222 0.12612367 -0.058287654 0.25176197 0.105266444 -0.029292597 -0.14241779 -0.31844467
-0.014010192 0.009927619 0.052722976 0.2215431 -0.024892844 0.04065497 -0.22053666 -0.02790006
0.04438088 0.02128051 0.1158192 0.029031066 0.21387818 0.03488171 0.06260803 0.06080354
0.06701726 0.035833076 0.060728226 0.17024273 0.10180411 0.014611918 0.018339207 -0.034858417
-0.06321594 -0.12887897 0.09062946 0.09320651 0.07570868 -0.0084174285 0.026087008 -0.017975125
-0.17594548 0.0132355215 -0.04036 -0.10031595 -0.1215566 -0.18378344 -0.06304089 -0.23887406
0.029550286 -0.048943702 -0.001092327 0.033025663 -0.1071984 -0.00671613 -0.09732989 -0.077187374
-0.11366135 0.04239773 0.06801503 -0.015356244 0.026624553 -0.11511443 -0.040169418 0.0029526777
0.120438725 0.099423215 0.039913103 0.07673395 -0.09266171 -0.056051355 0.004492041 0.06382954
0.11706621 0.040309336 0.05735609 -0.08588093 0.054290645 0.077007234 0.04537025 0.059517525
0.016482465 0.07638095 -0.063776165 0.0839638 -0.0060553513 -0.03975035 -0.043183897 -0.06444522
-0.0048035085 -0.117167525 0.033542875 -0.09403102 -0.026859006 0.031694036 -0.27671894 0.0011010261
-0.0003009971 0.0173982 -0.08498026 0.031076537 -0.13945924 -0.38654813 0.30308726 -0.08682051
0.14378758 0.024212647 0.066353254 -0.20301111 -0.0859094 0.32693616 0.011205853 0.12326881
-0.030783542 -0.04201888 -0.08062038 0.20647372 -0.08555412 -0.14633517 0.057043318 -0.021349471
-0.10601951 0.07401871 0.0955871 -0.28176877 -0.17440562 -0.13594374 0.106383406 -0.12463545
0.075434975 -0.08953315 -0.17506325 -0.25056088 0.047793325 0.111952566 0.20352098 0.1510593
0.24426891 0.08403467 0.106541365 -0.030911034 -0.08474213 -0.08272152 -0.07657004 -0.09670747
-0.12253754 -0.2634244 0.029501203 0.0038430705 0.01880282 -0.03460383 -0.06775218 -0.04646692
-0.17469864 0.022589067 -0.022985667 0.011685289 -0.027891198 -0.06354832 -0.08461774 -0.13814932
0.053728472 0.037410986 0.044377487 0.027369512 -0.015417241 -0.0663061 -0.11419397 0.0010740088
0.022094373 0.042417217 0.02149997 -0.031221734 -0.044046894 -0.116256475 0.04115014 0.0501817
0.09603802 0.058858793 -0.022995248 -0.027224334 -0.10408126 0.06537898 0.11181926 0.14668357
0.13939913 0.13609675 0.15632331 0.061526477 0.075470105 0.023871671 0.08097028 0.021147557
-0.030504229 -0.105985224 -0.22084086 -0.009968683 -0.025824701 0.08568933 0.046133164 -0.052290052
-0.10768738 -0.2562548 -0.015890472 0.010687878 0.027238056 0.06596276 -0.038564797 -0.14550586
-0.14138173 0.10573422 0.18151791 0.13392183 0.14774996 0.03291321 -0.047560994 -0.013265773
0.033700924 0.12460187 0.09955585 0.10646928 0.043664422 -0.011172717 -0.012931314 -0.090875655
-0.042031456 -0.105805114 -0.04115035 -0.024663787 -0.076841146 -0.15552852 0.02654009 -0.003721024
-0.10868741 -0.019495111 -0.042343322 -0.028045282 -0.14328277 0.21083713 -0.02841312 0.1584813
0.18589076 0.07804312 -0.1498008 -0.006587845 -0.059557676 0.013189855 0.32716742 0.07894152
00000000: 4cdb b3bc c831 1e3e 6228 523e 774b a13d
00000010: 9867 f8bc 39de 99bd 6906 97bc df96 783d
00000020: 3477 18be 9026 013e 09bf 6ebd f2e6 803e
00000030: ef95 d73d 07f7 efbc f8d5 11be 2e0b a3be
00000040: 018b 65bc 74a7 223c 0cf4 573d 32dc 623e
00000050: 14ec cbbc d385 263d 5dd4 61be ab8e e4bc
00000060: bac8 353d 7754 ae3c 9e32 ed3d 8fd2 ed3c
00000070: e202 5b3e 20e0 0e3d a438 803d 220d 793d
00000080: 5840 893d b4c5 123d 29be 783d 1c54 2e3e
00000090: ac7e d03d d366 6f3c 1b3c 963c b3c7 0ebd
000000a0: 5c77 81bd d9f8 03be f09b b93d 0ee3 be3d
000000b0: 270d 9b3d 41e9 09bc 6cb4 d53c 9240 93bc
000000c0: 0d2b 34be cdd9 583c 8750 25bd 7372 cdbd
000000d0: abf2 f8bd ba31 3cbe 951b 81bd 679b 74be
000000e0: 7113 f23c 3179 48bd 692c 8fba eb45 073d
000000f0: d68a dbbd fb12 dcbb e554 c7bd 6a14 9ebd
00000100: 48c7 e8bd 3ea9 2d3d 774b 8b3d c198 7bbc
00000110: bc1b da3c 1dc1 ebbd b088 24bd b681 413b
00000120: 94a8 f63d 669e cb3d ec7b 233d b026 9d3d
00000130: 6cc5 bdbd 1b96 65bd f931 933b 10b9 823d
00000140: 69c0 ef3d 671b 253d 38ee 6a3d 57e2 afbd
00000150: de5f 5e3d f8b5 9d3d 28d6 393d a6c8 733d
00000160: 3c06 873c 9e6d 9c3d 149d 82bd 36f5 ab3d
00000170: f86b c6bb 43d1 22bd 99e1 30bd dbfb 83bd
00000180: c066 9dbb 87f5 efbd 4164 093d 5693 c0bd
00000190: 6b07 dcbc 9bd1 013d 1bae 8dbe 4e50 903a
000001a0: 26cf 9db9 ac86 8e3c 210a aebd 3994 fe3c
000001b0: 67ce 0ebe a3e9 c5be 412e 9b3e f4ce b1bd
000001c0: 0d3d 133e 9a59 c63c 37e4 873d 25e2 4fbe
000001d0: 44f1 afbd 2d64 a73e c198 373c 5c74 fc3d
000001e0: c42d fcbc fd1b 2cbd 4c1c a5bd d96d 533e
000001f0: 0037 afbd e3d8 15be 41a6 693d 16e5 aebc
00000200: c220 d9bd 1f97 973d 2bc3 c33d ff43 90be
00000210: 6397 32be d634 0bbe 8bdf d93d df40 ffbd
00000220: a77d 9a3d 285d b7bd c843 33be 8449 80be
00000230: efc2 433d 6347 e53d ce67 503e 4aaf 1a3e
00000240: a121 7a3e 5e1a ac3d 5c32 da3d 2339 fdbc
00000250: 488d adbd e669 a9bd c1d0 9cbd 910e c6bd
00000260: f6f4 fabd 90df 86be 82ac f13c 06dc 7b3b
00000270: 5f08 9a3c bfbc 0dbd a8c1 8abd 1954 3ebd
00000280: 33e4 32be b50c b93c 704c bcbc a873 3f3c
00000290: 157c e4bc 9f25 82bd 114c adbd 0477 0dbe
000002a0: 6312 5c3d 433c 193d 2bc5 353d 0736 e03c
000002b0: 9898 7cbc 7ecb 87bd 87de e9bd c1c5 8c3a
000002c0: 42ff b43c adbd 2d3d b520 b03c b9c4 ffbc
000002d0: 846a 34bd e017 eebd 0d8d 283d 548b 4d3d
000002e0: 95af c43d eb15 713d 8860 bcbc 9105 dfbc
000002f0: 8e28 d5bd 6ae5 853d 7f01 e53d 3834 163e
00000300: a5be 0e3e f25c 0b3e 3813 203e 3003 7c3d
00000310: 1290 9a3d 868e c33c bfd3 a53d a43d ad3c
00000320: 01e4 f9bc c80e d9bd 1b24 62be b053 23bc
00000330: 538e d3bc e37d af3d 21f6 3c3d 182e 56bd
00000340: 338b dcbd d433 83be bc2c 82bc 361c 2f3c
00000350: 5822 df3c 7c17 873d 1ff6 1dbd 7dff 14be
00000360: 5fc6 10be 2f8b d83d d5df 393e ce22 093e
00000370: c44b 173e 01d0 063d 51cf 42bd af58 59bc
00000380: fb09 0a3d 442f ff3d f0e3 cb3d 910c da3d
00000390: 77d9 323d c60d 37bc dddd 53bc 041d babd
000003a0: 2d29 2cbd 5ab0 d8bd 458d 28bd b60b cabc
000003b0: e45e 9dbd de42 1fbe 9a6a d93c 6cdc 73bb
000003c0: 8197 debd 36b4 9fbc 3170 2dbd 38bf e5bc
000003d0: b8b8 12be b0e5 573e a2c2 e8bc ec48 223e
000003e0: 265a 3e3e 12d5 9f3d 6265 19be d9de d7bb
000003f0: c0f2 73bd 431a 583c 7d82 a73e 17ac a13d

module.residual_layers.0.0.bn2.weight f4 [16]
1.0450906 1.2272958 1.2003553 1.0107158 1.0590823 1.0174962 1.2301074 1.5291681
0.8176614 1.3076082 0.9182956 0.75526243 0.9576278 1.2000536 1.1864773 0.72247845
00000000: 87c5 853f 0718 9d3f 3ea5 993f 235f 813f
00000010: 0290 873f 513d 823f 2974 9d3f c8bb c33f
00000020: 4252 513f b55f a73f 6c15 6b3f e158 413f
00000030: 1827 753f 5b9b 993f 7dde 973f 59f4 383f

module.residual_layers.0.0.bn2.bias f4 [16]
-0.11662473 -0.30141222 -0.40661874 -1.2775254 -0.3236752 0.065335155 -0.65490913 -1.2752208
-0.40407833 -0.2768615 -0.07344674 0.06481751 -0.17197354 -0.15230764 -0.25566852 -0.47650102
00000000: f2d8 eebd b452 9abe 5530 d0be f485 a3bf
00000010: c1b8 a5be 70ce 853d 20a8 27bf 6f3a a3bf
00000020: 5be3 cebe cac0 8dbe 3f6b 96bd 0bbf 843d
00000030: d519 30be 89f6 1bbe fce6 82be f1f7 f3be

module.residual_layers.0.0.bn2.running_mean f4 [16]
-0.7367462 -2.1954868 -0.7608248 -1.0640347 -0.9441156 -1.6908393 -1.3871368 -1.311716
-1.1975029 -1.3212562 -1.8508743 0.8521638 -0.38576177 -1.8627734 -1.2143635 1.4922286
00000000: 669b 3cbf db82 0cc0 6ac5 42bf 4a32 88bf
00000010: 8fb1 71bf 6c6d d8bf b38d b1bf 4fe6 a7bf
00000020: c647 99bf ec1e a9bf 73e9 ecbf 6827 5a3f
00000030: 9182 c5be 5c6f eebf 4370 9bbf 5901 bf3f

module.residual_layers.0.0.bn2.running_var f4 [16]
5.7051864 9.216159 6.0142913 3.6385398 6.6631656 7.663373 6.1972256 13.669247
5.604107 6.445892 5.889379 3.5412827 3.9896703 8.041058 6.15115 4.1474295
00000000: e390 b640 6375 1341 1375 c040 d6dd 6840
00000010: a738 d540 5a3a f540 ac4f c640 3cb5 5a41
00000020: d854 b340 bf44 ce40 cb75 bc40 60a4 6240
00000030: c256 7f40 2ca8 0041 39d6 c440 beb7 8440

module.residual_layers.1.0.conv1.weight f4 [32, 16, 7, 7]
0.010616218 0.06526406 0.14752862 -0.15157668 0.031234214 -0.15408933 0.030504404 0.047365133
0.14564201 0.12289008 -0.02122514 -0.023168344 -0.09127901 -0.009961832 -0.0013782397 -0.020975886
0.05754416 -0.070227385 -0.09628742 0.02342277 0.056683965 -0.035418082 0.10816945 0.06067261
0.060777653 -0.014352502 0.055585776 0.091093324 0.015152338 0.082890324 -0.012760728 0.03340193
0.13054514 -0.045625694 0.16460721 -0.10255992 -0.060098298 -0.08651056 -0.030563181 0.07370983
-0.15231653 0.04231727 -0.053757485 -0.09313387 -0.02147197 -0.03264356 0.08071373 -0.07462999
0.08814544 -0.1583176 -0.14831614 -0.07987355 -0.031207824 -0.0381189 0.08357643 -0.094955795
-0.08548097 -0.17986432 -0.08223062 -0.12479064 -0.039967213 -0.038095597 -0.1095161 -0.04880064
-0.055019364 0.0028049492 -0.053372856 -0.037454676 -0.022690095 -0.077503674 -0.007866634 -0.0881504
-0.004048569 -0.048648935 -0.0017561434 -0.001178245 -0.0097015165 -0.05692727 -0.0058568125 -0.13175094
-0.11208791 -0.14598863 -0.08098075 -0.082448035 -0.09890487 -0.048624743 -0.072128 0.0025094498
-0.016685579 -0.039679863 -0.013129484 -0.10803368 0.04626727 -0.1190507 0.04144341 -0.08235289
-0.009279214 0.065142445 -0.1613618 -0.15981553 -0.08088808 -0.10803724 -0.050042972 -0.06210672
-0.027301496 -0.09993692 -0.13295633 -0.076655716 -0.08614689 -0.06274137 -0.09444687 -0.059448674
0.04897893 -0.099418096 -0.0889629 -0.18455115 -0.06970479 -0.10826712 -0.033592835 0.16676855
0.0516326 -0.034395587 -0.08705144 -0.087911785 -0.09059596 -0.15372871 0.073322296 0.049681794
0.043283716 -0.021023592 -0.07247854 -0.073814385 -0.17230372 0.13739644 0.0564921 0.055543184
0.012869658 -0.044286188 -0.12038919 -0.17428793 0.10025259 0.06525809 0.06064862 0.072890215
0.055877544 0.04347292 -0.041484553 -0.03768654 0.037234247 0.0027957782 0.06263692 0.001690323
0.0069543463 0.03441655 -0.05340198 -0.06823679 -0.006757182 0.10568734 0.03833729 -0.043468837
0.036652695 -0.09568318 0.037809994 -0.008439562 0.06064656 0.03428274 -0.053729866 -0.041945823
-0.04058259 0.06272616 -0.07010954 0.04039502 0.055307806 -0.10107229 0.021340895 0.024347628
-0.008455895 -0.016688691 -0.027053151 0.13569824 -0.054539204 0.009913051 -0.1632138 0.00047861965
0.042774785 0.07101123 -0.020482 -0.007915174 -0.034753866 0.012427205 0.10045679 -0.12442977
0.032025423 0.05941872 -0.105729446 -0.10727629 -0.13353908 -0.078319445 -0.06106265 -0.079267174
-0.10832745 -0.051759653 -0.10825439 -0.07400901 -0.10368067 -0.044725925 -0.104340225 -0.113139555
-0.051382497 -0.120594956 -0.071731344 -0.16566326 -0.012267839 -0.15991223 -0.04317727 -0.06206313
-0.10948188 -0.021236587 -0.095205046 -0.01151268 -0.112049855 -0.027219068 -0.020847611 -0.087015204
-0.037731078 -0.06851233 0.069043405 -0.09841903 -0.024840854 -0.12745908 -0.21586496 -0.00974593
-0.0044757454 0.03247905 -0.07072874 0.018819975 -0.10695237 -0.12582403 -0.08854122 -0.0820809
0.023438841 -0.07867175 0.07973948 -0.05695015 -0.023023697 -0.0001230205 0.033559516 0.056873523
-0.04267543 -0.023418726 -0.126933 0.0575579 0.024879055 0.015063556 0.0542126 0.07059883
00000000: a5ef 2d3c 2aa9 853d be11 173e eb36 1bbe
00000010: e5de ff3c 98c9 1dbe 5fe4 f93c f101 423d
00000020: 2e23 153e cbad fb3d 58e0 adbc 8acb bdbc
00000030: 7df0 babd f436 23bc 0da6 b4ba 9fd5 abbc
00000040: 6db3 6b3d 60d3 8fbd 5732 c5bd 1ce1 bf3c
00000050: 722d 683d 8d12 11bd f287 dd3d d883 783d
00000060: fdf1 783d c226 6bbc e9ad 633d 238f ba3d
00000070: 8341 783c 67c2 a93d 5f12 51bc 76d0 083d
00000080: a0ad 053e 02e2 3abd cb8e 283e ef0a d2bd
00000090: a229 76bd 732c b1bd a35f fabc 2ef5 963d
000000a0: ddf8 1bbe e054 2d3d cf30 5cbd f8bc bebd
000000b0: fce5 afbc 41b5 05bd 3d4d a53d 9cd7 98bd
000000c0: 9985 b43d 021e 22be 30e0 17be be94 a3bd
000000d0: 8da7 ffbc 9022 1cbd 1f2a ab3d 2f78 c2bd
000000e0: a610 afbd 5a2e 38be 8768 a8bd 3c92 ffbd
000000f0: a9b4 23bd 210a 1cbd fa49 e0bd 2ee3 47bd
00000100: fc5b 61bd 3dd3 373b 7f9d 5abd 136a 19bd
00000110: 94e0 b9bc 3fba 9ebd 0ee3 00bc 3288 b4bd
00000120: dca9 84bb 1b44 47bd 652e e6ba 576f 9aba
00000130: 1cf3 1ebc 922c 69bd 81ea bfbb b8e9 06be
00000140: 598e e5bd 0b7e 15be 3cd9 a5bd 84da a8bd
00000150: a38e cabd bd2a 47bd d8b7 93bd 9575 243b
00000160: 32b0 88bc 5a87 22bd 0c1d 57bc c340 ddbd
00000170: c082 3d3d dad0 f3bd 91c0 293d a2a8 a8bd
00000180: d807 18bc 6769 853d 073c 25be afa6 23be
00000190: a6a8 a5bd a142 ddbd dcf9 4cbd 9e63 7ebd
000001a0: 63a7 dfbc baab ccbd b425 08be acfd 9cbd
000001b0: c86d b0bd 8c7e 80bd 5c6d c1bd 7480 73bd
000001c0: 219e 483d b79b cbbd 2e32 b6bd fafa 3cbe
000001d0: 63c1 8ebd 27bb ddbd a498 09bd 60c5 2a3e
000001e0: b57c 533d 63e2 0cbd 0648 b2bd 180b b4bd
000001f0: 608a b9bd 0f6b 1dbe 002a 963d 237f 4b3d
00000200: 444a 313d ab39 acbc a16f 94bd ff2b 97bd
00000210: 6370 30be a7b1 0c3e 4364 673d 4081 633d
00000220: 42db 523c 6f65 35bd 9c8e f6bd 8978 32be
00000230: 3b51 cd3d 09a6 853d b06a 783d 7747 953d
00000240: dadf 643d a910 323d b5eb 29bd 345d 1abd
00000250: f082 183d 6039 373b c947 803d d48d dd3a
00000260: 49e1 e33b 5ef8 0c3d 09bc 5abd bbbf 8bbd
00000270: 5a6b ddbb 9b72 d83d 9007 1d3d 610c 32bd
00000280: 2321 163d 8bf5 c3bd a7de 1a3d 1746 0abc
00000290: 8768 783d 0f6c 0c3d d913 5cbd 62cf 2bbd
000002a0: ee39 26bd 9376 803d 9795 8fbd 4075 253d
000002b0: 708a 623d fdfe cebd 1ad3 ae3c ad74 c73c
000002c0: 988a 0abc b9b6 88bc 929e ddbc 7bf4 0a3e
000002d0: 8064 5fbd 596a 223c 8521 27be 3eef fa39
000002e0: 9d34 2f3d 566e 913d dec9 a7bc a5ae 01bc
000002f0: 125a 0ebd 7a9b 4b3c 4abc cd3d 09d5 febd
00000300: 172d 033d 0b61 733d ae88 d8bd acb3 dbbd
00000310: 78be 08be f265 a0bd d41c 7abd d456 a2bd
00000320: c8da ddbd ee01 54bd 7ab4 ddbd 0992 97bd
00000330: 8856 d4bd 8832 37bd 54b0 d5bd b6b5 e7bd
00000340: 7476 52bd 7dfa f6bd e2e7 92bd a1a3 29be
00000350: 0cff 48bc 08c0 23be a6da 30bd e935 7ebd
00000360: 0938 e0bd 5af8 adbc ddfa c2bd ae9f 3cbc
00000370: 657a e5bd 86fa debc 9cc8 aabc 0735 b2bd
00000380: e78b 1abd 3150 8cbd a166 8d3d eb8f c9bd
00000390: 0c7f cbbc a284 02be b40b 5dbe 65ad 1fbc
000003a0: 46a9 92bb c108 053d 3bda 90bd 592c 9a3c
000003b0: d809 dbbd 04d8 00be 1955 b5bd 081a a8bd
000003c0: d002 c03c a81e a1bd 744e a33d 8f44 69bd
000003d0: 319c bcbc 10ff 00b9 b475 093d 36f4 683d
000003e0: 6fcc 2ebd a1d8 bfbc b9fa 01be d5c1 6b3d
000003f0: 29cf cb3c 22cd 763c 080e 5e3d 1f96 903d

module.residual_layers.1.0.bn1.weight f4 [32]
0.975309 0.88670313 0.7620047 0.92420954 0.8953689 0.8427922 0.8964037 0.90563387
0.7705383 0.77054983 0.8074363 0.78417957 1.1031642 1.043257 0.8670448 0.7546237
0.994638 0.93952984 0.87486196 1.0045934 0.72947246 0.9022714 0.8388822 0.87691593
0.91236 0.53986996 0.8276755 0.9271514 0.89952534 0.7347207 0.75289816 0.865366
00000000: daad 793f fafe 623f bd12 433f ff98 6c3f
00000010: e536 653f 3bc1 573f b67a 653f 9fd7 673f
00000020: ff41 453f c142 453f 25b4 4e3f febf 483f
00000030: 7c34 8d3f 7289 853f a6f6 5d3f 052f 413f
00000040: 99a0 7e3f 0785 703f f4f6 5f3f 8496 803f
00000050: b5be 3a3f 42fb 663f fcc0 563f 907d 603f
00000060: 6d90 693f eb34 0a3f 8be2 533f cb59 6d3f
00000070: 4b47 663f a816 3c3f efbd 403f a088 5d3f

module.residual_layers.1.0.bn1.bias f4 [32]
-1.0810424 -0.66595757 -0.8545607 -1.0816567 -0.68213344 -0.7762675 -0.718688 -0.8329209
-0.82358795 -0.75511366 -0.76376104 -0.74007934 -1.0638154 -1.1764518 -0.7933304 -0.7783727
-1.2990086 -1.1089022 -0.9473686 -0.993443 -0.46629152 -0.76165277 -0.5047002 -0.83974844
-0.66675055 -0.29012933 -0.51522654 -0.9606324 -0.65807927 -0.41176283 -0.56522894 -0.5617166
00000000: 995f 8abf 327c 2abf 7dc4 5abf ba73 8abf
00000010: 4ca0 2ebf 78b9 46bf f0fb 37bf 4e3a 55bf
00000020: a9d6 52bf 214f 41bf d885 43bf d775 3dbf
00000030: 1a2b 88bf f995 96bf b317 4bbf 6f43 47bf
00000040: ea45 a6bf 82f0 8dbf c086 72bf 4852 7ebf
00000050: c3bd eebe adfb 42bf 0834 01bf c1f9 56bf
00000060: 2ab0 2abf d58b 94be e3e5 03bf 01ec 75bf
00000070: e277 28bf 94d2 d2be d8b2 10bf a9cc 0fbf

module.residual_layers.1.0.bn1.running_mean f4 [32]
-4.482358 -5.724325 -4.5154486 -4.2969074 -5.384125 -5.9215617 -2.622618 -3.6608548
-4.570725 -2.226513 -2.062779 -3.8135703 -5.2207813 -7.012742 -0.83668095 -2.7848227
-6.6886563 -3.7527092 -5.690932 -6.2249746 -2.768591 -7.837566 -2.3016346 -7.3324637
-4.1335783 -1.3263004 -3.9716709 -3.3377335 -3.0357342 -3.2834752 -2.544872 -2.337943
00000000: 7a6f 8fc0 ac2d b7c0 8e7e 90c0 4480 89c0
00000010: c14a acc0 6f7d bdc0 f9d8 27c0 724b 6ac0
00000020: 6143 92c0 307f 0ec0 9204 04c0 8911 74c0
00000030: a410 a7c0 6268 e0c0 b930 56bf 893a 32c0
00000040: 7909 d6c0 632c 70c0 1d1c b6c0 fe32 c7c0
00000050: 9830 31c0 57cd fac0 fb4d 13c0 8ba3 eac0
00000060: 4646 84c0 36c4 a9bf db2f 7ec0 6d9d 55c0
00000070: 7849 42c0 7524 52c0 2fdf 22c0 dca0 15c0

module.residual_layers.1.0.bn1.running_var f4 [32]
10.537563 12.698559 7.311095 11.589428 8.845715 10.206187 8.512104 7.9332085
7.537191 7.6199923 8.330121 7.8142776 10.559976 11.768193 8.1264925 9.383239
11.691955 9.183389 8.02377 8.594641 8.531876 8.045739 5.393809 9.820995
9.6311245 9.519043 9.187689 12.209135 12.058422 6.749955 7.482691 9.118727
00000000: dc99 2841 4c2d 4b41 7ef4 e940 4c6e 3941
00000010: 0c88 0d41 8b4c 2341 9431 0841 d8dc fd40
00000020: ab30 f140 fad6 f340 2d48 0541 900e fa40
00000030: a9f5 2841 854a 3c41 1d06 0241 bf21 1641
00000040: 3f12 3b41 29ef 1241 5d61 0041 a683 0941
00000050: 9082 0841 59bb 0041 159a ac40 cc22 1d41
00000060: 1619 1a41 004e 1841 c600 1341 9e58 4341
00000070: 4cef 4041 a2ff d740 3472 ef40 4ee6 1141

module.residual_layers.1.0.conv2.weight f4 [32, 32, 7, 7]
0.012178498 0.008793262 0.0037611907 -0.016185537 -0.019684142 -0.018389864 -0.01817076 0.028646998
0.02158554 0.023410717 -0.009505113 -0.008929646 -0.009119015 -0.015654318 0.032624118 0.015147388
-0.011984755 -0.021535397 -0.008512804 0.00023149769 -0.0023570992 0.020719688 -0.0065844096 -0.033866417
-0.030506816 -0.015566338 0.00045533155 0.0058006053 -0.0033077826 -0.01331937 -0.029761577 -0.025118597
-0.030480726 -0.0034267576 -0.011566913 -0.026066309 -0.03785042 -0.045991324 -0.043231633 -0.05144267
-0.034135427 -0.05668618 -0.02878299 -0.063716 -0.063217275 -0.046733275 -0.05595013 -0.06188764
-0.08589572 0.038693655 0.02686809 -0.0043719327 -0.036719523 -0.040549397 -0.02235488 -0.02716314
0.007684054 0.010112286 -0.0069077983 -0.008779822 -0.0039547174 4.5693865e-05 -0.0019523896 0.0034790782
0.005225916 -0.01939379 -0.009501013 0.0027390444 0.007573395 -0.009297654 -0.011888333 -0.011649981
-0.039436247 -0.01768785 0.010518361 0.006936401 0.003191223 -0.044959232 -0.058185156 -0.09566568
-0.0601814 -0.047567025 -0.035725914 -0.030739717 -0.047881745 -0.07931826 -0.10399476 -0.09566211
-0.08206852 -0.062040754 -0.04427765 -0.03416681 -0.06923964 -0.082135394 -0.066667855 -0.042841922
-0.017854529 0.0115096215 0.06311684 0.01911081 -0.020959552 -0.052204493 -0.07644221 -0.07786027
-0.10821277 0.056154367 0.001952038 -0.022595143 -0.038605124 -0.05463788 -0.06514324 -0.11859834
0.034543872 -0.028305976 -0.037959803 -0.056104742 -0.068836376 -0.08870115 -0.1346137 0.01733539
-0.045691445 -0.05970515 -0.08163637 -0.09223173 -0.10868276 -0.14067104 0.014611049 -0.048658594
-0.062101897 -0.067608826 -0.08388236 -0.10022453 -0.15467645 0.0071122055 -0.053112492 -0.06728244
-0.08414569 -0.083853126 -0.10252163 -0.15351579 0.0057058525 -0.04826568 -0.06827931 -0.07127037
-0.07000146 -0.0929076 -0.14542536 -0.055307776 -0.05402214 -0.032244444 -0.045343492 -0.056239486
-0.072577864 -0.10337092 -0.044980746 -0.0112134805 0.0038768013 0.004330997 -0.0060332892 -0.04295215
-0.07283235 -0.028174937 0.0088271815 0.0035459937 0.008497533 -0.009929881 -0.057488434 -0.09692934
-0.011354834 0.012711861 0.0077785277 -0.006641789 -0.029386323 -0.06647544 -0.10701312 0.013548268
0.030409869 0.025031172 -0.019291706 -0.031923693 -0.04415838 -0.0805164 0.008069055 0.025727348
0.034430277 -0.005277149 -0.03435486 -0.034476027 -0.025667854 0.04108826 0.035502806 0.028882205
5.1549374e-05 -0.0153316 -0.0048487526 0.023773098 0.029557798 -0.007954638 -0.016773423 -0.005780151
0.024426362 0.027762303 0.058935348 0.044767614 0.009765114 0.011320314 0.013644396 0.01733456
0.009325369 0.009860015 0.04794775 0.013756507 0.028685015 0.016041106 0.012099855 0.0025931797
-0.0034013952 0.055454522 0.036163207 0.04092328 0.0419188 0.011656157 -0.0044060135 0.0008109438
0.0644122 0.041287478 0.04433025 0.025996497 -0.004708692 -0.008832894 -0.0048429198 0.039907392
0.021744791 0.017540673 0.0055873813 0.0028960782 0.0113860415 -0.0018381892 0.017376175 -0.012855388
-0.005571986 0.0013121429 0.014572574 0.016733266 0.004034348 0.030234294 0.01611693 0.0044510425
-0.012880825 -0.013241237 -0.0053692563 -0.00044145758 0.014138267 -0.012979838 -0.022666795 -0.030176839
00000000: 5388 473c 9d11 103c 4f7e 763b 8897 84bc
00000010: a340 a1bc 57a6 96bc d8da 94bc 1cad ea3c
00000020: 29d4 b03c d5c7 bf3c 55bb 1bbc a64d 12bc
00000030: ec67 15bc 7c3d 80bc dea0 053d c02c 783c
00000040: b55b 44bc 006b b0bc 4a79 0bbc 30be 7239
00000050: 9079 1abb 56bc a93c 08c2 d7bb 83b7 0abd
00000060: 6ee9 f9bc f409 7fbc 91b9 ee39 0113 be3b
00000070: 62c7 58bb 7d39 5abc 8dce f3bc 84c5 cdbc
00000080: b7b2 f9bc 7493 60bb 2683 3dbc 0389 d5bc
00000090: 0b09 1bbd 6661 3cbd a713 31bd 8db5 52bd
000000a0: 97d1 0bbd c52f 68bd 4eca ebbc 897d 82bd
000000b0: 0f78 81bd 646b 3fbd f72b 65bd e57d 7dbd
000000c0: 18ea afbd 3d7d 1e3d 781a dc3c 6e42 8fbb
000000d0: 3667 16bd 2017 26bd 9521 b7bc 3c85 debc
000000e0: 84ca fb3b 00ae 253c d05a e2bb 3ed9 0fbc
000000f0: 9396 81bb 6aa7 3f38 53e7 ffba 3f01 643b
00000100: 293e ab3b badf 9ebc 23aa 1bbc 8a81 333b
00000110: 3e2a f83b 3055 18bc 48c7 42bc 90df 3ebc
00000120: e787 21bd 1ce6 90bc 3455 2c3c c04a e33b
00000130: d623 513b 2c27 38bd 8f53 6ebd 5eec c3bd
00000140: c680 76bd a4d5 42bd 5655 12bd dcd1 fbbc
00000150: a61f 44bd 9d71 a2bd 34fb d4bd 7fea c3bd
00000160: 8a13 a8bd 721e 7ebd 7b5c 35bd 7ff2 0bbd
00000170: 83cd 8dbd 9a36 a8bd 2889 88bd 037b 2fbd
00000180: a943 92bc da92 3c3c 6743 813d 468e 9c3c
00000190: 5eb3 abbc 61d4 55bd bc8d 9cbd 3575 9fbd
000001a0: a89e ddbd 1f02 663d 87db ff3a 7319 b9bc
000001b0: 6820 1ebd f8cb 5fbd d269 85bd b0e3 f2bd
000001c0: e07d 0d3d efe1 e7bc bd7b 1bbd 16ce 65bd
000001d0: 16fa 8cbd f3a8 b5bd 2cd8 09be f302 8e3c
000001e0: f426 3bbd 638d 74bd f830 a7bd fde3 bcbd
000001f0: 1195 debd 120c 10be 2e63 6f3c 3c4e 47bd
00000200: 8f5e 7ebd 7f76 8abd 84ca abbd 8542 cdbd
00000210: 8163 1ebe 810d e93b 7c8c 59bd 60cb 89bd
00000220: 9354 acbd 30bb abbd dcf6 d1bd 3e33 1dbe
00000230: 29f8 ba3b 3cb2 45bd 06d6 8bbd 33f6 91bd
00000240: ed5c 8fbd 5746 bebd 63ea 14be 688a 62bd
00000250: 5246 5dbd c012 04bd 19ba 39bd 605b 66bd
00000260: b4a3 94bd 22b4 d3bd bb3d 38bd bfb8 37bc
00000270: ef11 7e3b 09eb 8d3b e6b2 c5bb 98ee 2fbd
00000280: 2129 95bd 20cf e6bc e29f 103c e763 683b
00000290: 3d39 0b3c f1b0 22bc fe78 6bbd e482 c6bd
000002a0: a009 3abc 6945 503c 05e3 fe3b 5da3 d9bb
000002b0: 96bb f0bc 4724 88bd b229 dbbd 8ef9 5d3c
000002c0: 1e1e f93c 2c0e cd3c a409 9ebc 6bc2 02bd
000002d0: 6bdf 34bd c8e5 a4bd 1234 043c 29c2 d23c
000002e0: c306 0d3d efeb acbb afb7 0cbd bc36 0dbd
000002f0: 6445 d2bc 2a4c 283d 646b 113d 609a ec3c
00000300: b836 5838 6431 7bbc 49e2 9ebb cdbf c23c
00000310: 3223 f23c 2c54 02bc 6b68 89bc 6c67 bdbb
00000320: cb19 c83c c56d e33c 3166 713d 3f5e 373d
00000330: dbfd 1f3c d778 393c bf8c 5f3c 3501 8e3c
00000340: 6fc9 183c e68b 213c dc64 443d f962 613c
00000350: d6fc ea3c a368 833c 783e 463c 56f2 293b
00000360: f1e9 5ebb 4824 633d df1f 143d 2b9f 273d
00000370: 0cb3 2b3d 77f9 3e3c 5260 90bb 8495 543a
00000380: 8bea 833d 0f1d 293d a393 353d 9bf6 d43c
00000390: 5f4b 9abb d8b7 10bc 5bb1 9ebb ef75 233d
000003a0: 2222 b23c 75b1 8f3c 5a16 b73b 21cc 3d3b
000003b0: 858c 3a3c 65ef f0ba 7b58 8e3c 689f 52bc
000003c0: 3595 b6bb 36fc ab3a cec1 6e3c 3414 893c
000003d0: 9032 843b e9ad f73c a707 843c 0dda 913b
000003e0: 190a 53bc c6f1 58bc 96f0 afbb 6f73 e7b9
000003f0: 31a4 673c 63a9 54bc b7af b9bc 6b35 f7bc

module.residual_layers.1.0.bn2.weight f4 [32]
2.3659453 2.3102052 1.7766106 2.1194165 2.2242212 1.6809717 2.10881 1.9744205
1.9994342 2.2620883 1.632763 2.462512 1.9867266 2.4486597 2.7829118 1.5920663
2.585431 1.8275856 2.6247237 2.1961963 1.7422819 1.7484238 2.1113079 2.3526497
2.0851004 2.0798023 2.5797343 1.7924044 1.5529286 1.7499042 1.8745258 1.861106
00000000: a66b 1740 67da 1340 fa67 e33f 85a4 0740
00000010: a459 0e40 152a d73f bef6 0640 d0b9 fc3f
00000020: 76ed ff3f 0ec6 1040 61fe d03f cc99 1d40
00000030: 0f4d fe3f d7b6 1c40 3a1b 3240 d4c8 cb3f
00000040: b477 2540 53ee e93f 79fb 2740 7b8e 0c40
00000050: 1803 df3f 5acc df3f ab1f 0740 d091 1640
00000060: 4972 0540 7b1b 0540 5e1a 2540 826d e53f
00000070: 5dc6 c63f dcfc df3f 76f0 ef3f b938 ee3f

module.residual_layers.1.0.bn2.bias f4 [32]
-0.42891732 -0.5035857 -0.20356905 -0.2653375 -0.23588225 -0.21103515 -0.52569616 -0.022549592
-0.35610357 -0.67586577 -0.13707764 -0.37459686 -0.25100115 -0.4219169 -0.5475883 -0.14978512
-0.21802509 -0.1987761 -0.9799626 -0.204041 -0.29561037 -0.082785584 -0.41969347 -0.31244153
-0.15177487 -0.3173831 -0.62182844 -0.2507303 -0.028451575 0.06994407 -0.28257334 -0.09369514
00000000: 0d9b dbbe feea 00bf 6874 50be 51da 87be
00000010: 1e8b 71be 9919 58be 0694 06bf ecb9 b8bc
00000020: 3553 b6be 8a05 2dbf 155e 0cbe 29cb bfbe
00000030: 3983 80be 7e05 d8be bf2e 0cbf 4561 19be
00000040: f841 5fbe f68b 4bbe d4de 7abf 20f0 50be
00000050: 3e5a 97be 7d8b a9bd 10e2 d6be 56f8 9fbe
00000060: df6a 1bbe 0a80 a2be 2630 1fbf b95f 80be
00000070: 4713 e9bc d63e 8f3d 74ad 90be 3de3 bfbd

module.residual_layers.1.0.bn2.running_mean f4 [32]
0.03768308 -0.5804133 -0.08785246 0.09954762 0.18212502 0.26429796 0.5231265 -0.6911266
-0.93778396 -0.1491509 -0.2801944 -0.20974852 0.048752353 -0.37400007 -0.04976791 0.2209024
0.26342878 -0.78634286 -0.29119498 0.3536107 0.2888096 -0.89933807 0.77103007 0.37089422
0.12311024 0.024712056 0.25970978 -0.013325269 -0.61365366 0.29098338 -0.13627104 0.7413874
00000000: 9359 1a3d f795 14bf feeb b3bd 9fdf cb3d
00000010: fb7e 3a3e 1052 873e 9eeb 053f aced 30bf
00000020: 9c12 70bf 03bb 18be a475 8fbe 51c8 56be
00000030: 8cb0 473d f07c bfbe 70d9 4bbd 3d34 623e
00000040: 23e0 863e c44d 49bf 8217 95be 760c b53e
00000050: dade 933e 053b 66bf 3a62 453f d9e5 bd3e
00000060: 3921 fc3d f070 ca3c aef8 843e 3b52 5abc
00000070: 6818 1dbf c6fb 943e a38a 0bbe 91cb 3d3f

module.residual_layers.1.0.bn2.running_var f4 [32]
0.8272381 0.7120502 0.49240965 0.7102742 0.8740611 0.47124764 0.6431901 0.5739392
0.6791219 0.7588713 0.43347916 0.8755071 0.6731767 0.88062525 1.1170758 0.48692653
0.8171929 0.5512311 1.1487402 0.7663091 0.53543395 0.70097977 0.68166655 0.79037106
0.7254788 0.67776364 0.803393 0.5667056 0.5153794 0.61002046 0.5234511 0.6667987
00000000: e0c5 533f ec48 363f 1e1d fc3e 88d4 353f
00000010: 78c2 5f3f 5f47 f13e 1ba8 243f aeed 123f
00000020: efda 2d3f 6445 423f fbf0 dd3e 3c21 603f
00000030: 4f55 2c3f a870 613f 57fc 8e3f 6f4e f93e
00000040: 8e33 513f 7b1d 0d3f eb09 933f d52c 443f
00000050: 3312 093f 6973 333f b381 2e3f c255 4a3f
00000060: fbb8 393f eb81 2d3f 2aab 4d3f 9e13 113f
00000070: e8ef 033f 4d2a 1c3f e400 063f 52b3 2a3f

module.residual_layers.1.0.shortcut.0.weight f4 [32, 16, 1, 1]
-0.0685275 -0.051819682 -0.06334619 0.026399624 0.08721288 0.21351348 -0.11828391 0.04787855
0.010045985 -0.013107434 -0.05412158 -0.0004305545 0.14440228 -0.015933704 -0.046968203 -0.00018494768
-0.03280799 -0.1548465 -0.012446206 0.11083552 -0.00075413316 0.16150682 -0.03870816 0.05782138
0.03884401 -0.14942159 -0.016018469 0.06737112 -0.05541827 -0.039502792 -0.055097483 0.1917185
0.06213044 -0.042307798 0.05248481 0.048463244 0.034145515 -0.0047027534 0.07068424 -0.02103952
-0.009848757 -0.034595698 0.03142592 0.27067542 0.021048179 -0.017614178 0.054289706 0.03342986
-0.077592425 -0.08919718 -0.1515705 -0.110924505 -0.014858015 0.07853475 -0.08947434 0.021597546
-0.17496872 -0.034510005 -0.16516303 -0.111205555 -0.07327046 0.0030964087 -0.10464666 0.0057070153
0.0036706799 -0.13206358 -0.03886877 0.007932861 0.04079909 0.07820552 -0.16966547 0.082534105
-0.08341987 0.024790118 -0.048110563 0.031598076 0.13370606 0.10012539 -0.0057770736 -0.0722749
-0.06980857 -0.031819787 0.021461343 -0.06826837 0.015889907 -0.01160266 0.020545863 0.03792592
0.22704078 -0.04826276 -0.015907785 -0.09871233 -0.0873284 0.034799855 -0.064375 0.0047951443
0.044236567 -0.08292512 0.16424231 -0.033796247 -0.013511925 -0.02204278 0.019969841 -0.06754505
0.28630725 0.07606222 -0.079665735 -0.08453473 -0.0034337298 0.02333753 0.08395291 -0.15486427
-0.0781359 0.06783693 0.16231431 -0.14444907 -0.007288676 0.09070134 -0.050066084 -0.1241315
0.091038436 -0.017752763 -0.14316536 -0.044371124 -0.11877243 0.0036547678 0.15848176 -0.21958964
-0.04573943 -0.15196201 -0.20725004 0.06631444 -0.09232401 0.16667002 -0.019523527 -0.0052352278
-0.11604252 -0.051864438 -0.09813875 -0.02742265 -0.066827364 -0.09187084 -0.039717637 -0.14752406
-0.02919992 0.017643567 -0.04225257 0.024394015 -0.09895647 0.04459605 0.00065407256 -0.014830046
-0.01939712 0.072371975 0.015410107 -0.12701698 -0.10513541 -0.07036045 -0.06472338 -0.14406525
0.073218316 -0.18676078 -0.12626888 0.0576993 0.06008585 0.050902247 -0.094189994 0.004025246
-0.100085236 -0.06718656 -0.047325324 0.09770653 -0.0964091 -0.07481376 0.051707648 -0.028188605
0.015812585 0.044256333 0.08147822 0.07540701 0.09515499 -0.09614327 0.0113961315 -0.048410147
-0.06279036 0.018683314 -0.12992659 -0.13443165 0.0846687 0.0063870237 -0.022544077 -0.045275155
-0.04727876 0.027960889 0.00032529904 0.0037389111 -0.17131081 -0.14555043 0.019216865 -0.083897986
0.033409514 -0.14615507 0.034661032 -0.056814544 -0.103328966 -0.03866551 -0.079125226 -0.12445563
-0.0130577935 -0.22077024 -0.046284083 0.032879 0.15284164 -0.06751719 0.046347205 0.09975799
0.010639061 -0.015223043 -0.031252995 0.13213477 0.07516944 -0.06121249 0.07640702 0.03721838
0.0006173513 -0.109984376 -0.15023036 0.06910737 -0.024685724 -0.18677299 0.13146958 0.031007968
0.024985611 -0.0043471726 -0.019465065 -0.023290943 0.0056401324 -0.15374438 -0.18681917 0.09633744
0.056005593 0.05855095 0.34107888 0.009320002 0.111739606 0.1736514 -0.048478384 -0.0494146
0.124002695 0.08061703 -0.0057605873 -0.05778188 -0.02123025 0.29831877 0.12297739 0.25982967
00000000: 2558 8cbd e040 54bd a6bb 81bd 0644 d83c
00000010: ab9c b23d 47a3 5a3e d63e f2bd 4c1c 443d
00000020: ea97 243c 90c0 56bc 97ae 5dbd 0cbc e1b9
00000030: 31de 133e 6687 82bc bb61 40bd 84ee 41b9
00000040: ac61 06bd 1590 1ebe 2ceb 4bbc bcfd e23d
00000050: 05b1 45ba 0b62 253e 738c 1ebd 1dd6 6c3d
00000060: e61a 1f3d f901 19be 2a39 83bc dff9 893d
00000070: 45fe 62bd aecd 21bd e6ad 61bd db51 443e
00000080: 7d7c 7e3d f14a 2dbd 50fa 563d 6581 463d
00000090: 2bdc 0b3d 8e19 9abb e6c2 903d 125b acbc
000000a0: ae5c 21bc 38b4 0dbd 77b8 003d f895 8a3e
000000b0: 3b6d ac3c 9c4b 90bc e25e 5e3d c0ed 083d
000000c0: c7e8 9ebd 03ad b6bd 4c35 1bbe 632c e3bd
000000d0: 086f 73bc d4d6 a03d 533e b7bd 56ed b03c
000000e0: 002b 33be 5d5a 0dbd 7f20 29be bdbf e3bd
000000f0: d30e 96bd 1eed 4a3b fd50 d6bd ea01 bb3b
00000100: ca8f 703b ad3b 07be dc34 1fbd d5f8 013c
00000110: f21c 273d 372a a03d c9bc 2dbe a407 a93d
00000120: 09d8 aabd a514 cb3c 950f 45bd fc6c 013d
00000130: 3eea 083e 8a0e cd3d 9b4d bdbb dd04 94bd
00000140: ccf7 8ebd 7755 02bd b3cf af3c 4ad0 8bbd
00000150: 8d2b 823c 1519 3ebc cc4f a83c 3658 1b3d
00000160: 617d 683e 2caf 45bd 0b51 82bc b129 cabd
00000170: 3bd9 b2bd 4b8a 0e3d 0ad7 83bd 9620 9d3b
00000180: 6731 353d a5d4 a9bd 232f 283e ef6d 0abd
00000190: 1f61 5dbc 0f93 b4bc cb97 a33c 0f55 8abd
000001a0: dd96 923e 82c6 9b3d ca27 a3bd 8b20 adbd
000001b0: 6d08 61bb 592e bf3c 81ef ab3d bd94 1ebe
000001c0: b705 a0bd 17ee 8a3d b935 263e 75ea 13be
000001d0: d9d5 eebb a0c1 b93d 1812 4dbd a838 febd
000001e0: 5c72 ba3d 3e6e 91bc f199 12be 7fbe 35bd
000001f0: f63e f3bd d484 6f3b 0b49 223e 1bdc 60be
00000200: 4559 3bbd ee9b 1bbe 5b39 54be ddcf 873d
00000210: 5f14 bdbd 8cab 2a3e ceef 9fbc 468c abbb
00000220: b3a7 edbd ce6f 54bd f8fc c8bd 77a5 e0bc
00000230: c9dc 88bd c726 bcbd f6ae 22bd 8c10 17be
00000240: ac34 efbc 3e89 903c 0811 2dbd f5d5 c73c
00000250: b1a9 cabd 59aa 363d 1176 2b3a b9f9 72bc
00000260: b6e6 9ebc c237 943d ac7a 7c3c bd10 02be
00000270: 3c51 d7bd 2419 90bd b18d 84bd d785 13be
00000280: 7cf3 953d 383e 3fbe a14c 01be 1a56 6c3d
00000290: 951c 763d e07e 503d afe6 c0bd 36e6 833b
000002a0: 7df9 ccbd 1b99 89bd 33d8 41bd 5c1a c83d
000002b0: 2272 c5bd f537 99bd 66cb 533d caeb e6bc
000002c0: 6589 813c 2146 353d 0ede a63d fe6e 9a3d
000002d0: 9fe0 c23d c3e6 c4bd d7b6 3a3c b849 46bd
000002e0: 3b98 80bd c00d 993c 7a0b 05be 73a8 09be
000002f0: c966 ad3d 3d4a d13b 5bae b8bc 7172 39bd
00000300: 5fa7 41bd 3c0e e53c e68c aa39 8508 753b
00000310: 1a6c 2fbe 2c0b 15be b06c 9d3c b5d2 abbd
00000320: 6ad8 083d ada9 15be baf8 0d3d 5eb6 68bd
00000330: 239e d3bd ba5f 1ebd 680c a2bd 98e2 febd
00000340: 5bf0 55bc 9811 62be 6194 3dbd 21ac 063d
00000350: 8582 1c3e 7446 8abd 91d6 3d3d eb4d cc3d
00000360: 754f 2e3c 126a 79bc 2403 00bd 564e 073e
00000370: 6ff2 993d f3b9 7abd 497b 9c3d 4d72 183d
00000380: bfd5 213a 7d3f e1bd fdd5 19be 2a88 8d3d
00000390: b739 cabc 6b41 3fbe f69f 063e 6c04 fe3c
000003a0: a0ae cc3c ba72 8ebb 3375 9fbc a6cc bebc
000003b0: dcd0 b83b 2b6f 1dbe 864d 3fbe 904c c53d
000003c0: 1f66 653d 1fd3 6f3d e4a1 ae3e ecb2 183c
000003d0: bcd7 e43d acd1 313e 4591 46bd f766 4abd
000003e0: 20f5 fd3d 8b1a a53d 4fc3 bcbb b1ac 6cbd
000003f0: 10eb adbc 3dbd 983e 92db fb3d 6508 853e

module.residual_layers.1.0.shortcut.1.weight f4 [32]
0.2497126 0.38417348 0.4031252 0.40881535 0.25602138 0.30254918 0.3912616 0.48450541
0.3717119 0.20465623 0.40166655 0.16301583 0.36384758 0.37080318 0.5003392 0.9283018
0.55600274 0.25206858 0.031010795 0.36819425 0.17239772 0.75001353 0.26466796 0.26116595
0.47313303 0.25791714 0.17328478 0.06171057 0.28227338 0.49811396 0.33324292 0.43047577
00000000: a9b4 7f3e 63b2 c43e 6d66 ce3e 3f50 d13e
00000010: 3c15 833e bae7 9a3e 7153 c83e 1811 f83e
00000020: 0651 be3e 6791 513e 3da7 cd3e 9fed 263e
00000030: 3b4a ba3e ead9 bd3e 3b16 003f 30a5 6d3f
00000040: 3256 0e3f 220f 813e 5a0a fe3c f583 bc3e
00000050: 0789 303e e300 403f 8f82 873e 8bb7 853e
00000060: 7e3e f23e b70d 843e 9171 313e 39c4 7c3d
00000070: 2386 903e cb08 ff3e d19e aa3e 5267 dc3e

module.residual_layers.1.0.shortcut.1.bias f4 [32]
-0.42891732 -0.5035857 -0.20356905 -0.2653375 -0.23588225 -0.21103515 -0.52569616 -0.022549592
-0.35610357 -0.67586577 -0.13707764 -0.37459686 -0.25100115 -0.4219169 -0.5475883 -0.14978512
-0.21802509 -0.1987761 -0.9799626 -0.204041 -0.29561037 -0.082785584 -0.41969347 -0.31244153
-0.15177487 -0.3173831 -0.62182844 -0.2507303 -0.028451575 0.06994407 -0.28257334 -0.09369514
00000000: 0d9b dbbe feea 00bf 6874 50be 51da 87be
00000010: 1e8b 71be 9919 58be 0694 06bf ecb9 b8bc
00000020: 3553 b6be 8a05 2dbf 155e 0cbe 29cb bfbe
00000030: 3983 80be 7e05 d8be bf2e 0cbf 4561 19be
00000040: f841 5fbe f68b 4bbe d4de 7abf 20f0 50be
00000050: 3e5a 97be 7d8b a9bd 10e2 d6be 56f8 9fbe
00000060: df6a 1bbe 0a80 a2be 2630 1fbf b95f 80be
00000070: 4713 e9bc d63e 8f3d 74ad 90be 3de3 bfbd
