summaries/vanilla_ResNet3_num_blocks2x1x1_num_channels16_conv5/ckpt.pth (torch, 915033 bytes, 57 tensors)

module.conv1.weight f4 [16, 3, 3, 3]
00000000: 323b c43d 7d4b 6a3e c522 123e e1f8 933d
00000010: 000d 573e e3d6 063e 2e8b 8fbd f8bd a13d
00000020: 9c6a 873c 74bf 83bd c22f 2fbd 44f9 5dbd
00000030: 61e1 94bd 629a bfbd 7021 bdbd 8c64 e4bd
00000040: a6b4 00be c8f3 0bbe 5c76 1c3d 4dfa a43c
00000050: 9a27 e93b 4c85 eb3c aeb4 abbc 94cc 1dbd
00000060: e8d4 55bc cc4a b8bc 95d7 5dbd 1a84 823c
00000070: 4f8f d93d 72e7 393e 14b0 52be a61f 3dbe
00000080: 6fee 053e 4a65 ddbd 9fd1 c4bd 672c f33d
00000090: 1963 c9bd 5966 0bbe c997 9cbd eaa1 6fbe
000000a0: 56ba a1be 379f 53bd b95f 62bc 5426 9ebd
000000b0: c880 b33d afcb 153e ce72 543d 37c7 13bc
000000c0: a045 e3bc 4815 2fbe 8c58 1ebd 6d2e 243d
000000d0: b2e6 56bd 6f5a 823d 2ff3 ae3e f100 353f
000000e0: e840 a13e 05f2 363d cc1d d7bd c768 dabd
000000f0: d64d 85be 7d4f c7be eac6 7dbe 1eb5 2abe
00000100: 239a 50bd 9a28 f9bd 5d0f 1abd 35e1 92be
00000110: dfec 20be 4c43 3c3e b8fe 033e 442f 1e3e
00000120: 8a25 99be e406 20be d825 23be bcf8 e5bc
00000130: 39e7 93bd d9a2 b13b e662 193e 8cbd af3e
00000140: 7915 973e 500a 0030 a004 bfae 28d7 bbb0
00000150: 69f1 0cb1 ef9e aab0 3e0c afb0 8fd7 1eb1
00000160: 8a9a 13b1 0d77 c2b0 95eb 42af 4885 bdb0
00000170: bfe5 4bb1 dbec 7cb0 f037 43b1 dd6f 2cb1
00000180: be5f 17b1 456c 45b1 7090 33b1 5760 6a31
00000190: 70b3 5631 4b2e 6630 4c1f 1231 2ee4 b330
000001a0: 923a ba2f 1262 cc30 a69a 1931 e77c 1431
000001b0: e043 ad3a beca c9bd 9c87 20be 5fff 8bbd
000001c0: e59a 52be 57bf 6dbe 8e64 0fbe fcb6 c2be
000001d0: c3fd 96be 1685 133d ffcf f03d 8d3a aebd
000001e0: a4b3 bd3d fa19 563e 593d 8a3c d30e 29bd
000001f0: 2dff 9dbc c690 71bd ca20 06be 686c 4f3e
00000200: 97fe 15bd fa37 8a3d b0d4 ff3e 3c00 8a3e
00000210: 3b33 25bd ebb4 933e 65c6 673e 05d1 ae3d
00000220: 26cc 98bc cf77 203e 867d 11be 1bde f5bd
00000230: 944e b93e f31b c0bd c789 63be 98f5 533d
00000240: c365 0dbe 5d24 34be 001f 003e ad99 5ebe
00000250: 819c 10be 55d5 c13e 20af 96bc e41a bebd
00000260: 184f 023e e8d4 37be b113 27be 01ee d43d
00000270: 9b98 7bbe 04f9 b1bd a91a ed3e 53b0 b7bd
00000280: 22d6 ccbc dd15 a73e b71e fdbd b9b1 1c3e
00000290: d1be 4abe 6910 c23e 8ef5 51bf a717 ba3e
000002a0: 6447 813d 99e5 ac3e 4b6a c1bd 989d 873d
000002b0: 4a6b 963c 2ea0 823c 0af8 973e 68f7 6dbf
000002c0: 1f08 e63e ead6 bdbd 865d 7f3e c413 41be
000002d0: a942 38bd bf01 913e 8a27 a3bc eb6f 6a3e
000002e0: aabd 13bf effa a93e d2f0 2fbe 8293 173e
000002f0: d63a 88bd a56b 133e 613d d33d 6b1d 913d
00000300: 62c0 213e c5d4 51bb 20a2 03be 5975 183d
00000310: 6a35 28be e807 8dbe 1262 223e 8d97 053e
00000320: 661f 933d eac0 3a3e af69 1f3d d059 d2bd
00000330: 1c17 723d 420e f0bd c72f 7bbe 15c4 1c3d
00000340: 7561 8f3c 98dd 583d ad7e 9f3d 8a70 35bc
00000350: 123c ebbc e127 a2bc 4180 06be 5289 0abe
00000360: bfd4 54be 0306 3ebe 8d72 5dbd b5ad 3ebe
00000370: 600b 35be f3bd 45bd 1d79 873e 89dc b13e
00000380: 290d 7f3e d8d7 b3bd 6312 c1bd 8e1d 5ebc
00000390: 52e9 25be dfda 31be 1206 98bd 6348 173e
000003a0: 185c 463e ac7a 1d3e 5cff 613d 466c 163d
000003b0: 088b 493d 4b7f 02be cb0b 16be 3146 a3bd
000003c0: dcaf 643d a0ad c53d cd03 a73d ec08 23bc
000003d0: 969e 0d3b 458f 30bd 2d21 95bb 91db c23c
000003e0: 7a0c f5bd ab61 9bba b4a3 2b3d 5276 96bc
000003f0: d528 aabd bf91 79bd a08f f5bd 5241 51bd
0.09581603 0.22880359 0.14271076 0.07225204 0.21001053 0.1316791 -0.07008968 0.07897562
0.016530327 -0.06433001 -0.042770155 -0.054192796 -0.0726955 -0.09355618 -0.09234893 -0.1115199
-0.12568912 -0.13667214 0.038198814 0.020138884 0.0071153166 0.028750084 -0.020960178 -0.03852518
-0.013051249 -0.022496603 -0.054160673 0.015932132 0.10623037 0.18154696 -0.20574981 -0.18469104
0.13079236 -0.10810335 -0.096102946 0.118737034 -0.098333545 -0.13613261 -0.07646138 -0.23401609
-0.31587476 -0.05166551 -0.013816767 -0.07722154 0.087647974 0.1462848 0.0518673 -0.0090196645
-0.02774316 -0.17097962 -0.038658664 0.040083338 -0.052466102 0.06364905 0.3416991 0.7070456
0.31494832 0.0446644 -0.1050373 -0.10664516 -0.26035947 -0.38927832 -0.24782911 -0.16670653
-0.050928246 -0.12165947 -0.037612308 -0.28687444 -0.15715359 0.18385047 0.12890136 0.15447718
-0.29911453 -0.15627629 -0.15932405 -0.028072707 -0.072218366 0.0054210243 0.14979133 0.343243
0.2950857 4.6580784e-10 -8.686496e-11 -1.3667192e-09 -2.0509907e-09 -1.24143e-09 -1.2736405e-09 -2.3114557e-09
-2.147916e-09 -1.4149194e-09 -1.7727893e-10 -1.3789441e-09 -2.9670983e-09 -9.201366e-10 -2.8408031e-09 -2.509288e-09
-2.2027815e-09 -2.8728817e-09 -2.6130031e-09 3.4106244e-09 3.1243097e-09 8.37393e-10 2.1263586e-09 1.3088817e-09
3.387482e-10 1.4870827e-09 2.2352338e-09 2.1607833e-09 0.0013219081 -0.09853123 -0.15676731 -0.068358175
-0.205669 -0.23217522 -0.14003202 -0.3803023 -0.2949048 0.036015593 0.11758422 -0.085072614
0.09262779 0.20908347 0.016874956 -0.041273903 -0.019286716 -0.058975957 -0.13098446 0.20256197
-0.03661975 0.06748958 0.49966955 0.26953304 -0.04033206 0.28848967 0.22634275 0.08535961
-0.018652033 0.15670703 -0.1420804 -0.12005254 0.36192763 -0.09380331 -0.22220527 0.05174789
-0.1380835 -0.17591996 0.12511826 -0.2173831 -0.14122202 0.37858072 -0.018394053 -0.09282473
0.12725484 -0.17952311 -0.16316105 0.10396958 -0.24569933 -0.08690074 0.46309403 -0.08969178
-0.02500445 0.32633868 -0.12359374 0.15302171 -0.19799353 0.37903145 -0.8201531 0.3634617
0.06312445 0.3376892 -0.09444102 0.066218555 0.018361706 0.01594552 0.29681426 -0.92955637
0.4492807 -0.09269507 0.2493802 -0.18855196 -0.044985447 0.28321645 -0.019916315 0.22894256
-0.5771128 0.3319926 -0.1718171 0.14802364 -0.06651847 0.14396532 0.103144415 0.07085689
0.15796044 -0.003201769 -0.12854815 0.037221286 -0.16426626 -0.27545094 0.15857723 0.13046093
0.07183723 0.18237653 0.038919147 -0.102710366 0.05910407 -0.117214695 -0.24529944 0.038272936
0.017502526 0.052945703 0.07787833 -0.011074195 -0.028715167 -0.019794406 -0.13134862 -0.13528946
-0.20784281 -0.18556981 -0.054064322 -0.18620951 -0.1768012 -0.048276853 0.2645959 0.34738567
0.24907364 -0.08781403 -0.09427335 -0.013556851 -0.16202286 -0.17368649 -0.07423033 0.14773707
0.19371068 0.15378827 0.05517517 0.03672435 0.049204856 -0.12743871 -0.14652936 -0.07972372
0.055831775 0.09652257 0.08155022 -0.009950858 0.0021609417 -0.043105382 -0.004551074 0.023786338
-0.1196527 -0.0011854669 0.041904166 -0.018366966 -0.08308569 -0.06093001 -0.11990285 -0.051087685

module.bn1.weight f4 [16]
00000000: 882c 0e3e 4040 ed3e a264 903e 9263 1230
00000010: b377 973e 7c2c bc3e 0a1c 083f 233e 933e
00000020: fb12 d63e 4e4d 823e f524 ed3e 5f9c 583e
00000030: e17f 0b32 7fe4 b33e ccbf 853e dbfd 953e
0.13884175 0.4633808 0.28201777 5.325599e-10 0.2958351 0.3675269 0.53167784 0.28758344
0.41811356 0.25449604 0.46317258 0.21153401 8.119941e-09 0.35135266 0.26122892 0.2929524

module.bn1.bias f4 [16]
00000000: 5001 ad3d 5be8 27be 7fc2 ad3e a6b5 8eb1
00000010: 6b64 3b3e 642a 803e b99d 323f ba5f 273d
00000020: df0c 03be fb52 03be 4ac1 6f3e 155e 00be
00000030: cbb8 80b3 5e53 113e 88e0 883d 989b 703c
0.08447516 -0.1639723 0.3393745 -4.153395e-09 0.18300025 0.2503234 0.69771916 0.040862776
-0.12797879 -0.12824623 0.23413578 -0.1253589 -5.994078e-08 0.14191958 0.06683451 0.014685534

module.bn1.running_mean f4 [16]
00000000: 3172 383d 8615 eabe caf7 1939 3f72 e5b1
00000010: bd0f 93bc c0c4 8ebc 5f20 f239 27c6 0bb8
00000020: 7ee0 59bd 12cc 29b9 d38f 46bd 615d 31be
00000030: 3793 2033 4f0b 63bd 61a6 99bd 7c26 af3e
0.045030776 -0.45719546 0.00014683526 -6.6777655e-09 -0.01795184 -0.017427802 0.00046181955 -3.3324726e-05
-0.053192608 -0.00016193118 -0.048477005 -0.17320777 3.7386794e-08 -0.055430707 -0.075024374 0.3420905

module.bn1.running_var f4 [16]
00000000: 9b07 693c 9a5e 773d e6e9 393c 645d 8723
00000010: 2c4f 843d 44f4 b43d 4c74 8b3c afcc 4a3d
00000020: 0542 523d 33ce 5f3c 83c3 993d ef67 b13c
00000030: 2ca2 6926 a40e 2f3d 33b1 e73c fa1d fd3c
0.014223005 0.060392953 0.01134727 1.4676282e-17 0.06460413 0.088356525 0.017023228 0.049511608
0.051332492 0.013660002 0.07507994 0.021656005 8.10579e-16 0.04273857 0.028282737 0.030898083

module.residual_layers.0.0.conv1.weight f4 [16, 16, 5, 5]
00000000: 79cb e7bb 29bc fabb 454d bb39 37f8 a63c
00000010: fe03 1d3d e00b 85bb a2c6 9dbc 7ac4 0cbc
00000020: 66df 613c 60b9 3e3d d069 31bb 2fd6 edbc
00000030: 8856 d4bc f2d6 84bb b607 083d 1336 9fbc
00000040: c1c3 29bd 5f1d 12bd 4c6e 22bc d97e ad3c
00000050: ea1a f1bc 2dc0 3bbd cea0 1dbd aea8 24bc
00000060: 31ec b93c a006 9dbd 0811 febc 8cd5 813d
00000070: dd28 613d 4827 553d 3131 81bd d48c c4bc
00000080: ed18 463d dfcd 743d 97dc c03d 394f 91bd
00000090: dd72 21bd 53bd 903a d399 f43a 090c 8d3d
000000a0: 3477 a1bd 3783 93bd 7c14 32bc 2150 00bc
000000b0: 2a5a 453c 1f89 85bd d5b3 b8bd 2b4c debc
000000c0: 0115 a9b9 5119 ebbb fd3e ccbc f71b 363d
000000d0: 528c db3c 5f4b d439 907d 36bd 01ef 15bd
000000e0: e98a e53a 6d43 ebbb df06 8a3c 8bcb 88ba
000000f0: 5b6b 063b d8e9 a239 1fbe a2bc 1233 5f3d
00000100: 921d a33d 295c f9bc 0d03 84bd 0718 2dbd
00000110: bfed a2bc 2704 9f3d dace f8bc 0971 f4bc
00000120: f6fc 18bc 5fb5 a23c 6db9 963d 0d5b 65af
00000130: ba44 0b30 484d ba2f 9825 e72e 97e3 d72f
00000140: a8aa 03af bb1d f52f ebda 2430 b79f e62f
00000150: 5003 9e2f 6465 cbae 456f 1d30 1eb0 d02f
00000160: 63bb ff2f f6b5 602f 58e3 baae b482 bc2e
00000170: 1390 3b2f de37 8b2e d51c bdaf 6fd1 74ae
00000180: 825b b12d 4ab5 7a2e 7c72 13af 9a90 96af
00000190: 4be3 f6bb cc9b b8bc 7bba 40bd 33db c8bb
000001a0: d037 7abb 1ee1 963c 12d1 1e3b 5284 cdbc
000001b0: 3aef 10bc 77f3 cdbb 28cb 933c 0ecd eb3a
000001c0: aaa3 87bc ec7b 0ebd 7478 9dbc 5d6a bb3c
000001d0: 5033 be3c 0af7 863a 07f6 f8bc 30d8 ebbc
000001e0: c63d eb3c 8db0 613d 2637 8b3c 1009 b1bb
000001f0: 7216 b5bc acfa abbc d70a cebc 80b7 04bd
00000200: 52f1 fd3c 1a81 5fbb 1877 cb3b b12f b93b
00000210: c69c 21bd 24d7 9e3c 7ceb 15bc d7f9 0b3c
00000220: eecd 833c 79b6 4bbd 4ef2 23bd 71e1 e2bc
00000230: c4f8 073d d712 ecba 822a 84bd b07e 99bd
00000240: 2c13 64bd 0966 e03c f736 c3bc 6c4f 99bd
00000250: 67ae 41bd b5cc b2bc b873 3b3d 6e7b 2ebd
00000260: 8392 1a3d 4824 37bd d75d 513d b247 6c3c
00000270: 45c9 bfbd f516 8cbc 3835 c73d dff9 2fbd
00000280: 0b0d 0d3c 3811 f83d 31db 81be 75a3 6a3e
00000290: 0387 df3c 6b86 7d3c 9e71 0a3b 9d4c a5bd
000002a0: 4f1f a8bb 2e82 853b 53eb 9ebc 0ff1 eabc
000002b0: 480b 973d 70cb 36bd 1189 ec3c c465 cb3b
000002c0: f4f4 603a 348d 1e3d 3461 083d 1b45 3cbb
000002d0: 14e3 12bc 488f e8bb a8b1 463d 24b9 3d3d
000002e0: 21fd 16bd 4b10 653c 28f0 f8ba c7d6 4a3c
000002f0: 75ff 30bc a0f5 9bbd eb93 413c de7b 2c3c
00000300: dfe2 58bb 692b 94bc 158a 2abd 64e3 86bc
00000310: 4ad7 843c 56ad 083c f27f 523c 7a81 b63c
00000320: 9f14 83bd dbbb bcbc 2107 17bd 6014 8abc
00000330: f2a1 553b 85c1 b7bc c364 143b 28d9 10bc
00000340: 5a2d debc a92c fbbc 9b29 14bb 1f75 093d
00000350: 7a95 2d3c 0225 c0bc fd53 e4bc f83d 03bc
00000360: 4995 5fbc ade6 ebbc d48d c1bc e5c5 2f3c
00000370: 942e a3bc cea9 9fbc 110f afbc 3993 c2bc
00000380: 3a55 ffbb 0955 3c3c e599 8abb 6c37 d9bc
00000390: 4f5b f53b b5eb 913c b243 1b3a 96c2 3abb
000003a0: ebc9 ccbc 50cf 69bc 334c 193c 5a1b 8fbc
000003b0: 7e49 b3bc 1035 edbc 3d02 2cbd 372f 29bc
000003c0: abb6 c6ba 1c9a fabb 76c3 1dbc a12c e7bc
000003d0: d4ac cfbc 3ff5 ec3a 6a71 99ba 3d2f 013b
000003e0: bd86 94bc 93ec 01bd ea9f 233d 9d63 6f3c
000003f0: 407f 343b 72c2 3f3c 24d0 043d f750 cabc
-0.0070738164 -0.007651825 0.0003572499 0.02038203 0.038333885 -0.0040602535 -0.019259755 -0.008591766
0.0137861725 0.046563506 -0.0027071126 -0.029032795 -0.025920168 -0.004053944 0.03321048 -0.019434964
-0.04144645 -0.03567254 -0.009913992 0.02117865 -0.029431779 -0.04583757 -0.038483433 -0.010049982
0.022695633 -0.07667279 -0.03101398 0.06339559 0.05497061 0.052039415 -0.06308211 -0.023992933
0.048363615 0.059766646 0.09417074 -0.07095189 -0.039416183 0.0011042751 0.0018661566 0.06887061
-0.07884064 -0.072027616 -0.010869142 -0.007831604 0.012045423 -0.065202944 -0.09018675 -0.02713593
-0.0003224984 -0.007174649 -0.024932379 0.044460263 0.026800308 0.00040491947 -0.04455334 -0.036604885
0.0017512712 -0.0071796686 0.01684898 -0.0010436637 0.0020510766 0.00031073275 -0.019866047 0.054492064
0.079646245 -0.030439453 -0.064458944 -0.042259242 -0.019888757 0.07764464 -0.030372072 -0.029839056
-0.009337654 0.019861875 0.07359586 -2.0859776e-10 5.066557e-10 3.3888115e-10 1.0511342e-10 3.9269984e-10
-1.197501e-10 4.4586365e-10 5.9973954e-10 4.195024e-10 2.8742386e-10 -9.249382e-11 5.727439e-10 3.7960118e-10
4.6517376e-10 2.0437327e-10 -8.498685e-11 8.572468e-11 1.7058736e-10 6.330912e-11 -3.4399386e-10 -5.566519e-11
2.0163208e-11 5.7004436e-11 -1.3410245e-10 -2.7387587e-10 -0.0075344197 -0.022535227 -0.04705284 -0.006129646
-0.003818024 0.018417891 0.0024233502 -0.02508751 -0.008846099 -0.006285127 0.018041208 0.0017990188
-0.016557533 -0.03478615 -0.019222476 0.022877866 0.023217827 0.0010297012 -0.030390752 -0.02878961
0.02871598 0.055100013 0.01699407 -0.0054026917 -0.02210543 -0.020993553 -0.025151653 -0.03240156
0.03099886 -0.003410405 0.0062092654 0.005651437 -0.03945615 0.019389696 -0.009150382 0.008543453
0.016089406 -0.049734566 -0.040026 -0.02769539 0.033196226 -0.0018010986 -0.0645342 -0.07494867
-0.055682346 0.027392404 -0.02382992 -0.07485852 -0.047285464 -0.021826128 0.045764655 -0.04259818
0.03773738 -0.044712335 0.051114883 0.01442139 -0.09364561 -0.01710079 0.097269475 -0.042962905
0.008609067 0.12112659 -0.25362542 0.22913916 0.027286058 0.015473942 0.002112485 -0.080712534
-0.0051306854 0.0040743565 -0.01939932 -0.028679399 0.073751986 -0.044627607 0.028873952 0.0062072
0.0008581423 0.03870888 0.033295825 -0.0028727714 -0.008965272 -0.0070971586 0.04850927 0.046319142
-0.036862496 0.013980935 -0.001899247 0.0123803085 -0.010803093 -0.076152086 0.011815052 0.010527579
-0.003309421 -0.018087106 -0.04163559 -0.01646585 0.01621594 0.008342108 0.012847887 0.022278536
-0.064004175 -0.023038795 -0.036872033 -0.016855419 0.0032597748 -0.022431144 0.0022643066 -0.008840837
-0.027121235 -0.030660944 -0.0022607807 0.03355896 0.01059472 -0.023455147 -0.02787208 -0.00801038
-0.013646432 -0.028796518 -0.0236272 0.010728334 -0.019919671 -0.019490149 -0.021369489 -0.023751842
-0.007792142 0.011494883 -0.0042297714 -0.026515685 0.0074876915 0.01781259 0.0005922868 -0.002849733
-0.024998626 -0.014270619 0.009356546 -0.017469097 -0.02188563 -0.028955966 -0.041994322 -0.010326198
-0.001516064 -0.007647766 -0.009629121 -0.028219523 -0.025350966 0.001807846 -0.0011706774 0.0019711994
-0.018130654 -0.031719755 0.039947428 0.014611152 0.0027541667 0.011704074 0.03242506 -0.02469681

module.residual_layers.0.0.bn1.weight f4 [16]
00000000: 6b41 a43e 28e6 a83e 18b4 933e 6b14 b33e
00000010: ded2 c73e 1efc 923e 47d9 913e 1773 9e3e
00000020: 2ac7 ca3e 26c8 bd3e bb22 a03e b05d 873e
00000030: 74fd ba3e dedb 833e 577f 933e 444c ab3e
0.3208116 0.32988095 0.28848338 0.34976515 0.39028066 0.28707975 0.28486082 0.30947182
0.39605075 0.37066764 0.31276497 0.26438665 0.36521494 0.25753683 0.2880809 0.33456624

module.residual_layers.0.0.bn1.bias f4 [16]
00000000: a23b 2bbe 63e9 21be cf04 88be bd69 363e
00000010: f34a 5d3e 6630 3ebe 9baa d53d dd07 eabd
00000020: d8bd ddbd b77d 5c3e c56e 9fbd 2c94 06be
00000030: 6ea4 bbbd ab9e 413e 7c5c e1bd 9fc9 2bbe
-0.16721967 -0.15811686 -0.2656617 0.17813773 0.21610622 -0.1857315 0.10432931 -0.11427281
-0.108272254 0.21532331 -0.077847995 -0.1314246 -0.09162222 0.18908183 -0.11003968 -0.16776131

module.residual_layers.0.0.bn1.running_mean f4 [16]
00000000: e445 51be afee f7be 5119 c63d 20f4 11bf
00000010: 6ace 92bc 504a 3e3f ca69 5fbf 536e bbbe
00000020: 20e5 7cbe acf4 37be e866 0dbf 30dc c0be
00000030: ae23 b7bc 16ce 1cbf da62 a1be d67c 1dbf
-0.20436817 -0.4842429 0.096727975 -0.5701313 -0.017920692 0.7433214 -0.87270796 -0.36607608
-0.24696779 -0.17964429 -0.5523515 -0.3766799 -0.02235588 -0.6125196 -0.3152073 -0.6151861

module.residual_layers.0.0.bn1.running_var f4 [16]
00000000: 19f7 a43d 7d36 e33d 22f7 843d f270 9c3e
00000010: 8eaa 773e b3b0 d83d 02c6 683e 979b a83d
00000020: 74d6 0b3e 1840 203e 1da9 123e 5041 8a3d
00000030: e341 283e b3d8 f43d 4ff1 973d d93c 313e
0.08054943 0.11094377 0.06492449 0.3055492 0.24186155 0.10580578 0.22731784 0.082328014
0.13656026 0.1564945 0.14322324 0.067507386 0.16431384 0.119553946 0.07419073 0.17308368

module.residual_layers.0.0.conv2.weight f4 [16, 16, 5, 5]
00000000: ecba b43d 32a0 7cb9 fb0e 89bd 6e61 09bc
00000010: c0a9 3ebc 3acd 9c3d 0826 20bc 6b0a a23b
00000020: 8f46 75bb 439d 03bd ee86 953d 508f 6a3c
00000030: 2031 1f3d 314b 1dbd 7e8b 1cbc 1e79 b93d
00000040: 9464 92bc 908d f3bb 2826 9dbd e716 663b
00000050: 3efc 5e3d 0f0a 273d b5a6 0fbd b9d6 81bc
00000060: 0233 80bc 3592 4cbc 629e 793c 595e 903d
00000070: 3329 4e3d 1af9 503c 49a9 58bd 5d86 09bd
00000080: 0b02 b13c 7531 de3d 9a67 023e cc68 9ebd
00000090: afae a3bd f009 ebbd d66b c0bc 68f6 3fbc
000000a0: 63ad 43bc d2b8 7ebc 0698 9cbd 180d 88bd
000000b0: fca1 40bd 4d9b 423d 019d b9bc 7bc5 3bbd
000000c0: 15fe 42bd d65d ccbd e857 5ebd 1018 57bd
000000d0: 7fc7 a4bc df91 bf3c 254b be3c 6126 ecbc
000000e0: 358a febc d80a 9fbc 7bb0 af3c 253d 2a3c
000000f0: 41ee 8fbd 3b35 67bd 2e9a 51bc 1eef 6c3c
00000100: 7526 153b 7032 5abd 77a8 7bbd 4dd5 0eba
00000110: 9934 9a3c 1e22 2c3b e899 89bd 7c60 b0bd
00000120: 373c 83bd e348 11bd dc5f 49bd aaae 0e3c
00000130: 0691 38bd d453 0e3d 99c6 08bd 8302 76bd
00000140: 063f d6bd 6650 4c3b c15b 84bc 1e5b 913c
00000150: 499c 10bd a4d3 a9bd 1709 37bd 4b69 40bd
00000160: 1ac5 aabb cf7b babc c342 5d3c 30a3 683a
00000170: e599 48bc 8436 9fbc cb9c 2f3c a5d4 4b3a
00000180: b71a 0d36 6be2 cd3d a623 2fbd b58f 8f3c
00000190: 063d 1e3b 7a75 563d 9253 56bc 8a46 c23d
000001a0: 7056 d93d 9004 08bd eb3f bfbc 3475 9dbd
000001b0: c4e9 88bd c3ed ccbc 067c c13d 36ac 6ebd
000001c0: 8b12 253d 9f95 d1b9 9b74 04be ab45 37bd
000001d0: ede3 103d f22b 7bbd afb0 cebd 953f 46bc
000001e0: 05b0 1f3e 41f3 9c3d 915c 14bc 50c5 fdbd
000001f0: cc0d 8abd 5529 1e3d cc46 5abb e8b3 6c3c
00000200: f3f6 663c 7391 66bb a054 c23b 3a98 013d
00000210: 4c4f 50bd 3cc9 11bd 2f4f afbd 3600 9bbc
00000220: 7ffb 84bc a469 e5bd c056 5dbd b09b d6bd
00000230: 12db 02bd 13e0 90bd d076 c6bd 8af4 b6bd
00000240: 6334 8abd e487 c4bc cd51 2ebd 947f ffbb
00000250: a812 82bd 1678 5ebc be86 9a3c 0b82 24bb
00000260: ea07 63bc fdab a6bd ae86 56bd b16a 983d
00000270: ea34 503d b5cf 2c3d b82f 67bd 1c91 d5bd
00000280: 451d 713d dfb1 353d bc6b cb3b e9c1 1bbd
00000290: 1cd9 50bd fcf8 503c a422 093d 3f6c 2bbd
000002a0: 25b2 b3bc b456 343d 9d70 90bb e8db e1bd
000002b0: 1af0 7ebd 7843 1abd 0687 d4bb 8a1c ffbc
000002c0: d382 37bb 248b a33d f2a7 363d c56f 87bc
000002d0: 116c ce3b 7211 6abc 381d 1739 5ce9 d83c
000002e0: 8780 353d 1a68 8a3d 474b 723b 8d62 e0bc
000002f0: a9ab 2ebd 8d0a dfbc 4611 a03d 58b6 9b3d
00000300: 951f bd3c 999c bebb 27b0 21bd 6d9c 423c
00000310: d2ed 5a3d cbcf ea3c 7ba9 7abd 6d15 06bd
00000320: 017b 103c 1521 613d 1cbe e43d a659 6c3d
00000330: 278d 043a 0016 07bd 3c85 0a3d ec4c abbc
00000340: 2b1e 85bd 64cf 93bc 2705 1b3d 8662 15be
00000350: 21aa 24bd 6052 64bd 5909 0fbd 4ff6 803d
00000360: 0f26 ddbc ee8a 16be 5e3c 8dbd 57d3 3e3c
00000370: 5fdd 9b3d 17fc 81bc 92d9 6bbc b56e 75bc
00000380: e842 873d a026 0c3d 2315 8e3d 7bb7 91bd
00000390: ce05 2e3d 9e18 aebb 624c 12bc ab8f c2bb
000003a0: 53fe 9cbd 606f 9bbd cd38 0dbd cf1a e63c
000003b0: 805c 8f3c d34f 89bd 53a2 07bd b253 973c
000003c0: a5c0 933d 655c 663b 0f25 0cbc 67fb eebd
000003d0: 588a e0bc 5879 7bbd 27a0 bebc bb6a ef3d
000003e0: 6b8f c53d efdc 42bc 7727 a1bb 6ea3 bebc
000003f0: e7b1 ed3b 1d23 c4bc 2a09 963b 183c c1bc
0.08824715 -0.0002409227 -0.066923104 -0.008385045 -0.011637151 0.07656331 -0.009774692 0.0049450896
-0.003742609 -0.0321324 0.073011264 0.014316395 0.03886521 -0.038401786 -0.009554742 0.090563044
-0.017870225 -0.007432647 -0.07673293 0.0035108866 0.054439776 0.040781077 -0.035071094 -0.015849458
-0.015649322 -0.01248603 0.015235515 0.070492454 0.05033226 0.012754703 -0.052895818 -0.033575404
0.02160742 0.10849277 0.12734833 -0.07734832 -0.079923026 -0.11476505 -0.02348892 -0.011716463
-0.011943194 -0.015546994 -0.07646184 -0.066431224 -0.04702948 0.047511388 -0.022657873 -0.04584263
-0.047605593 -0.09978835 -0.054283053 -0.052513182 -0.020114658 0.023384986 0.023229191 -0.028826894
-0.031071762 -0.01941435 0.021446457 0.010390555 -0.07027865 -0.05644725 -0.012793107 0.014461307
0.0022758518 -0.053270757 -0.061439957 -0.00054486544 0.018823909 0.0026265453 -0.067188084 -0.08612153
-0.064079694 -0.0354699 -0.049163684 0.008708635 -0.04506018 0.034747913 -0.033392522 -0.06006099
-0.104612395 0.003117585 -0.016157033 0.017743643 -0.035305295 -0.0829232 -0.044686403 -0.046975415
-0.0052114846 -0.022764115 0.013504687 0.00088744145 -0.012243723 -0.019435175 0.010718535 0.0007775522
2.1026187e-06 0.100529514 -0.042758606 0.01752458 0.002414526 0.052358128 -0.013081448 0.094861105
0.1061219 -0.033207476 -0.023345908 -0.0768837 -0.06685212 -0.025015717 0.09447484 -0.058269702
0.040300887 -0.00039975063 -0.12935106 -0.044744175 0.035373617 -0.061321206 -0.100922935 -0.01210012
0.1559449 0.076635845 -0.009055273 -0.1239115 -0.06740913 0.038613636 -0.0033306358 0.01444719
0.014096963 -0.003518191 0.0059304982 0.031639315 -0.050856873 -0.035592303 -0.08560025 -0.018920999
-0.016233204 -0.1120179 -0.05403781 -0.10478914 -0.031947203 -0.07073989 -0.096906304 -0.08933361
-0.06748273 -0.023990579 -0.04255848 -0.007797191 -0.06351215 -0.013578435 0.018863078 -0.0025101926
-0.013856867 -0.08138273 -0.052374534 0.07442225 0.050831713 0.042190272 -0.056441993 -0.10428068
0.058865804 0.044359084 0.0062079113 -0.038026724 -0.0509883 0.012754675 0.0334803 -0.04185128
-0.021935532 0.044028 -0.004407956 -0.11028272 -0.062240697 -0.037662 -0.0064858226 -0.031141538
-0.0028001561 0.07985523 0.04459376 -0.016532788 0.0062995036 -0.014286386 0.00014411367 0.026478462
0.044312026 0.06758137 0.0036971138 -0.027390743 -0.042644177 -0.02722671 0.07815795 0.07603139
0.023086349 -0.0058170077 -0.039474633 0.011878115 0.05344946 0.028663537 -0.061196785 -0.032735277
0.008818389 0.05496319 0.11169073 0.057702683 0.0005056434 -0.032979965 0.03381847 -0.020910703
-0.06499895 -0.018043227 0.03784671 -0.14588365 -0.04020131 -0.05574262 -0.034921024 0.0629698
-0.026995687 -0.14701435 -0.0689628 0.011647067 0.076105826 -0.015867276 -0.0143951345 -0.014980008
0.06604558 0.034216523 0.06937625 -0.07115074 0.042486005 -0.005312993 -0.008929344 -0.0059375367
-0.07665696 -0.075896025 -0.034477998 0.028088955 0.017500162 -0.067046784 -0.03311379 0.018472526
0.072144784 0.0035150286 -0.008553757 -0.11669045 -0.027409717 -0.06139502 -0.023269726 0.11690279
0.096464954 -0.011893495 -0.0049180347 -0.023271289 0.0072538736 -0.023942525 0.004578729 -0.023588225

module.residual_layers.0.0.bn2.weight f4 [16]
00000000: 3286 bd3e ec7d 823e e5c0 583e c599 d33e
00000010: efd6 4f3e ee28 d43e be35 f03e 1efb bc3e
00000020: 99df d93e 6167 e33e cc61 fe3e 1e8b c93e
00000030: e1b1 9b3e 2d29 cb3e a63e 703e 0eee 763e
0.37016445 0.25486696 0.21167333 0.41328254 0.20296834 0.41437477 0.46916002 0.36910337
0.42553404 0.4441481 0.49683988 0.3936395 0.30409148 0.39679852 0.23461398 0.24114248

module.residual_layers.0.0.bn2.bias f4 [16]
00000000: 16b7 49bb 3099 bcbc caeb f2be 2d86 213e
00000010: 948f f73d 3294 b1bc 2ad2 07be cc69 f9bc
00000020: 98b7 b5bd 1a24 c9bd c83c b8be b084 ca3d
00000030: fa02 5b3e 3fd6 973d f7b0 1c3d 912e 70bd
-0.0030779294 -0.023022264 -0.47445518 0.1577384 0.12087932 -0.02167711 -0.13263765 -0.030445956
-0.08872908 -0.09821339 -0.35983872 0.098885894 0.21387854 0.07413911 0.038254704 -0.05863816

module.residual_layers.0.0.bn2.running_mean f4 [16]
00000000: 886a 83be 5c80 aabd e7c9 00bd 1aff d0be
00000010: 44bc c43d 8b1e 84be 5644 a3bd b51d 0bbe
00000020: 7da8 aabc a9b9 8bbd 8c3b 19bd 0f02 97be
00000030: b49b 2abe 368d 843c 1ae6 4b3d f179 6c3b
-0.25667214 -0.08325264 -0.03144255 -0.40819627 0.09606221 -0.25804552 -0.079720184 -0.13585551
-0.020832295 -0.06822521 -0.037410304 -0.29493758 -0.16660959 0.016180616 0.04977999 0.0036083425

module.residual_layers.0.0.bn2.running_var f4 [16]
00000000: 98bf bb3d a84a b33d 856f 3b3d a707 133e
00000010: 3e1e b03d 68d7 333e 13fc 323e d3f7 d93d
00000020: 118e 4c3e f05f 063e 4ae6 793e 5594 093e
00000030: ed32 b33d 3eb6 483e 35c1 913d 64d3 8f3d
0.09167403 0.08754474 0.04576065 0.14358388 0.08599518 0.1756264 0.17478971 0.10642972
0.19976069 0.13122535 0.24404255 0.1343549 0.08749948 0.1960077 0.071169294 0.070227414

module.residual_layers.0.1.conv1.weight f4 [16, 16, 5, 5]
00000000: 1dbd 21bd 3ac0 e43d f93f 283d 9bec b6bd
00000010: 2d05 aa3d 36b8 11bd 0620 14bd c2b2 a83d
00000020: 4e06 89bc 4b34 fa3c f386 123d 4b5d f93c
00000030: 4c1e 87bc 8a70 093d 86f4 06bc 0870 60bd
00000040: d35e 81bc 49d4 a13d c8d0 623c 0010 08bd
00000050: 2064 f7bc 260d b0bd 671f cfbb b45d 063d
00000060: 7c0b 50bd 2533 64bd 38ed 8f3c 7d63 d73d
00000070: 0743 663d 485b 183d e143 b2bc 074c 86bd
00000080: 6301 673d 748e a63d 4585 a83d dee0 16bb
00000090: 8116 8abd 19dc 74bd f0b3 ca3c 4127 8e3d
000000a0: c41e f83b 76ad e03b d0e2 71bd 9920 84bd
000000b0: 6093 f1bc b980 d6bc cd82 033c 0411 f9bc
000000c0: 010a c5bc 0647 5cbc fc59 953b 9f6c 25bb
000000d0: d124 54bd 8bac f8bc aace 75bd 3539 acbc
000000e0: 7c57 023c 9ea4 333b 5d53 40bc 8981 b9bc
000000f0: a453 96bd 359c 56bd 656b 31bd 1ab8 0bbb
00000100: 23a8 c33c cc71 df3c 22a9 19bc 1c4a acbd
00000110: a17b b3bd dc0f 8bbd 93a1 c33c b325 013d
00000120: f0c4 d03c e166 78bc 08cb 94bd 5ba6 8e3d
00000130: 4d0a ad3c fa97 8bbd 6b09 cebc 07c1 ab3d
00000140: 3a2e 8e3d 62c7 1a3d a600 dcbc 7142 84bd
00000150: 0512 ddbc 2663 043e 3357 e63d bfd0 763b
00000160: f5e2 faba 5011 c1bc 11d9 e93a d968 1c3d
00000170: aa8d 873c ccaa 43bd c040 8d3b 30bb 473d
00000180: e77e 5bbd df84 3abd 4df2 0f3b 3154 9a3d
00000190: fadf ec3b 71b3 043d 3af6 8d3d 8046 abbc
000001a0: 3749 b8bc e543 c3bb e30f a8bc e29d 1dbd
000001b0: a266 f43b 34db 05bc 2be4 eb3c e842 883d
000001c0: 5b2d 363d 07fc 73bd 08ee 323c 15fd 5cbc
000001d0: 2de7 23bd f7ca 4a3d cb86 073c b98a 74bc
000001e0: 009f 483d 8519 1abd a591 1cbd fe8e fa3b
000001f0: 207e f93c 4f01 26bc b72e c7bd 3c24 ae3d
00000200: cedc d43d 3deb 8cbd d58f 713b 8b5d 15be
00000210: 9801 14be 59e2 443e ade0 5cbc a696 823c
00000220: ff54 ef3d 7131 09be 80ce 1fbe c180 e93d
00000230: cc89 b93c a6f7 693d 96fd c03c b121 06be
00000240: 6691 afbd 8ddf f13c 022f 333d 1b50 d63d
00000250: c320 9dbd de64 57bd 0014 c4bb 086f 0cbd
00000260: 8bbc e73d 1b05 ddbd 9004 20bd 0714 a03c
00000270: 583f 03be 4e03 8f3d 342f 4c3e 0dad 28be
00000280: e9bb 6fbc 36dc c43d 7c2d 78be cf65 ec3d
00000290: 02c4 0b3c a501 59bd dbc6 913d 8dfe 4abd
000002a0: 064b 76bd f4b9 d13d 7723 1c3d 7d4b cfbc
000002b0: 7ca2 353b e0ca f1bc fc6d 383d 10a0 14bd
000002c0: 1d6e f53c b742 bf3c 4cad da3c d335 1b3c
000002d0: 7ad7 003d 53d7 c43c 0ca7 24bc 6d09 173d
000002e0: 35eb 963d cc84 bb3c 7897 bfbb e272 8abd
000002f0: b54c 4b3d 7038 18bc 58f7 6e3b 8a00 913d
00000300: 89e7 5abc 6831 4bbc 38da 94bb c502 fc3c
00000310: d2b7 9f3c 5042 21bc 1244 6bbc adbd 863c
00000320: b6a8 e23d c777 05bc 11b6 cabd 5e86 d1bd
00000330: a547 cbbd 1cd5 103d 0503 ae3d faad 863d
00000340: 26a9 85bc 5e0b e1bd f200 73bb 6486 37bd
00000350: 4211 2d3b f0ab 243d 162a d53d 4f39 ffbc
00000360: 4428 0abd 404a 64bd 3c0e b8bd 803d 2fbd
00000370: 3c29 58bd 9654 fd3c 9db3 8c3d 436b 2b3c
00000380: b32b ddbb a3c9 debc 0d52 40bd f1ea 2ebd
00000390: 619b 583d 8b56 a93c 9760 07bc c849 32bc
000003a0: 0aa7 55bd 4b03 98bd 8dd6 863c 58e9 0fba
000003b0: efd8 38bd 8972 623e 8aaa 4e3d 99a5 94bd
000003c0: ca65 8cbd 4efa 39bd 44d2 4abd f6e1 923c
000003d0: 8b1c 56bd a75a 433d 1bd2 46bd 1e9b 2bbd
000003e0: f68a 68bc 03f2 e9bd 369b 7b3c 13a0 8bbd
000003f0: 4c22 e83c 29dc b5bc 7fa8 aebc 5a13 1abd
-0.039486993 0.11169477 0.041076634 -0.08931848 0.083017685 -0.035576068 -0.036163352 0.0823722
-0.01672664 0.030542513 0.03577323 0.030439993 -0.016493939 0.03355459 -0.00823701 -0.05479434
-0.015792286 0.07901818 0.013843723 -0.033218384 -0.03019911 -0.08596258 -0.006320882 0.032804206
-0.050792202 -0.055712838 0.01756917 0.10517023 0.056216266 0.037196428 -0.021760883 -0.0655747
0.056397807 0.081326395 0.08228544 -0.0023022215 -0.067425735 -0.059780214 0.024744004 0.06941081
0.007572027 0.0068566157 -0.059054196 -0.0645153 -0.02948922 -0.026184427 0.008026791 -0.030403621
-0.024052622 -0.013444668 0.004557846 -0.0025241745 -0.051792923 -0.030355712 -0.060011543 -0.021023372
0.007955428 0.0027411352 -0.011738625 -0.022644775 -0.07340172 -0.052395064 -0.04331531 -0.002131945
0.023883885 0.027275942 -0.009378703 -0.08412573 -0.08763815 -0.06790134 0.023880756 0.031530093
0.025484532 -0.015161247 -0.07265288 0.069653235 0.021123076 -0.068160966 -0.025150975 0.083864264
0.06942411 0.037787803 -0.026855778 -0.06457985 -0.026986131 0.12928447 0.11247101 0.0037661043
-0.0019141125 -0.023567826 0.001784118 0.038185928 0.016547043 -0.047770306 0.0043106973 0.0487625
-0.05358782 -0.045536872 0.002196449 0.075355895 0.0072288485 0.03239769 0.069317296 -0.02090764
-0.022495849 -0.0059590214 -0.020515388 -0.038480647 0.007458524 -0.008169938 0.028795322 0.06653386
0.044476848 -0.059566524 0.010921009 -0.013488074 -0.04001539 0.04950997 0.008271883 -0.014925652
0.04897976 -0.037621994 -0.038224835 0.0076464405 0.030455649 -0.010132148 -0.09725707 0.08503005
0.10393678 -0.06880806 0.0036859412 -0.14586465 -0.14453733 0.1922697 -0.013481301 0.015940975
0.116861336 -0.13397767 -0.15606117 0.11401511 0.022648714 0.05712094 0.02355842 -0.1309879
-0.085726544 0.029525543 0.043746002 0.10464498 -0.076722644 -0.05258643 -0.0059838295 -0.034285575
0.113152586 -0.107919894 -0.03906685 0.0195408 -0.12817132 0.06983052 0.19939882 -0.16472264
-0.014632204 0.096123144 -0.24236101 0.11542856 0.008530619 -0.052980084 0.07118007 -0.049559165
-0.06013014 0.10240546 0.03811976 -0.02530455 0.0027715256 -0.029515684 0.045026764 -0.03628546
0.029959733 0.023347242 0.026693963 0.009473282 0.031455494 0.024028456 -0.010049593 0.036874224
0.07369081 0.02289047 -0.005846914 -0.067601934 0.0496337 -0.0092907995 0.0036463346 0.07080181
-0.013360866 -0.012401916 -0.0045426153 0.03076304 0.019496832 -0.00984247 -0.014359491 0.016447866
0.11067335 -0.008146233 -0.09898008 -0.10230707 -0.099257745 0.035359487 0.0849667 0.06576152
-0.016316008 -0.10988496 -0.003707942 -0.0448059 0.0026407992 0.040203035 0.10408418 -0.031155257
-0.033729807 -0.055734873 -0.0898709 -0.04278326 -0.0527737 0.030924123 0.06870196 0.010462585
-0.006749594 -0.027195757 -0.04695325 -0.042704526 0.052882556 0.02067115 -0.008262775 -0.010881849
-0.052161254 -0.07422503 0.016459728 -0.0005489788 -0.04512876 0.22114004 0.050455607 -0.07258148
-0.06855352 -0.045404725 -0.04951693 0.017930012 -0.052273314 0.047693875 -0.048540216 -0.04189598
-0.014193287 -0.11423113 0.015356829 -0.06817641 0.028336667 -0.022199707 -0.02132058 -0.03761611

module.residual_layers.0.1.bn1.weight f4 [16]
00000000: 1625 f63e 10d7 c93e 190d b23e 229a b23e
00000010: 4382 8e3e 0bbc bf3e b052 8f3e b388 8e3e
00000020: daa0 9b3e ba0f bf3e 56e0 c13e 428e e33e
00000030: 3051 e93e cd0c e93e 37d4 da3e 06b6 af3e
0.4807517 0.39421892 0.34775618 0.3488322 0.27833757 0.37448153 0.27992773 0.27838668
0.30396158 0.37316686 0.37866467 0.44444472 0.45569754 0.4551758 0.42740032 0.3431856

module.residual_layers.0.1.bn1.bias f4 [16]
00000000: 51c8 34be 1839 1ebe 390c 34be b9c2 0cbe
00000010: b4b6 d2bd b6fa 45be d9d5 56bd a3d0 6bbe
00000020: 849e 24bd 8b3c bfbd a342 79be 4624 f5bd
00000030: 26d5 cebd 1149 11be a1ce 65be 1e51 54be
-0.1765454 -0.15451467 -0.17582788 -0.13746156 -0.10288754 -0.1933392 -0.052450035 -0.23028807
-0.040190235 -0.093377195 -0.24341826 -0.11969809 -0.100992486 -0.14188029 -0.22442104 -0.20734069

module.residual_layers.0.1.bn1.running_mean f4 [16]
00000000: 00ca 41be 0761 d2be 06b6 92bf 8369 dfbd
00000010: eb22 18bf 611d 18bf 4e13 7abf e6e7 aebe
00000020: eff9 f0be ca41 7cbf 1c11 2fbd 3aad 39bf
00000030: b9b0 7abd 989a 49be bb9a b2be 0681 e3bc
-0.18924713 -0.4108965 -1.1461799 -0.10908797 -0.5942828 -0.5941983 -0.97685707 -0.341613
-0.47065684 -0.98537886 -0.042740926 -0.7252995 -0.061203692 -0.19687879 -0.34883675 -0.027771484

module.residual_layers.0.1.bn1.running_var f4 [16]
00000000: 0c92 673f adff d63e bd05 7a3e d910 cc3e
00000010: f415 4a3e 796d ec3e 80bb 903e 1c9f 003e
00000020: d842 853e c72b f43e 7555 c03e 947b 933f
00000030: 6eef aa3f 6826 8c3f 176f 2e3f 5299 643e
0.90457225 0.4199194 0.24416251 0.39856604 0.19734937 0.4617727 0.2826805 0.12560695
0.2602756 0.4768965 0.375652 1.1522088 1.3354318 1.0949221 0.6813826 0.22324112

module.residual_layers.0.1.conv2.weight f4 [16, 16, 5, 5]
00000000: e78b dbbc 307e 003b 7dc0 e73d cbdc a83b
00000010: 4ab0 1dbd 1307 b43b d139 cdbc ebdd 7a3c
00000020: d285 dd3c cdef 8bbd 4582 9bbb e32f 17bd
00000030: 2e22 53bc 12ef 81bd 5970 a53d 7a39 1ebd
00000040: 0da9 b8bd 5220 9fbd 21f8 5fbd fd22 10bd
00000050: 7c6f 32bd 5951 41bd 3d5e cf3c 7193 b03a
00000060: 7ba7 053d fd08 81bd ecbe 6fbd 9b08 553d
00000070: 5bb1 40bc 36ca 19bc ddab 8b3d 4244 b83d
00000080: 5826 f4bd b838 0fbd 0931 95bc 704e c33d
00000090: 9d75 933c da00 95bd c907 95bd 0e0c dbbd
000000a0: cf46 03bd 0d85 143c 34de bbbc 7613 52bd
000000b0: 99bc abbd fbba a73d db72 103d 2a42 3ebd
000000c0: 2465 993d b8bf 48bb af0b 043d 1b43 543d
000000d0: 78dd 25bd 6d0b 8abb e01f 9cbb 7e05 b23d
000000e0: b6d9 58bc 6700 82bd 6743 8bbd a41c a4bd
000000f0: cb25 b3bb 1cf9 8ebc f842 84bd 1994 dabc
00000100: 028e da3b ec17 143c 6e72 3fbd c770 3ebd
00000110: 142a a53c c6ff 3e3a e87e 2bbd 4011 a1bd
00000120: 64c9 40bd 69d6 febb 7e94 21ba 06d8 073b
00000130: 6ace 963d 6584 94bd d1bc 453d 8bf8 9ebb
00000140: 4737 88ba 0883 8bbb 1f71 653c 916b 19bc
00000150: 2a63 26bc f8fd 4d3c ab5f e73a ba32 fabc
00000160: d065 f1bc 772a 1f3d a16a 8f3c 52fe 953c
00000170: 2183 833d 16af 473d 8966 09bd 1ef0 b9bb
00000180: e577 a33d b85b 733d 0c28 d1bd 123f c6bc
00000190: e500 3f3d 2d56 593c 8fa6 5cbc d78d 933d
000001a0: c0ba 7c3d f3ff 0e3d 1cf6 8f3c 3f9a 8e3c
000001b0: d73e 283d 9b45 c63c cfe9 6e3d 2abd 893d
000001c0: 42ac 713d 680d 913d 3566 adbc 907f a33d
000001d0: a839 4a3d d7bf b03d 7781 3b3d 9a81 84bd
000001e0: 0275 ba3c 7186 5ebb 49ce adbc 5e49 853c
000001f0: df62 123b bbfc fe3c b3c5 783d 3562 8e3d
00000200: 7743 2e3d 01b8 c6bc 397c 883d dba7 653d
00000210: 2b6c c43d c140 8b3d d3c7 8d3d 7a52 413d
00000220: f022 0e3e 5bb3 283e af38 853d 1742 773d
00000230: 8413 983d acea 3c3e 959c 163e f06d 5d3d
00000240: 7270 833d a615 6ebb 2366 4b3d 28f6 013d
00000250: 6c22 84bd 95d2 423d 8134 c3bc 0aec 813c
00000260: f204 543c 7ca9 c7bc 877c 04bd 2398 b8bc
00000270: cc92 583a d86d 01bd 3fa6 243c 4109 8ebc
00000280: 0455 c8bc a37e 03bd aa3b cf3c 084c 913b
00000290: 2772 ce3b 1d70 76bd e06c 5ebc e5da 503d
000002a0: 1bbc 26bb ec50 1b3d 7dd4 8fbd 341b a2bc
000002b0: 1241 bf3b 21ae 083b 23b8 9c3c f8d3 3ebd
000002c0: 74ee 89bd 4477 c2bc e3f3 f53c 18c0 043d
000002d0: 865c 0b3a a4a0 7abd 7e98 c1bc 2d51 89bc
000002e0: eb63 85bc 52d7 a73d 20a2 f3bc b858 f7bc
000002f0: 40b1 67bd 2049 16bc 5861 2c3d dbc4 d2bc
00000300: 8c6c 66bd 05c6 51bd 5a34 83bc 9938 c63b
00000310: 1576 2fbc b95a 73bd d9d5 0cbd db78 cfbc
00000320: f5e3 553d f5e5 123d bcb1 e1bc 9771 4d3d
00000330: 878c ed3c 0029 b13d 745c ffbb 6b7f 2fbd
00000340: f110 57bd 78f5 813c 4e58 5fbc 1bcf 24bd
00000350: c591 68bc cc49 50bd 28a9 39bc 32f7 893d
00000360: 9052 b7bc b378 abbc 1a1a 2d3d dba2 dfbc
00000370: 99fd cebc 2bd2 d63c 65be 8bbd e5b9 0abd
00000380: 7e5d 67bd 80b9 94bc 7f3e 533d 0dbd 15bd
00000390: 093b a73c 569c 4abc 0c5a fc3c 63cc b83b
000003a0: 655d ccba 7f5d 653c 0ec2 ffbc ce1f 71bc
000003b0: a365 a4bd f75e dbbc e486 ecb9 4aad 773c
000003c0: 1cfb b13c 3136 803c f4a7 053d b868 a3bc
000003d0: 264c 2b3d e057 443d bc55 db3c 5821 d83c
000003e0: 2d55 643d ef60 c93c 9a0f abbd 21e7 3f3a
000003f0: 6861 ea3c 2d23 183d 22ba 39bd 293b 053d
-0.02680011 0.0019606464 0.11316011 0.0051532737 -0.0384982 0.0054940074 -0.025051983 0.015311698
0.02704135 -0.06832848 -0.004745754 -0.036910903 -0.012886567 -0.06344427 0.08078069 -0.038629033
-0.09016619 -0.077698365 -0.054679994 -0.035189617 -0.04356335 -0.04719672 0.025313491 0.0013471675
0.032630425 -0.063005425 -0.058531687 0.05201016 -0.011761035 -0.00938659 0.0681989 0.08997394
-0.11921376 -0.0349662 -0.018211858 0.09536445 0.018000418 -0.07275553 -0.072768755 -0.106956586
-0.03204995 0.009064925 -0.022933103 -0.05128809 -0.083855815 0.081899606 0.035265785 -0.046449818
0.07489994 -0.0030631851 0.032237705 0.05182181 -0.040494412 -0.004212788 -0.004764542 0.08692454
-0.0132355 -0.06347733 -0.06799965 -0.08013275 -0.0054671518 -0.017452769 -0.06458086 -0.026681947
0.0066697607 0.009038907 -0.046739988 -0.04649427 0.020161666 0.0007286038 -0.041869074 -0.07864618
-0.04706706 -0.0077770245 -0.00061637897 0.0020728125 0.07363589 -0.07251815 0.048275772 -0.004851406
-0.001039245 -0.0042575635 0.014004021 -0.009364025 -0.0101554785 0.012572758 0.0017652413 -0.030541766
-0.029467493 0.038858857 0.0175069 0.018309746 0.06421495 0.04875096 -0.03354505 -0.005674376
0.079818524 0.05941364 -0.102127165 -0.024199996 0.046631712 0.013265175 -0.013467445 0.07204788
0.061701536 0.03491206 0.017573409 0.017407535 0.041075554 0.024203112 0.058328446 0.06725533
0.05900217 0.07082635 -0.0211669 0.07983315 0.04937139 0.086303405 0.045777764 -0.06470032
0.022760872 -0.0033954645 -0.021216528 0.016270336 0.0022336764 0.03112637 0.060735416 0.06952325
0.04254481 -0.024257662 0.066643186 0.056068283 0.09590944 0.0679946 0.06922879 0.047197796
0.13880515 0.16474669 0.06504952 0.060365763 0.07425597 0.18448895 0.14708169 0.054059923
0.064179316 -0.0036328821 0.049657952 0.031728894 -0.06451878 0.047564108 -0.023828747 0.015859623
0.012940632 -0.024372809 -0.03234532 -0.022533482 0.00082616205 -0.031598896 0.010049402 -0.017338397
-0.024454601 -0.032103192 0.025297005 0.0044341125 0.006300229 -0.060165513 -0.0135757625 0.050990004
-0.002544171 0.03791897 -0.07022951 -0.019788362 0.0058366144 0.0020855742 0.019130772 -0.046588868
-0.067349344 -0.02373851 0.03002352 0.032409757 0.0005316216 -0.061188355 -0.023632284 -0.01676234
-0.016282996 0.08195366 -0.029740393 -0.030193672 -0.056565523 -0.009172708 0.04208502 -0.025728634
-0.056255862 -0.051214237 -0.016016174 0.0060492274 -0.010709305 -0.05941269 -0.03438363 -0.025326183
0.05221935 0.035863835 -0.02755057 0.050157156 0.028997673 0.08650398 -0.0077930037 -0.042846125
-0.05250639 0.015864119 -0.013631893 -0.040236574 -0.01419491 -0.05085163 -0.011331834 0.06736602
-0.022378236 -0.020931577 0.04226122 -0.027299335 -0.02526741 0.026223263 -0.06823424 -0.03386869
-0.056485645 -0.01815486 0.051573273 -0.036557246 0.020413892 -0.012366375 0.030804656 0.005639599
-0.0015591799 0.013999342 -0.031220462 -0.0147170555 -0.08027198 -0.026778681 -0.0004511393 0.015116999
0.021726184 0.01565084 0.032630876 -0.019947395 0.041820668 0.047935367 0.02677428 0.026383087
0.055745292 0.024582354 -0.08352585 0.00073205127 0.0286109 0.03714292 -0.045343526 0.032527123

module.residual_layers.0.1.bn2.weight f4 [16]
00000000: fa24 873e 9f0a 4f3e 1d44 c83e 4b3b c13e
00000010: d5d5 dc3d 246a c53e dd6f 8d3e 06d6 cc3e
00000020: c79a a53e a089 f93e 7aa4 423e b9bf de3e
00000030: 69fe b93e 66ad 773e 4e14 763e 9bd3 483e
0.26395398 0.20218895 0.39114466 0.3774055 0.10782973 0.3855754 0.27624407 0.40007037
0.32344648 0.48737812 0.19008055 0.43505648 0.36326912 0.2418724 0.24031183 0.19611971

module.residual_layers.0.1.bn2.bias f4 [16]
00000000: c7f5 0b3e c555 003e 4623 22be 0d4d 153e
00000010: cba0 d63d eb50 cdbd dcc5 40bf 149b e33d
00000020: 0480 90bd 0c79 063e c97b 4cbe eafa 003e
00000030: 87a3 843d 30b7 d2be 5510 8a3d b718 793c
0.13667975 0.12532718 -0.15833768 0.14580174 0.104798876 -0.100251995 -0.7530191 0.11113563
-0.07055667 0.13132113 -0.19969095 0.12595716 0.06476503 -0.41155386 0.06741396 0.015203646

module.residual_layers.0.1.bn2.running_mean f4 [16]
00000000: 1b49 48bd 133e abbd 8cb5 99bd 96fa bdbe
00000010: 0b4e 553c 4990 b3bd 0b09 43bd 04b9 abbe
00000020: 0100 82be 5837 debe 5c8c 93bd 03a2 e6bd
00000030: f3c3 053e f241 10bd ecb7 8e3c 9f3d 543e
-0.048897844 -0.08361449 -0.075053304 -0.37105244 0.013019095 -0.087677546 -0.047616046 -0.33539593
-0.25390628 -0.434016 -0.07204506 -0.1126137 0.1306303 -0.03521914 0.017421685 0.20726632

module.residual_layers.0.1.bn2.running_var f4 [16]
00000000: fe88 853d b611 853d de0c 8d3d 0ef4 163e
00000010: ee26 0c3d f148 c83d 5a47 643d ea26 c43d
00000020: ec35 a53d 9fc2 373e 8034 1a3d 7af4 0c3e
00000030: 2074 f43d bb6b 3a3d b9fa 643d 4b78 5c3d
0.0652027 0.06497519 0.0688722 0.14741537 0.034216814 0.097795375 0.05573211 0.09577735
0.080669254 0.17945336 0.037647724 0.13765135 0.119362116 0.045512896 0.05590317 0.053825658

module.residual_layers.1.0.conv1.weight f4 [32, 16, 5, 5]
00000000: 153a 08bc ebc7 b7bc 8787 81bd 6ed3 693d
00000010: 50a0 e73b e3b5 4ebd 9b30 3fbd bc57 55bd
00000020: b653 9cbc 6169 903c 6f31 0bbd 6425 2239
00000030: 618c 25bd cd01 1c3d 4bd6 413d 52d9 0dbd
00000040: 5f0f bcbc d178 1d3c 491b 89bd 1599 a4bd
00000050: 5ba3 a6bd c156 91bc 6705 d1bc 7e54 a1bd
00000060: 5b39 babd fd4c 323d ba68 003d a09d 2c3d
00000070: 93ea 3c3d 284a 143d f114 f4bc 82d5 c1bc
00000080: c1bf b33d b9ef 8e3b b526 aa3d 3e4b 963a
00000090: 9219 273c 7e76 933c d28a 273c ebd1 d73c
000000a0: 0767 a23d c308 703c a2c6 e13c a5b4 2fbd
000000b0: 7802 ad3c d01c 163d 3ed2 dfbc ea6f 8dbd
000000c0: 8f7e 4abd 274c 20ba 0b87 413c fdb0 47bd
000000d0: db4e 0abd bbc1 91bd f0c0 ffbc b413 803d
000000e0: e8b9 b73c 83c1 83bb d155 57bd 2162 a6bc
000000f0: 20c5 2f3d d5ed 783d a95e 2a3d cc21 08bd
00000100: dd89 81bd 675e 7dbc bbf4 573d 256d e23c
00000110: efbd 183d 048d c2bd c52b 18bd 8cb6 0ebd
00000120: 5d17 83bc 97b3 2939 69d4 f83b 3f39 653d
00000130: b0ee abba a824 94bd bb84 93bd 6c04 aabc
00000140: f4f0 c23d d174 22bc 9f58 fabd 8d01 0abd
00000150: 4251 1abd 7361 6e3d 23e8 fd3d 810b ebbc
00000160: ad74 b8bd 9501 0ebd 2fb6 c23d 0da2 0a3e
00000170: fddc 793d 9ee7 b4bc d5fe 15bd ae5d 8dbc
00000180: 8754 843d fc9f 683d 0177 6c3d 49d5 253d
00000190: 8f5f f1bb 017a 2abd 5e60 35bd 828b c7bc
000001a0: f835 963d 827e c9bb 9d71 4ebd 58df afba
000001b0: 7ada a83a eaa2 dd3d 7c7c 5bbb fe3c fe38
000001c0: eb20 19bd c2f9 34bd ed36 223d 658b b23b
000001d0: a282 553c 9cba 97bc 8f0a 5fbc 598a ffbc
000001e0: c4ac 39bd 9ec2 70bd 1720 0abd 8026 1b3c
000001f0: 8c60 5b3c a383 31bd 78f5 8fbd eee3 cb3d
00000200: e769 2b3d 64a0 09bd ec6f 13bd 3415 08be
00000210: 6fda ba3d 2d0a ec3d bdaa 8abc cd5b 4bbc
00000220: c757 c6bd 58a8 55bd 9aae 0b3e f2ee 7c3d
00000230: 018b 933b 560f fabc 6e6b 333c 7614 4b3d
00000240: 49c4 233c 5821 023d 608a 8f3d 386a a9ba
00000250: f23d 69bc 4df3 cc3b 8fde 78bd 5d56 113d
00000260: 8abc 2bbd d351 a33c 4ab3 d83c db3e 86bd
00000270: 54d6 56bd 54fa 0bbd d347 91bc f434 c4bc
00000280: 11f8 833d 89e1 ca3b f33d b9bc 38b6 98bb
00000290: 3689 0cbd cf2a 093e d84b cd3c 3731 83bd
000002a0: ac85 93bd 758b bfbd 8cfd 48bc e2ee 7b3d
000002b0: 1db4 b1bb f676 ddbc 831a 2bbd 5ac9 743d
000002c0: 1b18 26bd 38a3 78bd 9380 a6bd d49a 413c
000002d0: 5e73 a53d 8dae 6fbd 43c8 53bd 6daa dbbd
000002e0: 4492 32bd 21d8 963d a17c e8bc 5466 cbbd
000002f0: 2266 debd 548d e8bd 8251 b23d 8d80 113e
00000300: cc72 df3c fa52 d6bd c36c 0fbe 88ae 493d
00000310: 57e4 853d 1352 df3c 7843 833c 9fbd 8abd
00000320: 08ec 95bd 1dee 63bd 4ad7 cdbd 7ced 7dbd
00000330: a098 0a3d 3d48 583d cf7a a13b 8d9a 73bd
00000340: 63a3 cbbd 1e60 f7bd a2a9 54bd 5904 a63c
00000350: 9603 443c 201d aabd 216c 8ebd 5b5c 9cbd
00000360: 70ef 8e3c eae5 03bd 11e0 19bd a565 d6bd
00000370: 75a8 b4bd 5fc7 5ebc da55 073d adea cfbc
00000380: 436b 03bd be3a d0bb 5915 e8bc 969b 13bc
00000390: acbd 583d c6b7 92bd 7d7b 5c3d 4f58 603c
000003a0: 6034 f93c 5a15 773d fbdc 093d c658 1cbd
000003b0: 54da 4d3d 7365 b23c c03d c33d d6eb 373c
000003c0: 8034 14be 4ffd 1e3d a442 433c 7b96 863d
000003d0: 9d63 bd3d e08d 53bd b7e2 3bbd 69a6 023c
000003e0: 57b3 18bd 8309 56bd 5929 a4bd 739c a43c
000003f0: 00ce fabb ea30 72bd 836e 8e3c ffb3 47bd
-0.008314629 -0.022434196 -0.06324678 0.0570864 0.0070686713 -0.05046643 -0.046677213 -0.052085623
-0.019082885 0.017628374 -0.03398269 0.00015463453 -0.04041708 0.038087655 0.047323506 -0.03463108
-0.022956548 0.009611324 -0.06694657 -0.080370106 -0.08136626 -0.017741563 -0.025515271 -0.07877444
-0.09092971 0.043530453 0.031349875 0.04214251 0.046122145 0.036203533 -0.029795142 -0.023661379
0.087768085 0.0043620733 0.08308164 0.0011466516 0.0101989675 0.018000837 0.010225968 0.026345214
0.07929807 0.014650526 0.027560536 -0.042896885 0.021119341 0.03664857 -0.027321931 -0.069061115
-0.049437102 -0.0006114863 0.011811982 -0.048752774 -0.03376661 -0.07117029 -0.03121993 0.06253758
0.022427514 -0.004020871 -0.052572075 -0.020310463 0.042912602 0.06077369 0.04159418 -0.033235356
-0.063251235 -0.015464402 0.052723628 0.027639935 0.03729051 -0.09499553 -0.037151117 -0.03484206
-0.016002351 0.00016183998 0.0075936806 0.055962797 -0.0013117399 -0.07233554 -0.07203051 -0.020754062
0.095186144 -0.0099155465 -0.122239344 -0.033692885 -0.03767515 0.058198404 0.12397792 -0.028692009
-0.09006629 -0.034669477 0.09507405 0.1353838 0.061001766 -0.0220831 -0.03661998 -0.017256584
0.06461435 0.056793198 0.05773068 0.040486608 -0.007366128 -0.04162026 -0.044281356 -0.024358515
0.073345125 -0.006149114 -0.05040132 -0.0013418002 0.0012882494 0.10822089 -0.0033490947 0.000121230245
-0.03738491 -0.0441835 0.039603163 0.005448746 0.013031634 -0.0185216 -0.013613357 -0.031193899
-0.045330778 -0.05877935 -0.03372201 0.009469628 0.013389718 -0.04333843 -0.07029241 0.099555835
0.041849043 -0.033600226 -0.03599541 -0.13289338 0.09123694 0.115253784 -0.016927117 -0.012412024
-0.09684711 -0.0521625 0.13640824 0.061751314 0.0045026545 -0.03052489 0.010950906 0.04958006
0.0099955285 0.03177008 0.07008815 -0.0012925332 -0.01423596 0.0062545897 -0.060759123 0.035482753
-0.04192785 0.019936478 0.02645268 -0.065549575 -0.052450493 -0.03417428 -0.017734444 -0.023951031
0.06443799 0.0061914367 -0.022612548 -0.004660394 -0.034310542 0.13395236 0.02506058 -0.06405871
-0.0720323 -0.09352771 -0.012267482 0.061507113 -0.0054230825 -0.027034264 -0.04177333 0.059762336
-0.040550333 -0.060702533 -0.08129992 0.011816699 0.08078645 -0.058516074 -0.051704656 -0.107258655
-0.04359652 0.07365442 -0.02837974 -0.09931627 -0.10859324 -0.11355081 0.08706953 0.14209194
0.02727642 -0.10465045 -0.14006333 0.04923871 0.06537693 0.027260816 0.016023383 -0.067744486
-0.0732041 -0.055647004 -0.10050829 -0.06199406 0.03383696 0.052803267 0.00492797 -0.059473563
-0.09943273 -0.1207888 -0.051919587 0.020265745 0.011963746 -0.083063364 -0.06954218 -0.07634803
0.017448157 -0.032201685 -0.037567202 -0.10468606 -0.08821193 -0.013597338 0.03304086 -0.025380457
-0.032084715 -0.006354659 -0.028330492 -0.009009263 0.05291526 -0.07163958 0.053828705 0.013692929
0.030420482 0.060323097 0.03365801 -0.0381706 0.050257042 0.02177689 0.09533262 0.011225661
-0.14473152 0.038815793 0.011917744 0.065716706 0.09247515 -0.051648974 -0.04587051 0.007974246
-0.037280407 -0.052255165 -0.08015699 0.020094132 -0.0076539516 -0.05912868 0.01738668 -0.048755642

module.residual_layers.1.0.bn1.weight f4 [32]
00000000: d5a8 c83e c41c c93e fa80 d83e 9c10 b53e
00000010: a234 e23e 8e34 d13e fe0d d53e 5d83 cc3e
00000020: 57da c03e ee1c c63e 19d5 c03e 5dff bc3e
00000030: aa4e bc3e 690e d33e 3b68 d03e 7814 d53e
00000040: 4a4b df3e 1946 ca3e c326 db3e 097b c03e
00000050: 59a7 e73e dd43 d83e 5190 d63e ba81 da3e
00000060: 22c7 b23e 19f5 cb3e 1726 c23e d84e b83e
00000070: 5f12 ea3e e85e c33e 1a24 d73e f85f c53e
0.3919131 0.3927976 0.422859 0.35364234 0.4418078 0.4086041 0.41612238 0.39943972
0.3766658 0.38693947 0.3766258 0.36913577 0.36778766 0.41221932 0.40704522 0.4161718
0.43612128 0.39506605 0.4280301 0.37593868 0.45244864 0.42239276 0.4190698 0.426771
0.3491755 0.39835432 0.37919685 0.35997653 0.4571714 0.38158345 0.4201973 0.3854978

module.residual_layers.1.0.bn1.bias f4 [32]
00000000: 9081 88be 20fe 7fbe e2b4 a8be 15ee c4bd
00000010: 7c7c a3be f2d0 6cbe 9c4f 28be 8d0f cfbd
00000020: 79cd 16be 59e5 01be f75e 03be e71b 56be
00000030: aee5 61be 2141 85be 004e 08be 9c6a 1dbe
00000040: 9c88 9bbe ee5e 22be b648 ffbd 6d81 70be
00000050: ba7a 63be 19e7 91be 6b03 5dbe 7c63 acbe
00000060: f1f7 dbbd 67c3 46be 971e 23be e502 bcbd
00000070: 3c4c b2be f2c5 40be 9a72 acbe 4af7 51be
-0.26661348 -0.24999285 -0.32950503 -0.09615723 -0.31930912 -0.23126581 -0.16436619 -0.10110388
-0.14726819 -0.12685145 -0.12829195 -0.20909081 -0.22060272 -0.26026252 -0.13311005 -0.153727
-0.30377662 -0.15856525 -0.124650404 -0.23486872 -0.22214785 -0.28496626 -0.21583335 -0.3366965
-0.107406504 -0.19410478 -0.15929638 -0.091802396 -0.34823787 -0.1882551 -0.33681184 -0.2050449

module.residual_layers.1.0.bn1.running_mean f4 [32]
00000000: 38bb 65bf 7cf8 cdbf 6393 0bbf 5fbe a3bf
00000010: a582 6abd ae5f 0ebf 9f66 cdbf 707e 3cc0
00000020: 5c0c 88bf c48b 5ebf 992c 76bf a9ca 44bf
00000030: afc3 bbbf c72f 39bf b83b 2a3f 415b f8bf
00000040: 272d 5bbf 5a42 83bf ab19 1cbf 5e6d 67bf
00000050: faee 8ebe 8f82 b4bf a462 82bf a435 aa3f
00000060: 69f6 79bf 7692 6dbf 2300 f6bf 88a2 4fbf
00000070: 806a 8fbf 4d0e 3fbf 9c38 08bf 6432 cc3e
-0.897388 -1.6091456 -0.5452177 -1.2792472 -0.0572535 -0.55614746 -1.6046942 -2.9452171
-1.0628772 -0.86932015 -0.961618 -0.76871735 -1.4669093 -0.7233853 0.66497374 -1.9402848
-0.8561577 -1.0254624 -0.60976666 -0.90401256 -0.279167 -1.4102343 -1.0186353 1.329762
-0.9764162 -0.92801607 -1.9218792 -0.8110738 -1.1204376 -0.74631196 -0.5321138 0.39882195

module.residual_layers.1.0.bn1.running_var f4 [32]
00000000: 73f9 0a3f bd12 0f3f ca15 e83e d1c9 013f
00000010: 0853 073f 3147 df3e e7b4 2b3f f4dc 1d3f
00000020: 5a9f 193f 8842 0e3f 5c96 0b3f 26c7 e63e
00000030: 61cd f03e 6c2d 0a3f 67aa 393f 1ae3 2d3f
00000040: 5592 033f fbba 0e3f b4da 2c3f 32a5 063f
00000050: c2bc 1b3f a276 073f 88dd 0f3f f65b 0b3f
00000060: 2c6f 043f 7430 023f 2d5f 043f eca5 1a3f
00000070: dbc5 0e3f 43c6 ee3e 627c e23e 0fff 043f
0.5428688 0.5588797 0.45329124 0.5069857 0.5286107 0.43609002 0.6707291 0.6166527
0.60008776 0.5557027 0.54526305 0.45073813 0.47031692 0.5397556 0.7252564 0.67924654
0.5139516 0.5575406 0.67521214 0.5259582 0.60834897 0.52915394 0.56197405 0.54437196
0.51732135 0.50855184 0.51707727 0.60409427 0.55770653 0.46635637 0.44235522 0.5195169
