summaries/good_ResNet3_num_blocks2x1x1_num_channels16_conv3/ckpt.pth (torch, 358041 bytes, 57 tensors)

module.conv1.weight f4 [16, 3, 3, 3]
-0.10950656 -0.32221654 -0.20557417 0.22679275 0.10955877 0.014489617 0.034279212 0.09468596
0.051540684 -0.23042934 -0.3531311 -0.17638458 0.085278265 0.13620304 0.07621138 -0.010721649
0.1543774 0.09540327 -0.17178048 -0.38941106 -0.34545386 0.19184436 0.15613359 -0.0071698353
0.22937396 0.30876136 0.17954552 -0.5223798 -0.7053799 -0.36385834 0.22607118 0.1808639
0.03800419 0.34195784 0.98428017 0.04631325 0.17492954 0.1780635 0.34158912 0.15102027
-0.33153373 0.07108408 -0.22186331 -0.3721655 -0.20716456 0.23565464 0.39690557 0.29313126
0.10391716 -0.27713788 0.024298336 -0.20890129 -0.43297774 -0.033045433 -1.1578167e-09 -3.031318e-10
-4.797316e-10 -2.3184583e-10 7.3863793e-10 1.0627045e-10 -2.7574246e-10 -7.983955e-10 -5.1217836e-10 -1.5724994e-09
-1.5712491e-09 -2.0276174e-09 3.2292377e-10 2.2447537e-10 9.587983e-11 -6.825156e-10 1.3667553e-10 -3.9463505e-10
-1.5139854e-09 -6.356222e-10 -1.2351062e-09 -5.437403e-10 1.5946856e-09 -1.5896555e-10 -9.302601e-10 6.289772e-10
-2.4117855e-10 -0.37055737 0.010920392 0.33404604 -0.74861205 -0.35057256 0.6032639 -0.40395936
0.22366141 0.6004742 0.11096227 0.19411577 -0.10875974 0.1432605 -0.21666443 -0.3591012
0.1936657 0.21806854 -0.08911256 0.17099157 0.21576114 -0.1271462 0.4049281 -0.03079692
-0.58185107 0.31000063 -0.03313418 -0.34227708 0.043058485 0.19375105 0.11509318 0.24779421
0.028754653 -0.044896953 0.020017691 -0.1346925 -0.20042197 -0.03704741 -0.2297012 -0.07444871
0.015234391 -0.4500253 -0.13376004 -0.0019893637 -0.18515529 0.13954292 -0.022735056 -0.08188408
0.05582724 0.03622486 -0.21302004 -0.04348181 -0.003253869 -0.026118712 0.14956844 0.23875794
-0.09514827 -0.042471487 -0.047204226 -0.5316974 -0.36816752 0.07001553 -0.29034668 -0.19657299
0.16831243 0.040362507 0.05239994 -0.027989779 -0.22490807 -0.111689545 -0.01844964 -0.2059084
-0.13614382 -0.06318991 0.12455833 0.110193074 0.08214585 0.2615373 0.3265754 0.14717688
0.23209293 0.29566857 0.081403516 0.0108359065 -0.06811993 -0.15924223 -0.25416338 -0.3022628
-0.04825423 -0.344168 -0.21416089 0.0066488655 0.11354183 0.024974145 -0.098370306 0.16402109
0.053816803 0.042021323 0.100697264 0.15244925 -0.089015484 0.13904038 -0.017222434 -0.007561075
0.41305304 0.2537498 0.033742607 0.2267595 0.23085241 0.02718291 0.20320207 0.15456314
-0.09185144 0.5815254 0.37413645 -0.019839695 0.15443009 0.10723939 0.09191178 -0.41719693
-0.42069823 -0.17694454 -0.4584991 -0.46968225 0.1682821 -0.3436269 -0.21566126 -0.0755167
0.017044395 0.10825188 -0.008219029 0.27949968 0.3039914 0.06653744 0.06798671 0.1929268
0.18574198 0.07669932 -0.17410673 0.2704582 -0.04577848 -0.35586643 0.14553197 0.02254423
-0.10629743 0.16126132 0.026310446 -0.17443836 0.3255471 -0.058910206 -0.36370108 0.22367863
0.04561755 -0.099583186 0.022498561 -0.0321711 -0.20006984 0.22233096 0.01578013 -0.27109966
0.12804759 0.1481673 0.029459534 0.13587674 -0.0706342 0.13748096 -0.09740299 -0.4860991
-0.08737635 0.21322079 -0.0073974743 0.2077009 0.044296537 -0.11333608 0.18216851 -0.21524864
00000000: fa44 e0bd 91f9 a4be 0982 52be 5c3c 683e
00000010: 5960 e03d dc65 6d3c 5c68 0c3d b6ea c13d
00000020: 531c 533d abf5 6bbe 99cd b4be 299e 34be
00000030: 5fa6 ae3d cf78 0b3e b614 9c3d dba9 2fbc
00000040: 1c15 1e3e ca62 c33d 39e7 2fbe e360 c7be
00000050: 54df b0be d972 443e 7ce1 1f3e f0f0 eabb
00000060: 02e1 6a3e f815 9e3e c8da 373e afba 05bf
00000070: c793 34bf a44b babe 347f 673e 6334 393e
00000080: 48aa 1b3d 1915 af3e c9f9 7b3f f6b2 3d3d
00000090: bb20 333e 4756 363e c5e4 ae3e 0fa5 1a3e
000000a0: cabe a9be 8894 913d 2330 63be 7a8c bebe
000000b0: f222 54be 734f 713e 3537 cb3e 4d15 963e
000000c0: 85d2 d43d 04e5 8dbe 4e0d c73c 38ea 55be
000000d0: 42af ddbe a65a 07bd 0e21 9fb0 02a6 a6af
000000e0: 1cde 03b0 cdea 7eaf 0609 4b30 f2b0 e92e
000000f0: 4d97 97af 1776 5bb0 59c9 0cb0 671f d8b0
00000100: 6af3 d7b0 3956 0bb1 7b87 b12f 33d0 762f
00000110: 8cd7 d22e c49b 3bb0 be46 162f f2f3 d8af
00000120: a014 d0b0 f0b7 2eb0 70c0 a9b0 5276 15b0
00000130: 032c db30 d3c8 2eaf 3cb5 7fb0 56e4 2c30
00000140: dd96 84af b2b9 bdbe 72eb 323c 1508 ab3e
00000150: 0aa5 3fbf 3f7e b3be 816f 1a3f c3d3 cebe
00000160: 7f07 653e adb8 193f 3040 e33d 49c6 463e
00000170: 6dbd debd e1b2 123e 48dd 5dbe 1ddc b7be
00000180: 4d50 463e 5c4d 5f3e a580 b6bd 6a18 2f3e
00000190: 7df0 5c3e 9d32 02be bc52 cf3e d349 fcbc
000001a0: 31f4 14bf 67b8 9e3e b5b7 07bd f13e afbe
000001b0: 185e 303d ad66 463e f9b5 eb3d c4bd 7d3e
000001c0: e18e eb3c dee5 37bd 24fc a33c d5ec 09be
000001d0: 6b3b 4dbe 06bf 17bd cb36 6bbe 9178 98bd
000001e0: ab99 793c b769 e6be 64f8 08be fc5f 02bb
000001f0: 5999 3dbe 57e4 0e3e de3e babc d7b2 a7bd
00000200: 1bab 643d 8560 143d ed21 5abe fb19 32bd
00000210: dd3e 55bb e9f6 d5bc 7828 193e f67c 743e
00000220: 19dd c2bd 95f6 2dbd 3859 41bd 521d 08bf
00000230: 7480 bcbe 4d64 8f3d 52a8 94be 6e4a 49be
00000240: 185a 2c3e 2853 253d 52a1 563d d24a e5bc
00000250: 4d4e 66be 7dbd e4bd b323 97bc a7d9 52be
00000260: 4969 0bbe b669 81bd 7018 ff3d e8ac e13d
00000270: 153c a83d 38e8 853e e434 a73e 89b5 163e
00000280: c5a9 6d3e df61 973e e3b6 a63d 1689 313c
00000290: 7682 8bbd 6510 23be b421 82be 31c2 9abe
000002a0: 3aa6 45bd ca36 b0be fe4c 5bbe bade d93b
000002b0: 9e88 e83d 9496 cc3c 5f76 c9bd 25f5 273e
000002c0: 026f 5c3d 8d1e 2c3d 5e3a ce3d a81b 1c3e
000002d0: c04d b6bd 9a60 0e3e 1016 8dbc e5c2 f7bb
000002e0: b07b d33e 7eeb 813e b035 0a3d a433 683e
000002f0: 9364 6c3e b2ae de3c 3414 503e cd45 1e3e
00000300: 9c1c bcbd d9de 143f d08e bf3e db86 a2bc
00000310: ec22 1e3e 53a0 db3d 3e3c bc3d d69a d5be
00000320: c265 d7be f330 35be 65c0 eabe 317a f0be
00000330: 2552 2c3e ddef afbe 4ed6 5cbe 80a8 9abd
00000340: b0a0 8b3c 29b3 dd3d 1ba9 06bc 951a 8f3e
00000350: c3a4 9b3e c844 883d 9e3c 8b3d 9a8e 453e
00000360: 2533 3e3e 8814 9d3d 0949 32be 7f79 8a3e
00000370: 3782 3bbd 2034 b6be 5506 153e adae b83c
00000380: 78b2 d9bd b021 253e 0189 d73c f89f 32be
00000390: 1cae a63e d44b 71bd 0737 babe 030c 653e
000003a0: 78d9 3a3d 45f2 cbbd e74e b83c d8c5 03bd
000003b0: 1cdf 4cbe baaa 633e 5545 813c 93cd 8abe
000003c0: e81e 033e 2bb9 173e 1f55 f13c 4623 0b3e
000003d0: aaa8 90bd cfc7 0c3e 387b c7bd fbe1 f8be
000003e0: 5ff2 b2bd 8d56 5a3e 8366 f2bb 8baf 543e
000003f0: 4970 353d bf1c e8bd 628a 3a3e 246a 5cbe

module.bn1.weight f4 [16]
0.2093597 0.2170493 1.0023795e-09 0.25726056 0.32664928 0.25364482 0.28280488 0.21500541
0.25079203 0.7069465 0.25329685 0.4537654 0.22226816 0.27891862 0.29072428 0.2505059
00000000: 6462 563e 2c42 5e3e 18c4 8930 a8b7 833e
00000010: 933e a73e bcdd 813e cdcb 903e 612a 5c3e
00000020: d067 803e 72fa 343f 20b0 813e f053 e83e
00000030: 449a 633e 6cce 8e3e d0d9 943e 4f42 803e

module.bn1.bias f4 [16]
0.1507202 0.43372145 -3.7488523e-09 0.29107285 -0.007250493 0.14187603 0.08604399 0.17282285
0.13910325 -0.5307708 0.59333193 -0.4288993 0.062137574 0.23904663 -0.024766715 0.1434477
00000000: 6556 1a3e bd10 de3e 41cf 80b1 8007 953e
00000010: 8b95 edbb f347 113e d537 b03d 79f8 303e
00000020: 1571 0e3e 98e0 07bf 9ae4 173f b098 dbbe
00000030: f883 7e3d a4c8 743e 91e3 cabc f4e3 123e

module.bn1.running_mean f4 [16]
0.0034867332 -0.015783828 2.9248513e-09 0.037999507 0.2879543 0.10027472 -0.1518825 -0.033392943
-0.046112936 0.36289072 -0.03469003 -0.26641494 0.0016511036 -0.043502588 -0.005059383 0.0004745891
00000000: ad81 643b 164d 81bc 87fe 4831 5fa5 1b3d
00000010: bf6e 933e d55c cd3d 1687 1bbe 0ac7 08bd
00000020: ebe0 3cbd d0cc b93e 2217 0ebd 8a67 88be
00000030: d869 d83a c52f 32bd 2ec9 a5bb 45d2 f839

module.bn1.running_var f4 [16]
3.049439 0.34553608 1.6935452e-16 0.58578706 1.4379624 1.6071213 1.2487947 0.5927628
2.5411553 2.7034562 0.3669867 1.3626496 0.5007313 1.2514687 1.5316366 4.8564773
00000000: 022a 4340 1bea b03e a240 4325 24f6 153f
00000010: 270f b83f 27b6 cd3f 81d8 9f3f 4ebf 173f
00000020: 4aa2 2240 6d05 2d40 aee5 bb3e 4d6b ae3f
00000030: ed2f 003f 2030 a03f ab0c c43f 4368 9b40

module.residual_layers.0.0.conv1.weight f4 [16, 16, 3, 3]
0.046030276 -0.07142065 -0.007979424 0.064079426 0.04795501 0.12198619 -0.0003494356 0.070751525
0.031242743 -0.04036842 -0.062248535 0.09244746 0.06823129 0.14315526 -0.19630101 -0.0346948
0.05391835 -0.007661792 1.54616e-10 1.7237377e-10 7.258311e-11 4.4477463e-11 -3.371004e-10 4.1328663e-11
5.8329774e-10 1.8294201e-10 4.028928e-10 0.030767502 -0.11363892 -0.007244986 -0.097542636 0.09676004
-0.0009648545 0.057731528 -0.03529948 -0.020871785 0.018657062 0.053957626 0.013257512 0.08777657
0.15694998 -0.123221256 0.023047581 -0.05015726 0.0025741237 0.0031271905 0.036658127 0.012088488
-0.09897171 0.006907582 -0.1282993 0.02635448 -0.02385816 -0.107304566 0.054099645 -0.064187236
0.08181816 0.037851818 -0.12900294 0.09104132 0.07433388 -0.099265635 0.10415701 0.15565965
0.12699406 0.10347601 0.017471096 -0.203365 0.087099485 -0.071523964 -0.1508972 -0.09707606
-0.020447113 0.10255499 -0.10548588 0.07682962 0.049970094 -0.038193606 -0.11419146 -0.066052526
-0.014778595 0.002189104 -0.045708947 0.047578968 -0.39900142 0.14471063 -0.03019563 0.1274667
0.07056715 0.059832603 0.14321852 0.033161983 -0.11774116 0.25128767 -0.7456769 0.56565994
0.01233882 0.030058863 -0.009154972 0.03386178 -0.09808037 -0.020878715 0.10066569 0.027815575
-1.6750062e-05 0.016906932 0.02607582 0.03570099 0.049149875 0.066168725 0.056081124 -0.057017125
-0.052490428 0.007110214 -0.08537889 0.022124019 -0.047343865 -0.07276812 0.17306028 0.018527726
0.084401034 -0.10282965 -0.20884134 -0.06607118 0.0027565917 0.0638604 -0.047892258 -0.11368067
-0.12558535 0.009712619 0.00077704014 0.07618494 0.1028415 0.12199662 -0.0063821115 -0.13374364
0.07067069 0.007501401 -0.24980174 0.00869998 0.022659713 0.011520881 0.018489163 0.024214977
0.08145599 0.01893403 -0.0017497591 -0.038675718 -0.043271534 -0.03506484 -0.18983057 -0.04197025
0.10098556 -0.10657043 0.0010459909 -0.017064588 -0.047551446 0.014132111 0.06920223 0.075802036
0.018604254 -0.1887005 -2.3008637e-10 -6.9196465e-10 -1.2575029e-09 -3.853036e-11 -5.582641e-10 -1.2840978e-09
2.7015104e-10 -4.0569642e-10 -1.0116554e-09 -0.012184733 0.009445535 -0.052485768 -0.16812702 -0.021719512
0.30593473 0.017354183 0.069022894 -0.053558398 -0.060747065 0.029114341 -0.047439322 -0.088080496
0.053075064 0.1331416 -0.1132734 -0.00733875 -0.027100714 -0.092699595 -0.089889765 -0.1464146
0.054184534 0.024533872 0.032879278 0.1235054 0.07373232 -0.0049139736 0.13217267 0.069335066
-0.046296388 0.11634092 0.026522012 -0.13268387 0.0019004765 -0.055541735 -0.10294091 0.031269476
0.0024732882 -0.019144617 0.051016856 0.07862981 -0.121754214 -0.15042444 0.09477897 0.14492677
0.115356416 0.03156392 0.021118375 0.16322415 0.10277532 0.14609785 0.04036545 -0.042530347
-0.0049865562 -0.14704737 0.012191677 -0.0016781307 -0.21714267 0.07109682 0.3254512 -0.069445744
0.041889187 0.04322779 0.035883125 -0.039055746 0.27622694 -0.112686284 0.18626292 -0.28044847
0.14997755 -0.0032204795 -0.014364957 -0.06265762 0.018164894 -0.054977853 0.008190744 0.016856536
-0.012541489 -0.07170499 -0.053589303 -0.016661495 0.08405706 0.003534147 0.077162355 0.01952526
00000000: 3e8a 3c3d fd44 92bd 21bc 02bc 133c 833d
00000010: 796c 443d e5d3 f93d 7434 b7b9 2de6 903d
00000020: c8f0 ff3c 5b59 25bd 52f8 7ebd 1855 bd3d
00000030: d9bc 8b3d 4b97 123e 2203 49be 221c 0ebd
00000040: 7dd9 5c3d c50f fbbb 8900 2a2f e786 3d2f
00000050: a99c 9f2e 2c9d 432e aa52 b9af f0c3 352e
00000060: ee55 2030 9925 492f 1f7e dd2f 210c fc3c
00000070: 86bb e8bd 5967 edbb 6fc4 c7bd 212a c63d
00000080: 4aee 7cba e577 6c3d 3096 10bd 4efb aabc
00000090: b2d6 983c ac02 5d3d 0936 593c 34c4 b33d
000000a0: 7fb7 203e 6d5b fcbd 48ce bc3c b371 4dbd
000000b0: a1b2 283b 8df1 4c3b d526 163d cb0e 463c
000000c0: aeb1 cabd ff58 e23b e460 03be 5ae5 d73c
000000d0: 3072 c3bc 7fc2 dbbd 9797 5d3d 9974 83bd
000000e0: 4890 a73d 820a 1b3d 5919 04be df73 ba3d
000000f0: 5c3c 983d c84b cbbd 4550 d53d 3e65 1f3e
00000100: bb0a 023e 3beb d33d 8b1f 8f3c ea3e 50be
00000110: 3761 b23d 287b 92bd cc84 1abe d0cf c6bd
00000120: b480 a7bc 5a08 d23d fb08 d8bd d958 9d3d
00000130: 71ad 4c3d e670 1cbd 36dd e9bd 8c46 87bd
00000140: ec21 72bc 1277 0f3b 4e39 3bbd 2ae2 423d
00000150: ea49 ccbe 062f 143e d35c f7bc a186 023e
00000160: 8385 903d 0813 753d e0a7 123e dcd4 073d
00000170: 4722 f1bd c7a8 803e aee4 3ebf 17cf 103f
00000180: c328 4a3c 013e f63c bcfe 15bc a6b2 0a3d
00000190: 5cde c8bd d709 abbc d029 ce3d 7ddd e33c
000001a0: 7c82 8cb7 6880 8a3c f59c d53c 343b 123d
000001b0: 6151 493d 7883 873d 52b5 653d ca8a 69bd
000001c0: 3400 57bd ccfc e83b 21db aebd 6e3d b53c
000001d0: a4eb 41bd 7407 95bd b736 313e 75c7 973c
000001e0: 73da ac3d 5a98 d2bd 81da 55be 5450 87bd
000001f0: efa7 343b 3ec9 823d ac2a 44bd 69d1 e8bd
00000200: 7299 00be ad21 1f3c 48b2 4b3a da06 9c3d
00000210: 909e d23d 5dd9 f93d 0821 d1bb 18f4 08be
00000220: cbbb 903d 50ce f53b 07cc 7fbe 5c8a 0e3c
00000230: dda0 b93c 14c2 3c3c 9676 973c 7d5e c63c
00000240: 66d2 a63d 8a1b 9b3c 2c58 e5ba 6e6a 1ebd
00000250: 7e3d 31bd 26a0 0fbd f262 42be ffe8 2bbd
00000260: 84d1 ce3d 9941 dabd a119 893a 09cb 8bbc
00000270: 4ec5 42bd 5f8a 673c e6b9 8d3d 193e 9b3d
00000280: f367 983c b43a 41be 8efb 7caf af34 3eb0
00000290: 73d4 acb0 5475 29ae 5874 19b0 2d7c b0b0
000002a0: 6184 942f b208 dfaf 760a 8bb0 79a2 47bc
000002b0: 72c1 1a3c 51fb 56bd 7d29 2cbe 1eed b1bc
000002c0: 7aa3 9c3e 5c2a 8e3c e05b 8d3d 0d60 5bbd
000002d0: ead1 78bd 3381 ee3c bc4f 42bd 8c63 b4bd
000002e0: 3d65 593d 4656 083e e2fb e7bd e679 f0bb
000002f0: 5102 debc 49d9 bdbd 2018 b8bd b5ed 15be
00000300: 9af0 5d3d 42fb c83c 6cac 063d 66f0 fc3d
00000310: f800 973d 6605 a1bb 4658 073e 8bff 8d3d
00000320: 48a1 3dbd 2644 ee3d b144 d93c 48de 07be
00000330: 6919 f93a bb7f 63bd afd2 d2bd 6c14 003d
00000340: e416 223b 2cd5 9cbc 0df7 503d aa08 a13d
00000350: 465a f9bd dd08 1abe 7a1b c23d af67 143e
00000360: fc3f ec3d 2b49 013d 7100 ad3c 3b24 273e
00000370: de7b d23d ad9a 153e 3e56 253d 4d34 2ebd
00000380: 4466 a3bb 9693 16be 99bf 473c b9f4 dbba
00000390: a65a 5ebe 369b 913d 8aa1 a63e 9239 8ebd
000003a0: ff93 2b3d a00f 313d 2ffa 123d ebf8 1fbd
000003b0: 9e6d 8d3e 11c8 e6bd b5bb 3e3e f196 8fbe
000003c0: b793 193e ae0e 53bb ff5a 6bbc a352 80bd
000003d0: 8bce 943c 7530 61bd 7832 063c b816 8a3c
000003e0: d17a 4dbc 11da 92bd 7580 5bbd b07d 88bc
000003f0: 1c26 ac3d 269d 673b 4c07 9e3d 70f3 9f3c

module.residual_layers.0.0.bn1.weight f4 [16]
0.51000583 0.39636785 0.6057258 0.5021718 0.43826485 0.45940524 0.5365086 0.35033053
0.3866289 0.34052804 0.44055006 0.39192787 0.55553514 0.5080962 0.4765016 0.4555442
00000000: be8f 023f baf0 ca3e d910 1b3f 558e 003f
00000010: 4064 e03e 2a37 eb3e a158 093f 865e b33e
00000020: 39f4 c53e b159 ae3e c78f e13e c5aa c83e
00000030: 8d37 0e3f 9812 023f 05f8 f33e 173d e93e

module.residual_layers.0.0.bn1.bias f4 [16]
0.3184667 0.24425149 0.2544371 0.11197575 0.1733562 -0.13050725 -0.5936686 0.09963891
-0.11007854 0.22965284 -0.15585487 -0.03907712 -0.17908171 -0.23127213 -0.20344289 -0.1120404
00000000: 110e a33e 101d 7a3e 9445 823e 8b53 e53d
00000010: 4a84 313e b1a3 05be aafa 17bf 7c0f cc3d
00000020: dc70 e1bd 1d2a 6b3e 6b98 1fbe 550f 20bd
00000030: 3261 37be 9ad2 6cbe 5553 50be 7075 e5bd

module.residual_layers.0.0.bn1.running_mean f4 [16]
0.02993863 -0.15180746 -0.22903842 -0.20842852 -0.31777447 -0.5941385 -0.08581446 0.23547845
0.11586835 -0.58648825 -0.5929292 0.23685469 0.28802684 -0.3401432 -0.184109 -0.1670619
00000000: dc41 f53c 6a73 1bbe 0c89 6abe 496e 55be
00000010: 56b3 a2be 7619 18bf 7ebf afbd 4321 713e
00000020: 634c ed3d 1824 16bf 35ca 17bf 098a 723e
00000030: 4178 933e 4027 aebe 1287 3cbe 4612 2bbe

module.residual_layers.0.0.bn1.running_var f4 [16]
0.11671137 0.1278187 0.114758514 0.116346814 0.15842377 0.08426003 0.038139082 0.11885384
0.06109651 0.08489672 0.061147153 0.082397334 0.10604078 0.0415506 0.04185953 0.06859557
00000000: 5f06 ef3d e8e2 023e 8306 eb3d 3d47 ee3d
00000010: d739 223e 8690 ac3d ba37 1c3d a469 f33d
00000020: 5640 7a3d 55de ad3d 7075 7a3d efbf a83d
00000030: e92b d93d f630 2a3d e674 2b3d d67b 8c3d

module.residual_layers.0.0.conv2.weight f4 [16, 16, 3, 3]
0.073682435 0.13329323 -0.08121666 -0.1289834 -0.029845431 0.13369653 0.025677137 -0.07488815
0.04212711 -0.13620678 -0.16838223 -0.09369937 -0.0024284758 0.0443511 0.030390386 0.026703052
-0.03363581 0.060457736 0.08018633 -0.13162634 -0.12471641 0.097311705 0.14245585 -0.14231154
-0.032878693 0.26422587 0.20374766 0.0013453813 -0.06269872 0.051601086 0.044404075 -0.06420701
0.06924231 -0.15873224 0.01731002 -0.026295058 0.06665156 0.1478343 0.24009252 -0.14303829
-0.11763866 -0.07109809 -0.22320704 -0.2298325 -0.047470402 0.064614065 0.1559858 -0.104742706
0.06474101 0.17061314 -0.018420737 -0.09662705 -0.10148258 -0.04640097 -0.15323141 -0.08872575
-0.007446193 -0.0633755 -0.08207997 -0.13778186 0.003370412 0.07505943 -0.107727215 0.09460807
-0.009326266 -0.10199884 -0.04025646 -0.06861902 -0.08487143 -0.15322827 -0.038129207 0.06949414
0.030265804 0.117775485 -0.044988733 0.032190047 0.106227584 0.117518984 -0.00521099 -0.074236654
0.012852505 0.060530942 0.040473104 0.0026493398 -0.016152678 -0.027504612 0.12228432 0.021361824
-0.07427239 0.075412 -0.07645234 0.07408818 -0.030581823 -0.17199014 -0.08709072 -0.09472327
-0.04110422 -0.09234045 0.03259787 0.0382484 0.15464482 0.09185283 -0.1275799 -0.05480748
0.04547727 -0.08333927 -0.11926307 -0.09025904 0.005260312 0.0038433063 -0.078293964 0.027760647
0.045100108 -0.031639047 0.014658724 0.0605143 -0.024931876 -0.04082962 -0.023667058 -0.1071482
-0.02928938 -0.025149412 -0.08639258 -0.06447209 0.018605364 -0.06229882 -0.08177577 0.06916159
0.08658563 0.08361161 0.07412155 0.080121845 0.08356452 -0.0015323507 -0.031356804 -0.08994774
0.13256377 0.13463952 -0.0037287497 -0.097064346 -0.020252364 0.12858872 -0.06097116 -0.0973835
-0.09317571 -0.12223266 0.1310827 -0.24009156 0.29727426 -0.23932655 -0.0989722 -0.057321753
0.0011511722 0.058660522 -0.015867118 -0.17395099 0.34127733 -0.06884791 -0.15840696 0.09454984
0.07444839 0.04355793 -0.05952206 0.069694385 0.09425938 0.064399466 -0.09141233 0.05112445
-0.013301099 0.10616759 -0.17179552 0.07042358 -0.07273225 -0.10828991 0.17263989 -0.35261282
0.01380656 -0.07302733 -0.09618504 -0.004063209 -0.17522986 0.1651527 0.071994714 -0.1607474
0.0037867494 0.09753034 -0.10493334 0.05814193 0.04372849 -0.06463811 -0.024772968 0.015358439
0.06415585 -0.052417506 -0.017326279 0.0643258 -0.0384359 -0.01085414 -0.03428814 -0.10062713
-0.010503106 -0.0058347676 -0.15375216 -0.03420374 0.1048172 -0.0116743 0.04992647 0.026884396
-0.11094981 -0.0050792266 -0.077608384 -0.22792289 0.064500056 -0.18015863 -0.2544681 0.018750357
-0.079254 -0.10767224 -0.03873761 0.03874517 -0.036308225 0.027363079 -0.014334853 0.04347063
0.005315176 0.16100486 -0.08442011 -0.024495412 0.057256192 -0.027461966 -0.10673727 -0.0686167
0.076873615 -0.01869398 0.10393012 0.013599109 0.03516613 0.09512145 -0.08565262 0.105660334
0.04956094 -0.074658535 0.05703862 0.045812633 0.0290292 0.06301878 -0.10414144 -0.12605539
0.11085448 0.037334435 -0.10971759 -0.01498498 0.124496095 -0.07620494 -0.108254366 0.0022824123
00000000: d1e6 963d 057e 083e ec54 a6bd 3914 04be
00000010: 687e f4bc bee7 083e dc58 d23c f55e 99bd
00000020: 7a8d 2c3d ca79 0bbe 646c 2cbe 75e5 bfbd
00000030: 1027 1fbb 80a9 353d 42f5 f83c 5cc0 da3c
00000040: b4c5 09bd 88a2 773d bb38 a43d 0ec9 06be
00000050: 516b ffbd 5c4b c73d f2df 113e 1eba 11be
00000060: cfab 06bd 9d48 873e 3aa3 503e 8157 b03a
00000070: 3068 80bd a95b 533d 0ce1 353d f77e 83bd
00000080: eace 8d3d b48a 22be becd 8d3c bc68 d7bc
00000090: 9d80 883d e061 173e d0da 753e a178 12be
000000a0: 8aec f0bd e09b 91bd 6390 64be 3659 6bbe
000000b0: 5370 42bd 6154 843d beba 1f3e 5883 d6bd
000000c0: ef96 843d 36b5 2e3e 16e7 96bc 67e4 c5bd
000000d0: 19d6 cfbd f20e 3ebd b2e8 1cbe d9b5 b5bd
000000e0: 32ff f3bb 04cb 81bd 8b19 a8bd b016 0dbe
000000f0: 21e2 5c3b c2b8 993d 16a0 dcbd e0c1 c13d
00000100: 32cd 18bc c5e4 d0bd f5e3 24bd 2188 8cbd
00000110: 13d1 adbd dfe7 1cbe 5f2d 1cbd f252 8e3d
00000120: feef f73c 4634 f13d 1b46 38bd b6d9 033d
00000130: d98d d93d cbad f03d f4c0 aabb 6309 98bd
00000140: 5093 523c 4bef 773d 20c7 253d 8ca0 2d3b
00000150: 9f52 84bc 5a51 e1bc 3470 fa3d fefe ae3c
00000160: 1f1c 98bd 9b71 9a3d 0b93 9cbd 8bbb 973d
00000170: bb86 fabc 2f1e 30be 9f5c b2bd 46fe c1bd
00000180: e65c 28bd fd1c bdbd 5885 053d 5baa 1c3d
00000190: 365b 1e3e 561d bc3d 4ea4 02be cf7d 60bd
000001a0: 6046 3a3d c7ad aabd 3240 f4bd bbd9 b8bd
000001b0: b25e ac3b fbdf 7b3b 9658 a0bd 4c6a e33c
000001c0: e4ba 383d f297 01bd 252b 703c d8dd 773d
000001d0: ef3d ccbc f63c 27bd 6be1 c1bc 8470 dbbd
000001e0: 48f0 efbc 2406 cebc 98ee b0bd f109 84bd
000001f0: 476a 983c 0c2d 7fbd 0e7a a7bd 97a4 8d3d
00000200: cf53 b13d 903c ab3d 0acd 973d ec16 a43d
00000210: e023 ab3d 28d9 c8ba fe6f 00bd 8536 b8bd
00000220: ccbe 073e f1de 093e 0a5e 74bb acc9 c6bd
00000230: 49e8 a5bc c3ac 033e e5bc 79bd 0071 c7bd
00000240: e8d2 bebd 1e55 fabd 8b3a 063e 90da 75be
00000250: 5534 983e 0512 75be f0b1 cabd 37ca 6abd
00000260: eee2 963a 0446 703d c2fb 81bc 3520 32be
00000270: e7bb ae3e 2200 8dbd 6f35 22be 59a3 c13d
00000280: 6678 983d cd69 323d 67cd 73bd eebb 8e3d
00000290: 100b c13d dee3 833d 6336 bbbd df67 513d
000002a0: daec 59bc 656e d93d 2aeb 2fbe 3d3a 903d
000002b0: a5f4 94bd 1ac7 ddbd 83c8 303e ab89 b4be
000002c0: e934 623c 5a8f 95bd aafc c4bd ab24 85bb
000002d0: 756f 33be ca1d 293e f771 933d f79a 24be
000002e0: 1d2b 783b fdbd c73d 4ae7 d6bd 3b26 6e3d
000002f0: a51c 333d fc60 84bd aef0 cabc f6a1 7b3c
00000300: 2464 833d bdb3 56bd d7ef 8dbc 3fbd 833d
00000310: f66e 1dbd 90d5 31bc b871 0cbd 9915 cebd
00000320: 3815 2cbc 9431 bfbb 3571 1dbe 3919 0cbd
00000330: 66aa d63d 9045 3fbc b37f 4c3d aa3c dc3c
00000340: a739 e3bd a46f a6bb 25f1 9ebd 9e64 69be
00000350: 9b18 843d 817b 38be a549 82be 599a 993c
00000360: ec4f a2bd 4383 dcbd 54ab 1ebd 41b3 1e3d
00000370: efb7 14bd 8928 e03c bbdc 6abc 420e 323d
00000380: ee2a ae3b 75de 243e 73e4 acbd 9aaa c8bc
00000390: 7885 6a3d ebf7 e0bc 1299 dabd ea86 8cbd
000003a0: ea6f 9d3d 1e24 99bc 51d9 d43d ccce 5e3c
000003b0: 5c0a 103d 09cf c23d a46a afbd 7264 d83d
000003c0: 6a00 4b3d 93e6 98bd 54a1 693d 07a6 3b3d
000003d0: a5ce ed3c fd0f 813d 1b48 d5bd aa14 01be
000003e0: ac07 e33d feeb 183d 9eb3 e0bd 9083 75bc
000003f0: cff7 fe3d 5611 9cbd 77b4 ddbd 8694 153b

module.residual_layers.0.0.bn2.weight f4 [16]
0.45057744 0.6341223 0.49867296 0.6149539 0.44397414 0.31054166 0.24653694 0.3523828
0.33980948 0.74076104 0.7251754 0.6691242 0.42609587 0.3978629 0.5201047 0.4697637
00000000: 16b2 e63e d755 223f 1052 ff3e 9e6d 1d3f
00000010: 9450 e33e 51ff 9e3e 2e74 7c3e 856b b43e
00000020: 82fb ad3e 84a2 3d3f 18a5 393f b94b 2b3f
00000030: 3d29 da3e b0b4 cb3e 9525 053f de84 f03e

module.residual_layers.0.0.bn2.bias f4 [16]
-0.25209787 -0.16100049 -0.032773495 0.016293254 -0.17963675 0.33857203 0.19501318 0.05268592
-0.12462677 -0.12335842 -0.08856724 -0.18035252 0.093317136 -0.2813459 -0.03642715 -0.22464617
00000000: f912 81be 50dd 24be 803d 06bd 6e79 853c
00000010: b2f2 37be 5059 ad3e 89b1 473e 31cd 573d
00000020: 523c ffbd 57a3 fcbd be62 b5bd 55ae 38be
00000030: 0e1d bf3d 920c 90be a334 15bd a509 66be

module.residual_layers.0.0.bn2.running_mean f4 [16]
-0.07985171 -0.3187504 -0.31453097 -0.16206397 -0.08309612 0.1296053 0.05326635 -0.18779206
0.35141593 -0.16272397 -0.43126333 0.32616928 -0.28087845 0.38386258 -0.09336023 -0.33624864
00000000: 4b89 a3bd 4133 a3be 340a a1be 19f4 25be
00000010: 4c2e aabd 40b7 043e d12d 5a3d 904c 40be
00000020: caec b33e 1da1 26be 8cce dcbe a9ff a63e
00000030: 4dcf 8fbe a389 c43e a633 bfbd c828 acbe

module.residual_layers.0.0.bn2.running_var f4 [16]
0.12697642 0.20594972 0.1692994 0.1920103 0.12993832 0.14579073 0.12144935 0.10046626
0.16266853 0.5676968 0.24493624 0.12927906 0.13462493 0.16630183 0.31267476 0.25191092
00000000: 1b06 023e 7ce4 523e d25c 2d3e 599e 443e
00000010: 8d0e 053e 2a4a 153e 70ba f83d 41c1 cd3d
00000020: 9492 263e 9454 113f 91d0 7a3e bb61 043e
00000030: 1edb 093e 074b 2a3e e816 a03e 78fa 803e

module.residual_layers.0.1.conv1.weight f4 [16, 16, 3, 3]
-0.19712214 -0.12777887 -0.1187251 -0.091782875 -0.10292494 0.00017728187 0.005174246 -0.22561264
-0.21024996 0.049875297 -0.056777637 -0.13640723 0.1832273 0.09206685 -0.0009828384 0.28258342
0.10546439 0.00851267 -0.06477713 0.009762025 -0.019200273 0.012723781 0.091554075 -0.015291636
0.009696019 0.06225793 0.03310599 -0.00944186 0.039454244 -0.035606366 -0.055060033 -0.05572194
-0.02235029 -0.0009482995 -0.0011265246 0.00263148 0.052486572 -0.017517302 -0.046908937 -0.054768804
-0.01778041 -0.033580408 -0.067223035 -0.022183884 -0.016287103 -0.10649185 0.08831218 0.027856419
-0.14191692 0.05630355 0.036585726 -0.22218376 -0.0020731778 0.0018785669 -0.08922569 0.07570121
0.20902261 -0.11225338 -0.010411151 0.09277167 -0.054200906 -0.048385218 0.0036096917 -0.13649487
-0.034225296 -0.11371306 -0.026931481 0.094127245 -0.029027635 -0.0034732053 0.030657029 0.043425303
0.011906402 -0.1582845 -0.09247984 0.045315173 -0.027746422 -0.20800726 0.14134368 0.095238924
-0.04304433 0.003980788 0.10391673 0.10030502 0.045505743 0.06156346 0.13935763 0.06985922
-0.040455464 -0.03090814 0.07827976 -0.03801016 0.07411165 0.02513035 0.021468306 -0.22480635
0.072426505 -0.03234167 -0.0056081396 0.27275804 0.009073577 0.020317823 0.19320552 0.013430411
0.0028370502 0.16901785 -0.08466088 -0.111787416 0.0321363 -0.016271766 0.012634379 -0.08220936
-0.0684064 -0.0039473334 0.038291097 -0.037867185 0.043958157 0.116556585 0.023476748 0.047738723
0.010642953 -0.01663445 -0.032184567 0.09617594 0.17601244 -0.015254675 -0.04840708 0.08051026
0.26450133 -0.15091585 -0.10422477 -0.056531135 -0.11208752 -0.06761503 -0.10317722 0.04579216
0.07251523 0.14227237 -0.08851182 0.018937616 0.034842175 -0.040664215 -0.058834672 -0.055792376
-0.12608787 -0.116447315 -0.113738544 -0.06292812 -0.103577174 -0.0059984834 -0.10096047 -0.24384935
-0.022862714 -0.056587484 0.00979437 -0.005144453 -0.019731283 -0.14645934 0.011343433 -0.029702658
0.2089845 0.05828039 -0.00233753 -0.041202553 0.08338553 0.045255486 -0.014136607 0.08473352
0.086976804 -0.036370706 0.009685891 -0.017907826 0.08348812 0.16835631 -0.008176414 0.048720878
0.13168648 -0.024017805 0.16624446 -0.090187036 0.011435744 -0.06664737 0.0052227 -0.07318953
-0.028936587 0.019828085 0.10439573 0.10116271 0.031239465 0.06091271 0.103735395 0.09461756
-0.052255593 0.027317673 0.06597 -0.039465856 -0.068176545 0.004089749 -0.017404385 -0.04527865
0.055236652 -0.065620884 -0.068629675 0.039147444 -0.022119027 0.017018294 0.01606185 0.100201726
0.00096226606 -0.040271185 -0.03661314 -0.0052496386 0.037469193 -0.08046307 -0.0060639447 -0.054604
0.10058528 0.049098913 0.014504737 0.05278988 -0.007361638 -0.0099576535 0.017544815 0.035148088
0.21281768 -0.18579175 -0.2624663 -0.2894727 -0.2730844 -0.47300458 -0.273906 -0.4378999
-0.27928442 -0.2820449 -0.09427637 0.13958229 -0.036292158 0.021943003 0.17781626 -0.028792238
0.034984097 -0.110769525 0.14656578 -0.12503618 -0.10832339 -0.10812708 -0.05283945 -0.0103376955
-0.062532924 0.0039233454 -0.0034809806 -0.0091623925 -0.022194453 0.052016106 0.1497575 0.0044556414
00000000: 63da 49be 77d8 02be 2526 f3bd a9f8 bbbd
00000010: 50ca d2bd bde4 3939 b98c a93b 0007 67be
00000020: c44b 57be 0a4a 4c3d ab8f 68bd 56ae 0bbe
00000030: f09f 3b3e 8b8d bc3d 96d2 80ba c6ae 903e
00000040: b7fd d73d ba78 0b3c dfa9 84bd e7f0 1f3c
00000050: e449 9dbc 6877 503c b480 bb3d c589 7abc
00000060: 0ddc 1e3c 2c02 7f3d 269a 073d 08b2 1abc
00000070: c69a 213d fbd7 11bd a186 61bd b03c 64bd
00000080: f517 b7bc 4d97 78ba e5a7 93ba e974 2c3b
00000090: 29fc 563d 7280 8fbc 9623 40bd 4155 60bd
000000a0: 39a8 91bc 9c8b 09bd 3bac 89bd faba b5bc
000000b0: 886c 85bc 6618 dabd 04dd b43d 2533 e43c
000000c0: ab52 11be 8d9e 663d eada 153d 2484 63be
000000d0: 27de 07bb 3f3a f63a f5bb b6bd 3c09 9b3d
000000e0: 060a 563e 1ae5 e5bd 8893 2abc 13ff bd3d
000000f0: c501 5ebd 942f 46bd 9490 6c3b 50c5 0bbe
00000100: d32f 0cbd 65e2 e8bd 699f dcbc c9c5 c03d
00000110: 5dcb edbc b79e 63bb 7324 fb3c bbde 313d
00000120: 1213 433c 5515 22be 1266 bdbd 679c 393d
00000130: 774c e3bc dbff 54be 66bc 103e a00c c33d
00000140: 404f 30bd 4571 823b 4bd2 d43d b86c cd3d
00000150: 3b64 3a3d f729 7c3d c4b3 0e3e 5a12 8f3d
00000160: a1b4 25bd 1133 fdbc 2451 a03d 8bb0 1bbd
00000170: d9c7 973d 2ade cd3c 4dde af3c a333 66be
00000180: 5954 943d b378 04bd 7cc4 b7bb f1a6 8b3e
00000190: 57a9 143c 9071 a63c abd7 453e 3a0b 5c3c
000001a0: ceed 393b 0413 2d3e af62 adbd cdf0 e4bd
000001b0: 5aa1 033d 5e4c 85bc 6d00 4f3c 625d a8bd
000001c0: a818 8cbd a258 81bb 20d7 1c3d 9f1a 1bbd
000001d0: 780d 343d 38b5 ee3d 4f52 c03c ae89 433d
000001e0: c85f 2e3c f844 88bc f7d3 03bd e4f7 c43d
000001f0: 9b3c 343e bfee 79bc 8146 46bd 90e2 a43d
00000200: b86c 873e af89 1abe cc73 d5bd 318d 67bd
00000210: 248e e5bd c079 8abd 944e d3bd 8f90 3b3d
00000220: dd82 943d d9af 113e af45 b5bd 0f23 9b3c
00000230: abb6 0e3d 858f 26bd a0fc 70bd 8c86 64bd
00000240: 2e1d 01be ee7b eebd c1ef e8bd 75e0 80bd
00000250: 4520 d4bd ed8e c4bb 5dc4 cebd a5b3 79be
00000260: 964a bbbc 47c8 67bd 9178 203c cd92 a8bb
00000270: 80a3 a1bc 70f9 15be ced9 393c fd52 f3bc
00000280: 0800 563e 6bb7 6e3d 3f31 19bb 02c4 28bd
00000290: 08c6 aa3d d15d 393d 3a9d 67bc c588 ad3d
000002a0: e520 b23d 73f9 14bd 92b1 1e3c 6fb3 92bc
000002b0: d2fb aa3d 9965 2c3e 5ef6 05bc 8b8f 473d
000002c0: d2d8 063e fdc0 c4bc fd3b 2a3e fbb3 b8bd
000002d0: fd5c 3b3c 6b7e 88bd 2f23 ab3b 64e4 95bd
000002e0: 6c0c edbc 826e a23c 6ecd d53d 652e cf3d
000002f0: e8e9 ff3c 9b7f 793d 3973 d43d dac6 c13d
00000300: f609 56bd 50c9 df3c 481b 873d f3a6 21bd
00000310: 25a0 8bbd 4d03 863b a493 8ebc 1b76 39bd
00000320: d43f 623d 3e64 86bd b78d 8cbd 1259 203d
00000330: f632 b5bc f369 8b3c 2494 833c 9036 cd3d
00000340: 9540 7c3a 66f3 24bd a9f7 15bd 2905 acbb
00000350: 4c79 193d d2c9 a4bd 0eb4 c6bb 72a8 5fbd
00000360: a8ff cd3d f11b 493d 47a5 6d3c 343a 583d
00000370: e539 f1bb 6d25 23bc 25ba 8f3c 71f7 0f3d
00000380: e1ec 593e 3140 3ebe fc61 86be c435 94be
00000390: b8d1 8bbe a82d f2be 683d 8cbe 6a34 e0be
000003a0: 5efe 8ebe 3068 90be f813 c1bd a9ee 0e3e
000003b0: 16a7 14bd d0c1 b33c 7715 363e b3dd ebbc
000003c0: 7c4b 0f3d 22db e2bd 5715 163e 7c09 00be
000003d0: a7d8 ddbd bb71 ddbd 2e6e 58bd 705f 29bc
000003e0: 4311 80bd 688f 803b 2a21 64bb dc1d 16bc
000003f0: 24d1 b5bc d70e 553d 085a 193e a100 923b

module.residual_layers.0.1.bn1.weight f4 [16]
0.49732584 0.4678681 0.6378635 0.5035532 0.5821999 0.408317 0.50364137 0.31735396
0.47243166 0.36520898 0.42531323 0.4417283 0.55587566 0.47679117 0.5273668 0.45125687
00000000: 7ea1 fe3e 688c ef3e 064b 233f dde8 003f
00000010: 0d0b 153f ed0e d13e a4ee 003f 387c a23e
00000020: 90e2 f13e acfc ba3e a8c2 d93e 362a e23e
00000030: de4d 0e3f f91d f43e 8301 073f 240b e73e

module.residual_layers.0.1.bn1.bias f4 [16]
-0.12541492 0.09712242 -0.052066207 -0.24295785 -0.10213576 -0.15710905 -0.29515463 0.28871706
-0.030455792 0.13293628 -0.15069212 0.0038115217 -0.36154386 -0.03228239 -0.060095392 -0.11685545
00000000: c56c 00be 1fe8 c63d 6043 55bd f1c9 78be
00000010: 8e2c d1bd 32e1 20be 821e 97be b9d2 933e
00000020: 6d7e f9bc 7320 083e 094f 1abe b9ca 793b
00000030: 471c b9be 8a3a 04bd 9626 76bd e951 efbd

module.residual_layers.0.1.bn1.running_mean f4 [16]
-0.06359343 -0.46505383 -0.103565335 -0.8523715 -0.60981387 -0.04515012 -0.35738352 0.14016034
0.06451907 -0.76876336 0.54941803 -0.22246984 -0.46791303 0.19877633 -0.4133302 -0.3182437
00000000: 463d 82bd 891b eebe 101a d4bd 0535 5abf
00000010: c31c 1cbf 55ef 38bd f9fa b6be 3186 0f3e
00000020: 9322 843d adcd 44bf a9a6 0c3f 22cf 63be
00000030: 4c92 efbe 068c 4b3e 04a0 d3be d7f0 a2be

module.residual_layers.0.1.bn1.running_var f4 [16]
0.3237575 0.92257345 1.710454 0.2585436 0.97074676 0.19025826 0.2759148 0.29906195
0.74775034 0.32308507 0.20152588 0.5095144 0.25415584 0.71971995 0.5346501 0.34097645
00000000: 8bc3 a53e c62d 6c3f 28f0 da3f d45f 843e
00000010: dc82 783f 10d3 423e b444 8d3e a61e 993e
00000020: 916c 3f3f 686b a53e cd5c 4e3e 896f 023f
00000030: b720 823e 913f 383f d4de 083f 7794 ae3e

module.residual_layers.0.1.conv2.weight f4 [16, 16, 3, 3]
-0.046104576 0.017496325 0.03534718 -0.13478681 -0.05126479 -0.021576507 -0.059053145 0.047090266
0.04613532 -0.1326872 0.0104093915 0.09059296 -0.14498614 -0.07177504 -0.044418782 -0.101389915
-0.07262586 -0.06644491 -0.16300337 -0.2526997 -0.11535168 -0.22573361 -0.3280499 -0.16631977
-0.17764819 -0.3565791 -0.29905856 0.054185774 0.049124256 0.016881421 0.043184966 0.0667489
-0.01172913 -0.009602413 -0.0603078 -0.091309495 -0.01876868 -0.09627348 -0.08990137 -0.02391048
-0.14233334 -0.09408653 -0.083769724 -0.14743568 -0.124886334 -0.010485957 -0.030027399 -0.005254639
0.041641258 -0.06290755 0.03313036 -0.05403854 -0.087834746 0.0029380706 -0.0056334753 -0.00078935147
-0.03686312 -0.14873023 -0.12794974 -0.0050345273 -0.24493042 -0.2027961 -0.102414876 -0.047115106
-0.013658224 -0.011236884 -0.08350444 -0.0021095693 0.000522277 -0.046236366 -0.0140763065 0.10180291
-0.007044022 -0.023715857 0.037932042 -0.02702919 -0.13865967 -0.10824081 -0.046890657 -0.22625156
-0.29199293 0.084131755 0.051394496 -0.118708454 0.09373958 0.08206922 -0.0059725353 -0.06817554
0.004527477 0.021996088 0.12037967 0.045843843 -0.014704789 -0.0120431995 0.05288679 0.1307086
-0.15264702 -0.0517996 -0.023307746 0.0034826966 0.050431814 0.048520338 -0.05386717 -0.104964994
0.024240635 -0.22019109 -0.16431703 -0.01255925 -0.037383217 0.0036787526 0.083652295 0.03308408
-0.0063510127 0.034429863 -0.02855785 -0.048162173 -0.109208606 0.07515359 0.027855588 0.031049361
0.044842433 -0.11482991 -0.07532597 0.097337484 -0.055116482 0.062267978 0.014118439 -0.04028884
0.044307247 0.010035523 -0.16406377 -0.095356405 -0.084852085 -0.070773594 -0.020818314 -0.0069633024
0.020678997 0.106169514 -0.007340219 0.06233883 0.1011727 -0.025012672 0.051185515 0.10180315
0.055616185 -0.08572024 -0.15046467 0.034652706 -0.018282546 -0.08000655 -0.032580044 -0.042582292
-0.06707891 -0.2317806 -0.047178578 0.2189368 -0.19918393 0.08642318 0.1952382 -0.13076732
0.12688693 0.2526864 0.12005538 0.0039328965 0.02010736 0.09837907 -0.015273845 0.034265425
0.06561436 0.17095096 0.098121755 -0.06071989 -0.049321696 0.036615476 -0.098517686 -0.08895457
0.00017001 0.058108408 0.08331107 0.1933884 0.06744505 -0.11149034 0.07061708 0.07227764
-0.01636182 0.0034205443 0.08577485 0.05673565 -0.046709478 0.043487944 -0.068894625 -0.119724035
0.0011604582 -0.065494955 -0.0935421 -0.13327055 -0.08260869 -0.019981552 -0.09471243 0.04907058
-0.00481312 0.047130536 0.1084071 0.03845282 0.17296508 0.13335574 0.092291154 0.006353453
0.054001335 -0.05171109 -0.052832343 -0.013954673 -0.049611587 -0.033674505 -0.014022569 -0.031154575
-0.07714666 0.12328177 0.04430076 -0.0012953314 0.15556262 0.0452063 0.023312435 0.143324
0.11423176 -0.0053888224 -0.025115147 0.0011437591 -0.11032017 -0.032438412 0.1212575 -0.027927801
0.04502232 0.15002578 -0.08793459 -0.07804556 -0.15944819 -0.044522274 -0.011382217 -0.07225536
-0.12152545 -0.1100137 -0.19670619 -0.045144208 -0.04581151 0.007057339 -0.01933883 0.020179031
-0.021397758 -0.002371402 -0.04867224 0.07303765 -0.05177128 0.02681393 -0.04851452 -0.03271772
00000000: 27d8 3cbd 7454 8f3c 34c8 103d 8e05 0abe
00000010: 07fb 51bd 37c1 b0bc b6e1 71bd b9e1 403d
00000020: 64f8 3c3d 27df 07be 278c 2a3c cd88 b93d
00000030: 3f77 14be cbfe 92bd 78f0 35bd 84a5 cfbd
00000040: debc 94bd 4514 88bd 5bea 26be db61 81be
00000050: 803d ecbd b626 67be 28f6 a7be bb4f 2abe
00000060: 68e9 35be 8991 b6be 341e 99be e7f1 5d3d
00000070: 8436 493d e84a 8a3c b8e2 303d a6b3 883d
00000080: 892b 40bc 7053 1dbc 5005 77bd 7900 bbbd
00000090: c6c0 99bc 082b c5bd 361e b8bd e9df c3bc
000000a0: d5bf 11be 70b0 c0bd 768f abbd 61f9 16be
000000b0: 68c4 ffbd 4bcd 2bbc 05fc f5bc 1b2f acbb
000000c0: 0690 2a3d acd5 80bd b3b3 073d 8457 5dbd
000000d0: b4e2 b3bd a58c 403b 0499 b8bb 7bec 4eba
000000e0: c8fd 16bd bd4c 18be 4205 03be adf8 a4bb
000000f0: 0acf 7abe c8a9 4fbe e4be d1bd c5fb 40bd
00000100: bec6 5fbc e81a 38bc 6004 abbd b340 0abb
00000110: 6be9 083a 5862 3dbd 4fa0 66bc 0b7e d03d
00000120: 8ad1 e6bb c247 c2bc a15e 1b3d 526c ddbc
00000130: cdfc 0dbe 5cad ddbd 6b10 40bd 7dae 67be
00000140: 1980 95be 454d ac3d 0983 523d 6b1d f3bd
00000150: 89fa bf3d e813 a83d 42b5 c3bb 9e9f 8bbd
00000160: 3b5b 943b 2431 b43c 9e89 f63d c1c6 3b3d
00000170: 5bec 70bc d750 45bc d29f 583d 7ad8 053e
00000180: 804f 1cbe d12b 54bd e3ef bebc f43d 643b
00000190: 9791 4e3d 43bd 463d d2a3 5cbd e3f7 d6bd
000001a0: 4c94 c63c c679 61be b942 28be 50c5 4dbc
000001b0: 251f 19bd 3a17 713b e551 ab3d 2c83 073d
000001c0: 281c d0bb 5406 0d3d 27f2 e9bc b345 45bd
000001d0: c3a8 dfbd 20ea 993d 6731 e43c 3b5b fe3c
000001e0: b3ac 373d f22b ebbd 8144 9abd e058 c73d
000001f0: d2c1 61bd b50c 7f3d 0651 673c e905 25bd
00000200: 847b 353d 096c 243c 5500 28be 384a c3bd
00000210: eec6 adbd bff1 90bd 2b8b aabc 6a2c e4bb
00000220: 0067 a93c 676f d93d 3886 f0bb 0057 7f3d
00000230: a233 cf3d 60e7 ccbc e7a7 513d 2b7e d03d
00000240: cccd 633d 188e afbd 6913 1abe ffef 0d3d
00000250: 47c5 95bc 79da a3bd a772 05bd c56a 2ebd
00000260: ab60 89bd e557 6dbe 533e 41bd f830 603e
00000270: dff6 4bbe a3fe b03d 86ec 473e dee7 05be
00000280: a6ee 013e 1d60 813e 98df f53d 87df 803b
00000290: 31b8 a43c f77a c93d 263f 7abc e759 0c3d
000002a0: d260 863d c50d 2f3e 0ff4 c83d 6bb5 78bd
000002b0: 8c05 4abd 1cfa 153d a4c3 c9bd d02d b6bd
000002c0: b644 3239 1503 6e3d ff9e aa3d 9c07 463e
000002d0: a120 8a3d 0c55 e4bd b09f 903d 4d06 943d
000002e0: 3909 86bc 362b 603b b9aa af3d a463 683d
000002f0: 7052 3fbd 6a20 323d a018 8dbd e031 f5bd
00000300: 841a 983a 3822 86bd 0093 bfbd 1378 08be
00000310: bf2e a9bd 5ab0 a3bc 97f8 c1bd 3cfe 483d
00000320: 60b7 9dbb f30b 413d 8b04 de3d b480 1d3d
00000330: c21d 313e 688e 083e 2503 bd3d a030 d03b
00000340: 8130 5d3d 02cf 53bd ba66 58bd 24a2 64bc
00000350: 8535 4bbd 47ee 09bd ebbe 65bc e137 ffbc
00000360: 11ff 9dbd 277b fc3d b774 353d 1cc8 a9ba
00000370: cf4b 1f3e 3e2a 393d b8f9 be3c 87c3 123e
00000380: 57f2 e93d b894 b0bb 48be cdbc 30ea 953a
00000390: 8bef e1bd 24de 04bd da55 f83d d8c8 e4bc
000003a0: 5369 383d 5ca0 193e 0d17 b4bd 5ad6 9fbd
000003b0: 6346 23be fd5c 36bd 7a7c 3abc 9efa 93bd
000003c0: 56e2 f8bd dd4e e1bd 596d 49be 22e9 38bd
000003d0: daa4 3bbd 4041 e73b 776c 9ebc 7f4e a53c
000003e0: 5a4a afbc 8669 1bbb 8b5c 47bd c394 953d
000003f0: 1f0e 54bd e3a8 db3c 29b7 46bd 0403 06bd

module.residual_layers.0.1.bn2.weight f4 [16]
0.806651 0.65866715 0.38416058 0.75273025 0.5399297 0.13464998 -0.05978586 0.6502474
0.5607988 0.65704614 0.6535244 0.4876175 0.45187843 0.40789592 0.32669273 0.492765
00000000: ae80 4e3f 699e 283f b2b0 c43e eeb2 403f
00000010: d538 0a3f afe1 093e 05e2 74bd 9d76 263f
00000020: 8390 0f3f 2d34 283f 604d 273f 00a9 f93e
00000030: 9c5c e73e bcd7 d03e 4544 a73e b24b fc3e

module.residual_layers.0.1.bn2.bias f4 [16]
0.24228586 0.09397943 0.31959686 0.022451466 -0.08088577 0.1752704 0.045300025 0.14465426
0.5728453 0.2832662 -0.08486239 -0.10331162 0.12824261 0.5447917 0.26250958 0.45422533
00000000: c919 783e 4a78 c03d 33a2 a33e 23ec b73c
00000010: 70a7 a5bd 157a 333e 858c 393d 3f20 143e
00000020: fda5 123f 4408 913e 55cc adbd 0b95 d3bd
00000030: 0852 033e 7877 0b3f a867 863e 3990 e83e

module.residual_layers.0.1.bn2.running_mean f4 [16]
-0.89479715 -0.1163871 -0.2238204 -0.2486468 0.5362895 0.05728544 0.08783651 -0.54923606
0.24399479 -0.51766163 0.49842316 -0.10912604 0.25180542 -0.22825183 -0.07288348 -0.28343996
00000000: 6d11 65bf 5c5c eebd 2d31 65be 449d 7ebe
00000010: 454a 093f 23a4 6a3d a1e3 b33d bc9a 0cbf
00000020: c5d9 793e 7985 04bf 5231 ff3e 797d dfbd
00000030: a4ec 803e d9ba 69be ef43 95bd 0b1f 91be

module.residual_layers.0.1.bn2.running_var f4 [16]
0.35965046 0.19141257 0.12058814 0.18466492 0.11264012 0.049063504 0.017980672 0.19021869
0.1688384 0.22758299 0.18197477 0.0798489 0.12015564 0.12857313 0.08867558 0.14718358
00000000: 1b24 b83e a801 443e eaf6 f63d cd18 3d3e
00000010: ddaf e63d d0f6 483d 344c 933c b0c8 423e
00000020: f9e3 2c3e 840b 693e 9857 3a3e d287 a33d
00000030: 2914 f63d ada8 033e 8b9b b53d 4bb7 163e

module.residual_layers.1.0.conv1.weight f4 [32, 16, 3, 3]
-0.105607286 -0.10504222 0.057695508 -0.11646705 -0.083219804 0.017023075 -0.00034321038 -0.025417004
0.06257683 0.13271376 0.09596603 0.010940575 0.1147014 0.06526104 0.10446669 0.098660775
0.046822462 -0.0042203837 -0.05980303 0.014854967 -0.026757153 -0.20008883 -0.026085783 0.031561296
-0.1612929 -0.071733564 0.08989274 -0.14344786 -0.10788582 0.010851262 0.008486631 -0.017054956
-0.076857515 0.033463594 0.0033559469 -0.04591552 0.0158755 -0.058878068 -0.060378548 -0.013475325
0.045074385 -0.07470518 0.042297248 0.0023430875 -0.10105923 0.03157676 0.09483414 0.06640798
0.04318767 0.13778114 0.061204378 -0.012062302 0.09499815 -0.010635549 -0.046360318 0.06071844
0.12082751 -0.14439099 0.015109612 0.10230518 -0.09632782 0.03235732 0.10797242 -0.023156758
-0.0467328 0.08185493 -0.06038639 -0.06728991 0.061295714 -0.08477006 -0.11239438 0.0147383595
0.11463866 -0.08982613 -0.21043357 0.050391015 -0.09418194 -0.2001503 0.018537208 -0.14563888
-0.26278412 -0.15587103 -0.021101989 0.14851671 -0.16801107 -0.050110575 0.24700098 -0.14847283
-0.053440444 0.17365304 0.085561775 -0.007849788 -0.04108811 0.123263665 0.06466997 -0.01121851
0.0780939 0.118680224 0.0023332704 -0.11572319 -0.0067908634 0.05130463 -0.13403189 -0.06597744
-0.008742719 -0.18400662 -0.14039789 -0.12342408 -0.11370889 -0.004705406 0.1384921 -0.18808302
-0.019455843 0.15199773 -0.16585056 -0.073884055 0.077826135 0.10816781 0.009389826 -0.0463307
0.12835152 0.029472195 0.0052641383 0.06011615 -0.040571954 0.013375154 -0.004693076 -0.029788254
-0.007154621 -0.0031467108 0.041457277 0.005447563 -0.035218485 0.026262518 -0.019397832 0.012046655
0.09049204 0.08607278 -0.0046516433 0.0925183 0.18095945 -0.09136249 -0.014552582 0.1214172
0.14803258 0.026952334 -0.16934352 0.20562771 0.052943397 -0.17669672 0.22146675 0.06168865
-0.15467098 -0.034002453 0.05574318 0.061907146 -0.064590275 0.024930926 0.085249394 -0.115028374
-0.03339726 0.15769812 -0.19996905 -0.023889095 0.17936042 -0.07234024 0.06708975 0.15453556
-0.025244677 0.05779532 0.08095914 0.10387486 0.024421778 0.016647048 0.13310695 0.061050784
-0.011005008 0.10067623 0.02379507 -0.06934834 -0.1672766 0.036019057 0.03645485 -0.13990642
-0.053525735 -0.028623581 -0.03108653 0.019801995 0.008379106 -0.038057424 0.0119279055 0.049450066
-0.057563003 -0.05249258 0.046498403 -0.064502105 -0.10688386 -0.0148381125 0.024492906 -0.061250374
-0.05336709 0.04593755 -0.07648647 -0.15078422 0.08126035 -0.021477917 -0.1582545 0.049912844
-0.04547214 -0.07126083 -0.064370885 -0.070179835 -0.12507002 -0.07368259 -0.0918329 -0.10650666
-0.059864074 0.026436957 0.07130464 -0.012092316 -0.0028082137 0.03893231 -0.059568558 -0.05119857
0.041406274 0.18566678 -0.015786283 -0.24998958 0.21372055 0.0018711106 -0.32774317 0.17698649
-0.0065304623 -0.21433999 0.06275123 0.024972832 0.010451405 0.051789213 0.04313105 -0.009535117
0.015229092 0.0038215506 -0.07302912 0.021213321 0.02912898 -0.10744209 -0.007527486 0.046232183
-0.11075666 -0.019900931 0.03157384 -0.11754804 -0.100722656 -0.032437984 0.014146704 -0.0578634
00000000: a248 d8bd 6020 d7bd 2052 6c3d 4786 eebd
00000010: 256f aabd fa73 8b3c ebf0 b3b9 5237 d0bc
00000020: 4828 803d 1ee6 073e d789 c43d 1940 333c
00000030: 91e8 ea3d 95a7 853d a2f2 d53d a90e ca3d
00000040: e9c8 3f3d 254b 8abb 06f4 74bd 3f62 733c
00000050: d131 dbbc 16e4 4cbe dab1 d5bc 6b46 013d
00000060: f729 25be 0ce9 92bd af19 b83d ffe3 12be
00000070: 3ef3 dcbd 7ec9 313c 830b 0b3c d6b6 8bbc
00000080: 7967 9dbd 1f11 093d 72ef 5b3b ea11 3cbd
00000090: 560d 823c 212a 71bd 7f4f 77bd 9cc7 5cbc
000000a0: eb9f 383d 08ff 98bd e13f 2d3d 7c8e 193b
000000b0: 24f8 cebd a256 013d 6738 c23d e800 883d
000000c0: 8ee5 303d 8016 0d3e 71b1 7a3d f6a0 45bc
000000d0: 648e c23d ba40 2ebc 51e4 3dbd e6b3 783d
000000e0: 6a74 f73d 3bdb 13be 4e8e 773c 6185 d13d
000000f0: 8547 c5bd 1c89 043d a520 dd3d 3eb3 bdbc
00000100: e46a 3fbd 8fa3 a73d b857 77bd 4bcf 89bd
00000110: 3711 7b3d ed9b adbd 062f e6bd 2979 713c
00000120: acc7 ea3d c3f6 b7bd e67b 57be cf66 4e3d
00000130: 76e2 c0bd 33f4 4cbe 58db 973c 5c22 15be
00000140: a48b 86be a89c 1fbe 14de acbc c414 183e
00000150: 180b 2cbe bf40 4dbd d3ed 7c3e 4309 18be
00000160: 5ee4 5abd 1ad2 313e 033b af3d 669c 00bc
00000170: 024c 28bd a971 fc3d b071 843d d7cd 37bc
00000180: b2ef 9f3d 9e0e f33d c8e9 183b 4800 edbd
00000190: e485 debb ce24 523d a83f 09be 2e1f 87bd
000001a0: 9f3d 0fbc 3b6c 3cbe 77c4 0fbe c4c5 fcbd
000001b0: 35e0 e8bd ce2f 9abb e0d0 0d3e d698 40be
000001c0: dc61 9fbc 4ba5 1b3e bbd4 29be 8650 97bd
000001d0: 4f63 9f3d 1687 dd3d c9d7 193c 43c5 3dbd
000001e0: 956e 033e ac6f f13c cb7e ac3b 5a3c 763d
000001f0: c72e 26bd 7623 5b3c 60c8 99bb 7f06 f4bc
00000200: 5071 eabb 0c39 4ebb 1bcf 293d 7881 b23b
00000210: 4241 10bd 7e24 d73c 34e8 9ebc 555f 453c
00000220: e453 b93d ed46 b03d d06c 98bb 3c7a bd3d
00000230: 6f4d 393e 421c bbbd f46d 6ebc 95a9 f83d
00000240: da95 173e 24cb dc3c 6368 2dbe 1290 523e
00000250: 2ddb 583d fcef 34be 2ec8 623e 3dad 7c3d
00000260: 1262 1ebe 2846 0bbd f652 643d 5992 7d3d
00000270: e847 84bd f13b cc3c 3c97 ae3d ff93 ebbd
00000280: 91cb 08bd 9e7b 213e b0c4 4cbe 10b3 c3bc
00000290: 42aa 373e 1f27 94bd 5a66 893d 923e 1e3e
000002a0: edcd cebc c9ba 6c3d e8cd a53d 58bc d43d
000002b0: 2e10 c83c 645f 883c 304d 083e 6310 7a3d
000002c0: 594e 34bc 572f ce3d e1ed c23c 8106 8ebd
000002d0: 8f4a 2bbe b888 133d ae51 153d a143 0fbe
000002e0: cd3d 5bbd 007c eabc 2ea9 febc cb37 a23c
000002f0: 8548 093c 1ae2 1bbd 436d 433c 278c 4a3d
00000300: 2fc7 6bbd 7602 57bd 1c75 3e3d ae19 84bd
00000310: ede5 dabd 8e1b 73bc 59a5 c83c ace1 7abd
00000320: 7397 5abd 0329 3c3d f0a4 9cbd 2e67 1abe
00000330: d46b a63d 75f2 afbc 780d 22be 6971 4c3d
00000340: ff40 3abd 33f1 91bd e2d4 83bd 72ba 8fbd
00000350: 5b12 00be e6e6 96bd e312 bcbd 2a20 dabd
00000360: 0834 75bd 5192 d83c 2b08 923d d91e 46bc
00000370: 020a 38bb 7c77 1f3d 29fe 73bd 97b5 51bd
00000380: a099 293d 6f1f 3e3e 3c52 81bc 45fd 7fbe
00000390: 8fd9 5a3e 0e40 f53a f4cd a7be f23b 353e
000003a0: 7dfd d5bb f17b 5bbe b883 803d d393 cc3c
000003b0: 5f3c 2b3c ed20 543d 2faa 303d 2e39 1cbc
000003c0: 7183 793c fb72 7a3b 4b90 95bd 8fc7 ad3c
000003d0: e69f ee3c 990a dcbd 21a9 f6bb f55d 3d3d
000003e0: 63d4 e2bd 4707 a3bc 9253 013d 07bd f0bd
000003f0: ae47 cebd b1dd 04bd 94c7 673c 2c02 6dbd

module.residual_layers.1.0.bn1.weight f4 [32]
0.5258576 0.51123464 0.48463342 0.4221248 0.47458318 0.2770231 0.41438594 0.53034616
0.45388344 0.5562799 0.43053186 0.5123304 0.5478035 0.34904626 0.43906748 0.47922885
0.5058094 0.32772923 0.56091213 0.5047542 0.59680367 0.376746 0.47203624 0.4653644
0.4581185 0.47991827 0.49210867 0.57867086 0.41641846 0.41821146 0.4321796 0.4240793
00000000: 9b9e 063f 46e0 023f df21 f83e be20 d83e
00000010: 91fc f23e f9d5 8d3e 652a d43e c4c4 073f
00000020: 6963 e83e 5c68 0e3f ac6e dc3e 1628 033f
00000030: da3c 0c3f 31b6 b23e 74cd e03e 7c5d f53e
00000040: ba7c 013f 20cc a73e f097 0f3f 9237 013f
00000050: 20c8 183f dae4 c03e bcae f13e 3e44 ee3e
00000060: 828e ea3e d9b7 f53e abf5 fb3e c623 143f
00000070: cd34 d53e d01f d63e a546 dd3e ec20 d93e

module.residual_layers.1.0.bn1.bias f4 [32]
-0.2584484 -0.19232519 -0.17953208 -0.11180713 -0.05701922 0.23733698 0.015023162 -0.17211653
-0.057125617 -0.06629439 -0.016135221 -0.30914766 -0.06912042 0.10212605 -0.13668571 -0.18431064
-0.22553022 0.3436152 -0.48450556 -0.17929168 -0.3049698 -0.19152422 -0.2136133 -0.1681949
-0.051432617 -0.23781976 -0.12846756 -0.38499236 -0.16021277 -0.043545797 -0.22299874 -0.06379409
00000000: 5953 84be e5f0 44be 42d7 37be 23fb e4bd
00000010: fc8c 69bd 7708 733e b523 763c 513f 30be
00000020: 8dfc 69bd 5ac5 87bd 032e 84bc 9a48 9ebe
00000030: 028f 8dbd 7627 d13d 57f7 0bbe eebb 3cbe
00000040: 65f1 66be 55ee af3e 1d11 f8be 3d98 37be
00000050: 0025 9cbe ed1e 44be 72bd 5abe 493b 2cbe
00000060: 02ab 52bd 0687 73be 008d 03be b81d c5be
00000070: d10e 24be 145d 32bd c859 64be 7aa6 82bd

module.residual_layers.1.0.bn1.running_mean f4 [32]
-0.17808859 -0.68904513 0.07043496 -0.29292038 -1.5356681 -1.9702394 -0.9169352 -0.070797615
0.20201173 -1.7108759 -0.85365593 -0.35027647 1.0832741 0.978025 -1.3617483 -0.38392818
0.1751614 -0.20895182 0.20916128 -0.2402109 -0.8027213 0.24968217 -1.0444213 -0.98951745
-1.887558 -0.16675857 -2.3336928 -2.0069757 -0.05774267 -2.3445327 2.0068924 -1.9924685
00000000: db5c 36be 4365 30bf 3440 903d a9f9 95be
00000010: c690 c4bf ce30 fcbf 44bc 6abf 57fe 90bd
00000020: 2adc 4e3e fbfd dabf 3289 5abf 7057 b3be
00000030: baa8 8a3f d95f 7a3f c54d aebf 3c92 c4be
00000040: 835d 333e 77f7 55be 602e 563e d9f9 75be
00000050: 257f 4dbf afac 7f3e 99af 85bf 0451 7dbf
00000060: 809b f1bf c2c2 2abe 395b 15c0 4a72 00c0
00000070: 9483 6cbd d30c 16c0 ed70 0040 3509 ffbf

module.residual_layers.1.0.bn1.running_var f4 [32]
0.5870305 0.56445366 0.78871757 0.6114864 0.59795 0.5984394 1.0086669 0.52917707
0.6598598 0.76343 0.6197098 0.58943254 1.1252573 0.5606745 0.741599 0.60519177
0.47568423 1.4641232 0.51865816 0.7160473 0.6873386 0.4259386 0.60935867 0.60186803
0.60457855 0.6400998 0.68364257 0.83368754 0.52029383 0.74989086 0.6645478 0.8757309
00000000: a147 163f 0980 103f 65e9 493f 5f8a 1c3f
00000010: 4013 193f 5333 193f ff1b 813f 2678 073f
00000020: 92ec 283f 2670 433f 4da5 1e3f 0de5 163f
00000030: 6e08 903f 5d88 0f3f 6fd9 3d3f d9ed 1a3f
00000040: e28c f33e 6468 bb3f c8c6 043f e04e 373f
00000050: 6cf5 2f3f a014 da3e eefe 1b3f 0614 1a3f
00000060: a9c5 1a3f 95dd 233f 3303 2f3f 8c6c 553f
00000070: fa31 053f d9f8 3f3f ce1f 2a3f e62f 603f
