summaries/good_ResNet2_num_blocks2x2_num_channels32_conv3/ckpt.pth (torch, 707563 bytes, 52 tensors)

module.conv1.weight f4 [32, 3, 3, 3]
000000 49 0b 02 3e 69 35 93 3e ea 7a b0 3d 42 7f 4c 3c
       0.12699617 0.28751686 0.08617194 0.0124815125
000010 fd 26 f7 3d d1 0b 58 3d d0 20 89 be f3 1b b8 be
       0.12067983 0.052745644 -0.26782846 -0.35958824
000020 89 65 4d be 51 5d 23 3e 79 8b ae 3e f5 5d 15 3e
       -0.20058264 0.15953566 0.34090784 0.14586623
000030 a3 82 4e bb e6 d7 06 3e 03 b2 b0 3d f8 7a 93 be
       -0.003151097 0.13168296 0.08627703 -0.28804755
000040 31 29 c4 be 70 5d 53 be 28 25 34 3e 93 e1 91 3e
       -0.38312677 -0.20641112 0.17592299 0.28492412
000050 33 50 01 3e a3 eb 33 3d 91 46 ea 3d ec c8 7c 3d
       0.1262825 0.043925893 0.11439241 0.06171505
000060 cd c5 5f be 04 f5 9f be c6 9c 4e be e2 67 f6 3d
       -0.21852799 -0.3124162 -0.20176992 0.12031533
000070 03 58 57 3d 54 b2 e7 3d 48 6c f9 3d c4 d9 60 3d
       0.05257417 0.1131331 0.12178856 0.054895177
000080 fd 68 54 3e af dd b0 3d 68 e1 40 be a4 fb f3 3c
       0.20743175 0.08636033 -0.18835986 0.029783078
000090 b5 4e af 3d b9 fa 9a bd 77 da 21 3d f2 ff 3a bc
       0.08559934 -0.07567353 0.039514985 -0.011413561
0000a0 10 c5 07 be 5d 52 a1 3c ee c5 93 bc aa 48 86 be
       -0.13258767 0.019692594 -0.018038716 -0.26227313
0000b0 52 98 aa bd e8 b0 2e 3d 57 43 14 be 7d 04 59 ba
       -0.08329834 0.04264918 -0.14478813 -0.0008278562
0000c0 ab c2 ca bd 5a 41 78 be de b3 95 bd 3c ff b1 bd
       -0.09900411 -0.2424368 -0.073096976 -0.0869126
0000d0 94 3d 90 be 36 e6 08 be b8 f2 5c bc ac 2f ee 3c
       -0.2817198 -0.13369069 -0.013485603 0.029075466
0000e0 95 64 ba 3d 46 98 eb bd 73 03 61 bc 14 2b 49 3e
       0.09101216 -0.11503653 -0.0137337325 0.19645339
0000f0 a9 ce cc bc 85 6d 95 bc a9 ad 84 3d 79 f0 30 be
       -0.025000887 -0.0182407 0.064784355 -0.17279233
000100 ff bc dc bc 06 b0 23 3e 32 30 8d be 56 39 68 bd
       -0.02694559 0.15985116 -0.27575833 -0.056695305
000110 95 b0 93 3e 0d 98 f1 bd 0c a7 a9 bc 63 ea 21 3e
       0.2884566 -0.117965795 -0.020709537 0.15812068
000120 2f b4 5f be 5a fc c8 bc 46 ed 2f 3e 8d 54 a9 be
       -0.21846078 -0.024534393 0.17180356 -0.3307232
000130 ae 28 94 bd 67 59 94 3e fb ce 16 be 61 61 99 bb
       -0.072343215 0.2897446 -0.14727394 -0.004680798
000140 51 19 6c 3e ef 5b ec af ed f6 88 b0 a4 d1 24 b0
       0.23056532 -4.2993473e-10 -9.965483e-10 -5.996077e-10
000150 1c 30 a1 ae c0 9e 47 b0 4c 52 6e 30 8c 6d 1d b1
       -7.329978e-11 -7.2621376e-10 8.6700847e-10 -2.2908777e-09
000160 6d 88 d5 b0 c2 be 18 b0 91 dc 9f b0 51 86 0e b1
       -1.5536564e-09 -5.556836e-10 -1.1631461e-09 -2.074007e-09
000170 34 11 d9 b0 42 20 31 b0 d0 24 55 ad 84 2b 23 ae
       -1.5793717e-09 -6.4438066e-10 -1.2115822e-11 -3.710056e-11
000180 d7 e0 1f b1 e9 8d 99 b0 cc c4 9b b0 c6 b7 f4 2d
       -2.3265352e-09 -1.1172548e-09 -1.1333667e-09 2.78212e-11
000190 1a 2a 80 30 23 05 26 30 7f 86 df 30 bc c4 0d 31
       9.325192e-10 6.039775e-10 1.6263612e-09 2.063003e-09
0001a0 ae 9e cd 30 e2 d3 4d 2f 4f 0c 4a 30 14 a3 40 30
       1.4960813e-09 1.8719917e-10 7.3504663e-10 7.008094e-10
0001b0 cf d6 21 bd 52 c4 0d be 0e d2 b9 bd 32 2d 7c bd
       -0.039511498 -0.13844422 -0.09073268 -0.06156654
0001c0 95 67 39 be 8e 98 53 bd 36 d9 83 bd 6c a3 43 be
       -0.1810592 -0.05165916 -0.06437914 -0.19105309
0001d0 ba 74 69 bb 6e a7 74 3d 82 73 5f 3c 46 9c 64 3d
       -0.0035622553 0.059729986 0.013638379 0.055813096
0001e0 2e 88 27 3d 46 5e 77 bd 73 ba 71 3d 70 99 4d 3d
       0.040901355 -0.06039264 0.059015702 0.050195158
0001f0 eb 84 a9 bd 3b 85 c7 3d 26 49 8f 3d 7e 5c 79 3d
       -0.08277305 0.097422086 0.06996374 0.060879223
000200 22 7b d5 3d 4c 97 ee 3c a5 e7 6b bd ef b5 8d 3d
       0.10423876 0.029124878 -0.05759396 0.06919467
000210 53 84 e7 bc 7a 58 06 be 2e 6f 96 3d e4 ac cd bd
       -0.02826134 -0.13119689 0.073454246 -0.10042742
000220 3a d1 92 be 51 b8 64 be 96 5d 8e bd d4 de 4c be
       -0.28675252 -0.22335936 -0.06951444 -0.20006877
000230 c8 c3 36 be 22 05 9b 3c 44 1d e2 bd b9 64 90 3d
       -0.17848122 0.018923346 -0.11040738 0.07050461
000240 b4 05 13 be ca d4 ab 3e dd 4d bc 3d f3 13 18 3e
       -0.14357644 0.33560783 0.09194539 0.1485136
000250 8d 40 64 3f 63 99 e5 3e c6 91 a2 bc 53 0e ea 3e
       0.89160997 0.44843587 -0.0198449 0.45714054
000260 d5 71 6f 3e 5d 37 27 3e 03 ff 55 bc 56 47 2a 3e
       0.23383267 0.16329713 -0.013061288 0.16628775
000270 a3 f8 f8 bc 1f 96 19 bf d6 5a cb be 6a 51 44 3d
       -0.030391997 -0.5999469 -0.3971774 0.047929205
000280 26 fa 05 bf 1d 1a 3e be b9 0f 8b 3d a6 c9 e0 bc
       -0.5233482 -0.18564649 0.06790108 -0.027439903
000290 80 34 99 3d eb 14 9a bd c3 bd 97 be a8 5b 93 bd
       0.07480717 -0.07523521 -0.29636964 -0.071952164
0002a0 2a 7c 9f 3d 00 69 0c be 7f 5c 12 3d c1 14 3f 3d
       0.07787354 -0.1371193 0.035732742 0.04665065
0002b0 ca db 84 bd e6 ea e2 3c b9 5e 52 bd c5 b7 8c be
       -0.06487234 0.027699899 -0.051359866 -0.27483955
0002c0 65 b6 a2 bd 01 08 ba 3d bf b6 07 be 6a 59 b5 3c
       -0.07944945 0.09083558 -0.13253306 0.022137363
0002d0 8b e4 b0 3d 87 3a c7 bc a3 87 48 3d de 7f 88 3d
       0.08637341 -0.0243199 0.04895748 0.06665014
0002e0 3d 31 10 be 01 b9 f3 3c bb 3b df 3d 78 7d 27 bd
       -0.14081283 0.029751303 0.109000646 -0.04089114
0002f0 64 cd bf 3d 72 db 13 be 5a 00 88 bd d6 82 fe bd
       0.09365347 -0.1443918 -0.06640692 -0.12427299
000300 69 a4 08 3d 55 d5 43 3e 8d 97 e2 3d 61 24 40 3d
       0.03335992 0.19124348 0.11064062 0.046909694
000310 8f 27 4b 3e 14 9c 99 3d 9b e9 9d bd 89 02 5c 3d
       0.19839309 0.07500473 -0.07710572 0.053713355
000320 b5 88 57 bd 19 1f 82 bb cc 1f 26 3e 2d 52 65 3d
       -0.05262061 -0.0039709923 0.16223067 0.055986572
000330 f2 08 48 bd 34 46 a2 3d dd 2b a4 bc 37 40 9a 3d
       -0.048836656 0.079235464 -0.020040447 0.07531779
000340 61 cd 66 3e e1 d5 b4 3d a0 f3 e7 3c c0 78 05 3e
       0.22539283 0.08829857 0.028314412 0.13034344
000350 94 aa 1b 3d 9f 44 1f be df 50 d0 bd 7f 93 06 be
       0.038004473 -0.1555352 -0.10171675 -0.13142203
000360 a5 21 e2 3d 38 a8 61 3e 16 e3 ee bd 62 e1 88 3e
       0.110415734 0.22036827 -0.11664407 0.26734453
000370 9a ec 37 bf 17 90 1b 3e 0c 60 77 bd 51 13 7a 3e
       -0.718454 0.15191685 -0.06039433 0.24421431
000380 87 ef aa bd 75 6d 56 3d bc 15 32 3c 34 a5 ab bd
       -0.083464675 0.05235048 0.01086944 -0.08381119
000390 15 32 8a 3e 65 3b 58 bf 59 23 e2 3e ca 9d fa bc
       0.26991335 -0.8446563 0.44167593 -0.030592818
0003a0 50 ee 3f 3e 5b 63 56 bd 84 58 f2 bd 2d d0 28 3e
       0.18743253 -0.052340847 -0.11833289 0.16485663
0003b0 6f 31 c7 bd df b7 fd 3d 34 79 5c be 1c 2b 9a 3e
       -0.097262256 0.12388586 -0.2153061 0.30111015
0003c0 ef 53 3d bb b2 6b 64 bc 3c dc 2f bd 86 1f f5 30
       -0.002888914 -0.013941692 -0.04293464 1.7835056e-09
0003d0 73 a1 2b 31 ee b2 10 31 8e 55 95 b0 11 0a c4 2f
       2.4975548e-09 2.1056468e-09 -1.0865493e-09 3.5659345e-10
0003e0 92 e7 09 30 5a ff 22 b0 1c 2c c0 2f 98 e0 68 30
       5.016939e-10 -5.9298133e-10 3.4955938e-10 8.4720275e-10
0003f0 54 08 20 ae e3 5f ae 2f 88 b4 39 b0 8a 34 46 b0
       -3.6387185e-11 3.1718547e-10 -6.755916e-10 -7.2106643e-10

module.bn1.weight f4 [32]
000000 d4 8d 8b 3e cb 1a e0 3e 7e 4e 33 3e 40 cc d0 2f
       0.27256644 0.4377044 0.17510411 3.7980108e-10
000010 78 95 b1 3e 5a 46 73 3e 14 0c 01 3f cf 28 c9 3e
       0.34684348 0.23757306 0.50409055 0.39288947
000020 55 ba 95 3e 23 66 83 30 de 94 54 af d4 bf 5b 37
       0.29243723 9.560533e-10 -1.9334176e-10 1.3098081e-05
000030 79 74 51 b2 42 9e 62 3e e4 2e 47 31 cc 16 f0 3e
       -1.2191884e-08 0.22130683 2.8984966e-09 0.46892393
000040 88 21 54 30 32 a7 78 3e 37 11 0d 32 0b 35 91 35
       7.71728e-10 0.2428253 8.211194e-09 1.0818779e-06
000050 98 d3 5f 3e 4c d6 01 31 09 3c 3c 3e 8b c5 54 32
       0.2185806 1.8893784e-09 0.18382277 1.238494e-08
000060 75 fa 73 3e 4d 59 5a 3e d2 ee 80 31 a2 20 33 3e
       0.2382601 0.21323128 3.752441e-09 0.17492917
000070 1b 9b 8a 3e fc a5 7a 3e de de a8 30 54 6c d7 35
       0.2707146 0.2447738 1.2286951e-09 1.6050276e-06

module.bn1.bias f4 [32]
000000 5b 62 15 3e a6 fc 6e be ca b6 f2 3d f3 0c 8e b1
       0.14588301 -0.23338565 0.118512705 -4.134216e-09
000010 a9 cc 7d be ea ea 39 3e 5f b3 c7 be 8d b6 7c be
       -0.24785103 0.18156019 -0.39004037 -0.24679013
000020 d3 82 05 3f a4 32 5b b1 79 fc 96 b1 72 af d9 b8
       0.52152747 -3.189748e-09 -4.3942774e-09 -0.000103800456
000030 aa 23 cf b3 94 4a 9c 3e 28 54 ef b1 77 8d 4c be
       -9.645676e-08 0.3052565 -6.965383e-09 -0.1997584
000040 42 ed 54 b1 2a f2 1c 3e 75 84 8b b3 01 d0 c2 b6
       -3.0984926e-09 0.15326753 -6.496786e-08 -5.8058654e-06
000050 55 2a 3e 3e 4e 52 1b b2 1f f8 88 3d 06 04 aa b3
       0.18570836 -9.040901e-09 0.0668795 -7.916974e-08
000060 c6 d8 dd 3d 08 09 d5 3d d1 7b 91 b2 c8 b6 bf 3d
       0.10832362 0.10402113 -1.6936527e-08 0.09361035
000070 7a c1 c2 3e b9 a3 8f 3e 4b 78 68 b1 69 81 bb b6
       0.38038236 0.28054598 -3.3828822e-09 -5.5880996e-06

module.bn1.running_mean f4 [32]
000000 e8 14 25 3c 29 df 90 3e d7 4d d9 ba 27 7b 2f 31
       0.010075785 0.28295258 -0.0016578984 2.5535856e-09
000010 df b9 20 3e 56 f5 19 bd 01 e6 72 3e 36 84 7d be
       0.15695904 -0.037587486 0.23720552 -0.24757466
000020 68 ea e5 3c 31 cf 5d b1 06 93 a1 b1 50 94 33 b9
       0.028065875 -3.2277507e-09 -4.7024313e-09 -0.00017126021
000030 6e 04 50 34 a5 46 9f 39 45 7c 96 31 c7 3c a1 3e
       1.9373121e-07 0.00030379478 4.3797024e-09 0.31491682
000040 d5 46 06 b1 48 92 c6 bc f5 e4 25 b3 ab 56 0e 37
       -1.953983e-09 -0.024239674 -3.862529e-08 8.4840385e-06
000050 0c 54 9e bc 40 8e e9 b1 02 73 d5 bc ea 94 b9 b3
       -0.019327186 -6.7973644e-09 -0.026055817 -8.641821e-08
000060 75 f5 83 3c 88 1e b2 3b ea d8 99 b2 e6 7d 8e 3e
       0.016108254 0.0054357685 -1.7910185e-08 0.27830428
000070 0d 69 56 bd 41 9a a8 bd 0a 02 0b 31 8d ef 17 b7
       -0.052346278 -0.082325466 2.0228321e-09 -9.056076e-06

module.bn1.running_var f4 [32]
000000 a4 c1 85 40 0b 7e ff 3f db 04 f5 3f b5 9e 0b 25
       4.179888 1.996034 1.9142107 1.21101e-16
000010 3c 2d 05 3f 4d 5d 13 3f a4 cd 76 3f b4 08 73 3f
       0.5202215 0.5756424 0.9640753 0.94935155
000020 b9 26 a6 3e 05 14 3b 25 a3 e5 ba 26 c2 b2 fe 34
       0.32451418 1.6226447e-16 1.2968586e-15 4.744125e-07
000030 e9 b1 52 2b 6a ab 93 3e 16 9e b5 25 06 a1 c9 3f
       7.4853887e-13 0.28841716 3.1505618e-16 1.5752265
000040 8a 17 90 24 02 9a 1e 40 f1 ce 0a 29 d7 76 e7 30
       6.248992e-17 2.47815 3.082165e-14 1.6841238e-09
000050 60 47 eb 3e c4 cf 9f 26 e9 a7 ce 3f 9f 24 85 2a
       0.45952892 1.1089156e-15 1.6144992 2.3650957e-13
000060 40 5b b0 3f 83 c7 1e 40 63 b1 15 28 a5 5e 98 3f
       1.3777847 2.4809272 8.309626e-15 1.1903883
000070 60 cd f8 3e 4a 41 06 3f e2 d3 96 24 d2 6f 9f 30
       0.4859419 0.52443373 6.5411074e-17 1.1600554e-09

module.residual_layers.0.0.conv1.weight f4 [32, 32, 3, 3]
000000 84 e4 4d bd 80 cf 86 bd c6 10 78 39 f4 a1 17 bd
       -0.050266758 -0.06582546 0.00023657372 -0.037019685
000010 06 cd 53 bd b7 91 19 bd 4e d1 9c bd 9d e1 8d bd
       -0.051709197 -0.03749248 -0.07657109 -0.06927798
000020 d8 5f d0 bd 08 8a df bc a3 a8 9b 3d 6a e7 3a 3d
       -0.10174531 -0.027287498 0.07600524 0.04563085
000030 0e b9 15 bd 88 bc 04 3d 65 b9 91 ba a4 71 4a bd
       -0.036553435 0.03240636 -0.0011117874 -0.049424782
000040 96 76 d4 bc 63 aa 8a bd 4a af 02 3d 17 0a 1f bc
       -0.025935452 -0.0677078 0.03190545 -0.009706995
000050 55 49 11 3d 1f 80 dc 3b cc c5 6e bc 75 3b 07 3c
       0.035470325 0.0067291404 -0.014573526 0.008253922
000060 f3 eb f5 bb df 16 c1 bb 81 82 63 bc aa b7 03 30
       -0.007504934 -0.005892619 -0.013886095 4.7918525e-10
000070 09 7b 1b 30 af ff f9 2f a6 02 0b af 5e 5e 89 af
       5.6563515e-10 4.547451e-10 -1.2642917e-10 -2.4987207e-10
000080 3b d2 33 2d ac 58 0e 2f ec ed 46 2f 47 d0 d8 2f
       1.02216525e-11 1.2946327e-10 1.8092522e-10 3.943816e-10
000090 50 4b a4 bc 6c 78 a2 bc 70 72 3b bd d7 ac 1e bb
       -0.020055443 -0.019832812 -0.045763433 -0.0024211907
0000a0 d2 cd 38 bd 3e 7e 83 bd 5c 29 63 3c f2 32 ad bc
       -0.04511816 -0.06420563 0.013864841 -0.021142457
0000b0 2c fe 3a bd c5 8f 1b be c7 f9 8f be 14 02 97 be
       -0.045652553 -0.15191562 -0.28120252 -0.29493773
0000c0 bc e3 da 3d e4 85 15 3d 42 b7 8a bd 64 7a 87 3e
       0.10687968 0.03650464 -0.06773235 0.26460564
0000d0 ed b4 85 3e 33 18 cf 3d a7 d7 fa ba 5c 7d 04 3d
       0.26114598 0.101120375 -0.0019137756 0.032346115
0000e0 fe e8 1c bc 8d 24 11 bd ee 77 1b bd a9 f6 53 bc
       -0.009577034 -0.03543525 -0.03795617 -0.012937226
0000f0 43 67 b9 bd c7 48 ee bd eb e6 c0 bd fe 07 d5 3b
       -0.09052899 -0.11634975 -0.09419044 0.006501197
000100 fa 5b 4d 3d 23 f9 c0 3c 17 ef 24 bd 1c 97 21 3c
       0.050136544 0.023556298 -0.040267076 0.009862687
000110 49 56 71 3b ba a9 d2 bd 17 aa e0 bd 77 1c b8 bd
       0.0036825112 -0.10286279 -0.10969942 -0.08989804
000120 fb 9e 98 3c 7e e8 17 bc b3 56 4f 3d e4 32 59 bd
       0.018630495 -0.009271739 0.050619792 -0.05302705
000130 60 6e 4e bc ec 92 bc 3c db 12 5e 3c 6c f5 13 3d
       -0.012599558 0.023019277 0.0135543 0.036122724
000140 b4 1d e5 3b 1c 3d 9b ae 90 dc 05 2f 96 78 d0 2e
       0.0069920663 -7.059439e-11 1.2174639e-10 9.480165e-11
000150 36 9e ad 2f 5b 62 85 2f d9 c2 c4 2f 13 11 cf af
       3.1580932e-10 2.4262445e-10 3.579064e-10 -3.7665213e-10
000160 da 6d 8d af 3e d7 73 af dd 04 81 2f 39 a2 bf 2f
       -2.5725805e-10 -2.217719e-10 2.346842e-10 3.4857964e-10
000170 8b d8 f5 ae 94 dd 94 30 ba 97 b9 30 07 69 ae 30
       -1.1179776e-10 1.0831394e-09 1.3503645e-09 1.2690017e-09
000180 3a 76 8b b0 be 7e 6f b0 fc a5 8d b0 9d 31 13 b8
       -1.0147183e-09 -8.7127805e-10 -1.0306276e-09 -3.5093737e-05
000190 49 d4 28 b8 b9 51 0c b8 17 db 31 b8 d6 93 56 b8
       -4.0252027e-05 -3.345471e-05 -4.240413e-05 -5.115926e-05
0001a0 c5 fa 4d b8 5a f6 30 b8 e3 30 5d b8 9c 1d 6a b8
       -4.9109356e-05 -4.2191103e-05 -5.2736035e-05 -5.5817523e-05
0001b0 c2 03 b1 b2 2c f9 89 b1 e5 e7 c1 31 76 bc aa b2
       -2.060722e-08 -4.0155523e-09 5.6434026e-09 -1.9876307e-08
0001c0 c9 15 16 b2 8a a8 27 b1 22 01 9b b3 a4 d5 82 b3
       -8.7361025e-09 -2.4397502e-09 -7.217956e-08 -6.092458e-08
0001d0 f0 13 62 b3 6c 57 b7 3d 41 25 3f 3e db 70 e9 3d
       -5.263786e-08 0.08952221 0.18666555 0.113984786
0001e0 71 4d 47 bd 88 31 8d 3b f4 d4 b2 3c 8a 54 c8 bd
       -0.04865784 0.004308883 0.02183006 -0.097817495
0001f0 37 3f d1 bd 36 a0 01 bd df 2b 96 af 3b f6 99 af
       -0.102171354 -0.03164693 -2.7316013e-10 -2.8005495e-10
000200 1b 30 8c ad 90 ff 49 2f f8 0d 8e 2f 7c dc 8f 2f
       -1.593752e-11 1.8371638e-10 2.5839575e-10 2.6168212e-10
000210 7b 09 15 b0 a7 4e d1 af 9e 0b fb af 0d a6 89 3d
       -5.4219357e-10 -3.8072764e-10 -4.5664889e-10 0.06721125
000220 8c c5 f3 3d 72 d2 aa 3d cf 41 51 3d 35 98 91 3d
       0.119029135 0.083409205 0.05108815 0.07109109
000230 28 94 70 3d 5f ff 7c 3b 65 66 8a bd 34 e0 b3 bd
       0.058735043 0.0038604361 -0.067578115 -0.08782998
000240 e6 fd aa 2e c7 1f 7a 2f 72 b7 9e ad d0 46 1e 2f
       7.7758064e-11 2.2748657e-10 -1.8043986e-11 1.4395174e-10
000250 de 8a 7a 2f 27 c7 fa 2e 1e 2e d3 af f5 51 e2 af
       2.2786703e-10 1.140406e-10 -3.8413445e-10 -4.1167394e-10
000260 86 c5 ca af 5f f3 5d 3d 32 62 29 3d 98 21 27 3d
       -3.6883935e-10 0.054187175 0.041353412 0.040803522
000270 2c cd 4d ba e2 b4 85 bb 08 0b 15 bd 3d 4f 0e 3c
       -0.00078507024 -0.004080401 -0.036387473 0.008685884
000280 e1 77 a9 3c bf c1 0f 3d e2 6d 34 31 47 43 84 ae
       0.020687046 0.03509688 2.6255909e-09 -6.014616e-11
000290 63 3b b2 2f df 7b 5d 31 64 1e 0f 31 1a e2 3d 31
       3.2420208e-10 3.2230145e-09 2.0826514e-09 2.7631644e-09
0002a0 31 77 bf b0 bd 00 ad b0 b5 db 43 b0 a5 a3 38 b6
       -1.3930955e-09 -1.2587617e-09 -7.125281e-10 -2.751339e-06
0002b0 1b 55 36 b6 f5 77 34 b6 ce 97 4c b5 f2 2b 1d b5
       -2.7169651e-06 -2.6891914e-06 -7.6216827e-07 -5.8551007e-07
0002c0 f5 45 9b b5 98 d6 e8 b4 41 d4 e7 b4 43 6a 79 b5
       -1.156876e-06 -4.3369505e-07 -4.3181538e-07 -9.291436e-07
0002d0 6c f1 50 3e 87 8f 92 3e 6f 40 6a 3e cd 5c 75 bd
       0.20404595 0.28625128 0.22876142 -0.059902955
0002e0 05 47 ce ba 03 1e 91 3c 0c 86 81 be e1 46 88 be
       -0.0015737718 0.017714506 -0.25297582 -0.26616576
0002f0 54 b2 45 be 2c fb aa b0 8f a0 98 b0 bf a9 bb b0
       -0.19306308 -1.2440515e-09 -1.1105089e-09 -1.3654285e-09
000300 e0 4c 0e b0 63 4c 5a af cc 73 f0 af 93 4b db b0
       -5.1768545e-10 -1.9854123e-10 -4.3738024e-10 -1.5955827e-09
000310 3b df dc b0 6f 34 06 b1 d7 37 25 3d e3 45 66 bc
       -1.6070553e-09 -1.9529371e-09 0.040336456 -0.014054748
000320 a5 84 e4 3c 4c 51 b4 3c ed 35 77 3b 3f d0 0b 3c
       0.027895281 0.022011422 0.0037721351 0.008533536
000330 5f fb ac ba d8 2c 2a 3c e8 52 66 bb 15 7a d1 b1
       -0.0013197473 0.010386668 -0.003514463 -6.0965797e-09
000340 43 df 61 b1 1c ae 0e b2 99 d3 d8 b2 be 00 b2 b2
       -3.2868719e-09 -8.305076e-09 -2.5241933e-08 -2.0722265e-08
000350 03 13 b3 b2 ee c0 00 b3 21 ae f4 b2 e5 a3 f2 b2
       -2.0846988e-08 -2.997779e-08 -2.8484523e-08 -2.8247038e-08
000360 9e 79 4c 3c 54 2c e7 bc c5 7b 51 bc bf 8f 05 bd
       0.012480168 -0.02821938 -0.012785857 -0.03260779
000370 aa 46 8e bd 18 6b 24 bd 60 f2 66 3b 75 55 74 bb
       -0.06947072 -0.040141195 0.0035239682 -0.0037282382
000380 9d a5 1b 3c 7d 06 52 bd 07 08 07 bc 50 15 79 bb
       0.0094999345 -0.05127572 -0.00824166 -0.0038007088
000390 3e 15 35 bc 71 b3 90 3d 3d 12 b6 3c e8 38 61 3c
       -0.011052428 0.07065476 0.022225494 0.013746478
0003a0 52 07 99 3d 0f fb 57 3c d4 fb 22 30 83 92 a1 30
       0.07472099 0.013182416 5.9293126e-10 1.1755933e-09
0003b0 59 c8 8c 30 b8 05 1b b1 5c 92 d5 b0 86 ab 03 b1
       1.0243283e-09 -2.255872e-09 -1.5539388e-09 -1.9160509e-09
0003c0 96 53 3c b1 5e 80 33 b1 4c 2c 55 b1 af 9e 29 3d
       -2.7405114e-09 -2.6120897e-09 -3.102076e-09 0.041411098
0003d0 58 08 1d 3d 32 88 a6 3c 63 0d 24 3a 8b 07 ac 3b
       0.038338035 0.020328615 0.00062580983 0.0052499226
0003e0 19 bd 04 3a f9 df 6f bd 83 37 1d bd 76 4f 29 bc
       0.0005063578 -0.058563206 -0.03838302 -0.010333886
0003f0 72 9b a7 3c 44 43 74 bc 2c b4 4c bc 41 dc 14 bc
       0.020459864 -0.0149086155 -0.012494128 -0.009085716

module.residual_layers.0.0.bn1.weight f4 [32]
000000 0b 76 85 3e 9f 69 a0 3e 88 df be 3e 65 0d a4 3e
       0.26066622 0.31330582 0.37279916 0.3204147
000010 57 54 98 3e bc 1c c6 3e ba fd e6 3e f6 7d 84 3e
       0.29751846 0.38693798 0.45115453 0.2587735
000020 2b 71 98 3e bb 9f b4 3e ef 2a be 3e 01 c0 c0 3e
       0.2977384 0.35278115 0.3714213 0.37646487
000030 73 a3 bf 3e 1d 06 b4 3e 1e fb ad 3e 0a e4 a3 3e
       0.3742939 0.35160914 0.3398065 0.32009917
000040 69 62 a4 3e 39 49 a4 3e 4e 12 99 3e 6e 75 11 3f
       0.3210633 0.32087114 0.29896778 0.5681981
000050 aa 36 99 3e 21 de 89 3e 92 2c d7 3e ab 73 87 3e
       0.29924518 0.26927283 0.42026192 0.26455435
000060 90 5c e1 3e 8d e8 51 3e 30 36 a3 3e 8c 29 c2 3e
       0.44015932 0.20498867 0.3187728 0.37922323
000070 e9 9c c5 3e a1 b8 85 3e bb c0 ae 3e 03 ab 93 3e
       0.38596275 0.26117423 0.34131417 0.2884141

module.residual_layers.0.0.bn1.bias f4 [32]
000000 0d 49 bf 3c d5 55 e8 bd dc 54 19 be aa ab 11 be
       0.023350263 -0.11344496 -0.14973778 -0.14225641
000010 0e dc 42 3e 68 60 26 be bc dc 9f bd 0b 7a a0 bd
       0.19029257 -0.16247714 -0.078057736 -0.07835778
000020 be 90 f2 bd 15 ef 17 be 7d 0b 3d 3e f8 e0 50 be
       -0.11844014 -0.14837296 0.18461414 -0.20398319
000030 d4 6b 1f 3e e2 4c 26 3e b8 06 06 be 5f d4 b3 3c
       0.15568477 0.16240266 -0.130885 0.021951852
000040 6d 92 b8 bd 38 4e 44 bc ad 51 83 be 6c 7e 03 bf
       -0.090123035 -0.011981539 -0.2564825 -0.5136478
000050 ed 46 55 be 03 ec 82 bd 49 c4 89 be 17 d9 93 bd
       -0.20827837 -0.06392672 -0.26907566 -0.07219141
000060 5b ee 0e be db 7c d4 3d 22 f8 4a be 0c 0f 47 be
       -0.13958113 0.10375377 -0.19821218 -0.19439334
000070 06 b6 6a 3e 0a 65 38 3d 72 58 5f be c8 7e 3e 3e
       0.22920999 0.045018233 -0.21811083 0.1860305

module.residual_layers.0.0.bn1.running_mean f4 [32]
000000 63 4b 25 bd c9 5b 9c be 81 7a a5 be ee 74 2d be
       -0.040355098 -0.30538777 -0.32320026 -0.16939136
000010 c1 f9 7b 3d 70 53 8a be e1 37 83 bd 5c 53 3d 3d
       0.06151748 -0.27016783 -0.064071424 0.046222076
000020 6d e4 65 be ca 65 5e be c9 4f a0 be 8d 7b e7 be
       -0.22450419 -0.21718517 -0.3131087 -0.4521145
000030 93 56 31 3e 91 87 58 be e5 6a a1 be 2a 0c d5 bc
       0.17318182 -0.21145464 -0.31526867 -0.026006777
000040 9b 6c a1 be 1e 8c b5 bd 97 c0 bf 3e 55 56 08 3e
       -0.31528172 -0.08864616 0.37451622 0.13314183
000050 57 9e 91 3d 20 16 17 be 14 f8 00 be cc ef 6f bd
       0.07110279 -0.14754534 -0.12594634 -0.058578297
000060 62 a4 0f be 76 66 ff be 4c d9 79 be d1 a8 6f 3d
       -0.14027551 -0.4988286 -0.24399298 0.058510605
000070 68 7b a9 be 1b da 68 be 60 95 ae 3d 9c 62 2e bf
       -0.33101964 -0.2273945 0.08524585 -0.68119216

module.residual_layers.0.0.bn1.running_var f4 [32]
000000 cd 8c 41 3d c3 50 10 3d 78 6d 28 3d cf 03 d5 3c
       0.04725342 0.03523327 0.041120023 0.026002793
000010 52 ad 0a 3e 28 e4 5b 3d 84 d9 b1 3d 41 64 f4 3c
       0.13542679 0.053684384 0.08684066 0.029832961
000020 c3 24 9f 3c 7f a0 35 3d 25 49 01 3e f3 79 47 3d
       0.019426709 0.044342514 0.12625559 0.048700284
000030 b7 0b ec 3d 62 36 90 3d 70 dd 65 3d 94 fe 9d 3d
       0.11525672 0.07041623 0.056119382 0.077145725
000040 d1 54 10 3d df 0c ee 3d 7a 21 0b 3d 29 de 6e 3d
       0.035237137 0.11623549 0.033967473 0.058317337
000050 6b 3e f1 3c 76 ec 04 3d fb 19 e4 3c 59 ae 03 3d
       0.029448709 0.03245207 0.02784442 0.032148693
000060 7a 45 80 3d 94 91 3f 3d 6d 97 cd 3c 39 5e 1a 3d
       0.062632516 0.046769693 0.02509662 0.037687514
000070 ee 87 91 3d 5a 29 ef 3c 50 0f c7 3c f7 e5 f1 3d
       0.07106005 0.029194523 0.024299294 0.118114404

module.residual_layers.0.0.conv2.weight f4 [32, 32, 3, 3]
000000 6d 9b 76 3d ba 8d d4 3d 6b b7 74 3d b4 d4 64 bc
       0.06020682 0.10378595 0.059745234 -0.013966728
000010 a6 36 89 bc 70 89 fe bc a7 6c 9a 3c c8 ee 29 3c
       -0.016749691 -0.031071395 0.018850638 0.010371871
000020 69 c0 26 bd 08 69 e5 bc a7 e6 6f bd 3f b5 0d 3d
       -0.04071084 -0.028004184 -0.058569577 0.034596678
000030 ab 9f d1 bc ff c3 c6 bc 8b 17 8f 3c 8c 4e 7a bb
       -0.025588831 -0.02426338 0.01746728 -0.003819379
000040 3f 10 17 3d 2b 21 06 3c 25 cc b8 3d 15 45 96 3d
       0.036880728 0.008186619 0.090233125 0.07337395
000050 b9 8c 66 3d f5 bf 99 3d fd 4f 45 3d e4 b8 cb bc
       0.056286547 0.07507316 0.048171986 -0.024868436
000060 d0 13 36 3d c6 f7 76 3d cb 8c c4 bc 34 18 c2 bc
       0.04445249 0.06029489 -0.023992917 -0.023693182
000070 e6 a9 f1 bc 41 e9 61 3d 06 c8 22 bc 51 aa 39 bd
       -0.02949996 0.05515409 -0.009935385 -0.045328442
000080 74 60 66 3c 3a 9c 3c 3c b2 c7 eb bc 09 1f b3 3b
       0.014061082 0.011511857 -0.028781746 0.005466346
000090 66 b0 43 be 7c f9 4c be 12 aa af bd 75 4c db bd
       -0.1911026 -0.20017046 -0.0857736 -0.107079424
0000a0 41 03 08 be ea 49 e2 bd 14 da cb 3c 99 61 5f bd
       -0.13282491 -0.11049254 0.024884261 -0.054536436
0000b0 ce 9c 80 bd 25 ad 66 bd 71 d4 89 bd 17 56 a2 bd
       -0.06279908 -0.056317467 -0.06729973 -0.079265766
0000c0 ae 44 80 bd 2e a9 67 bd 5c 76 0c bd 3f e9 34 3c
       -0.062630996 -0.056557827 -0.034292564 0.011041938
0000d0 6e 83 50 bb 5e 94 25 bd 73 25 b8 bd c7 c7 8d bd
       -0.003181662 -0.040424697 -0.08991518 -0.0692287
0000e0 3e 38 2d bd 8d 56 72 bc fa 6d 16 3d fd ac 4c bd
       -0.042289965 -0.014791143 0.036725976 -0.049969662
0000f0 33 fe d5 bc a4 92 98 bc 96 e1 36 bd 59 c5 f1 3d
       -0.026122188 -0.018624611 -0.04464873 0.11805219
000100 4a 22 e3 3d 51 cc e4 3c 64 b3 8f 3d a4 db 87 3d
       0.110905245 0.027929457 0.07016638 0.0663369
000110 41 7e 4e 3c 34 e8 ef bc e6 96 57 bd 5d 7a 5f bd
       0.012603343 -0.029285528 -0.052634142 -0.054560054
000120 f1 86 05 bd 33 bd 42 bd ef 56 ee bc 88 b0 1a 3b
       -0.032599393 -0.047543716 -0.029094188 0.0023603756
000130 b0 d3 09 3d f6 c1 ad 3d df fb 72 bc 1d 89 93 bc
       0.033649147 0.08484261 -0.014830559 -0.018009717
000140 e1 b3 11 bc 43 18 86 3c 75 b2 17 bc 02 11 6b bc
       -0.008892984 0.01636899 -0.009258856 -0.014347317
000150 39 a8 35 3d 24 23 1d 3d 10 eb 27 bd 25 8c 55 3d
       0.044349883 0.03836359 -0.040995657 0.052135605
000160 38 86 aa 3d 73 1a a8 3b 5f 7c 14 3c 89 58 b8 bc
       0.083263814 0.005130106 0.0090628555 -0.022503154
000170 70 a8 84 bd d9 7e d9 bb dd ce 59 bc 82 a2 80 3c
       -0.064774394 -0.006637436 -0.013293949 0.01570249
000180 d9 1b bb bd f5 13 9b bb 64 c0 24 3c 52 05 56 3c
       -0.09136171 -0.0047326037 0.010055635 0.013062792
000190 48 58 78 3d fc 00 b1 3c a3 42 cd 3c d5 c7 01 3d
       0.060631067 0.021606915 0.025056189 0.031684715
0001a0 c5 b7 fc bb 83 b3 a8 3b 25 9e 4c bd d5 44 92 bd
       -0.0077123367 0.0051483526 -0.049955506 -0.07142035
0001b0 d7 05 a4 bc e8 4c 04 3b 1c 02 20 3e 21 dc 59 bb
       -0.020022316 0.0020187441 0.15625805 -0.003324278
0001c0 3b ac 60 bd bd 7c e9 bc 52 6d c1 3c 4d 12 93 ba
       -0.05485175 -0.028501863 0.023611698 -0.0011220664
0001d0 bb 3e 8c bd 0f 83 e6 3d 19 c7 b9 3d 4b f7 8e 3d
       -0.068479024 0.11255466 0.09071178 0.06980761
0001e0 4e 3f 8e 3b b7 08 4f 3d c8 93 7f 3d 69 a2 24 bd
       0.0043410426 0.05054542 0.062396795 -0.04019395
0001f0 8c bd 56 bd 21 5f 85 bd f7 9d 48 3d e8 3f 8b 3d
       -0.05242686 -0.06512285 0.048978772 0.067992985
000200 08 6b 3d bb 9f ba ae bd 45 d7 0b bd d8 55 51 bc
       -0.0028902907 -0.08531689 -0.034140844 -0.012776814
000210 b9 f5 26 be 1d ac 24 be da 76 6a bd bb 0e 6e bd
       -0.16304673 -0.16081281 -0.057242252 -0.058119517
000220 83 b1 c3 bd 9d 87 9d bd 10 3a b1 3d db 5a a7 3c
       -0.09555342 -0.07691882 0.08653653 0.020429065
000230 5d ff a3 bd f3 38 24 3d 3f 9b f4 3c 10 fc 9d bc
       -0.08007691 0.040093374 0.029859183 -0.019285232
000240 2d 0e 60 3c 2f 09 ca 3c 01 eb 1b bd 43 c4 08 bd
       0.013675255 0.024662582 -0.038065914 -0.033390295
000250 b2 de f0 3c 2f e0 87 bc b7 6e e5 bc 32 56 c1 3c
       0.029403064 -0.016586391 -0.028006895 0.023600671
000260 fb 2c bf bc 22 9a a3 3d 5c cd 13 3d 65 b5 0b bd
       -0.023336878 0.07988383 0.036084518 -0.03410854
000270 46 28 ea 3d 91 14 9d 3d f9 0d d2 bc 34 f6 8a b9
       0.11433463 0.07669938 -0.025641428 -0.00026504847
000280 1f d0 2d 3c 27 af 00 be bc 4c e9 3c dc 14 27 3d
       0.010608702 -0.12566815 0.028478973 0.040791377
000290 fd 7f e3 3c 5b 92 6f bc e9 97 c5 bb 8d ea fc bb
       0.02777099 -0.014622296 -0.006030072 -0.0077183903
0002a0 5b 3e 2d bc 5a 8d b8 bb 30 3b 9b bb 4e 7b f3 bd
       -0.010573949 -0.005632085 -0.0047372803 -0.11888753
0002b0 9f 65 65 bd 92 63 33 bc 09 e4 2c be 0f 06 e4 bd
       -0.056005117 -0.010949032 -0.16883864 -0.11133968
0002c0 b7 7b 66 bd 2c 1c 9a 3c 0d d7 90 3d aa f4 ef 3d
       -0.056270327 0.018812262 0.07072268 0.11716588
0002d0 0b 33 99 3c 33 ae 80 3d 25 b9 7d bb 15 f6 85 3c
       0.018701097 0.06283226 -0.003871509 0.016352693
0002e0 5b 4b f1 3c d2 fd 05 3d 65 32 88 3c d1 73 15 3d
       0.029454878 0.032712765 0.016625592 0.036487404
0002f0 27 78 8c 3d 47 e4 43 3d ac 1d 97 3d 2f ac 67 bc
       0.06858855 0.047825124 0.07378706 -0.014140173
000300 4d 37 6e 3b ac ea 34 3d 5b 14 19 3c a3 c1 b4 bc
       0.003634888 0.044169113 0.009343232 -0.02206499
000310 a4 50 b1 bc b1 f3 57 3c 13 e1 08 3b 9b 97 90 3d
       -0.021644898 0.013180659 0.0020886108 0.070601664
000320 23 64 8d 3d 59 3b 2c 3c 1c 47 5a 3d 82 71 8f 3d
       0.06903865 0.010512196 0.05329047 0.07004072
000330 2d 30 ae 3c 70 eb 5b 3c ed 9e 1c 3d de 25 29 bc
       0.021263206 0.013422832 0.0382375 -0.01032397
000340 f8 6c 77 bd 00 dd 91 bc 11 76 2d 3c 80 68 46 bd
       -0.060406655 -0.017805576 0.010587231 -0.048439503
000350 2c 52 96 bb 60 5f 48 3d d5 77 16 bc a9 e0 e0 bc
       -0.0045874324 0.04891908 -0.009183844 -0.027450876
000360 dd 0c c1 3b b8 93 a0 bd d4 b9 08 bc 1f 4d 8b 3c
       0.005891426 -0.07840675 -0.008345086 0.017004548
000370 31 a5 bc bb 97 36 20 bd 88 3e 55 3d 0d 42 f5 3d
       -0.005756997 -0.03911456 0.052061588 0.11975489
000380 67 df c4 3c 5a e7 30 bd 76 a5 ee bc 44 89 3b bd
       0.024032308 -0.043189384 -0.029131632 -0.045785204
000390 a0 a0 d8 bb 13 37 b1 38 2d a9 c9 bc 63 21 c2 bc
       -0.006610945 8.450276e-05 -0.024616802 -0.02369756
0003a0 4b ef 11 bc 17 35 5b bd 30 40 dc bb b8 1c 07 bb
       -0.00890715 -0.053517427 -0.006721519 -0.0020616483
0003b0 e1 e3 7f 3d 6f 82 19 bd d8 a2 1b bd 35 93 ab bb
       0.06247318 -0.037477907 -0.037997097 -0.0052360543
0003c0 f3 86 86 bc d2 54 fd 3a 74 09 fa bc 7f 20 34 3b
       -0.01642177 0.0019327647 -0.030522086 0.002748519
0003d0 a5 33 ff bc 29 9e f9 3a 13 fe 48 bd a8 cb 8c bc
       -0.031152556 0.0019044328 -0.04907043 -0.017186955
0003e0 ef c6 88 bd 98 68 03 bc e3 93 be 3c 41 db 4e 3d
       -0.066785686 -0.008020543 0.023263877 0.050502066
0003f0 83 d9 bf 3c a4 c3 9f 3d fc 61 3f 3b c1 9b a7 bb
       0.023419147 0.07800987 0.002920269 -0.005115003

module.residual_layers.0.0.bn2.weight f4 [32]
000000 22 c9 96 3e e9 0e 02 3f 0a 45 c5 3e 80 8d d3 3e
       0.29450327 0.50804 0.38529235 0.41318893
000010 0c 19 a7 3e 96 77 b0 3e 26 47 c3 3e 62 aa 6b 3e
       0.32636297 0.34466237 0.3814022 0.23014215
000020 b4 07 14 3f 6c 67 f0 3e 97 75 d6 3e de 11 db 3e
       0.57824254 0.46953905 0.4188659 0.4278707
000030 3c e0 b1 3e f1 9e c7 3e 2f 56 c5 3e a2 5a 72 3e
       0.3474139 0.3898845 0.38542315 0.23667386
000040 55 8a d8 3e c6 de 80 3e 57 22 bb 3e 1f 8f ac 3e
       0.4229304 0.25169963 0.36549637 0.33702943
000050 dc cd 02 3f 28 84 bb 3e 17 b7 bd 3e 4d e8 fc 3e
       0.51095366 0.36624265 0.3705375 0.4939598
000060 91 de 54 3e 38 f1 b3 3e e8 b2 a3 3e 6d 2a a8 3e
       0.20788027 0.35144973 0.31972432 0.32844868
000070 bc 4a 19 3f 59 ee ba 3e 5f 45 d6 3e 30 8b aa 3e
       0.5987966 0.3650997 0.418498 0.33309317

module.residual_layers.0.0.bn2.bias f4 [32]
000000 6f fc 15 be 6b c4 58 be 7f 4c 83 be e9 a2 2a 3e
       -0.14647077 -0.21168678 -0.256443 0.16663708
000010 74 85 02 be bb 18 b3 be 35 dc d6 bd fb 70 c6 3d
       -0.12746221 -0.34979805 -0.1049122 0.09689518
000020 22 e8 32 be 52 eb 92 3d e3 e5 1b be ff 0b a0 be
       -0.17471364 0.0717379 -0.15224414 -0.31259152
000030 d6 d0 ca bd 12 ca f8 be 91 1d ab 3d b7 7f 80 bd
       -0.099031135 -0.48591667 0.08355249 -0.0627436
000040 26 2b 3f 3e 44 f9 39 be 61 d4 da bd e0 e2 14 3e
       0.18668804 -0.18161494 -0.10685039 0.14539671
000050 a8 71 cb bd 5b ec d9 bd 2b fc 2c be 55 13 af 3a
       -0.099337876 -0.10640784 -0.1689307 0.0013357202
000060 bd 13 11 3e 4b 48 46 be bf 67 80 3c 2f b0 0b be
       0.14167686 -0.19363515 0.01567447 -0.13641427
000070 e2 b0 f9 bd 74 f1 48 be 53 8c 12 3e 47 ce d2 bd
       -0.12191941 -0.19623357 0.14311342 -0.102932505

module.residual_layers.0.0.bn2.running_mean f4 [32]
000000 35 9d 91 be 99 5f 0c be 09 4c 89 be 50 0b 87 be
       -0.28440252 -0.13708343 -0.26815823 -0.26375818
000010 97 4e ac bd 40 fa 01 3e 42 52 47 bd 5e fd 09 be
       -0.08413427 0.12693119 -0.04866243 -0.13475558
000020 b7 32 03 be e8 55 e1 bd b2 03 7b be 69 08 13 bd
       -0.12812315 -0.110027134 -0.24513128 -0.035896692
000030 ec 99 16 be 84 9d 5d bd e9 d4 7f be c6 90 3d 3e
       -0.14707154 -0.054105297 -0.24983563 0.18512258
000040 db 51 22 be da 36 5b 3d 9a 9f 0f 3e fc aa 2e be
       -0.15851538 0.053519107 0.14025727 -0.17057413
000050 09 29 62 bd b4 8c a6 bd d6 c0 ec bc de 8b 91 be
       -0.055214915 -0.08132306 -0.028900545 -0.28427023
000060 6b 0a 83 bd 84 ba b3 bd 77 e7 e7 bc 79 0a ac bd
       -0.063984714 -0.087758094 -0.028308613 -0.08400435
000070 73 a7 13 be cd a0 78 bd 69 cb 50 be 9a 6d 7f 3d
       -0.14419346 -0.060700227 -0.20390095 0.062360384

module.residual_layers.0.0.bn2.running_var f4 [32]
000000 6b f4 a6 3d eb ee 9f 3d 9f 75 97 3d 0e d8 09 3e
       0.08152088 0.07809242 0.07395481 0.13461325
000010 52 5f 37 3d 58 1a 61 3d 67 ce ce 3d cc cd 47 3d
       0.04476864 0.054956764 0.10097962 0.048780248
000020 8e ae eb 3d a7 aa ce 3d ec 93 8f 3d 74 20 14 3d
       0.11507903 0.10091143 0.07010636 0.036163762
000030 6b 96 9f 3d bb e4 63 3d 1d 1d 9b 3d ec 1d 41 3d
       0.07792362 0.055638056 0.07573912 0.047147676
000040 76 1f 07 3e ca 06 57 3d fd 0f ae 3d 4b 7b 93 3d
       0.13195595 0.05249671 0.08499143 0.07201251
000050 ed 3a 8c 3d f4 b3 63 3d af 30 bd 3d 9a 00 d3 3d
       0.06847177 0.05559154 0.09237801 0.10302849
000060 cd 9e b0 3d e2 28 91 3d 59 46 81 3d c8 78 8c 3d
       0.08624039 0.07087876 0.06312246 0.06858975
000070 33 28 e1 3d b8 07 73 3d 21 2a d2 3d f5 21 28 3d
       0.109939955 0.059333533 0.10261942 0.04104801

module.residual_layers.0.1.conv1.weight f4 [32, 32, 3, 3]
000000 75 9b 3b 3d 6a 0e 3c bd 04 9d 69 bc bd be 5c 3c
       0.045802552 -0.045912184 -0.014258627 0.01347321
000010 50 45 18 bd 8f b9 87 bd 85 18 6e 3d 5d 5c 09 bd
       -0.037175477 -0.06627189 0.058128852 -0.03353535
000020 2c f1 59 bb 45 6c 85 bb 8a 33 0e bc 59 ff 7c bd
       -0.0033255322 -0.0040717446 -0.00867928 -0.061766956
000030 b9 f9 6c bc d1 92 60 3c 50 c8 63 bc 4e 0c 81 3c
       -0.014463835 0.013706879 -0.013902739 0.015752938
000040 6b f5 9c bd f7 5e dd 3d 42 c9 58 bd fe b2 8f bc
       -0.07663997 0.10809129 -0.05292631 -0.017541405
000050 1c f8 0d bd 42 73 2c bd 0e 8a 4c 3d f4 0a 0b bc
       -0.034660444 -0.042102106 0.049936347 -0.008486498
000060 d4 98 3e bc 8b 13 fb 3c 41 6d e2 bc 6c aa 5f 3d
       -0.011633117 0.030648967 -0.027639987 0.054605886
000070 45 e4 ac 39 6e fe 01 be e2 bb 87 3b f0 e5 39 bd
       0.0003297647 -0.12694713 0.0041422704 -0.0453853
000080 00 ae cf bb 5b d7 d6 3d ac a8 d3 bd 8f 78 4f 3d
       -0.006337881 0.104902945 -0.10334906 0.050652083
000090 ec 46 76 3d 87 ec 64 bb 1c 07 df bc 8c 5b df 3c
       0.06012623 -0.003493102 -0.02722507 0.027265333
0000a0 5f 90 9e bc bb 21 03 bc d9 47 78 3c be fd 18 3b
       -0.01935595 -0.008003647 0.015153849 0.0023344602
0000b0 4f 22 0d 3d ba b1 1a bd 35 2f 7b 3d 4c 50 7a bc
       0.034456547 -0.03776715 0.061324317 -0.015277933
0000c0 d8 e6 bd bc 9f a3 6c 3d bf b0 17 bd 50 aa 9d bc
       -0.023181364 0.05777323 -0.037033793 -0.01924625
0000d0 81 87 da 3c 09 0d 19 bc 3f 56 c1 bd 51 72 52 bb
       0.026675941 -0.009341487 -0.09440278 -0.0032111595
0000e0 90 17 d6 bc ab 86 86 bd c8 85 31 bc d4 aa 06 bc
       -0.026134282 -0.065686546 -0.010835119 -0.00821944
0000f0 57 1d 20 bd 45 6e e9 bc c3 cc 5b 3b e1 d7 54 3d
       -0.03909048 -0.028494963 0.0033538796 0.05196369
000100 b7 80 79 3d 5a 37 e0 3b 20 36 91 bb 69 a7 86 bb
       0.060913768 0.006842536 -0.004431501 -0.0041093123
000110 25 90 e7 bc 1e f7 e7 bc 3e 62 8a bc 48 27 96 3b
       -0.028266976 -0.028316077 -0.016892549 0.0045823194
000120 27 17 1f 3e a6 ca 8c be 9c 47 72 3d bf 21 7b 3e
       0.15536176 -0.27498358 0.059150323 0.24524592
000130 a8 ad f8 be c6 87 86 3e 89 76 d5 3d 68 68 99 be
       -0.4856999 0.26275462 0.104229994 -0.29962468
000140 10 a7 39 3e 83 d1 d9 bb 66 6d 0e bd a0 df 62 bd
       0.18130136 -0.00664729 -0.0347723 -0.055389047
000150 db 59 02 3d d3 dc fc 3c 6b 53 78 bd fc 0d 2e 3d
       0.031823974 0.030867016 -0.06062643 0.042493805
000160 f2 d6 80 bd e1 06 1d bd 3d 8c 8a 3d fb bd ed bc
       -0.062909976 -0.03833664 0.067650296 -0.029021254
000170 77 ed 52 bd 83 37 3c 3d f1 56 83 bd 81 c0 47 bd
       -0.051495995 0.045951378 -0.06413067 -0.04876757
000180 a3 b2 7e 3c c2 d5 bf 3c ec 63 d7 bc 36 13 65 bc
       0.01554552 0.023417357 -0.026292764 -0.013981631
000190 0a df a5 bb 2a 3b 41 3d 9b ff 2c bc fa e5 7c 3b
       -0.0050619887 0.047175564 -0.010558988 0.0038589225
0001a0 52 e2 2b 3d 16 d6 37 3c ff 36 69 3c 35 f7 73 3c
       0.041963883 0.011220476 0.0142343035 0.014890482
0001b0 79 c6 94 3d 19 00 83 bd 4c d7 84 bd 81 2b b5 3d
       0.07264418 -0.06396503 -0.06486377 0.08846188
0001c0 ea c2 82 3d 53 d3 90 3b 3a cc 9e 3c 27 54 7e 3d
       0.06384833 0.004419723 0.019384492 0.062091973
0001d0 df 22 8b 3d b9 6c 15 3d 9a de 98 bc 77 53 17 3d
       0.067937605 0.03648064 -0.018660832 0.036944833
0001e0 0c 8a ea 3c a5 5d 8c bd 8a 12 97 3c 26 12 f3 bc
       0.028630279 -0.06853799 0.018441457 -0.02967174
0001f0 4e 3d d8 bd b0 21 9a 3c 69 a0 1c 3d 82 16 b6 3d
       -0.10558568 0.018814892 0.038238917 0.08891012
000200 39 91 a8 ba 5b d2 20 bd 88 0b b3 3d 85 76 a6 bd
       -0.0012860663 -0.03926311 0.08742434 -0.081280746
000210 cc 24 9c bc f4 d7 b4 3d 0c f3 6b bd 12 52 e3 3a
       -0.019060515 0.08830252 -0.057604834 0.0017343184
000220 66 83 af 39 2d 3d 93 3b 8a 2d a6 3d 5a 4f d8 3b
       0.000334765 0.0044933767 0.08114155 0.0066012563
000230 12 36 a0 ba e2 9f 96 3d 5d 82 77 bd 95 9f eb 3c
       -0.0012223145 0.07354714 -0.06042706 0.028762618
000240 6c 16 57 3d 8f 4c a5 3b 97 b4 25 3d 66 49 af 3d
       0.052511618 0.005044527 0.040455427 0.085589215
000250 f8 7e cb bd 7c 97 bf 3d ca d6 03 3d 64 5c 4b bd
       -0.09936327 0.09355065 0.03218726 -0.049648657
000260 3f b8 91 3c ac 1c dd bc da fa 21 bc b7 0e 1a bc
       0.01778805 -0.02699121 -0.009886468 -0.009402922
000270 91 fe 0c 3d 23 b6 1e 3d e1 5c 11 bc 5a 3c 0d 3d
       0.03442246 0.038747918 -0.008872242 0.034481384
000280 20 30 4a bb 26 46 60 bd ac f3 b8 ba c2 21 1a 3d
       -0.0030851439 -0.0547544 -0.0014110706 0.03762985
000290 48 f2 f8 3b a8 f8 19 3c 3f 7d 67 3d 02 d6 52 bc
       0.0075972416 0.009397663 0.05651593 -0.012868406
0002a0 40 66 1e 3b 4c 30 28 3c f1 3f 96 bc fc 90 33 bd
       0.0024169832 0.010265421 -0.018341037 -0.04383944
0002b0 8a 7f 6c 3d 0b 2f 33 3c 94 66 ee bc 4e ad 40 3d
       0.05773882 0.010936509 -0.029101647 0.047040276
0002c0 b5 6d 12 3d 9a 5d 8f bc d1 f4 83 3b b1 5b 87 bc
       0.035749156 -0.017500687 0.004026987 -0.016523214
0002d0 d5 64 8d bd 5e 2a 06 3e 95 ac c8 bd 06 08 01 be
       -0.06903998 0.131021 -0.097985424 -0.12600717
0002e0 27 72 68 3e 3d 32 23 be b9 3a b9 bd 22 e0 0a 3e
       0.22699796 -0.15937133 -0.090444036 0.13562062
0002f0 14 48 d7 bd 6c 64 a5 3c 1e 51 d8 bb 2c c3 5c 3c
       -0.10511795 0.020189486 -0.006601467 0.013474267
000300 d6 19 2f 3b 83 81 c7 3c fb db 22 3b 8c 7e 99 3c
       0.002671828 0.024353748 0.0024850357 0.0187371
000310 0e be 29 bc cd 77 32 bd 4a f3 46 3c 2d 33 90 3c
       -0.010360254 -0.043571282 0.012142966 0.017602528
000320 b8 f2 f8 bc 3d 63 8c 3c a0 45 ed 3c 92 77 77 bd
       -0.030389175 0.017137164 0.028963864 -0.060416766
000330 46 88 ee 3c 54 c3 3e bd 72 f3 c6 bb 25 5a a3 bd
       0.029117715 -0.046573 -0.0060715014 -0.07976178
000340 a2 27 92 3d f7 34 85 bd c2 06 0c bd f8 9e c9 3d
       0.071364656 -0.06504243 -0.034186132 0.09844774
000350 02 16 65 bd e9 8e a8 3c c5 56 eb 3d 53 bb cc bd
       -0.05592919 0.020575957 0.11491159 -0.09996667
000360 18 9c 26 bd 1b 84 14 3c 8d 3e 75 3d b2 25 5e bd
       -0.040676206 0.0090646995 0.059874106 -0.054235168
000370 c3 b0 85 3c 22 14 24 3d 23 a9 84 bd 78 fe 46 3d
       0.016319638 0.040058263 -0.06477573 0.048582524
000380 e4 2e 96 3c d1 f3 2e bc 0f 79 09 3d 22 50 9c bd
       0.018332906 -0.010678248 0.033562716 -0.076324716
000390 a2 76 01 bd 87 bb 9b 3d bd f6 bf bd 41 a8 4e 3c
       -0.031607278 0.076041274 -0.093732335 0.012613357
0003a0 fc 6e af 3d 7d f5 9d bd d8 8c 9b bd 84 2c c7 3c
       0.085660905 -0.07712839 -0.07595223 0.024313219
0003b0 d6 47 32 bc 95 12 4b bd 73 bd 4f 3d cd 61 99 3a
       -0.010881385 -0.049578268 0.050717782 0.001170212
0003c0 8c f8 00 bd 04 ca 8c 3d 5a c9 f8 bc 04 58 ec bc
       -0.031487033 0.06874469 -0.03036945 -0.028850563
0003d0 43 6c 9f bd fe 2e 36 3d f3 85 f6 3b a9 a4 09 bd
       -0.07784321 0.04447841 0.007523292 -0.033604298
0003e0 a3 46 6a 3d 47 89 1e 3d b6 93 60 bc 17 43 56 3c
       0.05719627 0.038705137 -0.013707092 0.013077519
0003f0 08 0b 54 3c d7 b4 2b bd 17 3f 22 bd 18 fc 47 bc
       0.012942083 -0.04192051 -0.03961095 -0.0122061

module.residual_layers.0.1.bn1.weight f4 [32]
000000 d2 ff cf 3e 1b b4 a9 3e a8 6f ba 3e f8 78 9c 3e
       0.40624863 0.33145222 0.36413312 0.30561042
000010 cc 0f c1 3e f0 bb ce 3e 34 85 c7 3e b8 24 b9 3e
       0.37707365 0.4037776 0.38968813 0.36160827
000020 05 10 c9 3e be 63 8c 3e 64 18 c0 3e 31 18 b5 3e
       0.39270034 0.27419847 0.3751861 0.3537002
000030 80 50 a8 3e 76 ac c5 3e 82 f4 b4 3e a8 92 a7 3e
       0.32873917 0.3860814 0.35342795 0.32729077
000040 01 53 c8 3e 34 f3 cd 3e 4b 15 9f 3e 5d 63 97 3e
       0.39125827 0.40224612 0.31070933 0.29567996
000050 35 a0 df 3e da fd b5 3e a1 2c b9 3e 03 a5 a9 3e
       0.43676916 0.35545236 0.36166862 0.33133706
000060 69 04 be 3e 99 52 9f 3e 33 be a3 3e be 78 cf 3e
       0.3711274 0.31117705 0.31981048 0.40521806
000070 41 bc b8 3e 6a cc cb 3e 28 73 d7 3e c2 66 d2 3e
       0.36081126 0.39804393 0.42080045 0.41094023

module.residual_layers.0.1.bn1.bias f4 [32]
000000 aa e1 ab bd f3 28 05 be 06 f4 94 bd 07 ee d5 bd
       -0.083926514 -0.13003902 -0.07273106 -0.10445791
000010 4b f8 8b bd e5 d7 12 be 4f 50 ff bd 10 54 14 be
       -0.068344675 -0.1434017 -0.124664895 -0.14485192
000020 10 82 27 be 3c 0a 5e 3d 77 43 48 bd a5 64 2f be
       -0.16358209 0.05420898 -0.048892464 -0.17128237
000030 7a c7 19 be c2 87 ad bd 2d 6a 71 be 1c 80 dc bc
       -0.150175 -0.084731594 -0.23575659 -0.026916556
000040 eb 17 a1 bd 0c d3 23 be 59 e8 15 be 25 45 ac bc
       -0.0786589 -0.15998477 -0.14639415 -0.021029064
000050 ed be a2 be d6 6b a5 bd 8c ed c7 be a1 33 bf bd
       -0.3178629 -0.08077209 -0.3904842 -0.09336019
000060 f4 7a 1c be 87 0f 73 bd 0c 51 c4 bd de 1f aa be
       -0.15281278 -0.05934098 -0.09585771 -0.33227438
000070 d0 37 c9 bd e6 9a 08 be 63 81 83 be 30 2e de bd
       -0.098250985 -0.13340339 -0.25684652 -0.10848653

module.residual_layers.0.1.bn1.running_mean f4 [32]
000000 e0 ec ad bd 05 41 4c bd 01 61 51 be 3c f7 d5 be
       -0.08492446 -0.049866695 -0.2044716 -0.41790187
000010 72 76 ae 3d 9d ff 3a bd 5d aa 9e be 3b 50 b3 be
       0.085186854 -0.045653928 -0.30989352 -0.35022148
000020 08 fc 72 be 9e 1d d4 be 39 d6 de 3c f0 81 14 bc
       -0.23728955 -0.41428846 0.027201759 -0.009064183
000030 27 a5 3c 3e ac fc 88 be b3 11 e8 be 14 79 c5 be
       0.18422376 -0.26755273 -0.45326003 -0.38568938
000040 50 80 d0 bd 57 6d 11 be 64 7f ae be 92 96 00 bf
       -0.10180724 -0.14201866 -0.34081566 -0.5022975
000050 54 27 99 bd 7f fa 1f be 21 63 44 3e e9 7e af bc
       -0.07478204 -0.156229 0.1917844 -0.02142282
000060 21 64 c6 bd 34 1b 22 bf 08 f7 1a be 1c e3 8e be
       -0.09687067 -0.6332276 -0.15133297 -0.27907646
000070 9d 3d b2 bd 8a d9 5a be df e9 ad be 3a 28 d2 bd
       -0.08703158 -0.21372047 -0.33967492 -0.10261579

module.residual_layers.0.1.bn1.running_var f4 [32]
000000 65 1d df 3e 1e ef dc 3d 4b 33 3d 3e 85 c9 80 3d
       0.43577114 0.107877955 0.18476598 0.06288437
000010 d7 41 a7 3e 64 0c 8e 3e ff 52 2d 3e 12 7e 41 3e
       0.3266742 0.27743828 0.16926192 0.18895748
000020 f5 c1 59 3e bf 28 13 3e 95 10 b6 3e 30 f3 8a 3d
       0.21265395 0.14371012 0.35559526 0.067846656
000030 f8 b0 d2 3d 63 0f 8a 3e 1d 25 b6 3d dd 23 35 3e
       0.1028766 0.26964864 0.088937975 0.17689462
000040 e3 55 ae 3e 9f 09 3e 3e 4e 0c a4 3d 9c 32 0e 3e
       0.340499 0.18558358 0.080101594 0.13886493
000050 8a 62 04 3e 20 8c 8a 3e 72 61 a0 3d 4c fa da 3d
       0.12928215 0.27060032 0.07831086 0.106922716
000060 97 b8 e9 3d c9 6c f6 3d 66 7b d6 3d 9c f6 b5 3d
       0.11412161 0.12032468 0.10472755 0.08884928
000070 b8 4e 06 3e dd b9 42 3e 2e 72 93 3d 53 b9 8c 3e
       0.13115966 0.19016214 0.071995124 0.2748514

module.residual_layers.0.1.conv2.weight f4 [32, 32, 3, 3]
000000 9e 47 b5 3c 02 29 36 3d cc 31 66 3c 71 84 63 3d
       0.022128876 0.0444727 0.014049958 0.055546228
000010 c0 4e 26 3d 33 56 d8 3a c2 69 2a 3d 0b 6f 4d 3c
       0.040602446 0.0016505182 0.041604765 0.012538682
000020 75 25 23 bc 08 4d 15 bd 86 ed c9 bc 56 29 43 bd
       -0.009957661 -0.036450416 -0.024649393 -0.047646843
000030 e0 e7 0c 3d fb c8 cc 3c 97 1f a1 bc b9 4a 3b 3d
       0.03440082 0.024998179 -0.019668384 0.045725558
000040 e5 00 1f 3d 25 ef e9 3c 37 45 7a 3d c6 16 97 3d
       0.038819212 0.028556416 0.061101165 0.073773906
000050 bb 92 63 3d 6f 83 49 3d d6 8a ca 3c 7f cb 09 3d
       0.055559855 0.04919761 0.024724405 0.033641335
000060 10 62 28 3d 7a 02 cb ba 09 82 f0 bb e0 a6 62 bd
       0.041109145 -0.0015488409 -0.00733972 -0.055334926
000070 ea ba b5 bc 53 19 80 bb 9f e4 83 bd 9e 78 4c bc
       -0.022183854 -0.003909269 -0.064400904 -0.012479929
000080 7b b2 b8 3c 4b 66 b0 bc c8 08 36 3c 90 db ac 3b
       0.022546044 -0.021533152 0.011110492 0.0052751973
000090 f1 38 a1 bb 5c 64 bc 3b dc 53 3c 3d 75 e3 ef bc
       -0.004920118 0.0057492685 0.045978412 -0.029283265
0000a0 a0 fe 8f bd f5 15 8f bc a6 b6 d1 bb 3b 73 8b bc
       -0.07030988 -0.017466525 -0.006399947 -0.01702272
0000b0 e0 0d 56 bc e6 c1 26 3c 18 bf 29 bd 40 2a 03 bd
       -0.0130648315 0.010178065 -0.041442007 -0.032022715
0000c0 45 4f db bb 11 15 e8 bc 8e fe 42 bc d4 22 41 bc
       -0.0066927993 -0.028330358 -0.011901511 -0.011788089
0000d0 d9 91 93 bb 6e 79 22 3d f0 30 2c 3d 7c 86 46 bc
       -0.0045034704 0.039666586 0.042038858 -0.0121170245
0000e0 55 f6 14 bd 00 84 1e 3d d8 61 0a bc 35 05 d6 bc
       -0.036367733 0.038700104 -0.008446179 -0.02612553
0000f0 ec 79 c1 3b a6 93 00 bc 27 2a 49 bd c5 4f 7b 3c
       0.005904427 -0.007847702 -0.049112465 0.015338843
000100 4f 3a 4e bd 39 ee 5e bd 7e 78 d9 3c b0 ec a7 bc
       -0.050348576 -0.054426406 0.026546713 -0.020498604
000110 ff b9 17 39 3f a6 ac 3d fb 22 9c 3c 0c b8 3d 3c
       0.00014469771 0.084301464 0.019059649 0.011579525
000120 a6 f2 27 bd a8 91 32 bd 55 79 12 bb c0 0a 52 bc
       -0.041002892 -0.04359594 -0.0022350152 -0.012819946
000130 1f d0 8c 3c 31 26 8e 3d a0 0c 47 3d 36 79 87 3d
       0.017189084 0.06940878 0.048596025 0.06614916
000140 1f a8 a8 3d 78 f7 90 3c 30 16 4e 3c 37 ee e7 bc
       0.082351916 0.017696127 0.012578532 -0.028311832
000150 37 3c 7c 3c da ec 07 3d 6a ac c7 bc 77 82 8c 3d
       0.015395216 0.033184864 -0.024374206 0.06860822
000160 e7 a5 6f 3d cb e2 01 3b 55 b0 47 bc e0 32 f4 ba
       0.058507826 0.0019819017 -0.012188037 -0.0018630885
000170 4f f6 90 bc 57 7e d5 3c 51 06 ad 3c fd 20 e1 bc
       -0.017695574 0.02606122 0.021121176 -0.02748155
000180 86 2d df bc a1 f2 41 bd 50 bf 15 bd 6f 31 0d b9
       -0.027243387 -0.04735053 -0.036559403 -0.00013465223
000190 c7 7e 07 bb 13 d7 40 bd b8 cb f2 3b 74 25 3a 3c
       -0.002067493 -0.04708011 0.007409539 0.011361469
0001a0 f0 86 d5 bc 35 ed 2f 3d 37 c7 12 3d 1a 2d 9f ba
       -0.02606532 0.042950828 0.035834517 -0.0012144179
0001b0 26 1a 7e bb d4 83 80 3c 12 da 31 3d 20 af ba bc
       -0.003877291 0.01568786 0.04342086 -0.022788584
0001c0 58 db 98 3b f2 f0 2d 3c 91 3a 31 bc a5 ab 07 3d
       0.0046648197 0.010616528 -0.010817186 0.033122677
0001d0 9b 87 50 3d c2 ef 82 3d 2e d2 95 bc 60 15 10 bd
       0.050910573 0.063933864 -0.018288698 -0.035176635
0001e0 ee aa af 3d de e2 33 3d 43 c8 4f bd 21 47 b6 3d
       0.08577524 0.04391753 -0.050728094 0.089002855
0001f0 de 87 28 3c fa 4d 5f bd 67 d9 14 3c 92 37 3d 3b
       0.0102862995 -0.054517724 0.009085036 0.0028872234
000200 a0 90 01 bc 74 55 df bb 18 f0 17 bd 9e 2f 94 bc
       -0.007908016 -0.0068156067 -0.037094206 -0.018089112
000210 73 3f f9 3c 4b d9 91 ba 94 a4 bb 3b 2b 48 0b 3c
       0.030425763 -0.001112738 0.0057264064 0.008501093
000220 73 52 0b bd 9a 64 86 bc f2 8b 04 bc 58 d2 6d bc
       -0.034014177 -0.016405392 -0.008090006 -0.014515482
000230 54 8c 35 bd 1b 57 29 bc bc 23 82 bc 61 79 1b bd
       -0.04432328 -0.010335709 -0.01588618 -0.037957553
000240 23 d6 96 3d d5 49 74 3c 2f 06 a0 bc dd 85 23 3c
       0.07365062 0.014910181 -0.019534199 0.009980646
000250 0c f4 e0 bc 81 1e 07 bd ea 26 c2 bc 24 8f 52 bc
       -0.02746012 -0.032988075 -0.023700196 -0.01285151
000260 44 7b f8 b9 3a af 55 3c 98 4c 3a bb 21 49 51 bc
       -0.00047394086 0.013042266 -0.0028427 -0.012773783
000270 c5 b0 bf bc 8c c3 a9 bc f6 fa 5b bd e2 5f 5f 3c
       -0.02339972 -0.020723127 -0.053706132 0.0136337
000280 a7 db 13 bd 8c 5d 46 bd d7 c4 53 3d e6 cb 6d 3d
       -0.03609815 -0.048429057 0.051701393 0.05805578
000290 2b 58 8e 3c ef 3e c3 bb 82 b6 86 3c 23 6e c4 bc
       0.017376026 -0.00595843 0.016444448 -0.023978299
0002a0 41 ff 24 3b c3 d7 d8 3c e4 90 05 bd ae 36 78 bc
       0.0025176557 0.02647007 -0.03260888 -0.015149755
0002b0 b4 1f 38 3d b2 d3 bc 3c b2 6f 99 bd a3 b5 a3 bc
       0.04495211 0.023050163 -0.07492007 -0.019984072
0002c0 e0 c6 0b bd 66 81 16 be 00 0e c8 bd a6 04 cc bd
       -0.03412521 -0.14697799 -0.09768295 -0.09961824
0002d0 35 0f f5 bc 2b fa 52 bd bc 05 ba bd 7e 22 71 3c
       -0.029914478 -0.05150811 -0.09083125 0.014717696
0002e0 68 cb 9a bc 20 67 ad bd cb 0c 10 bd a7 e2 0a bc
       -0.01889582 -0.08466935 -0.03516845 -0.00847689
0002f0 31 ee 1a bd 67 cf 9c bc eb 41 84 3c bb a0 42 3d
       -0.037824813 -0.019141866 0.016144713 0.047516566
000300 af 68 6c bc 21 0b cd bb 28 af 8a 3c 89 c7 dd bc
       -0.014429255 -0.00625743 0.016929224 -0.027072685
000310 c7 82 d1 bc 7c ad 59 bc 5f d0 a3 bd 2f dd 8a bd
       -0.025575055 -0.013285991 -0.07998728 -0.06780469
000320 e3 a5 1d bd 7c a6 4e bd 8c 4e ef bc d6 e1 5e bc
       -0.03848828 -0.05045174 -0.029212259 -0.013603648
000330 ca a9 0a bd 63 82 74 bb ce 02 cd 3c 49 f2 55 bd
       -0.03385333 -0.0037309162 0.025025751 -0.052233014
000340 a7 53 20 bd e2 ee c3 bc 4b e3 6f bd d7 d8 9e bc
       -0.039142277 -0.02391762 -0.058566373 -0.019390507
000350 ef 16 93 3b 09 cd 88 bd 4a 18 ee bc 25 3a 92 bc
       0.004488818 -0.06679732 -0.029064316 -0.017849991
000360 64 79 9d bd ec 79 4e bd 0b f8 af bc f8 bc 80 bd
       -0.07689169 -0.050409243 -0.02148058 -0.06286043
000370 33 b0 79 bd 35 80 9e bd 25 ae 40 bd 46 3e 83 bd
       -0.060959052 -0.07739297 -0.047041077 -0.06408362
000380 cd 1f bc bd 76 25 76 3d a7 5e 13 3d 2c f2 37 3d
       -0.09185753 0.06009432 0.03597894 0.044908687
000390 c8 a5 f7 3b 1d 38 08 3d f1 48 33 3d c0 8e ce bc
       0.0075576045 0.03325664 0.043770734 -0.025214553
0003a0 01 3b c6 bb b5 10 6b bc b5 f6 73 bd 4b 28 ad 3c
       -0.0060495143 -0.014347245 -0.05956145 0.021137377
0003b0 cb 1a 90 3d 3e e6 8b bd 10 78 47 bd 05 fa 68 bc
       0.0703636 -0.068310246 -0.048698485 -0.014219766
0003c0 f1 8d 88 bd cd 99 5a bd 32 10 29 bb 07 d9 09 bc
       -0.06667698 -0.053369332 -0.0025797007 -0.00841356
0003d0 c2 f3 7d 3d 0e 73 80 3d fe f0 97 bc 6c f9 bb 3c
       0.062000044 0.06271945 -0.018547531 0.022946082
0003e0 42 a9 50 3d 8a 5c 3f bc 85 38 86 3c 6f 26 27 3d
       0.050942667 -0.011679778 0.016384372 0.040808138
0003f0 5c 3a 65 3d 96 57 c2 bc ae 08 a6 bc 81 ff 81 bc
       0.05596386 -0.023723405 -0.02026781 -0.015868904
