summaries/vanilla_ResNet2_num_blocks2x2_num_channels32_conv3/ckpt.pth (torch, 707499 bytes, 52 tensors)

module.conv1.weight f4 [32, 3, 3, 3]
0	0x3db74671	0.089489825
1	0xbdbd1abf	-0.09233617
2	0x3db7a88b	0.08967694
3	0xbd4191ec	-0.047258303
4	0xbe8105ad	-0.25199643
5	0x3f02f2d5	0.5115178
6	0xbc71d935	-0.014761259
7	0xbe547699	-0.20748366
8	0x3e38356a	0.17989126
9	0xbdab7d60	-0.08373523
10	0xbe861849	-0.26190403
11	0x3e0f5c65	0.1400009
12	0xbe75fc61	-0.24022056
13	0xbecf197e	-0.40449136
14	0x3f13923e	0.5764502
15	0xbdcd350d	-0.10019884
16	0xbe7b60c6	-0.24548635
17	0x3e86d776	0.2633626
18	0xbd5c26f0	-0.05374807
19	0xbddae1ef	-0.10687625
20	0x3e279ded	0.16368838
21	0xbe259d67	-0.16173325
22	0xbe5f669b	-0.21816485
23	0x3f162cef	0.58662313
24	0xbdc131bf	-0.094333164
25	0xbe36dac1	-0.17856885
26	0x3ea9ecbb	0.33188424
27	0x3678014b	3.6955632e-06
28	0x37b6cbc7	2.1790982e-05
29	0x38349876	4.3057335e-05
30	0x37b79e8e	2.1889133e-05
31	0x384bf211	4.8624413e-05
32	0x385c2422	5.248574e-05
33	0xb73ee6b8	-1.1378601e-05
34	0x3823c201	3.904291e-05
35	0x38646550	5.445379e-05
36	0xb71f7743	-9.504906e-06
37	0xb70eabf2	-8.503894e-06
38	0x37965dd3	1.7925084e-05
39	0x37c52cc0	2.3505068e-05
40	0x384f6d9d	4.945473e-05
41	0x3899840c	7.320204e-05
42	0x37c16f30	2.3059169e-05
43	0x3897a2d6	7.230572e-05
44	0x38ddb9d4	0.000105727144
45	0xb8cf9a1d	-9.899235e-05
46	0xb89fdacd	-7.622466e-05
47	0x36e0452b	6.6837724e-06
48	0xb890d7b4	-6.906633e-05
49	0xb7391ac3	-1.103309e-05
50	0x3899b9fe	7.330252e-05
51	0xb8355026	-4.3228407e-05
52	0x381b6008	3.7044316e-05
53	0x38f861f7	0.00011843809
54	0x3d068d30	0.03284949
55	0x3d9d3d9c	0.07677767
56	0xbdc2518b	-0.09488209
57	0x3e69b6a3	0.22823577
58	0x3e9a3600	0.30119324
59	0x3d22a0b4	0.03970404
60	0x3db12bc7	0.08650928
61	0x3e19472d	0.14968558
62	0x3cd3020d	0.025757814
63	0xbd2e5ccb	-0.042568963
64	0x3ca48ec2	0.020087603
65	0xbdedcbfb	-0.11611172
66	0x3d88d107	0.06680494
67	0x3e1810c8	0.14850152
68	0xbcc62667	-0.024188234
69	0xbd861688	-0.06547266
70	0xbca14208	-0.019684806
71	0xbd62e177	-0.0553908
72	0x3e45b7fb	0.19308464
73	0x3e628c9e	0.22123954
74	0x3d488113	0.04895122
75	0x3e1f7d05	0.15575035
76	0x3e2d279d	0.16909643
77	0x3cd07060	0.02544421
78	0xbd93952f	-0.07206189
79	0xbdc7a441	-0.09748126
80	0xbda6c209	-0.08142478
81	0x3dbfd008	0.09365851
82	0xbbd10ed3	-0.006379941
83	0x3da009a8	0.07814342
84	0x3d4ddc47	0.0502589
85	0xbe2774ad	-0.16353102
86	0xbd2a1098	-0.04151973
87	0xbdc345d8	-0.09534806
88	0xbe613ca8	-0.21995795
89	0xbe416da6	-0.18889484
90	0x3dfdee97	0.12399023
91	0x3d137abf	0.03600573
92	0x3d8ed5b1	0.06974352
93	0x3d5e319b	0.054246526
94	0xbe134ab7	-0.1438397
95	0xbd630773	-0.055427026
96	0xbddad11f	-0.10684418
97	0xbe6be45b	-0.2303633
98	0xbe4fd6b3	-0.20296745
99	0x3de6f6f4	0.11277571
100	0x3d89193c	0.06694266
101	0x3dfb592c	0.122728676
102	0x3dc902c9	0.09814984
103	0xbd723908	-0.05913642
104	0x3d3f9745	0.04677512
105	0xbcc9d9fc	-0.024640076
106	0xbdef9958	-0.1169917
107	0xbd8b1207	-0.06790548
108	0x3df4ed89	0.11959369
109	0xbf36bfcb	-0.713864
110	0xbf58af2f	-0.8464231
111	0x3f2a0327	0.6641106
112	0x3de38d03	0.1111088
113	0xbea26443	-0.3171712
114	0x3f6056a3	0.876322
115	0x3f470df5	0.7775567
116	0xbe5d65d8	-0.21620882
117	0xbca3cc10	-0.019994766
118	0xbe59f89a	-0.2128624
119	0x3ea7cb8b	0.32772478
120	0xbed98da5	-0.4249088
121	0xbe8f34cb	-0.27969965
122	0x3eddcd17	0.43320534
123	0xbea64180	-0.32471848
124	0xbcaf070e	-0.021365669
125	0x3c0f83cb	0.008759449
126	0x3e82caef	0.2554545
127	0x3eeae8a8	0.45880628
128	0x3ef06f04	0.46959698
129	0xbea572cf	-0.32314155
130	0xbd10742c	-0.03526704
131	0x3ee9ff32	0.4570251
132	0xbf29134a	-0.6604506
133	0xbee35ef3	-0.44408378
134	0xbe88f96b	-0.2675279
135	0x3e475498	0.19465864
136	0x3de74860	0.11293101
137	0xbe21f205	-0.1581498
138	0xbce1ff8b	-0.027587673
139	0xbee97562	-0.45597368
140	0xbe9f17b8	-0.31072783
141	0x3ec55717	0.38543007
142	0x3eb83066	0.35974425
143	0xbe158b08	-0.14603817
144	0x3d43f00f	0.04783636
145	0x3e5ec2e9	0.2175404
146	0x3e32c942	0.17459586
147	0xbebebc62	-0.372531
148	0xbf05ef5d	-0.52318364
149	0xbe0e63e7	-0.13905297
150	0x3e2cc125	0.16870554
151	0x3ec1f7be	0.37884325
152	0x3d7d3367	0.0618166
153	0xbc5c59a6	-0.013449108
154	0x3eba2d26	0.3636257
155	0x3ea9dae9	0.33174828
156	0xbeb2964d	-0.34880295
157	0xbea6047f	-0.32425305
158	0x3d84a872	0.06477441
159	0xbdc46ee8	-0.09591466
160	0x3c9dacaf	0.019247381
161	0xbdaa2afb	-0.08308979
162	0x3af39308	0.0018583247
163	0x3b245b36	0.002507878
164	0x3b3f7634	0.0029214742
165	0x3badc5f9	0.005303141
166	0x3b072afe	0.002062499
167	0xb98b5a59	-0.0002657946
168	0x3ba8fb83	0.0051569357
169	0x39d20b18	0.00040062587
170	0xbb4300a6	-0.0029755025
171	0x3a7fb757	0.0009754798
172	0xba166284	-0.0005736726
173	0xbaa9cae6	-0.0012954145
174	0x3b8ec13c	0.0043565314
175	0xba4b54dd	-0.0007756481
176	0xbb754b6e	-0.0037428993
177	0x3b8c1f60	0.004276201
178	0xba828137	-0.0009956722
179	0xbb89fd97	-0.0042111385
180	0x3aabecf0	0.0013116878
181	0x388cb21d	6.7088964e-05
182	0xba0e7b14	-0.000543521
183	0x3b65c767	0.003506148
184	0xba823841	-0.0009934978
185	0xbb634a3d	-0.00346817
186	0x3b485388	0.0030567367
187	0xbacae247	-0.0015478813
188	0xbb91e50d	-0.004452354
189	0xbe411f36	-0.18859562
190	0x3ed0d7c3	0.40789613
191	0xb90113ba	-0.00012309747
192	0x3db4db16	0.0883085
193	0x3eea6d68	0.45786595
194	0x3eadcb0f	0.33943984
195	0x3e60506a	0.21905676
196	0x3ee6e120	0.45093632
197	0x3e20960f	0.15682243
198	0xbed2ed18	-0.41196513
199	0xbe7682d3	-0.24073343
200	0xbe772fdf	-0.24139355
201	0xbf151b54	-0.58244824
202	0xbf546a3d	-0.82974607
203	0xbe841492	-0.25796944
204	0xbe7a6ff2	-0.24456766
205	0xbefdae2a	-0.4954694
206	0xbe214fef	-0.15753148
207	0x3df3ad6b	0.11898311
208	0x3effbc40	0.4994831
209	0xbcfcea09	-0.030873315
210	0x3e3e5e1e	0.1859059
211	0x3e4a7827	0.19772397
212	0x3d8c7550	0.06858313
213	0x3e4432bf	0.19159983
214	0x3e0e5f9d	0.13903661
215	0xbd8b7865	-0.06810073
216	0x3e49586d	0.19662638
217	0x3ecf3405	0.40469375
218	0x3eddfeef	0.4335856
219	0xbdc6d839	-0.0970921
220	0xbf32eaf5	-0.69889766
221	0x3e91761f	0.28410432
222	0xbd12cbb6	-0.035838805
223	0xbea017eb	-0.31268248
224	0xbd76cd62	-0.060254462
225	0x3ce6a890	0.028156549
226	0xbb26467f	-0.0025371609
227	0x3e430cd8	0.19047868
228	0xbe189a81	-0.14902689
229	0xbf493a85	-0.7860492
230	0x3e07acb9	0.13249482
231	0x3d5911cb	0.052995484
232	0x3ccbde0b	0.024886152
233	0x3e71442e	0.23561165
234	0xbca5cfa1	-0.020240607
235	0xb9ec54c9	-0.00045076598
236	0xbe0805e8	-0.13283503
237	0x3e094339	0.1340455
238	0xbec7c74d	-0.39019242
239	0xbda5f249	-0.08102853
240	0x3eca3a3f	0.39497563
241	0x3e8674c2	0.26260954
242	0x3e04c2ea	0.12964979
243	0xbe890ac3	-0.26766023
244	0xbece9537	-0.40348217
245	0xbe7f1b89	-0.24912848
246	0xbef64c72	-0.48105198
247	0xbeb81ee6	-0.35961074
248	0xbe836c8d	-0.25668755
249	0xbe468c8c	-0.19389552
250	0xbe79269a	-0.24331132
251	0xbdbdcb50	-0.092672944
252	0x3ed9c1c9	0.4253066
253	0x3f397ef0	0.72459316
254	0x3dd5243b	0.10407301
255	0x3f23806c	0.6386783

module.bn1.weight f4 [32]
0	0x3ee5320f	0.44764754
1	0x382818ba	4.007735e-05
2	0x3f07d986	0.5306629
3	0x3ee0fc97	0.4394271
4	0x3eb40ce0	0.35166073
5	0x3eda97d7	0.4269397
6	0x3aa5ed24	0.0012659174
7	0x3ec70712	0.38872582
8	0x3ed90334	0.42385256
9	0x3efcce5b	0.49376187
10	0x37039d5a	7.844845e-06
11	0x3ecc798f	0.39936492
12	0x384fafac	4.9516253e-05
13	0x3f1975ea	0.5994555
14	0x383137ea	4.2252163e-05
15	0x37a18266	1.9253417e-05
16	0x3e73c619	0.23806037
17	0x3f24696e	0.6422337
18	0x3d101d6a	0.0351843
19	0x3f012267	0.5044312
20	0x3f016f5f	0.50560564
21	0x3e526b6c	0.2054879
22	0x3efa13c0	0.48843193
23	0x3eed1d7e	0.46311563
24	0x3f259dc9	0.64693886
25	0x3ef825f6	0.48466462
26	0x3e94e437	0.29080364
27	0x368d1083	4.2040497e-06
28	0x3f02ef79	0.51146656
29	0x3ec8841c	0.3916329
30	0x3ed938e6	0.42426223
31	0x3f037c8e	0.5136193

module.bn1.bias f4 [32]
0	0x3e900069	0.28125313
1	0xb914e328	-0.00014199002
2	0xbe160c78	-0.14653194
3	0xbeb034d1	-0.34415296
4	0x3f28512e	0.6574887
5	0x3eac817c	0.3369254
6	0xbbcc6d00	-0.0062385798
7	0x3eb37f2b	0.3505796
8	0x3eace1dd	0.3376607
9	0x3e1dbbad	0.15403624
10	0xb82bb032	-4.093367e-05
11	0xbe41f98e	-0.18942854
12	0xb9970952	-0.00028807909
13	0x3ed556c7	0.41667768
14	0xb9069ef7	-0.00012838455
15	0xb91240a9	-0.00013947733
16	0xbe440fb2	-0.19146612
17	0xbec312d9	-0.38100317
18	0xbe274ccd	-0.16337891
19	0x3f36ade1	0.7135907
20	0x3f6a265d	0.9146479
21	0xbd0e93f8	-0.034809083
22	0xbdd7e9bc	-0.10542628
23	0x3e83ab8f	0.25716826
24	0xbec06733	-0.37578735
25	0xbe8cc99a	-0.2749756
26	0x3e6b26bb	0.22963993
27	0xb76e76e4	-1.4213587e-05
28	0x3ea80a2c	0.3282026
29	0x3de2759a	0.11057587
30	0x3e8bc10f	0.2729573
31	0xbe3dacf2	-0.18523005

module.bn1.running_mean f4 [32]
0	0x3e25f555	0.16206868
1	0x39893eec	0.00026177557
2	0x3f188161	0.59572417
3	0xbecdc940	-0.40192604
4	0x3d9a2a9b	0.075276576
5	0x3d3d50bf	0.046219584
6	0x3bbc8985	0.0057536983
7	0xbd712f41	-0.058882955
8	0xbd9f2b5f	-0.07771944
9	0xbe1c6e63	-0.15276484
10	0x388038e4	6.114112e-05
11	0xbe9f131d	-0.3106927
12	0xb9d8fd4c	-0.0004138745
13	0x3dac2d70	0.08407104
14	0xb9237ad6	-0.00015590651
15	0x3a45b2cb	0.0007541596
16	0x3dad2255	0.08453814
17	0xbf221f9e	-0.63329494
18	0x3c9f39cd	0.019436741
19	0xba776488	-0.00094372826
20	0x3c10b6bc	0.00883263
21	0x3e3b1bf5	0.18272384
22	0xbeb4813a	-0.35254842
23	0x3e2ab7d4	0.16671687
24	0xbf28ec03	-0.65985125
25	0xbf223c01	-0.6337281
26	0x3e0bae2a	0.13640657
27	0x38084903	3.2492924e-05
28	0x3d373344	0.044726625
29	0xbe85fc5a	-0.2616909
30	0xbe430726	-0.19045696
31	0xbefbabdf	-0.49154565

module.bn1.running_var f4 [32]
0	0x3e0b9dfa	0.13634482
1	0x32b59d1d	2.114262e-08
2	0x3dbfcf5e	0.09365724
3	0x3d95d339	0.07315678
4	0x3ce5c5ac	0.028048359
5	0x3d4cee29	0.050031815
6	0x37eb5c7d	2.8057251e-05
7	0x3d4d538b	0.0501285
8	0x3d4e57ec	0.050376818
9	0x3dbe0011	0.092773564
10	0x313b79ff	2.7281428e-09
11	0x3d8ba8c3	0.06819298
12	0x338aea47	6.4687406e-08
13	0x3ec300f3	0.38086662
14	0x31f1b10b	7.0341506e-09
15	0x3412f274	1.3685514e-07
16	0x3d14c938	0.03632471
17	0x3e1c6ca8	0.15275824
18	0x3b98a3cb	0.0046581975
19	0x3cdf48ef	0.027256457
20	0x3d14f07c	0.036362156
21	0x3d077bab	0.033076923
22	0x3e6534a7	0.22383367
23	0x3e2c5558	0.16829431
24	0x3dfa268e	0.12214385
25	0x3dceb380	0.10092831
26	0x3cdf7dd0	0.027281672
27	0x2f8b7902	2.5369934e-10
28	0x3e9e064c	0.3086418
29	0x3dcccad3	0.09999623
30	0x3e7f98d2	0.2496064
31	0x3db3c218	0.08777255

module.residual_layers.0.0.conv1.weight f4 [32, 32, 3, 3]
0	0xbbde7ad9	-0.006789547
1	0x3dbd50c2	0.09243919
2	0xbc86ad8b	-0.016440174
3	0xbd023a9b	-0.03179417
4	0x3d71e9da	0.05906091
5	0x3b0bc49c	0.0021326905
6	0xbdad5aa7	-0.08464556
7	0x3d2cccaa	0.04218737
8	0x3d0a4bb7	0.033763614
9	0xb854398a	-5.0598326e-05
10	0xb810f818	-3.456333e-05
11	0xb78bc68b	-1.6662545e-05
12	0xb82a434a	-4.0593826e-05
13	0xb7fdc0a4	-3.0249656e-05
14	0xb7c31056	-2.3253418e-05
15	0xb7c1ab23	-2.3087085e-05
16	0xb7af10db	-2.0869475e-05
17	0xb80aaffb	-3.306566e-05
18	0xbdd33dfb	-0.10314556
19	0xbd8e983d	-0.06962631
20	0xbd260759	-0.04053435
21	0xbdbf3e39	-0.0933804
22	0xbd9496fd	-0.07255361
23	0xbda067e6	-0.07832317
24	0xbdfd3001	-0.12362672
25	0xbdc1ab8b	-0.09456547
26	0xbde30e1e	-0.11086677
27	0x398a4700	0.0002637431
28	0xbd438658	-0.047735542
29	0xbd2a42a6	-0.041567467
30	0x3bc2077b	0.005921302
31	0xbcfbca37	-0.030736072
32	0xbd31e95f	-0.04343545
33	0x3ccb8db3	0.02484784
34	0xbb79e944	-0.0038133422
35	0xbd489330	-0.048968494
36	0xbd9a405b	-0.07531806
37	0xbdfc48f8	-0.12318605
38	0x3d86527a	0.065587
39	0x3d23f665	0.040029902
40	0xbe1b733a	-0.15180674
41	0xbd6d71d8	-0.057969898
42	0x3dad62dd	0.08466122
43	0xbd4be567	-0.049779322
44	0xbdb14a67	-0.08656769
45	0x3cae18c8	0.021252051
46	0xbd73b16e	-0.059495382
47	0xbcffd056	-0.031227272
48	0xbd370cf0	-0.044690073
49	0xbd8f8196	-0.070071384
50	0xbca999c2	-0.0207032
51	0x3dca25a0	0.09870458
52	0x3c2a1809	0.010381707
53	0xbd1d2334	-0.03836365
54	0xbad51ab9	-0.0016258574
55	0xbaa40d59	-0.0012516185
56	0x39168d03	0.00014357646
57	0xbac34c57	-0.001490007
58	0xba383763	-0.0007027296
59	0x39d6013c	0.0004081818
60	0xba968d12	-0.0011486134
61	0xba507f6a	-0.00079535565
62	0x3a0d13bc	0.0005381664
63	0xbe305c2c	-0.17222661
64	0x3c95e0c6	0.018295657
65	0x3eacee7f	0.33775708
66	0xbe98d444	-0.29849446
67	0xbdb4f05e	-0.08834909
68	0x3e9ba42a	0.30398685
69	0xbe84133c	-0.25795925
70	0xbe34b7b5	-0.17648204
71	0x3dfb34bb	0.12265917
72	0x3d087a24	0.033319607
73	0x3ca55d7f	0.020186184
74	0xbda46831	-0.080276854
75	0xbdf7cfca	-0.121001795
76	0x3c85348d	0.01626041
77	0xbd00db71	-0.031459276
78	0xbd236922	-0.039895184
79	0x3d0f8d79	0.03504703
80	0x3c3f1e7d	0.011664984
81	0x3b813542	0.0039431164
82	0xbe9c84ae	-0.30569977
83	0xbf091562	-0.5354825
84	0x3eadc908	0.33942437
85	0xbcd3051b	-0.02575927
86	0xbeac516a	-0.33655864
87	0x3ee6ff06	0.45116442
88	0x3e5a2ee8	0.21306956
89	0xbe038c6f	-0.1284654
90	0xb788bf36	-1.6301503e-05
91	0xb6f84265	-7.3987053e-06
92	0x3734e650	1.078246e-05
93	0xb75ff6dc	-1.3349312e-05
94	0xb66e5290	-3.5512821e-06
95	0x36acd740	5.151058e-06
96	0xb761a30e	-1.3449009e-05
97	0xb693e8fb	-4.408064e-06
98	0x371c68a8	9.322692e-06
99	0xbd763e2d	-0.06011789
100	0x3d014766	0.03156223
101	0x3cd608fb	0.02612733
102	0xbd041592	-0.032247134
103	0x3d6e19f9	0.05813024
104	0x3d290ad8	0.041270107
105	0xbcb1dbc0	-0.02171123
106	0x3d2315db	0.039815765
107	0x3cab43ce	0.020906355
108	0xb80708ef	-3.219483e-05
109	0xb82bf0bb	-4.0993775e-05
110	0xb83671d6	-4.34982e-05
111	0x36f32e10	7.2473267e-06
112	0xb7578f2b	-1.28483325e-05
113	0xb80cb5b5	-3.354783e-05
114	0x37f3f6dc	2.908281e-05
115	0x3815b6a0	3.569445e-05
116	0x383ace49	4.4537974e-05
117	0xbe0fd961	-0.14047767
118	0xbddc5010	-0.10757458
119	0x3da2c047	0.0794683
120	0xbe27617d	-0.16345783
121	0x3c0a80d1	0.008453564
122	0x3dd6cd19	0.10488338
123	0xbde74296	-0.11291997
124	0xbc83f862	-0.01610965
125	0x3d82f4b5	0.063943304
126	0xb69a5ca6	-4.6003433e-06
127	0xb715b46a	-8.923098e-06
128	0xb70c8915	-8.376567e-06
129	0xb6d8946d	-6.4545807e-06
130	0xb76fb3a8	-1.428734e-05
131	0xb73a5ce4	-1.1108092e-05
132	0x36b9e0db	5.5396063e-06
133	0xb6ca4605	-6.0282205e-06
134	0xb6a99288	-5.053651e-06
135	0xb87f2425	-6.08304e-05
136	0xb8794361	-5.9428978e-05
137	0x388a330a	6.5898595e-05
138	0xb8c05db9	-9.172731e-05
139	0xb8c57d94	-9.417083e-05
140	0x364936e8	2.9983294e-06
141	0xb8f81b29	-0.000118306205
142	0xb8bc1eb9	-8.970261e-05
143	0xb6a86920	-5.0190283e-06
144	0xba909901	-0.0011031927
145	0xbb8a85d2	-0.0042273784
146	0xbc16d704	-0.009206537
147	0xbbc211b6	-0.0059225215
148	0xbc4c195b	-0.012457217
149	0xbb6f13ed	-0.0036480383
150	0xbc776bba	-0.015101368
151	0xbd2432a2	-0.04008735
152	0xbc9d1da5	-0.019179175
153	0x3d822d60	0.06356311
154	0x3d2b1e4b	0.041776937
155	0xbc8f55fc	-0.017497055
156	0x3cd3499b	0.025791934
157	0x3bc78dcb	0.006089901
158	0xbcd2e764	-0.025745101
159	0x3c106c5a	0.0088148955
160	0xbcfaf25a	-0.03063314
161	0xbd3529ec	-0.044229433
162	0xbc08c7f8	-0.0083484575
163	0x3a3367cd	0.00068437756
164	0x3a8fde74	0.001097633
165	0xbc161d9e	-0.009162335
166	0x3b688a4f	0.003548283
167	0x3a2ec740	0.0006667264
168	0xbac2dac9	-0.0014866228
169	0x3bd068c8	0.006360147
170	0xbbaac1b7	-0.005211081
171	0xbe4f6d35	-0.20256503
172	0xbde4d3c3	-0.11173203
173	0x3ca24f00	0.01981306
174	0x3da74233	0.081669234
175	0xbd327a52	-0.043573685
176	0xbc270f93	-0.010196584
177	0x3cbf43e2	0.023347799
178	0x3c50ff8b	0.012756239
179	0x3c60f776	0.013730874
180	0xbdc9958e	-0.098429784
181	0xbce974d7	-0.028498096
182	0x3d6feec1	0.058577303
183	0x3dd11329	0.10208733
184	0xbe1f00a7	-0.15527593
185	0x3d1bc2c5	0.038027544
186	0xbca788b9	-0.020450937
187	0xbdac6486	-0.08417611
188	0x3dc9450d	0.098276235
189	0xbd35c90e	-0.044381194
190	0x3b861807	0.0040922198
191	0x3c9cae0f	0.019125966
192	0xbd2690f1	-0.04066557
193	0x3b955380	0.004557073
194	0x3c32109c	0.010868218
195	0xbd57e3ef	-0.05270761
196	0xbca67a4b	-0.020321986
197	0xb92fe480	-0.00016774423
198	0x3cc8df43	0.024520522
199	0x3bfd0a3b	0.007722167
200	0x3d2f4698	0.042791933
201	0xbb8ad5b8	-0.004236903
202	0x3cd4a09e	0.025955494
203	0x3cf5ad85	0.029989967
204	0x3cab7ae1	0.020932617
205	0xbb63637c	-0.0034696748
206	0xbd598ed8	-0.053114742
207	0xbd1ef403	-0.038806926
208	0xbdac0087	-0.08398538
209	0xbcbb7b33	-0.022885894
210	0xbce8c258	-0.028412983
211	0xbdb7abfc	-0.0896835
212	0xbd694c01	-0.05695725
213	0xbc9094a9	-0.017649012
214	0xbd84d84e	-0.06486569
215	0xbd4fa485	-0.050694007
216	0x3ccb4a95	0.024815837
217	0xbc292474	-0.0103236325
218	0xbc46da73	-0.012137043
219	0x3c952a8e	0.018208768
220	0x3cc248f9	0.023716437
221	0x3c542c17	0.012949965
222	0xbcb2f51f	-0.021845398
223	0xbd9f5421	-0.07779718
224	0xbd6ca7cf	-0.057777222
225	0xbcb1e633	-0.021716213
226	0xbd97d8c3	-0.07414391
227	0xbcb27259	-0.02178304
228	0x3d324f7b	0.04353283
229	0xbd01cdfb	-0.03169058
230	0xbb0ded54	-0.002165635
231	0xbc06d76f	-0.008230074
232	0xbda128b8	-0.078690946
233	0xbcf22107	-0.029556764
234	0xbcb012d1	-0.021493347
235	0xbd8b73cf	-0.06809198
236	0x3de8f9e0	0.11375785
237	0x3b9d40b2	0.004798972
238	0xbd819cd1	-0.063287385
239	0x3da50227	0.08057051
240	0xbd0ad1c8	-0.03389147
241	0xbd9670b4	-0.07345715
242	0x3d0e5d8a	0.034757175
243	0xb6a2541d	-4.8377683e-06
244	0xb672da31	-3.6187814e-06
245	0xb622de22	-2.426918e-06
246	0xb6a03a23	-4.7751396e-06
247	0xb67f1bb2	-3.8014082e-06
248	0xb63e8786	-2.8391091e-06
249	0xb63232b6	-2.6553585e-06
250	0xb63cc640	-2.812958e-06
251	0xb61baf08	-2.3198681e-06
252	0xbdc9bd52	-0.09850563
253	0xbe0b954c	-0.13631171
254	0xbdf56e15	-0.11983887
255	0xbc4bddc4	-0.01244301

module.residual_layers.0.0.bn1.weight f4 [32]
0	0x3ef9114b	0.48646006
1	0x3f12fa9f	0.5741367
2	0x3eddc8ae	0.4331717
3	0x3f0f7b1e	0.56047237
4	0x3e9d69ee	0.3074488
5	0x3eef9d8d	0.4679989
6	0x3eca5523	0.3951808
7	0x3ebb1966	0.36542815
8	0x3ef371a2	0.47547632
9	0x3f0bbf7d	0.5458906
10	0x3eae3fa7	0.34032938
11	0x3ef043f7	0.46926853
12	0x3efed2a9	0.49770096
13	0x3ed66742	0.41875654
14	0x3ec374ec	0.38175142
15	0x3ee60f2b	0.44933447
16	0x3eb956d7	0.36199066
17	0x3ef21ba2	0.47286707
18	0x3ee52fe6	0.44763106
19	0x3f300450	0.6875658
20	0x3ecd3163	0.40076742
21	0x3f2a1498	0.66437674
22	0x3f070281	0.52738196
23	0x3ecbe414	0.39822447
24	0x3ec4f3f9	0.38467386
25	0x3e9e0f51	0.3087106
26	0x3ef31560	0.47477245
27	0x3ed68fcc	0.41906583
28	0x3ec60462	0.3867522
29	0x3ed0de63	0.40794668
30	0x3f0dbc88	0.553658
31	0x3ec9aa69	0.39387825

module.residual_layers.0.0.bn1.bias f4 [32]
0	0xbdba5200	-0.090976715
1	0x3ee6c04f	0.45068595
2	0xbe276703	-0.1634789
3	0x3df8cd03	0.12148478
4	0x3dff5d72	0.12468995
5	0xbea02c24	-0.31283677
6	0x3e35b274	0.17743856
7	0xbe1f3f59	-0.15551509
8	0xbe8a6452	-0.27029663
9	0x3e57f028	0.21087706
10	0xbe4a7348	-0.19770539
11	0xbe6fd538	-0.2342118
12	0x3e32a173	0.174444
13	0x3e8e03b0	0.27737188
14	0x3edc7766	0.43059844
15	0x3e3341ff	0.17505644
16	0xbe0710a6	-0.13189945
17	0xbda157ae	-0.07878052
18	0x3e0a8107	0.13525783
19	0x3f45ab4c	0.77214503
20	0xbecb0b8b	-0.39657244
21	0xbed145e9	-0.4087365
22	0xbea6221b	-0.32447895
23	0xbebcd6ca	-0.3688262
24	0x3d9d68d1	0.07686008
25	0xbeaf02c3	-0.34181795
26	0xbea068a4	-0.31329834
27	0xbf08a3e5	-0.53375083
28	0x3e23658d	0.15956707
29	0xbe55c4ff	-0.2087593
30	0x3e886677	0.26640674
31	0xbd9720a2	-0.07379271

module.residual_layers.0.0.bn1.running_mean f4 [32]
0	0xbfa505cf	-1.2892398
1	0xbc457633	-0.012052107
2	0xbec963db	-0.39333996
3	0xbfb12514	-1.383944
4	0xbf2cce67	-0.67502445
5	0xbc945a41	-0.018109443
6	0xbf058954	-0.5216267
7	0x3f027db6	0.5097307
8	0xbf9b6fe8	-1.2143526
9	0xbf8e0be0	-1.1097374
10	0x3f6aa331	0.9165526
11	0x3fc6c22b	1.5528005
12	0xbf1f5f0f	-0.6225442
13	0xbf0ade4a	-0.54245436
14	0xbfc31a08	-1.5242319
15	0xbf9b2bd4	-1.212275
16	0xbf093604	-0.53598046
17	0xbf6bcc9d	-0.9210909
18	0xbfc693b6	-1.5513828
19	0xbf243f81	-0.641594
20	0x3f99c599	1.2013427
21	0xbf8586bb	-1.0431741
22	0xbede8ceb	-0.43466887
23	0x3f3024e7	0.6880631
24	0xbfcbffb2	-1.5937407
25	0x3f6d88c6	0.92786825
26	0xbf03ecbe	-0.51533115
27	0x3f054292	0.52054703
28	0xbf78ec3f	-0.9723548
29	0xbd368d77	-0.044568505
30	0xbf23590a	-0.6380774
31	0xbe44ff07	-0.1923791

module.residual_layers.0.0.bn1.running_var f4 [32]
0	0x3e9275da	0.2860554
1	0x3f1ad888	0.6048665
2	0x3f15d947	0.58534664
3	0x3f3b1fde	0.730955
4	0x3eea4c53	0.45761356
5	0x3e8f514f	0.2799172
6	0x3f2499c7	0.64297146
7	0x3ea04b17	0.3130729
8	0x3ecd7533	0.40128478
9	0x3efb711d	0.49109736
10	0x3ea09b4f	0.3136849
11	0x3e81f50b	0.25382265
12	0x3f39f565	0.7264007
13	0x3edc873d	0.4307193
14	0x3f5ea5db	0.86971825
15	0x3ec93501	0.3929825
16	0x3e74eccf	0.2391846
17	0x3f313362	0.6921903
18	0x3ec52744	0.3850652
19	0x3f5677e9	0.8377672
20	0x3e5c9eb2	0.21544912
21	0x3ed7b466	0.4212982
22	0x3ec59268	0.38588262
23	0x3ea4fd36	0.32224435
24	0x3e98e44a	0.2986167
25	0x3e59d71f	0.21273468
26	0x3ecd7dcf	0.40135047
27	0x3e7eecd5	0.24895032
28	0x3edc8408	0.43069482
29	0x3ec90a3f	0.3926563
30	0x3f15cca2	0.5851537
31	0x3ef24f21	0.47325996

module.residual_layers.0.0.conv2.weight f4 [32, 32, 3, 3]
0	0xbd2d4134	-0.04229851
1	0xbc001a34	-0.007818747
2	0x3d4e3b91	0.050349776
3	0xbd4969a2	-0.049173005
4	0x3c84e4f1	0.016222449
5	0x3d4eff32	0.050536342
6	0xbd49c1af	-0.049256977
7	0x3d5bfc7a	0.053707577
8	0x3d8118e3	0.06303575
9	0x3c932088	0.017959848
10	0x3e517e80	0.20458412
11	0xbe52474e	-0.20535013
12	0x3c92b150	0.017906815
13	0xbe08d2eb	-0.13361709
14	0x3e0e3334	0.1388672
15	0x3e2d1797	0.1690353
16	0x3da60e91	0.08108247
17	0xbde1ce4b	-0.110256754
18	0x3dd7e75f	0.105421774
19	0x3c7b6182	0.015343072
20	0xbd7375b9	-0.05943844
21	0x3e0038bf	0.12521647
22	0x3ce71712	0.028209243
23	0xbd990b54	-0.07472864
24	0x3dc27664	0.094952375
25	0x3d6b0f8b	0.05738787
26	0xbd95bb83	-0.07311156
27	0x3cbe666f	0.023242204
28	0xbca1937d	-0.019723648
29	0x3d13a173	0.03604264
30	0x3d02ee36	0.031965457
31	0xbaa9aa51	-0.0012944435
32	0xbd130f1f	-0.035903092
33	0xbca872e3	-0.020562595
34	0xbd5c7be1	-0.053829078
35	0xbc92bbe0	-0.017911851
36	0x3ce74f77	0.028236134
37	0xbd5a2483	-0.053257477
38	0xbcad2695	-0.021136561
39	0xbcbe7f8f	-0.023254184
40	0xbdc677f0	-0.09690845
41	0xbd06dd4a	-0.03292588
42	0xbdaf038a	-0.08545597
43	0xbdfcf4b5	-0.12351362
44	0xbe0b684d	-0.13614006
45	0x3ca8e9ae	0.02061924
46	0xbca59bbb	-0.02021586
47	0x3b28f22e	0.0025779116
48	0x3d1cdd64	0.038297072
49	0xbd1b4244	-0.037904993
50	0x3ca73568	0.020411208
51	0x3d1d416c	0.03839247
52	0xbd19f152	-0.037583657
53	0x3b810afa	0.003938076
54	0x3d4fd139	0.05073664
55	0x3d9b2d6b	0.07577022
56	0xbe4413be	-0.19148156
57	0x3cdcf636	0.026972871
58	0x3ea4ff25	0.3222591
59	0xbe0f7c60	-0.14012289
60	0xbd9ef299	-0.077611156
61	0x3bd19f43	0.0063971593
62	0xbe1a7278	-0.15082729
63	0x3cf19605	0.02949048
64	0xbdc04564	-0.09388235
65	0x3daccdab	0.084376656
66	0x3d5478fb	0.05187319
67	0xbdff32d3	-0.12460866
68	0x3c27e619	0.010247731
69	0x3e0648d8	0.13113725
70	0xbc878428	-0.01654251
71	0xbd58661b	-0.05283175
72	0xbdcef81a	-0.10105915
73	0x3c9835fd	0.018580431
74	0xbd516b1f	-0.05112755
75	0xbd69d32e	-0.057086162
76	0xbcbc7395	-0.023004333
77	0xbc4cfc0a	-0.012511263
78	0x3cb7d024	0.022438116
79	0xbc4fcca3	-0.012683067
80	0xbc17e7af	-0.009271546
81	0xbcdfffbf	-0.027343629
82	0xbd880fe9	-0.066436596
83	0x3d6301d8	0.05542168
84	0xbd978f93	-0.074004315
85	0xbd414656	-0.04718622
86	0x3e35cb65	0.1775337
87	0x3e0514fc	0.12996286
88	0x3dd8213a	0.105532125
89	0x3de7559e	0.11295627
90	0x3dcd4fac	0.10024962
91	0xbdba361a	-0.0909235
92	0xbd6073db	-0.05479799
93	0x3d916e1a	0.07101078
94	0xbdbd2056	-0.09234683
95	0xbd139b37	-0.036036696
96	0x3d98a31d	0.074529864
97	0xbd861a26	-0.06547956
98	0xbc467165	-0.012111996
99	0xbd44de28	-0.048063427
100	0xbc90ebfe	-0.017690655
101	0x3d1af291	0.037828986
102	0xbd64d94c	-0.055871293
103	0xbd35ddc8	-0.04440096
104	0x3b8f8fbf	0.0043811495
105	0xbdcc2851	-0.09968627
106	0xbdecb1af	-0.11557328
107	0xbdccada5	-0.099940576
108	0xbe84579b	-0.25848088
109	0x3cc90a5c	0.024541073
110	0x3c184a92	0.009295123
111	0xbe42e4c5	-0.19032581
112	0x3e7bfb70	0.24607635
113	0x3e812b8a	0.2522853
114	0xbde94e75	-0.113919176
115	0x3dd42994	0.10359493
116	0x3c99fbbf	0.0187968
117	0xbd1a9803	-0.037742626
118	0x3c7863b1	0.015160487
119	0xbe3b4b71	-0.18290497
120	0x3dca33a0	0.09873128
121	0x3e9d11b6	0.30677575
122	0xbe7249a2	-0.23660901
123	0x3d50d106	0.05098059
124	0x3dde3e4f	0.10851728
125	0xbde1554d	-0.11002598
126	0xbd9e7d49	-0.0773874
127	0x3d8f5269	0.0699814
128	0xbdc853e9	-0.097816296
129	0xbd29a6a8	-0.0414187
130	0x3e8c1551	0.27360013
131	0x3d995023	0.07485988
132	0xbdd53a9d	-0.1041157
133	0x3df817e3	0.12113931
134	0xbda20534	-0.07911149
135	0xbc30e47a	-0.010796661
136	0xbba1c46d	-0.004936746
137	0xbd187c0d	-0.03722768
138	0x3cf90333	0.030397033
139	0x3d53eec0	0.05174136
140	0xbdf08414	-0.11743942
141	0x3c1990f9	0.009372943
142	0xbd42f533	-0.04759712
143	0xbe0875e4	-0.13326222
144	0xbd93b5de	-0.07212423
145	0x3da9a28b	0.08282956
146	0x3e0c0754	0.1367467
147	0xbdff538f	-0.124671094
148	0xbbc7dd34	-0.0060993675
149	0x3cd61fca	0.026138205
150	0xbdb3bf1f	-0.08776688
151	0x3d35b1dc	0.044359073
152	0xbc7f64e2	-0.015588017
153	0xbd89e6e5	-0.06733493
154	0xbc6ed1c9	-0.014576384
155	0xbd8f77df	-0.070052855
156	0xbdbdf605	-0.0927544
157	0x3db02ab8	0.08601898
158	0x3d45ada9	0.04826132
159	0xbd0c0f00	-0.034193993
160	0x3bc71c0c	0.0060763415
161	0xbd26d5f1	-0.040731374
162	0x3d4f23b0	0.050571144
163	0x3d1e3623	0.038625848
164	0x3d9bf80b	0.0761567
165	0x3c762d00	0.015025377
166	0xbdc52064	-0.09625319
167	0x3dea32a5	0.11435441
168	0xbe015696	-0.12630686
169	0xbde55f46	-0.111998126
170	0x3e4d2725	0.20034464
171	0xbdf75b08	-0.1207791
172	0x3e2a2620	0.16616106
173	0x3c17ff10	0.00927712
174	0x3c14cdad	0.00908224
175	0x3eacf851	0.337832
176	0xbf0042ca	-0.5010191
177	0x3e292776	0.1651896
178	0xbe120dfd	-0.14263149
179	0xbd558ddb	-0.052137237
180	0xbc035dbf	-0.008017956
181	0xbd731b7e	-0.05935239
182	0x3ba0d8dd	0.0049086646
183	0x3d07d05f	0.033157703
184	0xbd559d62	-0.052152045
185	0xbd8a11a9	-0.0674165
186	0x3cded110	0.027199298
187	0xbb9c8d2b	-0.0047775707
188	0xbd4d8c00	-0.050182343
189	0x3d9379ec	0.07200989
190	0x3cde7194	0.027153768
191	0xbce3e4f6	-0.027819138
192	0xbcae5881	-0.021282436
193	0xbd3b4d5a	-0.045728065
194	0xbd464aab	-0.048411053
195	0x3c815d8b	0.015791675
196	0xbdacd123	-0.08438327
197	0xbd88b3a8	-0.06674892
198	0xbdb50f8c	-0.08840856
199	0x3d9b8bd0	0.075950265
200	0x3b0c674d	0.0021423877
201	0xbd8c3839	-0.06846661
202	0x3d978312	0.073980466
203	0x3c7f5277	0.015583626
204	0xbde13c2d	-0.10997806
205	0xbd0801bd	-0.033204783
206	0xbd09afcc	-0.03361492
207	0x3d599eca	0.05312995
208	0x3cb2c63f	0.021823047
209	0xbc99d6cf	-0.018779187
210	0x3cb7c16b	0.022431096
211	0x3c66d6da	0.014089311
212	0x3b88f2d5	0.0041793385
213	0x3b16e000	0.0023021698
214	0x3cdcd3c6	0.02695645
215	0x3cd3a174	0.025833823
216	0x3d85c40c	0.065315336
217	0xbd1e3b41	-0.038630728
218	0xbcb62ad6	-0.022237223
219	0xbb9ce798	-0.0047883503
220	0x3cd89473	0.026437974
221	0xbc925faf	-0.017867891
222	0x3c08929f	0.008335738
223	0x3c585d37	0.013205818
224	0xbd0e59ad	-0.03475349
225	0x3d577269	0.052599344
226	0x3d30380e	0.043022208
227	0xbc98cc0e	-0.018651988
228	0x3d2875dd	0.04112803
229	0x3cbb82e0	0.022889555
230	0xbb9d8ae4	-0.004807817
231	0x3d9f9c9f	0.07793545
232	0x3be4bd6a	0.0069805877
233	0x3c7c133f	0.015385448
234	0x3c96963d	0.018382186
235	0xbcbc7f7f	-0.023010014
236	0x3ca0be1b	0.0196219
237	0xbd350e47	-0.04420307
238	0xbcfd435a	-0.030915905
239	0xbccf5bcc	-0.025312327
240	0xbd3b8fe1	-0.04579151
241	0xbd07fbbf	-0.03319907
242	0xbdcdc6ec	-0.10047707
243	0x3cb3f121	0.021965565
244	0xbd168798	-0.036750406
245	0xbcd6a23a	-0.026200403
246	0xbc1b4cc6	-0.009478753
247	0xbd689786	-0.05678513
248	0xbd24e9d5	-0.040262062
249	0x3d1795c6	0.03700807
250	0xbd49aed7	-0.049239006
251	0xbd1fcf04	-0.039015785
252	0xbcd62567	-0.026140882
253	0xbc84be20	-0.01620394
254	0xba76b7a4	-0.000941152
255	0x3e21c912	0.15799358

module.residual_layers.0.0.bn2.weight f4 [32]
0	0x3f2ab168	0.6667695
1	0x3f208ef9	0.6271816
2	0x3e93b476	0.28848618
3	0x3ec820ba	0.39087468
4	0x3f121343	0.5706064
5	0x3f11f193	0.5700924
6	0x3f03e87e	0.5152663
7	0x3efa100f	0.48840377
8	0x3f153753	0.58287543
9	0x3f41a6b5	0.75645
10	0x3f2cf0fe	0.67555225
11	0x3f235851	0.63806635
12	0x3f10968a	0.56479704
13	0x3f05c660	0.5225582
14	0x3f3d1a6d	0.7386845
15	0x3f02d27f	0.5110244
16	0x3f1d0483	0.6133501
17	0x3edb7728	0.42864347
18	0x3f177db9	0.5917621
19	0x3f2563d5	0.64605457
20	0x3f1e249c	0.6177461
21	0x3f0c340a	0.54766905
22	0x3f12b260	0.5730343
23	0x3edbdfe6	0.42944258
24	0x3edf95df	0.4366903
25	0x3eed4887	0.46344396
26	0x3f6a50a9	0.9152933
27	0x3ed8e531	0.4236236
28	0x3f174062	0.59082615
29	0x3f23fa54	0.64053845
30	0x3e758862	0.23977807
31	0x3f107b2d	0.5643795

module.residual_layers.0.0.bn2.bias f4 [32]
0	0x3e0258fb	0.12729256
1	0xbe74a561	-0.23891212
2	0xbe606bb4	-0.21916085
3	0xbe6a3969	-0.22873463
4	0xbf5112a5	-0.81669074
5	0xbf12d0d6	-0.5734991
6	0x3e592312	0.21204785
7	0xbf3547ef	-0.70812887
8	0xbf17dfd4	-0.5932591
9	0xbefb1018	-0.49035716
10	0x3e72bbe2	0.23704484
11	0xbe67c485	-0.2263356
12	0xbd971ca0	-0.07378507
13	0xbf0e908f	-0.5568933
14	0x3eb0df9d	0.34545603
15	0xbe8d17cf	-0.27557227
16	0xbe809210	-0.25111437
17	0xbe883426	-0.26602286
18	0x3e1910b6	0.14947781
19	0xbedcdeb5	-0.43138662
20	0xbeb0fc24	-0.34567368
21	0xbeaa8e05	-0.33311477
22	0xbe1b006d	-0.15136881
23	0xbde6c6d2	-0.11268391
24	0xbd12ba8d	-0.03582244
25	0x3c307657	0.010770402
26	0x3e8a6394	0.27029097
27	0xbd663a81	-0.056208137
28	0xbebb2d99	-0.36558226
29	0x3de9040c	0.11377725
30	0x3d605011	0.054763857
31	0x3e8b42d8	0.27199435

module.residual_layers.0.0.bn2.running_mean f4 [32]
0	0xbda0eb80	-0.07857418
1	0x3f2e3239	0.68045384
2	0xbda7acfb	-0.0818729
3	0xbc410eee	-0.011783345
4	0xbdd7bd25	-0.10534123
5	0x3f1e4be4	0.6183455
6	0xbf527e43	-0.8222391
7	0x3e9e0759	0.3086498
8	0xbb9e40ad	-0.0048294873
9	0x3e6e7c74	0.23289663
10	0xbe81e1a3	-0.2536746
11	0xbe56cedc	-0.20977348
12	0x3ebf1cfc	0.373268
13	0xbf284081	-0.65723425
14	0xbdc1068d	-0.094250776
15	0xbe732684	-0.23745161
16	0xbe3bb77a	-0.1833171
17	0x3f1ab309	0.60429436
18	0xbeaa4df6	-0.33262604
19	0xbed37338	-0.41298842
20	0x3e112e30	0.14177775
21	0x3f8a5c0f	1.0809344
22	0xbf13b28b	-0.5769431
23	0xbda99e6a	-0.08282168
24	0xbec64fac	-0.3873266
25	0xbf117d08	-0.5683141
26	0xbdc08ee7	-0.094022565
27	0xbf3ec16e	-0.745139
28	0x3ecf8571	0.40531495
29	0xbeebaf03	-0.4603196
30	0xbdee507d	-0.11636446
31	0xbf0c511a	-0.5481125

module.residual_layers.0.0.bn2.running_var f4 [32]
0	0x3f851399	1.0396606
1	0x3f77df8a	0.9682547
2	0x3e953347	0.29140684
3	0x3e7985e1	0.24367477
4	0x3ebbc23a	0.3667162
5	0x3ee5114e	0.44739765
6	0x3f30bb6d	0.6903599
7	0x3ecfbb10	0.40572405
8	0x3f117f59	0.5683494
9	0x3edb218a	0.42799026
10	0x3f994cfc	1.1976619
11	0x3f19d150	0.6008501
12	0x3ebe5ff0	0.3718257
13	0x3f4b8de1	0.79513365
14	0x3f953a36	1.165839
15	0x3ebcf420	0.36905003
16	0x3f1e4715	0.6182721
17	0x3edf61f4	0.4362942
18	0x3f2a360a	0.6648871
19	0x3f1d4751	0.61436945
20	0x3f444545	0.76668197
21	0x3e96fedf	0.29491326
22	0x3f8fbd6f	1.1229686
23	0x3f0765a1	0.5288945
24	0x3ec448a9	0.38336685
25	0x3ee584d2	0.44827896
26	0x3fa02fee	1.2514627
27	0x3e8e8b36	0.27840585
28	0x3f7e0120	0.99220467
29	0x3f447c3d	0.7675207
30	0x3f00e398	0.5034728
31	0x3f1deec2	0.6169244

module.residual_layers.0.1.conv1.weight f4 [32, 32, 3, 3]
0	0x3e1cc68e	0.15310118
1	0xbe837b7e	-0.25680155
2	0xbe50195a	-0.20322171
3	0x3eda3f7a	0.42626554
4	0xbe779f55	-0.24181874
5	0xbe8e547b	-0.27798828
6	0x3e2d6516	0.16933092
7	0xbe7a8ac1	-0.24466993
8	0xbea43eb2	-0.32079083
9	0x3db62f4e	0.088957414
10	0xbd451699	-0.048117254
11	0xbde33a18	-0.11095065
12	0x3e161dac	0.14659756
13	0xbccfe5a7	-0.025378061
14	0xbde3af3a	-0.11117406
15	0x3dda847a	0.10669799
16	0xbd94c1de	-0.0726354
17	0xbe2946a1	-0.16530849
18	0xbd1aeaac	-0.037821457
19	0x3d747f92	0.059691973
20	0x3d4ca337	0.04996034
21	0xbd4e8c8a	-0.050426997
22	0x3cc790dd	0.024361068
23	0xbb92feb9	-0.0044859317
24	0xbd7d49fa	-0.061838128
25	0xbc2502c4	-0.01007146
26	0xbcc9e82a	-0.024646837
27	0xbd452174	-0.048127607
28	0x3b18d003	0.0023317344
29	0x3d9af97f	0.07567119
30	0x3c7e930d	0.015537989
31	0x3cb41836	0.0219842
32	0x3db8f6cf	0.0903145
33	0xbd603b7c	-0.05474423
34	0x3c66ce62	0.014087291
35	0x3d0cb430	0.034351528
36	0xbcd5c601	-0.026095392
37	0x3d10ebb5	0.035381038
38	0xbc7b24b0	-0.015328571
39	0xbb2984e4	-0.0025866563
40	0x3d195214	0.03743179
41	0x3cc910ec	0.024544202
42	0xbb87519b	-0.004129601
43	0x3d101801	0.035179142
44	0xbb8f684a	-0.004376446
45	0xbd939ba8	-0.072074234
46	0x3c029843	0.007970872
47	0x3d2062f1	0.039156858
48	0x3da35388	0.07974917
49	0xbd661736	-0.05617448
50	0x3ca7c648	0.02048029
51	0x3cfa1296	0.03052644
52	0x3dfc2436	0.12311594
53	0xbd87f9fe	-0.06639479
54	0xbe1e240b	-0.15443437
55	0xbcc8fa20	-0.024533331
56	0x3d076c80	0.033062458
57	0xbd82a65c	-0.06379387
58	0xbb6d3d40	-0.0036199838
59	0x3d36eb7e	0.044658177
60	0xbd60fc24	-0.05492796
61	0xbb07a683	-0.0020698614
62	0x3d252223	0.04031576
63	0x3ca80a78	0.020512804
64	0xbc72a248	-0.014809199
65	0x3d333ba7	0.04375806
66	0x3d289dac	0.041165993
67	0xbc09b1f5	-0.008404245
68	0x3d0e5300	0.034747124
69	0x3af40c37	0.0018619363
70	0xbc8d608c	-0.017257951
71	0x3d42860e	0.047491126
72	0xbe0dbadc	-0.13840812
73	0xbdc83c3b	-0.09777113
74	0xbb3b7e09	-0.0028609058
75	0x3d3ccb60	0.04609239
76	0xbdd4617a	-0.10370155
77	0xbd62a673	-0.05533452
78	0x3d33e87d	0.04392289
79	0xbd2ac7fc	-0.041694626
80	0xbd59e0b5	-0.053192813
81	0xbc8c207d	-0.017105335
82	0x3aa3fa02	0.0012510421
83	0x3cc7de3f	0.024397967
84	0xbd2afb51	-0.04174358
85	0x3b479313	0.0030452653
86	0x3c7b2989	0.015329727
87	0xbd49088a	-0.04908041
88	0x3c510e27	0.012759722
89	0x3d2f04f9	0.04272935
90	0xbe25fbb4	-0.16209298
91	0xbe501fb3	-0.20324592
92	0x3ce14a4c	0.027501248
93	0xbdf6b925	-0.12047032
94	0xbe33fe4e	-0.17577478
95	0x3e001a83	0.12510113
96	0xbe2db236	-0.16962513
97	0xbe95140a	-0.2911685
98	0xbd09fad1	-0.033686463
99	0x3d93a1a2	0.072085634
100	0x3d0e5143	0.034745466
101	0x3c971963	0.018444723
102	0x3d6eada0	0.05827105
103	0x3d94e976	0.07271092
104	0x3d12fe1a	0.03588686
105	0xb9bad177	-0.00035632748
106	0xbc834431	-0.016023727
107	0xbd804199	-0.06262512
108	0x3d18885b	0.037239414
109	0x3d33cb82	0.043895252
110	0xbce0f252	-0.027459297
111	0x3d83305e	0.0640571
112	0x3d7d0e93	0.061781477
113	0x3cea77a5	0.028621504
114	0x3dbac58b	0.091197096
115	0x3c46e660	0.012139887
116	0xba845cef	-0.0010098497
117	0xbe1abde8	-0.15111506
118	0xbdd924ed	-0.10602746
119	0x3d6eee6d	0.05833285
120	0xbe819dfe	-0.2531585
121	0x3d40cfc9	0.04707316
122	0x3e3d21a1	0.1846986
123	0xbe855da4	-0.26048005
124	0xbdf7f3ba	-0.12107034
125	0x3cc6ef0a	0.024283905
126	0xbd84c9bc	-0.0648379
127	0xbdb51e44	-0.08843663
128	0xbd0c90bd	-0.03431772
129	0x3baeb548	0.005331669
130	0xbd260bfd	-0.040538777
131	0xbcdd73f0	-0.027032822
132	0xbc94da36	-0.018170457
133	0x3d24cd8b	0.040235084
134	0xbd906079	-0.07049651
135	0xbca68fb5	-0.020332197
136	0x3d599726	0.053122662
137	0x3c15ed85	0.009150867
138	0x3d64b4b5	0.0558364
139	0x3d804960	0.06263995
140	0x3de61f94	0.11236492
141	0x3e2cb0a9	0.16864266
142	0x3d883168	0.066500485
143	0x3d776b82	0.06040526
144	0x3d47d4b1	0.048786823
145	0xbbadbcae	-0.0053020334
146	0xbcc09085	-0.023506412
147	0x3d8f0501	0.06983376
148	0xbd14eb52	-0.03635723
149	0xbd9938d8	-0.07481545
150	0x3d9ea6f8	0.077466905
151	0xbd150f1a	-0.036391355
152	0xbcc6c752	-0.024264965
153	0x3ba9ebb5	0.005185569
154	0x3db2d49f	0.087319605
155	0x3d5ceeef	0.053938802
156	0x3d9db0c3	0.0769973
157	0x3d4b1efb	0.049590092
158	0xbd8245eb	-0.06360992
159	0x3db481bb	0.088138066
160	0xbda1240e	-0.07868205
161	0xbc992afa	-0.01869725
162	0xbe18977c	-0.14901537
163	0xbe3784f3	-0.1792181
164	0x3dc001a7	0.09375315
165	0xbd8a46c7	-0.06751781
166	0xbe5844dc	-0.21120018
167	0x3dc12a58	0.094319046
168	0xbc645f61	-0.013938756
169	0xbe692f25	-0.2277189
170	0xbd835e16	-0.0641443
171	0x3c760272	0.015015231
172	0x3d2991ff	0.041399
173	0xbe0cd468	-0.13752902
174	0x3d884641	0.06654025
175	0x3c8c1133	0.017098045
176	0x3d13f146	0.03611877
177	0xbd301b98	-0.042995065
178	0xbdf0945f	-0.117470495
179	0x3e0baf73	0.13641147
180	0x3d4eb7af	0.050468143
181	0xbd498767	-0.049201395
182	0xbdd47ce2	-0.10375382
183	0xbc9efde5	-0.019408176
184	0x3e23a708	0.15981686
185	0xbe177c8b	-0.14793603
186	0x3d49d4ce	0.049275212
187	0x3d1f1739	0.038840506
188	0xbe370378	-0.17872417
189	0xbdbbc407	-0.091682486
190	0xbca74f99	-0.020423697
191	0x3c02a08f	0.00797285
192	0xbd8d217d	-0.06891153
193	0xbd70e265	-0.058809657
194	0xbd6f4096	-0.058411203
195	0xbdc8b835	-0.0980076
196	0xbd89e915	-0.0673391
197	0xbd83a2f1	-0.06427563
198	0x3e20c1b4	0.15698892
199	0xbd9e8e68	-0.077420056
200	0x3defd70e	0.1171094
201	0xbd36e379	-0.04465053
202	0x3cd2873d	0.025699252
203	0xbb60bfad	-0.0034293935
204	0x3d48749c	0.048939332
205	0x3c03591b	0.00801685
206	0xbd2ebccd	-0.042660523
207	0xbbb6f62c	-0.005583545
208	0x3d820574	0.06348696
209	0x3e0e2a84	0.13883406
210	0xbdcae36e	-0.0990666
211	0xbcbafa04	-0.022824295
212	0xbc1dc3cc	-0.009629201
213	0xbdd35401	-0.10318757
214	0x3c18bd56	0.009322485
215	0x3d288ab2	0.041147895
216	0x3b859fd9	0.004077893
217	0xbcb98f52	-0.022651348
218	0x3d2d0d63	0.042249095
219	0x3c1c1a8e	0.0095278155
220	0xbd9d6c4e	-0.07686673
221	0x3e09a4a0	0.13441706
222	0x3d0891f5	0.03334232
223	0xbd8ea608	-0.06965262
224	0x3d3f787f	0.046745773
225	0x395ff946	0.00021359799
226	0x3b190a90	0.0023352243
227	0xbc5bdc08	-0.013419159
228	0x3d1220f2	0.03567595
229	0x3dbaa4bd	0.091134526
230	0x3c77363d	0.015088615
231	0xbc8a4520	-0.016878664
232	0x3d05a255	0.032625515
233	0xbc08679c	-0.008325484
234	0xbde5f2e4	-0.11227968
235	0x3dbd73c2	0.09250595
236	0xbe2d76ff	-0.16939925
237	0xbe55c5c9	-0.2087623
238	0x3e9dd94d	0.3082985
239	0xbe5d0a26	-0.21585903
240	0xbe0c1958	-0.13681543
241	0x3d17e9f8	0.037088364
242	0xbdcff98b	-0.101550184
243	0x3d1ca8ab	0.03824679
244	0x3cece5b0	0.028918117
245	0x3de9f1b9	0.11423058
246	0x3d6c7456	0.057728134
247	0x3cea1ab0	0.028577179
248	0x3d74f4a0	0.059803605
249	0x3d9bb910	0.07603657
250	0x3d6380f7	0.055542912
251	0x3ddcfbd3	0.10790219
252	0xbe15787a	-0.1459674
253	0xbdf52b58	-0.11971158
254	0xbd62645c	-0.05527149
255	0xbe0d1cd8	-0.13780534

module.residual_layers.0.1.bn1.weight f4 [32]
0	0x3f4692ae	0.77567565
1	0x3ededb18	0.4352653
2	0x3ee8b38d	0.45449486
3	0x3f02865e	0.5098628
4	0x3f36684e	0.71252906
5	0x3ee5eda1	0.4490786
6	0x3f29b43e	0.6629065
7	0x3ed80404	0.42190564
8	0x3f46e2ab	0.7768962
9	0x3ed6d448	0.41958833
10	0x3f08130f	0.5315408
11	0x3f001b59	0.5004173
12	0x3eafa4e7	0.34305498
13	0x3edc0f04	0.42980206
14	0x3f2628e0	0.6490612
15	0x3f2cbd79	0.6747661
16	0x3f258a68	0.64664316
17	0x3f094ff9	0.53637654
18	0x3ee69f22	0.45043284
19	0x3edfcb47	0.43709776
20	0x3f0650f3	0.5246727
21	0x3eb091be	0.34486192
22	0x3f007ad5	0.50187427
23	0x3f20b0da	0.62769854
24	0x3f307638	0.6893039
25	0x3f2a1697	0.6644072
26	0x3ee0f621	0.4393778
27	0x3ef96367	0.4870865
28	0x3f01f3c9	0.5076261
29	0x3ec5e308	0.38649774
30	0x3ef4893d	0.47760954
31	0x3f10c4a6	0.5655006

module.residual_layers.0.1.bn1.bias f4 [32]
0	0xbe60ac8b	-0.2194082
1	0xbe897f60	-0.26854992
2	0xbd56f443	-0.05247904
3	0xbe70e4d0	-0.23524785
4	0xbea598f6	-0.32343262
5	0xbea38375	-0.3193623
6	0xbe634ca1	-0.221972
7	0xbf0cb01c	-0.5495622
8	0xbe851582	-0.25992972
9	0xbee7ab18	-0.45247722
10	0xbebb310d	-0.3656086
11	0xbe87943f	-0.2648029
12	0xbdebeee8	-0.11520177
13	0xbec46cfa	-0.38364393
14	0xbe9146c0	-0.2837429
15	0xbe618e8b	-0.22027032
16	0xbea0834e	-0.31350178
17	0xbd863ae6	-0.06554203
18	0xbeaa95ff	-0.33317563
19	0x3eba474c	0.3638252
20	0xbdab55a3	-0.08365943
21	0x3ddb9df7	0.10723489
22	0xbe999da8	-0.30003095
23	0xbdd37a35	-0.103260435
24	0xbe58ecdd	-0.21184106
25	0xbe95337d	-0.29140845
26	0xbd0a432e	-0.033755474
27	0x3dece22a	0.11566575
28	0x3e3665ae	0.17812225
29	0xbe3107bc	-0.17288107
30	0xbe2b401a	-0.16723672
31	0xbebd0cb8	-0.36923766

module.residual_layers.0.1.bn1.running_mean f4 [32]
0	0xbfefffe2	-1.8749964
1	0xbf26068a	-0.6485373
2	0xc008af21	-2.135689
3	0xbfbc7a81	-1.4724885
4	0xbfcc8f8b	-1.5981306
5	0xbca1975a	-0.01972549
6	0xbfc8d19a	-1.5688965
7	0x400f163d	2.2357323
8	0xc01118da	-2.2671418
9	0x3fff1a57	1.9929913
10	0xbee31f59	-0.44359854
11	0xbe9b8e2a	-0.303819
12	0x3e10a795	0.14126427
13	0xbfcbd4c5	-1.5924307
14	0xbfe96df5	-1.8236681
15	0xbfa0669a	-1.2531312
16	0xbfecbcc9	-1.8495113
17	0xbf225b47	-0.6342053
18	0xbebbd969	-0.36689308
19	0xbf113049	-0.567143
20	0xbffc34b2	-1.9703581
21	0xbf6c65fc	-0.92343116
22	0xbf0a9807	-0.54138225
23	0xbff5e57a	-1.9210656
24	0xbfb1398b	-1.3845686
25	0xbfbdb4bd	-1.4820782
26	0xc003b0a2	-2.0576558
27	0xbee130ed	-0.4398264
28	0xbfc3fd1c	-1.5311618
29	0x3e6b30d1	0.2296784
30	0xbfc44e52	-1.5336401
31	0xbf8d6385	-1.1045996

module.residual_layers.0.1.bn1.running_var f4 [32]
0	0x40a69f44	5.2069416
1	0x3fcce296	1.6006649
2	0x3fc502a7	1.5391434
3	0x4001682c	2.0219831
4	0x40545590	3.3177223
5	0x3f1ec027	0.6201195
6	0x4026fd53	2.6092117
7	0x3f2ce007	0.6752934
8	0x40342874	2.814969
9	0x3f1fd249	0.62430245
10	0x3f904f5f	1.1274222
11	0x3f8bfbe2	1.0936244
12	0x3f09cfea	0.53832877
13	0x3fae3823	1.3610882
14	0x401cbd71	2.4490626
15	0x40789111	3.8838542
16	0x3ffebb8f	1.9900988
17	0x3fc934d1	1.5719243
18	0x3f3501a9	0.7070566
19	0x3fc3a2aa	1.5284016
20	0x3f9a36b2	1.2047942
21	0x3f4a00d0	0.7890749
22	0x3fc9c932	1.5764525
23	0x403b6c66	2.928491
24	0x40a076e1	5.0145116
25	0x403262a8	2.7872715
26	0x3fa5e518	1.2960539
27	0x3f7c4587	0.9854359
28	0x3fc0f73b	1.5075449
29	0x3f32e620	0.6988239
30	0x3fe87419	1.816043
31	0x401c5af4	2.4430513

module.residual_layers.0.1.conv2.weight f4 [32, 32, 3, 3]
0	0xbb929a81	-0.0044739847
1	0x3e0ebebb	0.13939945
2	0xbd0e45f3	-0.034734678
3	0xbcbb4148	-0.022858277
4	0x3e4ac9a1	0.19803478
5	0x3d8fa2f5	0.070135035
6	0xbd2cc074	-0.042175725
7	0xbc937fb8	-0.018005237
8	0xbdb49acd	-0.088185884
9	0x3da2d740	0.07951212
10	0x3d597ad7	0.053095665
11	0x3cd4e63e	0.025988694
12	0x3dfabb74	0.12242785
13	0xbc398767	-0.011323786
14	0xbd26290e	-0.040566497
15	0x3dd81104	0.105501205
16	0x3c9bc994	0.019017018
17	0xbda66954	-0.081255585
18	0xbcbe674f	-0.02324262
19	0x3d2a815a	0.041627266
20	0x3d977246	0.07394843
21	0x3ca09cd5	0.019606033
22	0x3e22faef	0.15916036
23	0x3e4cc829	0.1999823
24	0x3da17f96	0.07885663
25	0x3de1f0b2	0.11032237
26	0x3e08ebf1	0.13371255
27	0xbca880a7	-0.020569159
28	0x3dbbb9b7	0.09166282
29	0xbc6a0c2b	-0.014285128
30	0x3d6dc079	0.058044884
31	0xbd036044	-0.032074228
32	0xbd17292c	-0.0369045
33	0xbe3ae57c	-0.18251604
34	0xbc31c189	-0.010849365
35	0xbe1babe0	-0.15202284
36	0x3d8a82d0	0.06763232
37	0x3d7e46e8	0.06207934
38	0xbd0b09f2	-0.03394503
39	0x3e3c4e11	0.18389155
40	0x3d9e6255	0.07733599
41	0xbd22d893	-0.039757323
42	0xbd8fbc89	-0.07018382
43	0xbc11269c	-0.008859303
44	0xbde0e730	-0.109815955
45	0xbb1b5302	-0.00237006
46	0xbb49151b	-0.0030682746
47	0xbc9293f0	-0.017892808
48	0xbb8bc9ad	-0.004265985
49	0x3c92395d	0.017849619
50	0x3b5937ba	0.0033144788
51	0xbd4161e4	-0.047212496
52	0xbd44f8c4	-0.048088804
53	0x3b4bd46b	0.0031101953
54	0xbd751c4d	-0.059841443
55	0xbcb48efb	-0.022040835
56	0x3dd79318	0.10526103
57	0x3d9af115	0.07565514
58	0x3e010a5a	0.12601605
59	0x3db5169c	0.08842203
60	0xbd82f384	-0.06394103
61	0x3d07c00f	0.033142146
62	0x3daac786	0.08338837
63	0x3bfaf9a7	0.0076591554
64	0xbd826808	-0.06367499
65	0xbc44090a	-0.011965046
66	0xbd248855	-0.04016908
67	0x3c1467db	0.009057964
68	0xbdaede2e	-0.08538471
69	0xbdd3800a	-0.10327156
70	0xbd1fecc9	-0.039044175
71	0xbd4220c0	-0.047394514
72	0xbd542f29	-0.051802788
73	0xbdc8d6ca	-0.09806593
74	0xbe6070bc	-0.21918005
75	0x3d2dd8bf	0.042443033
76	0x3c8d88d4	0.017277159
77	0xbd7d180c	-0.06179051
78	0x3d11fabb	0.035639506
79	0xbd573743	-0.052542936
80	0x3a1291d3	0.00055911875
81	0x3c1e91ca	0.0096783135
82	0xbc5177cb	-0.0127849085
83	0xbdcea4bd	-0.10090015
84	0xbd205ad0	-0.039149106
85	0x3d5d4e4c	0.054029748
86	0xbd51bc96	-0.05120524
87	0xbd9f57ca	-0.07780416
88	0xbd663ccd	-0.056210328
89	0xbd576e5f	-0.052595492
90	0x3db6a129	0.089174576
91	0x3d481f9d	0.048858274
92	0xbdb5c5dd	-0.0887563
93	0x3dd4a67e	0.10383318
94	0x3d21313c	0.039353594
95	0xbc75ba64	-0.014998052
96	0x3d3b42b6	0.045717917
97	0x3c55d9c4	0.013052408
98	0xbd082f50	-0.033248246
99	0x3d6d9ba7	0.05800977
100	0xbdad4b60	-0.08461642
101	0x3db4f8b5	0.088364996
102	0x3b8f59d7	0.0043747234
103	0xbe3345c2	-0.17507079
104	0xbd5c807f	-0.05383348
105	0xbdae0095	-0.08496205
106	0xbe0ad89a	-0.1355919
107	0xbe3d2600	-0.18471527
108	0xbde930be	-0.1138625
109	0xbdb2bfc2	-0.08727981
110	0xbcfc16ee	-0.030772652
111	0xbda06a93	-0.078328274
112	0xbd391e1a	-0.045194723
113	0x39c7c0f3	0.00038099996
114	0x3d807c93	0.06273761
115	0x3bfe80f9	0.0077668396
116	0x3bf1f0e3	0.0073834523
117	0xbdca6224	-0.09882
118	0xbdd0190d	-0.10161028
119	0xbd0a5a2c	-0.0337774
120	0x3d1eec36	0.038799487
121	0xbdaa6d21	-0.08321596
122	0xbdc9ad91	-0.09847558
123	0x3d274fb1	0.040847484
124	0x3cbbd1b2	0.022927139
125	0xbdcf919f	-0.10135197
126	0x3dc7defa	0.09759326
127	0xbd77b71c	-0.06047736
128	0x3db2a4c6	0.08722834
129	0xbe428eee	-0.18999836
130	0xbd31f973	-0.043450784
131	0x3d176e10	0.0369702
132	0xbe28381b	-0.16427653
133	0xbd59ad76	-0.05314394
134	0xbdefbc92	-0.11705889
135	0x3d6648b8	0.056221694
136	0x3d67814d	0.056519795
137	0x3d3244ec	0.04352276
138	0x3ddf9c93	0.10918536
139	0xbca67b1e	-0.020322379
140	0x3c016270	0.0078970045
141	0xbdbd1946	-0.09233336
142	0xbdf8e95b	-0.12153884
143	0xbe1407ed	-0.14456148
144	0xbd68fb71	-0.05688042
145	0x3e24d61b	0.160973
146	0x3dfd1a42	0.12358524
147	0xbcba705b	-0.022758653
148	0xbcb06b92	-0.021535669
149	0x3dd20d2b	0.10256418
150	0x3c9ec0e3	0.019379085
151	0xbd616c9d	-0.055035222
152	0xbcb47fa0	-0.022033513
153	0x3d6aa9fd	0.05729102
154	0xbb900c2c	-0.0043959823
155	0xbe309581	-0.17244531
156	0xbca6237a	-0.020280588
157	0xbdbcfa63	-0.09227445
158	0x3c65dd8f	0.0140298745
159	0x3dd458b1	0.10368479
160	0xba019e71	-0.0004944569
161	0xbd51747c	-0.05113648
162	0x3c5ef31e	0.013607768
163	0xbcbaf46e	-0.022821631
164	0xbd953bd3	-0.07286801
165	0x3e52e2c8	0.20594323
166	0x3db72e91	0.08944429
167	0xbc8938b3	-0.01675067
168	0x3d13774a	0.036002435
169	0x3baf7503	0.005354525
170	0xbd0d2685	-0.034460563
171	0x3db27578	0.08713812
172	0x3d986851	0.07441772
173	0xbdcf8779	-0.10133261
174	0x3d83fe00	0.06444931
175	0x3dc466dd	0.09589932
176	0x3d652b9e	0.0559498
177	0x3ce776e8	0.028254941
178	0x3d88644c	0.06659755
179	0x3d5b97c7	0.053611543
180	0xbdd13b45	-0.10216383
181	0x3de2b63a	0.11069913
182	0x3d57e701	0.052710537
183	0x3cc4150a	0.023935813
184	0x3da22048	0.079163134
185	0x3c21e79d	0.009881881
186	0x3da394f5	0.07987396
187	0xbd80161a	-0.062542155
188	0xbdacf859	-0.08445806
189	0x3d8af84f	0.06785642
190	0x3bb9a4a5	0.005665379
191	0xbc5212c9	-0.012821862
192	0x3d1ccaad	0.038279224
193	0x3d12b091	0.035812918
194	0xbba064f7	-0.0048948484
195	0x3dab69bf	0.08369779
196	0x3e479c8b	0.1949331
197	0x3d286d95	0.04112013
198	0x3dff009f	0.1245129
199	0xbd2358bb	-0.03987954
200	0xbc9188a2	-0.017765347
201	0xbd06d61b	-0.03291903
202	0x3c158cc8	0.009127803
203	0xbd4be1e9	-0.04977599
204	0x3c1dfc7e	0.009642718
205	0xbd0e05c6	-0.034673475
206	0xbd407f31	-0.0469963
207	0xbbe93dae	-0.0071179485
208	0x3d4246e9	0.047430906
209	0xbcd7065f	-0.026248155
210	0xbcdd8cfd	-0.027044768
211	0xbb906e2d	-0.004407665
212	0x3c977415	0.01848797
213	0x3dbd17ca	0.09233053
214	0xbc0991c7	-0.008396572
215	0xbc71912d	-0.014744085
216	0x3dd59aed	0.104299404
217	0x3b9c77f9	0.004775044
218	0xbb366726	-0.0027832477
219	0x3d2b6e1e	0.041853063
220	0x3bef7a01	0.007308245
221	0x3d4e0982	0.050302036
222	0xbe428a57	-0.18998085
223	0xbde96694	-0.11396518
224	0xbde6b13d	-0.11264274
225	0xbc0e802d	-0.008697552
226	0x3d7fb9e2	0.06243313
227	0x3dee80e2	0.11645676
228	0xbd76d171	-0.060258333
229	0x3c89215b	0.016739538
230	0x3d69e079	0.05709884
231	0x3bc772fa	0.0060867043
232	0x3de92c87	0.11385446
233	0xbc6f508e	-0.014606608
234	0xbc4b8b95	-0.012423416
235	0xbd08ac96	-0.033367716
236	0x3dfbcaa5	0.12294511
237	0xbe1ddf3c	-0.15417188
238	0xbd892621	-0.06696726
239	0x3e36b243	0.17841439
240	0xbd6ef813	-0.05834205
241	0x3c54a734	0.012979317
242	0x3e463785	0.19357117
243	0xbd8e5ec9	-0.069516726
244	0x3d31ce83	0.043409836
245	0xbd66f261	-0.056383494
246	0xbb862c79	-0.004094657
247	0x3d806b2f	0.06270444
248	0x3d2a463e	0.041570894
249	0xbd5786d7	-0.052618828
250	0x3df53440	0.119728565
251	0x3d92bdea	0.071651295
252	0x3cada536	0.021196943
253	0xbd840771	-0.06446732
254	0xbd5913e4	-0.052997485
255	0xbce8da73	-0.028424477

module.residual_layers.0.1.bn2.weight f4 [32]
0	0x3ee6b472	0.45059544
1	0x3ea1572d	0.31511822
2	0x3ea2d211	0.31800893
3	0x3f7fecaf	0.99970526
4	0x3f069c15	0.5258191
5	0x3f5f779d	0.8729189
6	0x3ebfaba2	0.37435633
7	0x3f00be87	0.5029072
8	0x3f08706c	0.5329654
9	0x3dc8cbae	0.09804474
10	0x3f01120a	0.5041815
11	0x3f0b8d2d	0.5451229
12	0x3f175ac3	0.59122866
13	0x3f0330fd	0.51246625
14	0x3f380ac2	0.71891415
15	0x3f2ec745	0.6827281
16	0x3e53cfc9	0.20684732
17	0x3ea4ad71	0.32163575
18	0x3f262e0a	0.64914
19	0x3ef57876	0.47943467
20	0x3f26791d	0.65028554
21	0x3f17129f	0.5901279
22	0x3ec189a6	0.3780033
23	0x3dc26373	0.09491625
24	0x3f1c778e	0.61119926
25	0x3f1e2277	0.6177134
26	0x3f1e68b0	0.6187849
27	0x3f456434	0.7710602
28	0x3e96beb5	0.29442373
29	0x3f2d322f	0.676547
30	0x3f1c5412	0.6106578
31	0x3f0d2ed5	0.55149585

module.residual_layers.0.1.bn2.bias f4 [32]
0	0xbf240fdc	-0.640867
1	0x3e40539c	0.18781894
2	0x3ce52252	0.027970467
3	0x3e04cddd	0.12969156
4	0xbe25b347	-0.1618167
5	0x3e2711a3	0.16315322
6	0xbd1a2714	-0.037634924
7	0x3e64a248	0.2232753
8	0x3c45a962	0.01206431
9	0x3cb81c32	0.022474382
10	0xbf13faf6	-0.5780481
11	0x3b86c07a	0.0041123005
12	0x3e955816	0.29168767
13	0xbec7810e	-0.38965648
14	0xbf3e3c11	-0.74310404
15	0xbdec92ab	-0.11551412
16	0x3daf00e1	0.085450895
17	0x3e95bda6	0.29246253
18	0x3c5b8311	0.013397948
19	0xbf19c3f4	-0.60064626
20	0xbf3e9a63	-0.74454325
21	0xbf01945e	-0.50617015
22	0xbe30503a	-0.17218104
23	0x3e110322	0.14161351
24	0x3d44fddc	0.04809366
25	0x3c7d100a	0.015445719
26	0xbf052345	-0.5200694
27	0x3d623f19	0.055235956
28	0xbe4378c7	-0.19089042
29	0xbf3e2ea4	-0.7428992
30	0xbdfef1d7	-0.12448471
31	0xbe79208e	-0.24328825

module.residual_layers.0.1.bn2.running_mean f4 [32]
0	0x3e50ae1f	0.20378922
1	0xbf8066c5	-1.0031363
2	0x3e82a339	0.25515154
3	0xbf8e7da0	-1.1132088
4	0x3e8b8666	0.27250975
5	0xbeb4aa98	-0.35286403
6	0xbebb0cae	-0.3653311
7	0xbe8fcd87	-0.28086492
8	0xbe66571d	-0.22494169
9	0xbdca8261	-0.09888149
10	0xbe58e290	-0.21180177
11	0x3db70384	0.089362174
12	0xbea38e70	-0.3194461
13	0x3eaa85ae	0.33305115
14	0xbeaca80d	-0.33721963
15	0xbe3f888a	-0.1870443
16	0xbea0f8bd	-0.31439772
17	0x3e7d66b2	0.24746206
18	0xbf210ec5	-0.6291316
19	0x3eb2be18	0.34910655
20	0xbe1f6c82	-0.15568736
21	0x3e6a133a	0.22858897
22	0xbe680350	-0.22657514
23	0xbe6788f4	-0.22610837
24	0xbe110c5c	-0.14164871
25	0xbcad5a23	-0.021161145
26	0xbd95df6d	-0.07318006
27	0xbe925a24	-0.28584397
28	0xbea87c58	-0.32907367
29	0xbe0198b2	-0.12655905
30	0xbe11c6c6	-0.14235982
31	0xbee072d1	-0.43837598
