summaries/vanilla_ResNet2_num_blocks2x1_num_channels16_conv7/ckpt.pth (torch, 527439 bytes, 42 tensors)

module.conv1.weight f4 [16, 3, 3, 3]
00000000: 17bd 21be 573f 5dbe 1667 85bd fcb8 cabd
00000010: 15d8 193d aba7 5bbd 3a20 89bd 9800 e33c
00000020: 0f74 fcbd e8ad 81be e736 4ebe 0a3a 64be
00000030: 42d8 d6bd 2c0c 5a3e a363 99bd 7523 36be
00000040: 6345 023e 1578 4abe 58b5 34be 80f5 0c3d
00000050: 6e71 2ebe c581 893e 2092 403f 7479 933e
00000060: 1800 493e c01a 253f 1119 253e fd5a 8abd
00000070: d952 2abd 1cd6 973e c47e a9bd 7890 3cbd
00000080: 5ad4 8d3e e4a0 983d 4b59 01bd 4353 b33d
00000090: 8b9b 29be dfdd f4bd 6950 6e3e 300c 55be
000000a0: df2b d0bd b95d 843e 8b70 8cbd b05c 79bd
000000b0: c826 f53d c062 1dbe ca02 29bc ea97 ae3e
000000c0: 3f32 28be 334e 263d f5d7 bb3e 8fca acbc
000000d0: 0bb2 913d f4a2 543e fb20 313d 6b6b 9ebe
000000e0: 11ab c0be 7bc9 4b3e c351 53be 6fba 9bbe
000000f0: 7b59 233e b921 bcbd 91ef e8bd 109a 92bd
00000100: 827f 8bbe a23d b0be ea5e db3d 91a4 06be
00000110: 4f70 58be 72d1 0d3e b640 0b3d c9b7 223d
00000120: 25ed cbbc 4543 20be a228 07be e104 953d
00000130: 2a22 2fbe 3fba 3bbe d7c4 823e 87e1 953d
00000140: d142 bf3d a86b 8e3e 25ab 103f bf4a 27bf
00000150: 9f03 273f 346f c7bf e300 913f cd9d cf3e
00000160: 99fe 44bd ccc2 18bf 5821 89be 41b3 08be
00000170: 310f 82be e7d0 23bc 5c57 f9bf f540 da3f
00000180: d056 0c3e deb2 2b3e c5c8 893e c959 a23d
00000190: b1ba 173f 00ba dabe cc92 643e 6eb2 b5bf
000001a0: 03df a63f f769 253e f8e4 e2bc 0eed 3bbd
000001b0: 4f11 f33e 425d d53e 3a41 743e 56ea 173f
000001c0: 0a5f aa3e 28f3 78bd c0e2 e7bd 632c 97be
000001d0: a771 e0be 479e e4bb 9623 68be ba50 bcbe
000001e0: e303 ad3e 4ffc 0ebd 7a99 bbbe 7e4e 143e
000001f0: 0c73 7cbd 453f 03be 4685 593e 3107 07be
00000200: cadc d5be 646d cc3e 0bcf ccbd 5d3b 0dbf
00000210: 1d56 a53e b9dd 2fbc 5e3d 57be 4a81 13be
00000220: 5093 e4be 9b49 94be be13 babe 2e6a 1ebf
00000230: eca2 02bf 8449 97be ef34 0bbf 4300 c4be
00000240: d453 3f3e 5c9f 4f3e f030 083e 4a98 4d3e
00000250: b914 a53e e1be 543e 5073 9cbd b5c0 ac3c
00000260: b428 5c3b 16cc 543d f362 833e a920 0e3e
00000270: 7557 c73e eab2 353f dd44 053f 3ac6 e83c
00000280: bbce a43e c8d6 6b3e f126 633e e73c 483f
00000290: cb40 873e 562e 8fbe 6668 51be 4f50 72be
000002a0: 6433 f8bd 5350 bebe 3030 52be dba9 783e
000002b0: d7bb 6e3f c8d3 e03e 7618 abbe 1bd3 4dbe
000002c0: 06a7 8cbe 8bc5 f9bd 3e04 c8be 662b afbe
000002d0: 09e5 493e 2946 4d3f b243 d33e 9387 b4be
000002e0: 4402 02be 0588 27be e759 62be 5a7f 91be
000002f0: 7706 69be 749d 273d d59b eebb 7ac2 c7bc
00000300: 646e 963d 3a07 3b3d d0bd c2bc 099e c1bd
00000310: 912a 88bd ee3e d4bd b783 803d 3cdd 0a3c
00000320: 7088 0dbd e54a 1c3e 6a81 013e f8fa 233d
00000330: 425b 013c 7e88 313d 748b d5bb 7ea3 8c3d
00000340: c957 8b3c a47e 33bd 388f 383e 6ab7 293e
00000350: 655c 9b3d fd03 953d a2e3 033e f72c a73d
00000360: ba00 cbbd 4bbe 8b3e 0586 bc3e d011 9a3e
00000370: 785f c3bf f08a e4be 923d 90be bdab 543f
00000380: d07a 113f d7f8 bc3d 8d45 363e 2215 5e3e
00000390: 9633 eb3e d800 b9bf 39ce c9be 9b51 88be
000003a0: 8768 583f a982 ee3e 4e3c 2c3e eba6 b43e
000003b0: 8258 b63b e790 573f 74cb 9fbf ace5 1bbf
000003c0: edf9 c8bc 66d6 cd3e a821 63bd 96d2 333f
000003d0: 6513 833f eb8c 323f a52f 9e3e 06ca 60bc
000003e0: bcbc 45be d2c1 65be a647 8abf 5e7c 31bf
000003f0: 00aa 8ebe bba8 a9be 160e f2be 7e30 643d
-0.15794788 -0.21606193 -0.06513803 -0.09898564 0.037559588 -0.053626698 -0.066956 0.027710244
-0.12326824 -0.25327992 -0.20138131 -0.22287765 -0.10490467 0.21293706 -0.07489707 -0.17786963
0.12721781 -0.1977237 -0.17647302 0.034413815 -0.17035457 0.2685682 0.7522297 0.288036
0.19628942 0.6449394 0.16122843 -0.06755636 -0.041582916 0.2965554 -0.08276132 -0.046036214
0.27701074 0.074525625 -0.031579297 0.08756115 -0.16563241 -0.11956381 0.23272862 -0.2080543
-0.10164618 0.25852755 -0.06857403 -0.06087941 0.119702876 -0.15369701 -0.010315606 0.34100276
-0.16425417 0.04060192 0.366882 -0.021092681 0.07114037 0.20765287 0.043244343 -0.30941328
-0.37630513 0.19901077 -0.20636658 -0.30415675 0.15952103 -0.091861196 -0.11373819 -0.07158291
-0.27245718 -0.34422022 0.10711463 -0.13148715 -0.21136592 0.13849428 0.03399726 0.039726052
-0.024893353 -0.15650661 -0.13199094 0.07276321 -0.17102876 -0.18332766 0.25540802 0.073184066
0.09338916 0.2781651 0.56511146 -0.6534843 0.652399 -1.5580812 1.1328396 0.4055008
-0.048094366 -0.59672236 -0.26783252 -0.1334963 -0.25402215 -0.009998537 -1.9479785 1.7051073
0.13704991 0.16767451 0.26910987 0.079272814 0.59269243 -0.42720032 0.22321624 -1.4195077
1.3036808 0.16153704 -0.027697071 -0.04588037 0.47474143 0.41672713 0.23853007 0.59341943
0.33275634 -0.060778767 -0.11322546 -0.29526052 -0.4383671 -0.006976876 -0.22669825 -0.3678034
0.33792028 -0.03490859 -0.3664053 0.14483067 -0.061633155 -0.12817104 0.21242246 -0.13186337
-0.4177001 0.39927208 -0.10000428 -0.55168706 0.32292262 -0.010734015 -0.21019503 -0.14404789
-0.4464364 -0.28962407 -0.36343187 -0.6188077 -0.5102985 -0.29548275 -0.54377645 -0.3828145
0.18684322 0.20275635 0.13299918 0.20077625 0.32242373 0.2077594 -0.076391816 0.021087984
0.0033593597 0.051952444 0.2566143 0.13879646 0.38933912 0.70976126 0.520582 0.028414834
0.32188973 0.23031151 0.22182824 0.7821793 0.2641662 -0.2796504 -0.20449981 -0.23663448
-0.12119177 -0.37170658 -0.20526195 0.24283545 0.9325537 0.43911576 -0.334171 -0.20100062
-0.2747118 -0.121958815 -0.39065737 -0.34212798 0.19716276 0.8018518 0.41262585 -0.35259685
-0.12696177 -0.16360481 -0.22104608 -0.28417474 -0.22756372 0.040921643 -0.00728176 -0.024384726
0.07345274 0.04566119 -0.02377215 -0.09453971 -0.06648744 -0.103635654 0.062751226 0.008475598
-0.034553945 0.15262945 0.12647024 0.040034264 0.007895293 0.04334306 -0.0065168682 0.06867121
0.017009633 -0.043821946 0.18023384 0.16573873 0.07585982 0.07276151 0.12879804 0.08162873
-0.09912248 0.2729362 0.36821 0.30091715 -1.526351 -0.4463725 -0.28171974 0.8307455
0.5682802 0.0922715 0.17799969 0.21687749 0.45937794 -1.4453382 -0.39415148 -0.2662476
0.84534496 0.4658406 0.1681988 0.35283598 0.00556475 0.8420548 -1.2483964 -0.60897326
-0.024533236 0.40202636 -0.05545202 0.70243204 1.0240294 0.69746274 0.30895725 -0.013720041
-0.19310278 -0.22437218 -1.0803115 -0.69330394 -0.27864075 -0.33136544 -0.47276372 0.05571031

module.bn1.weight f4 [16]
00000000: 1d07 2d3f 4838 943e d0a6 6a3f a5ec 8e3f
00000010: b54a d93e bec1 c63e 09ca 573f 0a35 8c3e
00000020: 1912 7f3f 0cfe 1d3f 1c31 4f3f 09f1 8b3e
00000030: bfd7 123f 87f0 3b3f d1a6 d53e 5173 a3bc
0.6758898 0.2894919 0.91660786 1.1165968 0.4243981 0.3881969 0.84292656 0.27384216
0.9963699 0.6171577 0.8093431 0.27332333 0.5736045 0.7341389 0.41728833 -0.019952448

module.bn1.bias f4 [16]
00000000: 4579 9abe 8bfa 9cbd cee2 02bf 6002 383f
00000010: 4eaa 363e f280 333e d919 22bd 4b05 45be
00000020: 3f79 293f 20cf 04be 3bb9 9abd c7dd 953c
00000030: 37b7 aa3e 8f24 8dbe 58d9 e23d 3620 aabd
-0.30170646 -0.07664975 -0.51127326 0.71878624 0.17838404 0.17529657 -0.03957543 -0.192403
0.6620063 -0.12969637 -0.07554861 0.018294228 0.33342907 -0.27566954 0.11076611 -0.08306925

module.bn1.running_mean f4 [16]
00000000: ff09 1f3e b13d 043f f23e 3fbf e3a3 1c3d
00000010: e0f5 3d3d b4f4 403b 3161 97be f541 de3e
00000020: 1c64 bdbd 2be1 a2bd 393e 54bd da8a b4be
00000030: ed5e 573c 77d5 2dbf 8d37 2fbe aed2 c0be
0.15531157 0.51656634 -0.7470542 0.038242232 0.046377063 0.002944273 -0.2956634 0.43409696
-0.0924761 -0.07953104 -0.051817153 -0.35262185 0.013145191 -0.67903847 -0.17111035 -0.37660736

module.bn1.running_var f4 [16]
00000000: 58aa 073e ad59 133e cd76 623e 5691 2b3e
00000010: 1a1c 533e d2a6 853e 554b f83e cea9 773d
00000020: 6136 3f3e 056e 573d 63fa a03e e220 eb3d
00000030: e4a3 d73e f305 0f3e 4b73 e83d 21ad 033d
0.13248575 0.14389677 0.22115631 0.1675466 0.20616189 0.26103836 0.48494974 0.060464673
0.18673088 0.052595157 0.3144103 0.11480881 0.42117226 0.13967113 0.113501154 0.03214753

module.residual_layers.0.0.conv1.weight f4 [16, 16, 7, 7]
00000000: 0bd1 b8bd 9f47 70bd c2ed c6bb 2500 0cbd
00000010: 5995 4abd 784b 46bc f08b c9bc e72b 133d
00000020: 8ac8 ac3d 2c3e 743d fa3f 813c 388e eabb
00000030: 574d a23d 561a 9c3d 5aba d2bd 9247 16bd
00000040: aa33 29bd 16fe 9fbd 37fa 1dbd c911 1bbd
00000050: 5f3b 91bd 7d67 423d 1e3b d73d 2e0f 1a3e
00000060: efd1 363d a6ab 863d f2b8 00bc 45b9 aebd
00000070: c9b0 0b3d 6afc 803d edca c13d 7f6f db3b
00000080: 9352 a7bc 79c5 663c 0641 47bd 101b 523d
00000090: a408 2b3d b8a9 6e3d cb50 e838 7a99 2abd
000000a0: 1856 003c 1984 90bd 6f36 403d 8f3c 023d
000000b0: 429a 593d 41ba c83c 2a73 a93b c6e4 cd3c
000000c0: 044e babd d9ed bb3c 4261 303d 8f91 ef3c
000000d0: 5564 c33c f719 be3c 9136 2a3d 3ae3 fcbc
000000e0: 4f21 a53c 969c e13c 4268 d73c c3ab 653c
000000f0: 9b5f 093d 6cc8 0b3d 5296 a0bc 6101 523c
00000100: 3e74 a3bc de41 acb7 cb57 8d3a 5103 563d
00000110: 3512 263c f04a f1bc 3288 4cbc 6279 b039
00000120: dd75 0a3c 63f9 c03c 35c7 343d 3987 9bbb
00000130: d917 82bd 1fb4 303c 02ac 733d 0a12 3b3d
00000140: 7091 6b3d 3cf8 213d ad35 a7bc 1f73 2dbd
00000150: 8db7 ae3c b0a9 5c3d 676e 5a3d 3a9e dc3c
00000160: 28e7 b13c f75d 07bd 43c2 26bd 8965 943c
00000170: 9ef4 423d 21bd 243d 6469 6dbb 4f4f c73c
00000180: 27ed 5cbc c1df 1cbd b5db 19be e0e7 92bd
00000190: f08d 05be 41a4 babd 5bfc 10be 8aa4 4e3d
000001a0: 0092 90bc cac1 f93c 73bf d53d f4e3 ad3d
000001b0: 0944 993d e518 3abb c431 0f3e 4eaa 663d
000001c0: 5d52 44bd 8830 30bd 21ea 88bd 0292 f7bc
000001d0: 0844 99bd 24d7 423d 074a a5bd aa75 7d3d
000001e0: 054a 9b3d 657d 283d c903 d13d a7cf 043d
000001f0: 3146 073e 667e b7bc e457 f83c 9976 c53c
00000200: 3df1 363c 705d 493d 85ec 8cbd 50b4 01bd
00000210: 07f8 13be bff4 143c a251 6f3b 6b45 263d
00000220: aab9 9d3d b156 0bbd e2ec 0fbd 7bcd 4ebe
00000230: b216 ab3c 20a5 5d3d fff8 ac3d f046 b13d
00000240: d3d0 26bd 7300 ad3c 6785 2fbe 5462 dabd
00000250: 30ff 0b3d 2e77 543e a71b d3bb 59a3 b23d
00000260: 5136 03bd 909a 53bd 47f6 a73e 7331 86bd
00000270: e442 bfbd a2ff 023e 31b7 2abd 295b 343e
00000280: 3694 863d 723c e1bd 2b9f f53d 611c 59bd
00000290: a6c3 02bf 4532 9c3d 7c80 cbbc 0f17 b9bc
000002a0: 3fad 13bd 3734 a3bd b4b9 a2bd 6c4b 893e
000002b0: 90de d5be 1d32 183f 1317 15bf 86e6 da3d
000002c0: 5fc0 523e ab75 2abf 11bb 883e 68c9 f2be
000002d0: ee95 f63e 9491 2fbe e061 bdba 6481 113d
000002e0: ed15 23bd 1297 2ebe b526 ce3e e992 a5bd
000002f0: f79a 863d bf9d 883d ec96 3bbd 78ef 4b3e
00000300: c6b9 92bd f09a 443d 6620 e5bd ef83 c63d
00000310: d9d9 b33c 1fe7 813d 10d0 7d3d da41 003d
00000320: afcf fbbd d165 0c3d 966b d0bd 3f35 913d
00000330: a4c5 a43d c0fe ea3d b417 b73d 5091 91bd
00000340: 69fc 253d c60c 21bd 57bc 403d 79ba a73c
00000350: 6902 843d 09d0 553d 826f b1bd 3240 5dbd
00000360: fb7c efbd c94f f83c 0e16 17bb 87bd 353d
00000370: 969f 103c 3819 a4bd 08e6 39bd 6892 00be
00000380: 75f6 39bc 0187 2fbd 1238 313d 9f65 08bc
00000390: 120d 1bbe 9bc0 7ebd 9162 e9bd cdc1 6a3b
000003a0: d57b f9bc 2efd adbc 0dc8 e5bb ca5a 1abe
000003b0: 9a01 463c 3d85 25bd 1955 8fbd 0ba1 e2bc
000003c0: 417f e3bd 4372 00bd 4972 d7bd 285b 933d
000003d0: e81a d9bc a56d cb3c 2efc 223d b026 b1bc
000003e0: 3a97 53bc eb3a 8fbd f9d4 8abc a5fd 45bd
000003f0: f148 b73d 302b ec3d 0a5d 4e3d 361a 4a3d
-0.09024247 -0.058662053 -0.0060708234 -0.034179825 -0.049458835 -0.012102954 -0.02460286 0.03593054
0.08436687 0.059629604 0.015777577 -0.007158067 0.07924908 0.07622211 -0.1028945 -0.03668935
-0.041309036 -0.07812135 -0.0385687 -0.037858758 -0.07091402 0.047461975 0.105093226 0.15044853
0.044633802 0.06575708 -0.007856594 -0.08531431 0.034104142 0.06298144 0.09462533 0.006696641
-0.020425117 0.014085167 -0.048645996 0.05129534 0.041756287 0.058267325 0.00011077671 -0.041650273
0.007833026 -0.07056446 0.046926912 0.031796034 0.053125627 0.024502875 0.0051711993 0.025133502
-0.090969115 0.022940563 0.043061502 0.029244212 0.023851553 0.02320574 0.041555945 -0.030870069
0.020157484 0.027540486 0.026294831 0.014018002 0.033538442 0.034126684 -0.019602928 0.012817712
-0.01995289 -2.053467e-05 0.0010783611 0.052249257 0.010136177 -0.029454678 -0.012483643 0.00033659773
0.008450952 0.023556417 0.04413529 -0.0047463444 -0.06352205 0.010785132 0.05949021 0.0456715
0.057511747 0.039543375 -0.020411337 -0.042346116 0.021327758 0.053872764 0.053327944 0.026930917
0.02171667 -0.033048596 -0.040712606 0.018114822 0.047596566 0.04021943 -0.0036226148 0.02432981
-0.013484276 -0.038299326 -0.15025218 -0.07173133 -0.13042426 -0.0911336 -0.14158766 0.050449885
-0.017647743 0.030487914 0.10436907 0.08490744 0.0748368 -0.0028396186 0.13983828 0.05631476
-0.04793011 -0.043015033 -0.066852815 -0.03022099 -0.07483679 0.047568455 -0.0807076 0.06187979
0.075824775 0.04113521 0.102058 0.032424595 0.1321037 -0.022399139 0.030315347 0.024104403
0.011165914 0.049161375 -0.0688105 -0.0316661 -0.14450084 0.009091555 0.0036517163 0.040593546
0.07701428 -0.034018222 -0.03513802 -0.20195572 0.020884845 0.054112554 0.0844593 0.086561084
-0.040726494 0.021118378 -0.17140733 -0.10663286 0.034178913 0.20748588 -0.0064425054 0.08722562
-0.032034222 -0.051661074 0.32805082 -0.065524004 -0.0933893 0.12792829 -0.04167861 0.176129
0.06571238 -0.10997857 0.119932495 -0.05300558 -0.51079786 0.07626776 -0.02484154 -0.022594003
-0.036053892 -0.079689436 -0.07945576 0.26815355 -0.41771364 0.59451467 -0.58238333 0.106885
0.20581196 -0.665858 0.2670522 -0.47419286 0.48161262 -0.17145377 -0.0014448725 0.035523787
-0.039815832 -0.17049816 0.40263906 -0.080846615 0.06572526 0.06670713 -0.045798227 0.19915569
-0.0716434 0.047999322 -0.1118782 0.09693133 0.021954464 0.06342911 0.061966002 0.0313128
-0.12295472 0.034276787 -0.101767704 0.07090234 0.080455095 0.11474371 0.08940068 -0.07107794
0.04052392 -0.039318822 0.047054615 0.02047466 0.06445772 0.05220035 -0.086638466 -0.0540163
-0.1169376 0.030311482 -0.0023053917 0.0443702 0.008827111 -0.080126226 -0.04538539 -0.1255585
-0.011350264 -0.04285336 0.043266363 -0.00832501 -0.15141705 -0.0621954 -0.11395753 0.003582108
-0.030454556 -0.02123889 -0.0070123733 -0.15073696 0.012085343 -0.04041027 -0.06998653 -0.027664682
-0.11108256 -0.03135897 -0.10519845 0.07195121 -0.026502088 0.024832556 0.03979128 -0.021624893
-0.012914473 -0.069936596 -0.016947256 -0.048337597 0.08949459 0.11531675 0.050381698 0.049341403

module.residual_layers.0.0.bn1.weight f4 [16]
00000000: f32f 433f 9fde 003f 96c0 663f 7031 363f
00000010: 27af 963f 2949 2a3f 8c18 313f 4b4c 283f
00000020: de33 253f 725e 3f3f 5263 443f 18f6 893f
00000030: f4f9 3e3f 773e 863f 384b 503f e4dd 723f
0.7624504 0.5033969 0.9013761 0.71169186 1.1772202 0.66517884 0.6917808 0.65741414
0.6453227 0.7475349 0.7671405 1.0778227 0.7460015 1.0487813 0.81364775 0.9486983

module.residual_layers.0.0.bn1.bias f4 [16]
00000000: f793 373f f3c9 7dbd ead0 a5be ee0e f8be
00000010: 94a6 12bf 09a0 cbbe 0f91 e7be 001e 19be
00000020: d583 c7be 5fd0 7fbe 7a71 ddbe 0017 5b3f
00000030: ea90 bcbe 8a80 a7be 3726 9fbe f16f e73e
0.7171015 -0.061960172 -0.3238595 -0.4844889 -0.5728543 -0.39770535 -0.45227858 -0.1495285
-0.38967767 -0.24981831 -0.43250638 0.8558197 -0.3682931 -0.32715255 -0.31083843 0.45202592

module.residual_layers.0.0.bn1.running_mean f4 [16]
00000000: e7a2 97bf 8f7a 2abf 3a82 39c0 dec7 f1be
00000010: b733 2cc0 ed7c ffbe 4c18 0740 9165 cfbf
00000020: 972d 12c0 de7d 0dbf 4575 1abe 59f5 1fc0
00000030: e010 87bf b284 2dc0 6e48 dfbe 6622 3fc0
-1.1846589 -0.6659326 -2.8985734 -0.472228 -2.6906564 -0.49899998 2.110858 -1.6202871
-2.2840326 -0.55270183 -0.15083797 -2.4993498 -1.0552025 -2.711224 -0.43609947 -2.9864745

module.residual_layers.0.0.bn1.running_var f4 [16]
00000000: 27f9 6b40 ad1e 3740 da45 7240 9fbf 4940
00000010: a20b b640 d2da 2740 aeff 0440 e2c2 2640
00000020: e151 9740 4486 a240 cfd2 0e40 5a38 e540
00000030: bad9 2640 c601 5840 97d0 7340 fedc c940
3.687082 2.8612473 3.7855134 3.1523206 5.68892 2.6227307 2.0781054 2.6056447
4.728745 5.07889 2.2316167 7.163129 2.607039 3.3751082 3.8096063 6.3082266

module.residual_layers.0.0.conv2.weight f4 [16, 16, 7, 7]
00000000: 2e86 a53d 67e9 f73a c6ce 573d f600 8ebd
00000010: 4f05 e23d 89dd 133e a969 583e 9ac6 da38
00000020: 2758 86bc 8ccd 31bd ea10 70bd ae59 133d
00000030: d974 c03d 9090 543e ae04 1a3d 8b26 f6bc
00000040: 30c7 e9bd cb14 783c 16b2 173e cd40 833e
00000050: 7530 f63d 4cc1 98bd 2ddc 1fbd 0180 18be
00000060: c19d 24bd fc8a dd3c d9c6 533e 11d5 053e
00000070: 3884 84be b43b 70be a3f2 7ebe ab54 edbd
00000080: ad1a 393d d8c3 483d 21b8 b73d 44bd 113c
00000090: cedc 98bc 512f c4bd 79a5 df3c 324c f03d
000000a0: d669 183e adfc a13d bc98 c7bd 2b45 a5bd
000000b0: 3ab8 ffbd 5d8f c7bd 985a b0bd 4f4c e93d
000000c0: 1a25 e93c 61f1 9abd 61e8 45bd a52f 0ebd
000000d0: 25ab bbbd 550f 4abd b80c aabd dcae c53c
000000e0: c340 e2bd c3e3 8cbd 7e5b 14bd 203f 8dbd
000000f0: fa62 20bd 524f 91bd 1ceb 653c 8688 7cbd
00000100: 15cc d2bc b8f3 96bc 47dc 80bc 60ae adbc
00000110: 5559 7abd cda6 3ebc 392e f73c f1e6 e63c
00000120: b14f 013d 24f7 24bc 9827 3fbd b741 f6bd
00000130: ce71 69bd f60e 8fbc 36fe e6bc 6e90 18bc
00000140: d4c6 b8bd e634 c1bd 63bc c7bd c041 78bd
00000150: 4054 f6bd 492c d3bd 633b e6bd e41b 19be
00000160: b37d 29be 83f7 f1bd d18e debd 2ed4 b0bd
00000170: 2e5b 17bd 29fc 82bd d7d4 7cbd 080c d1bd
00000180: f3ce 7fbd f436 26bd 3b65 98bb 50af acbc
00000190: 5c4a 94bc 823b 35bd 8f51 dcbd 94ea 50bd
000001a0: 3c5e dfbd f676 ab3c 6975 373c 6d67 053c
000001b0: fb39 873b e7d9 96bd 7e6f 7fbd cb0a ffbd
000001c0: dc98 383e f623 373e 70a9 153e 5cf4 a13d
000001d0: 8db7 9639 a237 363c e294 bcbd 600a 3c3e
000001e0: a51d 383e 76c1 de3d c7c8 b33d 881b 19bc
000001f0: fb77 173b 5c1a 0ebe cf1d d93d fa7f a03d
00000200: e515 403d 1bf6 b83d 6335 1b3d 7fec b63c
00000210: 2cc8 c1bd 75d1 4b3d bc63 ff3c 4d9f 643c
00000220: 31bf b93d 3550 2e3d 3386 1b3d 5736 abbd
00000230: 5b70 83bd 02e6 04bd dfe5 c6bd 2b68 a1bd
00000240: 0ad4 d9bd eebc 9ebd e3f2 32be a550 6d3d
00000250: 6e17 283d c7fd 363d c483 413d 29d6 9a3c
00000260: 3ceb 22bc 610a 94bd da5d 203e ff53 ed3d
00000270: 0fbf 6a3d 7df6 4f3c 42f8 e1bc 44c2 91bc
00000280: 1561 adbd d174 fc3d 3f82 ba3d d009 633d
00000290: 3b51 c83c c536 e1bc 096e 05bd d753 87bd
000002a0: 139a 2d3e ca5d 203e 2157 273e a19b 003e
000002b0: fdb6 553d 753f bd3c 148e 5cbd 6f07 bb3d
000002c0: c569 d23d f5e6 013e fc4f 943d 1a9c 9bbd
000002d0: 8026 59be 7dac 90be 5e52 babc 4379 0ebd
000002e0: bd39 74bd f786 b4bd 1da8 febd 8e26 35be
000002f0: 4cff 77be c063 e6bc 47ae 41bd 6000 53bd
00000300: b5c5 36bd 231c 8bbc fbb5 53bc c4f0 03bd
00000310: 5931 69bd e483 363d cdbb 1b3e 5583 a33e
00000320: eef2 633c e23b 0abc a7d9 71bd 0ebd 3fbb
00000330: c884 8c3d d0cc ef3d 15b8 9d3e 2848 653e
00000340: 8997 a03c f689 82bd 89c3 61bd fdb8 5dbd
00000350: 6787 953d 2525 483e c6c7 5b3e 5ba8 963d
00000360: 1b4f dcbd 079f 80bd 2eec 16be 6dad 39bd
00000370: 5c9a 6f3e e6e4 943e e573 783e 3557 3f3c
00000380: bf2b a7bb 95eb 95bd 6510 38be 2119 84bd
00000390: 78cd 303e aff1 3d3e 1d1a fdbc 921e 5a3c
000003a0: fa24 c2bd 13e7 80bd c89a d2bd 0606 90bd
000003b0: 53a7 3b3d b62c 1bbb 9214 0bbe 112c 233b
000003c0: 37ff 383b 236a a0bd 2486 0dbc 161e 6b3c
000003d0: 7c61 f7bc 9f43 13ba 6b75 573d 69a7 d53c
000003e0: b883 3cba 39e0 f6bb 9c44 17bd c68e a4bd
000003f0: 736d 86bc 03e4 ef3b 1a8e 12bc f8f7 933b
0.08082233 0.0018914164 0.05268743 -0.06933777 0.11036169 0.14439978 0.21134056 0.000104320425
-0.016399456 -0.043408915 -0.05860988 0.035974197 0.09397287 0.20758271 0.03760212 -0.030047676
-0.11414945 0.015141676 0.14814028 0.25635377 0.12020961 -0.074587435 -0.039028335 -0.1489258
-0.04018951 0.027043812 0.20681323 0.1306956 -0.25882125 -0.23460275 -0.24897246 -0.11588415
0.045191456 0.049014896 0.08970667 0.008895222 -0.018659975 -0.095793374 0.027300583 0.11733283
0.14884123 0.07909522 -0.09745929 -0.08069833 -0.1248631 -0.09744141 -0.086110294 0.11391508
0.028460074 -0.075655706 -0.048317317 -0.034713406 -0.091635026 -0.049331028 -0.08303207 0.024131231
-0.110475086 -0.068793796 -0.036220066 -0.06896806 -0.03915689 -0.07095207 0.014033105 -0.061653636
-0.02573208 -0.018426761 -0.015730036 -0.021201313 -0.06112035 -0.011636448 0.030173408 0.028186293
0.03157014 -0.010068689 -0.04666862 -0.12024253 -0.0569933 -0.017463189 -0.02819739 -0.0093117785
-0.090222985 -0.09433918 -0.09752729 -0.06060958 -0.12027788 -0.10311181 -0.11241796 -0.14952046
-0.16551857 -0.11814787 -0.10867084 -0.0863422 -0.03695219 -0.06395752 -0.061726417 -0.10207373
-0.06245322 -0.04057975 -0.0046507395 -0.02107969 -0.018101864 -0.044246204 -0.107577436 -0.05100496
-0.10906646 0.020930748 0.011197426 0.008142334 0.004126785 -0.0736578 -0.062362187 -0.124532305
0.18027061 0.17884812 0.14615417 0.07907936 0.00028746985 0.011121662 -0.09208085 0.18363333
0.17980058 0.108767435 0.087785296 -0.009344943 0.0023112285 -0.13877243 0.10601389 0.078369096
0.04689588 0.09031316 0.03789271 0.022329567 -0.09462008 0.0497603 0.031175487 0.013953996
0.0906967 0.04255696 0.03796978 -0.08359974 -0.064179145 -0.032445915 -0.09711813 -0.078811966
-0.10636146 -0.07750879 -0.17475466 0.057938237 0.04103797 0.044675615 0.047244802 0.018900948
-0.00994378 -0.07228542 0.15660802 0.115882866 0.057311114 0.012693045 -0.027584199 -0.017792828
-0.084657826 0.123269685 0.09106874 0.05542928 0.024452796 -0.027491936 -0.03257564 -0.06607788
0.16953306 0.15660778 0.16341831 0.12559368 0.052176464 0.023101548 -0.053846434 0.09132277
0.1027408 0.1268576 0.07241818 -0.075981334 -0.21206093 -0.28256598 -0.022744354 -0.034783613
-0.059625376 -0.08814805 -0.12434409 -0.17690489 -0.24218482 -0.028123736 -0.047285344 -0.05151403
-0.044622142 -0.01698119 -0.0129218055 -0.032212034 -0.056931827 0.044559374 0.15208359 0.31936136
0.013912899 -0.008437129 -0.05904546 -0.0029256972 0.068612635 0.11708987 0.30804506 0.22390807
0.019603508 -0.0637397 -0.055118117 -0.054131497 0.073012166 0.1954542 0.21462926 0.0735633
-0.10757276 -0.06280332 -0.14738533 -0.045331407 0.23398727 0.29080886 0.2426296 0.011678507
-0.0051016505 -0.07320324 -0.17975004 -0.064501055 0.1726588 0.18549226 -0.03089624 0.013312953
-0.09479709 -0.06294074 -0.102834284 -0.07032399 0.04581387 -0.0023677773 -0.13582066 0.0024898092
0.0028228292 -0.07832744 -0.008637939 0.014350435 -0.030197851 -0.00056176813 0.052602213 0.026080804
-0.00071912585 -0.0075340536 -0.036930665 -0.08035044 -0.016409611 0.0073208823 -0.008945012 0.004515644

module.residual_layers.0.0.bn2.weight f4 [16]
00000000: 3780 573f a71e ab3f 60e6 6d3f de6c cb3f
00000010: 2243 783f 9a50 393f eb2b 8b3f 41a5 a93f
00000020: b0f5 9e3f 9b89 a03f 76b1 553f b62b 593f
00000030: 6e5f a83f 2d63 3c3f b7fb 123f 4cf9 7f3f
0.84180015 1.3368729 0.9292965 1.5892599 0.96977437 0.72388613 1.0872778 1.3253556
1.2418728 1.2541994 0.8347391 0.8483232 1.3154123 0.7358883 0.57415336 0.9998977

module.residual_layers.0.0.bn2.bias f4 [16]
00000000: bf62 cdbe 6990 75be e84e b7be ba6e c0bf
00000010: 651a 89be daf7 21bd 61c8 b5be 905d b0be
00000020: 16cc acbf 1113 c2be 9d6f 7fbe 553f cfbd
00000030: 91a1 34bf 5913 87bd 8364 9fbd 5e9f f83d
-0.401144 -0.2398087 -0.35802388 -1.5033791 -0.2677795 -0.03954301 -0.3550444 -0.34446383
-1.3499782 -0.37905172 -0.24944921 -0.101195015 -0.7055903 -0.06595487 -0.07782843 0.12139772

module.residual_layers.0.0.bn2.running_mean f4 [16]
00000000: e83c cb3d c21f 07c0 f8e6 d1bf 56aa 84bf
00000010: 12c3 86bf eaeb e2be fdab 96be 5cfe 9d3c
00000020: 439a 18bf d484 50bf 12ca e5be d9ff ccbf
00000030: c718 3ebf e554 113f 6eef f03e dcd2 17c0
0.09923726 -2.1113133 -1.6398611 -1.0364482 -1.0528281 -0.44320613 -0.29428092 0.019286327
-0.59610385 -0.8145268 -0.4488073 -1.6015579 -0.7425656 0.56770164 0.4705767 -2.3722448

module.residual_layers.0.0.bn2.running_var f4 [16]
00000000: a99a 6740 46f8 1441 0d9d 6240 fc4e 5541
00000010: 51ea 8640 3879 8740 8a5e 0641 b86a 9b40
00000020: ab6e d640 b560 b040 77e7 9040 ab86 ae40
00000030: 4aa5 e140 de67 5940 75e8 5c40 c069 ba40
3.6188147 9.310614 3.5408356 13.331783 4.216103 4.233547 8.398081 4.856777
6.7010093 5.511805 4.528255 5.453939 7.051427 3.3969646 3.451688 5.825409

module.residual_layers.0.1.conv1.weight f4 [16, 16, 7, 7]
00000000: 988b 0abd b143 a63d 7b4e 563d d9d4 90bc
00000010: 20d7 98bd 9a95 5c3b 78d7 313d 2756 0bbd
00000020: 80c4 d33d 05bb b33d b51d 893c 1d70 69bc
00000030: decb 6a3d 1d0b c73d 5ec7 c3bd 497b f53b
00000040: a84d 9c3c eb46 fbbb f31b c7bc 51c9 eebc
00000050: 5405 b73b c834 e9bd acf4 febb b8d9 f53c
00000060: 68e9 36bd 9a0c a6bd 8730 d3bd 507f a1bd
00000070: fa86 f5bd 10cb 38bd bea3 3abc 95b6 6fbd
00000080: 6c86 afbd f3e5 fcbd ceb0 ecbd b8de e9bd
00000090: 901e 97bd 43e4 08bd aae4 9bbd 5527 75bd
000000a0: 9292 e6bd f056 cebd 4539 9bbd 38a6 78bd
000000b0: a3d6 313b 226e c3bd ef00 bcbd 253c d7bd
000000c0: 3bfd 9fbd ca39 503d 09d5 ea3d e657 e93d
000000d0: 86ec 5c3c 9aeb 06be da54 9fbd b81c 8bbd
000000e0: 6321 053d e29c 1f3e 47a5 52bc 6584 e6bb
000000f0: 46f4 a2bd a130 afbd 2b84 a2bd 4f99 003e
00000100: f6a6 9c3d 6439 15bd 3ace 2c3d ec39 81bd
00000110: 04e1 9cbd 5ef9 35bd e741 013e 6c66 a5bb
00000120: 6e52 873c c9ce bd3d 4814 42bc 02b7 84bd
00000130: d5d5 b7bc bded d7bc 31bd 5bbd 0deb 833b
00000140: b178 0f3d 235a 31bd 2ee1 d7bd e835 b6bc
00000150: f220 01bd c154 46bd bb85 22bd 65ce a7bb
00000160: 2e9b 93bd d5d2 2cbe 7ff8 89bd 7f4b b2bd
00000170: f864 ccbd fd70 d8bd ace5 8bbd 9dcc 2fbe
00000180: b865 50be 6e6e 19be 7087 6e3d 6548 2a3e
00000190: 6cf8 9f3d 6d76 313e 9556 303e e5a7 f43d
000001a0: f1db 0c3e e6a9 d4bd acec 2fbd 178c 95bd
000001b0: aea3 993c e248 dc3c 59c6 6b3b e390 7e3c
000001c0: c4df c9bd 5df6 35ba c56e 8bbc 82c9 cc3d
000001d0: 257a 813d 6ba5 b73c f562 4e3d 0b89 04be
000001e0: 494d 4cbd b391 36bd d702 6f3d 1e4f 143d
000001f0: dafd f83c f85d 823d 8b15 25be 18d4 60bd
00000200: b5cf 95bd 7306 233d cf87 95bc 3937 393d
00000210: d6e4 8f3d 1d6d 07be 8978 85bd e2c0 acbd
00000220: 312c f1bc 3eb4 8abd 48b6 d2bc 4a67 433d
00000230: 632a 11be 6ebb 98bd c4b6 c2bd b6fe 7bbd
00000240: 2f04 aebd 8dca d6bd 2986 9ebd b35c 09be
00000250: be5a 433e 8600 a83c 5b1b e23d 4a07 e43c
00000260: 7860 8fbd 75b8 a13d 12b3 2d3d 5d7d 513e
00000270: 375f ad3d 13e7 eb3d 8f34 5c3b 6875 9abd
00000280: a438 8c3d fb0b 183e 852e 3a3e fa76 303e
00000290: 0d80 723e 43cc 9c3d 1114 f33c 8f9b 063d
000002a0: 28c2 463d 3a86 9c3d 9c36 073e 1203 623e
000002b0: a37f 313e 0660 163d 674e 333d 768a 59be
000002c0: 1985 8e3c 36c9 4f3c cdaf e63d a149 453d
000002d0: 07cf 11be 78c2 20be 1931 44be 74af 83bb
000002e0: 6723 403d 797a ab3d b362 923c a667 c8bd
000002f0: 41f4 13be 3d5f d3bc 0df6 a4bc 7988 aa3d
00000300: bd2a 183c d310 e43d a7ee 4ebe 9f05 47be
00000310: 5af8 97bd c33f 6dbc f391 633d 1401 fb3d
00000320: 2e99 103e 434f 433d 9567 3e3e b2cf ccbd
00000330: 0234 1abc d955 dfbb d74e 833c 21c3 d43c
00000340: 505c 43bd d92f 303d 1d33 24bd 1d00 7ebb
00000350: 1013 ae3c 2f82 bd3d 7a7e a03d 3dca 5abd
00000360: 956b 393d 0c15 3e3b 0ec4 49bd 2b60 543d
00000370: 4ac4 aa3d 15d1 aa3d e75e 5dbd 552c 663d
00000380: fab5 6bbd f9f4 47bd aff8 973d c141 a73d
00000390: e796 a73d 05d1 bb3a f13a 553d 84ef 27be
000003a0: 7675 09be dc44 9bbd 8ef9 48bd 1c27 7fbd
000003b0: 9c54 0fbe 6761 34bd ba90 b3bd 532d 95bd
000003c0: 5026 01bc 955b 203d 6029 153d c854 e9bd
000003d0: 84e2 803c 3bee a0bc 6e76 133d 4226 09bb
000003e0: 21b8 eaba d5eb 673d d0fe 593d 366b 103e
000003f0: 9986 4dbd 0ddb b43c 3863 49bd bb78 1cbd
-0.033824533 0.0811838 0.05232094 -0.017679619 -0.07462907 0.0033658505 0.043418378 -0.03401771
0.10340214 0.087759055 0.016737798 -0.014247921 0.05732333 0.097189166 -0.09559511 0.0074915034
0.019079998 -0.007668366 -0.02430532 -0.02914873 0.005585352 -0.1138702 -0.007780632 0.030011043
-0.044656187 -0.08107872 -0.1031199 -0.07885611 -0.11988635 -0.04511553 -0.011391578 -0.058523733
-0.08570561 -0.12348547 -0.1155716 -0.11419433 -0.07378876 -0.033420812 -0.076119736 -0.059851963
-0.11258425 -0.10075176 -0.07579283 -0.060705394 0.002713599 -0.095424905 -0.091798656 -0.105095185
-0.07811972 0.050836362 0.114664145 0.113937184 0.013484126 -0.13175812 -0.07779856 -0.06792587
0.032502543 0.1558719 -0.012856788 -0.0070348256 -0.07956748 -0.08554197 -0.07935365 0.12558483
0.07649033 -0.036431685 0.04218886 -0.06309876 -0.07660106 -0.04442727 0.12622796 -0.00504761
0.016518798 0.09267957 -0.011845656 -0.064802185 -0.02244083 -0.02635848 -0.053647224 0.004025823
0.03502721 -0.04329885 -0.105409965 -0.022242501 -0.03152556 -0.04842067 -0.039678317 -0.0051210397
-0.072073326 -0.16877301 -0.0673685 -0.08705806 -0.09980196 -0.10568426 -0.06830916 -0.17167898
-0.20351303 -0.14983532 0.058234632 0.16629179 0.078110546 0.17330332 0.17220528 0.11946086
0.13755776 -0.10383968 -0.042950317 -0.07302111 0.018754806 0.026890222 0.0035976379 0.015537473
-0.09857133 -0.0006941313 -0.017020592 0.09999372 0.06322125 0.022417745 0.05038734 -0.12942903
-0.049878392 -0.044572543 0.058352318 0.036208265 0.030394483 0.06365579 -0.16121499 -0.05488977
-0.073150076 0.039801072 -0.018253235 0.04521868 0.07026069 -0.13225217 -0.06517131 -0.08435227
-0.029440017 -0.0677266 -0.025721684 0.047705926 -0.14176326 -0.074576244 -0.09507516 -0.06152221
-0.08496892 -0.10487852 -0.07740433 -0.13414268 0.19077584 0.020508062 0.11040374 0.027835507
-0.07000822 0.078965105 0.042407103 0.20457979 0.084654264 0.11518683 0.0033600663 -0.07541925
0.06846741 0.1484832 0.18181808 0.17232886 0.2368166 0.07656147 0.029672654 0.032863196
0.048525006 0.07642789 0.13204426 0.22071484 0.17333846 0.03671267 0.043775942 -0.21244225
0.01739745 0.01268225 0.11264 0.04816592 -0.14239131 -0.15699184 -0.19159354 -0.0040187184
0.046908762 0.08372969 0.01786933 -0.09785394 -0.14448644 -0.02580225 -0.020136857 0.08326811
0.009287533 0.111360215 -0.20208226 -0.19435738 -0.07420416 -0.014480534 0.05555911 0.12256065
0.14120933 0.04768301 0.18594201 -0.10000552 -0.009411814 -0.0068156538 0.016028805 0.025971951
-0.047695458 0.04301438 -0.040087808 -0.0038757392 0.021249324 0.09253346 0.078366235 -0.053415526
0.045268614 0.0029004244 -0.049259238 0.051849525 0.083382204 0.083406605 -0.054045584 0.056194622
-0.057546593 -0.04881761 0.074204795 0.081668384 0.08183079 0.001432926 0.052058164 -0.16399962
-0.13423714 -0.07581493 -0.04906612 -0.062293157 -0.1399712 -0.044038203 -0.08767839 -0.072840355
-0.00788267 0.03914984 0.03641641 -0.11393124 0.015733011 -0.019644847 0.036001615 -0.0020927344
-0.0017907658 0.05662139 0.053221524 0.14103398 -0.05017719 0.022077108 -0.049166888 -0.038201075

module.residual_layers.0.1.bn1.weight f4 [16]
00000000: 509c 643f b3c8 613f a88c 413f c4cd 753f
00000010: 419d 623f 3506 353f 497b 793f ad74 623f
00000020: 6f5f 643f 7e09 2f3f 8a00 7c3f 481f 6c3f
00000030: 9163 633f 1d86 523f 3c1d 523f 391e 853f
0.89301014 0.8819687 0.7560525 0.960171 0.885212 0.70712596 0.97453743 0.88459283
0.8920812 0.6837386 0.9843832 0.9223523 0.888238 0.8223589 0.8207586 1.0399848

module.residual_layers.0.1.bn1.bias f4 [16]
00000000: 787f 37be 4e10 1bbf 4f21 42bf d684 dfbe
00000010: 7b6a acbe 95cf 19bf 0e98 e5be 919b e4be
00000020: 0b67 8abe 850d edbe 3aa0 c9be f35b bbbe
00000030: 2cac 0abf afc3 dcbe 4a2c fdbe e112 9fbe
-0.17919719 -0.60571754 -0.75832075 -0.43656033 -0.33674988 -0.6008237 -0.4484257 -0.44649938
-0.2703174 -0.46299377 -0.39380056 -0.3659359 -0.54168963 -0.43118045 -0.49447852 -0.3106909

module.residual_layers.0.1.bn1.running_mean f4 [16]
00000000: 1c7c c6bf fb26 40c0 93e7 74bf 4965 5dc0
00000010: 1d79 99bf a64f 533e d07c 31bf 4dcd 45c0
00000020: 2cb1 46c0 0884 56bf 70c5 77c0 141a 8cc0
00000030: e49d 9cbe 5b84 33c0 6eb6 e2bf 0af0 78c0
-1.5506625 -3.0023792 -0.95665854 -3.459307 -1.1990086 0.20635852 -0.69331074 -3.0906556
-3.1045637 -0.83795214 -3.8714256 -4.3781834 -0.3058921 -2.8049533 -1.7711923 -3.8896508

module.residual_layers.0.1.bn1.running_var f4 [16]
00000000: 2b23 1741 6a28 1d41 32f2 bb40 d1fd 7141
00000010: 75ec 2141 6c3f f640 f77d 6241 1f8f 1e41
00000020: f40f 8241 3a0d f540 60e5 2f41 1de1 7b41
00000030: 830f 4041 b8c1 2741 7539 3541 5b36 4c41
9.446086 9.822367 5.873315 15.124467 10.120229 7.695242 14.155753 9.909942
16.25779 7.6578646 10.9935 15.742459 12.003787 10.484795 11.326528 12.76327

module.residual_layers.0.1.conv2.weight f4 [16, 16, 7, 7]
00000000: a8ac 9abd 7145 e9bc 6a0e 9c38 85b9 0d3a
00000010: d108 cc3d c967 4abd b4cb ea3b f901 26bc
00000020: e77e 843c 2efe 2b3c 78b3 593d 6752 173e
00000030: 1815 013d c256 ad3d 4238 4cbd 0996 7cbb
00000040: c958 22bd 33c3 2a3c 19b3 e83d 607c 123d
00000050: eeec cd3d 15b2 f5bc 8e82 e93c 19fb 15bc
00000060: d2cf 053d 3809 2c3e cdfc d83d e901 253e
00000070: 3b46 42bd f7e7 4a3c 6269 35bd 0a3c 8db9
00000080: ec69 8f3d 4e20 1f3d 552e f83d 3f2a 85bb
00000090: d1d8 2a3d 332f 8abc ea99 21bd 0ee7 64bc
000000a0: 7cd8 60bd 471b 643d c914 3fbc 4a05 cf3c
000000b0: 118f 07bd 6b33 a3bd 144b a1bd 5fa4 f7bd
000000c0: 5539 3cbc 5d99 9dbd 1a09 9bbd 4622 3ebd
000000d0: 15e6 fbbb e82f 573d b7db 213d 28d6 cb3c
000000e0: 9510 adbd a0a1 65bd 4be1 0dbd 55f6 1cbd
000000f0: 882c 1f3d 9184 5fbc 6a53 92bc 14d7 4dbd
00000100: 75f0 4bbd d915 813b 350c a4bc d95c 573d
00000110: e06c 373d a6f8 a33b 92a3 9bbd de63 0ebc
00000120: 40e0 a73c e9a3 393d 5e72 4c3d d9a8 983d
00000130: c3e7 013d e2f6 48bc f671 e83c f5fc 813d
00000140: d029 bc3d a58f 403d 51ec 593d 20d1 593c
00000150: 5e61 9e3c eadf 2c3d b771 9b3d f49a ae3d
00000160: ea7c 803d 130e 383c acf9 fb3b 90b2 9cbc
00000170: 75ec 3939 80bc a93d eac2 373d c901 793d
00000180: fd99 2bbd 4a13 e7bc a495 76bc d2e1 f0bc
00000190: 0188 66bd 51af b93a e0f2 533d 1766 b03d
000001a0: c1db 993d 21ad babc ea60 25bc 2a9d a9bc
000001b0: e5b5 d93c 809a 3e3d 2935 8d3d 8590 863d
000001c0: 45c1 9dbc 2068 d4bb 0e43 2cbc 19fc 9e3c
000001d0: ca67 1a3d 9a5e 2f3d e51b 6f3d 16d8 6ebc
000001e0: 0500 27bd 97e9 d2bc 0b70 3f3d d0ad 143d
000001f0: 6b0a 3c3d 85b1 3a3d 65f3 74bd 3a02 24bd
00000200: cd30 8abc 3637 1e3d 6947 d63b bbb6 ee39
00000210: 3c4c c63c 72c7 89bc 0d5f 233d 520a 343d
00000220: a452 bd3d 576c 5e3d 8a42 293d 33f4 c93c
00000230: db63 e1bd cfdc 29bd cead b53b 283b e23d
00000240: 3c49 943d 0424 cd3c ec68 b2bc 3548 d23d
00000250: c0b8 a63c 3e50 793d 490d b03d bfaa 363d
00000260: a328 663d f5f4 32bc 9960 733d 852a b0bb
00000270: 6d42 723d 88b5 433d 088f f2bc be89 35bb
00000280: b493 75bc 0569 f43c bb64 82bc 3835 3f3d
00000290: e362 673c 9c14 5abd 4de6 d23b 44a4 613c
000002a0: 2bd1 ba3d a178 a53d eac1 973d 1fbf d1bb
000002b0: daf7 71b9 869e 333c 1146 7fbc 9be0 403d
000002c0: 740b 913d ca62 663d 5306 123d 1d34 933d
000002d0: 5e0a 623d 465d d03c 5b51 de3d ac3e f03d
000002e0: 5798 a63d 30d6 823d c5c3 963d 4228 6f3d
000002f0: 4a5f 823c 440e 013e e30f e43d bc06 863d
00000300: e925 613d 555d a63d 88bf bb3d c253 203d
00000310: bfee c53d b13d 613d ca79 a33c 61b4 7e3c
00000320: 1f18 7e3c c447 9a3c 810c d1bc c9e0 e83d
00000330: 53f2 573d edd3 cd3c e440 ebbc dc24 80bd
00000340: 0e6e 87bd c568 a4bd 212a e83d ae3f ae3d
00000350: 2b60 a13d 6723 83bc 6e85 95bd 238d 88bd
00000360: 6329 5fbd 41ac 393d 55bf 613d 8b76 703d
00000370: 3984 ffbc dd75 2cbd 76b2 cdbc 7946 0f3c
00000380: 405b c9bd 04c9 a3bd 3b13 00bc 4099 41bd
00000390: 542b 4bbd dfac c8bc f395 05bd fe2a 01be
000003a0: dae3 b7bd 7a93 c6bb 2e42 a7bc acb4 32bc
000003b0: ea98 183d e5eb 8c3c 0b80 32be a82e 29be
000003c0: 95dc debd 30b4 edbd 1c30 c7bd b1d6 4dbd
000003d0: 4b87 e6bd c4c0 c93d a3cc c83d 82cd d53d
000003e0: e1fd 2fbc 0767 ee3c 4c7f 983c d1c4 833d
000003f0: ebc3 43bc 98f6 3b3b 30a5 0a3d 5613 94bd
-0.07552463 -0.028475495 7.4413445e-05 0.00054063677 0.09962619 -0.049415383 0.0071653966 -0.010132306
0.016173793 0.010497613 0.05314967 0.14777528 0.031514257 0.08463813 -0.04985834 -0.0038541576
-0.039635453 0.010422516 0.11362285 0.035763144 0.100549564 -0.029992143 0.028504636 -0.009154105
0.032668896 0.16800392 0.10595093 0.1611401 -0.04743026 0.012384406 -0.044289954 -0.00026938348
0.07002625 0.038849168 0.12118212 -0.004063874 0.04171068 -0.01686821 -0.039453425 -0.013971103
-0.054893956 0.055690076 -0.01166267 0.025271077 -0.033095423 -0.079687916 -0.07875648 -0.12091898
-0.011488278 -0.07695267 -0.07570095 -0.046419404 -0.00768734 0.05253592 0.039516177 0.024882391
-0.084504284 -0.05606234 -0.034638684 -0.038320858 0.038860828 -0.013642446 -0.01786204 -0.050253943
-0.049789865 0.003939372 -0.020025352 0.05257878 0.044781566 0.0050040064 -0.07599558 -0.008690802
0.020492673 0.045322333 0.049913757 0.0745408 0.031715166 -0.012265893 0.028374653 0.06347076
0.091876626 0.04701199 0.053203885 0.013294488 0.019333538 0.04220573 0.07590049 0.08525649
0.062738255 0.011233824 0.0076896753 -0.019128114 0.00017731062 0.08287907 0.04486362 0.060792718
-0.0418949 -0.02820744 -0.015050326 -0.029404555 -0.056282047 0.0014166628 0.051745296 0.08613222
0.07512618 -0.022787632 -0.010093907 -0.020704824 0.026575992 0.04653406 0.06894905 0.06570534
-0.019257197 -0.006482139 -0.010514034 0.019407319 0.037696637 0.04281483 0.05837621 -0.014577886
-0.040771503 -0.02574615 0.046737712 0.036298573 0.045908373 0.045579452 -0.05980243 -0.040041186
-0.016868973 0.038626872 0.0065392745 0.00045531042 0.024206273 -0.016818736 0.03988557 0.043955155
0.09244278 0.05430254 0.041323222 0.024652576 -0.11005374 -0.041470345 0.005544401 0.110464394
0.07240531 0.025041588 -0.021778546 0.10267679 0.020351768 0.06086754 0.08596284 0.04459643
0.056191098 -0.01092266 0.059418295 -0.0053761625 0.05914538 0.047780544 -0.029609218 -0.002770051
-0.014988828 0.029835233 -0.015917173 0.046681613 0.0141226975 -0.05324231 0.0064361454 0.013772074
0.09121927 0.08079649 0.07410033 -0.0064009572 -0.00023075883 0.010963088 -0.01558067 0.0470892
0.07082263 0.056246556 0.035650562 0.07187674 0.05518567 0.025435101 0.10855361 0.11730704
0.08134525 0.06388509 0.07361559 0.058388002 0.015914578 0.12603098 0.11135843 0.06544253
0.054967795 0.081232704 0.09167391 0.039142378 0.09664678 0.054990474 0.019955534 0.015545935
0.015508681 0.018833049 -0.025518658 0.11370999 0.052721333 0.025125468 -0.028717466 -0.0625703
-0.06612788 -0.08027796 0.113361605 0.0850824 0.07879671 -0.016008092 -0.0730084 -0.06667545
-0.05448283 0.04533029 0.05511411 0.0587068 -0.031190978 -0.04210459 -0.02510951 0.008744829
-0.09831858 -0.07997325 -0.007817085 -0.04726529 -0.049601868 -0.024496494 -0.032613706 -0.12614056
-0.08979006 -0.006060061 -0.0204173 -0.010907333 0.037255205 0.017202327 -0.17431657 -0.16521704
-0.108819164 -0.11606634 -0.09725973 -0.050253574 -0.11256274 0.0985122 0.09804656 0.10439588
-0.010741682 0.029101862 0.018615387 0.06434024 -0.011948566 0.0028680917 0.03384894 -0.072302505

module.residual_layers.0.1.bn2.weight f4 [16]
00000000: ad3f d73e 58be a03e 4cee 9f3f 4313 833f
00000010: e280 f33e ba39 033f 78f9 1f3f bf19 423f
00000020: 3fe2 4d3f 98eb 543f 52c3 9f3f b401 543f
00000030: 7e10 383f 459e 583f 91e8 083f 472a 813f
0.42040768 0.3139522 1.2494597 1.0240253 0.47559267 0.5125996 0.62490034 0.75820535
0.8042335 0.8317199 1.2481482 0.828151 0.71900165 0.846165 0.5347987 1.0091027

module.residual_layers.0.1.bn2.bias f4 [16]
00000000: 0514 643d 8ba9 f73c 0524 8fbe f6a5 e3be
00000010: a5c0 fd3d 8468 613e 33e5 703e 73b1 02bf
00000020: 4cd8 a8be 790a b6bd 826e 03bf 2b1b 5fbe
00000030: 2173 abbe bfb4 273d 57c7 06be 808d b1be
0.055683155 0.030232212 -0.27957168 -0.44462556 0.1239026 0.22012526 0.23524933 -0.51052016
-0.3297752 -0.08888716 -0.51340497 -0.21787708 -0.33486274 0.040943857 -0.1316198 -0.34678268

module.residual_layers.0.1.bn2.running_mean f4 [16]
00000000: 1c8f 0740 0c3c b0be cce9 c4bf 5dc8 17c0
00000010: 5b62 81bf 7c70 8cbe 18e2 7fbf 2b7e 8cbe
00000020: d87d c4bf 2b89 dcbe 498d e8bf d78d 39bf
00000030: 6201 d1bf 248f 8bbe 2762 953f 550f 38bf
2.1181097 -0.34420812 -1.5383849 -2.3716042 -1.0108141 -0.2742957 -0.99954367 -0.2744001
-1.5350904 -0.430734 -1.8168117 -0.72482055 -1.6328547 -0.27257645 1.1670579 -0.71898395

module.residual_layers.0.1.bn2.running_var f4 [16]
00000000: cd88 3340 b4cf 0e40 6f9f bb40 7a6a 6440
00000010: 389c 6f40 f0e2 1640 6c3d 6940 6c18 f53f
00000020: 0817 2a40 65a5 5c40 98cd 9840 125a 5840
00000030: 3259 2140 ef00 6640 58ae 1d40 3a73 7140
2.8052247 2.2314272 5.863212 3.5689988 3.7439098 2.3576012 3.644374 1.9148078
2.6576557 3.447595 4.775097 3.3804975 2.521069 3.593807 2.463766 3.7726579

module.residual_layers.1.0.conv1.weight f4 [32, 16, 7, 7]
00000000: c25a 413c 2ffc d23c 4d55 b23d aca0 1abd
00000010: a6b8 ec3d a32b 883c 0c22 3c3d 0082 31bd
00000020: 941a 0bbd bb4d 993c a691 eabd 9884 0e3c
00000030: 7d2e 01be 6917 64bd 2e73 19ba 2786 bd3c
00000040: f5ec c83d d19d 78bc 44b4 e13d d60f 923b
00000050: cf5a cc3d ee0b eebc 56fa b3bd 89f7 abbd
00000060: bd4a 12be 1159 2bbd 8cb6 8cbd 5cce fb3c
00000070: 603a 74bc 45ea abbd aa05 89bd 2074 d9bd
00000080: e70c 81bc 44db 6bbd e5bb b83d ffb2 32bd
00000090: 8edc 8ebd 470d 11bd 3701 b4bc 9d6b 73bc
000000a0: 6b96 cabd 9418 2e3d 34c4 8fbd 97ef d8bd
000000b0: 7841 44bd 2acd 2dbd 594d 3dbd ebb4 12be
000000c0: 7c40 9f3c 1c28 c63c a935 cdbb daa5 0a3c
000000d0: cf0a 6c3c 0fa2 ac3d 7210 03bd e563 33bc
000000e0: f9a5 39bd 83b6 57bd d935 e0bd 4c3a 2bbc
000000f0: 933e c6bb c65a 0fbe fd92 e5bc b55e ae3c
00000100: a882 a3bd 2101 cbbd d5bd 28bd 2cc2 26bc
00000110: d92a c6bd d49b 053b f8ae 8c3d 2354 703d
00000120: 95cb c1bd 5eca b9bd ce4a 54bd b254 83bd
00000130: 7328 51bd 267b a23d 2ff8 923d ef7b fdbd
00000140: a1a1 b8bd ee59 bdbc 5e96 66bd 4597 f1bc
00000150: 8704 d33c fd7f 433d 79a8 0cbe 14a8 96bd
00000160: 50de 35bd 6b0e 61bd ffc5 47bd 65a8 d8bc
00000170: ccc9 8dbd a182 e3bd 02c0 07be 0294 8abd
00000180: e3ad 98bd cdcf 58bd 2094 ac3b 1e5d 9d3d
00000190: 5879 cabd 7d8f 66bd d660 59be 800f 5bbd
000001a0: fee1 01be 9a97 fc3b 9e9d d93b 26b6 a2bd
000001b0: 4786 33bd c1d7 fbbd 15a3 f0bc a8bc d0bd
000001c0: 043f d0bb 500d a13d 2a7c 8cbb f7e3 b83c
000001d0: c112 80bd c5ba 343d d15e 52bc 9ddb f0bc
000001e0: c455 1a3c 7278 6bbd d9ee 3ebd 16aa c4bd
000001f0: fee7 51bd 7986 6cbd 1990 ad3a b210 743d
00000200: 9f58 2dbc 6fbe a83c 49da 44bd d46f 9b3c
00000210: ccc1 83bd a9a7 2a3d e1c3 8c3d 94cf 9bbb
00000220: 6380 39bd af63 bc3c e8c3 a5bc 7ba5 31bd
00000230: 868c 293d 1f01 033e 8b5f d5bc 387d 8fbc
00000240: 1c40 aebc dfb1 5abd 4c2c 80bd c616 64bd
00000250: d20e fcbd 55e8 27bd 976e 2ebe 4464 babd
00000260: 3a03 8abc f3c9 d5bd ebc2 e83c c065 08be
00000270: 0f3a b8bc 4c96 0bbe 81e8 e5bd 8d5e 65bd
00000280: 3810 c1bc 315a 883d 53d2 ddbd 8c68 c13d
00000290: 8d1b 4fbc f743 40bd f461 263d 1565 0dbd
000002a0: 4636 263e a7d0 5bbd 76c6 303e 6dda abbc
000002b0: 7dcd 353d 80f9 c13d f267 16bd a846 c83d
000002c0: 1362 833d c5d3 ec3c e6ba babc aa95 a7bd
000002d0: 4666 82bd dc88 b1bd ab16 ba3d fd03 2b3e
000002e0: e4a6 443d 1cee 76bb ffd7 abbd bee5 7abd
000002f0: 372b a1bd 2249 4c3d 534f 343e 31da 853d
00000300: e8d8 c43d 4c20 f63c 7f59 e83c 3fb5 7c3d
00000310: b11f 0dbd c76b b5bd 0c25 a6bd 2b96 c6bd
00000320: a7ee a4bb 1960 9dbd 4d6d f0bc edb9 9ebd
00000330: 744a 2dbe c969 bdbd 3efa 14be 70b1 8fba
00000340: b310 03be 7a0c 2fbd 84d1 f63b 822a 98bd
00000350: b0a1 8cbd d0d0 05be 67fd eabc 7136 8fbd
00000360: d319 8cbb aa14 0bbd e860 65bd b239 2fbc
00000370: 63dc fbbc 83eb 883d c19f aebd b3a2 0e3e
00000380: c0ec 8f3b 21aa e13b 1486 753d ec6a 983d
00000390: d2d6 a73d 8f44 3bbd d4b3 8c3d fc58 103a
000003a0: 6748 c83c 5bb0 d43d 62c3 be3d a43f 2a3d
000003b0: 7218 33bd fca4 873d aa8e 2f3d e22a 023e
000003c0: 4baf 213e 862f 1a3e f8ae 953a 5a83 f13d
000003d0: 5a53 9eb9 b401 11be af06 d7bd 41ac 0dbe
000003e0: dc4d 86bd 003d 6fbd f3c1 61bd 918e c2bd
000003f0: 7082 863c b23b d63d 2d3b 38bc da2c c43d
0.0118014235 0.025755016 0.08707676 -0.037750885 0.115586564 0.01662237 0.045930907 -0.04333687
-0.033960894 0.018713823 -0.114535615 0.008698605 -0.1261539 -0.05568639 -0.000585365 0.023135258
0.09810821 -0.015174345 0.11020711 0.004457454 0.09978258 -0.029058423 -0.08787982 -0.08396823
-0.14286323 -0.041832987 -0.068707556 0.030738048 -0.014906496 -0.08394293 -0.066905335 -0.10617852
-0.015753223 -0.057582155 0.09020213 -0.043627735 -0.06975661 -0.035413053 -0.021973236 -0.0148572
-0.09891971 0.04250391 -0.07019845 -0.10592573 -0.047914 -0.042431988 -0.046216343 -0.14326827
0.019439928 0.024189048 -0.0062625003 0.008462394 0.014406874 0.08429348 -0.031998105 -0.01094911
-0.0453243 -0.05266429 -0.109477706 -0.010450911 -0.00604994 -0.13999471 -0.028024191 0.021285394
-0.07983905 -0.09912325 -0.041196663 -0.01017813 -0.09676141 0.002038707 0.0686931 0.05867399
-0.09462658 -0.090718016 -0.05182915 -0.06412639 -0.051063966 0.07933645 0.071762435 -0.12377154
-0.09015203 -0.02311417 -0.056295745 -0.029491076 0.025758995 0.04772948 -0.13736142 -0.07356277
-0.044401467 -0.05494539 -0.04877281 -0.026447484 -0.06923255 -0.111089 -0.13256839 -0.067665115
-0.07455041 -0.05293255 0.0052666813 0.07683776 -0.09886426 -0.056289185 -0.21228346 -0.05348158
-0.12683865 0.007708502 0.006641104 -0.07944898 -0.04382923 -0.12297011 -0.029374639 -0.10192233
-0.0063551683 0.07863867 -0.0042872624 0.02256964 -0.06253577 0.04412343 -0.012839989 -0.029401595
0.009419862 -0.057487912 -0.0466145 -0.09602754 -0.051246636 -0.05774543 0.0013241797 0.059586234
-0.010580211 0.020598618 -0.048059735 0.018974222 -0.06433448 0.0416638 0.068732984 -0.00475497
-0.045288455 0.022996752 -0.020235017 -0.043370705 0.04139378 0.12793396 -0.026046535 -0.017515764
-0.021270804 -0.053392287 -0.06258449 -0.05568578 -0.12307514 -0.040993053 -0.17034374 -0.091011554
-0.016847242 -0.104389094 0.028413257 -0.13320065 -0.022488622 -0.13631552 -0.11225987 -0.055998374
-0.023567304 0.06657828 -0.10831132 0.09443769 -0.012640846 -0.046939816 0.04062076 -0.034520227
0.16231641 -0.053665783 0.17263207 -0.020978177 0.044385422 0.094714165 -0.036720224 0.097791016
0.064151905 0.028909573 -0.022794198 -0.08182843 -0.06367163 -0.08668682 0.09086355 0.1670074
0.04801072 -0.0037678545 -0.08390807 -0.061254255 -0.07869571 0.049874432 0.17608385 0.06535757
0.09611684 0.030044697 0.028362988 0.061696287 -0.03445405 -0.088584475 -0.08112535 -0.09696611
-0.0050333324 -0.07684345 -0.029348994 -0.07750306 -0.16922933 -0.092486925 -0.14548585 -0.0010962915
-0.12799339 -0.042736508 0.0075323004 -0.07429983 -0.06866777 -0.13067937 -0.028685285 -0.06992806
-0.0042755394 -0.033955254 -0.05600062 -0.010694908 -0.030744737 0.06685545 -0.085265644 0.13929252
0.0043922365 0.006886736 0.05994232 0.07442269 0.081952706 -0.04571968 0.06870237 0.0005506424
0.024448587 0.103852 0.0931461 0.0415646 -0.043724485 0.06623265 0.042860664 0.12711671
0.15789525 0.15057191 0.0011419943 0.117926314 -0.0003019821 -0.14160806 -0.10499322 -0.13835241
-0.06557819 -0.058407784 -0.055116605 -0.09499849 0.01641962 0.10460605 -0.011244577 0.09578867

module.residual_layers.1.0.bn1.weight f4 [32]
00000000: 4765 553f 7ebf 833f 9c74 563f f3b0 273f
00000010: 41a7 5d3f e9ec 403f 8011 553f a794 513f
00000020: fc16 393f 8a5f 343f 41ad 5b3f afcd 413f
00000030: 9e3c 433f 323a 633f e95f 473f e530 623f
00000040: 6b50 6b3f 74cc 493f 11a6 483f 6cf4 773f
00000050: 189b 5b3f 917d 613f e14e 313f b94b 5a3f
00000060: e322 633f 707f 6a3f 8941 5f3f 85c3 243f
00000070: 256f 343f 70d1 7d3f 6683 583f fbbb 863f
0.8335766 1.0292814 0.8377168 0.6550438 0.86583334 0.75361496 0.8322983 0.8186745
0.72300696 0.7045828 0.8581124 0.75704473 0.7626437 0.88760674 0.7788072 0.8835586
0.91919583 0.78827596 0.783784 0.96857333 0.8578353 0.88082224 0.69260985 0.85271794
0.8872511 0.91600704 0.87209374 0.6436084 0.70482093 0.991477 0.845755 1.0526117

module.residual_layers.1.0.bn1.bias f4 [32]
00000000: 93a4 49bf 4057 94bf a124 53bf 7776 34bf
00000010: 11c6 8ebf 42ee 68bf 4116 82bf fe18 61bf
00000020: eceb 01bf c05d 4abf c984 4abf d715 91bf
00000030: 256c 1ebf 74ee 35bf 3f61 f2be 00b0 88bf
00000040: c047 82bf d746 1abf 6f9f 5dbf 43f5 83bf
00000050: 7932 3dbf 9a05 4bbf 3905 2dbf c220 a1bf
00000060: e621 65bf 574d 6dbf 6772 7dbf dd00 f7be
00000070: 4e76 31bf 8349 53bf d299 8bbf f4e2 b5bf
-0.78766745 -1.1589127 -0.82477766 -0.70493263 -1.1154195 -0.9098855 -1.0163041 -0.8792876
-0.50750613 -0.790493 -0.79108864 -1.133479 -0.61883765 -0.71066976 -0.47339818 -1.0678711
-1.0178146 -0.60264343 -0.865714 -1.0309223 -0.7390514 -0.7930542 -0.67586094 -1.2588122
-0.8950485 -0.92696136 -0.9900269 -0.48242846 -0.69321144 -0.82534045 -1.0906317 -1.4209886

module.residual_layers.1.0.bn1.running_mean f4 [32]
00000000: 4e4d b4c0 b40d d9bf 9865 96c0 d94e 32c0
00000010: ec64 edc0 03dd a0c0 8437 7ec0 6429 7bbf
00000020: c1ee c6c0 da5a 0cc0 2f05 adc0 73f5 2fbf
00000030: 3a08 fac0 48ff 90c0 31ec d5c0 d7c8 64c0
00000040: ac32 32c0 e198 d0bf 9197 aec0 67a1 8cc0
00000050: 890c b2c0 ce36 d5c0 f12e b3c0 453f 33c0
00000060: 9ec4 69c0 82db c7c0 64d4 34c0 c0ba 17c0
00000070: b5d5 a3c0 10c0 e6c0 e4b5 cfc0 f582 95c0
-5.6344366 -1.6957307 -4.6999016 -2.7860625 -7.4185696 -5.026979 -3.9721384 -0.9811003
-6.216645 -2.1930451 -5.406883 -0.687339 -7.813504 -4.5311623 -6.685082 -3.5747583
-2.7843428 -1.6296655 -5.4560018 -4.3947024 -5.56403 -6.66294 -5.59948 -2.8007367
-3.6526256 -6.2455454 -2.8254633 -2.3707733 -5.1198373 -7.210945 -6.4909534 -4.672236

module.residual_layers.1.0.bn1.running_var f4 [32]
00000000: 0e8a 1c41 2054 5041 4bc8 4441 0c92 1941
00000010: 1ca9 5f41 064d 1d41 32b9 3741 e23d 8041
00000020: f54e 2841 bfc8 3141 12df 6241 afbd a940
00000030: 336d 3941 3827 6341 7005 3c41 5279 5f41
00000040: 5da0 6141 ce05 1141 ce6c 3c41 c911 4b41
00000050: b02e 7341 4922 3c41 e7d3 1241 0eb1 4a41
00000060: 4e04 5841 b2b2 5b41 0247 2841 3a4c fc40
00000070: 9547 fd40 8dfa 1a41 1ab7 6a41 92e9 8141
9.783705 13.020538 12.2989 9.598156 13.978786 9.831305 11.482714 16.030216
10.519277 11.11151 14.179461 5.3044047 11.58916 14.197075 11.7513275 13.967119
14.101651 9.063917 11.776564 12.691842 15.198898 11.75837 9.176734 12.668226
13.501051 13.731127 10.517336 7.884305 7.914988 9.68617 14.669703 16.239048
