summaries/good_ResNet2_num_blocks1x1_num_channels32_conv5/ckpt.pth (torch, 851635 bytes, 32 tensors)

module.conv1.weight f4 [32, 3, 3, 3]
0	0x35e30233	1.6913458e-06
1	0x3606d386	2.0090679e-06
2	0xb40cff1f	-1.3131329e-07
3	0x36ade3c5	5.1823176e-06
4	0x35b65327	1.3584257e-06
5	0xb665056b	-3.4126813e-06
6	0x36ba2bb2	5.5483188e-06
7	0x354c4111	7.6090606e-07
8	0xb66cda82	-3.5293929e-06
9	0xb5830d69	-9.764163e-07
10	0xb5c9e851	-1.504328e-06
11	0xb65f1e66	-3.3247284e-06
12	0x3661c0ce	3.363984e-06
13	0xb55eaec2	-8.295575e-07
14	0xb6bcfd61	-5.632334e-06
15	0x36960e5f	4.4720214e-06
16	0xb4fbf020	-4.6927107e-07
17	0xb6b62e55	-5.4294164e-06
18	0xb5647065	-8.5100174e-07
19	0x35a0db7a	1.1984805e-06
20	0x3513f68c	5.512054e-07
21	0x36348261	2.689798e-06
22	0x35e3e8ff	1.6980629e-06
23	0xb5c4f699	-1.4674907e-06
24	0x36737d04	3.628259e-06
25	0x35e6c16a	1.7192626e-06
26	0xb5d86549	-1.6122732e-06
27	0xb0b3505b	-1.3046803e-09
28	0xb0bd1698	-1.3757981e-09
29	0xb0f1112c	-1.7539938e-09
30	0x30829c0a	9.503094e-10
31	0x30cd391c	1.4931945e-09
32	0x3081e5d9	9.451312e-10
33	0x30133c87	5.3564303e-10
34	0x3064162c	8.2977425e-10
35	0xafb2ee91	-3.2547523e-10
36	0xafc69af7	-3.61261e-10
37	0xae68391e	-5.2801423e-11
38	0x2e31afd5	4.040131e-11
39	0x30c64604	1.4426296e-09
40	0x31179ad2	2.2061397e-09
41	0x30fef676	1.8550981e-09
42	0x3014ad85	5.408867e-10
43	0x30a328fe	1.1871462e-09
44	0x30821c94	9.466867e-10
45	0xaec3d262	-8.904945e-11
46	0x30a52813	1.201672e-09
47	0x30e00088	1.6298296e-09
48	0xaf35b628	-1.6526569e-10
49	0x306bfdeb	8.585334e-10
50	0x30f86480	1.8072939e-09
51	0xb115783e	-2.1750703e-09
52	0xb002d6b2	-4.7598825e-10
53	0xaf36f5ff	-1.6640199e-10
54	0x3e72b508	0.2370187
55	0x3f043b1d	0.516527
56	0x3ecf5767	0.4049637
57	0xbe06184b	-0.13095205
58	0xbdc7a4ad	-0.09748206
59	0x3de5f5f2	0.11228551
60	0xbeab639c	-0.33474433
61	0xbebc2575	-0.36747327
62	0xbec77350	-0.38955164
63	0x3dfd6dd0	0.12374461
64	0xbd9e681f	-0.07734703
65	0x3d89bc14	0.06725326
66	0xbd76f439	-0.060291503
67	0xbe45c179	-0.19312085
68	0x3d6bd526	0.05757632
69	0x3d3fe778	0.046851605
70	0x3dd2ee33	0.10299339
71	0xbd8079ae	-0.062732086
72	0xbe670ec3	-0.22564225
73	0xbf16e1f3	-0.5893852
74	0xbedf17fd	-0.4357299
75	0xbcd1ec4b	-0.025625369
76	0xbdeaaea7	-0.114590935
77	0xbca29eb0	-0.019851059
78	0x3ed6959e	0.41911024
79	0x3f294605	0.66122466
80	0x3ebd92bc	0.37026012
81	0xb506c89f	-5.021083e-07
82	0xb534ea53	-6.739621e-07
83	0xb558ec00	-8.0809696e-07
84	0x34f79ee0	4.6122932e-07
85	0x34d14410	3.8978806e-07
86	0x33bd1823	8.805389e-08
87	0x350432c8	4.924773e-07
88	0x3523d6d7	6.1034865e-07
89	0x34f4349b	4.5486817e-07
90	0x3458714e	2.0157788e-07
91	0xb3809201	-5.9870224e-08
92	0xb3d83b51	-1.00690734e-07
93	0x348460d3	2.4657365e-07
94	0xb389ec53	-6.422547e-08
95	0xb41dba1a	-1.4689468e-07
96	0xb3c8793f	-9.33528e-08
97	0xb4a7fb82	-3.128917e-07
98	0xb4400127	-1.7881813e-07
99	0x35188f9b	5.6833386e-07
100	0x34cb50fb	3.7870618e-07
101	0x3510c76a	5.3934366e-07
102	0xb33f4d4c	-4.4540954e-08
103	0xb4cd14d9	-3.8199394e-07
104	0xb437dfa5	-1.7124565e-07
105	0xb552472a	-7.8334654e-07
106	0xb593a3fe	-1.1000081e-06
107	0xb5279423	-6.2427915e-07
108	0x3e4bc4ae	0.19899246
109	0xbd9eca25	-0.077534
110	0xbd80c54b	-0.06287631
111	0x3e963bf2	0.2934261
112	0xbdb35192	-0.08755793
113	0xbe9273e5	-0.28604046
114	0xbdca0cce	-0.098657236
115	0xbd8867c0	-0.06660414
116	0x3d71d7f5	0.059043843
117	0x3e4adced	0.19810839
118	0xbd4a8455	-0.049442608
119	0xbd3dba26	-0.046320103
120	0x3eb97f84	0.362301
121	0xbcafdb98	-0.021467015
122	0xbeba0d7c	-0.36338413
123	0x3c78184c	0.015142512
124	0x3cb0231b	0.021501115
125	0xbda04a6e	-0.07826696
126	0x3e792b94	0.2433303
127	0xbdee6566	-0.11640434
128	0xbe9358b3	-0.2877861
129	0x3f0c821e	0.54886043
130	0x3ca48934	0.020084955
131	0xbf0c2821	-0.5474873
132	0x3e89064f	0.26762626
133	0x3de31525	0.110880174
134	0xbe612333	-0.21986084
135	0xbe1ff6ad	-0.15621443
136	0xbdd473a0	-0.10373616
137	0xbd624b9b	-0.055247884
138	0x3db4d26e	0.08829199
139	0x3e346178	0.17615306
140	0xbdb4bb53	-0.08824792
141	0xbc31abeb	-0.010844211
142	0x3df25ffe	0.11834715
143	0xbe3d6208	-0.18494427
144	0xbe312c23	-0.17301993
145	0xbe3dbd79	-0.1852931
146	0xbe23d6dc	-0.15999931
147	0x3d9e9ad1	0.07744373
148	0x3dbe334d	0.092871286
149	0xbe330f0b	-0.17486207
150	0x3cc91e99	0.024550723
151	0x3d7546ab	0.059881847
152	0xbe816f0e	-0.2528004
153	0xbdd1f850	-0.1025244
154	0xbd563c18	-0.052303404
155	0xbcfdd676	-0.030986052
156	0x3d7b801a	0.061401464
157	0x3e189b24	0.14902931
158	0xbda0a0a3	-0.07843139
159	0x3d2869a3	0.041116368
160	0x3e0f7678	0.14010036
161	0xbe047a49	-0.12937273
162	0xbd9ac0e9	-0.07556326
163	0xbd964f19	-0.073393054
164	0xbdc589bb	-0.096454106
165	0x3c97811e	0.018494185
166	0x3e035de4	0.12828785
167	0x3d70faf4	0.058833078
168	0x3d5309bc	0.051522955
169	0x3e46f651	0.194299
170	0x3d95580d	0.07292185
171	0x3b2279d3	0.0024791851
172	0xbbe0b36b	-0.006857326
173	0xbda7af1b	-0.081876956
174	0x3d8c3127	0.068453126
175	0x3e67de01	0.22643282
176	0x3dca07cc	0.098647684
177	0xbb11fecb	-0.0022277113
178	0x3e4aabb6	0.19792065
179	0x3d1bd677	0.038046326
180	0x3db7bf30	0.08972013
181	0x3d2f2473	0.04275937
182	0xbc0a8795	-0.008455177
183	0xbc8a1e72	-0.01686022
184	0x3da6ed04	0.08150676
185	0x3c52a633	0.012857008
186	0xbe51ed66	-0.20500717
187	0xbda8000c	-0.08203134
188	0xbe205575	-0.156576
189	0xbe128944	-0.14310175
190	0xbe61c2f4	-0.22047025
191	0xbdee5312	-0.11636938
192	0x3d8be87d	0.06831453
193	0xbe9cd2ec	-0.3062967
194	0x3cc48b84	0.023992307
195	0x3ec61a3a	0.38691884
196	0x3e24ac28	0.16081297
197	0x3e2b6e5f	0.16741322
198	0x3dbae483	0.091256164
199	0x3ab42849	0.0013744916
200	0x3d584ea0	0.052809358
201	0x3dd27609	0.1027642
202	0xbe93c077	-0.28857777
203	0x3c8ee3fc	0.017442696
204	0x3e3dcaa6	0.18534335
205	0xbdb73889	-0.0894633
206	0xbd294698	-0.04132709
207	0x3d8487b3	0.06471195
208	0x3d215ccd	0.039395142
209	0x3d8e71a0	0.06955266
210	0x3da0928a	0.0784045
211	0xbe85d032	-0.26135403
212	0x3b3ac258	0.0028497186
213	0x3dd34631	0.10316122
214	0xbe30159f	-0.17195748
215	0xbe0fd2ce	-0.1404526
216	0xbe7d6d46	-0.24748716
217	0xbe38f0d6	-0.18060622
218	0x3d6a3640	0.057180643
219	0xbec91081	-0.39270404
220	0x3ecb96e2	0.39763552
221	0x3f3643d4	0.7119725
222	0xbf12b44d	-0.5730637
223	0xbe355912	-0.17709759
224	0x3ebe3e4e	0.3715691
225	0x3e592e84	0.2120915
226	0xbd9daa1a	-0.0769846
227	0xbe2e4a87	-0.17020617
228	0x3f0edff6	0.5581049
229	0x3ebff2f6	0.37490052
230	0xbe5ca5c2	-0.21547607
231	0x3e667682	0.22506145
232	0xbec6c42e	-0.38821548
233	0xbf0060d4	-0.5014775
234	0xbd22810f	-0.03967386
235	0xbe453146	-0.19257078
236	0xbe357e5e	-0.17723987
237	0x3e5f25ed	0.21791811
238	0x3eb99b47	0.3625128
239	0xbd822387	-0.063544326
240	0x3c09dc5a	0.008414352
241	0xbe19df45	-0.15026577
242	0xbcac7605	-0.02105237
243	0x3e79a73e	0.24380204
244	0x3de86168	0.11346704
245	0x3d609190	0.05482632
246	0x3e778d1b	0.24174921
247	0x3dcedad2	0.101003304
248	0x3cbaf4e2	0.022821847
249	0x3ea6de5a	0.32591516
250	0x3e58075a	0.21096554
251	0x3de8528d	0.1134387
252	0xbe4bf97e	-0.19919392
253	0xbef2aac8	-0.4739592
254	0xbe6cee61	-0.2313781
255	0xbf0119a3	-0.50429744

module.bn1.weight f4 [32]
0	0x355b4696	8.1686574e-07
1	0x31065eb0	1.955339e-09
2	0x3e82d3fe	0.25552362
3	0x3269d514	1.3610833e-08
4	0x3e8ff5e1	0.28117278
5	0x3f0b8754	0.5450337
6	0x3eae010d	0.33985177
7	0x3f1597a5	0.58434516
8	0x3eaef87a	0.34173948
9	0x3e2c814c	0.16846198
10	0x3030ce7e	6.432187e-10
11	0x3ecc9e6a	0.3996461
12	0x3e59a024	0.21252495
13	0x3f12bbc7	0.57317775
14	0xb09307fb	-1.0697926e-09
15	0x3e9d9fe0	0.30786037
16	0x3e294106	0.1652871
17	0x3e99d1b5	0.30042806
18	0x3e69599b	0.22788088
19	0x32116cad	8.464821e-09
20	0x3c832b11	0.016011747
21	0x3f369f5b	0.7133691
22	0x3e795341	0.24348165
23	0x3e728c7c	0.23686403
24	0x3eb9f1da	0.3631733
25	0x3ee84190	0.4536252
26	0x3057ef0b	7.8556245e-10
27	0x3e2ee8b7	0.17080961
28	0x3e52921c	0.20563549
29	0x3e92f4cd	0.28702393
30	0x3e861826	0.261903
31	0x3ed58f1e	0.41710752

module.bn1.bias f4 [32]
0	0xb6bcaf11	-5.623217e-06
1	0xb1d072ad	-6.066634e-09
2	0xbcdebaa6	-0.02718861
3	0xb4953ae0	-2.779625e-07
4	0x3dd797a2	0.105269685
5	0xbef976fa	-0.48723584
6	0xbea005eb	-0.31254515
7	0xbeed461f	-0.4634256
8	0x3e6eab9e	0.23307654
9	0x3d92cea9	0.071683235
10	0xb178c94e	-3.6203178e-09
11	0x3eb46b27	0.35238
12	0x3e85292e	0.2600798
13	0xbec21e58	-0.37913775
14	0xb230cdaf	-1.0291315e-08
15	0xbe4a359e	-0.19747016
16	0x3d7b8b9b	0.061412435
17	0x3c3e1dee	0.0116038155
18	0xbc8fccec	-0.017553769
19	0xb3c67a76	-9.242369e-08
20	0x3ee804ea	0.4531625
21	0xbf20288f	-0.6256189
22	0x3c0babf4	0.008524884
23	0xbe4b9330	-0.19880366
24	0xbe4c79c9	-0.19968332
25	0xbea27284	-0.31727993
26	0xb10b06eb	-2.0231095e-09
27	0x3daecb62	0.08534886
28	0xbc093a5e	-0.008375732
29	0x3d0c4b7e	0.034251682
30	0x3dd6430c	0.10462007
31	0x3e6d4a79	0.2317294

module.bn1.running_mean f4 [32]
0	0xb603235f	-1.954111e-06
1	0xb1610a95	-3.2747824e-09
2	0x3c8e8b49	0.0174004
3	0x34eb6072	4.3842334e-07
4	0x3ceb7704	0.028743275
5	0x3e5de313	0.21668653
6	0xbe5333a0	-0.20625162
7	0x3dc84165	0.09778098
8	0xbd402f3b	-0.046920042
9	0x3d5d661c	0.054052457
10	0xb11aa4f8	-2.2503723e-09
11	0x3d3a7070	0.045517385
12	0xbc0aadea	-0.008464316
13	0xbd2867ba	-0.041114546
14	0xb2bc0e89	-2.189269e-08
15	0xbe2ea10e	-0.17053625
16	0x3acd6485	0.0015670216
17	0xb96ed150	-0.00022775424
18	0xbc35634d	-0.011071038
19	0xb3987d6d	-7.1008664e-08
20	0xbcf4af14	-0.02986864
21	0x3e67f85c	0.22653335
22	0x3e61a85f	0.22036885
23	0x3d725bac	0.059169456
24	0x3c570850	0.01312454
25	0x3e33e142	0.17566398
26	0x3146ccc4	2.8929188e-09
27	0x3d82bdc6	0.06383853
28	0xbb432243	-0.002977506
29	0xbbb90b57	-0.005647104
30	0x3c0ff51c	0.008786466
31	0xbd798387	-0.06091645

module.bn1.running_var f4 [32]
0	0x3024737f	5.982698e-10
1	0x25603b94	1.9449089e-16
2	0x3ebd2b5f	0.36947152
3	0x2cc66f91	5.639885e-12
4	0x404c3315	3.1906178
5	0x3fb9a2de	1.4502828
6	0x3f489c8a	0.7836386
7	0x3f3f41b1	0.7470961
8	0x3f81f6a7	1.0153397
9	0x3f70170e	0.9378518
10	0x24fdd6ce	1.1008515e-16
11	0x3f03e240	0.51517105
12	0x3e6541c8	0.22388375
13	0x3f56537c	0.8372114
14	0x2831ab0b	9.862563e-15
15	0x3f56a99e	0.83852565
16	0x3f5da8e1	0.86585814
17	0x40a417ce	5.127906
18	0x3e8a8e34	0.27061617
19	0x2aa2f4c4	2.894682e-13
20	0x3e5ac7eb	0.21365325
21	0x400120a3	2.017617
22	0x3f86c6c4	1.0529408
23	0x3eee9837	0.46600506
24	0x3eccd6cb	0.40007624
25	0x3f9ebcf5	1.2401415
26	0x2535f4a8	1.578214e-16
27	0x3fea1c75	1.8289934
28	0x3e778cf1	0.24174859
29	0x409a198b	4.815618
30	0x407d2d54	3.9558916
31	0x3fae4c8f	1.3617114

module.residual_layers.0.0.conv1.weight f4 [32, 32, 5, 5]
0	0x34be2c8b	3.5422667e-07
1	0x355eb7ce	8.2968916e-07
2	0xb4abd191	-3.2003712e-07
3	0xb52d9e09	-6.4677494e-07
4	0xb5896009	-1.0235245e-06
5	0xb41ecc3e	-1.47892e-07
6	0x35580e36	8.048695e-07
7	0x34a635c8	3.095904e-07
8	0xb4a23214	-3.0211288e-07
9	0xb507b61d	-5.055643e-07
10	0xb53f828c	-7.1343015e-07
11	0xb4170893	-1.406609e-07
12	0xb2a2496c	-1.889267e-08
13	0xb3018863	-3.0159196e-08
14	0xb40622d5	-1.2492394e-07
15	0xb535606d	-6.756807e-07
16	0xb51b5bbf	-5.787551e-07
17	0xb4c567ae	-3.6769546e-07
18	0xb3e1e76e	-1.0519476e-07
19	0xb4e50a8c	-4.2662248e-07
20	0x3363838b	5.2972194e-08
21	0xb4a344e7	-3.041125e-07
22	0xb4c958c5	-3.7503756e-07
23	0xb4e247b1	-4.2147943e-07
24	0xb56ae491	-8.75044e-07
25	0xae25b06b	-3.7673347e-11
26	0xaed44c5e	-9.6542094e-11
27	0xaf9e9374	-2.8844804e-10
28	0xafb5cb24	-3.3068048e-10
29	0xaf9d2166	-2.8581865e-10
30	0x2f850e4f	2.4202726e-10
31	0x2eb6beac	8.310272e-11
32	0xaf011c70	-1.1742585e-10
33	0xaf4a02c6	-1.8372778e-10
34	0xafa9a46e	-3.0857755e-10
35	0x2fac1973	3.13047e-10
36	0x2fbfec92	3.491079e-10
37	0x2ecbc076	9.265559e-11
38	0x2d449a3d	1.1175558e-11
39	0xaef10c79	-1.0961627e-10
40	0x2fc9a428	3.6678327e-10
41	0x2fc3964d	3.5577088e-10
42	0x2fac500d	3.1343497e-10
43	0x2f6931d5	2.120893e-10
44	0x2d68742d	1.3213469e-11
45	0x2ebde50f	8.635414e-11
46	0x2f1a3d1d	1.402793e-10
47	0x2efb8c4d	1.1439081e-10
48	0x2e3d388e	4.3023855e-11
49	0xaf31daf9	-1.6175851e-10
50	0xbc44ba4f	-0.01200731
51	0xbd71576d	-0.058921266
52	0xbca9eda9	-0.020743208
53	0x3cc2cb12	0.023778472
54	0x3d998b06	0.0749722
55	0x3d803828	0.06260711
56	0xbc3901f4	-0.01129197
57	0xbd4ea9cf	-0.05045491
58	0xbd236d27	-0.039899018
59	0xbabc05a0	-0.0014344938
60	0x3b549a7f	0.003244072
61	0x3cb7d58b	0.022440692
62	0xba53fc8c	-0.00080866436
63	0xbda21ed7	-0.079160385
64	0xbd961b0c	-0.073293775
65	0xbd2c8133	-0.0421154
66	0x3d06223f	0.032747503
67	0x3da07e54	0.07836595
68	0x3d411d60	0.047147155
69	0xbc025bd0	-0.00795646
70	0x3d375e68	0.044767767
71	0xbc1c5b1a	-0.009543205
72	0x3d90379c	0.07041857
73	0x3cef0405	0.029176721
74	0x3d0bc0d8	0.034119457
75	0x338eb81e	6.645881e-08
76	0x33e3e615	1.0612363e-07
77	0x33abcfd9	8.000615e-08
78	0x3326da2d	3.8848317e-08
79	0xb2f01248	-2.794799e-08
80	0x331c7205	3.642528e-08
81	0x33d9792e	1.01268924e-07
82	0x33e4cfbf	1.0654866e-07
83	0x33aa6229	7.934097e-08
84	0x30d4abc8	1.5473853e-09
85	0x30d96c5a	1.5819623e-09
86	0x337b971f	5.8577935e-08
87	0x3391d998	6.791669e-08
88	0x33482fbd	4.6609546e-08
89	0xb1cae21c	-5.9046794e-09
90	0xb3d11ec9	-9.737921e-08
91	0xb31a6cff	-3.595505e-08
92	0x3188d41c	3.982235e-09
93	0x329a0bd7	1.7933344e-08
94	0xb2a4b006	-1.9172159e-08
95	0xb4207eaa	-1.4947241e-07
96	0xb3bd42b9	-8.813135e-08
97	0xb31ee428	-3.699475e-08
98	0x30e8552a	1.6904427e-09
99	0x2f7a20e1	2.2749048e-10
100	0x3d22e82f	0.03977221
101	0x3dd66b4a	0.104696825
102	0x3cebe1e3	0.028794235
103	0xbc1cff63	-0.009582373
104	0x3cdcfe3c	0.026976697
105	0x3d5df98b	0.05419306
106	0x3de8b1af	0.113620155
107	0x3daa38be	0.08311604
108	0xbd8c8b6c	-0.0686253
109	0xbcb05fd2	-0.021530066
110	0xbb9dd78d	-0.0048169554
111	0x3d78fec8	0.060789853
112	0x3e037161	0.1283622
113	0xbd26b161	-0.040696505
114	0xbcbf897d	-0.02338099
115	0xbd8158ab	-0.0631574
116	0xbd7b19d2	-0.06130392
117	0x3c138b13	0.009005326
118	0xbd3be88c	-0.04587607
119	0x3bbde56e	0.0057951724
120	0xbd30e7fe	-0.043189995
121	0xbda499ae	-0.080371246
122	0xbcdbdc24	-0.02683837
123	0xbd762389	-0.060092483
124	0xbd12530a	-0.035723723
125	0xbd7cbc45	-0.061702985
126	0xbdb0f0a7	-0.08639651
127	0xbce278d2	-0.027645502
128	0xbbb91071	-0.005647712
129	0xbd975a36	-0.07390253
130	0x3c44527b	0.0119825555
131	0x3cb26865	0.021778295
132	0x3d3b2fb4	0.04569979
133	0x3dd2487f	0.10267734
134	0x3cb7fd5d	0.02245968
135	0x3b8ffc37	0.00439408
136	0xbc6e3ec6	-0.014541334
137	0xbc4e268e	-0.012582434
138	0xbc1b9698	-0.009496354
139	0x3bb0e08f	0.005397863
140	0xbcb9e51b	-0.022692254
141	0xbc13a3c0	-0.009011209
142	0xbc570aff	-0.01312518
143	0xbcae468f	-0.02127388
144	0xbb6e41f0	-0.003635522
145	0x3d0ac048	0.03387478
146	0x3ccbc3dc	0.024873666
147	0x3c0843cd	0.008316946
148	0x3bbc4ead	0.0057466836
149	0xbd088fe9	-0.03334037
150	0xbce53f19	-0.027984189
151	0xbd93e0da	-0.072206214
152	0xbd6421ad	-0.05569618
153	0xbcd1b96a	-0.025601108
154	0xbcbca754	-0.023029007
155	0x3d415820	0.047203183
156	0x3d6b91a3	0.057511937
157	0x3ce5bb3f	0.028043387
158	0x3c8d2401	0.017229082
159	0x3c32e4b1	0.010918782
160	0xbc57b0aa	-0.013164679
161	0x3d7dc528	0.0619556
162	0x3d9f8bfb	0.07790371
163	0x3bfecd58	0.0077759437
164	0xba6ee0ce	-0.0009112478
165	0xbb46620b	-0.003027084
166	0x3ca875c5	0.02056397
167	0x3da33171	0.079684146
168	0x3ca3e4cd	0.020006562
169	0xbccaf2a7	-0.024773909
170	0xbd816e53	-0.06319871
171	0xbdb563d2	-0.0885693
172	0xbd91bd4a	-0.07116182
173	0xbd30952f	-0.043111023
174	0xbd66df82	-0.056365497
175	0xbd115733	-0.03548355
176	0xbd09ce96	-0.03364428
177	0xbbd6b242	-0.0065520117
178	0x3d228e95	0.039686758
179	0x3c714f0f	0.014728322
180	0xbd48ff03	-0.049071323
181	0xbe0a9e9b	-0.13537066
182	0xbe1428f4	-0.14468747
183	0xbd5fbc20	-0.05462277
184	0xbcd89044	-0.026435979
185	0x3b9a857e	0.0047156205
186	0x3cbdc4af	0.023165075
187	0xbcfad690	-0.03061989
188	0xbd3ef1f4	-0.046617463
189	0x3c33a70c	0.01096512
190	0xbd639c67	-0.05556908
191	0x3cda36d9	0.026637482
192	0xbd52b0cd	-0.05143814
193	0xbcd36762	-0.025806133
194	0xbcbfaf3c	-0.023398988
195	0x3d78cde9	0.060743246
196	0x3d197f1e	0.037474744
197	0xbc93ad1a	-0.018026877
198	0xbdcc34c7	-0.09971004
199	0xbd344e7e	-0.04402017
200	0xbd6f24e5	-0.058384795
201	0xbba1965d	-0.004931255
202	0x3ce086a4	0.027407952
203	0x3d1be915	0.03806408
204	0xbba85aa8	-0.00513776
205	0xbdb29afd	-0.08720968
206	0xbe420896	-0.18948588
207	0xbe048477	-0.12941156
208	0xbd9fb3ad	-0.07797942
209	0xbd347e9d	-0.04406606
210	0x3dfd6421	0.12372614
211	0x3e26df94	0.16296226
212	0xbd1d7585	-0.038442153
213	0xbe0a364b	-0.13497274
214	0xbcc153e0	-0.023599565
215	0xbe0f7a80	-0.14011574
216	0x3d568f68	0.052382857
217	0x3e84343c	0.25821102
218	0x3e30c2e9	0.17261852
219	0x3dbcc7b0	0.09217775
220	0x3d76b80f	0.060234126
221	0xbd411609	-0.047140155
222	0xbcd08ef8	-0.025458798
223	0xbcd757f3	-0.026287055
224	0xbd05db02	-0.032679565
225	0xbd2c1a6e	-0.042017393
226	0xbc15d706	-0.009145504
227	0xbd3ca0ce	-0.046051793
228	0xbd9d75a8	-0.07688457
229	0xbcda958b	-0.026682636
230	0xbd04d10d	-0.03242593
231	0x3d09d52d	0.033650566
232	0x3da8f4ec	0.0824984
233	0x3d36d1e2	0.044633754
234	0x3ccab9df	0.024746833
235	0xbd7df348	-0.06199959
236	0xbd206184	-0.0391555
237	0x3d0370c2	0.032089956
238	0x3d93afa9	0.07211239
239	0x3d8dc591	0.069224484
240	0x3d501bfa	0.05080793
241	0xbbcb28df	-0.0061999406
242	0xbd06853a	-0.0328419
243	0xbc8de9ca	-0.017323393
244	0x3c703f9f	0.014663606
245	0x3d716021	0.058929566
246	0x3d10ad32	0.035321422
247	0xbca8dbb3	-0.020612573
248	0x3c2f310a	0.010692844
249	0x3d23f0ed	0.040024687
250	0xaed76a7f	-9.7959856e-11
251	0x2e224ca9	3.6902623e-11
252	0x2e5d01cb	5.0251175e-11
253	0xaf17d312	-1.3808357e-10
254	0xaf4ff508	-1.8913593e-10
255	0xace21aab	-6.426267e-12

module.residual_layers.0.0.bn1.weight f4 [32]
0	0x3f152c8e	0.5827111
1	0x3f08b818	0.53405905
2	0x3f1d0f9f	0.6135196
3	0x3ed9d1ff	0.42543027
4	0x3f130b56	0.5743917
5	0x3f04186b	0.5159976
6	0x3edb1e0f	0.4279637
7	0x3ec98ed3	0.3936678
8	0x3f19aa3f	0.600254
9	0x3f04a499	0.51813656
10	0x3f2b1648	0.66830873
11	0x3f17e70e	0.59336936
12	0x3ecf782c	0.4052137
13	0x3f0d1614	0.55111814
14	0x3ec46faa	0.38366443
15	0x3edabb8d	0.42721215
16	0x3f111096	0.56665933
17	0x3f098e07	0.5373234
18	0x3f1014b7	0.5628161
19	0x3f32a78e	0.6978692
20	0x3f05f8c2	0.523327
21	0x3f180380	0.5938034
22	0x3eea90ea	0.45813686
23	0x3f11a3e0	0.5689068
24	0x3ee886f4	0.4541546
25	0x3f1a6ff5	0.6032708
26	0x3ee9d34f	0.45669028
27	0x3f071083	0.5275957
28	0x3f2244cc	0.63386226
29	0x3efc8c81	0.49325946
30	0x3ecf799a	0.40522462
31	0x3f1a39a7	0.6024422

module.residual_layers.0.0.bn1.bias f4 [32]
0	0xbe7c688d	-0.24649258
1	0xbec6a3f5	-0.38796964
2	0xbe1cea8f	-0.15323852
3	0xbe8222f1	-0.25417283
4	0xbe1ec0f6	-0.15503296
5	0xbe3cf98f	-0.18454574
6	0xbd84ebb5	-0.0649027
7	0xbd74a15b	-0.059724193
8	0xbe99d441	-0.3004475
9	0xbe76bf4f	-0.24096416
10	0xbe011783	-0.12606625
11	0xbeb6b1e2	-0.3568259
12	0xbe1240f4	-0.1428259
13	0xbeba5475	-0.3639256
14	0xbd254e6d	-0.040357996
15	0x3c3b7fa8	0.01144401
16	0xbe832984	-0.2561761
17	0xbe6d5efa	-0.23180762
18	0xbe7f2c6e	-0.24919292
19	0xbdedc282	-0.11609365
20	0xbe1e702e	-0.1547248
21	0xbe52f443	-0.20600991
22	0xbccaeffa	-0.024772633
23	0xbe86d325	-0.26332965
24	0xbe6052e8	-0.21906626
25	0xbe868859	-0.262759
26	0xbe13c9c8	-0.14432442
27	0xbe79d560	-0.24397802
28	0xbe732b18	-0.23746908
29	0xbdeb7a82	-0.11497976
30	0xbe6b8cc5	-0.23002918
31	0xbe668ea3	-0.22515349

module.residual_layers.0.0.bn1.running_mean f4 [32]
0	0xbe2ea31a	-0.17054406
1	0xbdf727ad	-0.120681144
2	0xbe5046f0	-0.2033956
3	0x3f16ceda	0.5890938
4	0xbe51ce2e	-0.20488808
5	0xbd7cc634	-0.06171246
6	0xbe87c038	-0.2651384
7	0x3c206305	0.009789233
8	0xbea6dd85	-0.3259088
9	0xbee14e7b	-0.44005188
10	0xbe4ef3a3	-0.20210128
11	0xbf1af1aa	-0.60525
12	0xbe98718e	-0.29774135
13	0xbea0f6d7	-0.31438324
14	0xbf66f3f7	-0.9021601
15	0xbf34546a	-0.70441306
16	0xbebabbff	-0.36471555
17	0x3da13928	0.0787223
18	0xbe55551a	-0.20833245
19	0xbe73b13d	-0.2379808
20	0xbf144174	-0.57912374
21	0xbe7def52	-0.24798325
22	0xbf6b3ef2	-0.9189292
23	0xbe95996e	-0.2921862
24	0xbdcf0614	-0.10108581
25	0xbeff39c1	-0.4984875
26	0xbe3e2b96	-0.18571314
27	0xbee5a058	-0.44848895
28	0xbeba022e	-0.36329788
29	0xbf1c0c9e	-0.6095675
30	0x3eb288cc	0.34869993
31	0xbead87d3	-0.33892688

module.residual_layers.0.0.bn1.running_var f4 [32]
0	0x3e65fa0d	0.22458668
1	0x3dea402b	0.1143802
2	0x3ef87b6e	0.4853167
3	0x3dd046a3	0.10169723
4	0x3e659c72	0.2242296
5	0x3e70c0bb	0.23511021
6	0x3e317bc4	0.17332369
7	0x3e11f511	0.14253642
8	0x3e25e431	0.1620033
9	0x3e6dd521	0.23225833
10	0x3f11a882	0.5689775
11	0x3e15570c	0.14583987
12	0x3e0d1c82	0.13780406
13	0x3dba7e84	0.09106162
14	0x3e777b91	0.2416823
15	0x3e3f5225	0.1868368
16	0x3e462fef	0.19354223
17	0x3e248d15	0.16069444
18	0x3e1d5c10	0.1536715
19	0x3f080dd4	0.531461
20	0x3e04bf2d	0.12963553
21	0x3e37a3f0	0.17933631
22	0x3e80e179	0.25172022
23	0x3e9d6827	0.30743524
24	0x3df7a5bf	0.120921604
25	0x3e85890c	0.2608112
26	0x3e2ff58a	0.1718351
27	0x3e444171	0.19165589
28	0x3e9b22e8	0.3030007
29	0x3e4a87fd	0.19778438
30	0x3da4a3f4	0.08039084
31	0x3e464e50	0.19365811

module.residual_layers.0.0.conv2.weight f4 [32, 32, 5, 5]
0	0x3d3fea4d	0.046854306
1	0x3d9dc934	0.07704392
2	0x3e14dd9c	0.14537662
3	0x3de1f2b7	0.11032622
4	0xbe12175f	-0.14266728
5	0x3dc69811	0.09696973
6	0x3dde1aa6	0.108449265
7	0x3e1e38ab	0.15451305
8	0x3d73fdd5	0.059568245
9	0xbe01be5f	-0.12670277
10	0x3d68e8a8	0.056862503
11	0x3dc0f83a	0.094223455
12	0x3d5f2401	0.054477695
13	0xbd0dc884	-0.034615055
14	0xbe1dac59	-0.15397777
15	0x3d162a42	0.036661394
16	0x3be8cbd5	0.007104377
17	0xbc7845ee	-0.015153391
18	0xbd6d7288	-0.057970554
19	0xbe119d12	-0.14220074
20	0xbb07dc67	-0.0020730735
21	0xbd62725b	-0.05528484
22	0xbdc90c37	-0.09816783
23	0xbe0e6097	-0.13904034
24	0xbdb0269f	-0.086011164
25	0xbce7c116	-0.028290313
26	0xbc0dfd2e	-0.00866632
27	0x3d320095	0.043457586
28	0x3b349449	0.0027554205
29	0x3bfbffd6	0.00769041
30	0x3d6fa93a	0.058510996
31	0x3d6b6c76	0.057476483
32	0x3d6018e2	0.05471123
33	0x3be3cb3b	0.006951717
34	0xbd3f1283	-0.046648514
35	0x3cb066b9	0.021533357
36	0x3d563e0b	0.052305263
37	0x3d3c6277	0.04599234
38	0x3d1acd94	0.03779371
39	0xbd0efef5	-0.034911115
40	0xbd0eb9e4	-0.034845248
41	0xbc971a41	-0.018445136
42	0xbcda0a5f	-0.026616273
43	0xbc9624b5	-0.01832805
44	0xbd96293e	-0.07332085
45	0x3d4ee764	0.05051364
46	0x3bf161ac	0.0073663797
47	0x3bafb847	0.0053625437
48	0xbaba1837	-0.001419789
49	0xbd89ab62	-0.06722142
50	0xbcda4c23	-0.026647633
51	0x3c45b338	0.012066655
52	0xbd1dec6a	-0.03855554
53	0x3caf4581	0.021395447
54	0x3c632bc7	0.013865418
55	0xbd4c6f35	-0.049910743
56	0x3c16f707	0.009214169
57	0xbd1f3dd2	-0.038877316
58	0x3a8960f1	0.0010481161
59	0x3d51735a	0.0511354
60	0xbc9d1771	-0.019176217
61	0xbc379fbc	-0.011207517
62	0xbbc6ee3f	-0.0060708816
63	0xbbe19fe0	-0.0068855137
64	0x3c791791	0.015203373
65	0x3c78d90d	0.015188468
66	0x3d528a0f	0.051401194
67	0x3d81108c	0.06301984
68	0x3cd7d48c	0.026346467
69	0xbc718921	-0.014742167
70	0x3c365f07	0.011131055
71	0x3d78b140	0.060715914
72	0x3deb5627	0.11491042
73	0x3d6cb22b	0.0577871
74	0x3d5ee94a	0.0544217
75	0x3d953a92	0.07286562
76	0x3ca7f296	0.020501416
77	0xbd010acf	-0.03150445
78	0xbd27df47	-0.04098442
79	0xbd94cc83	-0.0726557
80	0x3df0177f	0.117232315
81	0x3d8a36a1	0.06748701
82	0x3b6ac3fe	0.0035822387
83	0xbcd6ff34	-0.026244737
84	0xbd269574	-0.040669873
85	0x3d340299	0.04394779
86	0x3cb7f5a8	0.022456005
87	0x3c829101	0.015938284
88	0xbd55af97	-0.05216941
89	0xbd9c0e45	-0.07619909
90	0xbb87f59f	-0.0041491534
91	0xbb771fca	-0.0037708157
92	0x3c89ce75	0.01682208
93	0xbc8f46c5	-0.0174898
94	0xbdbe9b57	-0.093069725
95	0xbd552cac	-0.052044556
96	0xbc17c83d	-0.009264049
97	0x39c86f17	0.0003822974
98	0xbc4d0bd5	-0.012515028
99	0xbdb12813	-0.08650222
100	0xbd514f23	-0.05110086
101	0xbc1707eb	-0.009218196
102	0xbb937a14	-0.004500637
103	0xbd72490d	-0.059151698
104	0xbc2b8b05	-0.010470157
105	0xbca94c9b	-0.020666411
106	0xbd3c7fc7	-0.046020295
107	0xb9872267	-0.00025774838
108	0x3c86c975	0.016453484
109	0x3c950cf7	0.018194659
110	0x3bff3d61	0.0077892994
111	0xbd7731b4	-0.060350135
112	0xbd0853f3	-0.033283185
113	0x3c829bf6	0.015943509
114	0x3b4bfad4	0.0031124847
115	0xbca6d68f	-0.020365981
116	0xbc33658f	-0.010949506
117	0xbc6debca	-0.0145215485
118	0xbc972278	-0.018449053
119	0x3c81efc0	0.015861392
120	0xbd51d0d0	-0.05122453
121	0x3cca5bea	0.024702031
122	0x3cab6d9b	0.020926287
123	0x3c8df5ff	0.017329214
124	0x3ca3006c	0.019897662
125	0xbd3632c3	-0.044482004
126	0xbc67c340	-0.014145672
127	0xbc834f1a	-0.01602893
128	0x3c8eefbf	0.017448304
129	0x3bff89d3	0.0077984123
130	0x3d3de47f	0.04636049
131	0x3d4b5e32	0.04965038
132	0xbdca4056	-0.09875552
133	0xbd92ad72	-0.07161988
134	0xbd9cfd5c	-0.07665512
135	0x3d6a7951	0.057244603
136	0x3d0827eb	0.033241194
137	0xbdf10c2e	-0.11769901
138	0xbdf29127	-0.11844092
139	0xbdabdc94	-0.08391681
140	0x3d4b55fb	0.049642544
141	0xbc629de3	-0.013831588
142	0xbe44d41e	-0.19221541
143	0xbe1e1009	-0.15435804
144	0xbdfc7691	-0.12327302
145	0x3d0894e8	0.033345133
146	0xbd838cd5	-0.06423346
147	0xbe2c70bc	-0.1683988
148	0xbdda2bd6	-0.10652892
149	0xbdad1423	-0.084511064
150	0x3dd0d5ec	0.10197052
151	0x3c33152d	0.010930342
152	0xbd16c12f	-0.036805328
153	0xbd1a9eb2	-0.037749
154	0xbc803244	-0.015648969
155	0x3d284f77	0.04109141
156	0xbd5df49c	-0.054188356
157	0xbdb8c217	-0.09021395
158	0xbd6ea6b1	-0.058264438
159	0x3c29d260	0.010365099
160	0x3db991c2	0.09061004
161	0x3d0911b9	0.033464167
162	0xbbec4534	-0.007210398
163	0x3b5b0c8a	0.0033424222
164	0x3d6b8f18	0.05750951
165	0x3c5dcad2	0.013537126
166	0xbcf325c0	-0.029681087
167	0xbd838d25	-0.064234056
168	0xbd220bf5	-0.039562184
169	0xbc04af99	-0.008098506
170	0x3c824621	0.01590258
171	0xbd41c014	-0.04730232
172	0xbd8c410e	-0.06848346
173	0xbd19d344	-0.037554994
174	0xbd4fdc3a	-0.050747134
175	0xbbd1fa2f	-0.006407998
176	0xbd000fa9	-0.031264935
177	0x3b14a454	0.0022680955
178	0xbd3f2227	-0.04666343
179	0xbd0bf392	-0.034167834
180	0xbd3b132c	-0.04567258
181	0xbd5af63a	-0.053457476
182	0xba5cc064	-0.00084210024
183	0x399195e4	0.00027768232
184	0x3c2f6e56	0.0107074585
185	0xbd22a2ef	-0.039706167
186	0xbc857aac	-0.016293846
187	0x3cb59d41	0.022169711
188	0xbcf3a676	-0.02974246
189	0xbd25afbb	-0.040450793
190	0xbd21e67c	-0.039526448
191	0x3c767373	0.015042174
192	0x3d75597a	0.059899785
193	0xbba517b1	-0.0050382246
194	0x3d1fc508	0.039006263
195	0xbc94a853	-0.01814667
196	0x3caa7746	0.020808827
197	0x3d3791c6	0.044816755
198	0xbc599794	-0.013280768
199	0x3d835911	0.064134724
200	0x3d49abcd	0.049236108
201	0x3dae439d	0.0850899
202	0x3d297f94	0.041381434
203	0x3d82feb9	0.06396241
204	0xbd20310d	-0.03910928
205	0x3bc018f4	0.0058623496
206	0xbd17d595	-0.037068922
207	0xbcac50d0	-0.021034628
208	0x3cbe8b68	0.023259833
209	0xbcf444ae	-0.029817905
210	0x3d8ac5d1	0.06776012
211	0x3cda3fa3	0.026641672
212	0xbde4e420	-0.11176324
213	0xbd800ea3	-0.06252792
214	0xbbc054a2	-0.005869464
215	0x3d9730a8	0.07382327
216	0x3d2ce17a	0.04220722
217	0xbd455f86	-0.0481868
218	0xbdbce106	-0.09222607
219	0xbd8409eb	-0.06447204
220	0x3c4f40e0	0.012649745
221	0x3d143ff9	0.03619382
222	0x3ba99b1f	0.0051759626
223	0xbdb0c1df	-0.08630728
224	0xbe16b271	-0.14716507
225	0xbcce415d	-0.025177652
226	0x3c0c0d6a	0.00854812
227	0xbd83106f	-0.06399619
228	0xbd8ec4c3	-0.06971123
229	0x3ad6bce3	0.0016383197
230	0xbcca6069	-0.024704175
231	0xbc69b4bc	-0.014264282
232	0xbd5677e9	-0.05236045
233	0xbd0a2e73	-0.033735704
234	0x3ca3ee7b	0.020011177
235	0xbd219126	-0.039445065
236	0xbcf26f05	-0.029593954
237	0x3bad744d	0.005293405
238	0x3ceee641	0.029162528
239	0x3d2fa05e	0.042877547
240	0x3bfcc772	0.0077142054
241	0x3cadd9e9	0.021222072
242	0x3d73d602	0.059530266
243	0x3d6ccdeb	0.057813566
244	0x3cdfc9aa	0.02731784
245	0x3c83933c	0.016061418
246	0x3b767266	0.0037604808
247	0x3ca55bfb	0.020185461
248	0x3d324507	0.04352286
249	0x3d6cbcae	0.057797126
250	0x3b9a013f	0.0046998556
251	0x3d1b8b96	0.037974916
252	0xbd93c464	-0.07215193
253	0xbcdaa967	-0.026692105
254	0x3c56fe62	0.013122173
255	0x3d12defd	0.03585719

module.residual_layers.0.0.bn2.weight f4 [32]
0	0x3f341406	0.70343053
1	0x3f106045	0.56396896
2	0x3f4004a6	0.7500709
3	0x3f1371aa	0.5759531
4	0x3f1698fd	0.5882719
5	0x3f1b0d31	0.60567003
6	0x3ede11ce	0.4337296
7	0x3f1b000c	0.60546947
8	0x3f222c00	0.6334839
9	0x3f1736ff	0.5906829
10	0x3f060d43	0.52363986
11	0x3f521bb3	0.82073516
12	0x3f12bd39	0.5731998
13	0x3f2c5f25	0.6733268
14	0x3f3c2bbe	0.73504245
15	0x3f24a317	0.64311355
16	0x3ecf346c	0.40469682
17	0x3f28da0f	0.6595773
18	0x3f499e9b	0.7875764
19	0x3f44410e	0.76661766
20	0x3ef15c5c	0.47140777
21	0x3f3683cb	0.7129485
22	0x3f38dadd	0.7220896
23	0x3f160219	0.5859695
24	0x3f187336	0.595508
25	0x3f58da48	0.8470807
26	0x3f177490	0.59162235
27	0x3f0099e0	0.50234795
28	0x3f1f4920	0.62220955
29	0x3f041713	0.5159771
30	0x3f372518	0.71540976
31	0x3f2c85d4	0.67391706

module.residual_layers.0.0.bn2.bias f4 [32]
0	0xbe8f17c2	-0.27947813
1	0xbdf492eb	-0.11942085
2	0xbf2c2baa	-0.67254126
3	0xbe663988	-0.22482884
4	0xbea3940b	-0.31948885
5	0xbe6db65a	-0.23214093
6	0xbd1d7202	-0.038438804
7	0xbd9e6dcd	-0.077357866
8	0xbf08fef7	-0.53514045
9	0xbea21071	-0.3165317
10	0xbc0d82d7	-0.008637152
11	0xbf9a34a6	-1.2047317
12	0xbf0bc9fd	-0.54605085
13	0xbe9287b7	-0.28619167
14	0xbe8634de	-0.2621221
15	0xbba48f89	-0.0050219935
16	0xbe49d202	-0.19709018
17	0xbe949f3c	-0.29027736
18	0xbec6dfa7	-0.38842508
19	0xbea4e8c2	-0.3220883
20	0xbe9c4af9	-0.3052595
21	0xbea3d666	-0.3199951
22	0xbe8e1f96	-0.27758473
23	0xbe371d02	-0.1788216
24	0xbe915535	-0.2838532
25	0xbe32409a	-0.17407456
26	0x3cba4d0d	0.022741819
27	0xbe799ec7	-0.24376975
28	0xbe49d652	-0.19710663
29	0xbe774a3d	-0.24149413
30	0xbe7a3b98	-0.24436796
31	0xbe807ba1	-0.2509432

module.residual_layers.0.0.bn2.running_mean f4 [32]
0	0xbe8d7503	-0.27628335
1	0xbf064c16	-0.5245985
2	0xbe4cc544	-0.19997126
3	0xbe26aa90	-0.16276002
4	0xbdf1b3b0	-0.11801851
5	0xbe4a0f12	-0.19732311
6	0xbc777c57	-0.0151053285
7	0xbec31c50	-0.38107538
8	0xbdf89c82	-0.121392265
9	0x3d0a0d6b	0.033704203
10	0xbde7b242	-0.11313297
11	0xbe4c95b2	-0.19978979
12	0xbec1ba3a	-0.37837392
13	0xbeac8cd2	-0.33701187
14	0xbf16e5c8	-0.5894437
15	0x3ddfbd40	0.109247684
16	0x3d45a9d7	0.048257675
17	0xbeb2319b	-0.3480347
18	0xbefdbc63	-0.4955779
19	0xbf0739f6	-0.52822816
20	0xbd934dba	-0.071925595
21	0xbe890b9a	-0.26766664
22	0xbe95e107	-0.29273245
23	0xbe9687c0	-0.29400444
24	0xbd77f466	-0.06053581
25	0xbe8951ea	-0.26820308
26	0x3eb6cfcc	0.3570541
27	0xbe43b15e	-0.19110629
28	0xbe6a474c	-0.2287876
29	0xbdab1162	-0.08352925
30	0xbf0131c0	-0.5046654
31	0x3e536ffd	0.20648189

module.residual_layers.0.0.bn2.running_var f4 [32]
0	0x3eae8222	0.34083658
1	0x3ebddfd1	0.3708482
2	0x3e78e063	0.24304347
3	0x3e48769d	0.19576497
4	0x3e8bf7da	0.27337533
5	0x3ea1dca1	0.3161364
6	0x3e888857	0.2666652
7	0x3e90bd54	0.28269446
8	0x3e68087c	0.22659487
9	0x3e9870e4	0.2977363
10	0x3ea3dbd2	0.32003647
11	0x3e5d1d83	0.21593289
12	0x3e49d7a2	0.19711164
13	0x3eabd1f6	0.33558625
14	0x3ef89d2a	0.48557407
15	0x3eb70ecd	0.3575348
16	0x3e67ea67	0.22648011
17	0x3eb579d6	0.35444516
18	0x3eb445eb	0.35209593
19	0x3eb807b3	0.35943374
20	0x3eb5f91a	0.35541612
21	0x3e98a1ac	0.29810846
22	0x3eacb96c	0.33735216
23	0x3e9a7ff1	0.30175737
24	0x3e91445e	0.28372473
25	0x3ead6318	0.33864665
26	0x3e9fdc42	0.3122273
27	0x3eb6703b	0.356325
28	0x3eb8585a	0.36004907
29	0x3e8c8af6	0.2744977
30	0x3f0d8ddc	0.55294585
31	0x3ec71179	0.38880518

module.residual_layers.1.0.conv1.weight f4 [64, 32, 5, 5]
0	0xbc753a8b	-0.014967571
1	0xbd68f2fb	-0.05687235
2	0xbde0e1ad	-0.10980544
3	0x39abe4c2	0.000327861
4	0x3dff308d	0.12460432
5	0x3be46539	0.0069700745
6	0xbd1c767a	-0.038198926
7	0xbd6124b1	-0.054966632
8	0xbc136822	-0.008996995
9	0x3c50891c	0.012728002
10	0xbbdfd21b	-0.0068304664
11	0x3bd352c0	0.0064490736
12	0xbca81f9c	-0.020522885
13	0xbd96dc04	-0.073661834
14	0xbda19b26	-0.0789092
15	0xbcf41645	-0.029795775
16	0x3b9fb403	0.004873754
17	0x3b9695cc	0.004595494
18	0x3ba8297e	0.0051318994
19	0xbbe3710a	-0.0069409655
20	0xbd7bef53	-0.061507534
21	0xbb9ac5f1	-0.0047233035
22	0xb9f91da7	-0.00047515074
23	0x3da3bfd1	0.079955705
24	0x3e1ba46d	0.15199442
25	0xbdd4e350	-0.10394919
26	0xbd283280	-0.041063786
27	0xbd101c6f	-0.035183366
28	0xbd6d67be	-0.057960264
29	0xbe0853bd	-0.13313194
30	0xbe000ba1	-0.12504436
31	0xbd96c9bc	-0.073626965
32	0xbd853954	-0.06505075
33	0xbd08b07f	-0.033371445
34	0xbda41b72	-0.08013047
35	0xbdafbeac	-0.0858129
36	0xbddb990d	-0.107225515
37	0xbd3e3bc2	-0.04644371
38	0xbd554795	-0.05207022
39	0xbd16b723	-0.036795747
40	0xbcd46e6d	-0.025931561
41	0xbd2ce2ef	-0.04220861
42	0x3c25ddaf	0.010123654
43	0x3c174045	0.009231632
44	0xbc2be2c3	-0.010491076
45	0x3cc1dfc5	0.023666272
46	0x3d53c00c	0.051696822
47	0x3d80d37d	0.06290338
48	0x3cc266c9	0.023730652
49	0xbc244819	-0.010026955
50	0x3e1c16bc	0.15243047
51	0x3e11974d	0.14217873
52	0x3d83d0b8	0.06436294
53	0xbc82e8c5	-0.015980134
54	0xbd21a25a	-0.03946147
55	0x3dc4f0e1	0.096162565
56	0x3db77224	0.089573175
57	0x3dc8ef56	0.09811275
58	0x3cb7ef5e	0.022453006
59	0xbd2de9e5	-0.042459387
60	0xbc5203d0	-0.012818292
61	0x3cb331c7	0.021874322
62	0x3d4fe9ac	0.050759956
63	0x3d16267a	0.036657788
64	0x3caf8723	0.021426743
65	0x3c3b3292	0.011425631
66	0x3d1f39b8	0.038873404
67	0x3d113938	0.03545496
68	0x3d8e01ed	0.06933961
69	0x3d154ce1	0.03645027
70	0x3d97cfab	0.074126564
71	0x3cef02a2	0.02917606
72	0x3b30da84	0.0026985714
73	0x3d233d62	0.03985346
74	0x3cb5dde7	0.022200538
75	0x3d2a99c4	0.04165055
76	0xbcd20bca	-0.025640387
77	0xbd510447	-0.05102947
78	0xbd0e7f81	-0.034789566
79	0xbc715392	-0.014729397
80	0xbd24cd68	-0.040234953
81	0xbd9a9aa7	-0.07549029
82	0xbd8f8695	-0.07008091
83	0xbce3676f	-0.027759282
84	0xbae85129	-0.0017724383
85	0xbda75472	-0.081704035
86	0xbd355897	-0.04427394
87	0xbd376333	-0.044772338
88	0xbd5e1080	-0.054214954
89	0xbd7f446c	-0.06232111
90	0xbd72be20	-0.05926335
91	0xbc470e97	-0.012149475
92	0xbcced006	-0.025245678
93	0xbd095696	-0.03352984
94	0xbcb6d7da	-0.022319723
95	0x3c085aec	0.008322459
96	0x3c829263	0.015938943
97	0xbdaec54c	-0.08533725
98	0xbdc85222	-0.097812906
99	0xbde22e24	-0.11043957
100	0xbd578af0	-0.052622736
101	0xbd4157e6	-0.047202967
102	0xbd2b421f	-0.041811105
103	0xbd798367	-0.06091633
104	0xbda2a3e3	-0.07941415
105	0x3c8f0b22	0.017461363
106	0x3c06bd98	0.008223914
107	0x3ba51ac7	0.0050385925
108	0xbc6fac42	-0.014628472
109	0xbd8545c6	-0.06507449
110	0x3cc0282c	0.023456655
111	0x3c74b700	0.014936209
112	0xbc782360	-0.015145153
113	0x3bedc8c3	0.0072565987
114	0xbc141e00	-0.009040356
115	0xbcc8d699	-0.02451639
116	0xbb86e85d	-0.0041170553
117	0xbd172c94	-0.036907747
118	0xbd243645	-0.040090818
119	0x3d00ffa1	0.031493787
120	0xbd9a4c39	-0.075340696
121	0xbd3c8b67	-0.046031382
122	0xbd0fb197	-0.035081472
123	0x3cb576f0	0.02215144
124	0x3dd249f7	0.10268014
125	0x3b0351a1	0.0020037668
126	0x3b8f28a9	0.0043688607
127	0xbca59a68	-0.020215228
128	0x3a8b22e9	0.0010615262
129	0x3df9a376	0.12189381
130	0xbd2021cd	-0.039094735
131	0xbd06afed	-0.03288262
132	0xbc9dfa93	-0.019284522
133	0x3d3bbaac	0.04583232
134	0x3dd6af5b	0.10482665
135	0xbd997604	-0.07493213
136	0xbd277fd3	-0.040893387
137	0x3c98d792	0.01865748
138	0x3d61131c	0.054949865
139	0x3d5e290b	0.05423836
140	0xbd93b222	-0.072117105
141	0xbd45bf48	-0.048278123
142	0x3bcaffdf	0.006195053
143	0x3ca623ce	0.020280745
144	0x3d388d22	0.04505647
145	0xb946b6cd	-0.0001895085
146	0x3d1e2da0	0.03861773
147	0xbbae30b7	-0.005315866
148	0x3c491625	0.012273346
149	0x3da2bf3c	0.07946631
150	0x3d5c5f67	0.05380192
151	0x3ba658b4	0.005076492
152	0xbda21d51	-0.07915748
153	0xbdd203f8	-0.10254663
154	0xbc944aab	-0.01810201
155	0x3dc2928b	0.09500607
156	0x3cf5342c	0.029932104
157	0xbccebadd	-0.025235588
158	0x3c93564f	0.017985491
159	0x3c3711b0	0.011173651
160	0xbab22ef5	-0.0013594317
161	0xbd4cf59d	-0.050038923
162	0xbcc88f85	-0.024482498
163	0x3c85d635	0.016337493
164	0x387311c1	5.795225e-05
165	0xbce953cc	-0.02848234
166	0xbd1b880f	-0.037971552
167	0xbd40019c	-0.046876535
168	0xbb0221ab	-0.0019856493
169	0x3c8b0d10	0.016974002
170	0xbb571735	-0.003282023
171	0xbcda5ecc	-0.02665653
172	0xbd086259	-0.033296917
173	0xb9b692b5	-0.0003482305
174	0xbcd20f7b	-0.025642147
175	0xbdbff54a	-0.09372957
176	0xbd83ed8c	-0.06441793
177	0xbd249215	-0.040178377
178	0xbccca318	-0.024980113
179	0xbc30a9c0	-0.010782659
180	0xbdf3208d	-0.11871443
181	0xbd9edae5	-0.077565946
182	0xbd4553f5	-0.04817577
183	0xbcc2ecdb	-0.023794582
184	0x3c440912	0.011965053
185	0xbda5c721	-0.080946214
186	0xbd7391cc	-0.059465215
187	0xbd1a27f3	-0.037635755
188	0xbd8d45e1	-0.06898094
189	0xbd303b3a	-0.043025233
190	0xbc6c657b	-0.014428492
191	0x3cf2c08c	0.02963283
192	0x3cb8dd67	0.02256651
193	0xbccde4a2	-0.025133435
194	0xbd5a2bd8	-0.05326447
195	0xbd3d2eed	-0.04618733
196	0x3c01995f	0.007910102
197	0x3d647ec3	0.055784952
198	0x3c0937a5	0.008375083
199	0xbd7836e4	-0.060599223
200	0x3c67bd2e	0.014144225
201	0x3db54c35	0.08852426
202	0x3ce7a4a9	0.028276758
203	0x3cc49693	0.02399758
204	0xbd3b06ba	-0.04566071
205	0x3c852317	0.016252084
206	0xbcd668d7	-0.026173038
207	0xbd6409d1	-0.055673424
208	0xbd31e004	-0.04342653
209	0xbd663286	-0.056200527
210	0x3c9ef4fa	0.019403923
211	0xbcd6b84c	-0.026210926
212	0xbd037cc7	-0.03210142
213	0x3b8d8620	0.0043189675
214	0xbc7aeb0d	-0.01531483
215	0x3cce5abd	0.025189752
216	0x3d04e98a	0.032449283
217	0x3c2dcddb	0.010608162
218	0x3d42b979	0.04754016
219	0x3d3f55da	0.046712734
220	0x3d6cbc52	0.057796784
221	0x3d9cfc3e	0.07665299
222	0x3d9be4c5	0.07611994
223	0x3dbd90a0	0.09256101
224	0x3d2ffb18	0.04296407
225	0xbdc4a8a7	-0.096024804
226	0xbc686a12	-0.014185445
227	0xbd67a5c0	-0.056554556
228	0xbdfe4613	-0.12415709
229	0xbe48cc42	-0.19609168
230	0x3c99933c	0.018746965
231	0x3da29853	0.0793921
232	0x3d1a08dc	0.037606105
233	0xbb11bf08	-0.0022239108
234	0xbdc0d698	-0.094159305
235	0x3d93a67d	0.072094895
236	0x3df65c60	0.12029338
237	0x3e0bd092	0.13653782
238	0x3da612db	0.08109065
239	0x3cadddf4	0.021224
240	0x3bad29b6	0.0052845133
241	0x3cd3ea3b	0.025868526
242	0x3d795e42	0.060880907
243	0x3d5b13be	0.053485624
244	0x3c96f0db	0.018425396
245	0xbc349cf2	-0.011023747
246	0xbda11295	-0.07864872
247	0xbc7fef83	-0.015621069
248	0x3d0ca577	0.034337487
249	0x3b0580a9	0.0020370877
250	0x3d39f56e	0.045400076
251	0x3d89615b	0.06708022
252	0x3d4dcadc	0.05024229
253	0x3d91ae6d	0.07113347
254	0x3e2fcbb7	0.17167555
255	0x3d859dc4	0.06524232

module.residual_layers.1.0.bn1.weight f4 [64]
0	0x3fb30b57	1.3987836
1	0x3eb480d7	0.35254547
2	0x3efd22a7	0.494405
3	0x3f13fa78	0.5780406
4	0x3f49f4ba	0.7888905
5	0x3f34bf88	0.70604753
6	0x3f090f81	0.5353928
7	0x3f0d146c	0.55109286
8	0x3f43b9d9	0.76455456
9	0x3f377689	0.71665245
10	0x3eb44c58	0.35214496
11	0x3f196724	0.59923005
12	0x3e8ffeda	0.28124124
13	0x3ead1005	0.33801284
14	0x3e9f163d	0.31071654
15	0x3f526177	0.8217997
16	0x3f184449	0.59479195
17	0x3ed8c2d3	0.4233614
18	0x3f3a3cff	0.7274932
19	0x3ecace03	0.396103
20	0x3f39f4b9	0.7263904
21	0x3f5c6228	0.86087275
22	0x3eef9d65	0.4679977
23	0x3eb29884	0.34881985
24	0x3ec400e2	0.38281924
25	0x3f0fa63d	0.56113034
26	0x3f0e96cc	0.5569885
27	0x3f3b7da2	0.73238575
28	0x3ed5da54	0.41768134
29	0x3f06fabf	0.5272636
30	0x3f08df35	0.53465587
31	0x3e6acef2	0.22930506
32	0x3f2d8ea2	0.67795765
33	0x3f5c0780	0.85948944
34	0x3ef8b539	0.48575762
35	0x3f07838d	0.52935106
36	0x3ed43534	0.4144684
37	0x3f139af5	0.5765832
38	0x3e9951bc	0.2994517
39	0x3f1faf24	0.6237662
40	0x3ec71a1c	0.38887107
41	0x3f0e0b3e	0.55485904
42	0x3f18d705	0.59703094
43	0x3ef73ec3	0.4829007
44	0x3f8c3fee	1.095701
45	0x3f2a22b7	0.6645922
46	0x3f6f857c	0.93563056
47	0x3f6e138d	0.9299858
48	0x3ef86b07	0.48519155
49	0x3eb82755	0.35967508
50	0x3f3a194d	0.72694856
51	0x3ecda82a	0.40167361
52	0x3d87a4dd	0.06623242
53	0x3e66d62f	0.22542642
54	0x3ededf51	0.43529752
55	0x3f1a1f6e	0.6020421
56	0x3f0c12e8	0.5471635
57	0x3f04fed1	0.5195132
58	0x3ea066d7	0.3132846
59	0x3f6d7335	0.92753917
60	0x3e6a3eb6	0.22875485
61	0x3ed76b78	0.4207418
62	0x3f3e16d5	0.7425359
63	0x3ed7f062	0.42175585

module.residual_layers.1.0.bn1.bias f4 [64]
0	0xbff68e41	-1.9262162
1	0xbf0c8d09	-0.549027
2	0xbf2ce25f	-0.67532915
3	0xbf599fa1	-0.850092
4	0xbf82c150	-1.0215244
5	0xbf819b17	-1.0125455
6	0xbf3a0535	-0.72664195
7	0xbf422c37	-0.75848716
8	0xbf8a48ac	-1.0803428
9	0xbf9f5097	-1.2446469
10	0xbef935db	-0.486739
11	0xbf6a32f8	-0.9148402
12	0xbe9d1f76	-0.30688065
13	0xbf0122b4	-0.5044358
14	0xbeed900d	-0.46398965
15	0xbfa19461	-1.2623407
16	0xbf6535d2	-0.8953525
17	0xbf17e059	-0.593267
18	0xbf8cf9c0	-1.1013718
19	0xbf0f76bc	-0.5604055
20	0xbf95e438	-1.1710272
21	0xbf907663	-1.1286129
22	0xbf2176b9	-0.6307178
23	0xbeb8e9ec	-0.36115968
24	0xbf145582	-0.57942975
25	0xbf53f71d	-0.8279894
26	0xbf359586	-0.7093128
27	0xbf7ea306	-0.99467504
28	0xbf159c84	-0.5844195
29	0xbf61c344	-0.88188577
30	0xbf1e4d57	-0.6183676
31	0xbea9eeb3	-0.33189926
32	0xbf6e74fb	-0.9314725
33	0xbf7b7bc7	-0.98235744
34	0xbf3318c7	-0.6995968
35	0xbf4e901e	-0.80688655
36	0xbf0f4948	-0.55971193
37	0xbf4ebe9f	-0.80759615
38	0xbee6034d	-0.44924393
39	0xbf936be4	-1.1517301
40	0xbf091296	-0.53543985
41	0xbf65158c	-0.89486
42	0xbf4ad0bf	-0.7922477
43	0xbf4f06f4	-0.80869985
44	0xbfbe3b81	-1.4861909
45	0xbf885b79	-1.0652915
46	0xbfb4873b	-1.4103769
47	0xbfbd6090	-1.4795094
48	0xbf2ed4e3	-0.6829359
49	0xbeff6d6d	-0.49888173
50	0xbf9b8e82	-1.2152865
51	0xbee4a5de	-0.44657797
52	0x3d69f2ac	0.057116196
53	0xbe9385f1	-0.28813127
54	0xbf1ed631	-0.6204558
55	0xbf82d810	-1.0222187
56	0xbf59644c	-0.84918666
57	0xbf536fe5	-0.8259261
58	0xbe9af4d0	-0.30264902
59	0xbf767a7c	-0.96280646
60	0xbe475f3c	-0.19469923
61	0xbf25b921	-0.6473561
62	0xbf6e696d	-0.93129617
63	0xbf28fdd7	-0.6601233

module.residual_layers.1.0.bn1.running_mean f4 [64]
0	0xc03c117a	-2.9385667
1	0xbfa6b944	-1.3025289
2	0xbf77f152	-0.968526
3	0xbfb99c01	-1.4500734
4	0xbfd6df96	-1.6786983
5	0xbfc7f6fb	-1.5622247
6	0xbf8d2e74	-1.1029801
7	0xbfbd1c72	-1.4774306
8	0xbfbe5333	-1.486914
9	0xbfb32201	-1.3994752
10	0xbf2aaf00	-0.6667328
11	0xbf4d6d76	-0.8024515
12	0xbf01efa7	-0.50756305
13	0xbf3ee5af	-0.7456922
14	0xbea99d53	-0.3312784
15	0xbfdc0063	-1.7187618
16	0xbf72d482	-0.9485551
17	0xbf978bec	-1.1839576
18	0xbfc97482	-1.573868
19	0xbecd05a1	-0.40043357
20	0xbfb8ca64	-1.4436765
21	0xc0052b46	-2.0807662
22	0xbf94697f	-1.1594695
23	0xbf5b589e	-0.85682094
24	0xbfaba74b	-1.3410429
25	0xbfb08c20	-1.3792763
26	0xbfc6fbe3	-1.554562
27	0xbf984783	-1.1896824
28	0xbf89f316	-1.0777309
29	0xbf96aaf5	-1.1770922
30	0xbfb90d4c	-1.4457183
31	0xbe2c1752	-0.16805771
32	0xbfd7ac60	-1.684948
33	0xbfb9b120	-1.4507179
34	0xbfa774a0	-1.3082466
35	0xbf030aaa	-0.5118815
36	0xbf6e43d5	-0.93072253
37	0xbf8f1c78	-1.1180563
38	0xbd47f6d6	-0.048819385
39	0xbfd778c4	-1.683373
40	0xbf9ed66d	-1.2409188
41	0xbf743859	-0.9539848
42	0xbfce2b31	-1.6106931
43	0xbf964ac8	-1.1741571
44	0xbfb13095	-1.3842951
45	0xbfe7c48f	-1.810686
46	0xbff8a1d8	-1.9424391
47	0xbfdab563	-1.7086605
48	0xbfd0139e	-1.6255987
49	0xbeaa8490	-0.33304262
50	0xbfad7910	-1.355257
51	0xbfa11aa8	-1.258626
52	0xbedd4bdc	-0.4322194
53	0xbf4ddcb8	-0.80414915
54	0xbf833956	-1.0251873
55	0xbff64b02	-1.924164
56	0xbf887d3c	-1.0663218
57	0xbf937f5b	-1.1523241
58	0xbfbbb254	-1.4663796
59	0xc01d921d	-2.462043
60	0xbfb35e6f	-1.4013194
61	0xbf98e25f	-1.1944083
62	0xbf850c3c	-1.0394359
63	0xbf3d5abb	-0.7396657

module.residual_layers.1.0.bn1.running_var f4 [64]
0	0x40092381	2.142792
1	0x3e9bcd3d	0.30430022
2	0x3ee1466e	0.43999046
3	0x3f165513	0.5872356
4	0x3f62919e	0.88503444
5	0x3eee7a65	0.46577755
6	0x3ef763cb	0.48318323
7	0x3f059319	0.5217758
8	0x3f303b5c	0.68840575
9	0x3f4c6bbc	0.7985189
10	0x3eaf1403	0.34194955
11	0x3eec2868	0.46124578
12	0x3e80d642	0.25163466
13	0x3f108ec3	0.5646784
14	0x3e90f360	0.2831068
15	0x3f5304b2	0.8242904
16	0x3f0fbc79	0.5614696
17	0x3edbea94	0.42952406
18	0x3f176e9e	0.59153163
19	0x3ea081fc	0.3134917
20	0x3efa6156	0.48902386
21	0x3f771433	0.96515197
22	0x3eae2035	0.34008947
23	0x3ea87e47	0.32908842
24	0x3eddaf5a	0.43297845
25	0x3f07d711	0.5306254
26	0x3f19f9eb	0.6014697
27	0x3f4460d8	0.7671027
28	0x3ef2dcb7	0.47434017
29	0x3eed0360	0.46291637
30	0x3eee6141	0.46558574
31	0x3e970633	0.29496917
32	0x3f53f481	0.8279496
33	0x3fab0b07	1.336274
34	0x3f0f537c	0.5598676
35	0x3ec4681f	0.38360688
36	0x3ec198f6	0.37812012
37	0x3ecbb295	0.39784685
38	0x3e60be77	0.21947657
39	0x3f023900	0.50868225
40	0x3eec7084	0.46179593
41	0x3ed5bbe6	0.41744918
42	0x3f4d7ef1	0.8027182
43	0x3ead18dd	0.33808032
44	0x3f977c08	1.1834726
45	0x3f1cbbe3	0.6122419
46	0x3f70271b	0.9380967
47	0x3f6c6864	0.9234679
48	0x3ee7688a	0.45196944
49	0x3ea5acc0	0.3235836
50	0x3f1a2b84	0.6022265
51	0x3ec19b23	0.37813672
52	0x3e6f3afc	0.23362345
53	0x3e5856a1	0.21126796
54	0x3f1a7fdb	0.6035134
55	0x3f4feced	0.81220895
56	0x3f040832	0.51575005
57	0x3ed13954	0.4086405
58	0x3ec11a22	0.3771525
59	0x3fc80137	1.5625371
60	0x3e8394ed	0.2569956
61	0x3ec4d894	0.38446486
62	0x3f10e504	0.5659945
63	0x3ead670e	0.33867687
