summaries/vanilla_ResNet2_num_blocks1x1_num_channels32_conv3/ckpt.pth (torch, 327283 bytes, 32 tensors)

module.conv1.weight f4 [32, 3, 3, 3]
00000000: 68b6 ddbd af03 903e e65e f9bc e1f2 2e3f
00000010: 56dd 7dbf d0b2 b93e 4d9e 76be 8315 483e
00000020: 1fdd 3abe 8091 95be 65c4 24bd 27b1 4e3d
00000030: 9cc4 cb3e c419 85bf fe7a 1c3f 6700 85be
00000040: 7e7c a93e f1d5 673e 88b1 6abd e62c 973e
00000050: 6cae 89be 6e92 1b3f fd02 f7be c6a5 303e
00000060: 69f3 8f3a 4f9c 193d f217 70be 0ea0 de3d
00000070: 8902 8e3e ac26 693e 5785 223d 8c99 a6bd
00000080: ed88 d5bd d1ae af3b 5f67 13be 6fef 5bbe
00000090: f79f 643e f9db f53e e49e c93e b417 b1bd
000000a0: 8a90 eebd fda5 aebd 1b53 47be 6b04 9fbe
000000b0: 7650 a6be 6504 443e 5f8d b73e 894a 993e
000000c0: aba8 e8bd 788b 12be 9c87 a7bd 1146 13be
000000d0: 819b 4fbe 35e9 54be 0a64 71be ddbc 233e
000000e0: 99ee 513f bd0d 06bf ab24 c63e 7e37 063f
000000f0: c817 09bf 8693 07bf 83ed c4bd df69 17be
00000100: a5f3 b7be c6df 06be 5314 723e 477d a33e
00000110: e858 2bbe f93c ac3e 53dd e1bb 77b2 073d
00000120: c465 c93d 7ea4 d9be 0cfe 89be 96be cc3e
00000130: c8b2 563e c192 00bf 5c9e d63e 5d80 d13d
00000140: 29e2 07be 79d2 ef3d 2dba 183e de39 10be
00000150: 51c9 b0bc 3748 333d 82d9 15be 21a1 0bbe
00000160: 8984 c8bd 5ff7 45bd 0091 803d 1ec0 283e
00000170: 117c 21be 2092 80bc ec1d 243e d999 dbbd
00000180: 5b76 debd af38 173d b155 223d 01f2 073e
00000190: fd5c 903e 9032 b7bc 4dc8 743d eedb 8b3e
000001a0: 0ead 3f3d 5358 3cbe a4da f13c 4741 a83d
000001b0: 2b1e 123e a364 833e ebfe 9f3e 4c88 be3d
000001c0: f85f 7c3b 0395 353e bb27 653c 1f8b 98be
000001d0: 9a5c b1bd 4f4c 9dbc 4bd4 47be aa4c e7bd
000001e0: 109d 103d 99aa 60be 758a 93bd 0cfd 0f3e
000001f0: 9d86 6bbe 2f86 c1bd 9f77 66bd 6337 24be
00000200: 091e 593d def8 f8bd 0d20 37be 7cba 4d3d
00000210: 6a8c 283d d7b4 f0bd 8f00 673d af5d 003e
00000220: a6f2 1ebe d5a5 d6bc a70a 12bd 706e b4be
00000230: 8ee0 94bd 3432 b6bc 0d3a cabe b87c 16be
00000240: 7033 293e eacb 90bd 5331 bdbc 1a59 0b3e
00000250: 1f97 8fbd 57c1 013e fbef a83d 1558 3bbe
00000260: 7135 1b3d 9569 9d3d 78fd 2dbd 7553 8b3c
00000270: 74c9 303e d055 283e 4263 b73e f64b b73d
00000280: 4ecb 3e3a 5834 4e3e 1f4b 6730 be62 b12e
00000290: 8d7a 3c30 be44 482e c263 1130 af16 49af
000002a0: 40b8 f5af ee2c f8ac 1972 0530 b499 9e30
000002b0: 5e89 212f d386 b52f c6c9 2630 2d24 802f
000002c0: 63a0 8130 26cc f82e a197 0e2f 8385 2f30
000002d0: a891 492f a600 3e30 8261 1330 fe2e 31ae
000002e0: e4bb 8c2f d61b 772f c197 67af 57b6 b8af
000002f0: 1281 f12f f1f1 cc36 3716 3637 e6b0 5637
00000300: 77ef ecb5 74fb b636 bd89 3537 8a61 edb5
00000310: f76b 8e36 9e35 1237 e334 c3b6 2d46 02b7
00000320: 27ca 6ab6 f492 66b7 93b5 90b7 e6f8 27b7
00000330: a1b3 07b7 62d6 64b7 65cf f5b6 3c94 6037
00000340: c1d6 8737 f403 7737 0480 a036 80b9 bb36
00000350: 08b0 d236 a0a8 aab3 ef9f 4db6 a677 19b6
00000360: 14c5 e83d f699 e43d c515 4a3d 2b62 bcbe
00000370: b6ab 32be 21b4 2c3e 7a72 963c 63c3 9d3c
00000380: 06e8 50bd acfc f03c 3b71 ba3d b36b 803d
00000390: a24d 9cbe 84cf cbbd c0c0 823e 5505 403e
000003a0: 9c25 163e c160 393d 1bbf 353c 0ba0 5f3e
000003b0: adbe 553e fd66 c9be 36b7 26be 60c7 013e
000003c0: 3802 10bd 94bb 78bd 21e9 43be 6a71 14be
000003d0: 8ad5 d9bd c1d3 b2bc 71a6 7fbc ccd6 b1bd
000003e0: a022 b2bd 8573 203e d564 193e 6933 f23d
000003f0: 399f 56be b080 01be e77c 4a3d 4a5e 22bd
-0.10825807 0.2812781 -0.030440759 0.68339354 -0.99165857 0.36269236 -0.24083824 0.19539456
-0.18248414 -0.2921257 -0.04022636 0.050461914 0.3979844 -1.0398488 0.6112517 -0.2597687
0.33102793 0.22640206 -0.057298213 0.29526442 -0.26890886 0.6077031 -0.48244467 0.17250738
0.0010982576 0.037502583 -0.23446634 0.10870372 0.2773631 0.22768658 0.039677944 -0.081347555
-0.10426507 0.005361416 -0.14394902 -0.21478055 0.22326647 0.48019388 0.39379036 -0.08647099
-0.116486624 -0.085277535 -0.19465296 -0.31058058 -0.32483262 0.19142301 0.35850045 0.29939678
-0.11360296 -0.14311016 -0.08180162 -0.14382197 -0.20274164 -0.20792086 -0.23573318 0.15990014
0.82004696 -0.5236471 0.3869985 0.52428424 -0.5355191 -0.5295948 -0.09615614 -0.1478648
-0.35928074 -0.131713 0.23640566 0.31931517 -0.16733134 0.33640268 -0.006892839 0.03312918
0.098338634 -0.4250831 -0.26951635 0.39989156 0.20966637 -0.5022393 0.41917694 0.102295615
-0.13269867 0.11710066 0.1491477 -0.14084575 -0.02158037 0.04377004 -0.14633754 -0.13635685
-0.09790904 -0.048331615 0.062776566 0.16479537 -0.15769984 -0.015694678 0.1602704 -0.107227035
-0.10862418 0.036919292 0.039632503 0.13275911 0.28195944 -0.022362977 0.059761334 0.2731623
0.046795897 -0.18393068 0.029523201 0.08215576 0.1426932 0.25662717 0.31249174 0.0930334
0.003850935 0.17732625 0.013986523 -0.2979364 -0.086602405 -0.019201426 -0.19514577 -0.112939194
0.035306036 -0.21940078 -0.07204143 0.14061373 -0.2300057 -0.094494216 -0.056266423 -0.16036753
0.05300716 -0.12156843 -0.1788332 0.050226673 0.041149534 -0.117532425 0.056397017 0.12535737
-0.1552225 -0.026202122 -0.03565469 -0.35240507 -0.07269393 -0.022240736 -0.39497414 -0.14696014
0.16523528 -0.070701435 -0.023094809 0.13608208 -0.07011246 0.1267141 0.08248898 -0.1829532
0.037892763 0.07686154 -0.042478055 0.017007569 0.17264348 0.16438985 0.35817915 0.08950035
0.00072782196 0.20137155 8.4144064e-10 8.066568e-11 6.8568157e-10 4.553579e-11 5.2892457e-10 -1.8288902e-10
-4.4696158e-10 -7.053572e-12 4.854726e-10 1.1539698e-09 1.4691667e-10 3.3019507e-10 6.0677185e-10 2.330877e-10
9.43157e-10 1.13139983e-10 1.2968694e-10 6.385436e-10 1.8332591e-10 6.912252e-10 5.3616855e-10 -4.0286878e-11
2.5599356e-10 2.2474408e-10 -2.1063241e-10 -3.3598965e-10 4.3929355e-10 6.1078395e-06 1.0853218e-05 1.2796581e-05
-1.7653064e-06 5.4532957e-06 1.082051e-05 -1.7686264e-06 4.2444985e-06 8.714762e-06 -5.8176097e-06 -7.764943e-06
-3.4986385e-06 -1.37432835e-05 -1.725069e-05 -1.0011927e-05 -8.08845e-06 -1.3639774e-05 -7.325713e-06 1.3385954e-05
1.6193257e-05 1.4723268e-05 4.7832746e-06 5.5946293e-06 6.2789804e-06 -7.9469146e-08 -3.0640474e-06 -2.2868421e-06
0.11365715 0.11162178 0.049337167 -0.36793646 -0.17448315 0.16865589 0.018365134 0.019258207
-0.051002525 0.029417358 0.09103628 0.06270542 -0.3052798 -0.0995169 0.25537682 0.18752034
0.14662784 0.045258287 0.011092926 0.21838395 0.20873518 -0.39336386 -0.16280827 0.12673712
-0.035158366 -0.060725763 -0.191319 -0.14496389 -0.106364325 -0.021829488 -0.015603648 -0.086835474
-0.086980104 0.15669067 0.1497987 0.11826212 -0.20959176 -0.12646747 0.049435522 -0.039640702

module.bn1.weight f4 [32]
00000000: 0c56 b93e 18f4 8b3e 6275 6f3e 0984 9f3e
00000010: 6e66 c33e 7843 343e 0479 e52f 5f7f e834
00000020: d3d5 f93e 702e 0b3f 2b81 2b35 3aa4 523e
00000030: a04e 783e f376 583e 4db1 733e 3977 4d3e
00000040: 7bc8 d230 977c 8a3e 8927 5631 e18d 3b30
00000050: 2f01 ea3e 2ebb a93e 8f8e 6d3e d36a ea3e
00000060: 6fba 203e d94d c13e 2efb bd3e f28a 993e
00000070: 606a a83e a487 6830 e6b7 c73e 8804 8d3e
0.3619846 0.27334666 0.23384622 0.31155422 0.38164085 0.17603862 4.1740844e-10 4.3306042e-07
0.48795947 0.54367733 6.389043e-07 0.2057046 0.24248743 0.21139126 0.23798104 0.20065011
1.5336491e-09 0.2704818 3.1163572e-09 6.8231826e-10 0.45704028 0.3315062 0.23198913 0.45784625
0.15696119 0.37754706 0.37105697 0.2998882 0.32893658 8.4593865e-10 0.3900749 0.2754252

module.bn1.bias f4 [32]
00000000: fe66 b03e 0367 103e 6dc2 543e c265 47be
00000010: d820 9ebe b127 7b3c 6a18 2fb1 87e9 97b6
00000020: 26ce cbbe d7b8 13bf 107a 89b6 c007 413c
00000030: f73f af3d d698 693d 9f00 77bc 1f1c 693e
00000040: 3b84 c7b1 bffb 1d3e 5cc1 3ab2 9571 feb0
00000050: 081a 9abe d290 47be fcde 333d f232 d0be
00000060: a46d 8f3d 6819 9fbe 1ec8 533e d8e8 323e
00000070: c12c 4bbe 8c3a 8fb1 2121 4cbe 067e ff3d
0.34453577 0.14101796 0.20777293 -0.19472411 -0.30884433 0.015329287 -2.547973e-09 -4.527337e-06
-0.39805716 -0.5770392 -4.097128e-06 0.011781633 0.08557122 0.05703052 -0.015075832 0.22764634
-5.806695e-09 0.15428065 -1.087059e-08 -1.8513214e-09 -0.30097985 -0.19488838 0.043913826 -0.40663868
0.07003334 -0.3107407 0.20681807 0.17471635 -0.19841291 -4.1685038e-09 -0.19934513 0.12475209

module.bn1.running_mean f4 [32]
00000000: 8231 26bc 3cc1 983c e4d3 2f3b d746 5a3e
00000010: 0a9d 85be 6d26 513c 5ac6 7a31 3ac0 1a37
00000020: 64e2 a13b d2c5 cdbe c97d 9736 0146 7b3c
00000030: 73a3 9fbd cf9d 5ebd 8d94 8bba b294 ea3b
00000040: 2ee0 d031 d34b 3ebd 115a dc32 5c1d 8331
00000050: 3a7f 99be 4110 4fbd be43 003e 8458 babe
00000060: caab adbd 1510 a33e 9fba 00bc 8d1c d6bc
00000070: 27ea 99be efdf f2b1 415a 69be b38d 81bd
-0.0101436395 0.018646829 0.0026829178 0.21316086 -0.26096374 0.012765509 3.6492538e-09 9.2238715e-06
0.004940318 -0.40189987 4.514794e-06 0.015336514 -0.07794847 -0.054349717 -0.001064913 0.007158839
6.079083e-09 -0.04645903 2.5652328e-08 3.8159396e-09 -0.2997988 -0.05055261 0.12525842 -0.36395657
-0.08480032 0.31848207 -0.007856994 -0.026136661 -0.30061457 -7.0685853e-09 -0.22788335 -0.06325855

module.bn1.running_var f4 [32]
00000000: 2491 bb3c d655 3a3e 052a ae3c f757 183d
00000010: dfcc 283d 2e21 303d 6bc6 6d22 bebc 142f
00000020: 11c7 0b3d 7600 9a3d c8fc e72c 6b3f 103d
00000030: bf2c d83d 25a4 393d 22b9 783c 1d2b 2c3c
00000040: 54ae 3623 a62a ea3d c5e4 6325 c965 7f22
00000050: 2615 813d f758 d23c a7d8 a93d b030 3c3d
00000060: a596 563c e87d 213d ae94 373d a6f7 0c3d
00000070: d8b3 223d 6dde 6d23 99b4 113d 41d8 f13d
0.022896357 0.18196806 0.02126027 0.037193265 0.041211005 0.043000393 3.222453e-18 1.3527576e-10
0.03412539 0.07519619 6.5934792e-12 0.03521673 0.1055541 0.045322556 0.015180858 0.010508326
9.903155e-18 0.11433916 1.9766622e-16 3.4612829e-18 0.06302862 0.025677187 0.08293276 0.04594487
0.01309744 0.039426714 0.044819526 0.034415863 0.039722294 1.2894896e-17 0.035572622 0.11808825

module.residual_layers.0.0.conv1.weight f4 [32, 32, 3, 3]
00000000: ac91 0b3d a2a3 1cbe 1e8a 82bd 712c d2bd
00000010: 63d7 5e3e e061 fbbc 2c75 63be 31f9 583e
00000020: d8ce 9d3e fc79 9a3d 1ae9 233b 7625 8ebd
00000030: 55d5 c4bc 5f7c 2b3c 91d8 2dbb fce0 1abd
00000040: c4d5 93bc cb78 d03c 9e28 92bd 28f7 57bd
00000050: 7fa6 1e3c 6702 0abc 34dd bc3d ac3c 163e
00000060: 43f0 963d 2a09 33be d86b 8dbd 3719 3ebd
00000070: e3ee b03c 5fb9 f9bd 1567 5d3c b043 683c
00000080: bc8f 033b 1a1f 173c ecee 3d3d 7b56 0dbb
00000090: f2c7 b33d ffe6 333d 574d 92bd dded 59bd
000000a0: 384b 113d 9c65 e7bc 9759 ce3c 73e3 683d
000000b0: 0799 083d 0bfc 803d 8d5e e6bc 0e95 2bbd
000000c0: 82ee be3d debc c93d 052b 963c cc66 583d
000000d0: f8a1 a83c 4311 1f3d 15d3 822f b077 9f2f
000000e0: ad8f de2f 49b8 b32f ab8c ab2f 6260 a62f
000000f0: 2634 0430 614c 0930 0a3f 0030 c172 8735
00000100: ea05 0cb5 8be2 9cb5 dfbf 4e35 b4da d734
00000110: bf5f 90b5 3bbf 8335 634c 8b34 870a 69b5
00000120: 75dd f73d 7497 2bbe acba e4bc 94e0 56bb
00000130: a370 9c3d a667 d7bd 54d1 8b3d be1d 133e
00000140: a462 1a3e 811c a4bd 9f07 99bd 5a8a 85bd
00000150: 8209 93bd 3770 c63b f6e3 17bd d677 14bd
00000160: 1df6 d2bd a5e3 33bd 1101 b632 a67e f3b3
00000170: 2add 5eb4 8f2d 4c35 65b4 4535 2e2a 3f35
00000180: 18a7 2634 951a 8834 9c6e 8e34 7f3e 4cbd
00000190: 879a 9fbb 9da4 60bc 8dcd 4fbb 57ed d6bb
000001a0: c0fa 533d 93bb 963c d87d b83d 7634 ba3d
000001b0: 66c8 793d a7fa 873c 88d1 3bbd 0365 f83c
000001c0: 27a7 3a3d 8018 993a 445a 8c3c d54f c03d
000001d0: 09cc 8a3c 7635 123d f67d 8bbd 99e9 04bd
000001e0: ea1a 303c 4bef 893d c5a9 1abd e8b9 e4bc
000001f0: 1304 783d 90e2 a73c 9815 e3bc 8830 1b3d
00000200: c831 a1bd 78f1 1a3e 7f0f 303e c62c 5f3d
00000210: b50f c8bd 4be8 a4bd b7c1 f03d 53bf bf3d
00000220: 171a 2a3d b4d4 7a3c ac54 02be 9d6b c03b
00000230: fd60 87bd d2b3 a3bc d599 283e 943b 083d
00000240: 5f31 d3ae e074 bf2e 0993 1d2e f273 742e
00000250: 6db8 622f ff84 582f a88e c72f 45b9 682f
00000260: 46a7 2c2f 6cbc 383d b519 47bd 1c11 62bc
00000270: 8d18 883d 18be 433d 2d69 b33d 028d 923d
00000280: c988 fc3d e091 4b3d 6c0c 6531 f7b8 5e31
00000290: 10d4 2831 0932 7031 cf4a a231 db27 a731
000002a0: 1e9f 9331 8b30 9e31 e212 a531 76fe 7c2f
000002b0: 9b73 c32f b7a8 a72f c485 f62f d1d1 912f
000002c0: 91ee cb2f 0bb2 602f b27f 902f 1c9d 0f30
000002d0: b130 3a3e 8f12 b93a dd9b be3b acc5 193e
000002e0: 0939 663c 21e4 7a3d e970 29bd 9973 e5bc
000002f0: 6fa2 163d 7984 45bd 9c35 aabd a270 60bd
00000300: 5c3f f3bb 97e0 b33c b1ab b43d 8ec1 90bd
00000310: 8ffd 8e3d a8bb e93c 9555 303d b7f4 c63d
00000320: fae8 3e3d 8238 543d c1f6 523d 3239 d53d
00000330: e9fc 2a3d 7260 62ba da64 a93c 8e36 c33d
00000340: 8737 1fbd c6f9 73bb 0dcb 9b3d 6308 a43d
00000350: 0993 473a 83ad f4bd d76e aebd 0c00 cc3b
00000360: 1970 dd3d f73b 133d ef78 10bc a23b 2c3d
00000370: 4d1e 52bd c9e9 1ebd 3d66 4c3d b508 8abd
00000380: 1199 22bd 9871 8339 fe5a 323b 30cf a53d
00000390: 86ea 39bc 834b 763c 6edb e03d c9df e53b
000003a0: 236f c23d caa3 df3c 6aae 303e bf36 cdbd
000003b0: c8f2 40be 6832 0dbc 4b5e 56bc 4611 d7bc
000003c0: 0140 74bd 4f33 3ebc 4f6a 013e 9a2a febc
000003d0: e3db e53d a6b4 4dbd b775 4a3e 80c4 803d
000003e0: aba9 2dbd 2a32 8fbd a397 b73d 3c3e af3d
000003f0: c15c 19be a099 19bd ceb3 0c3d c988 cc3d
0.03407447 -0.15296796 -0.06374 -0.10262383 0.21761851 -0.030686319 -0.22212666 0.21188809
0.30821872 0.07542798 0.0025010766 -0.06940739 -0.024027506 0.010466664 -0.0026526789 -0.037812218
-0.018046267 0.025448224 -0.07136653 -0.05272594 0.00968325 -0.008423424 0.09221879 0.14671582
0.07370045 -0.17483965 -0.06905335 -0.046410765 0.021598285 -0.1219356 0.013513346 0.014176294
0.0020074686 0.009223724 0.04637043 -0.002156644 0.08778371 0.043921467 -0.07143658 -0.05320536
0.035472125 -0.028246693 0.025189204 0.056857537 0.033349063 0.062980734 -0.028121257 -0.041890197
0.093228355 0.09850477 0.01833106 0.05283241 0.020585045 0.03883482 2.3796845e-10 2.9006975e-10
4.0483653e-10 3.2690853e-10 3.120467e-10 3.0263708e-10 4.809543e-10 4.994885e-10 4.665571e-10 1.0091682e-06
-5.216267e-07 -1.1688838e-06 7.702019e-07 4.0205998e-07 -1.0756702e-06 9.815916e-07 2.5946346e-07 -8.6814583e-07
0.121027865 -0.16756994 -0.027921043 -0.0032787668 0.07638671 -0.10517816 0.068270355 0.14366814
0.15076691 -0.08013249 -0.07472157 -0.06520529 -0.07179548 0.0060558575 -0.037082635 -0.036247097
-0.10300849 -0.04391827 2.1188074e-08 -1.13386065e-07 -2.075582e-07 7.606222e-07 7.365073e-07 7.1214424e-07
1.5520743e-07 2.5351315e-07 2.653004e-07 -0.04986429 -0.004870716 -0.013711122 -0.0031708211 -0.006559055
0.051752806 0.01839999 0.09008378 0.090920374 0.06098213 0.016599013 -0.04585412 0.030321604
0.045569565 0.0011680275 0.017132886 0.09390227 0.016942995 0.035695516 -0.068111345 -0.03244934
0.010748604 0.06735095 -0.03775956 -0.027920678 0.06055076 0.020493776 -0.027720258 0.03788808
-0.07870823 0.15131176 0.17193411 0.05448606 -0.09768621 -0.08052119 0.11755698 0.09362664
0.041528787 0.015309501 -0.12727612 0.0058722035 -0.06610296 -0.019983206 0.16464932 0.033259943
-9.603939e-11 8.7064356e-11 3.582826e-11 5.5582157e-11 2.0620101e-10 1.9692335e-10 3.6299252e-10 2.1166098e-10
1.5702736e-10 0.045101568 -0.0486085 -0.0137980245 0.06645308 0.04778871 0.08760295 0.07155801
0.12330777 0.049699664 3.3330947e-09 3.2410392e-09 2.4567761e-09 3.4953038e-09 4.7233253e-09 4.8648707e-09
4.2963526e-09 4.603924e-09 4.8042788e-09 2.3009669e-10 3.5552436e-10 3.0497002e-10 4.4842186e-10 2.652443e-10
3.7094997e-10 2.0435935e-10 2.628418e-10 5.2246363e-10 0.18182637 0.0014119911 0.00581692 0.15016812
0.014051684 0.061252717 -0.041367445 -0.028009223 0.036776002 -0.04822204 -0.083110064 -0.054794915
-0.0074233245 0.021957679 0.0882181 -0.070681676 0.06981956 0.028531864 0.043050367 0.097146444
0.046608903 0.051811703 0.051504854 0.104113 0.0417451 -0.00086355873 0.020677973 0.0953189
-0.038871314 -0.0037227734 0.07607088 0.08009412 0.00076131575 -0.11947157 -0.08517235 0.0062255915
0.108123966 0.03594586 -0.008817895 0.042049058 -0.05129843 -0.038797174 0.04990219 -0.06739942
-0.039696757 0.000250709 0.002721488 0.080961585 -0.011347419 0.015032652 0.10979353 0.0070152027
0.09493854 0.02729978 0.17254034 -0.100202076 -0.18842614 -0.008617975 -0.013084005 -0.026253354
-0.05963135 -0.011608913 0.1263821 -0.031026173 0.11223581 -0.050221108 0.19771467 0.062874794
-0.042398136 -0.0699199 0.08964469 0.08556792 -0.14976789 -0.037500024 0.034351163 0.09987027

module.residual_layers.0.0.bn1.weight f4 [32]
00000000: 4567 013f d55e 153f ed11 113f 2d38 c23e
00000010: 6f9b 0e3f b550 023f d4d6 063f 06a1 fe3e
00000020: 860c 233f d129 093f a1c1 053f df2b 093f
00000030: 45b1 f53e 45f3 023f 10f8 233f 15eb 023f
00000040: 9852 0b3f ab58 0b3f 6515 1e3f 2a48 fc3e
00000050: 9181 043f 36ba 113f 1d8c 053f 7c94 1f3f
00000060: e511 033f 0b6a 073f f3f8 033f e3e8 013f
00000070: 8fed 153f af29 053f c560 083f fe4a 023f
0.505482 0.5834783 0.5666798 0.37933484 0.5570592 0.509044 0.5267155 0.49732226
0.63690984 0.5357943 0.5224858 0.53582567 0.47986808 0.5115245 0.6405039 0.51139957
0.54422903 0.5443217 0.61751395 0.49273807 0.517602 0.5692476 0.5216692 0.62335944
0.5119918 0.52896184 0.5155174 0.5074598 0.5856561 0.5201673 0.5327266 0.5089568

module.residual_layers.0.0.bn1.bias f4 [32]
00000000: ad7b b7be 3f3b 86be c4c6 95be ef62 9e3d
00000010: 4ea2 abbe 2b17 4abe 7e1c 8cbe a7af 1dbe
00000020: a1ac eebe 6c09 42be 8c51 16be 6492 22be
00000030: 7083 cabd 16a8 f8bd 51ae b0be 4be6 87be
00000040: 92b6 39be d7b4 2ebe 649a 1bbf caed d2bd
00000050: 8936 49be 5264 82be 0d7a 92be b9cb e0be
00000060: 9f58 96be ee33 2ebe 8c4a 93bd 32e9 4dbe
00000070: a458 42be 8821 29bd 0edb 32be 5308 84be
-0.35836545 -0.26217076 -0.2925321 0.07733714 -0.33522266 -0.197354 -0.27365488 -0.15399037
-0.4661608 -0.18948907 -0.14679545 -0.15876156 -0.09888351 -0.12141435 -0.34507993 -0.26542887
-0.18136051 -0.17061172 -0.60782456 -0.10299261 -0.1964971 -0.25467163 -0.28608742 -0.43905428
-0.29364488 -0.17011997 -0.07191953 -0.20108488 -0.18979126 -0.041291744 -0.17466375 -0.257876

module.residual_layers.0.0.bn1.running_mean f4 [32]
00000000: 45be f03e de49 b2be 0555 0abe eefc 20bf
00000010: 96e6 0cbd a9c7 c8bd 0c7a 6abe c02a 2e3d
00000020: f461 d5be 388c 16be f08c 33be b374 c8be
00000030: 71a2 2fbe 31d7 a7be 2877 d4be 07fc 62be
00000040: ab43 49be 9346 bcbe 47ef 48be dcef 59be
00000050: 426e abbd 2a6b 56be 3653 5cbe 27be f8be
00000060: 828d 0b3d 4d0c 88be 024a 38be ed7b cdbe
00000070: fbaa a2be a042 ffbd 0120 82be c8b9 95be
0.47020164 -0.3482198 -0.13508995 -0.6288594 -0.03439959 -0.09803707 -0.2289812 0.04252124
-0.41676295 -0.14701927 -0.17534232 -0.39151534 -0.1715181 -0.32781366 -0.4149716 -0.22166453
-0.1965472 -0.36772594 -0.19622527 -0.21282905 -0.083706394 -0.20939317 -0.21516117 -0.48582575
0.0340705 -0.26571885 -0.17996982 -0.4013361 -0.31771073 -0.124638796 -0.25415042 -0.29243302

module.residual_layers.0.0.bn1.running_var f4 [32]
00000000: cdb9 983d ed87 b53d e533 bd3d bd43 923d
00000010: 0067 9a3d dbe9 9f3d 6c43 883d 7ab4 403e
00000020: 095f 8d3d 354d 0b3e 0a20 de3d 3307 a93d
00000030: d270 103e 9b2c 173e d2ac ca3d dca3 9a3d
00000040: 994e 073e dbcc 173e 62e8 6e3d 9df3 d83d
00000050: fb86 123e b4d8 fb3d 8dbe 8e3d d0dd 703d
00000060: 63d3 9f3d e8d9 ac3d 0492 563e a34a 813d
00000070: 8031 303e 6f01 7f3e 3819 ff3d e6f8 693d
0.07457314 0.088638164 0.09238414 0.07141826 0.07539177 0.07808276 0.06653485 0.18818846
0.06902892 0.13603671 0.10845955 0.08253326 0.14105538 0.1476311 0.09896244 0.07550785
0.13213576 0.1482424 0.058327086 0.105933405 0.14309303 0.12297192 0.069699384 0.058805287
0.07803991 0.0844 0.20954138 0.06313064 0.17206383 0.2490289 0.12455982 0.057122134

module.residual_layers.0.0.conv2.weight f4 [32, 32, 3, 3]
00000000: 55fd d8bd 59b8 09be cfef c9bd 3b3c b7bc
00000010: 888d 8abc 1ba8 b3bd b80c ca3d 45c5 7cbd
00000020: 488a 14bd c5bf ce3d c032 123e 7458 133c
00000030: f729 2c3e 81ac d8bd 7186 803d eeab e63d
00000040: 54f5 b6bd b22b 32bd 869f 493e f020 d1bd
00000050: 9d4d 15bd 717f fd3c ddea d43d 17c5 be3c
00000060: 1088 ea3d c784 ef3b bdf1 f63d 742b 91bd
00000070: 14ad 25bd 4e55 8b3c e143 08be 9bb5 723d
00000080: 81df 893d 8562 74bd 2990 0c3e f0b5 053e
00000090: 7793 af3d 822b dcbc 5535 45bd f9c3 b43d
000000a0: 78b4 01bd 8a01 32be dc90 5b3d a206 8dbd
000000b0: 8f05 1dbe f484 ae3d 32bc 813d aaf3 cc3b
000000c0: a4ba 503e 625a f63b 9926 50bd f674 c03d
000000d0: e529 153e 8d5d 09bd ef79 fcbb 99de be3c
000000e0: fe5d fe3c 20e3 113e f82d 7bba 7565 05be
000000f0: ca6f b93c d246 fe3c 4d79 87bd a02a 193e
00000100: 47fd 9abd ef8f b2bd b527 0dbe ca66 42be
00000110: bcfc 87be 45f7 29be 910f ecbd dbcf 15be
00000120: 2f6e 4e3e 10c7 eebc 269e 08bd b6cc 273d
00000130: 05a5 a0bc efe3 85bc b7c7 913d 9d41 cbbd
00000140: d374 e1bd ab32 cbbd 7b04 c03d c031 563d
00000150: cfb5 a4bd 75cc 6d3d 4be9 84bd 1879 0dbd
00000160: c7ca d3bd 3ace 623d 0e8c a9bd f4ac 2ebd
00000170: ee54 06be 7939 64bd 5817 96bc ead4 bd3d
00000180: 5154 4c3e af82 49bd dd23 30bd eec2 94bc
00000190: d85f 49be 405a 783d a052 cfbc 8223 793d
000001a0: 7c75 023d 4d8e 18bc 9db5 463d 2d77 523e
000001b0: 91bb 0a3e cb77 a2bd 579c 9ebd 92ae d33d
000001c0: a70e c7bd f230 ed3d dec3 e33d e44e b23c
000001d0: 38f8 e63d 6d1f c73d 83ef a5bc 671c b0bd
000001e0: 8eef 2f3e 0195 eb3c 5660 89bd d234 023d
000001f0: 72bd 383d 7c33 593d b889 813d 83bc 3abc
00000200: bbc9 b83d 38e0 b8bd 8552 2abe 611e 3fbe
00000210: 2add b13c c5bc 85bd adf8 cf3c 8b26 a8bd
00000220: c49c 0d3d f111 b0b8 bc4b 1a3d 20f8 9ebd
00000230: 32b1 873a a5fe ef3d 83c9 523c a1a3 e7bd
00000240: cebb 433b d087 1cbe fff9 683d 6111 473e
00000250: 2ba3 ccbd 90a1 70bc 234f 893c d99e b33d
00000260: e437 b5bd 4b6c 4d3d bd18 313d f5cf 94bd
00000270: bfb6 f8bd 600b 92bc 9e2a 11bd 2a5a 983d
00000280: 4e04 b7bd df49 0cbe d779 95bc a97b dcbc
00000290: b6f0 a83b 7ee6 63bb 4c66 883d 55e1 80bd
000002a0: d1e2 e93d 628e a8bc 75d6 df3a c0f5 fb3c
000002b0: f8ab 333d 2b04 08be 2d11 063d 5c50 0b3e
000002c0: d3f3 babc 7b0d 1dbc 51f5 82bd 7386 a2bd
000002d0: 5282 c8bc 4000 e3b9 0fe5 96bd 01b8 0d3b
000002e0: f553 2b3d 6beb 81bd b55e d63b 8806 59bd
000002f0: 07d5 003e 2a93 abbd e854 3bbc 76ee 3ebd
00000300: 5dc0 2abc cd27 42bc 7ce9 2dbd 847f 2bbd
00000310: e11b b63d bcf2 a0bd 55e2 6c3d 8b82 443d
00000320: 2f3f cabb b9ba 47bd 349e dd3c 5d09 d83c
00000330: f64b f83b c086 e43d fac0 3bbe d64a 24bc
00000340: 438e 133e d03f c53d 1e5a 8dbd 4fed 023b
00000350: a37d 14bd a7d5 0abd 507d 8c3d aa53 a73d
00000360: 797e 31be dc09 c6bd 1041 d4bc 6c64 5fbd
00000370: bd9f e03c fbc7 233d 96b6 44be 1de5 34bd
00000380: 05d4 aebc 5878 01be 430b c63d 5afb 98bd
00000390: f4ee 25bd 7827 39bd 38ba 75be 7554 0a3e
000003a0: b0aa 64be c089 8fbe 7b25 273e a243 ae3d
000003b0: 343f 33bd bb90 f33d b9fb 153d ed26 0cbe
000003c0: 0490 823d de66 0d3d 1067 45be 889b d1bd
000003d0: a9d9 e83c b38a 853d 4598 32bd f952 9f3d
000003e0: cc36 213d 6289 dd3b 6ab2 9b3d e450 c73c
000003f0: aa87 003e 4b6f 303c e0e3 d8bd c81c 5b3e
-0.10595194 -0.1344923 -0.09860193 -0.022367587 -0.01691319 -0.08772298 0.09865707 -0.06171157
-0.036264688 0.10095171 0.14277172 0.008993257 0.16812883 -0.105797775 0.06275643 0.11263262
-0.089335114 -0.043498702 0.1968976 -0.102113605 -0.03645097 0.030944558 0.10396359 0.02328734
0.11451733 0.0073095295 0.12057827 -0.07088366 -0.040448263 0.01700845 -0.13307144 0.059255224
0.06732083 -0.059664268 0.13726868 0.13057685 0.085730486 -0.026876215 -0.048146565 0.08826441
-0.03166625 -0.173834 0.053604946 -0.06886031 -0.15334152 0.085214525 0.063347235 0.006254633
0.20383698 0.0075180987 -0.05081806 0.093973085 0.14566763 -0.033536483 -0.0077049653 0.023299502
0.031050678 0.14246798 -0.000958174 -0.13026984 0.022636313 0.03103963 -0.06614933 0.14957666
-0.0756784 -0.087188594 -0.13784678 -0.18984523 -0.2656001 -0.16598232 -0.115264066 -0.14630072
0.20159219 -0.029147655 -0.033353947 0.040966712 -0.019609937 -0.016344039 0.07118171 -0.09924624
-0.110086106 -0.099217735 0.093758546 0.05229354 -0.0804249 0.058056314 -0.064898096 -0.034539312
-0.10341411 0.055372454 -0.082786664 -0.04264541 -0.13118336 -0.055718873 -0.018321678 0.09269126
0.19954039 -0.049196895 -0.043002952 -0.018159356 -0.19665468 0.060632944 -0.025307953 0.06082488
0.031850323 -0.009311271 0.048513044 0.20553274 0.13548113 -0.07933005 -0.07744663 0.10336031
-0.097195916 0.11581601 0.11121343 0.021766134 0.11277813 0.09722791 -0.02025581 -0.08599167
0.17181227 0.028757574 -0.06707828 0.031788655 0.045102544 0.053027615 0.06325096 -0.011397484
0.09022852 -0.09027141 -0.16633041 -0.18663932 0.021711905 -0.065301456 0.025387133 -0.082104765
0.03457333 -8.395676e-05 0.037669882 -0.0776217 0.0010352491 0.117184915 0.012865427 -0.113105066
0.002986658 -0.15286183 0.05687904 0.19440223 -0.09992059 -0.014686957 0.016761368 0.08770532
-0.08848551 0.050152104 0.043236483 -0.07266227 -0.12144231 -0.01782769 -0.035441034 0.074390724
-0.08936368 -0.13700055 -0.018246574 -0.026914435 0.005155648 -0.0034774835 0.066601366 -0.06292979
0.11420215 -0.020575706 0.0017077463 0.030756831 0.043865174 -0.1328284 0.032731224 0.13604873
-0.022821343 -0.0095857335 -0.06394447 -0.079358004 -0.024476204 -0.00043297 -0.07367908 0.0021624567
0.041828115 -0.063437305 0.0065420517 -0.052984744 0.12581263 -0.08377679 -0.011433817 -0.046614133
-0.01042184 -0.01185031 -0.042458996 -0.041869655 0.08892036 -0.07858798 0.057833035 0.047976058
-0.006172083 -0.048762057 0.027052976 0.026371652 0.0075774146 0.11158514 -0.18335333 -0.010027608
0.14409737 0.09631312 -0.06901954 0.0019977873 -0.03625263 -0.03389516 0.06859839 0.081702545
-0.17333402 -0.09669849 -0.02590993 -0.05453913 0.02741992 0.039985638 -0.19210276 -0.044163812
-0.021341333 -0.12643564 0.09670117 -0.074698165 -0.040511087 -0.045203656 -0.23996818 0.1350878
-0.22330737 -0.28034782 0.16322891 0.08508994 -0.043761447 0.118928395 0.036617015 -0.13686724
0.06375125 0.03452193 -0.19277596 -0.10234743 0.028424101 0.065205954 -0.043602247 0.07779498
0.0393589 0.006760762 0.07602389 0.024330564 0.12551752 0.010768722 -0.10590339 0.21397698

module.residual_layers.0.0.bn2.weight f4 [32]
00000000: 270d 213f e630 183f ccb1 1c3f e535 063f
00000010: fcdb 213f eb18 263f 9253 1a3f 1eda 1e3f
00000020: fff6 103f b56f 3d3f 57c9 323f b8a2 033f
00000030: eb8f 053f 3f2c 143f 8513 2a3f f0f9 323f
00000040: 3523 103f 016f 193f 539d 223f 644a 1b3f
00000050: 7a72 233f d344 353f 0f2a f83e 0c0e 673f
00000060: 029f 2c3f 574c 253f e02c 253f b5c4 283f
00000070: 840e 223f 94ba 1b3f 0d87 333f 3fed 053f
0.62910694 0.59449613 0.61208797 0.52425987 0.63226295 0.6488177 0.6028377 0.6205157
0.56626886 0.73998576 0.6983847 0.51420164 0.52172726 0.57880014 0.66436034 0.69912624
0.5630372 0.59935004 0.6352131 0.60660386 0.6384655 0.7080814 0.48469588 0.9025581
0.67430127 0.6456961 0.645216 0.6592515 0.633034 0.6083157 0.70127946 0.52315134

module.residual_layers.0.0.bn2.bias f4 [32]
00000000: 77b5 0cbf 641d a9be bf9c bcbe 2bce a9be
00000010: bba6 02be 8782 75be f7dc 873d 7a1a ff3c
00000020: 2f90 aabe 9840 a7be 234c 4dbe ddc8 5bbe
00000030: 640d 6cbe 0fa0 bb3c 0b1f 44be 4d3c c4be
00000040: ccb7 54be 63e1 99be d288 eebb 69d0 15be
00000050: 7492 a0be 9c8c 31be f768 64bd 0107 b2be
00000060: e55c b5be 00ce 4ebe 980e 8cbe 9900 a4be
00000070: f8d9 51bc 3108 7abe 58d8 79be 574f 933c
-0.54964393 -0.33030236 -0.36838338 -0.33165106 -0.12758915 -0.23975573 0.066339426 0.031140555
-0.33313128 -0.3266647 -0.20048575 -0.21463342 -0.23051983 0.02290347 -0.19152467 -0.38327256
-0.20773238 -0.3005477 -0.007279494 -0.14630283 -0.31361735 -0.17338794 -0.055764165 -0.3477097
-0.35422435 -0.2019577 -0.27354884 -0.32031706 -0.012808315 -0.24417187 -0.24398935 0.017982168

module.residual_layers.0.0.bn2.running_mean f4 [32]
00000000: d849 f3bd 3637 0abe 13a0 1fbe 4fe5 613e
00000010: 5955 81be dd12 6ebe 7c20 4bbe a85a aabe
00000020: 7bae a43d 25a2 acbe 1e51 85be 1325 703d
00000030: a1fc 01be 68b3 29be 3fa7 7bbe 99c4 0cbe
00000040: e640 f0bb d74e 49be 10f7 a6be 6a01 3fbe
00000050: 7981 4fbd 07c2 aebe ae29 d2bd ab9d d8be
00000060: 3cfd c4bd 5bfa f0bd d7f3 35be e57a 65be
00000070: 5f47 4ebe 28be c53d 640e 4cbe e9aa 31be
-0.11879319 -0.13497624 -0.15588407 0.2206013 -0.25260428 -0.23249383 -0.1983661 -0.3327229
0.08041092 -0.33717456 -0.2603845 0.058629107 -0.12694027 -0.16572344 -0.24575518 -0.13746871
-0.0073319552 -0.19658981 -0.3261037 -0.18652883 -0.050660584 -0.34132406 -0.10261856 -0.4230779
-0.09618613 -0.117665015 -0.17768799 -0.22410162 -0.20144413 0.0965541 -0.19927365 -0.17350353

module.residual_layers.0.0.bn2.running_var f4 [32]
00000000: 1cd3 283e 02aa 123e 88bc 1e3e b18a 173e
00000010: 733b 593e 48c6 4f3e 0c5e 573e 10f9 603e
00000020: 7308 163e a2dd 623e 83e6 8d3e 8593 253e
00000030: a4c4 353e fcc7 563e 5c23 6d3e b4af 2b3e
00000040: a22a 1c3e 7a18 273e 4d10 5c3e 3bc8 353e
00000050: 8710 253e 7f84 763e 741b 123e 8c02 a23e
00000060: 5f8a 103e 4c4a 1c3e 8d04 613e 8f95 3a3e
00000070: fb19 643e 1d44 273e e8e8 3e3e 3a26 4b3e
0.16486782 0.14322665 0.15501606 0.14799 0.21214084 0.20290482 0.2103197 0.2197001
0.1465166 0.22154859 0.2771493 0.16169555 0.17750794 0.20974725 0.2315802 0.16766244
0.15250638 0.16317931 0.21490593 0.17752163 0.16119586 0.24073981 0.14268285 0.31642568
0.14115284 0.15262717 0.21974392 0.18221115 0.22275536 0.16334577 0.18643534 0.19838801

module.residual_layers.1.0.conv1.weight f4 [64, 32, 3, 3]
00000000: 3963 363c 274d 25bd 5737 7e3d 9d9e 113c
00000010: dc7b 943c d66f 8fbc 9af9 f3bb c41b 0e3d
00000020: 0f25 8fbd 20bb a83d b7f8 62bd 69fb b1bd
00000030: d543 193c ddd8 0bb8 c693 a7bd efa2 923d
00000040: d169 febb 9774 a53a e080 3dbd b596 55bd
00000050: 5295 67bd 391c 253d 13a3 983d 089f 5f3c
00000060: f2af ce3a ed81 b33a 6681 43bd 2372 12bd
00000070: d615 8dbd 2fe1 143d b2d8 b13d 3175 0e3d
00000080: e146 b83d 112a 32bd e010 f3bd ab7c 8dbc
00000090: 2593 98bd d343 54bd c259 b4bd 35ac d3bc
000000a0: a9fa 743c 347f 543c bf40 563d 93a5 d6bb
000000b0: f06d 18bd 4dff 873b da76 efbc 6eb2 12bc
000000c0: c819 b3bc 7ba5 4c3b 70d7 ff3c 40ab 91bc
000000d0: 8eb0 803d 2e7c 703d 3def 25bd de65 53bd
000000e0: b4fb 953b 851d 753c e209 fdbc 8c56 d8bc
000000f0: d13b 023d 94d3 073d 8bb7 8abc f8dc 953d
00000100: 6708 813c 1e95 a13d 2a35 aebc a416 af3c
00000110: f80d c13c 8a37 8abc 4ef4 ee3c e3ad 913d
00000120: d90a 8dbc cae8 8cbc 1a89 0bbc baee 5cbd
00000130: d769 dabc fabe 01be 47bd 05bc 0153 d5bc
00000140: 7157 12bd ba66 d83c 1873 393d a4ea cdbc
00000150: e9ea 72bc 684f 233e 5922 82bc cbdc aabc
00000160: 2a34 483d e55e e63c fa2c 4d3c 6c73 963c
00000170: fd51 153c 43b6 2cbd e30d 803d 2947 ac3d
00000180: 8904 ac3d 9ed5 ef3d d542 f2bc 86d1 e3bc
00000190: 6071 88bc 2f0b 02be 8081 f43b 3c56 123c
000001a0: f237 b83d 59f0 80bb eef5 e63b ca50 f539
000001b0: 51ec 753d 521b 6d3d 7b55 883d d3bb eb3a
000001c0: 96ae 64bd 34fb 903d 3748 dd3c e66a 32bd
000001d0: d698 83bd d61a 49bc 0f02 f13c 3084 a03d
000001e0: dba2 11bc 0a4e b6bc dc97 073d f78b 543d
000001f0: e3cd 86bd c4ea 923c e3b3 69bd dee9 063d
00000200: 7093 db3b 7a09 943d 0c12 8bbb d1f0 643d
00000210: da91 153c f978 963d 4cc8 233d 7879 8e3c
00000220: 83d2 81bc a3c5 13bc 5f1a bc3d 9c70 33bd
00000230: 2f27 ff3c 0a0d 183d 4bec 7a3d 6e95 a33d
00000240: 05b6 003d 6819 94bd 3c82 57bd fd86 fbbc
00000250: 097d af3d 14b6 62bc f052 8c3c 2ed4 083e
00000260: 00d5 533d 08f4 9b3c eeef 9abd 45fb 62bc
00000270: 2b97 07bc 59ed a53b 6031 703d 840d 73bd
00000280: aaf6 b43d b80d 9a3d 13cc 213d b67d d1bb
00000290: 3021 ca3d b6b8 d03c 19a5 99bc e3ae e93d
000002a0: 6f2c 123c a080 803d 108d c43d 13d1 5abc
000002b0: 2c57 da3c f04b 96bc 6633 b3bd 3e10 983a
000002c0: 7d12 143c 0017 e0bc 3f43 fc3d 6431 4a3d
000002d0: 9b62 1c3c ca85 f8bc f130 67bb 7ede d33c
000002e0: 32a9 22bd 8b25 bebd 667c 923d ec1d 023d
000002f0: e965 9fbc a066 04be 5dbd 9d3d 442c a4bd
00000300: da0d 093e 6ae3 9e3c 43a8 78bc 9de5 0f3e
00000310: 7e3f 033d 0bb0 f4ba d438 733d bca1 813c
00000320: 61e9 63bd 1e93 e3bc e5b2 1fbd 9373 04be
00000330: 715f e63d 2fc1 d538 9d55 d13d f9fb 2a3c
00000340: 439d a6bd 942b a2bc a112 3ebd f7e2 be3a
00000350: b134 6e3d 3f87 b73d 79b0 9b3b 51f2 bb3c
00000360: 74a4 bfbd c20d 2dbd 7ac1 20bd ae43 1bbc
00000370: 1f1e 823d abf1 f3bc 1da8 81bd fb44 5d3d
00000380: 7872 823d 9973 343d 8fc6 573c 2906 153d
00000390: 0a6f 30bd 73bd 123d b4d7 073d ff90 5c3d
000003a0: 9929 05bd 5894 75bd 3346 eabd b038 aabb
000003b0: 737f c63d 1ffb 95bd 02e1 f239 ea39 5c3d
000003c0: d86b 403d 7285 a03c 1f1c 48bd 508a 46bd
000003d0: 821a debc 1b1f 9bbc 0d4e ecbc eb24 983c
000003e0: 2610 3e3d 9f02 f9bc 705f 5dbc 2275 b4bd
000003f0: d1d7 b13b 1c0a aebd c139 343d d941 053d
0.011132055 -0.04035678 0.062064495 0.008887914 0.018125467 -0.017509382 -0.0074455263 0.034694448
-0.0698949 0.08238816 -0.055412974 -0.08690531 0.009354551 -3.3342152e-05 -0.081824824 0.07159983
-0.007764079 0.0012623247 -0.046265483 -0.05214568 -0.056538887 0.04031012 0.07452979 0.013648756
0.0015768989 0.0013695337 -0.047730826 -0.03575338 -0.068889305 0.036347564 0.086839095 0.03477973
0.08997894 -0.04349715 -0.11868453 -0.01727136 -0.074499406 -0.051822495 -0.088061824 -0.02583895
0.01495234 0.012969781 0.05230784 -0.0065504997 -0.03721422 0.0041503073 -0.029231478 -0.008953674
-0.02186288 0.0031226564 0.031230658 -0.017781854 0.06283675 0.058712177 -0.04051136 -0.05161082
0.0045771245 0.014960651 -0.030888502 -0.026408456 0.031795327 0.03316076 -0.016933223 0.07317537
0.015751077 0.0788977 -0.021265585 0.0213731 0.023566231 -0.016872186 0.029169228 0.071132444
-0.017217087 -0.017200846 -0.008516574 -0.053938605 -0.026661796 -0.12670508 -0.008162803 -0.026040556
-0.035727922 0.026416171 0.045275778 -0.0251363 -0.014826515 0.1594826 -0.015885519 -0.020857235
0.048877873 0.028121421 0.01252293 0.018365584 0.009113786 -0.042166006 0.06252649 0.0841201
0.083993025 0.11710666 -0.029572884 -0.02780987 -0.016655624 -0.12699579 0.0074617267 0.008931693
0.08995046 -0.0039349017 0.00704836 0.00046790234 0.060039822 0.057887383 0.06656929 0.0017985053
-0.05583056 0.07079163 0.027011974 -0.043558978 -0.064256355 -0.012274465 0.029419927 0.07837713
-0.008888925 -0.022254009 0.03310381 0.051891293 -0.065822385 0.01793421 -0.05705632 0.032937877
0.0067009255 0.0722837 -0.0042440947 0.055893723 0.009129012 0.073472925 0.03998594 0.017391905
-0.01584745 -0.009019288 0.091847174 -0.043808565 0.031146614 0.03712181 0.061260503 0.07987486
0.031423587 -0.07231408 -0.052614436 -0.030704016 0.085687704 -0.013837356 0.017129391 0.1336219
0.051716805 0.019037262 -0.07565294 -0.013853853 -0.008275787 0.0050636944 0.058640838 -0.05933906
0.0883611 0.07522148 0.03950126 -0.0063931597 0.09869611 0.025478702 -0.018755483 0.1141031
0.008921727 0.06274533 0.09597218 -0.013355511 0.026652895 -0.018346757 -0.08750038 0.001160152
0.009037611 -0.027354717 0.12317514 0.04936351 0.009544994 -0.030337233 -0.0035276974 0.025862928
-0.03971214 -0.092845045 0.07152633 0.031766817 -0.019457774 -0.12929773 0.07702134 -0.080162555
0.1338419 0.019395549 -0.0151768355 0.14052434 0.032042973 -0.0018668188 0.059380367 0.015824191
-0.05564249 -0.027780112 -0.038988966 -0.12934713 0.11248673 0.00010192615 0.102214076 0.0104360515
-0.08135464 -0.01979617 -0.046404485 0.001456349 0.05815572 0.08961343 0.004751262 0.022942694
-0.09357539 -0.04224945 -0.039247014 -0.009476585 0.063534014 -0.029778322 -0.06330893 0.054020863
0.063694894 0.044055555 0.013169899 0.036382828 -0.043074645 0.035825204 0.033164695 0.053849217
-0.032510374 -0.059955925 -0.11439171 -0.005194746 0.09692278 -0.07323288 0.0004632548 0.05376617
0.046977848 0.019594882 -0.048854943 -0.04847175 -0.02711225 -0.01893573 -0.028845811 0.018572291
0.04640212 -0.030396758 -0.013511524 -0.08811404 0.0054273386 -0.08498022 0.04400039 0.0325335

module.residual_layers.1.0.bn1.weight f4 [64]
00000000: 5b49 723e 660a de3e f04c e73e 3eb3 d73e
00000010: f4f7 ea3e 07b7 e33e f59d f33e 1269 073f
00000020: de51 ca3e 221e cb3e 87e8 f13e 7614 a33e
00000030: b6ba c33e bda0 d73e 6575 be3e dee0 f83e
00000040: 3067 d83e db15 dd3e 7429 f23e 346a 9f3e
00000050: be54 dd3e 4903 ce3e 5cd2 ee3e 4d36 ef3e
00000060: 4f33 d73e 63d4 f13e e38b fb3e e197 e73e
00000070: 348b e03e 9fa6 c03e 1ee4 e93e 1bec ea3e
00000080: 9253 df3e 46a2 9b3e e353 dd3e 3b8f ce3e
00000090: 5386 e13e 1ae2 c33e 8b25 023f 7e5c ec3e
000000a0: 94ed e33e 6265 0c3f 3b05 1c3f 1c4a cb3e
000000b0: 132b d83e 4ede c63e 2e63 e73e f1c4 e83e
000000c0: 823a ce3e 9dd2 d53e 3c0d b63e 793e b23e
000000d0: 14f9 f03e 9a1d ec3e 7270 fb3e 393a e53e
000000e0: f4e9 ea3e a435 0a3f 49c4 dc3e 6e84 d03e
000000f0: 3207 e33e ebb7 ed3e e286 d83e 276a dd3e
0.23660795 0.43367308 0.45175886 0.42128938 0.45892298 0.44475576 0.4758145 0.528947
0.39515585 0.39671427 0.47247717 0.31851548 0.38228387 0.4211482 0.3719894 0.4860906
0.42266226 0.43180737 0.4729725 0.31135714 0.43228716 0.4023688 0.46644866 0.46721116
0.42031333 0.4723235 0.49130163 0.45233062 0.43856204 0.37627122 0.45681852 0.4588326
0.43618447 0.30397242 0.43228063 0.4034365 0.44047794 0.3825844 0.50838536 0.46164316
0.44517195 0.548422 0.6094548 0.39704978 0.42220363 0.3884148 0.45192856 0.45462754
0.40279013 0.41762248 0.35556972 0.34813288 0.47065032 0.46116334 0.49109226 0.44770983
0.45881617 0.539881 0.43118504 0.40726036 0.44341427 0.4642938 0.42290407 0.4324505

module.residual_layers.1.0.bn1.bias f4 [64]
00000000: 473c 40be 0433 e8be 5cfd 19bf e923 12bf
00000010: 3514 10bf 0c68 0bbf 2c8c 43bf 3b35 3abf
00000020: 9875 cabe 08c5 eabe 6fbb 41bf 37b2 afbe
00000030: 2cbd e0be 1c45 0ebf 9e4b c9be 7d52 2ebf
00000040: c50d f6be e1d2 01bf 529e 35bf c7c0 99be
00000050: 3353 11bf dd1e debe 645a 0ebf 3b68 1cbf
00000060: 0c87 0cbf c142 14bf cc06 1bbf 27b6 2abf
00000070: 5dbd 09bf 0e60 c9be b132 09bf 6169 15bf
00000080: 6aad 1fbf f7c5 d0be cc1a 01bf dc84 dcbe
00000090: b64a 1abf d459 dabe 9ec2 28bf e6d3 18bf
000000a0: 6420 e0be d8bf 68bf ac84 86bf 3d21 f4be
000000b0: 5bfb 07bf 0709 bcbe cb5b 14bf 75dd fabe
000000c0: 38c1 ddbe 4130 e5be e796 a6be d70f a5be
000000d0: bbdd 1cbf 4624 1abf a316 12bf 9c95 00bf
000000e0: 32a5 15bf 906f 50bf 7533 eebe 0978 16bf
000000f0: 4cd8 05bf 097a 27bf 005f 0bbf 713b 0ebf
-0.18772994 -0.45351422 -0.6015222 -0.57086045 -0.56280833 -0.5445564 -0.7638576 -0.72737473
-0.39542842 -0.45853448 -0.75676626 -0.34315655 -0.43894327 -0.555742 -0.39315504 -0.6809462
-0.4805738 -0.507124 -0.709447 -0.3002989 -0.56767577 -0.43382922 -0.55606675 -0.61096543
-0.54893565 -0.5791436 -0.60557246 -0.6668419 -0.5380457 -0.39331096 -0.53592974 -0.5836392
-0.62373984 -0.40776035 -0.50431514 -0.43070114 -0.6027025 -0.42646658 -0.6592196 -0.5969833
-0.43774712 -0.9091773 -1.0509238 -0.4768161 -0.53117913 -0.36725637 -0.57952565 -0.48997083
-0.43311477 -0.44763377 -0.32537004 -0.32238647 -0.61275834 -0.602116 -0.5706579 -0.50228286
-0.58455193 -0.8142023 -0.46523634 -0.5877691 -0.5228317 -0.65420586 -0.54441833 -0.5555945

module.residual_layers.1.0.bn1.running_mean f4 [64]
00000000: ebd1 b23e 8801 19bf e675 6bbf 3a38 1abf
00000010: 61a0 66bf 9889 d5be a487 63bf 908d 83bf
00000020: 1529 fbbe 3aa8 96be 4645 eabe 0777 e8be
00000030: 9db9 d3be 3f7e 0abf e36d 0fbe 77bd 1bbf
00000040: 891d 22bf 507b 22bf 900c 01bf da54 a9be
00000050: d7f2 76be 1f87 cabe 37b8 31bf f5a7 3cbf
00000060: 135b 16bf 9aea 84bf f61f 81bf 99af 2bbf
00000070: a244 d9be 8e90 18bf 149b 2abf 5c5e 2bbf
00000080: d056 47be 09f0 83bd dde4 71bf fd54 10bf
00000090: d2a5 43bf 9653 07bf f42e 4abf 60fc 21bf
000000a0: b1c6 6bbf 82a7 30bf c3f4 acbf bab7 bcbe
000000b0: 330e 36bf 9712 47be 0c8b 80bf e695 27bf
000000c0: ac9f 40bf 1f12 d4be 51fe 04bf 8b34 263e
000000d0: 0b35 3fbf b3c3 31bf dec1 62bf 1c25 fcbe
000000e0: 8b8f f8be 83be 91be b8a6 4bbf df00 ddbe
000000f0: a471 fcbe 96b2 babe bc3a 38be 748d 16bf
0.3492578 -0.5976796 -0.91976774 -0.60242045 -0.9008847 -0.41706538 -0.88878846 -1.0277576
-0.4905478 -0.29425222 -0.45755976 -0.4540331 -0.4135255 -0.54098886 -0.14006762 -0.60835975
-0.6332632 -0.6346941 -0.50409794 -0.3307255 -0.24116074 -0.39556214 -0.69421715 -0.7369378
-0.5873272 -1.0384095 -1.0087879 -0.67064816 -0.42435175 -0.5959557 -0.6664288 -0.66940856
-0.1946671 -0.064422674 -0.9448984 -0.5637968 -0.76424897 -0.52861917 -0.78977895 -0.6327572
-0.92100054 -0.69005597 -1.3512195 -0.36858922 -0.71115416 -0.19440685 -1.0042434 -0.654631
-0.7524364 -0.41420075 -0.51950556 0.16230981 -0.7469031 -0.6943924 -0.8857707 -0.49247062
-0.48547015 -0.2846566 -0.7955127 -0.43164727 -0.4930545 -0.36464375 -0.17991155 -0.5880959

module.residual_layers.1.0.bn1.running_var f4 [64]
00000000: c4bb ab3d 562b 403e af28 463e 0e6f 143e
00000010: ac5a 4d3e 418f 3a3e a819 5f3e 652f 853e
00000020: 88d6 3c3e c3bd 443e 9581 253e e6c1 0d3e
00000030: 652b 443e 520e 343e 5e3f 1b3e 4bae 603e
00000040: c2c1 2f3e fa3d 073e e1a3 3f3e 356d f73d
00000050: bdfc 243e cd5d 293e d4a4 4d3e e48e 5d3e
00000060: abac 273e ad1d 7a3e ec10 5a3e 5d7c 493e
00000070: 0838 403e 426e 413e 932a 323e c257 493e
00000080: a141 233e 6ea7 da3d 084b 753e 9b06 473e
00000090: 8bc0 383e 487d 223e 1426 8d3e e9af 413e
000000a0: 5498 4a3e fc2c 723e a933 a03e 97f7 0c3e
000000b0: f020 393e fce4 3f3e 681d 503e 46fb 6a3e
000000c0: 893c 3d3e 61e9 2c3e f320 233e d94a 123e
000000d0: f3a5 2a3e 88a0 573e daef 6d3e 63c3 4c3e
000000e0: 14c3 343e ea16 773e aab0 493e 8fac 3c3e
000000f0: 1df8 053e 630b 3d3e 8164 593e bdeb 583e
0.08385423 0.18766531 0.19351457 0.14495489 0.2005412 0.1821871 0.21787131 0.26012722
0.18441212 0.19213013 0.16162713 0.13843498 0.19157179 0.17583588 0.15160891 0.21941487
0.17163756 0.13207236 0.18714859 0.120813765 0.16112037 0.16539688 0.20082408 0.2163654
0.16374461 0.24425383 0.21295518 0.19676347 0.18771374 0.18889716 0.17399053 0.19662383
0.15943004 0.10676466 0.23954403 0.19436114 0.180422 0.15868104 0.27568114 0.1891476
0.19784671 0.23649973 0.31289414 0.13766323 0.18078971 0.18739694 0.20323718 0.22947416
0.18480124 0.16885902 0.15930538 0.14286365 0.16664867 0.21057332 0.23236027 0.19996409
0.17652541 0.24129835 0.19696298 0.18425201 0.13082929 0.18461375 0.21229745 0.21183677

module.residual_layers.1.0.conv2.weight f4 [64, 64, 3, 3]
00000000: 640e 19bd d8c7 fbbc 024a d4bc 4324 21bd
00000010: acd1 b6bc 2215 94bc ed40 05bd 02af 7cbc
00000020: ee8e aebc 476d 4a3d 2af9 253d c2de 123d
00000030: 2238 1e3d d33b 0f3d d770 ea3c 5a11 9e3d
00000040: a4c9 7d3d 0574 693d 3075 313c 1f6c c33b
00000050: ef0d 093c 4ba4 023c 99b1 103c 4546 443c
00000060: 1a12 b93b c0d3 593c c0de 403c 58af 52bc
00000070: 68bb fdbb 6bc4 47bc 0590 6bbc d1f0 d7bb
00000080: 7f26 9cbb 838b 21bc 750e b73a a3fc 903b
00000090: dd33 2f3c 8f4e 1b3c ba3e 1e3c 1f39 0a3c
000000a0: 1bff 3a3c 1bc3 1c3c 3140 793c 5b6e 863c
000000b0: cec5 813c 7521 20bd 6d40 21bd 1272 17bd
000000c0: 3342 18bd b29e 25bd 5b57 20bd 0068 27bd
000000d0: 76db 25bd 7229 27bd 54e3 e13c 708a c03c
000000e0: 76fd af3c a8d4 d23c 9d10 b83c 2c15 5b3c
000000f0: 9fb3 0d3d 6a39 f73c 2f34 fa3c ba12 1d3d
00000100: 488d 393d f973 393d 9c85 f83c 283b 1f3d
00000110: 8901 183d fff4 253d 2804 2a3d c33c 353d
00000120: 729f be3c 097e f83c 6a0f f43c 30e1 cf3c
00000130: 8d3d ec3c fdd6 093d 3b6b 293c 458e 663c
00000140: 3afb a03c f144 90bc 9eb3 b8bc aed4 96bc
00000150: 59f7 5cbc c791 70bc c291 d8bb 1780 adbb
00000160: 527b 26bc 7126 55bc 17ec 17bb 8d39 adbb
00000170: cd7e 1cbc d128 1ebb 7c27 b8bb d4de e7ba
00000180: 5132 c1ba 1456 7e39 ef36 313b 3518 b23c
00000190: 6a09 a23c 341e a13c 3915 823c 376f 783c
000001a0: 60f1 4d3c 8053 863c 06bc 9e3c 57e3 8b3c
000001b0: 6f4f 983c 1c05 b73c a673 4b3c eb42 bc3b
000001c0: b0bb 983c d223 3c3c 2f04 3e3c 4e60 a93c
000001d0: ee51 943c 8b3b a63c bde9 dc3c d49a 793c
000001e0: 8d33 ad3b fb9d 933c c9bb 333b f2c3 c4bc
000001f0: a183 90bb f00d cebb d4ae 523c 3e5c 103b
00000200: b1e9 863b 6c32 063d 079a dc3c b4d1 f53c
00000210: 51d9 c33c f8f9 973c 449f c23c 4a6d c7bc
00000220: 8290 d9bc 82e7 c2bc 0a9b a7bc 30e6 bdbc
00000230: 9281 d1bc 834c b6bc cf7c dabc d704 8fbc
00000240: 5751 5cbc 1d98 85bc 480a 4ebc 6521 acba
00000250: 6bf8 48bc a10d 1eba ebea 0738 8640 84bc
00000260: 9751 893a 586c fabc 2f51 a4bc 6f6e 0abd
00000270: cfa5 00bd bc78 35bc b6ef c6bc c042 c8bc
00000280: 0b1f 63bc 4b11 debc d9c1 2abd 2a57 25bd
00000290: 866e 14bd 6763 16bd 0f8c 05bd af9d 11bd
000002a0: 7785 35bd 8f80 2bbd 713b 09bd b186 92bc
000002b0: 8a2f f1bc 1329 b1bc fd54 94bc d822 08bd
000002c0: 4241 efbc 6fd4 cdbb c85b e2bc d18a e5bc
000002d0: b502 93bc 0a7b 26bc ec50 98bc 559f 9abc
000002e0: 999b 38bc 8706 0dbc 134d e4bc c6ef 59bc
000002f0: 760a 9ebc c1eb 543b 9da1 ac3b 1a32 1abb
00000300: 71af 3f3c 036e 313c 1516 7c3b e75d 923b
00000310: 63e3 a33b 3e5d 4d39 bb1b 8cbb 511f a4bb
00000320: bd1e 17bc 1ab7 0ebc 8b4e 22bc ef4f 9dbc
00000330: 613d 17bc 1d2a 2bbc 3513 71bc b141 dfbb
00000340: c960 11bc fba6 bf3b 7d4b 04bb 7185 3b3b
00000350: 7333 fc3b 87e0 fb3b c680 233c 90c8 0d39
00000360: b869 143c 381a 323c 013a 013c 12d6 c13b
00000370: edf4 953b 1224 193c 92ba ae3c 9047 5d3c
00000380: ff3f 773c d62d 0cbd 22b2 18bd 795a 16bd
00000390: 34d0 edbc 6a84 edbc d148 03bd 1535 04bd
000003a0: fe68 e6bc 5161 e4bc 1dae 93bc 99bd 72bc
000003b0: bb29 3dbc 79b1 63bc 13d8 8ebc 195c 90bc
000003c0: a4e7 c0bc e154 9ebc 957e c6bc e76c 0a3d
000003d0: a5f8 103d 7a8d 313d e675 263d 2f83 203d
000003e0: af80 3f3d ab2d 443d 607b 203d 98cf 443d
000003f0: d8c3 ae3c d910 b73c ac44 0d3d 12fe aa3c
-0.03736724 -0.030734941 -0.025914196 -0.039341222 -0.022316776 -0.018076483 -0.03253262 -0.0154225845
-0.021308389 0.04942062 0.040520824 0.03585697 0.03862775 0.034969162 0.02861826 0.07718153
0.061959878 0.05699541 0.010831162 0.005963817 0.008365138 0.007973741 0.008831405 0.011979644
0.00564791 0.013295114 0.011771858 -0.012859188 -0.007743288 -0.012192826 -0.014377599 -0.006589987
-0.0047653313 -0.009859922 0.00139661 0.004424648 0.0106935175 0.009479179 0.00965851 0.00843647
0.011413361 0.009568001 0.015213058 0.016410043 0.015841391 -0.039094407 -0.03936808 -0.03697402
-0.037172507 -0.040434547 -0.03914581 -0.040870667 -0.040492497 -0.04081101 0.027574219 0.023503512
0.021483164 0.025736168 0.02246886 0.013371747 0.03459513 0.030178744 0.030542461 0.038347937
0.045300752 0.045276616 0.030337147 0.038874775 0.03711084 0.04051685 0.04150787 0.0442474
0.023269389 0.030333536 0.029792506 0.025375932 0.028837943 0.033652294 0.010340507 0.014072006
0.019651044 -0.017610999 -0.022546586 -0.01841196 -0.013486707 -0.0146831935 -0.0066091726 -0.0052948105
-0.010161238 -0.013009653 -0.0023181492 -0.0052864016 -0.009551716 -0.0024133215 -0.0056199413 -0.0017690309
-0.0014739727 0.00024255394 0.00270408 0.021740058 0.01977988 0.019667722 0.01587926 0.015163234
0.012569755 0.016397238 0.019376766 0.017076178 0.018592564 0.022341304 0.012417709 0.005745282
0.018644184 0.01148315 0.011597677 0.020675804 0.018105473 0.020292064 0.026966924 0.015234668
0.0052856863 0.018019667 0.002742516 -0.024019215 -0.0044102226 -0.0062882826 0.012859065 0.0022027637
0.0041172137 0.03276293 0.026928915 0.03000722 0.023907335 0.018551812 0.023757584 -0.024344105
-0.026558165 -0.023792032 -0.02045967 -0.023181051 -0.02557448 -0.02225328 -0.026670842 -0.017458363
-0.013447127 -0.016307885 -0.012575693 -0.0013132511 -0.012266259 -0.00060292525 3.2405293e-05 -0.016144048
0.0010476586 -0.03056924 -0.020058243 -0.033796724 -0.031408127 -0.011076149 -0.024284225 -0.024445891
-0.013862382 -0.027107855 -0.041688774 -0.04036633 -0.036238216 -0.03671589 -0.032604273 -0.03555077
-0.044316735 -0.04187065 -0.033503953 -0.017886491 -0.029441614 -0.021626031 -0.018106932 -0.033236355
-0.029205922 -0.0062814276 -0.027631655 -0.028020294 -0.017945627 -0.010161171 -0.018593274 -0.018874804
-0.011267566 -0.008607513 -0.027868783 -0.013301795 -0.019292098 0.0032489153 0.0052682892 -0.0023528398
0.011699543 0.0108294515 0.003846531 0.0044667604 0.005001472 0.00019585059 -0.0042757667 -0.005008616
-0.009223637 -0.008710647 -0.009906421 -0.019203154 -0.009230942 -0.010447052 -0.014714052 -0.006813251
-0.008873173 0.005848763 -0.0020186596 0.0028613473 0.007696563 0.007686678 0.009979432 0.00013521523
0.009058408 0.010870509 0.007887364 0.0059154117 0.0045763166 0.009346979 0.021329198 0.013505831
0.015090941 -0.0342234 -0.037279256 -0.036707375 -0.029029943 -0.028993804 -0.032051865 -0.032277185
-0.028126236 -0.027878435 -0.01802736 -0.014815711 -0.011545594 -0.013897293 -0.017437017 -0.01762204
-0.023547955 -0.019327583 -0.02423028 0.033795264 0.035393376 0.043347813 0.04063978 0.039187606
0.04675358 0.047895115 0.03918016 0.04804954 0.02133362 0.0223469 0.03448932 0.020873103

module.residual_layers.1.0.bn2.weight f4 [64]
00000000: f4b1 b13f 627a d33f 69c6 b83f e336 b93f
00000010: b7d7 0840 00d2 f83f 5c78 aa3f 1d49 0140
00000020: 0197 0a40 b94e 9f3f 2db0 993f d84c 913f
00000030: 0d5b da3f 93e3 bd3f 07e5 2d40 8d11 2340
00000040: b285 b83f a0a4 3640 c095 c33f 21f2 e33f
00000050: 39b4 e43f 2b7e d73f 3cd8 e73f 57b4 0f40
00000060: dc2d d63f 4107 1040 c08b a03f be9a d33f
00000070: 490b 8b3f 30e7 b83f f763 1940 75db a03f
00000080: 281e e53f 456b d63f 1812 fc3f 1ff1 eb3f
00000090: 6edc b33f 4687 1340 0b15 a63f e320 8b3f
000000a0: cc3c fb3f 07be dc3f df61 b63f f0fa 523f
000000b0: c678 bf3f 284f 1c40 6c89 3340 a78f bc3f
000000c0: 9832 d63f 7a51 dc3f 3146 0a40 ef8c 9f3f
000000d0: 3c86 dc3f 4d96 a93f 54d6 f93f c38c 943f
000000e0: 13c6 973f 9b0b 903f 1fa0 0040 e0a1 0e40
000000f0: 70b7 c33f a6a1 8b3f cee2 f23f 3efc 1140
1.3882432 1.6521723 1.443555 1.4469875 2.1381662 1.9439087 1.3317981 2.0200875
2.1654665 1.2445899 1.200689 1.1351576 1.7059036 1.4835075 2.7171037 2.5479462
1.44158 2.853798 1.5280075 1.7808267 1.78675 1.6835378 1.8112864 2.245382
1.6732745 2.2504427 1.2542648 1.6531599 1.0862819 1.4445553 2.3967264 1.2566973
1.7899828 1.6751486 1.9693022 1.8432959 1.4051645 2.3051314 1.2975172 1.0869411
1.9627929 1.7245492 1.4248618 0.8241415 1.4958732 2.4423313 2.8052626 1.4731339
1.673419 1.7212365 2.1605341 1.2464885 1.7228465 1.3248993 1.9518533 1.1605457
1.1857322 1.1253542 2.009773 2.22863 1.5290356 1.0908706 1.8975465 2.2810206

module.residual_layers.1.0.bn2.bias f4 [64]
00000000: ccc3 223e b682 833e 1a47 373e 56d7 243e
00000010: c3a1 c63e f588 293e 07c2 683e ffe7 153e
00000020: 04d0 423e 6c60 913e e5d3 ba3e cdc8 213e
00000030: e7dd a03d 22ac 633e c47e 24be c476 453e
00000040: 32d5 b03e f95b 983d 8a66 8f3e 424e e03e
00000050: 5777 813e 36b1 a83e db45 b83e e9b7 473e
00000060: acd0 083e 5c30 6d3e eaf4 4a3e 5a47 263e
00000070: 4800 0e3e 3d3b 903e 92cf a43e e595 9d3e
00000080: d87c c33e ebd3 d63e dab3 493e ca1f e73d
00000090: 11f9 f33e 1339 3d3e 86f5 913e 636e 343e
000000a0: d146 3c3d db48 813e bdd7 1f3e ae05 203e
000000b0: 1802 ab3e 07ea 7a3e 8ebb 1b3d a59e 9d3e
000000c0: 29f4 8f3e 223b 583e b0b0 c73e 575a 873e
000000d0: 96af 733e bae2 963e f6d4 0f3e d148 c93d
000000e0: a48a 8b3e 62a2 9f3e 5a95 6e3e 7c06 563e
000000f0: dbca fa3e 0db5 8e3e a632 ab3e e97b cf3e
0.15895003 0.25685662 0.17898217 0.16097769 0.3879529 0.16556151 0.22730266 0.1463928
0.19024664 0.28393877 0.36489788 0.15799256 0.078548245 0.22233632 -0.16063982 0.19283587
0.34537655 0.074394174 0.2800792 0.43809706 0.25286362 0.329477 0.35990795 0.1950375
0.13360852 0.23162979 0.1981999 0.16238156 0.13867295 0.28170195 0.32189614 0.30778423
0.38181186 0.41958556 0.19697514 0.1128536 0.4765096 0.18478803 0.28507632 0.17620234
0.045965973 0.25250897 0.15609641 0.15627167 0.33400035 0.24503337 0.038020663 0.307851
0.28115967 0.21116307 0.3900199 0.2643611 0.2379745 0.29469854 0.14046082 0.09828342
0.27254212 0.31178576 0.2329916 0.20900911 0.4898289 0.27872506 0.3343708 0.40524223
