summaries/good_ResNet2_num_blocks2x1_num_channels32_conv3/ckpt.pth (torch, 406351 bytes, 42 tensors)

module.conv1.weight f4 [32, 3, 3, 3]
000000 32 79 b1 33 72 9b 25 b5 a1 ba 99 b5 6d b4 85 35
       8.26425e-08 -6.169349e-07 -1.1453704e-06 9.961783e-07
000010 6c d3 03 35 f9 16 91 b4 33 12 22 35 9e ab 06 34
       4.910896e-07 -2.702507e-07 6.0376186e-07 1.2542156e-07
000020 7c 40 88 b4 9c b0 c7 34 c5 04 98 34 77 b5 70 32
       -2.5378893e-07 3.719514e-07 2.8315677e-07 1.4011099e-08
000030 1f b2 1a 35 2d 01 ff 34 e9 e7 cc 33 a0 48 d3 31
       5.762867e-07 4.7498307e-07 9.5416745e-08 6.1491647e-09
000040 3b 42 86 b4 80 aa 87 b4 88 bf 2d 35 6a 03 7e 34
       -2.5007634e-07 -2.5269765e-07 6.4726237e-07 2.3656835e-07
000050 dd bb 88 b1 45 f5 5e b2 0b 94 06 b5 29 c8 2d b5
       -3.9794785e-09 -1.2977869e-08 -5.013432e-07 -6.4738794e-07
000060 02 bf 54 b5 1d ef b2 b5 b5 4e 8f b5 27 6b 31 3e
       -7.925411e-07 -1.3331625e-06 -1.0677237e-06 0.17326032
000070 d9 ab 5d be 94 69 d0 3c 61 38 12 3e 0f c3 9d bd
       -0.21647586 0.025440969 0.1427932 -0.0770322
000080 40 8e f1 3d 0f 4d 09 3d 58 02 98 3d 37 2d 30 bd
       0.1179471 0.033520754 0.07422322 -0.04301187
000090 d2 48 90 be 78 b3 0a bf e2 db 3e be a6 79 30 be
       -0.28180557 -0.541801 -0.18638566 -0.17233905
0000a0 57 5c 8a be 89 9e a5 3d 82 76 d1 bb 8a 25 7f 3d
       -0.27023575 0.08086879 -0.006392301 0.06229166
0000b0 7a cc c2 3d d7 77 c1 3d fb 3d cd bd 96 fe 90 3c
       0.09511657 0.09446686 -0.100215875 0.017699521
0000c0 bb 2a 58 3d 74 38 f1 bc e9 6b e0 3d 72 a3 98 3d
       0.052775126 -0.029445864 0.10958082 0.0745305
0000d0 e5 c7 c9 3d 62 85 f4 3b 42 d3 2a 3d 34 58 88 3c
       0.0985258 0.0074621895 0.041705377 0.016643621
0000e0 04 3d eb bc b1 b7 9f be 6f cf 79 bd fd 3a 94 3e
       -0.028715618 -0.31194833 -0.06098884 0.28951254
0000f0 b5 a2 65 bd b1 4f 0e 3b e2 05 ec 3c d1 37 55 bd
       -0.056063373 0.002171498 0.028811399 -0.052055184
000100 8b 8b 8c 3c 1c 25 f6 3d bc 07 ea be 61 e6 8b bd
       0.017156383 0.12018797 -0.45709026 -0.06831051
000110 50 31 e8 3e 83 b3 85 bd ff db 7e 3d 82 a6 21 3e
       0.45350122 -0.0652838 0.062221523 0.15786174
000120 e0 ff 23 be db 53 97 3b 6e f5 7e 3e b0 38 13 bf
       -0.16015577 0.0046181506 0.24898311 -0.57508373
000130 43 3c df bd 6d df 06 3f e4 4c ee bd 94 75 0f bc
       -0.10900166 0.5268467 -0.116357595 -0.00875606
000140 ea be 26 3e 01 5d a9 39 5e ef 44 39 d6 f3 83 b9
       0.16283765 0.00032303485 0.00018781188 -0.0002516794
000150 a6 90 c4 39 6d 61 c3 38 30 63 92 b9 6b 6f 4d 39
       0.00037491805 9.3164716e-05 -0.0002792119 0.0001959183
000160 b1 00 47 b8 65 17 90 b9 5f eb be 37 6f 5c ce 38
       -4.744594e-05 -0.0002748325 2.2759368e-05 9.8400626e-05
000170 a5 f0 b7 38 bd 01 12 b7 bc d3 7f 38 ae 13 4c 39
       8.7709435e-05 -8.702683e-06 6.099393e-05 0.00019462287
000180 34 2f 88 37 9d af ab 38 2d 11 76 39 d1 e9 33 b9
       1.6234444e-05 8.186626e-05 0.00023466787 -0.00017157874
000190 59 49 f4 37 f6 ef 0f 39 97 bf 64 b9 ef 86 eb 37
       2.9121222e-05 0.00013726935 -0.00021815147 2.8077016e-05
0001a0 8a ec 93 39 73 f2 06 b9 3c 8e 84 38 c5 91 9b 39
       0.0002821426 -0.00012869555 6.320744e-05 0.0002967251
0001b0 8c 54 d7 b0 5d fd 9a b0 85 ed 40 b0 a0 fa 63 2f
       -1.5667339e-09 -1.1276985e-09 -7.018673e-10 2.073457e-10
0001c0 72 e8 31 b0 68 79 00 af 32 7f b1 30 84 34 92 30
       -6.472255e-10 -1.1684664e-10 1.2914596e-09 1.0637824e-09
0001d0 c6 b4 a5 30 a2 fb 4d b0 93 3a 90 b0 30 3a cd af
       1.2056709e-09 -7.493616e-10 -1.0494027e-09 -3.7330627e-10
0001e0 d0 3a 64 2f 64 ad 85 af 40 57 a8 ae 1b 62 bc 30
       2.0757374e-10 -2.431576e-10 -7.655254e-11 1.3706684e-09
0001f0 01 d9 da 30 dd d2 a2 30 43 12 00 31 de 8c 09 31
       1.5923264e-09 1.1846982e-09 1.8636832e-09 2.0016198e-09
000200 50 d8 be 30 a4 a7 3e 31 19 ca 21 31 25 b5 e9 30
       1.3885799e-09 2.7743932e-09 2.3543463e-09 1.7004466e-09
000210 24 56 4c 31 34 33 48 31 2d 3f ad 30 8a 2c 10 3d
       2.9734872e-09 2.9132936e-09 1.2605362e-09 0.035198726
000220 17 4e f9 3c b0 18 70 bd 59 d4 8b be be 24 d7 bd
       0.030432744 -0.058617294 -0.27310446 -0.10505055
000230 d0 74 2b 3c 0a 20 b6 be 24 91 3b be 2e 56 29 3d
       0.010464862 -0.3557132 -0.18317086 0.041341953
000240 84 34 d2 3d 14 a2 fe 3d dc dd 9a 3d 44 f7 51 be
       0.10263923 0.12433258 0.075618476 -0.2050448
000250 3a 66 ce bc fe 35 8a 3d 4c 87 79 be 17 ec 82 bd
       -0.02519523 0.067485794 -0.24368018 -0.06392687
000260 35 73 dc 3d 59 67 11 3e d3 92 fc 3d 08 46 55 bc
       0.107641615 0.1419958 0.12332692 -0.013017185
000270 08 e1 e7 bd ab 35 c1 bc e2 1e 2c bd ba 00 a4 bd
       -0.11322218 -0.023585161 -0.04202164 -0.08007951
000280 db 8b f7 3b c7 fa 09 3d 6c 67 8b 3d 29 aa 76 3e
       0.007554514 0.033686426 0.068068355 0.24088348
000290 6e f2 c9 3d 0d 74 94 3d 00 3a 04 3d 3b 35 6f 3d
       0.09860693 0.072486974 0.032281876 0.058400374
0002a0 ee 65 64 bd 90 c3 b4 be 53 1e 3c be 6f 2a 37 3e
       -0.05576127 -0.35305452 -0.18370943 0.17887281
0002b0 c0 73 b7 3e d2 44 28 3e 31 dc 99 3d c9 20 44 bc
       0.35830498 0.16432503 0.07512701 -0.011970707
0002c0 50 33 4f 3d ba d5 07 be a5 2b 08 bf 97 36 78 be
       0.050586045 -0.13265124 -0.53191596 -0.24239574
0002d0 26 51 91 3e d7 fa dc 3e 75 6f 99 3e a3 f7 bf 3d
       0.28382224 0.43160126 0.29967847 0.09373405
0002e0 a5 d8 00 bd 17 c9 9e 3d ff 5a fe bd a5 4b 10 bf
       -0.03145661 0.077531986 -0.124197 -0.56365424
0002f0 ff 65 8d be a8 36 95 b8 fe 79 e7 b8 02 5b 8e b8
       -0.2761688 -7.115054e-05 -0.00011037661 -6.788039e-05
000300 3e c0 6c 39 0d 10 1f 39 3d be cc 38 27 d4 cd b7
       0.0002257833 0.00015169401 9.762913e-05 -2.4536695e-05
000310 97 38 72 37 5f ca 8a b8 c8 d4 86 b9 2f 5b 91 b9
       1.44375e-05 -6.618047e-05 -0.00025717006 -0.00027724492
000320 47 c7 51 b9 3b 8c 4d 38 87 4c ae b5 c9 d4 c4 b7
       -0.0002000603 4.900641e-05 -1.2986283e-06 -2.3464107e-05
000330 df b5 3f b9 15 54 e9 b8 63 ca 3f b9 10 f8 41 38
       -0.00018282932 -0.00011125967 -0.00018290574 4.6245812e-05
000340 d6 a8 55 38 12 c4 be 38 a9 b1 05 3a 17 fb fe 39
       5.0940398e-05 9.096427e-05 0.0005100021 0.00048633732
000350 b7 59 dc 39 25 be c5 39 50 23 f1 39 7f 1e b3 39
       0.00042028513 0.00037716437 0.00045993412 0.00034164262
000360 94 a0 33 3e 4f 10 28 be 34 2c a8 bd d7 bd af 3d
       0.17541724 -0.16412471 -0.08211556 0.08581131
000370 88 88 02 3f 2d 02 53 be 8a 52 c6 3d 9f 24 89 be
       0.5098958 -0.20606299 0.09683712 -0.26785752
000380 24 21 39 be f0 c7 a3 bb b5 35 fd bd 3a d8 f8 ba
       -0.18079048 -0.0049981996 -0.123637594 -0.0018985339
000390 12 c8 9e be 58 bb 3d 3f 7d f3 d4 3d 28 fd 2b be
       -0.31012017 0.7411399 0.10398004 -0.1679579
0003a0 aa 19 70 be 7f c6 44 bd 3e ee c8 bd c3 ac 1b be
       -0.2344729 -0.048040863 -0.09811066 -0.15202622
0003b0 39 aa 92 bc 15 21 9a be ab 54 2d 3f d7 c5 17 3e
       -0.017903434 -0.30103365 0.6770732 0.14821564
0003c0 a3 40 6f bd 28 be 09 bd 66 be 23 be 83 2f ee 3d
       -0.05841125 -0.033628613 -0.159906 0.11630156
0003d0 5f 12 80 bd 27 9b 1b bc 52 be 9b 3e 45 66 67 bd
       -0.06253504 -0.00949744 0.3041864 -0.056494016
0003e0 48 a0 99 be a3 f3 f0 3d 3e f5 eb bd 3a 44 ae bd
       -0.30005097 0.1176522 -0.115213856 -0.08509107
0003f0 93 a8 2e 3e 81 2d c4 bd a6 42 03 be 52 84 f5 3e
       0.17056493 -0.09578992 -0.12818393 0.47952515

module.bn1.weight f4 [32]
000000 7b 70 f3 b3 cd 96 fe 3e 1b 83 86 3e d5 c4 10 38
       -1.13360294e-07 0.49724427 0.262719 3.451559e-05
000010 bf 49 30 30 44 24 a4 3e 39 66 80 3e ae 69 26 39
       6.4133227e-10 0.32058918 0.2507799 0.00015870362
000020 d4 79 b3 3e d6 d7 8f 3e 39 ae 55 3e a8 23 38 3e
       0.35053885 0.28094357 0.20867242 0.17982352
000030 49 f0 e7 3e 31 91 bf 3e dc 1c 9b 3e 71 ea c2 30
       0.4530051 0.3741546 0.30295455 1.418199e-09
000040 ec bc b2 3e 81 61 81 30 d8 80 c1 3e 68 ca 8a 3e
       0.3490976 9.413698e-10 0.37793612 0.2710755
000050 ae 4a a6 3e 0a e5 41 3e dd 90 e2 36 45 6f 8d 3e
       0.3247885 0.18935028 6.752189e-06 0.27623954
000060 64 54 e6 32 80 0b ed 3e 76 e7 90 b4 63 ec 91 38
       2.68139e-08 0.46297836 -2.69905e-07 6.958169e-05
000070 a1 1a 20 35 88 a7 46 3e 0e 9b 23 35 25 df 2c 3e
       5.9643395e-07 0.19399846 6.0947866e-07 0.16881998

module.bn1.bias f4 [32]
000000 b6 27 3f b5 fb 97 b1 be 5a 32 e1 3d b0 3b 87 b9
       -7.121083e-07 -0.34686264 0.10995932 -0.00025793677
000010 31 24 ac b1 52 82 f3 bd 8c 41 ca 3d 7a ec 3f ba
       -5.0099733e-09 -0.11890091 0.09875783 -0.00073213095
000020 75 df 4f 3e 98 d5 d4 3d 6b 26 b4 3d 05 ee 0e 3e
       0.20300086 0.10392302 0.0879639 0.13957985
000030 2b 15 8d be 62 5d bc be 68 77 25 be 15 7c 95 b1
       -0.27555212 -0.36789995 -0.16158831 -4.3505772e-09
000040 c0 71 ab 3e 2e 61 a6 b1 17 d5 ab be 84 f5 3a 3e
       0.33485222 -4.842284e-09 -0.33561012 0.1825772
000050 9f a1 60 3e 28 9b b0 3d 21 35 03 b8 30 d9 5e 3e
       0.21936654 0.08623344 -3.1282314e-05 0.21762538
000060 06 f6 46 b4 1c a5 bd be 70 fb 45 b7 c2 28 a6 b9
       -1.852969e-07 -0.3704003 -1.1800657e-05 -0.00031692354
000070 78 69 39 b6 16 45 a3 3e 60 56 76 b6 32 7a 50 bc
       -2.762854e-06 0.31888646 -3.6707133e-06 -0.012724446

module.bn1.running_mean f4 [32]
000000 60 8b 04 35 e1 4b 5a 3e c4 19 96 bb 83 4c d1 b9
       4.937665e-07 0.21318008 -0.004580708 -0.00039920592
000010 07 66 ba b1 16 5b 81 3e 18 aa a3 bb 6c 1f fd b9
       -5.4249116e-09 0.25264806 -0.004994642 -0.00048279332
000020 51 47 78 bd 90 a5 86 3c 8c c5 10 bd ca 5a d2 bc
       -0.060614888 0.016436368 -0.035344645 -0.025678057
000030 82 79 a9 3d 18 3c e3 3d dd 1e 2f 3e 7a 07 29 b1
       0.08275129 0.11095446 0.17101617 -2.4596987e-09
000040 7b 43 0d 3d 53 af 79 31 43 ce c3 3c f9 55 e4 3b
       0.034488183 3.633393e-09 0.023902064 0.0069682566
000050 dc 8c 32 bd 48 01 c9 3a f0 ef 20 b8 e9 bb 87 3c
       -0.043591365 0.0015335465 -3.8370432e-05 0.016569095
000060 72 1d 44 34 4c 31 83 3e 64 9b 7f 37 7c 78 cd b9
       1.8264635e-07 0.25623548 1.5235364e-05 -0.00039190415
000070 c3 19 08 b6 2d 27 9c bc a2 5c 53 b6 72 ce 3e be
       -2.0280575e-06 -0.01906165 -3.149537e-06 -0.1863344

module.bn1.running_var f4 [32]
000000 33 28 9d 2d e7 c1 b7 3f 7e 47 3c 40 cb a1 3d 36
       1.7866686e-11 1.4356049 2.9418635 2.825737e-06
000010 fd 33 42 26 3c 03 f6 3f 93 17 a2 40 c0 b0 de 36
       6.737773e-16 1.9219737 5.0653777 6.636692e-06
000020 fe 20 61 3f 3d a7 6c 40 e8 5c 4c 40 fb f4 26 3f
       0.8794097 3.6977074 3.1931705 0.6521756
000030 13 4c 1b 3f 27 8d 0f 3f 08 58 a3 3f 77 b3 15 25
       0.60662955 0.56074756 1.276124 1.2984495e-16
000040 87 77 f6 3e dc 95 b4 25 68 2a cf 3e b5 0f 31 3f
       0.48138067 3.132657e-16 0.4046204 0.6916459
000050 b7 56 1d 3f 61 2e e5 3f 6d f4 01 33 6a 49 14 3f
       0.6146044 1.7904779 3.0257457e-08 0.5792452
000060 b0 b8 c6 2b d4 a7 b5 3f 54 f0 db 31 0f f0 f3 36
       1.4120007e-12 1.4191842 6.401061e-09 7.269911e-06
000070 a7 88 bf 2e 27 60 ce 3e 98 0c 72 2f 36 66 35 3f
       8.709949e-11 0.40307733 2.2014246e-10 0.70859087

module.residual_layers.0.0.conv1.weight f4 [32, 32, 3, 3]
000000 31 d5 2c b5 73 b4 2a b5 18 8d 09 b5 48 be eb b4
       -6.438523e-07 -6.3592523e-07 -5.1241796e-07 -4.391061e-07
000010 aa 5d 37 b4 f5 04 95 32 0c 6c de 33 15 3f bb 34
       -1.7077278e-07 1.7348137e-08 1.0357334e-07 3.4877363e-07
000020 42 04 e6 34 f0 f8 ec 3d e1 aa 03 bd ba 53 d3 bd
       4.2843936e-07 0.115709186 -0.032145385 -0.10318704
000030 1d 3d c6 bd 24 8b 2f be 9d 56 ab bd 46 fc b9 bd
       -0.09679625 -0.17142922 -0.083661295 -0.090813205
000040 31 5f da 3c 9a 82 d0 3d 6c 99 24 bd d7 50 96 3d
       0.026656719 0.1018116 -0.040185377 0.07339638
000050 bf db bf 3d 2e b9 d9 bc 69 cf 2b bc 94 c6 b8 bd
       0.09368085 -0.026577558 -0.010486462 -0.09022251
000060 4b b5 c7 bc d1 b5 79 3d 11 1b 31 bd ed 9c 7e b8
       -0.02437844 0.06096441 -0.043238703 -6.0704468e-05
000070 3a 91 a2 b8 8f 23 b5 b8 21 74 27 b8 5c 02 60 b8
       -7.7518125e-05 -8.637376e-05 -3.9924056e-05 -5.340796e-05
000080 39 13 10 b8 49 53 3f 37 a6 da 12 37 d7 ca b9 38
       -3.4350178e-05 1.14038785e-05 8.753186e-06 8.859269e-05
000090 dd 34 f7 2f c7 e9 9c 2f fa 2d c3 2e 12 fd 82 ae
       4.49666e-10 2.8542343e-10 8.8757404e-11 -5.95667e-11
0000a0 06 fa c0 af 56 0f 09 b0 94 f3 43 b0 2a eb 33 b0
       -3.510225e-10 -4.9862103e-10 -7.128673e-10 -6.545401e-10
0000b0 40 70 79 b0 e3 f5 3f 3d c1 d2 47 bd 62 40 1a bc
       -9.074519e-10 0.046865355 -0.048784975 -0.009414764
0000c0 a7 77 5a bd 61 16 25 bd 66 ba 90 3c 9b 15 de 3d
       -0.053336766 -0.040304545 0.017667007 0.10843965
0000d0 18 ee ac 3d a9 96 b2 bc 63 86 8e 3d e5 5e 27 3d
       0.0844385 -0.021800356 0.06959226 0.040861983
0000e0 a3 d2 86 3d 24 dc bb bd c2 c0 df bd 55 7a 9d bd
       0.065831445 -0.09172848 -0.109254375 -0.076893486
0000f0 70 e4 a1 3d 05 0c bc bd 4a c1 39 ba 67 2a a8 b7
       0.07904899 -0.0918198 -0.0007085992 -2.0046906e-05
000100 b7 a4 29 b8 34 2c a2 b8 c5 26 a3 b7 71 10 15 b8
       -4.0446143e-05 -7.7329954e-05 -1.9449168e-05 -3.553968e-05
000110 ec b1 59 b8 2d ff b3 b8 0c 2d 5b b8 5f 00 75 b8
       -5.1902534e-05 -8.582915e-05 -5.2255622e-05 -5.8412897e-05
000120 87 96 b0 3d 3b 8c ec 3d 0b 37 c7 bc 59 ca 47 bd
       0.08622461 0.11550184 -0.024318239 -0.04877696
000130 49 3b 2b be d0 99 f7 bd c0 1c a4 3c bb c6 26 bd
       -0.16721834 -0.12089884 0.02003324 -0.040716868
000140 18 39 b3 3d e4 35 77 3d fb a9 7e 3d a2 ee 92 bd
       0.08751124 0.06035413 0.062173825 -0.07174422
000150 95 f5 39 3a 80 35 66 bd 4a 6b 9c bd 6e 7e bd bc
       0.00070937845 -0.056203365 -0.07637651 -0.023131575
000160 ed 37 47 bd 97 34 b0 3d b8 e9 54 3c cf b0 77 3d
       -0.04863732 0.08603781 0.012995176 0.060471352
000170 b2 14 48 3d be 7a ea 3c 33 cf 30 3d 87 3a 1c 3d
       0.04884786 0.028622981 0.04316635 0.038141754
000180 a3 6c 13 3d 42 0a 01 bc ec a1 2d 3d 09 56 04 be
       0.035992276 -0.007875981 0.04239075 -0.12923445
000190 45 ac 06 bd 31 06 dd 3c 2a 4a 53 bd de 39 7b 3d
       -0.032879133 0.026980491 -0.0515844 0.061334483
0001a0 f6 8d 12 3d 0a 5a 06 3d 50 54 81 3d 24 f2 43 3b
       0.035779916 0.03280071 0.063149095 0.0029898966
0001b0 10 69 fd bc 6a 7d a6 3c 57 a2 a2 3d 8a 52 b6 bd
       -0.030933887 0.020323474 0.0794112 -0.08902462
0001c0 ba 57 ce 3a f5 10 9e 3d 6e 30 ab bc 88 cf 91 3c
       0.0015742697 0.07718078 -0.020897117 0.017799154
0001d0 52 2e c5 3c cf f0 a5 bd c3 63 05 bd 14 95 7c 38
       0.024069939 -0.08102571 -0.032565843 6.022032e-05
0001e0 39 a6 96 bd e1 95 82 bd c8 26 96 bd 0c 64 eb 3a
       -0.07355923 -0.063762434 -0.07331616 0.0017958893
0001f0 c7 ec 45 bb b1 d2 02 3b 85 cb 3e be 54 84 2e be
       -0.0030200945 0.0019962008 -0.18632324 -0.17042667
000200 81 9a 00 be 32 5f cf bd 3c 8e 4b bc 32 4c 4e bd
       -0.12558939 -0.10125579 -0.012424048 -0.050365634
000210 62 16 25 3e fb 8f 6d 3e 1c 8d 76 3e 64 b9 0c af
       0.1612182 0.23199455 0.24077266 -1.279879e-10
000220 08 91 ab ad df 60 50 2e 29 f4 bb af 78 bb 26 2e
       -1.9504856e-11 4.7379763e-11 -3.4188588e-10 3.7910536e-11
000230 f5 87 26 2e b6 d3 48 b0 71 df 6c b0 9c f2 c5 af
       3.7864784e-11 -7.3060435e-10 -8.617383e-10 -3.6006476e-10
000240 45 b9 7b bc 98 31 ce bc 1e bc 02 bd 30 17 89 3c
       -0.015363996 -0.025170133 -0.031917684 0.01673469
000250 f6 b6 84 3d 98 48 03 be 6e c5 34 3d 00 70 06 3c
       0.064802095 -0.12820661 0.044133596 0.008205414
000260 ec 0e a7 3c 86 70 86 af 5b 14 ab af f1 85 03 b0
       0.020392857 -2.445441e-10 -3.1119182e-10 -4.7847865e-10
000270 d2 a9 a6 af 94 4b be af 93 4c fd af 48 2d 28 2f
       -3.031589e-10 -3.46145e-10 -4.607484e-10 1.5295598e-10
000280 2a bb 02 af b0 88 36 af 20 f2 be bc c8 43 ba bd
       -1.1889925e-10 -1.6601365e-10 -0.023308814 -0.090949595
000290 c4 3d d6 bd 59 69 80 3d 7c 5d a9 bb 7d 96 0c 3d
       -0.104609996 0.062700935 -0.005168615 0.034323204
0002a0 b4 13 39 3d 60 42 b7 bc 60 34 89 bc e3 4a 35 3d
       0.045184806 -0.022370517 -0.016748607 0.04426087
0002b0 b4 81 08 3d 42 16 bc bc c0 1d be 3b c3 c7 3a bd
       0.03332682 -0.022959832 0.0058018863 -0.045600664
0002c0 f3 62 7a bd f7 db 6e 3c 1d 6c c4 3d dd a5 12 bd
       -0.06112952 0.014578811 0.095909335 -0.03580271
0002d0 78 da ff bc 66 70 8d 3c f1 b1 da 3d 88 c6 5f bd
       -0.031232104 0.01726551 0.10678471 -0.054632694
0002e0 e4 e7 57 bd bc e3 ff bd dc 4e 30 3b e2 30 ea 3d
       -0.052711383 -0.12494609 0.0026902473 0.11435105
0002f0 3c 90 d1 bc f5 90 aa 3e 0c ef cf 3e 98 43 57 3e
       -0.025581472 0.33313718 0.40612066 0.21021879
000300 16 30 f8 bb 94 e1 2e bd 9f f2 49 be 98 c9 5e be
       -0.0075740917 -0.042695597 -0.19721459 -0.2175659
000310 65 d3 9a be c8 b2 da be dd 32 e5 35 b8 e6 c0 b5
       -0.30239406 -0.42714524 1.7076633e-06 -1.4372263e-06
000320 bd aa 3c b6 cf 82 29 b5 de f0 82 b6 f8 c0 a2 b6
       -2.8113566e-06 -6.314776e-07 -3.9023425e-06 -4.8504407e-06
000330 1c ea bd 36 d1 5a f5 35 6f 9c e0 b4 51 70 4e 3e
       5.659893e-06 1.8280354e-06 -4.1837072e-07 0.20160033
000340 da e6 17 3c 98 58 87 bd 7d 7d 87 3c 10 99 1a be
       0.009271348 -0.06608695 0.01653933 -0.15097451
000350 3d cd 8f bd f2 9f ed bd 95 15 80 bd 38 d6 79 3d
       -0.07021568 -0.11602773 -0.062541164 0.06099531
000360 ad 64 ec b3 ce 8c ac b3 15 3d c2 b3 93 46 f9 32
       -1.1007919e-07 -8.0349864e-08 -9.04494e-08 2.9019509e-08
000370 ae c3 62 33 11 06 fe 32 a9 4f d6 33 05 5f bc 33
       5.2797695e-08 2.957225e-08 9.979642e-08 8.771716e-08
000380 b8 4b d7 33 f1 a7 31 be fc 12 37 be 97 14 9a bd
       1.0025491e-07 -0.17349221 -0.17878336 -0.075234585
000390 90 78 1d bd 32 d0 3f bd a2 dc 33 3d ca 6b b1 3d
       -0.038445055 -0.04682941 0.043911584 0.08663137
0003a0 17 8f 51 3d fc 30 7d 3d b4 3a 37 b7 f9 6a 0e b7
       0.05116185 0.061814293 -1.0921318e-05 -8.488766e-06
0003b0 17 b7 f4 b6 71 e7 d3 b6 7d f6 62 b6 cc e1 2c b6
       -7.293081e-06 -6.3152333e-06 -3.38201e-06 -2.5761428e-06
0003c0 e9 a7 32 36 64 0f bc 36 12 a7 95 36 e1 f9 9b b9
       2.6621803e-06 5.6046283e-06 4.4599956e-06 -0.00029750078
0003d0 80 b3 c6 b9 d2 7c e0 b9 9f 2c 81 b9 1f a1 89 b9
       -0.0003789924 -0.00042817608 -0.00024638043 -0.0002625072
0003e0 15 c3 66 b9 87 90 96 38 98 fb 01 39 9c 81 67 39
       -0.00022007183 7.179478e-05 0.00012396125 0.0002207816
0003f0 50 a6 e2 b4 61 71 a0 b4 d5 31 0b 35 52 09 38 32
       -4.221679e-07 -2.9884816e-07 5.185405e-07 1.0712329e-08

module.residual_layers.0.0.bn1.weight f4 [32]
000000 9a 86 f3 3e 80 db f1 3e 99 61 f7 3e 7a 93 cc 3e
       0.4756363 0.47237778 0.4831665 0.39956266
000010 02 78 c6 3e 64 59 27 3f be 5d 0a 3f 0b 39 08 3f
       0.38763434 0.65370774 0.5404929 0.5321204
000020 2c 1b 1b 3f 03 d0 0b 3f 1e ac e5 3e c1 9f 2b 3f
       0.60588336 0.54614276 0.44857877 0.6704064
000030 d2 8b ef 3e ed 56 2d 3f 27 89 08 3f 17 58 1b 3f
       0.46786362 0.67710763 0.5333428 0.6068129
000040 72 51 e3 3e 1b 47 2e 3f 43 d7 0c 3f 30 22 bf 3e
       0.44398075 0.6807725 0.55015963 0.3733077
000050 9a 08 18 3f 4a 3a e7 3e 85 36 01 3f 40 72 13 3f
       0.59388125 0.4516166 0.50473815 0.57596207
000060 fc de df 3e 5e 63 de 3e a1 ac f8 3e ac d9 e8 3e
       0.4372481 0.43435186 0.48569205 0.4547857
000070 63 57 f1 3e d9 31 ef 3e 82 6a f2 3e ef 49 d7 3e
       0.47136983 0.46717718 0.47346884 0.42048594

module.residual_layers.0.0.bn1.bias f4 [32]
000000 39 a3 0e be c0 e9 aa bd 74 ab 47 be c4 6c 32 be
       -0.13929452 -0.083453655 -0.19498998 -0.17424303
000010 82 fb 56 bd 59 06 12 bf be a6 58 3e 36 e3 9d bd
       -0.05248595 -0.57040936 0.21157357 -0.07709353
000020 a2 6d 00 bd a5 e7 f3 be 8d 69 46 be d6 61 3f bd
       -0.031354554 -0.47637668 -0.19376202 -0.046724163
000030 7d a4 80 bd 55 23 8a bd 3a 80 3e bd 2c f0 b4 bd
       -0.06281374 -0.0674502 -0.046509005 -0.08834872
000040 de 98 65 be 75 04 8a bd 1b 8b 03 be 24 0a 2e be
       -0.22421595 -0.06739131 -0.12846033 -0.16996056
000050 5c 5c 9b be a1 42 9d bd 11 d4 88 be e4 3c 2d be
       -0.30343902 -0.07678724 -0.26724294 -0.16917759
000060 15 fe 63 be 43 7e 26 be 66 d4 ae bd 59 a2 4d bd
       -0.22264893 -0.16259103 -0.085366055 -0.050203655
000070 fe 6e fc bd 77 1b 0e be 47 88 52 be 41 f6 7d bd
       -0.123258576 -0.13877665 -0.20559798 -0.062002424

module.residual_layers.0.0.bn1.running_mean f4 [32]
000000 7e fc bf be fe a7 2e be 29 2e 82 be 6d 5e c4 3e
       -0.37497324 -0.17056271 -0.25425842 0.3835329
000010 b6 4c b3 bd 4f 97 22 3e 3d 62 94 be 75 d6 2b be
       -0.08754866 0.15878032 -0.289812 -0.16781028
000020 f5 88 0f be 8a 85 1f be ce 2e 38 be a8 5d b1 bd
       -0.14017089 -0.15578285 -0.17986605 -0.08660442
000030 19 fe 28 be 7f e4 03 be e3 e7 99 bd 37 66 21 be
       -0.1650318 -0.12880133 -0.07514932 -0.15761648
000040 d0 ba ab be 20 84 d6 bd 07 50 8d be e6 66 6f 3e
       -0.33540964 -0.104744196 -0.2760012 0.23379096
000050 d7 7d 2e 3c e3 09 a4 bd 91 cb 0a 3d 09 2f 4c be
       0.01065012 -0.08009698 0.033885542 -0.19939817
000060 97 94 c2 bd b1 b9 89 be 67 62 80 be 28 56 fe bd
       -0.095009975 -0.26899484 -0.25075075 -0.12418777
000070 b2 21 8c be d0 c7 3d be 1d 62 da bd e7 d3 16 3d
       -0.27369457 -0.18533254 -0.10663245 0.03682318

module.residual_layers.0.0.bn1.running_var f4 [32]
000000 99 ba 8b 3d 0f 4c 0b 3e 37 e5 16 3d 58 ac 31 3d
       0.068227 0.13603233 0.03683969 0.04337725
000010 8c 4e 80 3d a3 0f 96 3d 5b 89 85 3d 6a 9c df 3d
       0.062649816 0.07327201 0.06520339 0.109185055
000020 5e bc 62 3e 15 56 4e 3d 5e 48 20 3d 99 38 de 3e
       0.22142169 0.050375063 0.039131515 0.43402556
000030 b0 10 ff 3d ae f1 b0 3e 1f 86 54 3e cc b2 63 3e
       0.12454355 0.34559387 0.20754288 0.22236174
000040 dd 53 62 3d 13 72 ad 3e 27 5a ea 3d 09 28 4f 3d
       0.05525576 0.33876094 0.114429764 0.05057529
000050 7b 34 a7 3d 0d dd 86 3d 73 48 74 3d 23 da f4 3d
       0.08164307 0.06585131 0.059639405 0.11955669
000060 1b e2 26 3d a9 a7 16 3d 3b 44 8f 3d 57 9d 07 3e
       0.040742975 0.036780987 0.06995436 0.13243614
000070 7e 79 82 3d 8d c4 87 3d 3d 6f f8 3c fc 27 ee 3d
       0.06370829 0.06629286 0.03032648 0.1162872

module.residual_layers.0.0.conv2.weight f4 [32, 32, 3, 3]
000000 df 98 1e 3d 3d 5c ec 3d 4d af c1 3c 1c 72 b9 3a
       0.038720008 0.115410306 0.02364316 0.0014148387
000010 f0 cc 90 3d 37 aa 99 bd af 4d 24 bc 98 54 0d bc
       0.07070339 -0.07503169 -0.010028287 -0.008626126
000020 1e 1a a5 bd b4 6d 48 3d 40 f6 c0 3d 88 27 d6 3c
       -0.08061622 0.048932746 0.094219685 0.026141897
000030 25 d8 5b 3c 10 14 48 3c 7d 98 33 bd cf c5 b5 3c
       0.013418232 0.0122118145 -0.043846596 0.022189049
000040 3f dd 98 bc 18 e1 ed bc e4 19 8c 3d e0 30 86 3e
       -0.018660186 -0.029037997 0.06840876 0.26209164
000050 53 48 3d 3e 57 2c 68 bc 75 84 34 3d ca 49 ad bc
       0.18484621 -0.014170728 0.044071633 -0.02115335
000060 96 86 ca bd 65 a9 2b be 28 99 3a be c1 ec 0d be
       -0.098889515 -0.16763838 -0.18222487 -0.13859846
000070 11 4d 4d be 6b 8c 85 bd f6 d0 2e bd 97 d5 cd bd
       -0.2004893 -0.06520923 -0.04267975 -0.10050505
000080 35 4d 8e bc 86 fa 44 3c e2 68 75 bd 12 62 d9 3a
       -0.0173708 0.01202262 -0.059914477 0.0016585013
000090 83 4d e0 3c d6 5f 0e 3d f2 2c 28 3d 82 ed 36 bd
       0.02738071 0.034759365 0.04105849 -0.0446601
0000a0 50 5a c2 bd 37 98 9e bd 0a cb 28 3d 53 8d 3a bd
       -0.09489882 -0.077438764 0.04120926 -0.045544934
0000b0 f8 25 3b bd 1a 72 86 3b 37 10 40 b9 b5 86 1d 3c
       -0.045690507 0.0041029574 -0.00018316587 0.009614636
0000c0 22 b6 a8 bd 6c f4 ac bd 6d b0 5f bd 2c bb ac bb
       -0.08237864 -0.08445057 -0.054611612 -0.005271336
0000d0 fb 2d 74 bc 29 66 3e 3c 02 7f 52 bd 95 78 b0 bd
       -0.014903541 0.011621037 -0.051390655 -0.08616749
0000e0 fb 9a cc bd 12 14 8b bc 85 f0 47 3d 40 80 22 bd
       -0.09990498 -0.016977344 0.04881336 -0.03967309
0000f0 03 1a 2e 3e 22 16 e6 3d 6b 55 3f 3d 47 fe 94 bd
       0.1700211 0.1123469 0.04671232 -0.07275062
000100 21 a9 ab bd 05 c7 c0 3d 12 61 9f bb ef 50 84 3c
       -0.08381868 0.0941296 -0.0048638666 0.016151873
000110 d4 bb 1c 3e 6b 0a fd 3d 4b 51 94 3d b5 31 81 3d
       0.15306026 0.12355503 0.07242068 0.06308309
000120 ab d4 55 3d 22 d1 9d 3c 79 80 9d bd 46 4d d6 3d
       0.05220477 0.019264761 -0.0769052 0.104639575
000130 02 e0 11 3d b6 6a c9 bc ee 8b d9 3d d5 06 69 bc
       0.03561402 -0.024587017 0.106223926 -0.01422282
000140 01 03 02 3d 76 a2 16 bd a7 fc 90 bd 49 77 1c bd
       0.031741146 -0.03677603 -0.070794396 -0.038199697
000150 2c 29 b8 bd 9d 46 d9 bd 74 03 57 bd b5 55 cc bd
       -0.08992228 -0.106091715 -0.052493528 -0.09977285
000160 54 ab b5 bd 2d e7 bb bd 54 b0 79 bd ca 5e 74 bd
       -0.08870569 -0.09174953 -0.060959175 -0.05966071
000170 12 76 50 bb bd 4a b9 bc 60 f0 a1 3d b9 38 41 3d
       -0.0031808657 -0.022618646 0.07907176 0.047173236
000180 10 1b b1 3c 91 fd 21 3d e0 41 e3 bd 4e d6 5e 3d
       0.02161935 0.03954846 -0.11096549 0.054403596
000190 c6 11 a7 3d 67 b4 9a 3d 1e b6 41 3a dc 2d 8c bc
       0.08157687 0.0755394 0.00073895033 -0.017111711
0001a0 f6 3b 45 3c e9 bd 11 bd 0e ce 66 bc 72 07 92 bc
       0.012038222 -0.035581503 -0.014087213 -0.017825816
0001b0 4c 30 c2 bd 68 50 01 bd 9f f9 0e be 58 3a 25 bd
       -0.09481868 -0.031570822 -0.1396241 -0.040338844
0001c0 15 32 e8 bd 3a 63 de bd e3 b9 2e 3d 87 a1 11 be
       -0.113376774 -0.1085877 0.042657744 -0.14221774
0001d0 70 18 00 be d4 c1 ba bc e3 a7 8b bd bd cc 97 3d
       -0.12509322 -0.022797503 -0.06819131 0.074120976
0001e0 c0 4d 64 3b 88 79 50 bd 43 16 4f 3d 7b db 5e 3d
       0.0034836382 -0.05089715 0.05055834 0.05440853
0001f0 45 44 5a bc 2f 6f 3a 3b 95 15 82 3d f0 7b 37 3e
       -0.013321941 0.0028447618 0.06351773 0.17918372
000200 7f 8d 01 3e da 70 d2 bc 60 a9 26 3d 48 2e 98 bc
       0.12651633 -0.025688577 0.040688872 -0.018576756
000210 46 a8 ea bd b7 94 f7 bc 1e fd 2c be 6d cf 86 3d
       -0.11457877 -0.03022228 -0.16893432 0.06582532
000220 61 49 b8 3d f0 ff cb bd fb 01 29 bb d7 27 50 3d
       0.08998371 -0.099609256 -0.0025788534 0.050819244
000230 b3 23 7e bc fd cd 73 3d 6b c4 62 3d 60 f3 65 3d
       -0.015511441 0.059522618 0.0553631 0.056140304
000240 90 cd 5a 3d b8 c7 4c 3d c5 59 4d 3c 26 ce e2 3d
       0.053418696 0.049995154 0.01253361 0.11074476
000250 dd 9b cd 3d 0b ff be 3d ae 45 3a 3d 81 bd 5c 3d
       0.10039494 0.09325989 0.045476608 0.053891663
000260 c5 5f 2e 3c ea 31 7d bd 1a 55 a3 3d b5 5c c1 3d
       0.01064295 -0.06181518 0.07975216 0.094415106
000270 3d b5 1f 3c 92 a7 cd 3d 21 66 a4 3c 3b 83 c3 3d
       0.0097478 0.10041727 0.02006823 0.095465146
000280 cb c9 5b 3e 8c ac ee 3d 71 09 66 3d 24 e0 55 bc
       0.21463697 0.116540045 0.056161348 -0.013053928
000290 d8 a0 00 be 4c 98 11 3e ff a2 42 3d 0e 80 06 bd
       -0.12561357 0.14218253 0.047518726 -0.032836966
0002a0 27 37 3f 3d cc 6e fd 3c 1e 0e 14 3d 39 af 14 be
       0.046683457 0.030936621 0.036146276 -0.14519967
0002b0 d4 68 5f bd b0 b3 98 3b cd 88 06 be 6c 5d eb bd
       -0.05454333 0.0046600923 -0.13138123 -0.11492428
0002c0 98 ff c8 bc 7e f6 b1 bd 4a 0f f5 bd 7d c7 93 bd
       -0.02453594 -0.08689593 -0.11965807 -0.07215784
0002d0 c5 fd 0a 3b a4 60 ef 3c 49 1d 46 bd a3 2b 11 bb
       0.0021208387 0.029220887 -0.048367772 -0.0022151254
0002e0 b4 52 ad 3d dc f2 1e ba d4 39 0b bd af a8 4a bc
       0.0846304 -0.00060634105 -0.033990696 -0.012369319
0002f0 b2 b5 6b 3d a6 af 9c bd 90 81 0c be 97 89 80 bd
       0.057546325 -0.0765069 -0.13721299 -0.06276243
000300 6a f6 69 bd 9d 7b 9a bd 8e b1 cd 3d 12 d9 9a bd
       -0.057119764 -0.075431086 0.100436315 -0.07560934
000310 eb 1e 23 bd de b5 48 3d 53 22 a0 bd b0 df 4a bd
       -0.039824408 0.049001567 -0.07819047 -0.04952973
000320 fd ee 02 bb be 0e 17 bd 9d 85 d8 bc 51 2b 57 bd
       -0.0019978874 -0.036879294 -0.0264309 -0.052531544
000330 06 e5 72 bd 32 b0 9f 3d ce b5 8f 3c 7e 79 10 be
       -0.059300445 0.077972785 0.017542746 -0.14108846
000340 f3 c5 52 3c f6 64 df 3d 48 ca ae bd c4 5e 8e bd
       0.012864578 0.10907929 -0.08534676 -0.06951669
000350 8f e4 95 3d 3b 96 22 bc 0e cf 8c 3c 0b 0b aa 3d
       0.07318985 -0.009923513 0.017188575 0.083028875
000360 0e 3f 75 3d 47 42 1e 3d ee a0 99 3d 7a bb ae bc
       0.059874587 0.038637426 0.07501398 -0.02132963
000370 f1 88 51 bc c4 93 9f 3c 9a cf 46 bc 3a f9 43 bd
       -0.012788997 0.01947964 -0.012134457 -0.047845103
000380 b8 07 85 3b e3 37 df 3b bf c3 bb 3d 36 43 4f 3d
       0.004059758 0.006812082 0.09168195 0.050601207
000390 03 68 27 bd 7b 0e 6e 3b 15 3c 8d 3d 0c f0 93 bd
       -0.040870678 0.003632455 0.06896225 -0.0722352
0003a0 34 0d ec bd 92 79 fe bc f5 01 9a 3d a8 55 6e 3c
       -0.11525956 -0.031063829 0.075199045 0.014546789
0003b0 03 77 a1 bd b5 17 f7 3d 8d 9e e8 bc 49 bc 20 be
       -0.07884028 0.12065069 -0.028395915 -0.15696825
0003c0 dc 8d ea 3c 27 6e f3 bd 22 26 51 be a7 e3 4c be
       0.028632097 -0.11886244 -0.20424703 -0.20008717
0003d0 74 fd 06 bd a6 8c 1c be 80 0f 3b bd a8 06 23 bb
       -0.032956555 -0.15288028 -0.04566908 -0.0024875794
0003e0 91 7b 21 be 6c c8 5b bc 41 2d 81 bd e4 b6 23 be
       -0.15769793 -0.0134144835 -0.063074596 -0.15987736
0003f0 3b 87 da 3d 65 f6 55 3d 03 64 9b 3c bf bb 00 3d
       0.106703244 0.052236933 0.018968588 0.03142905

module.residual_layers.0.0.bn2.weight f4 [32]
000000 45 b4 b8 3e e0 6a 0e 3f 1d 90 ed 3e bc 61 05 3f
       0.36075035 0.5563183 0.46399012 0.52102256
000010 9f b7 25 3f e9 f8 ba 3e 04 2b 7f 3e 13 0c 14 3f
       0.6473331 0.36518028 0.24918753 0.57830924
000020 30 61 ea 3e e4 72 e3 3e 87 52 a8 3e eb b6 b3 3e
       0.45777273 0.44423592 0.32875463 0.35100493
000030 6b c1 08 3f cd 73 3a 3f 5a 56 d9 3e e1 07 17 3f
       0.5342013 0.7283295 0.42448694 0.589964
000040 43 ae 12 3f e0 80 f5 3e 42 27 cf 3e a9 a6 c9 3e
       0.5729715 0.47949886 0.4045964 0.39384964
000050 19 c7 d0 3e 2a ca 44 3e 31 a0 07 3f 6b 78 b6 3e
       0.407769 0.19217744 0.5297881 0.35638747
000060 09 bf 06 3f ea 7d e5 3e 99 be bc 3e 64 34 10 3f
       0.52635247 0.44822627 0.36864164 0.5632994
000070 5e ab 10 3f 39 6e 12 3f c9 81 f6 3e 5f d1 bf 3e
       0.56511486 0.57199436 0.48145893 0.37464425

module.residual_layers.0.0.bn2.bias f4 [32]
000000 83 3c 23 bd 64 90 d9 be ce 1b f4 bd 66 4b ac 3d
       -0.03985263 -0.42492974 -0.11919366 0.084128186
000010 9e 49 40 bd d2 3d 2e bd 73 bd 54 bd 8f a2 9c be
       -0.046945207 -0.042539425 -0.051938485 -0.30592772
000020 68 4b e5 be 69 3b b6 be cc fe 3c 3e 43 bd 44 be
       -0.44784093 -0.355922 0.18456572 -0.19212823
000030 39 0c a9 be d2 54 1f be 8c eb b5 3c 65 5d 6e 3d
       -0.33017138 -0.155597 0.022207044 0.058194537
000040 83 fb 43 bf bd 6f bc 3b a5 62 ef 3c 56 a1 a0 be
       -0.7655565 0.005750625 0.029221842 -0.3137309
000050 5e 67 53 bd 1e 90 37 3c 3b ea 10 bb 70 61 c3 be
       -0.05161225 0.011203794 -0.0022112268 -0.38160276
000060 ee b0 da bc bb 14 64 bd 7f c6 6c 3d e7 b2 41 be
       -0.026695695 -0.055683833 0.057806488 -0.18915902
000070 18 b8 80 be dd df ab be 81 39 da be 20 fc a6 ba
       -0.25140452 -0.33569232 -0.42621997 -0.0012739934

module.residual_layers.0.0.bn2.running_mean f4 [32]
000000 f9 9a cb bd 98 cf 8f be 9f 87 e1 bd 8b 22 e0 bd
       -0.09941668 -0.2808807 -0.11012196 -0.109440885
000010 df b6 17 bf 6f ad 32 be 14 ea 68 3d 4b 9d 77 be
       -0.59263414 -0.17448972 0.05686386 -0.24181096
000020 f2 51 86 3d 7a 8a 76 be 09 36 d1 3d 95 59 e9 bd
       0.065585986 -0.24076262 0.102153845 -0.113940395
000030 59 e8 6f be 58 9b 1b bf 6b 7a 33 be 27 01 f5 be
       -0.23428477 -0.6078391 -0.17527167 -0.47852442
000040 87 75 03 be b9 27 5a be 5b 9d 14 be 1a 50 bb 3e
       -0.12837802 -0.21304215 -0.14513151 0.3658455
000050 45 87 64 be 56 8c 91 bd fc f6 91 be 58 88 8a 3d
       -0.22317226 -0.07106845 -0.28508747 0.06764287
000060 af e7 dd be 2b f6 7a be 21 2d 1d be 76 7c 4d be
       -0.43340823 -0.24507968 -0.15349247 -0.2006701
000070 40 a6 b8 be b7 bb e1 be 5e 80 88 3c 05 b3 d6 be
       -0.3606434 -0.44088528 0.016662773 -0.41933456

module.residual_layers.0.0.bn2.running_var f4 [32]
000000 55 0e 15 3e ff 24 35 3e 8b b1 88 3e c9 91 7d 3e
       0.14556248 0.17689894 0.26697955 0.24762644
000010 5d fd 01 3f 26 b9 07 3e 0f ef 21 3e cc 7c 35 3e
       0.50777227 0.13254222 0.1581385 0.17723387
000020 a6 6a 03 3e e1 24 08 3e 29 aa 7b 3e 29 e7 1d 3e
       0.12833652 0.13295318 0.2457663 0.15420212
000030 2e 6a 5a 3e 9b b5 14 3f 45 d4 51 3e fd 8c 4d 3f
       0.21329567 0.5808961 0.2049113 0.80293256
000040 3a 74 ba 3d a6 c8 78 3e c0 6d 27 3e e1 46 24 3e
       0.091042 0.24295291 0.1635046 0.16042663
000050 ea 7a 47 3e 06 50 00 3e 3b ed 88 3e fe 2b bc 3d
       0.19480482 0.12530527 0.26743492 0.09188078
000060 23 d3 84 3e 96 9c 8c 3e 35 9c 33 3e 63 97 48 3e
       0.25942335 0.27463216 0.17540057 0.19589
000070 44 b9 83 3e 26 cc 53 3e 50 61 ae 3d b7 f2 30 3e
       0.25727284 0.20683345 0.08514655 0.17280088

module.residual_layers.0.1.conv1.weight f4 [32, 32, 3, 3]
000000 26 b4 31 bd 80 e4 99 3b bf d4 03 bd 65 70 79 bd
       -0.043384694 0.004696429 -0.032185312 -0.060898203
000010 ba 4d 9b 3d 42 c3 87 3d f1 27 04 bd 0a 70 28 3d
       0.075831845 0.06629039 -0.032264654 0.041122474
000020 1c 3b 26 bd 0b e5 69 bb bb 6b 2b bd 8b 7c fa bd
       -0.040583715 -0.0035689499 -0.041850787 -0.12230786
000030 2a ee ea 3c 4c c2 1e 3d de 90 f3 bc fb 28 59 bd
       0.028678019 0.038759515 -0.029732164 -0.053017598
000040 eb 4c c0 3c 59 64 86 3d 81 a2 a3 3d 47 cc 8e 3d
       0.023474177 0.065621085 0.079899795 0.069725566
000050 d2 03 2e 3e fa c9 81 bd a4 4d 33 bd 67 72 be bb
       0.16993645 -0.06337352 -0.043775216 -0.0058119777
000060 72 17 a8 bd 69 42 3d bd 3a 1c 8d bd f0 f2 13 be
       -0.08207597 -0.04620591 -0.068901494 -0.14448142
000070 97 2c 9e bd f3 62 1b 3d 7d ab 75 bd 53 97 3f bb
       -0.077233486 0.037936162 -0.059977997 -0.0029234483
000080 f4 9c a5 3d 7b b3 b1 bd bf a0 03 bc ed cc b7 3c
       0.08086577 -0.08676811 -0.00803393 0.022436583
000090 3d a1 a9 3d 3d da 81 3d f6 3e 8f bc b3 7b f6 3c
       0.08282707 0.06340454 -0.017486077 0.030088281
0000a0 da e4 09 bd 28 75 d7 bc 74 77 f8 3d b1 52 d4 3c
       -0.033665515 -0.026300982 0.12132159 0.025918337
0000b0 99 f4 a0 bc 02 64 46 bb 08 3e 56 bd b5 0d 12 bd
       -0.019647883 -0.0030272012 -0.05230525 -0.035657603
0000c0 95 ff 9a bd 3b fa b1 3c 64 fe 55 bd 5d d7 87 3d
       -0.0756828 0.021725764 -0.05224456 0.06632874
0000d0 6b 11 71 3d 0e 68 2d bc 11 64 b0 3d 25 0c 6e bc
       0.0588545 -0.010583891 0.08612836 -0.014529263
0000e0 3c fe ab bc 52 4f 15 3e fe 36 25 bd f2 34 1f be
       -0.020995252 0.1458104 -0.040335648 -0.15547541
0000f0 79 6a 2e 3e 32 ae a1 3c c4 b8 26 be 2d 95 9f bb
       0.17032804 0.019736383 -0.1628142 -0.004870078
000100 3d a0 6b bd 5f 89 80 bd dd c2 bc 3d c0 b4 70 bd
       -0.057525862 -0.062762015 0.09216855 -0.058766127
000110 a2 7c e3 bd 32 53 be 3d a5 e6 82 bc d0 f2 b9 bd
       -0.11107756 0.09293212 -0.01597912 -0.09079516
000120 67 92 ee 3c 59 76 12 3c 2b 61 8c bd 81 66 18 bd
       0.029122544 0.008939349 -0.06854471 -0.03720713
000130 8b c7 13 3c a4 89 dc bd a4 68 3c 3d 14 9e 14 3d
       0.009019743 -0.1076844 0.04599823 0.036283568
000140 f8 d4 42 bc 18 66 8c bc 5b 69 d4 3d dc 16 68 bd
       -0.011891596 -0.017138526 0.103716575 -0.056662425
000150 9a 8b 08 3d 14 5a ad 3d 7d fd 23 be b6 29 b7 3d
       0.03333626 0.08464447 -0.16014667 0.089435026
000160 36 e3 91 3d cf 5e 3c be cc 81 f2 bd 4a f7 93 bd
       0.07123415 -0.18395542 -0.11841163 -0.07224901
000170 28 64 e7 bc 1c d5 47 bc 88 b9 f3 bc fe 4e a2 b9
       -0.028246 -0.012196805 -0.029751554 -0.00030957902
000180 03 d8 ab bd 05 d4 e2 bd cb f0 a8 bd c3 6b 71 bd
       -0.0839081 -0.11075596 -0.082490526 -0.05894066
000190 c8 a4 41 3d c5 6f 12 3c 57 74 89 3d fa 5d a6 3d
       0.04727629 0.008937781 0.06711643 0.08123393
0001a0 4d af 31 bd 6a b1 04 3d b7 b7 c9 3d 59 35 cd bb
       -0.04338007 0.032395758 0.09849494 -0.006262463
0001b0 64 8f 6d bd e8 26 c1 3c a5 6d af bd 2a 73 64 3b
       -0.057998076 0.023578122 -0.08565835 0.0034858682
0001c0 5e be 38 3d 0d 35 29 bd fb a6 08 3c 9d e3 9d 3d
       0.045103423 -0.04131036 0.0083405925 0.077094294
0001d0 c1 53 fc bd d1 f4 d3 bd 62 0a 42 bc b8 16 1a 3e
       -0.12320662 -0.103494294 -0.011843296 0.15047729
0001e0 82 22 f8 bd 6d 99 b4 bd 19 67 28 3e 91 8b c6 b9
       -0.12115957 -0.08818326 0.16445579 -0.00037869488
0001f0 02 ac 58 bd 1f 68 21 3e 25 82 37 bd fb 6e 46 bd
       -0.052898414 0.15762375 -0.04480185 -0.048445683
000200 9a 6b 51 be 0a da 03 bd c5 12 ce 3c db 63 cc bd
       -0.20451203 -0.03219036 0.025155434 -0.099799834
000210 e3 82 13 be a7 1e b2 bd 02 0b fe bd 29 50 00 be
       -0.14405398 -0.08697253 -0.12404443 -0.12530579
000220 80 8c 9b 3c 68 b4 46 3e d9 f8 17 be e6 19 bc 3c
       0.018987894 0.19404757 -0.14841022 0.022961568
000230 22 53 77 3e 49 28 2f be 00 2a a6 bc 41 41 3f 3e
       0.24152806 -0.17105211 -0.020283699 0.18677236
000240 f0 b3 03 bd a3 74 4e 3b 52 87 cb bd 4c ba a2 bb
       -0.032154024 0.0031502626 -0.0993792 -0.004966056
000250 8d 5b 17 bd 01 6d c0 bc 2d c7 23 3d 1f f7 61 bd
       -0.036952544 -0.023489477 0.03998487 -0.055167314
000260 39 4d 4a bd c2 4a dd bc a7 4f b6 3c 57 ba 23 3d
       -0.04939005 -0.027013186 0.022254778 0.03997263
000270 38 af 12 bc a5 c5 da bc 3a 53 f0 bc 4d 0a 15 bd
       -0.008952908 -0.026705572 -0.02933656 -0.036386777
000280 32 2d 54 bd ec c7 12 bd 70 6b ee 3d da 90 93 3d
       -0.051800914 -0.03583519 0.11641586 0.072053626
000290 f2 f4 5c 3d bc 11 c2 3d 52 b5 aa 3d b3 9d 96 3d
       0.053944536 0.09476039 0.08335365 0.073542975
0002a0 1e 57 37 3d b6 fb 9a bc 26 88 eb bc 96 53 ed 3c
       0.044760816 -0.018918853 -0.028751444 0.028970521
0002b0 3b f9 f1 3b 56 3a 5d bd da 34 16 bb eb 88 00 bc
       0.007384447 -0.05401071 -0.0022919686 -0.007845144
0002c0 8b c8 8e bd 34 0e 84 3d c6 18 8b bc 8b e4 20 bd
       -0.06971844 0.064480215 -0.016979586 -0.039280456
0002d0 cc c8 47 bb 39 36 c5 bd 95 2c e5 3d 56 21 7d 3d
       -0.0030484674 -0.09629483 0.11190144 0.06179937
0002e0 27 cf af bd 9d 82 18 3d 49 4a 10 3e 29 e2 a5 bd
       -0.08584433 0.037233938 0.14090838 -0.08099777
0002f0 4f 0f 97 bd ae 05 e3 bb 2f ac 12 3c e8 24 23 bd
       -0.07375967 -0.0069281673 0.008952185 -0.03983012
000300 3d 42 75 3d 01 8a b8 bc f2 b3 e0 bd db 90 97 3c
       0.059877623 -0.022526743 -0.10971822 0.01850169
000310 8a 69 a1 bd 8a e4 11 be 0c c1 1a bd cc a2 f2 3c
       -0.07881458 -0.14247337 -0.03778176 0.029618643
000320 a4 ac ad bc 95 c2 49 bd 62 6a 05 bd a0 78 9a bc
       -0.021200486 -0.049257834 -0.032572158 -0.018856347
000330 27 11 50 3d 3b b3 fb b9 7e f0 b3 3c 8b 33 8b bd
       0.050797608 -0.00048007988 0.021965262 -0.067969404
000340 0e 3a 17 3d bd 36 08 bd f3 d1 7b bd 85 03 b3 bb
       0.0369206 -0.033255327 -0.06147952 -0.005463066
000350 74 43 ad 3d 38 05 07 3e 53 25 98 39 9f 8e 5d bd
       0.08460131 0.13185585 0.00029019508 -0.054091092
000360 f5 fc bc bd fa 26 37 bd 75 0c 11 be 8a cc 16 be
       -0.09227935 -0.044714905 -0.14164908 -0.14726463
000370 87 31 ef bc 32 cc fe bd 2f e2 ff bc 83 45 46 bc
       -0.029198421 -0.12441291 -0.031235782 -0.012101534
000380 46 cc 3e be bc ad 66 3d fa 4f f0 bb bc 51 49 bd
       -0.18632612 0.05631803 -0.0073337527 -0.049150214
000390 dc 2d d0 3c bc 07 58 bd d7 35 26 bd 0e 3e 41 3d
       0.025412492 -0.05274175 -0.04057869 0.04717832
0003a0 cd 7b ad 3d 3e ec 3c 3e 89 1e 93 bc 27 6c 1e be
       0.08470879 0.18449494 -0.017958896 -0.15470944
0003b0 0f 9d af bd 43 cd 99 3d 32 93 f8 ba ca 8c 28 3d
       -0.085748784 0.07509854 -0.0018964766 0.041149892
0003c0 56 6d 02 3e af 60 d5 3c 11 36 a7 3d ae 73 8b bd
       0.12737021 0.026047079 0.08164609 -0.068091735
0003d0 ec 11 1d bd 45 ac 9c bc c6 f5 8f ba 93 64 7b 3d
       -0.03834717 -0.019125113 -0.001098328 0.061375212
0003e0 fb 3c 02 3e 0e 06 28 3b 96 a0 a6 bc 74 47 b2 3c
       0.12718575 0.0025638374 -0.020340245 0.021762587
0003f0 ed 27 86 3d 81 7c 8b 3c 72 47 13 be 9b 21 63 3d
       0.06550584 0.017027142 -0.14382723 0.05545197

module.residual_layers.0.1.bn1.weight f4 [32]
000000 7e a4 16 3f f2 c5 af 3e e1 b2 f6 3e 69 a4 ec 3e
       0.58844745 0.34330708 0.4818335 0.46219185
000010 60 39 14 3f db 00 08 3f 66 c4 e4 3e f5 87 10 3f
       0.5790005 0.53126305 0.4468109 0.56457454
000020 54 f2 17 3f a1 ba cd 3e f0 5a ef 3e 6b 07 c0 3e
       0.5935414 0.4018145 0.46749067 0.3750566
000030 3d b6 06 3f cb f1 f1 3e 7f 0c fe 3e bf 9e e3 3e
       0.52621824 0.47254786 0.4961891 0.4445705
000040 22 84 a1 3e fb f3 13 3f e0 6a 06 3f e8 46 05 3f
       0.31546122 0.5779416 0.5250683 0.5206132
000050 a2 2b 07 3f 15 b0 e3 3e d0 43 a4 3e 39 98 e0 3e
       0.52800953 0.44470277 0.32082987 0.43866137
000060 05 c7 d0 3e 56 91 c4 3e 15 f2 ea 3e c7 94 0e 3f
       0.4077684 0.38392133 0.4588782 0.55695766
000070 7f 42 d3 3e a9 8e bf 3e 2c d3 02 3f 44 f6 dc 3e
       0.4126167 0.3741353 0.5110347 0.43156636

module.residual_layers.0.1.bn1.bias f4 [32]
000000 97 4c 87 be d2 bd c0 bd 81 d7 42 be 84 41 41 be
       -0.2642562 -0.09411205 -0.1902752 -0.18872648
000010 7b 06 1c bf 08 bd cc be 0b bc 5c be 82 6f ff be
       -0.6094739 -0.3998797 -0.21556108 -0.4988976
000020 3e 26 ca be 80 8f 07 3e e5 d3 c3 3d 51 b6 91 bd
       -0.394823 0.13238335 0.095619 -0.07114852
000030 8b b7 3c be f7 96 ea bd 1e ca 82 be 4d c0 6e be
       -0.18429391 -0.114545755 -0.25544828 -0.23315544
000040 b6 4d 2e 3e 55 d9 91 be b3 3a 81 be c5 0c 9b be
       0.17021832 -0.28486124 -0.25240096 -0.3028318
000050 af 33 b5 be 78 03 3b bd 25 1d 00 3e 02 ce 6d be
       -0.35390994 -0.045657605 0.12511118 -0.23223117
000060 7f 93 09 bc d4 ef 1f 3e 57 5a 03 be 28 31 b7 be
       -0.008396982 0.15618831 -0.1282743 -0.3577969
000070 7f 70 ca bd 85 86 33 be 92 2e 55 be f3 c2 b9 bd
       -0.09884738 -0.17531784 -0.20818546 -0.09070387

module.residual_layers.0.1.bn1.running_mean f4 [32]
000000 a2 89 d0 be 69 f9 ae 3e aa 56 cc be 3e 39 2e be
       -0.40730006 0.3417466 -0.3990987 -0.17014024
000010 cf 09 ac be e1 d7 77 be 24 47 83 bd 64 00 78 bd
       -0.33601233 -0.24203445 -0.06410053 -0.060547248
000020 8b 15 b0 be bb 49 b7 be 61 34 68 3c 43 64 90 be
       -0.34391436 -0.3579844 0.014172644 -0.28201494
000030 18 c6 d2 be 67 cb d0 be f1 5d cc 3e e6 fd cd bc
       -0.4116676 -0.40780184 0.39915422 -0.025145482
000040 24 00 e3 bd 24 cb b3 be 82 e1 07 be 3b a3 43 bd
       -0.11084011 -0.35115921 -0.13269618 -0.04776309
000050 56 a9 9d be 76 9f 28 bf 82 74 20 bf e8 f2 44 bf
       -0.30793256 -0.6586832 -0.62677777 -0.76933146
000060 d2 91 c5 be fc a1 ed 3d b8 f8 7d bd 18 dd 19 bf
       -0.38587815 0.11603162 -0.062004775 -0.6010299
000070 8e b3 1d bf 91 ae be bd 51 8c 13 be 84 6e 1e be
       -0.61602104 -0.0931064 -0.14408995 -0.15471846

module.residual_layers.0.1.bn1.running_var f4 [32]
000000 c0 e5 32 3e 0d da 78 3e 07 36 37 3e 3b f6 5c 3e
       0.17470455 0.2430193 0.17891704 0.21578304
000010 94 c4 c6 3d 58 9e 35 3e ea 12 24 3e 0d 92 27 3e
       0.09705463 0.17736185 0.1602284 0.16364308
000020 7e 29 14 3e 1a 17 3a 3e 4e c0 5c 3e 66 6b 2d 3e
       0.14468953 0.18172875 0.21557733 0.169355
000030 56 f8 42 3e c9 c0 3d 3e 11 b7 76 3e 72 f3 08 3e
       0.19040045 0.18530573 0.24093272 0.13374117
000040 29 33 54 3e b0 9d 33 3e 46 b5 2a 3e 72 5f 22 3e
       0.20722641 0.17540622 0.16670713 0.15856722
000050 d7 2a cf 3d 30 77 8c 3e 7d 51 63 3e 0e f6 24 3e
       0.10115593 0.27434683 0.22199054 0.16109487
000060 79 f0 3b 3e 24 f0 4c 3e f6 0f 41 3e b4 85 1e 3e
       0.18353452 0.20013481 0.18853745 0.15480691
000070 8a 21 32 3e a1 e4 29 3e a3 3b 3c 3e d3 a2 4f 3e
       0.17395607 0.16591121 0.18382125 0.20276956

module.residual_layers.0.1.conv2.weight f4 [32, 32, 3, 3]
000000 55 45 fc bb cf 80 23 bd d6 cf 1c bd 7d d2 22 3d
       -0.0076986947 -0.039917763 -0.038284145 0.03975152
000010 38 c2 03 bd a2 65 7e bc 6f 42 89 3d b3 d7 2f bc
       -0.032167643 -0.015527161 0.06702124 -0.010732579
000020 33 43 0e 3d 76 99 72 bd 83 fb 10 bd 31 f7 8d bd
       0.034732055 -0.059228383 -0.03539611 -0.06931914
000030 f6 bb ab 3c 07 35 b3 bc 1d 5d d7 bd e9 b2 98 3d
       0.02096365 -0.021875871 -0.10515807 0.074559994
000040 1e 5c 1d bc d1 6c d0 bd a0 7e 77 bd af 42 eb bb
       -0.009604482 -0.10177005 -0.060423493 -0.00717958
000050 6b ec 69 bb 65 d6 bc bc 75 7e 61 3d b5 8d 7c 3d
       -0.0035693895 -0.02305145 0.05505224 0.06165858
000060 f8 a4 7e 3c 7d 06 d0 3d 37 70 80 3d 85 05 50 3b
       0.015542261 0.101574875 0.06271403 0.003174157
000070 9f f0 84 bc ff 96 50 bd bc 3c 9d 3c 79 58 da 3c
       -0.016228018 -0.05092525 0.019194 0.026653515
000080 6e eb c5 bb f5 48 f2 bd 80 7e 84 bd 32 0a 97 bd
       -0.0060400283 -0.11830322 -0.064694405 -0.073749915
000090 60 06 0d bb 41 fc e4 bc d9 e5 29 3b c9 de 10 3d
       -0.0021518692 -0.027952315 0.0025924353 0.035368714
0000a0 f6 f8 a8 bc 14 33 f9 bb 46 6b 6b 3d fb bd 19 3c
       -0.020626526 -0.007604966 0.05747535 0.009383674
0000b0 8f 85 7f 3b 8a 43 9e bc 73 fc 4d bc 9a f9 66 3c
       0.003898952 -0.019319315 -0.012572396 0.014097596
0000c0 c5 26 86 bd d1 2a 8b bd c9 5e 50 bd 82 83 80 bd
       -0.065503635 -0.06795276 -0.050871644 -0.06275083
0000d0 61 d1 a9 bd b8 bf aa bd e7 6e 27 bd 4e 17 7a bd
       -0.08291889 -0.08337349 -0.04087725 -0.06105738
0000e0 52 c7 e4 bd aa a1 99 bd 64 10 51 bd 2f ac 9c bd
       -0.1117083 -0.07501538 -0.051041022 -0.07650029
0000f0 6b c0 37 be f1 98 f2 bd 9c 55 26 be f6 87 de bc
       -0.17944495 -0.118455775 -0.16243595 -0.02716444
000100 00 79 62 bb 3a 23 06 bd d1 8a 0d 3c 6c a5 27 3d
       -0.0034556985 -0.03274844 0.008639053 0.040929243
000110 a4 67 ee 3b 53 67 66 3d 38 5c e8 3d da ce 73 3d
       0.0072755385 0.05625088 0.11345714 0.05952344
000120 a1 e7 ed 3c 7e bc 9e 3c 5d f4 2b 3d 97 9a 7b 3d
       0.029041113 0.01937699 0.04198109 0.061426725
000130 9d f1 ac 3b 13 dc ba 3c de 34 dd 3d e4 65 86 3d
       0.005277826 0.022810018 0.10801099 0.06562403
000140 d8 ad 7e 3d 9c d9 14 3c c1 1a 4f bd b4 fe 01 bd
       0.06217751 0.009085085 -0.050562624 -0.031737044
000150 42 1e 3f 3d 39 37 f7 bc 56 87 92 3b 88 05 9f 3b
       0.046659715 -0.0301777 0.0044716997 0.0048529543
000160 1c 8c 5c bd 56 12 49 bd 86 7a 5b bd f5 d1 29 ba
       -0.053844556 -0.049089752 -0.053583644 -0.00064781244
000170 6c ed 64 3d 3a d4 e3 bc 7c 60 d5 bc bd d9 57 3c
       0.055890486 -0.027811158 -0.026046984 0.013174471
000180 12 43 b3 bd 4d a8 e8 bd 98 64 d5 bd e7 7f 6e bd
       -0.08753027 -0.11360226 -0.10419577 -0.058227446
000190 07 3f 28 bd ac c3 ac bc 84 d0 56 bd 1c 4e 18 bd
       -0.041075733 -0.021089397 -0.05244495 -0.037183866
0001a0 ae 79 e3 bc e2 77 ba bd 7b b7 7d bd 32 b7 9c bd
       -0.027767982 -0.09104897 -0.06194256 -0.07652129
0001b0 b0 c4 aa bd 23 dd 8e bc 55 f6 3d bd f8 61 23 bd
       -0.083382964 -0.01743943 -0.0463775 -0.039888352
0001c0 5e ce d5 3c 7b 38 37 3c c7 59 dc bd 53 ea 4d bd
       0.02609938 0.0111829 -0.10759311 -0.050272297
0001d0 41 9e ca bc fa e2 9f 3c b0 74 c9 bb 38 66 85 be
       -0.024733664 0.01951741 -0.0061479434 -0.2605455
0001e0 e5 60 07 3d 66 8b 56 3d 7f 1c 00 be 40 a8 cb 3d
       0.03305139 0.052379034 -0.1251087 0.099442005
0001f0 96 db a3 3d 61 ac 01 be d6 0d 86 bc b2 f9 f7 3c
       0.08000867 -0.12663414 -0.01636402 0.030270431
000200 27 e3 3b bd 25 5a 72 bd a1 0c 47 3c 1e 73 8c bd
       -0.045870926 -0.059168 0.012149007 -0.06857894
000210 12 30 0a be 4c e6 a6 bd 7b d0 0e be ba dc 00 bd
       -0.134949 -0.081493944 -0.13946716 -0.0314605
000220 82 d1 32 bd a8 77 b1 bd 53 ee 90 3c 6a 87 9d 3c
       -0.043656833 -0.08665401 0.017691767 0.01922961
000230 50 f8 09 bd 08 9b 9b 3d 25 47 96 3b 3a cc af bd
       -0.033684075 0.07597929 0.004586118 -0.08583875
000240 0a 29 88 3d 65 17 39 bd 6f 72 7c bd 7f 83 c4 3d
       0.066484526 -0.045188326 -0.06163257 0.095953934
000250 a7 36 03 bb e8 ee 08 bc 95 2a ca 3d de 47 2c 3d
       -0.002002159 -0.008357741 0.09871403 0.042060725
000260 6d 9d ac 3c 92 1d 54 bc e5 1d a6 bc 26 d4 a6 bc
       0.02107116 -0.012946503 -0.020277927 -0.020364832
000270 c3 c3 3b 3d 55 14 4c bc 02 9a 29 3c 75 3f 00 3e
       0.04584099 -0.012456019 0.01035166 0.12524207
000280 39 03 09 3d 15 c2 8d 3d ea df 24 3d fb 70 4d 3b
       0.03345034 0.06921784 0.040252604 0.003134786
000290 57 f0 ab 3b 9e 67 fe 3c a7 c4 9f bc 70 28 87 bc
       0.0052471566 0.031055268 -0.01950295 -0.016498774
0002a0 62 21 bc 3d 88 96 8e bc ca cf 85 bd 57 b6 b5 bd
       0.09186055 -0.017405763 -0.06533773 -0.08872669
0002b0 90 61 92 bd d6 8c 86 3c cc db 01 bd dd bc c2 bc
       -0.07147515 0.016424578 -0.031703755 -0.023771698
0002c0 19 36 6a 3d 7c 68 18 bd f2 3e 0a 3d 90 54 10 3e
       0.057180498 -0.03720902 0.033751436 0.14094758
0002d0 ce 97 e0 3c ff ea 64 3d 96 46 c5 3c 3b 04 37 3d
       0.027416136 0.055888172 0.02408151 0.04468177
0002e0 d4 ac 7a 3d 0c 52 69 3c 03 40 86 3d 5e e9 d8 3d
       0.061199978 0.014240753 0.06555178 0.10591386
0002f0 6d 5b 88 3d 09 4b cf 3d a3 88 d3 3d 65 19 5a bc
       0.06658063 0.10121734 0.10328796 -0.013311719
000300 91 11 9c 3c 5c 3b d3 3c 15 e8 26 bd 78 ce 88 bd
       0.019051345 0.02578514 -0.040748674 -0.06680006
000310 22 18 b3 bd 98 58 f4 bd b1 9f a4 bd 16 24 59 bd
       -0.08744837 -0.119309604 -0.08038271 -0.05301293
000320 ab af 92 bd 36 dc 60 bb c0 84 20 3d 36 0a 97 3d
       -0.07162412 -0.0034310943 0.0391891 0.073749945
000330 7c 47 9c 3b a0 8d cc 3d 1c 3c 1c 3e 45 c1 0c 3e
       0.004769264 0.0998795 0.15257305 0.13745601
000340 7f 27 0e 3e bc e1 f6 3d d7 c4 c1 3d e2 a3 df 3d
       0.13882254 0.12054774 0.09461372 0.1091993
000350 eb e6 e1 3d d2 7c 48 3c 0e 25 e2 3c 11 ef d1 3b
       0.11030372 0.012236791 0.02760556 0.0064066728
000360 e6 6d 3c 3c 55 03 69 3d a2 a2 a5 3d 5f f2 77 bd
       0.011500811 0.056887943 0.0808766 -0.060533877
000370 1a 08 af bb dd dd 23 bc d9 55 f4 bd 81 0e 3a bd
       -0.005341542 -0.010001627 -0.11930437 -0.04542399
000380 27 5c 90 bd 16 86 12 3c a0 b5 c4 bd b2 60 a2 bd
       -0.07048827 0.008943101 -0.09604955 -0.079285994
000390 3d b8 98 3d 17 17 8d bd 1f a0 8f bb a2 92 06 3e
       0.07457016 -0.0688917 -0.0043831016 0.13141873
0003a0 10 35 c3 3a ae 94 72 3d b6 a8 ac 3c e2 29 00 3d
       0.0014893133 0.059223823 0.021076541 0.031289943
0003b0 9d c2 65 3c 01 27 53 bd ce f6 1b bc 0e 0d eb bc
       0.01402345 -0.05155087 -0.009519292 -0.028692748
0003c0 2e 28 2e be ec 93 10 be bb 17 f5 bd 84 af 69 3d
       -0.17007515 -0.14118928 -0.11967417 0.05705215
0003d0 8d bf d1 3c 06 00 11 3d 1d 1c c6 3c dd 7e b2 3c
       0.025604034 0.035400413 0.024183327 0.021789009
0003e0 1c 34 8f 3d 06 fd f4 3b 3e 49 3f 3c 6c ec 1e 3d
       0.06992361 0.007476452 0.011675177 0.03879969
0003f0 fb ea 04 3d a2 e7 ec 3c ab 8c a6 bc 9e fb 9c 3d
       0.032450657 0.028919045 -0.020330748 0.0766518
