summaries/good_ResNet2_num_blocks2x1_num_channels16_conv7/ckpt.pth (torch, 527503 bytes, 42 tensors)

module.conv1.weight f4 [16, 3, 3, 3]
00000000: 9c93 e83d e08d a9be 2e6e a13a 7f17 ec3d
00000010: c917 9ebe 2ac7 5dbe 3de3 ab3e cc54 783e
00000020: 94d7 2d3e d304 043e 6a94 9fbe 51b8 cabd
00000030: 5bf5 003e 1959 83be 2894 7abe d56e 9c3e
00000040: 9975 773e 8e38 0b3e d920 9dbd ee79 dfbe
00000050: b7bd aabc 1888 333d 5998 9bbe bcb5 a7bd
00000060: d1a9 943e d9f5 7a3e 2b25 a93e 5174 cebd
00000070: be5d babe 5eba d8bd e91d 94be 4315 0abf
00000080: 1739 a8be 0da9 9fbd 6734 99be fa21 f5bd
00000090: 57ca cb3d cdf2 ce3b b256 0c3d 83f7 b13d
000000a0: a7e2 b33d db59 863d 314b 6838 8d21 663c
000000b0: e21b 753b bfa1 383e 4f34 693e 7876 3a3e
000000c0: f3eb 833e d76e e03e 9ff8 ba3e 97d6 8bbd
000000d0: 0f45 253e b1d4 023e e3a1 f23e 7c55 293e
000000e0: c23e 2fbc a7f9 86bf 139e 363f db9b 833e
000000f0: ca33 453d bbcf 1fbe 24a8 efbe 2673 023e
00000100: 15e7 60be e3d3 aebd d71d 7bbf 4824 1b3f
00000110: 4202 953d aacf b43e 5654 7a3e 45ee a9bd
00000120: e75d a63e bd12 d5be 137c fcbc f3e7 30bf
00000130: 2e2e f13e ba71 87bc 706c 453e 3d6d 413e
00000140: 4d7e 16bd 7a8b dfbe be6b 0dbe 39fe db3e
00000150: 9630 13bf e469 e7bc a512 2b3f 3ada dcbe
00000160: 50a3 2a3c 8675 f23e a5f7 be3e f50d 0b3b
00000170: 3d28 68be 9cc2 da3e 99db 66bd 0581 ebbe
00000180: ab68 9a3e e338 24bd 9687 b2be 9611 523d
00000190: d79d 263e 9d73 30be 3f9b 653e a663 c83d
000001a0: 1a9c c1be 8c27 403e 9eca ef3c 7e61 5abe
000001b0: 816d fd3e 11b8 fd3e a782 423d 1f38 973e
000001c0: 6865 923d 20ae bbbe 8ea6 bcbd f416 b6be
000001d0: fe7d 17bf 21a5 e53c fdd9 3dbc 5d64 e4bc
000001e0: b848 f03d 3e97 fbbc 4f46 d1bd c921 d73d
000001f0: ce7c ff3c 548a 65bd 2e00 53bf b525 14bf
00000200: d6d2 aebc d6e1 afbe e8f8 da3c ec4b 063f
00000210: 5680 073d e24d e13e 7cde 253f 78bb 753e
00000220: 1de4 bbbd 6f38 823e 2a2b 25be 3501 10bf
00000230: c322 9ebd f429 a63c 4877 85bc 2882 233e
00000240: 6638 0d3e 507b 15be d170 293e e15f aebd
00000250: caf2 d0be fcc5 3ebd d692 2abd 6989 29bd
00000260: b3f0 263d 0424 613d 564f f8bd 2bee 1c3d
00000270: bf7e b9bc 84f5 81be c603 e0bd 0d51 3b3d
00000280: 822d c63d e9e2 6b3d 8ac2 a3bc 9c8c 7a3e
00000290: b5c1 523c c687 c73e e613 783e 5551 2ebe
000002a0: cb88 403d 1729 69bd 63a6 3ebe 2b4a a5be
000002b0: 24da a9be 77fd 70be 6dd8 ef3c d8bd a6be
000002c0: d40f d8be cd71 d23e 61a9 153e 37eb 353e
000002d0: ae26 91bd 5b12 893e 85f6 f33e 3f7c e9bd
000002e0: 7f03 febd c5c6 46bd 0408 f5bd 3a81 6fbe
000002f0: a301 ebbd d790 af32 ee7e 3c32 9500 3ab2
00000300: 320c 0433 57d1 c532 c251 6431 ce2d bd31
00000310: f197 21b1 3f92 1bb2 5a3b 0233 c5f9 b332
00000320: 48f5 26b2 a050 4b33 b81f 2133 a219 0e32
00000330: 2f6b fc32 d1d7 bb32 c505 1132 035e 4e32
00000340: b05a 74b1 641e 1fb3 36c1 a932 7934 0731
00000350: 6aa5 03b3 7a9d 1630 e4ae 8ab2 d26d 0cb3
00000360: 6834 2ebe 295b 98be 7005 d8bd 7a41 9abe
00000370: 6a94 d3be bd73 5ebe 69d7 c3bd 78a6 7cbd
00000380: dcbe 0f3e 146c f23e 6477 243f f8d5 853e
00000390: 6377 f73e 789b 1b3f f6b0 173e 0c67 063e
000003a0: 5a7b 8b3e e89f 15be 92b1 73be ae68 9fbe
000003b0: 4d11 27bb 1ff0 9ebe 6064 cabe cbef 02be
000003c0: 7a5c 49bd afd7 98bd a849 3d3c 4fe7 c13e
000003d0: 5936 fa3d bd93 f3b8 43e5 983e 4d38 343c
000003e0: d219 7ebe 1085 463e c5c3 95bc 8ca5 10be
000003f0: 02ab 563e 77f2 49bd 9c05 61be d697 423e
0.11356279 -0.33116055 0.0012316161 0.11527919 -0.30877522 -0.21658006 0.33571807 0.24251097
0.16976768 0.12892465 -0.31167918 -0.09898437 0.12593596 -0.25653914 -0.2447058 0.30553308
0.24165954 0.13595793 -0.07672281 -0.43647712 -0.020842416 0.04383096 -0.3038967 -0.0818896
0.2903581 0.24507846 0.3303617 -0.10080779 -0.36399645 -0.10582422 -0.2892907 -0.5393869
-0.32856056 -0.07795916 -0.29922792 -0.11969371 0.09950703 0.006315565 0.034262367 0.08689787
0.08783465 0.06560107 5.5383138e-05 0.014046085 0.0037400653 0.18030451 0.2277386 0.18209255
0.25765952 0.43834564 0.36517808 -0.06828039 0.16139625 0.12776448 0.47389135 0.16536516
-0.010696115 -1.0544938 0.7133495 0.25704846 0.048145093 -0.15606587 -0.4680797 0.12739238
-0.21963151 -0.08536508 -0.98092407 0.60602236 0.07275821 0.35314685 0.24446234 -0.082973994
0.32493517 -0.4161586 -0.030820882 -0.69103926 0.47105545 -0.016533721 0.19279647 0.18889327
-0.036741544 -0.436611 -0.13810632 0.42967394 -0.5749601 -0.028248735 0.66825324 -0.43135244
0.010414913 0.47355288 0.37298313 0.0021218036 -0.226716 0.427266 -0.05636177 -0.45996872
0.3015798 -0.040093314 -0.3486907 0.051286303 0.16271149 -0.17231603 0.22422503 0.097846314
-0.3781441 0.18765086 0.02927142 -0.21326253 0.49497607 0.49554494 0.04748788 0.29535004
0.07148248 -0.36656284 -0.09211455 -0.35564387 -0.59176624 0.028032841 -0.011587617 -0.027879888
0.1173262 -0.030711766 -0.102184884 0.10504491 0.031187441 -0.056040123 -0.8242215 -0.57870036
-0.021340769 -0.34351987 0.026730016 0.524596 0.033081375 0.44004732 0.6479261 0.23997295
-0.091743685 0.2543368 -0.16129747 -0.5625184 -0.07721474 0.020283677 -0.01629223 0.1596762
0.13791046 -0.14597821 0.16546942 -0.08514381 -0.40810233 -0.04657553 -0.04164394 -0.04139081
0.040756892 0.054965988 -0.12124507 0.038313072 -0.022643445 -0.25382626 -0.1093822 0.045731593
0.09676649 0.057589445 -0.019990224 0.244677 0.012863566 0.38970774 0.2422634 -0.17023213
0.047005456 -0.056923952 -0.18618159 -0.32283148 -0.3317424 -0.23534189 0.029278005 -0.32566714
-0.42199576 0.41102448 0.14615394 0.17765509 -0.07087456 0.26771817 0.47649017 -0.11400651
-0.124030106 -0.048529405 -0.119644195 -0.2338914 -0.114749216 2.0438547e-08 1.0971901e-08 -1.0826757e-08
3.0744737e-08 2.3029015e-08 3.322484e-09 5.5058313e-09 -2.3514952e-09 -9.05544e-09 3.0321964e-08 2.0951925e-08
-9.718242e-09 4.733795e-08 3.751458e-08 8.271316e-09 2.9385403e-08 2.1867807e-08 8.441423e-09 1.2012154e-08
-3.5558223e-09 -3.7047712e-08 1.9762052e-08 1.9674913e-09 -3.0651258e-08 5.479347e-10 -1.6144845e-08 -3.269617e-08
-0.17012179 -0.2975705 -0.10547912 -0.3012808 -0.41324168 -0.21723838 -0.095625706 -0.061682194
0.14037651 0.47348082 0.64244676 0.26139808 0.48333272 0.607841 0.14813599 0.13125247
0.27242547 -0.1461178 -0.23798206 -0.31134552 -0.002549249 -0.31042573 -0.39529705 -0.12786786
-0.04916046 -0.074630134 0.011553206 0.37871787 0.12217397 -0.00011614661 0.29862413 0.010999751
-0.24814537 0.19386697 -0.018281827 -0.14125651 0.20963672 -0.049303498 -0.21974796 0.19003233

module.bn1.weight f4 [16]
00000000: a91d b73e 33e4 213e 8fcc 103f 35cc 893e
00000010: b883 a23e 4a1a 5e3f 344d 7b3e cd70 deb0
00000020: b1ef 4b3e 3b2f 773e 9b80 2e3f 0322 813e
00000030: 2997 c53e c1b2 2734 12f7 c73e be30 1b3f
0.35764816 0.15809707 0.5656213 0.2691361 0.31741118 0.86758864 0.2454117 -1.6184686e-09
0.19915654 0.2413911 0.68164986 0.2522126 0.3859189 1.5618117e-07 0.39055687 0.6062125

module.bn1.bias f4 [16]
00000000: 7205 4b3e 47d6 d33d 015f ea3e 5d83 aebd
00000010: 2424 59bd b897 07bf dcba e73c c033 1eb3
00000020: 8870 1a3d 5bd1 e43d 1dd4 de3e a776 dd3d
00000030: 5b89 09bc 2d96 05b6 e7b8 0ebd 5378 06bf
0.19826296 0.103436045 0.45775607 -0.08521149 -0.053012982 -0.5296588 0.028287344 -3.6834308e-08
0.037704974 0.11172744 0.43521205 0.10813647 -0.0083945645 -1.9905958e-06 -0.034844305 -0.5252735

module.bn1.running_mean f4 [16]
00000000: 34cc 193d 33a4 9bbb bced 14bd ce67 973c
00000010: c333 dabb 62b1 ac3e 50be 143e 7f07 70b3
00000020: 0cd4 b43c 7a9f c6bd 0ca2 a7bd 0bd7 a3bd
00000030: c798 773d c6af 1db6 0c9e 2b3d e955 9c3d
0.03754826 -0.0047497987 -0.036359534 0.018482115 -0.0066590025 0.33729082 0.14525723 -5.5886172e-08
0.022073768 -0.096983865 -0.08185205 -0.080000006 0.060448434 -2.3497137e-06 0.041898772 0.076335736

module.bn1.running_var f4 [16]
00000000: 6721 6940 5f94 1440 8806 993f e87d 6c3e
00000010: 5ea4 ea3e f5d6 1a40 6f61 353f e015 a529
00000020: 89c7 503f 9713 6a40 84db a93f 7bc8 4140
00000030: 3965 3640 6e21 2b2f 8bb4 3240 0b71 453f
3.6426637 2.3215559 1.1955118 0.23094904 0.45828527 2.41937 0.70851797 7.331267e-14
0.81554466 3.6574457 1.3270116 3.0278614 2.8499281 1.5564236e-10 2.7922695 0.77125615

module.residual_layers.0.0.conv1.weight f4 [16, 16, 7, 7]
00000000: 089a 5abd ef4c 4cbb 7ee8 32bd 170d f9bd
00000010: 1b0b 38bd 413f e83d 5852 0d3e a969 bb3c
00000020: a569 7d3d d90b 473c d325 a8bd 8b14 5ebd
00000030: f192 6b3d 28ae 863d 8fe8 38bc 7d91 29bc
00000040: c846 44bd f306 e6bd 4ad4 b4bd ff9e 5abc
00000050: 21ee b7ba bd56 ac3c 322d b63b 74bf b0bc
00000060: dba5 39bd 7db1 62bc cf68 e13c 0d9a 843d
00000070: a236 0b3d 3fd3 6cbb b595 53bd 96f3 96bd
00000080: 2ede 97bc 1bc3 ac3c 8573 b83c 2a84 993d
00000090: 8d56 353d 5d65 94bc 6123 4dbd 22f2 29bb
000000a0: 25ec 043d b7ea 3b3c 35d7 99bc 534b 59bc
000000b0: 7e1e 5bbd f36f 94bd 2b77 903b 8295 443c
000000c0: c566 8cbc 9183 b9bd 3cd7 88bd b523 94bd
000000d0: 1bba dcbd 3202 f9bd 719f bdbd b2a8 b9bd
000000e0: 7e06 d83c 9660 7d3d 880a b83c a802 8cbd
000000f0: 7c57 03be 9d30 00be c473 fcbd 06b6 bc3d
00000100: 6d76 0d3e 99fd b03d 2867 0dbd c273 0abe
00000110: 06dc 2abe 36c0 38be d105 0b3e 8d0b 383e
00000120: b035 103e bc93 e63c 78af bfbd 7b4c 24be
00000130: 08db 58be a9ce 093e 09f3 363e a88b 2c3e
00000140: 6511 b23d b9bf b3bc 26d1 ccbd 43c6 34be
00000150: 4201 f73d c306 333e 9d1a 3a3e 9300 eb3d
00000160: 7a82 b23c b706 35bd 2f21 f5bd 1580 c73d
00000170: 2eb6 293e 2b46 373e a8ba ee3d 4813 fb3c
00000180: a420 8fbc c712 a0bd ab03 863d 6b73 d23d
00000190: 9e32 883c 916a f03c 598a 993b 21e7 4bbd
000001a0: 0295 953d 8326 713d f5c4 f2bb 073c dcbc
000001b0: b96b 483d 88b9 17bd 6897 e1bd b43a d9bd
000001c0: 396b d9bd 49ce d93c 2264 493c b28e 023e
000001d0: b2bc 133e e506 a7bd a59b eabd dbf9 e1bd
000001e0: e781 35bc 7314 91bd 2019 593d 1c1c 373d
000001f0: 8567 cf3c f08c 7dbd df76 2bbd 7969 2dbd
00000200: b285 7ebd 3a2c cf3c 1037 da3d cec3 013e
00000210: f03f ac3d d1ca 53bd c64c 20bd c265 e3bc
00000220: 23ed c8bd cddd 493d 8dda cf3c c898 123e
00000230: 45bf 05bc ead5 88bd 4155 d63b fe29 64bd
00000240: 16f1 16bb 3c3d c7b9 ea4c 2fba 865f 16bd
00000250: 2fd4 43bd 7f48 7c3d 2ae0 f83c c086 87bd
00000260: b060 bbbd 666a 3dbd 008a 95bd e890 cebd
00000270: 8edf c83d e985 f93d c16d bcbc 7c66 87bd
00000280: f623 43bd befb 26bd e161 d1bd 7ebf d43d
00000290: 1893 263e 14c8 1f3d 6a6b 5fbd 393b 98bd
000002a0: 7c9c 83ba c44d c4bd edc7 8f3b e802 9f3d
000002b0: 71c0 ad3d 2693 0cbd 5bc9 94bd a12d 4a3b
000002c0: 866d e2bd 857d bbbd 4109 0ebd 3cc8 383d
000002d0: 2237 62bc 9345 02bd c5a8 053d 3e3f d2bd
000002e0: c884 98bd 5d88 3ebd e2c9 acb9 eb55 d3bc
000002f0: d2f9 5bbb 791f 963d 6fd1 2dbd 9e20 0cbc
00000300: 7a9d 4c3b b471 ddbb 90e8 44bd f848 7eba
00000310: a36e 493d c7c8 1a3e d9f9 55bd e593 e8bd
00000320: 424d 5fbd 1b5e f03b 9534 7c3d 7b93 293e
00000330: d535 343e 4acc a9bd 9f01 15be 6d96 91bd
00000340: 0c79 60bc a615 16bd 888c 1a3e 0e1a b93c
00000350: 4311 22be 8e81 02be 88bd e1bc b95a c73b
00000360: c615 ccbd d2ad 013d c453 d3bd 36f3 27be
00000370: e655 b5bd ae6b 9aba c1e6 043d 4c28 49bc
00000380: 14d2 2cbd 13dd 8abd 8f5b cfbd bb06 cfbd
00000390: 8aba 89bd a4aa eb3c 3511 603d a679 0bbd
000003a0: 7142 5abd 3d96 bebd 0e2e 01be b1c2 03be
000003b0: 37d9 84bd fc38 84bc ce42 b93c 9395 f4bc
000003c0: 46e0 c3bd 464a 0fbe 3440 20be 62e1 b6bd
000003d0: c639 0e3a 6ff6 a9bd ce43 c1bd e2b4 ccbd
000003e0: 22fa 8cbd ee2d 37bc 70a8 023c 5a5c 14bd
000003f0: 46a5 9dbc dc4b 733d ee4a cabc c854 60bd
-0.053369552 -0.0031173786 -0.043678753 -0.121607 -0.044932466 0.1134019 0.13800943 0.022877531
0.06186833 0.012148821 -0.082103394 -0.05421881 0.05751318 0.065761864 -0.011285915 -0.0103496285
-0.047919065 -0.11231794 -0.088295534 -0.013343572 -0.001403276 0.021037454 0.005559587 -0.021575667
-0.045324188 -0.013836262 0.027515797 0.06474695 0.03398765 -0.0036136655 -0.051656444 -0.07370679
-0.01853856 0.021089127 0.022516022 0.074959114 0.044271994 -0.01811474 -0.050082568 -0.0025931676
0.032451767 0.011469535 -0.018779377 -0.013262588 -0.053495876 -0.07247915 0.004408737 0.011998536
-0.017138848 -0.090582974 -0.06681678 -0.07233373 -0.10777684 -0.12158622 -0.09258927 -0.09065379
0.026370283 0.06185969 0.02246596 -0.06836444 -0.12826341 -0.12518544 -0.12326768 0.09214406
0.13814707 0.0864212 -0.034522206 -0.1352072 -0.16685495 -0.18042073 0.13576438 0.17973156
0.1408298 0.028146617 -0.0935964 -0.160448 -0.21177304 0.13457741 0.17866148 0.1685015
0.08694724 -0.021942006 -0.100008294 -0.17653756 0.12060787 0.17483048 0.18174215 0.11474719
0.021790732 -0.044195857 -0.1196922 0.097412266 0.16573402 0.1789786 0.116566956 0.030648842
-0.017471619 -0.078160815 0.06543668 0.102759205 0.016625699 0.02934769 0.004685682 -0.04978097
0.073038116 0.05887462 -0.007408733 -0.026884092 0.048930857 -0.03704217 -0.110152066 -0.106069
-0.10616154 0.026587622 0.01229194 0.12749746 0.1442745 -0.08155612 -0.11455468 -0.11033984
-0.011078334 -0.070839785 0.053002477 0.04470454 0.025317917 -0.061901987 -0.04186141 -0.042336915
-0.06213922 0.025289644 0.106550336 0.1267235 0.084106326 -0.051707093 -0.039135717 -0.027758483
-0.09810855 0.04928379 0.025372768 0.14316094 -0.008163278 -0.06681426 0.006540925 -0.05570411
-0.0023031882 -0.0003800186 -0.00066871813 -0.036712192 -0.047809776 0.061592575 0.030380327 -0.066174984
-0.09149301 -0.046244048 -0.07301712 -0.100862324 0.09808265 0.121837445 -0.023001553 -0.06611344
-0.047641717 -0.040767424 -0.10223747 0.10388087 0.1626705 0.03900917 -0.054545797 -0.07433171
-0.0010041143 -0.09585145 0.0043878467 0.07764226 0.08483971 -0.03432002 -0.07264968 0.003084995
-0.11056046 -0.091548 -0.034676794 0.045112833 -0.01380709 -0.031804632 0.032631654 -0.10265969
-0.07447201 -0.046516765 -0.0003295681 -0.025797805 -0.0033565653 0.07330222 -0.04243606 -0.008552698
0.0031221793 -0.0067579392 -0.04807335 -0.0009700204 0.049177777 0.15115653 -0.052240226 -0.11356334
-0.05451704 0.007335437 0.061573584 0.16560166 0.1759866 -0.08290918 -0.145514 -0.071087696
-0.013700735 -0.03664174 0.15092671 0.022595432 -0.15826897 -0.12744734 -0.027556196 0.006083813
-0.099650905 0.03165991 -0.103187114 -0.16401371 -0.088542745 -0.0011781359 0.032446627 -0.012277674
-0.042192534 -0.06780448 -0.10124885 -0.101087056 -0.06725033 0.028767891 0.05470391 -0.03405156
-0.05328602 -0.093059994 -0.12615225 -0.12867238 -0.06486743 -0.016140454 0.022614863 -0.029856479
-0.09564261 -0.13993177 -0.15649492 -0.08929707 0.0005425479 -0.082989566 -0.09436761 -0.09995438
-0.068836465 -0.011180384 0.007974729 -0.036220886 -0.019243848 0.059398517 -0.024693932 -0.054768354

module.residual_layers.0.0.bn1.weight f4 [16]
00000000: 6949 fd3e e048 093f b90f 193f 9f3d ed3e
00000010: 712f 173f 8d4a 173f 002f 643f 9e4a 1e3f
00000020: cd01 3e3f 1fe9 133f 3973 4e3f b660 1f3f
00000030: 52e9 413f 2984 403f 790b 903e a194 213f
0.4947007 0.53626823 0.59789616 0.46336076 0.59056765 0.5909813 0.89134216 0.61832607
0.742215 0.5777759 0.80644566 0.62256944 0.75746644 0.7520166 0.28133753 0.63117415

module.residual_layers.0.0.bn1.bias f4 [16]
00000000: 6d17 2dbe 5fc1 98be 575b 65be 6035 41bd
00000010: f4df 74be 8454 8fbe bd54 ccbd 4df0 6fbe
00000020: 91d7 76be b1d9 7fbd 1ba7 8ebe fa60 7fbe
00000030: 486c bebe 62b8 c0bd 09ac cb3e b083 06be
-0.16903467 -0.2983503 -0.22398125 -0.047170043 -0.23913556 -0.27994168 -0.099771 -0.23431511
-0.2410567 -0.062463466 -0.27861866 -0.24939337 -0.37191987 -0.09410168 0.3977969 -0.13136172

module.residual_layers.0.0.bn1.running_mean f4 [16]
00000000: ab64 a4be 43b8 eabe edea e93e 0042 b6bf
00000010: 36a0 673f e8bf 9cbe 7a9f b2bd 8739 2dbf
00000020: 74fb aebe 8146 2fbf 4ccf 78bf 97dc 21bf
00000030: a51a a9be 9f8f 3dbe f269 c13e e3a1 2fbf
-0.32108054 -0.45843706 0.45687047 -1.4238892 0.9047884 -0.30615163 -0.08721824 -0.67665905
-0.34176219 -0.68466955 -0.9719131 -0.6322722 -0.3302814 -0.18511818 0.37776142 -0.68606395

module.residual_layers.0.0.bn1.running_var f4 [16]
00000000: 67f7 933e 495c 9c3e 6933 0a3f 5913 113f
00000010: d48c da3e 1a6c 123f 1878 4240 c046 2b3f
00000020: cc9f 8e3f 954d 273f b6dc 833f 79a4 2f3f
00000030: 581c 083f cf30 f63f 91d1 093f b20d 6e3f
0.2889969 0.30539158 0.53984696 0.5667015 0.42685568 0.571962 3.03858 0.6690483
1.1142516 0.65352756 1.0301731 0.6861034 0.5316825 1.9233645 0.538354 0.9298965

module.residual_layers.0.0.conv2.weight f4 [16, 16, 7, 7]
00000000: 7941 3dbd 8634 dfba c2ef a03c d5ac cbbb
00000010: 582e 8dbc 27b2 3abc 12a3 893d 43b7 8abd
00000020: 1e5d e9bc bcfc 27bd 7108 95bd a57a 3bbd
00000030: 6321 243d 4bff af3d a6d3 c6bd 11ed 8abd
00000040: 2713 d4bd e0f1 d6bd 29aa 16bd 4ac3 363d
00000050: 714e 9c3d 0e2f 75bc 3428 0a3d c800 3cbd
00000060: a923 c0bd a40b d1bd de12 b8bd 804b fd3c
00000070: f3b9 483c b991 0c3d c168 4f3d 95d5 abbc
00000080: deff 6bbd 3f12 b6bc d93d 853d 5759 e7ba
00000090: 47b5 e83c a096 953d 52b3 d63b 785e de3c
000000a0: caef 903d 6537 ce3d 0d98 9d3c 4060 c43b
000000b0: 7b1e 47bc 43db b7bc 7aff 9f3d 2572 083e
000000c0: 7f7c b63d fe3b 2dbd 08fe d4bb a93f a03c
000000d0: 7149 bcbb c1a1 f8bb b352 453d 4e2a a43d
000000e0: f764 76bd 1a4d c0ba 20d6 bf3c d002 2e3c
000000f0: 3f97 38bd 7da2 223a 71ce b53d 066c c83a
00000100: 6b65 903d 1472 303d 3dfa a8bc 4ca4 0fbd
00000110: 5111 bf3c b506 cf3d e5a2 fe3c f4a2 1f3e
00000120: 4abe 023e 2489 a43d 538c 453c 23fc 41bc
00000130: 222e 993d b646 a6bd 0492 f0bc 05ef 10bd
00000140: c458 8fbc ca88 0abd 22a9 b8bd ac09 5ebd
00000150: 2b22 2abd aaa6 f3bc 64c3 7fbd e218 0cbd
00000160: 38bd 9abc 4a20 4cbd ddab e1bd 78ce 36bd
00000170: 70b4 65bc 6223 afbc 85ce ce3c bbea 473d
00000180: df94 243d fd45 75bd c098 953d 5826 f73c
00000190: 7888 ee3c 5f10 04bc 4358 27bd 76d1 b43b
000001a0: 5a7a f939 7807 45bc e746 793d 2ee7 a93d
000001b0: a557 393d cdcd 4f3c 1f3c 593d 1432 023d
000001c0: 8e93 ecbc f6e7 28bd cada 96bc 55e5 043d
000001d0: 717e 1d3c ccf6 c0bc f65b c33c 0b5d 6bbd
000001e0: 1dbc e0bd 274c 80bd 9e06 c6bc 6a80 dfbc
000001f0: ebf2 d5bc 6ea5 27bc 650a c0bd 6cca 01be
00000200: 5706 00be cebf b0bd 7ba3 74bd 969b 92bd
00000210: 27af 00bd ec55 11be c141 d4bd 08f4 dabd
00000220: b108 18bd c21b df3c 220c fcbc 3b2c a1bd
00000230: af54 9cbd c223 3ebd 0f59 89bb 6821 793a
00000240: 7a72 2fbc d0f5 53bc 1559 0a3c d547 a8bc
00000250: bc73 5abb 54a9 a0bc 91e4 dbbb e65b 2abd
00000260: 369e 63bd 3a05 19bb e0c1 36bc 8d80 a33c
00000270: 7a72 6cbc 8db7 8dbb 24ce 4dbd 7cb6 97bd
00000280: 0913 ee3c 6c14 a8bd c0c2 fbbc 8e87 89bc
00000290: cc59 50bd 7677 b6bd 9bdf 4dbd c1d4 103b
000002a0: b111 183c caeb d1ba bce1 7a3c f299 663d
000002b0: 3a1d d4bb 3811 bb3c 532e d43d e48e 363d
000002c0: c62a 733d f73b b13c cb8f c03a 0efe ae3c
000002d0: 6a3d 9e3d 973d ef3d 0ce1 8a3c 48e2 e03b
000002e0: 4be5 89bc 984d f7bc 481d 1abd 9e43 183d
000002f0: 328a 573d fd8f 113e 1dc3 d33d 54c1 a7bc
00000300: a400 50bd 98af a9bd 7487 893c 608d b83d
00000310: 23d1 a2bd 6e72 d1bd 92c7 c3bc a105 673c
00000320: f1ff 093e c5ae 65bd cc88 f2bd 91e7 8ebc
00000330: 0886 82bd c756 85bd 1d6c 03bd 568f 6c3d
00000340: 4063 203b e272 81bd 5a46 adbd b9da 87bd
00000350: 0c06 20be 2499 3cbe cb4c 2fbd bb20 b0bd
00000360: 0acc 99bd 1f40 5e3d 0d2c daba 5869 dc3c
00000370: 46c8 b8bc 8fa2 bb3b 903f 17bd 6d56 c7bc
00000380: 3271 56bc e533 97bb 2d67 973b 6511 95bd
00000390: c6b2 623b c456 cabc 2431 d63b b105 863c
000003a0: d3cb 92bc 10ee 9c3c 4aa2 2dbd 9f56 df3c
000003b0: 3577 cfbc 3da8 6fbd c90d 1cbd 3c5b 1dbd
000003c0: 5dab 543d 4aa8 8f3d 540a ca3d 416f 8dbc
000003d0: 2339 a3bd f987 043e 948b f73c d779 b5bd
000003e0: ff87 15be b1be 20be ba43 10be 07ff e5bd
000003f0: 09b2 dd3d 3b9d 533d 02f8 94bd 40fd dfbd
-0.046205018 -0.0017029203 0.019645575 -0.0062156715 -0.017234012 -0.011395014 0.06720556 -0.06773236
-0.028486785 -0.04101251 -0.07277001 -0.04577126 0.040070903 0.08593615 -0.097083375 -0.06783498
-0.103552155 -0.10495353 -0.03678337 0.044619836 0.07632149 -0.014964832 0.033729747 -0.045899183
-0.09381802 -0.102072984 -0.08987974 0.03091979 0.012251365 0.03431866 0.05063701 -0.020975867
-0.05761706 -0.022225497 0.06505937 -0.0017650527 0.028406752 0.0730412 0.0065521384 0.027144656
0.07076986 0.100691594 0.019237543 0.005992919 -0.012153263 -0.02244342 0.078124 0.13324793
0.089104645 -0.04229354 -0.0065000094 0.019561606 -0.0057460596 -0.007587642 0.04817457 0.080158815
-0.06015488 -0.0014671416 0.023417532 0.010620788 -0.045066115 0.0006204022 0.08877266 0.0015290983
0.07050594 0.043077543 -0.020627135 -0.035068795 0.023323687 0.10108701 0.031083534 0.15589505
0.12767902 0.0803397 0.012057382 -0.011839899 0.07479502 -0.08118956 -0.0293665 -0.035384197
-0.017498381 -0.03382186 -0.090166345 -0.054208443 -0.04153649 -0.029742558 -0.0624422 -0.034203418
-0.018889055 -0.04983548 -0.110191084 -0.044630498 -0.01402007 -0.021379177 0.02524496 0.04880784
0.040181037 -0.0598812 0.073045254 0.03016965 0.029117808 -0.008060544 -0.040855657 0.0055181338
0.0004758414 -0.0120257065 0.060858633 0.08296047 0.0452496 0.012683344 0.05303585 0.03178604
-0.028878953 -0.04123684 -0.018414874 0.03244527 0.0096126655 -0.023555182 0.023847561 -0.05746178
-0.1097338 -0.06264525 -0.024173077 -0.027282912 -0.026116809 -0.010232313 -0.093769826 -0.12674874
-0.12502418 -0.08630334 -0.05972622 -0.07158582 -0.03141704 -0.14192933 -0.10364104 -0.106910765
-0.037117664 0.027234916 -0.030767504 -0.078697644 -0.076333396 -0.04642082 -0.004191525 0.0009503574
-0.010708446 -0.012937024 0.00844409 -0.020542065 -0.0033333143 -0.019611992 -0.006710597 -0.041591547
-0.055570804 -0.0023349063 -0.011154622 0.019958759 -0.01443159 -0.0043248595 -0.05024542 -0.07407853
0.029061811 -0.0820702 -0.030732512 -0.01678827 -0.050866887 -0.08909504 -0.050262075 0.0022099467
0.009281562 -0.0016015705 0.015312608 0.056299157 -0.0064732106 0.022835359 0.10360398 0.044569865
0.059366964 0.021635039 0.0014691291 0.021361377 0.077265576 0.11681669 0.016953014 0.0068629123
-0.016832968 -0.030188367 -0.03762558 0.03717386 0.052622028 0.14215083 0.10339949 -0.020477928
-0.05078186 -0.08285445 0.016788222 0.0901134 -0.07950046 -0.10226904 -0.023898873 0.014100463
0.1347654 -0.056074876 -0.11842498 -0.017444404 -0.06373221 -0.06510692 -0.032085527 0.057753883
0.002447322 -0.0632074 -0.08460684 -0.06633515 -0.15627307 -0.18417794 -0.042797845 -0.08599993
-0.075096205 0.05426037 -0.0016645208 0.0269057 -0.022556435 0.0057261656 -0.036925852 -0.024333203
-0.013088511 -0.0046143406 0.004620454 -0.07278708 0.003459142 -0.024699576 0.0065366197 0.016360136
-0.017919457 0.019156486 -0.0423911 0.027262984 -0.025325397 -0.058510054 -0.038099084 -0.038417086
0.051921237 0.070145205 0.09865251 -0.017264964 -0.07969882 0.12942494 0.030217923 -0.0886113
-0.1460266 -0.15697743 -0.14088336 -0.11230283 0.10824973 0.05166362 -0.07273866 -0.109369755

module.residual_layers.0.0.bn2.weight f4 [16]
00000000: dd86 2a3f d633 053f b790 833f 5790 6e3f
00000010: aef1 453f a926 473f b5e9 303f 1ea8 253f
00000020: 1285 573f d70e 033f e3dc 263f bfae 693f
00000030: 5ed2 f63e ec6f 653f 8f82 3b3f 3de3 323f
0.66612035 0.5203222 1.0278538 0.93188995 0.773219 0.77793366 0.6910661 0.6470965
0.84187424 0.5119452 0.65180796 0.91282266 0.48207372 0.89623904 0.7324609 0.6987799

module.residual_layers.0.0.bn2.bias f4 [16]
00000000: 3523 91be 94ef 023c 6165 66bf 20cc 37be
00000010: 3746 b2be 0f57 ffbd 0b2a 27be 56e6 00be
00000020: a7c8 89be 25b0 00be 67dc 2abf 79d6 97be
00000030: 8ca0 cb3d 03e6 adbd 72a6 89be 8953 03be
-0.28347173 0.00799169 -0.8999844 -0.17948961 -0.34819195 -0.12467777 -0.16324632 -0.12587866
-0.26910898 -0.12567194 -0.6674256 -0.29655817 0.09942731 -0.08491137 -0.268848 -0.12824835

module.residual_layers.0.0.bn2.running_mean f4 [16]
00000000: 60fb a2be b207 cfbe ae7a 9abf 552f a0bf
00000010: d3ff 45bf 59d5 78bf 3203 4abf ce29 85be
00000020: 85d9 36bf 9770 5abe b981 24bf 7846 95bf
00000030: 8000 04bf 731a acbf ee09 27bf faaf 4bbf
-0.3183241 -0.4043556 -1.2068689 -1.2514445 -0.7734348 -0.9720054 -0.78911126 -0.26008457
-0.7142566 -0.21332012 -0.6426044 -1.166213 -0.5156326 -1.3445572 -0.65249527 -0.79565394

module.residual_layers.0.0.bn2.running_var f4 [16]
00000000: d819 4b3f 4039 503f 0407 943f c144 b43f
00000010: adb1 8a3f 260c 1e3f 3f35 7f3f b1d6 623f
00000020: 4dd8 2a3f 6326 093f acfb d53e 194c d33f
00000030: 64b9 293f 169f a73f bd92 763f ce94 4d3f
0.7933631 0.81337357 1.1564641 1.4083482 1.0835472 0.6173729 0.9969062 0.88608843
0.667363 0.535742 0.41793573 1.6507598 0.6629851 1.3095424 0.96317655 0.8030518

module.residual_layers.0.1.conv1.weight f4 [16, 16, 7, 7]
00000000: 45f8 ab3d 56b8 ae3c 6064 483c 686c de3d
00000010: a1dd 6c3d 527e 6abb 27f8 393d 6c08 763c
00000020: 009a fe3c 885f 493c 3bce 393d 131c 0e3d
00000030: 6337 f93c 9bc7 573d 9536 0cbd 33bc c23a
00000040: 8e18 b7bd 4be5 1abd 7cf9 1dbd 2a41 893c
00000050: c978 5e3d 7310 f5bd bcd3 31be d3b6 39be
00000060: d27b 94bd 2ebb a53b 4b43 b2bc ef2e 7abc
00000070: 7785 3cbd e9e7 5fbd 993f e1ba d233 f23c
00000080: bfcf 423d 688e fe3c 5f3d 923b f1c4 eb3c
00000090: 1ef6 243c b98e d53c 4437 8f3b 921d a5bc
000000a0: acab 23bd f8c3 e7bc 49cd ca3d 9713 cc3c
000000b0: 5bdb ed3c ed47 443d eb75 733c 76fb bc3c
000000c0: 63a7 70bb ab66 023e 6a66 6d3d 16b6 bcbc
000000d0: 1dcc 0abe 4fd1 cabd 798d 27bd 5a08 3c3d
000000e0: 35d2 b13d 376b b83c 1cd3 e6bd 3cf3 eabd
000000f0: fea3 62bd 9c81 133d 9375 113d 907f 463d
00000100: df1b 21bd 30c5 b8bd 3abb 48bd d38f 383d
00000110: 2e02 0a3d efd7 32bd 566c 513d 0cce 97bc
00000120: a080 05bc a177 933d aca5 bc3d 1650 b73c
00000130: c7af 37bd 7eaf 303d 6f27 4a3d 2432 613d
00000140: 0029 4b3d daaf 6f3c 1d2c c4bb eaa3 a4bd
00000150: f5f1 12bb 07d6 a93b 4b6a 83b9 e358 67bc
00000160: 878c 813c 69ca ef3c 8b50 18bd 9fb2 ff3b
00000170: 3dc9 e9bc b2d3 7ebd 0087 c3bc 7a9e 50bc
00000180: 2408 4ebd 8b83 5dbd ee5d ec3c 5ade 973d
00000190: 754b a8bb f2a3 d8bb d1d1 e93d 402c 063e
000001a0: 8e61 1d3e fc2d 293d a34c 9d3d ca98 c83b
000001b0: f139 0c3d 6345 f53c d577 ecbc e32a ad3d
000001c0: 0293 c8bc bb4e 803d 87ef c43d 6158 54bd
000001d0: e611 1dbe 3ecc 05be 7eae 4fbd 5fa6 59bd
000001e0: c656 95bc d085 e6bd a048 50be 7274 21be
000001f0: 4f00 29be 203b 14bd ae31 b2bd e6f0 293b
00000200: 7114 debc 1ed8 853d 70f5 4d3c 5807 18bd
00000210: 54dd 7a3c 1d6f 36bd 032e ea3d 2241 c63d
00000220: abd2 84bb 8db2 02be 1fdd 42bd d438 bcbd
00000230: bce3 a2bd 9041 c1bc 2599 4fbd 5879 cebd
00000240: fa0f e6bd e459 8cbc e4fa 05be f767 3abd
00000250: 049a 64bd 92a7 11bd ac24 a0bd c1f3 c4bd
00000260: 1fa4 8abd d519 13be b4d6 8fbc 310d c8bd
00000270: 6f72 92bd 515c 303b 91de 1cbc 0ee9 ebbc
00000280: 4e7d ecbc 8af8 8e3a 3521 6bbd ac11 eabd
00000290: fbe6 48bc a65a e33c dd65 a63c 311f 183d
000002a0: d182 343b 7e97 0c3c d56e fcbd 186b a939
000002b0: d999 653d 1200 eb3c cbf7 fc3c 5824 ccbc
000002c0: d37a 7c3d 8f08 73b8 6023 993c eea0 4e3d
000002d0: f837 0a3d 306d 11bc 98af 96bd b821 193c
000002e0: e629 583d 14f1 0539 f4ca 3fbd 0769 ac3b
000002f0: 3cb9 cfbc 2295 f8bd e88a abbc 4638 ba3d
00000300: e44e 983d efcf 26bd 3f20 99bd c6eb 62bd
00000310: 6ec2 8cbd 250f 92bd 664e 8dbd 951f 0dbd
00000320: 187f 0dbd f986 93bc e877 b83d 22b8 1cbb
00000330: e7dc 04bd 4d20 99bd 3cb4 94bd 6d33 31bd
00000340: f83a 3ebc 622b 543d b253 0f3d dc1f dc3c
00000350: b0c2 13bd 2e41 9bbd e62a e9bd 06ac f7bc
00000360: a00d b93d 64c0 d4bc 9171 5e3d dabe 3b3d
00000370: 2cb9 9d3c 9926 71bc 6633 10bd 93d3 a43c
00000380: ecc7 313c 7ede 8c3d 190c 9d3d 020b 083d
00000390: 379e a23c 1329 fe3c d7b6 cf3d 38fb 75bc
000003a0: 860c 913d cfb3 ef3d b4e6 e53d d3c5 123d
000003b0: 75f6 4dbc a6be 0d3e 7254 433c adf6 513d
000003c0: de26 013e d5d2 1a3e c0e3 f93d ce1a 843d
000003d0: c1d0 ba3d d331 45bd f825 c4bd de84 90bd
000003e0: 55cc 99bd 94fa 3ebd 904c cabc 529c 85bd
000003f0: bbc2 823b 8975 51bd a1cf 69bd a2bb 70bd
0.08396963 0.021328133 0.0122309625 0.108605206 0.05782855 -0.003578086 0.045402672 0.015016656
0.031079292 0.012290843 0.045362692 0.034694742 0.030421918 0.052680593 -0.03423174 0.0014857113
-0.0894023 -0.037816327 -0.038568005 0.016754705 0.05431441 -0.11966028 -0.17365927 -0.18136148
-0.07250179 0.005057714 -0.021760603 -0.015269979 -0.04602572 -0.054664526 -0.0017185091 0.029565725
0.047561403 0.031073764 0.0044628824 0.028780432 0.010068445 0.026069032 0.004370602 -0.020155702
-0.03995864 -0.028291687 0.09902436 0.024911685 0.02903526 0.047920156 0.014859657 0.023069125
-0.0036720864 0.12734477 0.057958998 -0.023036044 -0.13554426 -0.09903204 -0.040906403 0.045906402
0.08682672 0.022512062 -0.11270735 -0.114721745 -0.055332176 0.036012277 0.03551252 0.048461497
-0.03933322 -0.090219855 -0.04900668 0.045059036 0.033693485 -0.04366296 0.051128708 -0.018530868
-0.008148342 0.07200552 0.09211287 0.022377055 -0.04484537 0.043136112 0.049354013 0.05497946
0.049599648 0.014629329 -0.005986704 -0.080390766 -0.002242205 0.0051829848 -0.00025065462 -0.014120313
0.015814079 0.029271321 -0.037186187 0.0078032757 -0.02853834 -0.062213607 -0.023868084 -0.012733096
-0.050300732 -0.054080527 0.028853383 0.07415457 -0.0051359483 -0.0066113407 0.114169724 0.13102818
0.15369245 0.04130362 0.07680633 0.0061217295 0.034234945 0.029940313 -0.028865734 0.084554456
-0.024484161 0.06265017 0.09615999 -0.051842097 -0.15338859 -0.13066193 -0.050703518 -0.05313718
-0.018229853 -0.112559915 -0.20340204 -0.15767077 -0.16504024 -0.0361892 -0.08700882 0.002593094
-0.027109357 0.06535362 0.012570724 -0.03711638 0.015311558 -0.04453956 0.11434557 0.09680392
-0.004053434 -0.12763424 -0.04757416 -0.091905266 -0.07953593 -0.023590833 -0.05068316 -0.10081738
-0.11233516 -0.017132707 -0.13083988 -0.045509305 -0.055810943 -0.035560198 -0.078194946 -0.09616805
-0.06769585 -0.14365323 -0.017558433 -0.09768141 -0.07150733 0.0026910494 -0.009574548 -0.028797653
-0.028868344 0.0010907811 -0.057404716 -0.11429152 -0.012262101 0.027753185 0.020312244 0.03713912
0.0027543793 0.00858104 -0.12325827 0.00032313983 0.056054924 0.028686557 0.030879876 -0.024919674
0.06164057 -5.7943686e-05 0.018693626 0.050446443 0.033744782 -0.00887613 -0.073577106 0.009346418
0.052774332 0.00012773677 -0.04682441 0.0052615437 -0.025356881 -0.1213782 -0.02094026 0.090927646
0.07436922 -0.040725645 -0.074768536 -0.055400632 -0.06873022 -0.07131795 -0.06899719 -0.034453947
-0.034545034 -0.018008696 0.09007245 -0.0023913463 -0.03243723 -0.07476864 -0.072609395 -0.043261934
-0.011610739 0.051799186 0.034991927 0.02687066 -0.03607434 -0.075807914 -0.11385135 -0.030233394
0.09035802 -0.025970645 0.054307524 0.045836307 0.019253336 -0.014718675 -0.035205267 0.020120418
0.010850888 0.068783745 0.07668323 0.033213623 0.019850833 0.031025445 0.10142296 -0.0150135085
0.07082467 0.11704218 0.11225644 0.03583319 -0.012570967 0.13842258 0.011921989 0.05126064
0.12612483 0.15119489 0.12201643 0.06450425 0.09121848 -0.04814322 -0.095775545 -0.070565924
-0.07509676 -0.04662569 -0.024694711 -0.06523956 0.003990499 -0.05113748 -0.057082776 -0.05877269

module.residual_layers.0.1.bn1.weight f4 [16]
00000000: 746c 0f3f 338e f93e 76d3 493f 8e57 103f
00000010: 8805 e13e 3607 273f bef3 283f 9460 063f
00000020: 663c 2f3f 3222 053f 6e85 193f 05d1 3e3f
00000030: 0e89 0c3f c07a 213f 39e2 063f aeef 1d3f
0.5602486 0.48741302 0.7883829 0.563836 0.43949533 0.6524538 0.6599692 0.52491117
0.68451536 0.520053 0.5996922 0.7453769 0.5489663 0.63077927 0.5268894 0.6169385

module.residual_layers.0.1.bn1.bias f4 [16]
00000000: 9369 a6be c7b5 c8be 919f 54bf 9628 03be
00000010: 9598 85bc d4b0 02bf d8c3 c1be 7ac5 afbe
00000020: 70c6 09bf eb6a 8cbe d7ee acbd fe69 34bf
00000030: 762e 4ebe 2f11 a2be 3317 90bd a382 fabe
-0.32502422 -0.39201185 -0.8305598 -0.12808451 -0.016308108 -0.5105107 -0.3784473 -0.3433035
-0.53818417 -0.27425322 -0.084439926 -0.7047423 -0.20134911 -0.31653735 -0.07035675 -0.48927793

module.residual_layers.0.1.bn1.running_mean f4 [16]
00000000: d385 3abf 40be 0c3e 5bc0 9bbf 33db 88be
00000010: b7fe 2e3d 188a 0cbf b6da 9dbf d7d8 bebf
00000020: 6bc0 81bf 858e c8be 62cb f0bf b47b 91bf
00000030: 206f b6bd eeed 31bf 287d 27bf bc69 72bf
-0.7286045 0.1374445 -1.2168077 -0.26729736 0.042723384 -0.54898214 -1.233237 -1.4909924
-1.0136846 -0.39171234 -1.8812068 -1.1365876 -0.08907914 -0.69503677 -0.6542535 -0.9469259

module.residual_layers.0.1.bn1.running_var f4 [16]
00000000: e83c 853f 2258 943f 20e8 6c3f 097e a93f
00000010: 76f2 c03f 825e 7f3f 651d ca3f 7298 903f
00000020: 03ba 7b3f 00f0 a83f fb2a c33f 6f7e 8d3f
00000030: d5ef 833f 5a23 9c3f 8c43 993f 243f b03f
1.0409212 1.1589396 0.92541695 1.3241588 1.5073993 0.9975358 1.579022 1.1296523
0.98330706 1.3198242 1.5247492 1.105421 1.0307566 1.2198288 1.1973739 1.3769269

module.residual_layers.0.1.conv2.weight f4 [16, 16, 7, 7]
00000000: 652b 423d c661 33bc f6f9 d4bc 67a3 7abd
00000010: ef0c a8bd 768f 6abd 094d 14bc 2b2b db3d
00000020: 24bc 933d 3a03 21bd 2fc4 bbbd 08ee b3bd
00000030: dc49 30bd a1ff e23b 409d 5ebc 3d49 b63c
00000040: 6848 e9bc 044e b0bd 4521 ffbd 9c89 81bd
00000050: 1cc9 5a3d cef6 a5bd ea47 0cbc 5ae4 053b
00000060: 3cbb 40bd 53ef 5bbd c774 673c c7fa b53d
00000070: 5060 b9bd 175b 2cbd 7dae 4ebd 3a70 28bd
00000080: 88da 9a3d 8d76 f13d cbe9 d63d 212b 5fbd
00000090: 8ce2 02bd cd93 cebc bb67 ca3c 030c db3d
000000a0: 8abd be3d c928 953d 6a1f ee3b c7a0 953c
000000b0: 3ec7 bb3c ba4c bbbb 8ef2 ee3b a861 053c
000000c0: 4f4a 323d 594a 0d3e edbe c33d db67 e33c
000000d0: 49a7 5b3d 33f0 ac3d 6299 923d 776e f03d
000000e0: b115 583d 6b04 c43c 6510 34bc f03d 2d3d
000000f0: 35de 9a3d 9ae6 883d 4228 103d 7856 ab3c
00000100: 62c1 48bd 25bc d0bd 32e8 9fbd 4621 4cbd
00000110: a3b5 ec3b 9aef 6d3d 5ecc e33c d4bd bbbd
00000120: 05a0 14be e00b 1dbe 3df6 1bbe b62c acbd
00000130: 0ab7 373d e89e 953d 34e0 17bd a0e9 cfbd
00000140: 6be6 22be 4dc5 09be 2d6a 81bd 8756 183b
00000150: 6463 df3d 735e a23b a818 8abd d9f3 bbbd
00000160: c14e 5abd 858e 0fbc 1d94 58bc 3c49 223e
00000170: 0f4c 003d 7118 22bd 09a1 c1bc 54ea 303c
00000180: e449 9b3c 8607 7abc fe84 afbc 303a 0ebd
00000190: 004e 8d3c d10c 373d 21c3 673c cd2d bb3d
000001a0: 982d 433d 8beb efbb 6fe8 203c df96 873d
000001b0: 5c09 e83c d2a0 333d 3b2c a63d 7856 2e3c
000001c0: 0f93 3bbc 5a52 8cbd 42ae d3bb 4450 ddbc
000001d0: 6641 e13c d3a7 6f3d dd6a 46bd 5634 d53b
000001e0: 11e3 fdbc 3f28 05bd 1c20 afbd 49b7 a0bd
000001f0: d09e b6bc d51c b0bd c1b3 573c ca74 4dbd
00000200: 65e7 07be 4cf3 1cbe 1071 0cbe 62ac c2bd
00000210: 8a61 1bbe 6a7f f43c 2ecc 53bd bf3a e5bd
00000220: cb40 b0bd e77d 12bd 6184 83bb 8926 d3bd
00000230: fb0c 743d bc17 6e3c 4711 ac3b 988d 9ebc
00000240: 44f5 07bd 48c2 e0bc e088 d6bd 0725 8e3d
00000250: 765c a03c e391 51bd 6646 a1bd 0ecf 4ebc
00000260: 85bd e03d d74b e93d 70c9 0f3d f168 b13c
00000270: d91a 763b 8331 1dbd 9cca 08bc 3235 463d
00000280: eec4 9c3d b9f7 d3bc 3c91 cbbc 1600 0e3c
00000290: 0151 a43b 8cbe 633c 21f1 51bb 7e54 8c3c
000002a0: 3dc7 5bbd c3b9 16bd b914 13bd 9395 60bd
000002b0: 8dcf 45bd e9e7 16bd 3357 6dbc 3ac5 663d
000002c0: f333 243d 01b8 e3bc f5f4 9bbd 027e 84bd
000002d0: cd3f eebc 06dd 653d 282b f83d 32d4 ba3d
000002e0: be65 01bc fee8 5bbd 3295 81bd ea59 1ebd
000002f0: d021 323d f4f1 b23d b1b4 423d 084a d3bc
00000300: 872d 86bd 3040 a2bd 8340 9fbd ee2a 14bd
00000310: 2a52 56bd 1472 8f3c ef54 b03a 8999 203c
00000320: 057b 893c b4cc 9cbc 04ae 41bd 8ad7 49bd
00000330: dfb0 41bc c22e 873c c0ed 873d 0034 263d
00000340: 3011 62bc de7a 66bd 4f05 95bd 533e a7bc
00000350: 8005 ad3c b525 943d 5ae3 3c3d e312 353b
00000360: 13e6 debc 017c dfbc 7be6 67bc deb1 56bc
00000370: 594c ec3c 7ca1 2f3d 6043 433d 89e2 d2bb
00000380: 08d4 a1bc d033 5abd 46c4 adbd 392e d8bd
00000390: 8406 c0bd 90a3 8abd f28a ebbd 27cf d73c
000003a0: ee0a a33c f7ab 26bd 1c15 8dbd c539 8dbd
000003b0: 3fc6 89bd f725 ddbd 30c0 db3d 9a5d 9a3d
000003c0: 2fd3 27bd 9c3c 4cbd 2afa 1d3d c91d 3d3d
000003d0: 74e4 00bb 76c1 bebc ac6b 843b 84fe a53c
000003e0: 6a43 d93c 7bd9 543d 262c a33d 70c4 13bc
000003f0: 587b f13a 3c21 133b 0fcb bfbb 9d9d 22bd
0.047404665 -0.010948604 -0.025998097 -0.06119099 -0.08205592 -0.05726572 -0.00905157 0.10701593
0.07213619 -0.039309718 -0.091682784 -0.08785635 -0.043039188 0.006927446 -0.013587296 0.02225172
-0.028476909 -0.0860863 -0.124575175 -0.06325075 0.05341445 -0.08103715 -0.0085620675 0.0020430298
-0.04705356 -0.053695034 0.014126963 0.088857226 -0.09051573 -0.042079058 -0.050459374 -0.041122653
0.07561213 0.1179019 0.10493811 -0.05448449 -0.031954333 -0.025216961 0.024707666 0.106956504
0.093134955 0.0728317 0.0072669284 0.018265141 0.022922155 -0.0057159336 0.0072920984 0.008140959
0.043527897 0.13797893 0.095579006 0.027759483 0.053626332 0.08444252 0.07158162 0.117398195
0.05275506 0.023927888 -0.010990237 0.042295396 0.07561914 0.06684609 0.035194643 0.020915255
-0.04901255 -0.10192136 -0.078079596 -0.04983642 0.007223801 0.05808983 0.02780741 -0.09167066
-0.14514168 -0.15336561 -0.15230651 -0.084069654 0.044852294 0.073056996 -0.03707905 -0.10151982
-0.1590821 -0.1345417 -0.063190795 0.0023244934 0.10907629 0.004955107 -0.06742984 -0.091773696
-0.05329776 -0.008762007 -0.013218907 0.15848249 0.031322535 -0.03957409 -0.023636358 0.010798056
0.018956132 -0.015260583 -0.02142572 -0.03472346 0.017249107 0.044689957 0.014145643 0.09139595
0.047650903 -0.00732178 0.0098210415 0.06620573 0.028324775 0.043854542 0.08113905 0.010640733
-0.011448636 -0.06851645 -0.006459982 -0.027015813 0.027497005 0.05850966 -0.048441757 0.006506483
-0.030992063 -0.032509085 -0.08551046 -0.07847459 -0.022292525 -0.08599249 0.013165415 -0.050160207
-0.13271864 -0.15327185 -0.13715005 -0.09505536 -0.15173927 0.029845912 -0.051708393 -0.111928456
-0.08606108 -0.0357646 -0.0040135835 -0.103100844 0.05958269 0.014532026 0.005251083 -0.019354627
-0.033192888 -0.02743639 -0.104753256 0.06940656 0.019575339 -0.05116452 -0.078747556 -0.012622608
0.10973648 0.113914184 0.035104215 0.021656485 0.0037552624 -0.038377296 -0.008349087 0.048390575
0.07654749 -0.02587496 -0.024849527 0.008667013 0.005014539 0.01390041 -0.0032034593 0.017130133
-0.053656805 -0.03679825 -0.035908435 -0.054830145 -0.04829364 -0.03684226 -0.014486122 0.056340434
0.040088605 -0.0277977 -0.07615081 -0.064693466 -0.029083157 0.056118988 0.121176064 0.09122504
-0.007897792 -0.053688996 -0.06327285 -0.038659967 0.043489277 0.08737555 0.047535602 -0.025792137
-0.065516524 -0.07922399 -0.077759765 -0.036173753 -0.05232445 0.017510451 0.0013453047 0.009802231
0.016782293 -0.019140579 -0.047285095 -0.04927782 -0.0118219545 0.016501788 0.06637144 0.040576935
-0.013798043 -0.05626952 -0.07276403 -0.02041546 0.021120787 0.072337545 0.046115257 0.0027629666
-0.027209317 -0.02728081 -0.014154072 -0.01310393 0.028845 0.042878613 0.047671676 -0.0064356965
-0.019754425 -0.05327207 -0.08484702 -0.10555691 -0.09376243 -0.06769478 -0.11501111 0.026343895
0.019902673 -0.040691342 -0.06888792 -0.06895784 -0.067272656 -0.10798257 0.10730016 0.07537384
-0.040972885 -0.04986249 0.038568653 0.046170983 -0.0019667419 -0.023285609 0.004041156 0.020262964
0.026521403 0.051965218 0.07967405 -0.009019002 0.00184236 0.002245023 -0.005853064 -0.039701093

module.residual_layers.0.1.bn2.weight f4 [16]
00000000: 2ee9 253f 907b dd3e 9df9 2b3f 307b 193f
00000010: ea95 3f3f 91b7 133f 3d23 053f d1c4 0c3f
00000020: 1a4e 3c3f b06f 083f 7425 733f ba89 013f
00000030: c522 023f 21cb 203f f4c5 583f f335 413f
0.6480893 0.43258333 0.67177755 0.59953594 0.74838126 0.57701975 0.52006894 0.5498782
0.73556674 0.5329542 0.94979024 0.5060078 0.50834304 0.6280995 0.8467705 0.75472945

module.residual_layers.0.1.bn2.bias f4 [16]
00000000: 4c08 f4be 74e0 5f3d a151 043e dc72 fabd
00000010: c8dc 8dbe eabc 973d 50f6 a0bc a5bb 99be
00000020: 8a14 10bf 99bf f73d 8461 18bf c087 62be
00000030: cc15 8bbe 6e0a d7bd 1d58 66be 9706 e5be
-0.4766258 0.054657415 0.12921764 -0.12228939 -0.27707505 0.074090794 -0.019648701 -0.30025974
-0.5628134 0.12097091 -0.595238 -0.22122097 -0.27165067 -0.10500036 -0.2249455 -0.4473159

module.residual_layers.0.1.bn2.running_mean f4 [16]
00000000: c0d8 63bf 90bd f3be 905a 09bf 727b b2be
00000010: eb65 41be a3eb d13d 185a 41bf efef 56bf
00000020: 4cb3 f0be 0b66 02bf c69f 7d3c 28e2 953e
00000030: 0f06 b8bd a75b 293e 293a 3bbf 1143 a0be
-0.8900261 -0.47605562 -0.5365381 -0.34859806 -0.18886535 0.10250022 -0.755281 -0.8395986
-0.47011793 -0.50936955 0.0154799875 0.29274106 -0.089855306 0.16538869 -0.7313562 -0.31301168

module.residual_layers.0.1.bn2.running_var f4 [16]
00000000: fa99 c93e 8252 b33e b566 023f eeee b63e
00000010: 7978 f43e f70e bc3e e118 ec3e 7f51 d63e
00000020: 6307 b73e 5f92 f83e d2de f33e b52f a63e
00000030: 671a c13e 60b5 b43e 4ce4 453f 5789 fa3e
0.39375287 0.35023886 0.5093797 0.35729164 0.47748163 0.36730167 0.4611273 0.41859052
0.35747823 0.48549172 0.47630936 0.32458273 0.37715456 0.35294628 0.7730148 0.48932907

module.residual_layers.1.0.conv1.weight f4 [32, 16, 7, 7]
00000000: fa27 363d 387d fa3d bb9c 9f3d 0b0d 15bb
00000010: 3e91 b7bd 4905 fdbd f872 08be 9735 fd3d
00000020: 78db 113e 8f9f a03d 6ea4 453d e9a8 57bd
00000030: 8cb0 9ebd fa00 64bd 3486 1e3e a83a e93d
00000040: 5834 a53d f65a 253d 0402 283c 0974 ceba
00000050: bb6e 443d 0691 0c3e 73ea 083e c7c0 aa3d
00000060: 5881 0f3d 9871 a2bc 731c ccbc 5b20 8a3d
00000070: cfb1 073e 3c77 fd3d 20b8 9b3d e949 8c3d
00000080: dc62 ee3c 89fb 903c 1b79 bf3d f08e 073e
00000090: d968 f13d c7d1 1c3d 27f0 ae3d 065c 973d
000000a0: 2296 6b3d 630b b93d c41f 123e 332d db3d
000000b0: 5774 aa3c 3b53 403d dd3a 2f3d f503 9a3d
000000c0: 9d7d 993d c69a 373e 9a21 d63d 9866 ca3c
000000d0: 3668 7e3b 22e9 5fbd 0d5d dabd e647 37be
000000e0: 91de 023e b76c d13d 06ef f23c 9e27 b43c
000000f0: fa87 92bc b6ea 5cbd 0ab1 d4bd ce55 023e
00000100: 12c8 da3d d181 503c 58bf c73c cf9b 3a3c
00000110: f2cc 0cbc 0a49 0cbd 7a2d d93d f136 db3d
00000120: 5156 a03c 53d1 203d 1fd5 9d3c 149b 8abc
00000130: 5b24 e2bb 805a bc3d ed19 b63d 84bb 163c
00000140: 9ab1 023b 57ba c6bb 16f5 cebc b512 df3c
00000150: d7b5 a43d 353a a83d 397c 0aba f5a6 b7bc
00000160: 9fb2 91bd e75d 3bbd 4f10 793a 88f2 883d
00000170: dbbb a43d 36d2 ea3c 9c7e 37bc 7f71 6cbd
00000180: 300f 33bd af4d aabc 5adc d6bd 4361 1ebd
00000190: 626b 97bc 2293 ccbb 89b8 88bd a174 a4bd
000001a0: 0b4c 09be 6704 69bd bdbc 053c 539d 1c3c
000001b0: fe4f bebb baf3 28ba e9a3 babc 7cd8 86bd
000001c0: 690f 9cbb 9cd6 b23a d87e 9abc dab3 63bc
000001d0: fd71 39bd 29b8 b03a f5fa 00bd 3f80 68bd
000001e0: 4741 82bd cfa3 efbb f0dc 033b 7b87 f9bc
000001f0: 47f3 0e3d 665b 273c 5f99 80bd 1d71 fbbc
00000200: 3585 92bc f741 33bd 18c3 a33a cd5a be3d
00000210: cb33 bd3d 1bcf 59bd 1658 77bc 223b 13bd
00000220: 6c9a fc3a 3456 263d ccf8 0a3e d767 d23d
00000230: 23cd 2a3d 3346 3c3d f38d 023d 89e8 203d
00000240: c209 233d 8a61 213e 7425 2b3e 9df8 8abd
00000250: 830f 42bd 3ad6 87bd 3dd0 ebbc df4f 33bd
00000260: d8c8 923d 0c96 873d ebe6 4dbd 9d71 aabd
00000270: 4a60 68bd d419 25bd f284 21bc c531 803d
00000280: 0e6e ed3d df75 b03b e672 9bbc e442 4dba
00000290: d912 763c 925a 343c 4bfa a23d 55a5 8d3d
000002a0: ee7b 14bc bf53 2dbc f55e 793a 8137 09bb
000002b0: 155a d73c adc5 5c3d ea25 913d 7841 c63b
000002c0: dce3 babc cc72 c13c 0b79 cfbb c269 b83a
000002d0: a051 1e3c 2425 883c c7dc 6bbd ed18 81bd
000002e0: 4eca acbc 78c0 4b3c 1d53 7b3c 4352 b83c
000002f0: 4a23 da3c 0e55 0fbd c38d 4cbd cd54 dc3c
00000300: 319f 013d cff9 c43c 5cc2 593c f1a5 083d
00000310: 1dce 963d 1bc2 7b3d 5449 96bb 6b24 023a
00000320: 050b babc 4af6 943d 02ad 123e 6624 363d
00000330: f6ff 6b3c 1048 cfbc 6518 9bbc 69e9 e7bc
00000340: a4aa 173d cc84 8d3d ee9b c73c 9539 dc3c
00000350: 47e9 87bd 1a71 6dbd ba9e b1bd f9dc 1bbd
00000360: 480a 01bd 9681 0a3d 9d4d a73c 233d 46bd
00000370: b299 a3bd 5b52 e4bd 9387 debd b934 b4bd
00000380: ffc9 793d a38e 083c 6acb 16bd a513 1fbd
00000390: f2ba d1bd 8f11 d6bd 58d0 fabd f516 073e
000003a0: aa73 c33d 4b0e 283d a2ed 8f3d 37f1 803d
000003b0: 5872 14bc aebd 82bd 4a9c 3d3e a888 9d3d
000003c0: cb42 2c3d 3890 cd3d 91a9 e33d debd 8a3d
000003d0: 0c32 c7bc 23d7 e43d d8d2 4a3d 2f02 e8bc
000003e0: a4e7 35bd f94d 19bd e53d 1f3d efa7 b13a
000003f0: dd64 143c b584 d4bc 3676 52bd 001f 80bd
0.04447172 0.12230915 0.07793566 -0.002274337 -0.089632496 -0.12354524 -0.13325107 0.12363737
0.14243877 0.078429334 0.048252515 -0.05265132 -0.077485174 -0.055664994 0.15480882 0.11388141
0.080666244 0.04036995 0.010254387 -0.0015751134 0.047957163 0.13727197 0.13370685 0.083375506
0.03503546 -0.019829556 -0.02491591 0.067444526 0.13251422 0.12376258 0.076034784 0.06850035
0.029099874 0.017698066 0.09349271 0.1323812 0.11787576 0.038285997 0.08541899 0.07390599
0.057516225 0.09035375 0.1426993 0.107019804 0.020807428 0.046954375 0.042780746 0.07520286
0.07494662 0.17930135 0.10455628 0.024707124 0.0038819439 -0.054665692 -0.10662279 -0.17898521
0.12780215 0.10225814 0.02965499 0.021991547 -0.017887104 -0.053934775 -0.1038533 0.12728044
0.10682692 0.012726263 0.024383232 0.011389687 -0.008593785 -0.034249343 0.10604377 0.107038386
0.019572409 0.039262127 0.019266663 -0.01691965 -0.0069013066 0.09196949 0.08891664 0.009199981
0.0019942285 -0.006064694 -0.02526335 0.0272306 0.08042496 0.08214227 -0.0005282793 -0.022418479
-0.071141474 -0.04574385 0.00095010264 0.06686884 0.08043643 0.02866469 -0.01119962 -0.057725426
-0.043715656 -0.020788996 -0.104912475 -0.038666975 -0.018483821 -0.0062431255 -0.06675822 -0.08030058
-0.13407914 -0.056888964 0.0081626745 0.009558993 -0.0058078757 -0.00064450095 -0.022783237 -0.0658426
-0.004762579 0.0013644281 -0.018859312 -0.01389786 -0.045274723 0.0013482618 -0.03148933 -0.05676293
-0.06360107 -0.0073132287 0.0020120703 -0.03046011 0.034899976 0.010214662 -0.06279253 -0.030693585
-0.017885784 -0.04376408 0.0012494056 0.092946626 0.09238394 -0.053176027 -0.015096685 -0.035945065
0.0019272096 0.040609553 0.13571471 0.10273712 0.04169954 0.045965385 0.031873655 0.039284263
0.039804228 0.15759864 0.16713506 -0.067857005 -0.047378074 -0.06632657 -0.02878582 -0.043777343
0.07167214 0.06620416 -0.05026905 -0.08322451 -0.056732453 -0.040307835 -0.009858357 0.06259493
0.11593257 0.005385145 -0.018975686 -0.0007830097 0.015019142 0.011007922 0.07957896 0.069163
-0.00906275 -0.010579049 0.0009512746 -0.0020937624 0.026288072 0.053899456 0.0708731 0.006050285
-0.02281373 0.02361431 -0.006331568 0.0014069604 0.009663016 0.016619273 -0.057583597 -0.06303582
-0.02109256 0.012436025 0.01533964 0.022500163 0.026628155 -0.034993224 -0.049939882 0.026895905
0.031645957 0.0240449 0.013290968 0.03336138 0.07363532 0.06146441 -0.004586378 0.0004964533
-0.022710333 0.072735384 0.1432381 0.044468306 0.014404288 -0.025302917 -0.01893253 -0.02830954
0.03702797 0.069100946 0.024366345 0.026882926 -0.06636291 -0.05796919 -0.08672853 -0.038052533
-0.031503946 0.03381499 0.020422751 -0.04839815 -0.079882994 -0.111485206 -0.108657025 -0.087991185
0.060983654 0.0083347885 -0.036815085 -0.038837094 -0.10240735 -0.10452568 -0.1224677 0.13192351
0.095435455 0.041029256 0.07027747 0.06296008 -0.009060465 -0.06383835 0.18516651 0.07692081
0.042055886 0.10037273 0.111163266 0.067744955 -0.024315856 0.111738466 0.049517483 -0.028321354
-0.044410363 -0.037427876 0.038877387 0.0013554076 0.009057251 -0.025942186 -0.051382266 -0.06255913

module.residual_layers.1.0.bn1.weight f4 [32]
00000000: 3e73 583f f550 243f 10d7 b03e 6377 873f
00000010: 73ba 283f 4f7b 843f 4750 053e f247 223f
00000020: 78a7 443f b597 0b3f 8365 e33e cf65 533f
00000030: b294 373f 9533 593f 9fcc 223f cf3c 1c3f
00000040: 7afe cd3f 67aa ac3e 79c3 893f ff52 383f
00000050: 97ec 723e eb6e 833f cbf6 893f b15a 2e3e
00000060: b805 893f 83ab e13e 7ff2 c63e 7587 9a3e
00000070: 0782 0a3f f26a 253f 233e 363f 6440 d23e
0.84550846 0.6418603 0.3453908 1.0583309 0.659095 1.0350131 0.13018905 0.6339103
0.7681804 0.5452836 0.44413385 0.8257722 0.71711266 0.8484433 0.63593477 0.61030287
1.6093285 0.33723757 1.0762779 0.7200164 0.23723064 1.0268224 1.077844 0.17026784
1.070487 0.44076166 0.38856885 0.3018147 0.54104656 0.6461631 0.71188563 0.4106475

module.residual_layers.1.0.bn1.bias f4 [32]
00000000: 6bd8 c5bf 69b6 5abf 2d37 b6be ffe7 f1bf
00000010: 911b 6abf 33b4 b4bf 1dc3 833d a83a 8cbf
00000020: 2a76 98bf e96a 4abf 4c39 26bf 0920 a4bf
00000030: 4c3d 8dbf 6705 9ebf f4c7 6cbf a0fb 85bf
00000040: 77f9 23c0 3f05 95be af03 c8bf e071 85bf
00000050: 0fed 90be c6e6 adbf 21ef ddbf a696 27bd
00000060: a67d c6bf 9988 f7be 5475 a6be 4126 9abe
00000070: 092f 67bf 5d4f 76bf e23b 97bf 4e43 f2be
-1.545667 -0.85434586 -0.3558897 -1.8898925 -0.91448313 -1.4117492 0.06433699 -1.09554
-1.1911061 -0.7906938 -0.6493118 -1.2822276 -1.1034331 -1.2345399 -0.92492604 -1.0467415
-2.5621011 -0.29105565 -1.5626124 -1.0425377 -0.2830586 -1.3586051 -1.7338601 -0.040915154
-1.5507095 -0.48346403 -0.3251139 -0.3010731 -0.90306145 -0.9621485 -1.181515 -0.47316974

module.residual_layers.1.0.bn1.running_mean f4 [32]
00000000: 77e5 f6bf 8920 2cc0 f398 e8bf 81db 3bc0
00000010: 5117 3dc0 4776 36c0 334c 0cbe b982 eebf
00000020: ec8f 7cc0 6eb1 b6bf faa0 88bf 5e04 14c0
00000030: 3510 0ac0 6086 2ec0 cb02 c6bf de11 56bf
00000040: 36e2 09c0 4301 9bbf e8ae 8bc0 df6c f9bf
00000050: be3e 393f fce6 61c0 98af 50c0 e4fc fcbe
00000060: 1b20 76c0 2b13 a1bf 078b f8bf 7f0d 9abf
00000070: 47d2 ebbf 89da cdbf c44e bcbf 1be7 8dbf
-1.9288777 -2.6894858 -1.8171676 -2.9352725 -2.9545481 -2.850969 -0.13700943 -1.8633643
-3.9462843 -1.4272897 -1.0674126 -2.3127666 -2.1572392 -2.7269516 -1.5469602 -0.83621013
-2.1544318 -1.210976 -4.365101 -1.948635 0.7236136 -3.5297232 -3.2607174 -0.4941169
-3.8457096 -1.2583975 -1.9417428 -1.2035369 -1.8423547 -1.6082317 -1.4711537 -1.1086153

module.residual_layers.1.0.bn1.running_var f4 [32]
00000000: fc37 df3f 53ed 943f b0a3 313f 21de 2f40
00000010: 643a 0940 7d7b 3d40 26b2 263f d3bf 843f
00000020: 67ef dd3f e723 a93f 7f60 493f ac07 cd3f
00000030: c6a3 a73f 8c9a dd3f 3110 d03f 3591 4e3f
00000040: 2f06 a040 aa8a 023f 526c 2140 38f1 a53f
00000050: 5dbc e83e 6a02 0b40 367e e43f 2bfd e33e
00000060: 6739 5640 0740 473f c369 563f 824d 103f
00000070: 5288 853f b513 e13f 7762 943f 6148 783f
1.743896 1.1634926 0.6939039 2.7479327 2.144189 2.9606621 0.6511558 1.037104
1.7338685 1.3214082 0.78662866 1.6017966 1.3096855 1.7312789 1.6254941 0.8069032
5.000755 0.50992835 2.5222363 1.2964239 0.4545621 2.1720223 1.7851017 0.4452909
3.3472536 0.7783207 0.8375513 0.5636827 1.0432227 1.7584139 1.1592549 0.9698544
