summaries/good_ResNet2_num_blocks2x1_num_channels16_conv5/ckpt.pth (torch, 281743 bytes, 42 tensors)

module.conv1.weight f4 [16, 3, 3, 3]
000000 bf b7 28 3e 32 a1 2a 3e fe e1 c1 bd 7c 3d a5 be
       0.16476344 0.16663054 -0.09466933 -0.3227347
000010 e9 a3 42 3d 36 25 26 3e 78 e6 82 3b 99 1d f0 bd
       0.0475196 0.16225132 0.003994759 -0.11724395
000020 7f 16 a1 bd 2e 0c 7c be 31 c6 eb 3c ad 36 fb 3d
       -0.07865619 -0.24614021 0.028781028 0.12266288
000030 94 f6 2f bf f4 81 f4 bb ad da de 3e 50 b0 a1 3d
       -0.68735623 -0.0074617807 0.4352621 0.07894957
000040 43 77 32 3e 07 6e b5 3e fa 84 5f be 80 61 86 3c
       0.17428307 0.35435507 -0.2182807 0.016403913
000050 e1 e5 12 3e 93 31 49 bf 5d f3 09 be 5d 6f e2 3e
       0.14345504 -0.7859127 -0.13471742 0.44225588
000060 48 5c c9 bd d4 fb 2f 3d eb d3 da 3e 39 b8 0a 3c
       -0.098320544 0.04296477 0.42739806 0.008466774
000070 91 51 e1 bc 23 dc 2d ba aa c4 19 be a0 ef ae be
       -0.027504714 -0.0006632229 -0.15016428 -0.34167194
000080 2e 9a f2 be e8 de 30 3e cd c7 98 3e d4 47 62 3e
       -0.47383255 0.17272532 0.29839936 0.22097713
000090 ce 3e f6 3b 79 7a 8a bd a6 92 a4 bd 82 ee 1f bd
       0.007514811 -0.06761641 -0.080357835 -0.03904582
0000a0 75 4b 85 be ee 73 d2 be 02 ae 4d 3e 25 37 a9 3e
       -0.26034132 -0.41104072 0.2008591 0.33049884
0000b0 36 42 8b 3e b6 66 bd 3c d2 09 00 bc 0a 86 ac 3d
       0.27198952 0.023120265 -0.007814841 0.084240034
0000c0 e3 ca 15 3d 58 b8 2f be 7e 34 3b be ff dd 9f 3d
       0.03657044 -0.17160165 -0.18281743 0.07806014
0000d0 5b ad 2e 3e 4d 20 8c 3e 13 c7 d9 bd 8e 4f 89 be
       0.17058317 0.27368394 -0.106336735 -0.26818508
0000e0 55 e5 3b 3d 3a ad 5f 3b c3 b5 bc be 74 e4 b7 bd
       0.045873005 0.003413035 -0.36857423 -0.08979121
0000f0 be 31 eb 3e 80 2f 7b 3d 86 c8 dd 3d 80 20 9d bd
       0.45936388 0.061324596 0.108292624 -0.076722145
000100 91 50 27 be 76 ff 6d 3d 8d f8 55 bd d9 b5 96 be
       -0.16339327 0.058104955 -0.05223899 -0.29435614
000110 79 c2 cf bd 5d 7e 03 3e 7b 4d 00 be 17 ca b3 bd
       -0.101445146 0.12841173 -0.12529556 -0.0877878
000120 b9 37 f0 3c 88 fb 81 3d 29 26 4f 3e d0 4c 41 bd
       0.029323446 0.06346804 0.202294 -0.047192395
000130 81 16 12 be d2 b7 25 3c 12 5a f2 3c 9a de c2 bd
       -0.14266397 0.010114627 0.029583964 -0.09515114
000140 c2 08 46 bd 24 9a 1b 3e db f1 12 3e 8d dd 2a 3e
       -0.048348196 0.15195519 0.14350073 0.16686077
000150 5a 04 c3 bd 4e 34 02 bd 16 d5 4f 3c d3 e8 f2 bd
       -0.09522314 -0.031788163 0.012685081 -0.11860814
000160 90 53 5d bd 13 36 b8 bc 52 e6 0c be 21 7d 06 be
       -0.05403477 -0.022486722 -0.13759735 -0.1313367
000170 0f c9 92 be 9d 08 05 be 8f 20 63 bd 52 e7 93 be
       -0.2866902 -0.12991567 -0.055450972 -0.2888742
000180 d3 d2 82 bc c6 84 c9 3c 4b 72 78 be e3 7b f5 3c
       -0.01596967 0.024599444 -0.2426235 0.0299663
000190 a0 aa 8d 3e 73 d7 a1 3d 05 9b 4d 3e 14 2d fa 3e
       0.2766924 0.07902422 0.20078667 0.48862517
0001a0 27 8c 36 3e 63 5b 80 3d b9 db 7f 3e fe 44 db bd
       0.17826901 0.06267431 0.24986161 -0.107065186
0001b0 74 67 28 3d c0 15 9b be 18 f3 11 be 38 60 8b be
       0.041114286 -0.3029003 -0.14252889 -0.27221847
0001c0 af d7 fb be 7e 7f 86 be 64 1f 12 be 0a 5c 9e be
       -0.4918799 -0.26269144 -0.14269787 -0.30929595
0001d0 76 33 bf bd ab 5e 27 3e 12 5f e1 3c f5 97 46 bc
       -0.09335987 0.16344707 0.027511153 -0.01212119
0001e0 fa 11 25 3d ff d5 b1 3c 68 3e d8 3a 22 9b dc 3d
       0.040300347 0.021708487 0.0016498091 0.10771777
0001f0 ed 85 ae 3d 45 21 7f 3d 7b a7 0b 3e 2d 55 53 3e
       0.08521638 0.062287588 0.13638107 0.2063796
000200 92 37 ef 3d 47 4a 04 3e fd d9 9c 3e 6c 82 79 3e
       0.11680521 0.1291896 0.30635062 0.24366158
000210 9d 1b 15 3d db db 16 3e d1 b4 75 3d 57 e9 99 38
       0.036403287 0.14732306 0.059986893 7.3390715e-05
000220 5f f5 6d 38 c7 a4 12 38 82 b3 17 38 22 f7 57 b7
       5.6733723e-05 3.4962573e-05 3.6168385e-05 -1.2872539e-05
000230 9c 55 7d b7 ae ed 87 b5 76 4b fd b7 0e 11 27 b8
       -1.5099908e-05 -1.0127458e-06 -3.019509e-05 -3.9831786e-05
000240 f6 c0 9e 36 46 cf 4b b7 4a 62 a8 b5 0b 89 b7 b7
       4.7312305e-06 -1.21480025e-05 -1.2545581e-06 -2.1879116e-05
000250 76 70 40 b8 95 fa 7d b7 3b f6 86 37 4b 7c de 37
       -4.5881105e-05 -1.5138318e-05 1.6088705e-05 2.652234e-05
000260 86 aa 02 38 f9 96 25 37 80 f4 29 b7 61 26 df 36
       3.1153228e-05 9.869917e-06 -1.0130112e-05 6.650386e-06
000270 9a 98 39 b6 92 0f a1 b7 3f 16 1e 37 20 ac 0c 38
       -2.7655974e-06 -1.9199946e-05 9.422713e-06 3.3538905e-05
000280 61 10 56 38 88 b4 5a 38 8a 5f 1b be 21 32 af be
       5.103683e-05 5.2143383e-05 -0.15173164 -0.34217933
000290 da b6 44 be 69 1d 6b be ba 8a 95 be d7 45 0d be
       -0.19210377 -0.22960438 -0.29207402 -0.13796173
0002a0 f4 1f 9b 3d f5 71 46 be bb 47 be bd b8 92 51 3e
       0.07574454 -0.19379409 -0.09291025 0.20466125
0002b0 eb 64 20 3f 71 7e b8 3e 46 02 7b 3e ca 3e 4f 3f
       0.6265399 0.36033967 0.24512586 0.80955184
0002c0 4a f4 0f 3f ab 2a b6 bd 8f fe 18 3e f5 78 d4 3c
       0.5623213 -0.08894857 0.14940856 0.025936583
0002d0 3e 04 c9 3a b6 0f cd be 7a 11 a2 be 7b 96 34 be
       0.0015336347 -0.4005105 -0.3165396 -0.17635529
0002e0 44 ca fb be da 48 cb be 7b fd 8e 3e eb f6 c2 bc
       -0.49177754 -0.3970402 0.27927765 -0.02379938
0002f0 76 84 35 3d 68 91 ab be 15 40 4e 3d cd 21 a6 3e
       0.044315778 -0.33509374 0.050354082 0.32447663
000300 ad 4e 43 bf 53 e2 31 be 4e 0b 42 3f 8d 40 f0 be
       -0.76291925 -0.17371492 0.757985 -0.46924248
000310 12 ba 0f bd 2d 4b 0f 3f 9a b6 6a 3e a9 2e 92 3d
       -0.03508956 0.55974084 0.2292122 0.07137806
000320 38 e6 ed bd 1d 61 39 3e 8e 77 83 be 7c a0 82 bd
       -0.11616176 0.18103452 -0.2567715 -0.06378266
000330 8c df 64 3e f0 d0 5f be 21 31 c9 bd 49 e9 4b 3e
       0.22350901 -0.21857047 -0.09823824 0.1991321
000340 1d 8b cb 3d 12 38 dd be aa 4a f2 3e 60 fd 21 3d
       0.09938643 -0.4320684 0.4732259 0.039548278
000350 9b 5b bc be 52 8a ad 3e 9d e1 b8 3c 83 39 90 be
       -0.3678864 0.33894593 0.022568518 -0.28168878
000360 06 92 5f 3e bf ad b4 bf f8 74 35 be 70 89 8b 3e
       0.21833047 -1.4115523 -0.17720401 0.27253294
000370 20 14 8f 3e 49 0b 24 3e 2a e5 ac 3e 28 aa c8 3e
       0.27945042 0.1601993 0.33768588 0.3919232
000380 ba 50 43 3e d0 9c a6 3e 78 4c 15 bf 57 63 22 3f
       0.19073763 0.32541513 -0.5831981 0.6343283
000390 7c f1 64 be b5 8e 16 3e f6 1e c1 3d ed a5 62 be
       -0.22357744 0.14702876 0.094297335 -0.22133608
0003a0 dd b6 5d be c4 47 9a be 88 19 c2 3e 84 22 91 be
       -0.21651788 -0.30132878 0.37910104 -0.28346646
0003b0 df a6 c2 3e 1b 2b 20 bd bb c6 30 3e ce c9 af 3d
       0.38017938 -0.03910361 0.1726331 0.08583413
0003c0 c1 38 dd bd f0 e1 83 be f4 4b cf bd e4 34 16 3e
       -0.108018406 -0.25758314 -0.10121909 0.14668614
0003d0 4e ac 9d 3e 23 ef 66 be 3f f1 a4 be 26 6c 73 3e
       0.3079552 -0.22552161 -0.32215306 0.23771724
0003e0 df f0 9b bd be d7 9f be 99 31 c3 3d af 7c c3 bd
       -0.07614302 -0.31219286 0.095309444 -0.09545266
0003f0 c5 9f b5 3d fa 08 e1 3e af ba fb bd d3 a4 a8 be
       0.08868364 0.4395216 -0.122914664 -0.3293825

module.bn1.weight f4 [16]
000000 75 2a b6 3e f0 66 93 3e f6 c0 33 3f 11 67 0f 3e
       0.35579267 0.28789473 0.7021631 0.1400416
000010 fa 10 28 3e b6 29 37 37 fe 56 4a 3e 35 57 9c 3e
       0.16412726 1.0917362e-05 0.19759747 0.30535284
000020 a9 ac df 3e 24 7f 18 3f 58 dc 9a 3e db 62 ca 3e
       0.43686417 0.59569 0.30246234 0.39528546
000030 2e 39 a8 3e 77 17 9f 3e 03 78 0c 3f be db a2 3e
       0.32856125 0.3107259 0.54870623 0.31808275

module.bn1.bias f4 [16]
000000 bf 90 53 3e e2 93 4e bc 76 05 0f bf 6e ad 76 3d
       0.20660685 -0.0126085 -0.5586771 0.06022399
000010 d8 ac a5 3d 64 6e 40 b8 59 cc 54 3d 79 b7 39 bd
       0.08089608 -4.5879176e-05 0.051952694 -0.04534099
000020 29 bd 9e 3e 09 95 9e be c2 c3 82 bd e4 e3 82 be
       0.31003693 -0.3097308 -0.06384994 -0.25564492
000030 7d 97 44 3e 19 f8 0a 3e 81 38 e9 3e ee ce 37 bd
       0.19198413 0.13571204 0.45550922 -0.044875078

module.bn1.running_mean f4 [16]
000000 23 e5 aa 3b fe 2a b2 3d 39 44 a9 3e f2 84 a2 bd
       0.0052153035 0.08699606 0.33059862 -0.079355136
000010 3b dd d7 3d 05 43 61 b8 4e 16 55 bc 6b 06 14 3d
       0.10540243 -5.3706597e-05 -0.013005806 0.036138933
000020 31 11 26 bb 3f 1a 05 3d cb 4b e0 3d 64 64 81 be
       -0.0025339837 0.032495733 0.10951956 -0.25271904
000030 7c fb c6 bc 6b 8b 5b bc d7 96 92 bd 17 25 35 3e
       -0.024289839 -0.013399939 -0.07157677 0.1768993

module.bn1.running_var f4 [16]
000000 d7 5d 73 40 30 01 07 40 55 6a fa 3f fd e6 5e 3f
       3.8026025 2.1094475 1.95637 0.8707121
000010 32 a5 cc 3f bf 6c 81 33 04 dd 44 3f 30 ea b3 3e
       1.5987914 6.0268114e-08 0.76899743 0.35139608
000020 6e 27 96 3f 16 f9 f4 3f 46 7c ee 3e d3 2f ad 3f
       1.1730783 1.9138515 0.46579188 1.353022
000030 83 97 bc 40 5b 8d 6c 40 d8 da 81 3f d5 b0 7f 3f
       5.893495 3.6961277 1.0144911 0.998792

module.residual_layers.0.0.conv1.weight f4 [16, 16, 5, 5]
000000 d1 30 89 3e d0 be 91 3b 4e 50 e2 bd 60 68 44 be
       0.26795056 0.0044477955 -0.11050473 -0.19180441
000010 23 91 06 be d9 38 91 be b5 32 37 be 91 9d 4e be
       -0.13141303 -0.28363684 -0.17890437 -0.20177294
000020 76 18 2a 3d 67 11 bf 3d ee 21 84 be 21 fe 42 bc
       0.041527234 0.09329491 -0.25807136 -0.011901409
000030 85 8d 28 3e 84 c1 4f 3e 02 40 a4 3d 56 04 50 3c
       0.16460235 0.20288664 0.08020021 0.012696346
000040 04 5d f2 3d 90 1b f8 3d 98 e0 c1 bd c1 d7 0a 3d
       0.118341476 0.12114632 -0.09466666 0.033897165
000050 35 9a 88 3d 42 3b 2b 3e 21 97 39 3d d2 41 b5 bd
       0.06670038 0.16721824 0.045310143 -0.08850445
000060 ae f3 62 3d 22 b0 22 bb b1 ba 9a bd 6f 67 d1 bc
       0.055408172 -0.0024824222 -0.0755514 -0.025562016
000070 e9 67 4f bd c7 86 4a bd 25 f7 0d bd bc 38 01 be
       -0.050636206 -0.04944494 -0.034659524 -0.12619299
000080 79 ac e2 bd 98 d0 1a bc e4 f9 f2 3d 75 1b c9 bd
       -0.11068053 -0.009449147 0.11864069 -0.0981969
000090 4a b8 22 be 35 46 3c be 52 d4 e8 bd 86 de 23 bd
       -0.15890613 -0.18386157 -0.11368622 -0.040007137
0000a0 e1 17 89 bc 10 39 fa bc a7 f8 02 3c 58 25 b7 3c
       -0.01673502 -0.030544788 0.007993854 0.022356674
0000b0 97 ca d9 3c c9 db 9a bc 7a ef 6d bd 2c 8e 3d 3c
       0.02658586 -0.01890363 -0.05808971 0.011569541
0000c0 47 59 5d 3d e9 40 20 3d 63 e3 10 3e 54 dd 95 3d
       0.05404022 0.039124403 0.14149241 0.073176056
0000d0 11 03 e4 bc 1f 6c a6 3b 72 a0 48 bd 4f be 84 3c
       -0.027833493 0.005078807 -0.048981138 0.016204027
0000e0 c4 72 79 bd 86 5c a6 bd d0 37 c1 bc 37 97 d4 3d
       -0.060900465 -0.08123116 -0.023586184 0.103804044
0000f0 24 8e 30 bd 9a 75 72 bc 80 f5 46 bc c4 08 02 bd
       -0.043104306 -0.014798546 -0.012143493 -0.03174664
000100 37 73 8c 3b 73 77 10 3c c5 85 e9 3d dc de a2 3d
       0.0042861956 0.008817541 0.11402468 0.07952663
000110 66 f8 03 3e 64 a8 6b bc 50 84 fa bc 0e 2b 52 3c
       0.12887725 -0.014383409 -0.03058067 0.012827648
000120 ca 3b ea bd f4 53 8b bd e4 a6 d2 bd a1 27 85 3d
       -0.11437185 -0.06803122 -0.10285738 0.06501699
000130 b5 2c 0c 3e 5a 75 5d bd 72 10 13 be d7 07 ff bd
       0.1368893 -0.054066993 -0.14361742 -0.12452667
000140 7b cb 80 3d 5b 3f c1 3d 5b ab ec bd 64 8c 02 be
       0.06288811 0.09435912 -0.11556121 -0.12748867
000150 57 25 d0 bd 81 4d 32 3d 3c eb 81 bc e5 c1 1d be
       -0.10163372 0.043530945 -0.015859239 -0.15405996
000160 2d 4f 88 bd ff 84 d3 bc e7 16 15 3d 91 9a 5c bd
       -0.066557266 -0.025820253 0.036398795 -0.053858344
000170 55 78 82 bd ec bc 29 3d e5 95 4d 3d 54 7e 88 3b
       -0.06370608 0.041439936 0.05019178 0.00416545
000180 c9 91 92 bd 77 13 0e 3d e0 30 c9 3d 4b 0e b4 3d
       -0.071567126 0.034686532 0.09823775 0.08791789
000190 22 e5 64 3e d8 99 26 3e a0 18 77 3d 25 77 3e 3c
       0.22353032 0.16269624 0.06032622 0.011625086
0001a0 44 be 17 bd 80 8c d9 3d 2a 9a f7 3c d3 68 04 bd
       -0.037046686 0.106225014 0.030224878 -0.03232653
0001b0 10 c6 43 bd 78 d8 11 bd d4 ea 86 3b 40 c8 22 bd
       -0.04779631 -0.03560683 0.004117349 -0.039741755
0001c0 1c 73 8b bd b6 59 5c bd e5 87 a3 3c 3e 85 38 bd
       -0.06809065 -0.053796493 0.01996226 -0.045048945
0001d0 74 0e 53 bd 3a 83 6e bd da 79 8a 3c 0f 0c bd 3d
       -0.051527455 -0.058230616 0.016903806 0.092308156
0001e0 11 d4 a4 bd 3e d8 85 bd 32 d6 2f bd 24 4a 3b 3d
       -0.08048261 -0.065353855 -0.042928882 0.045725003
0001f0 5c c4 b0 3d 3c 4f 6e b5 77 53 45 36 18 2e 11 35
       0.086312026 -8.877721e-07 2.940387e-06 5.4083785e-07
000200 7b d5 96 b4 ac 6e 94 b6 3b e9 b7 35 93 ac 23 37
       -2.8095005e-07 -4.4236276e-06 1.3702441e-06 9.755738e-06
000210 1d 1b 32 37 21 78 7a 35 b1 0c 46 b6 4d a2 b0 b6
       1.061594e-05 9.330707e-07 -2.9511687e-06 -5.264103e-06
000220 b6 44 99 37 c7 1d 30 37 d9 d3 20 b7 33 cb 3c b7
       1.8271017e-05 1.0497351e-05 -9.586068e-06 -1.1252984e-05
000230 38 32 b2 34 96 25 93 36 3a 58 98 b7 64 47 51 b7
       3.3191623e-07 4.385317e-06 -1.8160896e-05 -1.2473993e-05
000240 74 25 ba b6 73 12 b7 b5 8f 52 1f b6 a2 7d 54 b7
       -5.547592e-06 -1.3639932e-06 -2.3740902e-06 -1.2665436e-05
000250 3f 37 c8 33 67 23 05 35 cc e8 8b 3e 03 05 a9 3d
       9.323275e-08 4.959788e-07 0.27326047 0.08252909
000260 c9 22 a3 bc 46 ca 16 bd 1b 24 22 bd 23 c3 c6 3d
       -0.019914048 -0.036813997 -0.039585214 0.09705188
000270 0e 44 ed bd 9a 19 48 be a7 be f1 bd ab 26 ef bc
       -0.11585246 -0.19541016 -0.11803942 -0.029193243
000280 e6 14 ed bd 0c 34 87 be 3a 0f 57 be 7b 20 0a bd
       -0.11576252 -0.26406896 -0.21001902 -0.033722382
000290 98 b8 30 3d d6 72 0a be 3d cd 0a be 7f 6b e9 bc
       0.043144792 -0.13520369 -0.13554855 -0.028493641
0002a0 29 fc d3 3d 90 72 ad 3d 0b a3 04 be 59 61 b3 bc
       0.1035083 0.08469117 -0.12952821 -0.021897005
0002b0 c0 09 b6 3d 42 72 5b 3e 8d bd 37 3e 94 2a 5f bd
       0.088885784 0.21430305 0.17943402 -0.054483965
0002c0 7e 47 c5 bc 64 6f c0 bc 69 1b 24 bd 84 fc 66 3d
       -0.024081942 -0.023490615 -0.040065203 0.05639316
0002d0 da cc 68 bd 5f 32 1a 3c 9b 0a f3 3d 7a 8c 9c 3c
       -0.056835987 0.0094114235 0.11867257 0.019109953
0002e0 72 7b ab bd 6f d5 8d bd 3d bf 58 3d bc b2 fd 3d
       -0.08373155 -0.06925475 0.052916754 0.123876065
0002f0 cb a4 2b bd 25 91 f6 bc 39 25 c1 3c d4 b7 a6 3d
       -0.041905206 -0.030098507 0.02357732 0.08140531
000300 1e d4 a7 bd f1 7e b0 bd a0 fd 1a 3d 77 75 96 bc
       -0.08194755 -0.08617962 0.037839532 -0.018366558
000310 3c 6e a5 3d 7d 46 0e be 61 ce 97 bd 4f d0 60 bd
       0.08077666 -0.13894077 -0.074124105 -0.05488616
000320 f6 10 5a bd eb 71 f2 bd d5 77 ba 3b d5 8f a7 3d
       -0.05323883 -0.118381344 0.0056905546 0.08181731
000330 fa e8 81 bb 89 61 a1 3d db 34 c5 3c 85 0b 2b be
       -0.0039645405 0.078799315 0.024073055 -0.16703613
000340 33 e8 7a bd 99 84 40 bd f4 82 3c bd b0 27 c2 be
       -0.0612566 -0.047001455 -0.046023324 -0.37920904
000350 05 83 48 3e c2 2a 32 3d 47 e9 54 3d 3f e8 3a be
       0.1958123 0.04349781 0.051980283 -0.18252657
000360 24 67 5d 3e 86 a8 ce 3e ef 1f 96 be 21 cc 32 3d
       0.21621376 0.40362948 -0.29321238 0.043651704
000370 0b 94 65 bd 5e 83 f3 3d 4c e6 9a be 18 ae 0f 3c
       -0.056049388 0.11890291 -0.30253828 0.0087695345
000380 09 26 89 3c 0a ab 8f bd 31 e4 b1 bc c1 76 c9 bd
       0.01674177 -0.07015045 -0.021715255 -0.09837104
000390 2e f7 6b 3b ca 07 3a 3d 88 9f ab bd fc b2 0a be
       0.0036005485 0.045417584 -0.083800375 -0.1354484
0003a0 7c 7f 20 be 42 d1 5b 3d 61 67 00 3e 6f da 70 3c
       -0.15673631 0.05366636 0.12539436 0.014700516
0003b0 08 02 34 be 34 07 14 be fe e4 d0 bc 9c c3 2a 3e
       -0.175789 -0.14455873 -0.025499817 0.16676182
0003c0 ed a1 e8 3c b0 29 06 be e1 9f 49 be 25 65 46 be
       0.028397525 -0.1310184 -0.19689895 -0.19374521
0003d0 4d e0 a3 bd 25 2f c4 bd 67 79 11 3d 05 82 5f 3d
       -0.08001766 -0.095793046 0.03551617 0.054567356
0003e0 60 f2 4f bd 15 36 43 3c 3c 17 b4 ba 58 e9 c8 bd
       -0.050768256 0.01191475 -0.0013739835 -0.09810132
0003f0 1c 93 0f be 0f 52 eb bc e3 3d 45 bd 21 ba 49 3d
       -0.14020962 -0.028725652 -0.048154723 0.049249772

module.residual_layers.0.0.bn1.weight f4 [16]
000000 b7 f1 49 3f f7 f4 33 3f a7 a7 01 3f 6e af 41 3f
       0.7888445 0.7029566 0.5064644 0.7565831
000010 4a 7d 14 3f 4f df 5c 3f 4d f4 4f 3f f4 f6 15 3f
       0.58003676 0.8627824 0.8123215 0.58579946
000020 17 71 f1 3e bc 95 30 3f 4e bb ea 3e 20 95 02 3f
       0.47156593 0.68978477 0.45846027 0.51008797
000030 2c ac 0e 3f 52 45 2a 3f 5f 0b 46 3f 55 2b 29 3f
       0.55731463 0.66512024 0.773611 0.66081744

module.residual_layers.0.0.bn1.bias f4 [16]
000000 5a b4 85 be d7 b2 4b be 18 47 ae bd ec 78 31 be
       -0.2611416 -0.1989244 -0.08509654 -0.17331284
000010 6f c7 6e be 57 cc 10 bd 2c 64 cb be 8e 41 c7 bc
       -0.23318265 -0.035351124 -0.39724863 -0.024323251
000020 cf 47 86 bd e3 bd 4d be 2d 1d ce bd 47 c5 1c 3e
       -0.06556665 -0.20091967 -0.100641586 0.1530963
000030 50 00 25 be 86 be ae be 62 e1 90 bd 60 d1 75 be
       -0.161134 -0.34129733 -0.07074238 -0.24005651

module.residual_layers.0.0.bn1.running_mean f4 [16]
000000 0b 3f bc be e7 d8 05 bf 9c 2b d1 3e 69 16 ef be
       -0.36766848 -0.5228409 0.40853584 -0.46696785
000010 85 91 50 be 3f c8 bc 3b 36 a1 21 bf 3f 7f 8b 3e
       -0.20368011 0.005761176 -0.63136613 0.2724552
000020 70 1f 79 bf 87 de 71 be 08 c2 96 be b2 c2 f9 be
       -0.97313595 -0.23620044 -0.2944491 -0.48781353
000030 e5 ff dc be cc dd 02 3f fd 63 75 bd c9 4e b2 be
       -0.43163982 0.51119685 -0.05990981 -0.34825733

module.residual_layers.0.0.bn1.running_var f4 [16]
000000 6d 05 02 3f 9e 7f a0 3e da 70 7a 3e 2d 41 16 3f
       0.5078953 0.31347364 0.24457112 0.586932
000010 a7 91 1a 3e 91 98 d3 3f 0c 13 a6 3e 3a d2 2b 3f
       0.15094624 1.6530935 0.32436407 0.67117655
000020 b6 68 7d 3e e0 99 ea 3e 5b 21 41 3e c5 07 93 3e
       0.24746975 0.45820522 0.1886038 0.28716865
000030 5f 85 c8 3e f6 e4 50 3e dc 33 8a 3f 5f 80 85 3e
       0.39164254 0.20399842 1.0797076 0.26074502

module.residual_layers.0.0.conv2.weight f4 [16, 16, 5, 5]
000000 be eb ed bd d7 e0 1f be 91 5c b1 bd ee d6 8a 3d
       -0.1161723 -0.15613113 -0.08660234 0.06779276
000010 c5 2d 9d 3d 5d ef 01 be 9a 3d 50 be 28 2e 73 be
       0.076747455 -0.12688966 -0.20335999 -0.23748076
000020 2c 5f 96 bc 3b 3c 5f 3d dc 09 11 bd f7 11 18 be
       -0.018355928 0.0545008 -0.035409793 -0.14850603
000030 a9 f0 0f be e0 2d e8 bd 2b 6c 33 3e 00 20 e3 3c
       -0.14056648 -0.11336875 0.17521732 0.02772522
000040 d1 fb 37 3d e2 27 69 3d 30 67 01 3d e0 7c 72 3b
       0.044917885 0.0569228 0.031592548 0.00370007
000050 7b e7 23 be cd f9 3e bc fe 52 b0 bb 44 ea f1 3c
       -0.16006272 -0.011656237 -0.005380987 0.029530652
000060 dd 83 34 bd d6 a8 16 be 22 f5 23 be b1 1f b4 be
       -0.044071067 -0.14712843 -0.1601148 -0.3518043
000070 8d d2 4c bd ac 88 7f 3d 50 c3 17 be 28 e5 31 be
       -0.050005484 0.0623862 -0.148206 -0.17372572
000080 a8 a0 23 be 3e 6f 11 3d ac 78 b1 3c e5 60 42 3c
       -0.15979254 0.03550648 0.021663986 0.011863922
000090 5a d3 10 3d 8f 78 4f 3c 32 80 ad 3d 71 ca 4b bc
       0.03535781 0.012663021 0.08471717 -0.0124384025
0000a0 ce 2e 33 bc dd 46 18 3e d5 b0 5a 3d fb 09 6e 3d
       -0.010936452 0.14870782 0.053391296 0.058114987
0000b0 c8 f1 c1 3c 8b 8e 0c 3e 2f 82 df 3d b3 ec 0d 3e
       0.02367486 0.13726251 0.109135024 0.13859825
0000c0 b2 e1 c4 3d ac 0f ba 3d a7 08 08 3d d5 64 8d 3d
       0.096133605 0.090850204 0.033211377 0.06903998
0000d0 f4 12 c9 bd 82 bc 80 3d 0d 71 24 3d f2 28 9e bd
       -0.09818068 0.06285955 0.040146876 -0.077226534
0000e0 f9 c3 28 3d 0d 66 06 bd 0f 1d 04 3d aa 83 c3 3c
       0.04120252 -0.032812167 0.032254275 0.023866493
0000f0 5d a5 82 bd 60 95 08 3d a9 a6 18 bd 98 01 bb 3a
       -0.06379197 0.03334558 -0.037268315 0.0014267443
000100 d8 11 90 3b e4 e8 ac bc ab f0 83 3d 26 6f 2e bd
       0.0043966584 -0.021107145 0.06442388 -0.04258647
000110 33 b3 ad 3b 12 28 13 bd 07 45 0b 3d 17 dc ba 3c
       0.005300903 -0.035926886 0.034001376 0.022810025
000120 80 4d 0a be fd 6a 41 bd 2a 59 22 3c 84 22 40 3c
       -0.13506126 -0.047221173 0.009908954 0.011726979
000130 52 63 53 bd aa ec 49 bd e3 40 39 be f4 16 1f be
       -0.05160839 -0.049297966 -0.18091159 -0.155361
000140 62 96 15 3e 57 bb 3b bd a6 10 dd bd db 9c c4 bd
       0.14608148 -0.045832958 -0.10794191 -0.0960023
000150 7a 3f ec 3d 24 e0 1c 3e 9b 29 83 3d fe da 34 be
       0.11535545 0.15319878 0.0640442 -0.17661664
000160 f4 56 88 be 39 f3 4f 3c 0f a5 e5 3d 2a cc 5b 3d
       -0.2662884 0.012692266 0.11213123 0.053661503
000170 3a 3f 99 3d 8b e1 fb bc f3 e5 da bd e5 0a a5 bc
       0.07482763 -0.030747196 -0.106883906 -0.020146796
000180 52 93 78 3d 31 dd 1a 3b f6 7d 0e bd 38 39 bc 3b
       0.06068737 0.0023630376 -0.034788094 0.0057441257
000190 d3 d7 ae bd 3b 11 a2 bd 33 bc 43 bd 16 88 88 bb
       -0.08537259 -0.07913443 -0.047786903 -0.0041666133
0001a0 9c d4 74 3d 8b 05 87 3d 09 eb 5a 3c a8 97 83 bc
       0.059773073 0.06592854 0.013361701 -0.016063526
0001b0 0a 0d d4 3c 7a 83 ca 3d 3f 22 08 3e 98 3a 27 3e
       0.025885124 0.098883584 0.13294314 0.16330945
0001c0 40 f5 c0 3d 62 ae c0 3c b9 77 b6 3c 96 8a 07 3d
       0.09421778 0.023520652 0.022273885 0.03309115
0001d0 69 5a 17 3e 0b 51 dc 3d e3 8b c4 bc 77 76 89 bd
       0.14780582 0.10757645 -0.023992484 -0.067120485
0001e0 9b d5 f3 bc 48 d8 84 3d ca 5d 54 3c 9f e0 26 bd
       -0.029764941 0.06486565 0.012961814 -0.04074156
0001f0 66 72 9c 3b cd 4a ab bc 90 e2 3b be d0 4f 77 bd
       0.0047743795 -0.020909691 -0.18348145 -0.06037885
000200 8c 3a bf bd f7 81 30 bc 19 92 de bd bb 6e 94 be
       -0.09337339 -0.0107731735 -0.1086771 -0.2899073
000210 89 01 8a be 67 9c c5 bd 1b ce 08 bd 8c a6 70 bd
       -0.26954296 -0.09648972 -0.033399682 -0.05875258
000220 2e b5 1b be ea 4d 2f be ec 54 11 3b 58 55 0b 3d
       -0.15205833 -0.17119566 0.0022175862 0.034016937
000230 ad c5 0c 3d 7d 66 9b 3d 62 de ab 3d 5c 58 d0 3d
       0.034368206 0.075879075 0.083920255 0.10173103
000240 ef 60 0a 3e c5 8a f8 3d a3 08 2d 3e 8f eb 36 3e
       0.1351354 0.12135843 0.16897826 0.17863296
000250 2d e1 fa 3d c0 23 27 3e c1 ca 3d bb f0 86 38 bd
       0.1224998 0.16322231 -0.0028959962 -0.04505056
000260 63 35 e1 bc 43 5a 51 bd 8b 69 97 3d 6c fa ba bd
       -0.027491277 -0.05111147 0.073931776 -0.091297954
000270 43 3a d4 bd 57 ca a9 3b 28 63 05 3e 6a 70 7c 3d
       -0.10362675 0.0051815915 0.13026106 0.061630644
000280 66 27 63 bd 50 7b 8f bd 7a e0 d6 3d 48 d9 c5 3d
       -0.055457495 -0.07005942 0.10492034 0.09660584
000290 74 16 47 bb 66 67 16 bb 3a 2a 5f 3d c8 76 d8 3d
       -0.0030378373 -0.0022949814 0.05448363 0.10569531
0002a0 15 79 59 3d c3 4e 5f bd 98 f0 e9 3c da 5e 01 bd
       0.05309399 -0.054518472 0.028557107 -0.031584598
0002b0 33 11 24 3c a7 1e fe 3c b0 ba 97 3d 7e 4f e8 bd
       0.010013866 0.031020476 0.07408655 -0.11343287
0002c0 ed 59 94 be 3d ff b3 be b1 1b 76 be b8 77 7b 3c
       -0.28974858 -0.3515567 -0.24034001 0.015348367
0002d0 12 50 32 bd 89 bf 5d be 82 93 9c be 06 14 97 be
       -0.043533392 -0.21655096 -0.3058129 -0.29507464
0002e0 a2 54 32 bd 67 78 3d ba 8f 92 0d be 69 07 2a be
       -0.043537743 -0.0007227719 -0.13825439 -0.16604389
0002f0 1f 82 81 be d5 e3 69 bd 14 e9 d8 3d 59 76 35 bd
       -0.25294587 -0.057102043 0.10591331 -0.04430232
000300 af fb cf 3d a3 34 bd bd 78 f4 70 bc 2c eb 22 3e
       0.10155427 -0.09238555 -0.014706723 0.15910023
000310 05 14 c3 bc f6 a1 24 3e 12 97 2c bd 54 c7 59 3c
       -0.023813257 0.16077408 -0.04213626 0.013292152
000320 55 13 ef bb e2 48 34 3d 1e 47 30 3e 20 07 b8 3d
       -0.0072960057 0.04401482 0.17214629 0.08985734
000330 24 c6 e0 3b 7d ff 15 bc b1 24 13 3d 60 df 24 3e
       0.0068595577 -0.009155151 0.035923664 0.16100836
000340 72 75 83 3d 55 f0 fd bd 86 01 b3 bd 4f b1 31 bd
       0.06418885 -0.12399355 -0.08740525 -0.043381985
000350 5c 2f 56 3d d8 d6 1b bd a9 03 c4 bd 76 70 a6 bb
       0.05229126 -0.038046688 -0.095710106 -0.0050793244
000360 7b 1f 38 bd ac e8 6c 3d 61 9d a8 bb 2d eb eb bc
       -0.044951897 0.05783908 -0.005145714 -0.028798664
000370 f0 8b 44 3d a2 e2 a3 3c df 1c 1b 3d 16 8f c7 3b
       0.047985017 0.020005528 0.03786933 0.006090055
000380 82 cf 7c bd 9a bc 36 3d 5c 5a f8 bd 85 e4 3e be
       -0.061721332 0.04461346 -0.1212661 -0.18641861
000390 4c 2a 15 be 70 89 b0 bc 4e 72 62 3d 62 c9 05 3d
       -0.14566916 -0.02154991 0.05528479 0.032662757
0003a0 d9 7a 27 be 00 c4 34 be 56 34 1d be e6 f8 00 be
       -0.16355456 -0.17652893 -0.15351996 -0.12594947
0003b0 9e d5 ef 3d 55 e5 34 3c 97 0c be bd 9e e1 15 be
       0.11710666 0.011041005 -0.09279745 -0.14636847
0003c0 a2 ac 14 bc 14 60 ce 3d 1d e1 9f 3b 8f 48 49 bd
       -0.009074362 0.10076919 0.0048791305 -0.049141463
0003d0 82 9e 1a bd 51 b1 65 3d 41 61 91 3d a9 2c 11 bd
       -0.03774882 0.056077305 0.07098628 -0.035442982
0003e0 06 e0 7a bd bf f5 9c bd f3 41 e2 3d 80 97 15 bd
       -0.0612488 -0.0766406 0.11047735 -0.036521435
0003f0 ac cd 8b bd 8f 52 02 be 89 f9 df 3d f6 8b 1f 3e
       -0.06826338 -0.12726806 0.10936267 0.15580735

module.residual_layers.0.0.bn2.weight f4 [16]
000000 24 aa 47 3f ff 84 78 3f be bc 42 3f 66 80 36 3f
       0.7799399 0.97077936 0.7606925 0.7128967
000010 b9 81 79 3f 50 d2 26 3f 30 96 de 3e c8 45 50 3f
       0.97463566 0.6516466 0.4347396 0.8135648
000020 40 67 22 3f bc d1 e7 3e 38 91 3d 3f dc 51 23 3f
       0.63438797 0.45277202 0.7404971 0.6379678
000030 81 37 0f 3f 70 01 38 3f a0 2d 5a 3f 88 2b ef 3e
       0.5594407 0.71877193 0.8522587 0.467129

module.residual_layers.0.0.bn2.bias f4 [16]
000000 c9 5c 24 be 88 55 5b be 8b 66 78 be 07 d3 a1 bd
       -0.1605102 -0.21419346 -0.24257867 -0.079015784
000010 54 2f cd be 01 3b ac 3d 37 91 3c bd 0b d3 89 be
       -0.4007517 0.084096916 -0.046036925 -0.26918826
000020 26 bb e2 be 44 ce 8d 3e a5 98 0f be f8 1b e1 bd
       -0.44283408 0.2769643 -0.14023073 -0.10991663
000030 bf 60 5d be 82 42 e2 be 2c 45 2c bf 07 06 cd 3b
       -0.21618937 -0.44191366 -0.6729305 0.006256822

module.residual_layers.0.0.bn2.running_mean f4 [16]
000000 2a a5 30 bf 74 4c 74 bf 76 52 f1 be 8f d8 65 bf
       -0.6900202 -0.9542916 -0.47133225 -0.8978357
000010 f2 fe ed be b3 28 12 bf 4c a4 52 bd 46 41 40 bf
       -0.4648357 -0.5709335 -0.051426217 -0.750996
000020 8e 0b 71 3d 5e 8b 11 be 35 77 f2 be 93 b7 fc be
       0.05884891 -0.1421332 -0.47356573 -0.49358806
000030 9c d0 15 bf 7e 84 0f bf f3 f6 42 bf 94 8e 25 be
       -0.5852144 -0.5606154 -0.76158065 -0.1616767

module.residual_layers.0.0.bn2.running_var f4 [16]
000000 1c f9 7a 3f 08 7f be 3f 6d 34 20 3f 30 a5 69 3f
       0.9803636 1.4882517 0.62579995 0.9126768
000010 f7 17 84 3f 4a b1 37 3f dd 31 0b 3f f5 9c 36 3f
       1.0319813 0.71754897 0.5437296 0.7133325
000020 d8 96 3d 3f c5 00 0f 3f f9 19 8c 3f a4 56 0e 3f
       0.74058294 0.5586055 1.0945426 0.55600953
000030 8d b0 17 3f dc 02 13 3f 08 ce 2d 3f 29 be 0a 3f
       0.5925377 0.5742624 0.67892504 0.5419641

module.residual_layers.0.1.conv1.weight f4 [16, 16, 5, 5]
000000 90 13 fc bd ac dd 9a bd 33 c1 a8 3c 37 55 83 3c
       -0.12308419 -0.07561812 0.020599937 0.016031845
000010 45 b4 fc bc e7 76 af bd c6 90 38 bd 72 61 c4 bc
       -0.030847678 -0.08567601 -0.04505994 -0.023972247
000020 80 f5 a0 bc ec b9 c0 bd 67 b3 91 3d 51 d2 d3 3d
       -0.019648314 -0.09410462 0.071142964 0.10342849
000030 fa 81 b2 3d 31 3b a2 3d 7e c4 c2 3d 6f be ac 3c
       0.08716197 0.07921446 0.09510134 0.0210869
000040 e4 30 87 3c 80 c6 dd bc a6 5f c8 bd 60 7e a0 bc
       0.016502805 -0.027072191 -0.097838685 -0.01959151
000050 7a 06 a4 bd 05 67 7f bd b7 db b7 bd 31 a6 60 bd
       -0.08009048 -0.062354106 -0.08977454 -0.054845992
000060 0d a1 78 bd d8 3c b3 bd 00 43 97 bd ed 9f 54 3d
       -0.060700465 -0.087518394 -0.07385826 0.05191033
000070 a5 0c e9 3c 35 f0 18 bd f5 0e d4 bd 83 ec 78 bd
       0.028448412 -0.037338454 -0.10354415 -0.06077243
000080 a0 b5 84 bb 9d 74 fb bd 17 a8 bf bd 88 3f 06 be
       -0.0040499717 -0.122781016 -0.093582325 -0.13110173
000090 1e 1c 85 bd ca 7a 25 3c 8f f0 11 bd 06 31 c1 bd
       -0.064995036 0.010100076 -0.035629805 -0.094331786
0000a0 8a bc 14 be 67 6e 10 bd bd 3b 64 bc d0 ac 17 bd
       -0.14525047 -0.035261538 -0.013930258 -0.03703004
0000b0 9e 51 cd bc 22 93 cb 3c e3 35 13 3e 61 64 66 3d
       -0.025063332 0.024850432 0.14376025 0.056248073
0000c0 f8 64 6a 3d a8 2d 90 bd fb de 62 3c 62 2c d9 bb
       0.057225198 -0.07039958 0.013847108 -0.0066276053
0000d0 3f e3 90 bd 3a 87 63 bd d4 fd 92 bc b5 b1 77 3d
       -0.07074594 -0.055548884 -0.0179433 0.06047221
0000e0 a2 3f 0d 3c 5e b5 ca bd 48 60 06 3d 47 1a ea 3c
       0.008621128 -0.09897874 0.032806665 0.028576983
0000f0 5d af 3a 3e cb 94 1b 3d 72 80 5a bd c9 28 ab 3c
       0.18230958 0.037983697 -0.05334515 0.020893471
000100 ea 12 07 3e a9 1a c5 3d 84 c4 30 bd 5c f8 ef bd
       0.13190809 0.09624226 -0.043156162 -0.11717293
000110 82 4d e7 bd 89 12 b7 3d 8b c6 a4 bc ba 8d 17 be
       -0.1129408 0.08939082 -0.020114204 -0.14800158
000120 12 8c 21 be 47 39 72 be 09 81 3e bd cc 31 06 3e
       -0.15776089 -0.23654662 -0.046509776 0.13104934
000130 36 32 62 3d ad 8d 66 3d 92 94 5d 3d 1a e7 e5 3d
       0.055223666 0.056287456 0.054096766 0.1122572
000140 07 0f 1c 3e f2 85 eb 3d 87 27 53 3c ca f9 f3 bd
       0.15240107 0.115001574 0.012887842 -0.11912878
000150 29 1f 50 3c be c6 1b 3e bf 37 ee 3d be 3f c7 3c
       0.012702742 0.15212533 0.116317265 0.024322387
000160 e7 ba b9 bd 92 f2 0a be d5 64 16 bd d0 24 57 bc
       -0.09068852 -0.13569096 -0.036717255 -0.013131335
000170 23 af 5b 3d d4 bc b8 3b d2 07 c5 bd ca ba 28 be
       0.05363382 0.0056377444 -0.09620632 -0.16477504
000180 dc f7 a0 bd d3 cc 3a 3d c0 37 8e bd fb 30 e3 bd
       -0.078597754 0.04560549 -0.06944227 -0.11093327
000190 40 e4 33 bd be 8c 19 3d 25 1a c0 3d 5f 27 e5 3d
       -0.043918848 0.037487738 0.09379987 0.1118915
0001a0 88 3f 6c ba 49 63 e7 bd 94 e5 be bd 93 97 11 3e
       -0.00090121524 -0.11298234 -0.09321132 0.14217977
0001b0 47 7a 03 3e bb db db bd a2 40 90 bd 28 e2 2c 3d
       0.12839614 -0.1073527 -0.07043578 0.042207867
0001c0 15 9c 2c 3e 37 14 4e 3e 9a c5 87 3c 02 0f 56 bd
       0.16856416 0.20124899 0.016573716 -0.052260406
0001d0 1d 8e 29 bd 63 ff 3c 3e 29 30 10 3e 3a e7 74 bd
       -0.041395295 0.18456797 0.14080872 -0.059790827
0001e0 cb ca 62 bd 12 cf d5 bd 27 08 43 3c 1f 34 d7 bc
       -0.05536918 -0.10439886 0.011903799 -0.02626997
0001f0 68 69 59 bc f1 03 0f 3c 6c 01 1a 3e a2 41 c7 3d
       -0.01326976 0.008728967 0.15039605 0.09729315
000200 e0 7a fa bc 55 53 4f bd cd b9 8f bd 97 23 87 3c
       -0.03057617 -0.05061658 -0.070178606 0.016496463
000210 a4 bd 84 bb fe cb a9 bd 69 d9 8f 3c d1 04 bb bd
       -0.0040509272 -0.082908615 0.017559724 -0.09131778
000220 d7 50 6d 3c 83 a4 e6 3d 6d 86 85 3d de 70 ad 3d
       0.014484606 0.11261847 0.0651978 0.08468793
000230 2d 17 8c bd 46 2a 43 3d 4a db 68 3d 4d d0 0d 3e
       -0.06840358 0.047647737 0.056849755 0.13848992
000240 0e 64 7f 3d d9 5e 8a bd c2 f1 e2 bc 12 7d 83 bd
       0.06235128 -0.06756372 -0.02770317 -0.0642034
000250 08 1b c5 3c 27 ce 41 3d 3f 55 59 3d 7c 9b cd bc
       0.024060741 0.047315743 0.053059813 -0.025098555
000260 0b 92 13 3c 89 b8 a9 3d dd 7c 35 3c 23 84 3c bc
       0.009006987 0.082871504 0.011077133 -0.011506113
000270 99 57 82 bd ca 71 83 3c 45 12 66 3c 1e 63 8f 3c
       -0.06364364 0.01604547 0.014042442 0.017503317
000280 05 ec e8 bc 7a 9a d6 bd 98 ee bf 3d 03 b1 7d bd
       -0.028432855 -0.10478683 0.0937168 -0.06193639
000290 e2 f9 d1 bc ec bb ec bd ba 09 10 be cb 27 44 3d
       -0.025631849 -0.11559281 -0.1406621 0.047889512
0002a0 79 df 47 be 64 86 28 be 42 66 58 3c b0 8e c4 3d
       -0.19518842 -0.16457516 0.013207974 0.09597528
0002b0 a3 b6 2e 3e 34 21 13 bd f1 e7 02 3d 65 ee dd bd
       0.17061858 -0.035920337 0.031959478 -0.10836486
0002c0 f0 ff bd bd be 3c 5e be f7 e0 05 bd 76 1f 3a bd
       -0.09277332 -0.21702859 -0.032685246 -0.04544016
0002d0 a4 56 aa bd d4 c9 3e be 8e a0 34 be f4 9b db 3d
       -0.08317307 -0.18631679 -0.17639372 0.10723105
0002e0 f7 6f a3 bd 61 e2 8d bd 1c 9d c0 bd 90 d2 c8 bd
       -0.0798034 -0.06927944 -0.09404966 -0.098057866
0002f0 19 49 6b 3e 5c fe fc 3d 20 89 6b 3d ab 85 97 3d
       0.22977103 0.12353203 0.05750382 0.07398542
000300 12 c6 1f 3d c6 d7 2f 3e ea 07 0b 3e cd b2 2d 3d
       0.039007254 0.17172155 0.13577238 0.042406846
000310 17 23 d7 3d 9b b8 f4 3d 19 c7 df 3d 93 e6 b1 3d
       0.1050474 0.11949273 0.10926647 0.08686557
000320 cb 76 99 bd e1 bd fa bd a1 54 26 be d8 92 77 bd
       -0.07493361 -0.12243248 -0.16243221 -0.060442775
000330 8f b9 46 be 07 21 cc 3c 12 f9 05 bd e0 00 34 3e
       -0.19406722 0.024918092 -0.032708235 0.17578459
000340 02 44 b8 bd 49 2a 44 bd 95 f5 bb bc 32 83 e7 bc
       -0.089973465 -0.04789189 -0.022944251 -0.028260801
000350 13 01 8c 3e b0 9c 76 bc 84 8b 45 bd 8e c3 0b 3d
       0.2734457 -0.015052006 -0.048228756 0.034122042
000360 91 79 ea bd af 1b 19 3e 1c 3c 49 3c 4b 2e be bd
       -0.11448968 0.14951967 0.012282398 -0.092861734
000370 44 d1 91 bd 1d b8 47 be 04 f6 af bd fa 70 51 bd
       -0.071199924 -0.19503827 -0.08591846 -0.051133133
000380 fa 45 d5 bd 78 fb 92 bc b0 94 27 3e ff 34 01 3c
       -0.104137376 -0.017942175 0.16365314 0.00788617
000390 a0 10 cf 3d e4 69 98 bd 2d 3f cc bb ba 49 8b 3d
       0.10110593 -0.07442072 -0.006233117 0.068011716
0003a0 2d 6b 34 bd f3 53 ca 3d 4f 48 a8 bd cb 97 87 3c
       -0.044047523 0.09879293 -0.08216917 0.016551873
0003b0 27 19 b4 bc 2d ef d8 bd 51 cb 36 3e 23 fc e8 3d
       -0.02198465 -0.10592494 0.17850997 0.11376216
0003c0 dd 8c 97 bc f1 d1 09 bd 2a 5c 08 be 8d 2d 77 3d
       -0.018499786 -0.03364748 -0.13316408 0.060346175
0003d0 c5 49 c6 3c 7d 47 40 bd 72 e1 2a bd 29 76 0f be
       0.024205098 -0.046943177 -0.041718908 -0.14009918
0003e0 2a 58 95 bd bb e9 1c be 15 d0 c1 bb 94 cd c5 bc
       -0.072922066 -0.15323536 -0.005914698 -0.024145879
0003f0 8f ed de bc 7f db 14 bd f3 62 02 bb 87 c6 80 bc
       -0.027212886 -0.03634214 -0.0019895404 -0.015719665

module.residual_layers.0.1.bn1.weight f4 [16]
000000 6f cf 5a 3f ac a7 1b 3f cf cb 10 3f 25 02 24 3f
       0.8547277 0.6080272 0.5656099 0.6406577
000010 e4 bd 15 3f 2d 60 23 3f 4f fa 28 3f df c7 01 3f
       0.58492875 0.6381863 0.6600694 0.50695604
000020 fa a8 d5 3e 3a 78 34 3f 60 d9 04 3f 0e 19 1f 3f
       0.4173048 0.7049595 0.5189419 0.62147605
000030 44 d0 14 3f 38 51 e1 3e 5e ec 1b 3f 25 a5 0e 3f
       0.5813029 0.44007277 0.6090754 0.5572074

module.residual_layers.0.1.bn1.bias f4 [16]
000000 3d 9f 6b bf 2d c7 26 3b a2 e1 a3 3c d2 c5 73 be
       -0.92039853 0.0025448308 0.020005051 -0.23805931
000010 6d 70 2d be 6f da 50 be 9a 9b b7 be 23 42 17 be
       -0.16937418 -0.20395826 -0.35860902 -0.14771323
000020 76 ca 93 3e bf ce 1f bf 39 81 fb bd d9 63 c7 be
       0.28865403 -0.62424845 -0.12280507 -0.38943365
000030 0d 07 2f be 1d b2 ce 3d bc 67 7b be d6 fe f5 bd
       -0.17092533 0.10092566 -0.2455129 -0.12011497

module.residual_layers.0.1.bn1.running_mean f4 [16]
000000 b6 c7 56 bf e7 1f b3 bf f1 df f9 be 2f 0a 70 be
       -0.83898485 -1.3994111 -0.48803666 -0.23441385
000010 07 5f f6 be a3 ec 6c bf 10 61 ae be 70 b4 cf bc
       -0.48119375 -0.9254858 -0.34058428 -0.025354594
000020 cc c1 12 bf e7 dc 56 bf 14 8e 47 3e 5e 53 ca be
       -0.5732696 -0.8393082 0.19487792 -0.3951673
000030 e7 64 81 be 6f 1b 71 bc 26 71 63 bf 1d 1b 6f be
       -0.25272295 -0.014716013 -0.88844526 -0.23350187

module.residual_layers.0.1.bn1.running_var f4 [16]
000000 c8 a5 29 3f c6 db 84 3f 7c 52 35 3f 08 fe 30 3f
       0.6626859 1.037957 0.70828986 0.6913762
000010 1d dd 47 3f 52 06 48 3f e4 e2 15 3f 42 7e 2f 3f
       0.7807177 0.78134644 0.5854933 0.6855203
000020 24 d6 9c 3f 07 6e 09 3f 16 ec 8f 3f 9f 57 5c 3f
       1.225285 0.53683513 1.1243923 0.860712
000030 1f 8a 3a 3f fb c5 87 3f 66 5b 51 3f a0 60 3d 3f
       0.72867006 1.0607294 0.8178009 0.73975563

module.residual_layers.0.1.conv2.weight f4 [16, 16, 5, 5]
000000 9b 48 28 3d 68 6c 2d 3e 26 05 d1 3d 33 13 f8 bd
       0.041084867 0.16935885 0.1020606 -0.12113037
000010 39 b0 53 bd 64 c9 a2 3b 04 5e e6 3d bd 66 01 3e
       -0.05168173 0.0049678553 0.11248401 0.12636848
000020 ce 64 00 bd 66 26 d6 3c 27 ff 11 3c 29 1d 1a 3d
       -0.031346135 0.026141357 0.008910931 0.037625466
000030 6c d4 a2 3d 7b 2c 1b bc 4d f3 2f 3d 59 60 c4 3c
       0.079506725 -0.009471054 0.04295664 0.023971723
000040 01 a4 5d 3d 24 f5 93 3d be a3 5e bb 13 8a c4 3b
       0.054111484 0.07224491 -0.003397211 0.005997905
000050 e0 71 af 3d 52 13 6d bc 4d 85 29 bc 0d 81 0f 3c
       0.08566642 -0.014469938 -0.010346723 0.008758795
000060 65 05 c6 3c 8a b8 8e 3d c1 3a 28 3d ba 2f fc 3c
       0.024172494 0.06968792 0.041071657 0.030784477
000070 41 55 c2 3c a1 fb a1 bc af 83 a0 3d d7 d6 42 3d
       0.023722293 -0.019773306 0.07837617 0.04756817
000080 ad ec 11 3d c3 79 38 3d 36 01 85 3c 10 0a da 3d
       0.035626102 0.045037996 0.016235929 0.106464505
000090 2e 61 83 3d 02 ca 5b 3d 86 a3 73 3d b5 99 17 3d
       0.0641502 0.053659447 0.05948212 0.03701182
0000a0 e5 7a 47 3d 25 73 45 3b 6d 10 87 bb cf a0 5a 3c
       0.048701186 0.0030128446 -0.004121831 0.013344004
0000b0 75 fa 5d 3c 0e 63 0e 3e af 61 9f 3d 2c ce 7a 3d
       0.013548483 0.13904974 0.077823035 0.061231777
0000c0 c9 c3 d5 3d 2c 5e c7 3d 6b 45 bb 3d 2f c7 a5 bd
       0.10437734 0.09734759 0.091441 -0.08094632
0000d0 35 19 18 3c 9d 99 93 bd 4a b2 24 bd 1a 6b bc 3d
       0.009283354 -0.07207034 -0.040209092 0.092001155
0000e0 cb 26 94 bd 73 73 5f 3c 7f 6e 68 bd 28 08 ac bd
       -0.07233962 0.013638365 -0.056746002 -0.08399993
0000f0 e3 d3 3f 3e 10 1c 38 3d 11 80 ee 3d 15 7d 42 3d
       0.18733172 0.044948637 0.116455205 0.04748257
000100 23 3d 25 bc d8 95 96 3d 13 2a e0 bd ea 6c 69 3a
       -0.010085377 0.07352799 -0.10945525 0.0008904474
000110 ea 6e 24 bc 4c 68 9c 3c 8b 61 1f 3e 77 c3 dc bc
       -0.01003621 0.019092701 0.15564553 -0.026948674
000120 a1 12 5b 3d 7a 78 18 3d 79 c5 c4 3d 55 b3 44 be
       0.053484563 0.03722427 0.096079774 -0.19209035
000130 0d 76 fd bd e5 e6 1a bc e8 2d 8d bc d7 ac 08 3d
       -0.12376032 -0.009454464 -0.017233804 0.033367958
000140 08 d7 14 bd 92 c9 cd 3b 70 af ce 3c 7c ca 7c 3a
       -0.036337882 0.0062801326 0.02523014 0.00096432096
000150 f2 e3 51 3c d0 de d0 3d 63 de f7 3d c7 c6 bc 3d
       0.012810694 0.10198748 0.12102964 0.09217601
000160 69 6b 54 3d 18 ea 41 3d 83 c5 62 bc 16 57 64 3c
       0.051860247 0.04734239 -0.013841036 0.0139367785
000170 36 5a 8b 3a 2d db 7d bd e2 56 fc bd 53 d3 59 3d
       0.0010631743 -0.0619766 -0.12321259 0.05318005
000180 ae e5 9e 3d 0a f3 ac 3c 98 d7 1f bd 55 21 40 bd
       0.07758652 0.021111984 -0.039023966 -0.046906788
000190 ce 20 95 bd 9c 55 e4 3d a0 86 24 3e 55 60 cc 3d
       -0.072816476 0.11149141 0.1606698 0.099793114
0001a0 75 98 cf 3d 9f 10 89 bc 3d 05 bf 3d d2 58 43 3d
       0.10136501 -0.016731558 0.09327171 0.047692128
0001b0 4d 46 1a bd a4 79 62 bd a2 61 5f 3c df 70 66 3d
       -0.0376647 -0.055291787 0.013634117 0.056259986
0001c0 3d 28 8a bc 83 ef 62 bd b2 28 6b bd 84 fe 63 3d
       -0.01686489 -0.055404197 -0.057411857 0.055662647
0001d0 a3 bb 6a 3d 37 0a fa 3a df de a1 bc 68 41 80 3b
       0.05730785 0.0019076531 -0.019759594 0.003914047
0001e0 db 02 d9 3d d9 e9 44 3d 73 64 ac 3d 59 41 d5 3d
       0.10596248 0.048074577 0.08417597 0.10412855
0001f0 64 61 d4 3d 8c 14 05 bd 5a 67 57 3d 03 92 8f 3d
       0.10370138 -0.0324903 0.052588798 0.070102714
000200 00 e9 02 3d 2f a1 a2 bd 66 72 22 bd 55 22 08 3d
       0.031960487 -0.079408996 -0.03965988 0.033235867
000210 84 d0 13 3c 85 59 0a bd 21 b2 a7 bd 8b d1 ab bc
       0.009021882 -0.03377678 -0.08188272 -0.020973941
000220 58 c1 b7 3d 34 1b ca 3d 4c 7e 85 3d b9 a7 91 3d
       0.08972424 0.0986847 0.0651823 0.07112069
000230 b5 0c 81 bd 1d ad 8f 3d 5b 32 7d 3d ae 8f 11 3d
       -0.06301252 0.070154406 0.0618156 0.035537414
000240 fc d9 06 bb a8 80 2a be af e9 4e bc 86 60 39 3d
       -0.0020576706 -0.16650641 -0.012628957 0.045258068
000250 b5 40 0a bc 79 d6 02 bd 86 9a 54 bd 85 2c f9 bc
       -0.008438279 -0.03194282 -0.051905178 -0.030416736
000260 a3 30 f5 bc bc f7 ed bc 2a 9b 2a bd ca f8 02 bd
       -0.029930418 -0.029048793 -0.041651882 -0.031975545
000270 28 ed bd bb 8e aa 38 bc 76 59 09 bd ec 54 c9 bd
       -0.0057960935 -0.011271132 -0.033532582 -0.09830651
000280 e0 e6 ec 3c 5f 1d 22 3d b9 65 50 3d 24 4f c4 39
       0.028918684 0.03957879 0.05087826 0.00037442998
000290 47 8d d6 bc 42 1d 5a bd 30 2a fc bc 95 65 b4 bc
       -0.026190413 -0.05325056 -0.030781835 -0.022021094
0002a0 cc 58 20 bd 5a be 0e bd 62 5d 47 be 90 9c 0f be
       -0.039147183 -0.034849502 -0.19469216 -0.14024568
0002b0 86 be ef bd 75 74 27 be 52 b9 00 be 18 b9 ad 39
       -0.11706261 -0.16353019 -0.12570694 0.00033135037
0002c0 61 30 a7 3d 02 8a ec 3d 0a 11 87 3d 36 a2 3e bd
       0.081635244 0.115497604 0.06595047 -0.046541415
0002d0 79 44 ad bd ee b8 41 bd f6 2a 71 3c 41 a1 cc 3b
       -0.08460326 -0.047295503 0.014719715 0.006244809
0002e0 e3 f8 a5 bd 50 a6 99 bb 3c 91 06 3d 64 5e b1 3d
       -0.08104112 -0.0046890154 0.03285335 0.08660582
0002f0 fa e6 48 3c d1 a5 2c be 20 d6 95 3d 00 39 b5 3d
       0.0122621 -0.16860129 0.07316232 0.088487625
000300 2e 9b b8 3d b8 4d 83 bc ba 32 49 be 88 fe 54 3e
       0.09013973 -0.01602827 -0.19648257 0.20800221
000310 19 8b da 3d 64 be 93 3d c8 e4 37 3b ba 15 a0 bd
       0.10671062 0.072140485 0.0028059948 -0.07816644
000320 a7 c0 5a 3d e6 59 2b 3d 24 33 e6 3c 2c b5 87 bd
       0.053406384 0.04183378 0.028100558 -0.06626353
000330 b9 46 91 bd a9 e5 8f bb 78 9f 4b 3c e8 6d 33 3d
       -0.070935674 -0.0043913913 0.012428157 0.043805987
000340 7b bf 63 3b c0 0c 00 bd f1 5b 0f bd 4f 9a 5a 3d
       0.0034751582 -0.03126216 -0.03499979 0.053369816
000350 46 42 04 3e 86 10 9d 3d bb 37 24 3d 9e 30 86 3d
       0.12915906 0.07669167 0.04009221 0.06552242
000360 f8 d1 2e 3e 4e 58 4b 3e 43 bf 2e 3e 96 8e 20 3e
       0.17072284 0.19857904 0.17065148 0.15679392
000370 cc 66 af bd 32 1b 95 bc cb ef aa bc 5c 9b 89 3c
       -0.08564529 -0.018201444 -0.020866295 0.016797714
000380 bd fd f4 3c 91 26 ad bd 66 88 00 bd f0 61 42 bd
       0.029906148 -0.084546216 -0.03138008 -0.04745668
000390 8a 26 6c bd 6e 20 fd bd 96 62 06 bd f8 2a 68 3c
       -0.05765394 -0.12359701 -0.032808863 0.014170401
0003a0 93 83 82 3c 1d df 9e 3c b2 c4 ff bc b1 00 5e bc
       0.01593188 0.019393498 -0.031221721 -0.0135499695
0003b0 1e 3b 25 bd c3 8b 22 bd 53 b3 44 bd 3a 38 02 bd
       -0.04033958 -0.03968407 -0.04802258 -0.031791903
0003c0 cc d1 68 bd bd 60 ec bc 40 73 c8 bc 23 f7 b8 bc
       -0.056840703 -0.028854722 -0.024469018 -0.022578781
0003d0 4a 6c 63 bc b8 e1 a3 bc 76 79 5b ba 10 f6 de bc
       -0.013880799 -0.020005092 -0.0008372286 -0.027216941
0003e0 89 57 72 bd c0 a4 de bd 6e ac 3c 3d d4 64 ec 3c
       -0.05916551 -0.10871267 0.04606288 0.028856672
0003f0 88 8c c4 3b 32 1b 01 bc ff e9 64 3d c4 34 8f 3d
       0.005998198 -0.007880019 0.05588722 0.06992486

module.residual_layers.0.1.bn2.weight f4 [16]
000000 49 a1 29 3f d1 be 4a 3f 52 9c 4f 3f 83 dd 7e 3f
       0.66261727 0.7919741 0.810979 0.9955675
000010 8c 94 2d 3f 57 07 66 3f e8 f0 1d 3f 19 40 3e 3f
       0.6780479 0.8985495 0.6169572 0.74316555
000020 e3 a6 29 3f db 03 12 3f 11 d8 04 3f 6c bb 5b 3f
       0.66270274 0.5703713 0.5189219 0.8583286
000030 48 29 54 3f 75 45 3d 3f bf 7d 5a 3f b0 58 37 3f
       0.8287549 0.7393411 0.85348123 0.716197

module.residual_layers.0.1.bn2.bias f4 [16]
000000 48 05 46 3e d9 03 0b be 5f 50 e9 bd bb 3e a5 be
       0.19337952 -0.13575687 -0.11392283 -0.32274422
000010 d2 5e aa bd 19 60 0c 3e a6 f8 ea 3c 16 ca 1c be
       -0.08318867 0.13708533 0.028683018 -0.15311465
000020 7d 4d 0d be ad dc 84 be eb 0b 7c 3d 90 c4 3d bd
       -0.1379909 -0.25949612 0.061534803 -0.046330035
000030 4f 6e cf be ce 46 67 3c 9a 0e f1 be 30 aa 6c 3e
       -0.40513846 0.014116002 -0.47081453 0.23111796

module.residual_layers.0.1.bn2.running_mean f4 [16]
000000 a8 ff b5 3f 17 17 28 3e 4d a4 a3 3e b1 3d 2b bf
       1.4218645 0.16415058 0.3196129 -0.6689101
000010 0e f8 2a bf f7 7c 32 bf b3 29 11 be f9 a2 b9 be
       -0.6678475 -0.6972193 -0.14176063 -0.3625715
000020 26 c1 0f be a9 30 60 be 2b 58 3a bf ea 9d e8 be
       -0.14038524 -0.21893562 -0.72790784 -0.4543298
000030 69 58 02 bf e1 17 95 be 0d 4a b2 be c2 df f8 be
       -0.50916153 -0.2911978 -0.3482212 -0.48608214

module.residual_layers.0.1.bn2.running_var f4 [16]
000000 67 ae f2 3e b7 de 0c 3f 3b 70 0d 3f 0d a5 01 3f
       0.47398683 0.55027336 0.55249375 0.5064247
000010 1f 02 d9 3e 75 01 16 3f 6e bc ac 3e 66 91 e2 3e
       0.4238443 0.58595973 0.3373751 0.44251555
000020 de ae 7c 3e 5e eb ac 3e d0 9f db 3e bf 04 29 3f
       0.24676082 0.3377332 0.42895365 0.66022867
000030 87 de 01 3f c9 f5 b5 3e 1e e4 c8 3e ac fe 28 3f
       0.50730175 0.35539082 0.3923654 0.660136
