summaries/vanilla_ResNet2_num_blocks2x2_num_channels16_conv3/ckpt.pth (torch, 196843 bytes, 52 tensors)

module.conv1.weight f4 [16, 3, 3, 3]
00000000: ea67 a1ba dce0 65be 4e4e edbd 80b6 ccbd
00000010: 43d4 f0bd 33f1 babd 9854 193d e224 163e
00000020: 1b35 ef3d e93d d5bc 738b 6dbe 45eb ddbd
00000030: 3cd3 c0bd 9f84 33bd cacd 14bd 5ac9 893d
00000040: 6a51 5f3e 4fa2 5d3e fe70 aebd 2d8f 1dbe
00000050: 051f 91b9 17cf 71be 1a13 393c 0de2 013d
00000060: 8c95 c8bc 4e1e 633e 5aab 6b3e e13b 83be
00000070: b50e 68be be26 38be 18a5 22be baf5 9cbe
00000080: d435 60be ae0a 0ebe 5add 22be 7999 b3bd
00000090: 214b 043e eb0b fb3e 883b 3c3e e3cc ae3e
000000a0: 6535 1c3f ac9e 9a3e 0be5 573e 7bb8 0f3f
000000b0: 3a62 a23e d6b1 b0bd 37d3 35be 57f8 a73c
000000c0: 92ab 1fbe d59c dcbe 31d7 34be c780 33be
000000d0: 5321 abbe 203a 23be a67f a93c ab2c 82bd
000000e0: ecf7 053e db6d 87be 9850 f0be bf6c bcbd
000000f0: 9aff a1be e8fd e9be 450c a5bd a89c babd
00000100: 5441 62bd d4ce 44bb fccb ed3d 1048 693d
00000110: dab7 e13d 6872 a93c cc5d a4bd d0c5 3a3b
00000120: 15d3 60bd 09fb ff3d e50c 8dbd b763 a33e
00000130: 31db f33e 79ab 8e3e 6246 d03d 6ae3 8c3e
00000140: bf77 fd3d 971d 05b0 11ea 0fb0 5e8b 72b0
00000150: 1ea4 6e2f fc97 46af 7f4e 68b0 0c7f 36b0
00000160: 073a 93b0 8234 60b0 951d b62e 3a37 a5ae
00000170: eebf 1fb0 cf87 2730 a891 18af a381 982f
00000180: 0e58 4cb0 dc95 c6af 2a6e a5af b583 1a30
00000190: 3162 022e fa39 c02f 55a0 c42e c5ae 86af
000001a0: 4a3c 0830 785b 1130 d7ea 9f2f e79a be2e
000001b0: d584 eebc 7515 29bd 8abb ce3c 547e 7abe
000001c0: 18da 11be e71e 943e c3fe 22be 3ca8 d5bd
000001d0: f79d 953e 48d3 10be f55b d0bb 8c88 553e
000001e0: f8fe b1be 7737 04be 1ec1 e13e a345 26be
000001f0: d2e3 a7bd 23d9 943e 79dd 53be 7bd4 fabb
00000200: 1d80 153e 07a1 bbbe 0025 69bd c732 dd3e
00000210: 5b35 72be 5e81 5bbd bd49 a83e 770a 4730
00000220: 9fee 8d2f 5f8a 2f2f 2473 3030 0212 28af
00000230: c1be 262f e3f0 0a2e 8aaf f02e c413 c82f
00000240: 065f 6030 6306 0730 0123 59af b7df 9530
00000250: 5457 6430 5c10 b9af 4c29 a630 3d93 8530
00000260: 980b 4830 8db9 6e30 6dc5 b9af 28cb 85b0
00000270: 9638 8230 b9f7 89af 85a6 e3af 0150 b9af
00000280: 013a 0ab0 b110 61b0 6109 1c3e a9f5 013f
00000290: e5ba 6d3e 4471 8dbc c33a 5c3d 2c65 50bc
000002a0: 2b10 b0bd f011 fdbe 38eb 5abe a8ef 033e
000002b0: 412c fa3e dd43 7b3e 84cc 34bd 64f9 9b3c
000002c0: 71d9 17bb b188 afbd cac8 c9be 6fdb 31be
000002d0: 6da6 253e 1f6c b33e 1681 143d df48 57bd
000002e0: c6fe 84bd a83a fabd ce42 bbbc 3da9 adbe
000002f0: 12c8 53be 8ba0 adbe 8721 cfbe 6a00 13be
00000300: 3d53 8f3e b281 32bf 52c8 0c3f b367 543d
00000310: b891 233f 2a4c b43e c959 183e 81f9 e53c
00000320: c3e4 963e cc56 f83e 945a 2fbf e1c5 ff3d
00000330: ddbe d8be 9cc9 bbbd 5242 67be 7494 fa3d
00000340: bd99 f43d 8fab 2c3c ce9a 1e3f b367 9cbe
00000350: 99a1 163e 0fa2 f2bd 909f c8bd cfd8 9dbe
00000360: 059c 153e 6866 113d c618 a53d 0f0a f53e
00000370: 7f0e 8ebe c00f c0be 62d2 573d 2a70 98be
00000380: e6ac 3fbe 05ba 0b3e 6e41 8cbd 9f59 2fbd
00000390: a22c 163f 36d0 f8bd ea91 96be 99ae f43d
000003a0: 0898 a3bd a3d8 ae3d eab0 a03d e3ec 35be
000003b0: 2eba d7bd 0b60 de3e d58c 6bbe c8b7 b5be
000003c0: c20f 4b3e 4e3f 39bc 9253 023e 8e6e 06be
000003d0: b23c 6cbe 6f90 15bd 1aec 2d3e 5850 963e
000003e0: 3cb9 a63d a447 8dbc 3b74 083d 44b0 86bd
000003f0: 7030 4a3e a600 74bd 149d 3dbd 048c 7c3e
-0.0012314294 -0.22449058 -0.11587201 -0.099957466 -0.11759236 -0.09128036 0.03743419 0.14662507
0.11680051 -0.026030498 -0.23197727 -0.1083589 -0.0941529 -0.04382765 -0.03632907 0.06727858
0.21808401 0.21643947 -0.08517645 -0.15386648 -0.00027679667 -0.23614155 0.011296058 0.03170972
-0.024485372 0.22179529 0.23014584 -0.2563162 -0.2266186 -0.17983529 -0.15883291 -0.30656224
-0.21895534 -0.13871261 -0.15904751 -0.08769507 0.12919284 0.4903253 0.18382084 0.3414069
0.61018974 0.30199182 0.21083467 0.5614087 0.31715566 -0.086276695 -0.17756353 0.02050416
-0.15592793 -0.43088403 -0.17660214 -0.17529593 -0.33423862 -0.15940142 0.02069075 -0.06356176
0.13082856 -0.26451 -0.46936488 -0.09200429 -0.3164032 -0.45701528 -0.08058981 -0.09111911
-0.055238083 -0.0030030506 0.116111726 0.05695349 0.11021395 0.020684436 -0.08025703 0.0028499253
-0.054888804 0.12499053 -0.06887225 0.31912014 0.47628167 0.27865198 0.101696745 0.27517253
0.123763554 -4.842717e-10 -5.2355725e-10 -8.823714e-10 2.170428e-10 -1.8061991e-10 -8.451266e-10 -6.639176e-10
-1.071215e-09 -8.1565343e-10 8.2816566e-11 -7.5131415e-11 -5.811661e-10 6.094724e-10 -1.3876067e-10 2.774075e-10
-7.43399e-10 -3.6122472e-10 -3.0091601e-10 5.621204e-10 2.964579e-11 3.496579e-10 8.941529e-11 -2.449864e-10
4.956219e-10 5.288068e-10 2.9088795e-10 8.667716e-11 -0.029116074 -0.04128023 0.02523591 -0.24462253
-0.14243352 0.28929827 -0.15917496 -0.10432479 0.2922208 -0.14143097 -0.0063586184 0.2085287
-0.34764838 -0.12911783 0.4409265 -0.16237502 -0.0819775 0.29071912 -0.20689954 -0.007654724
0.14599653 -0.36646292 -0.05692005 0.43202803 -0.23653166 -0.05359017 0.32868758 7.241065e-10
2.58173e-10 1.5965317e-10 6.419205e-10 -1.5285909e-10 1.5165381e-10 3.1591518e-11 1.09451184e-10 3.6393832e-10
8.162576e-10 4.912179e-10 -1.9748471e-10 1.090476e-09 8.307002e-10 -3.3662928e-10 1.2089827e-09 9.718871e-10
7.277605e-10 8.684758e-10 -3.3791583e-10 -9.734764e-10 9.474828e-10 -2.5096172e-10 -4.140938e-10 -3.370815e-10
-5.0286536e-10 -8.1878243e-10 0.15237953 0.5076547 0.23215826 -0.017265923 0.053766977 -0.012719434
-0.08596834 -0.49427748 -0.21378791 0.1288439 0.48861888 0.24537607 -0.044140354 0.019039817
-0.0023170377 -0.08570994 -0.39411002 -0.17368864 0.16176768 0.35043427 0.03625592 -0.05255973
-0.06493907 -0.12218219 -0.022859003 -0.3391818 -0.2068179 -0.33911547 -0.40455267 -0.14355627
0.27993193 -0.6972915 0.54993165 0.051856708 0.63894224 0.3521436 0.14878 0.028073074
0.29471406 0.4850372 -0.68497586 0.12488914 -0.42333117 -0.09169313 -0.22583893 0.122353464
0.11943386 0.01053895 0.61954963 -0.30547866 0.14710082 -0.118473165 -0.09796059 -0.30829474
0.14610298 0.035498053 0.08061366 0.47859237 -0.27745435 -0.37512016 0.05269087 -0.29773074
-0.187183 0.1364518 -0.06848417 -0.04281008 0.58661854 -0.12149088 -0.294082 0.11947364
-0.07987982 0.08537414 0.07846244 -0.17766146 -0.10533558 0.4343265 -0.23002942 -0.35491776
0.1983023 -0.011306597 0.12727192 -0.13128111 -0.23070028 -0.036514696 0.16984597 0.29358172
0.081407994 -0.017246075 0.03331397 -0.06576589 0.1974504 -0.05957093 -0.04629238 0.24662787

module.bn1.weight f4 [16]
00000000: 9e8a b03e 749b a13e 0e84 9e3e 7ac1 242f
00000010: 5e75 a23e 6ae6 922e ec09 cb3e 5fbe ce3e
00000020: 2153 be3e 5608 953e 9468 893e db47 953e
00000030: 3532 c73e a35a a73e cb2c bb30 554b 013f
0.34480757 0.31563914 0.30960125 1.498445e-10 0.3173017 6.680241e-11 0.39656007 0.40379617
0.37172797 0.29107922 0.268376 0.29156384 0.38905492 0.32686338 1.3618772e-09 0.5050557

module.bn1.bias f4 [16]
00000000: a3ba 4abd 3e1c f53d 46b4 303e 34b4 afb0
00000010: d98e 5d3e 454b 23b0 0fe5 853e 2146 0d3f
00000020: 5730 633e 9e27 3abc 680a 9b3e 1805 a23c
00000030: 229f 00be 7942 c73e f999 e1b1 7382 c5be
-0.049494397 0.119682774 0.17256269 -1.2784143e-09 0.21636523 -5.940602e-10 0.2615132 0.55185133
0.22186409 -0.011361985 0.30281377 0.01977782 -0.12560704 0.38917902 -6.5658665e-09 -0.38576087

module.bn1.running_mean f4 [16]
00000000: 42e9 47be b87e a1bd a33e 03bd bead 0fb1
00000010: 158b 2cbd 5a8c 4631 8dfe fe3c e384 283d
00000020: 2320 51bd 9206 28be 28d2 3d3d 7250 a6be
00000030: 71d9 ae3e 714c e5bc b86b 1432 24e2 cdbe
-0.19522575 -0.07885498 -0.032042157 -2.0908e-09 -0.042124826 2.8892573e-09 0.031127239 0.041142356
-0.05105604 -0.16408756 0.046343 -0.3248325 0.3415027 -0.027990552 8.639226e-09 -0.40211594

module.bn1.running_var f4 [16]
00000000: 3bb2 723d b735 2c3d b934 913d ca8e b021
00000010: 5e97 203e 35c6 2822 3ef8 3d3e 3ad6 e03c
00000020: f735 da3d ded8 e23c 61df 8b3c eb55 fc3c
00000030: 0d4e 263d 0f9b e63c 63ac b423 5a2e 563d
0.059252005 0.042043414 0.07090134 1.196402e-18 0.15682742 2.2873176e-18 0.18551728 0.027445901
0.10654824 0.027691301 0.017074289 0.030802688 0.04060178 0.02815011 1.9588648e-17 0.052290298

module.residual_layers.0.0.conv1.weight f4 [16, 16, 3, 3]
00000000: bf4d 7bbc 6212 5bbd f008 c4bd 3838 3c3e
00000010: e7af 083e e159 863c e3b2 883d d472 3e3d
00000020: f18f 9bbd c49a 39be 4e21 0abe 2f0b 85be
00000030: a045 d53d 93d1 af3d 5df6 ccbc 0beb b83d
00000040: 793d f83d dd3f 293d c77a eebc a761 44be
00000050: 8ca3 72be a56b 353e 046e 773d e003 aabd
00000060: 136d 553e 31b3 463e 566c 943d 08a7 b4af
00000070: ee5b 12b0 185a 8baf 6f3e cbaf 273d 0eb0
00000080: 431a b1af 27a7 e1af 7f69 19b0 42a9 feaf
00000090: 47c9 22be f3ea 13bd b307 91bd 3b9d c2bd
000000a0: c891 debd d45e 24bc 3a9a 083e cdba 6abc
000000b0: 7e1b 7fbd 63e2 59ae 4f89 d1ae d048 02af
000000c0: f96b adad 24b6 132f db99 0fae e86d 7bae
000000d0: 4075 aaae d9b3 e2ae 606a 2c3c e148 7abc
000000e0: 54e2 01be 8439 93bd 1606 31bd 9af1 3ebe
000000f0: 1384 8c3c 97a0 d2bd c020 f3bd 5454 57be
00000100: 1c23 cc3a a2e6 c4bd df38 92bc afbb 16bd
00000110: f480 43bd b6ed bd3b baeb 75bd c540 eb3d
00000120: ee17 cebc 69bc 13be 6a43 4ebe 6086 c03d
00000130: eda3 313d 094c 5c3b 4b1a 0abe fe23 b2bc
00000140: 699e e83d 6629 37bd f1ae c5bb 096e 8fbc
00000150: 8601 433d f530 e03c 2833 d6ba 7b72 aa3c
00000160: 2dd1 3abd a44c 4bbd 529a 0cbe deb8 c4bd
00000170: b3c2 a73d b7f2 88bd 46b0 07be 73dd 113d
00000180: 8b78 623e 0400 31be 3a18 f7bd def6 e0bc
00000190: 725c d63d 70e4 d63c 1e61 a5bd 5906 e83d
000001a0: 19e3 4a3e b976 63be c4f1 0abe 3a82 2ebc
000001b0: 8920 0fbd ae5d e1bd 4144 a7bd 5362 d13c
000001c0: f274 af3b b8ee f63c 2764 75bc 9fb0 ffbc
000001d0: 4f28 54bc cb7d 25be bc62 d9bd 004a 0b3e
000001e0: 9d16 fe3c e724 47be d00c ea3a 8d28 0a3d
000001f0: 9af8 20bd 425d 17be f2bd 66b0 cdf1 efaf
00000200: 6072 792f 03c2 a5b0 9fc2 4ab0 91e3 05af
00000210: fd90 e5b0 214f bab0 7689 29b0 65a1 d3bc
00000220: 54e4 dd3d 0253 32bd b95b ae3d 5878 363e
00000230: eaa8 0dbc 30b1 eebd a974 173d 248f 4cbc
00000240: dc0a 553d c7ae ef3c 87c5 a4bd edba efbd
00000250: 85e5 72bd 3018 a9bd aa77 74bd b2eb afbc
00000260: 81a6 7c3d 228e e8bd f8ff 13bd 5d86 a03d
00000270: bb0b 20be b72b c2bc 52a8 db3d 4e6a 0cbe
00000280: 023a 343d f921 373e d1d0 27be 2cd1 b1ba
00000290: 91a6 e93d 0527 71be d225 38bc f70b 2e3e
000002a0: ab7f 82be 820f 933c e329 553e bfd8 ba2f
000002b0: 9a1c bd2f b728 3bae ff88 9d2f aad3 eb2f
000002c0: 3e31 bc2f 1121 2230 a016 2e30 bafd 1130
000002d0: 57dc ccbd 29bc 0ebd 767a c43c 6c52 d0bd
000002e0: 5534 2ebd b5ca 86ba 4398 bbbd 87d1 a7bc
000002f0: 0559 073d 8bc1 142e a57c 3daf ff79 daae
00000300: ff8c 982e ea5f 01af 6824 c7af 27c2 dcaf
00000310: ad9c 3daf 7599 97af c7c1 06be 455e e53c
00000320: 719d a43d b495 bebc 276b 773d a130 ae3d
00000330: 7776 4a3d 1113 5cbd f5bd 92bd 7b6a e3bc
00000340: efb3 b6bd acee 84bd c4e6 eebd 9cff 8dbd
00000350: 9b35 b43d c324 4dbe 2fe7 c83d 5130 a03d
00000360: e433 bd3d 35eb 863d 12e3 f8bb 9192 a83d
00000370: 2349 903d 6f7f b03a e391 fcbd 69b1 d1bc
00000380: 60cf 04be 16bb 113e 83a2 32bd 0e5c 68bd
00000390: 0562 a13d 9870 e9bd 42a2 d1bd 4a26 8d3d
000003a0: e1e3 b7b9 1527 bb3c fbe3 e73d 96cd d63d
000003b0: 6f75 19be fa42 103e ddce 653d 1928 3cbe
000003c0: cc3b 403e 9950 743d 4126 64be 083a 863d
000003d0: cdbd 0f3b 6c19 cdbc 1e44 883c bc08 8ebd
000003e0: 2d0a 62bc 6c9c 2e3d 1cc8 1fbd abe2 163c
000003f0: b192 f73d 938f 113c c1b5 bdbd 0a70 d13d
-0.01533836 -0.053484328 -0.09572017 0.18380821 0.13348351 0.01640028 0.06674745 0.046496227
-0.07595814 -0.18125445 -0.13489267 -0.25985095 0.104136705 0.08584895 -0.025019819 0.09029206
0.121211 0.04132067 -0.02911128 -0.19177876 -0.236952 0.17716844 0.060407653 -0.0830152
0.2084239 0.19404294 0.07247226 -3.2860492e-10 -5.324513e-10 -2.5347968e-10 -3.6969847e-10 -5.17462e-10
-3.2214773e-10 -4.104603e-10 -5.5810995e-10 -4.6322596e-10 -0.15897094 -0.036112737 -0.07081547 -0.095026456
-0.10867649 -0.010032374 0.13340083 -0.014326763 -0.062282078 -4.954116e-11 -9.5286105e-11 -1.18493e-10
-1.9715772e-11 1.3434281e-10 -3.2651087e-11 -5.716841e-11 -7.751533e-11 -1.03092375e-10 0.010523409 -0.015276165
-0.12683994 -0.071887046 -0.043218695 -0.18646851 0.017152822 -0.10284536 -0.11871481 -0.21028262
0.0015574428 -0.09614302 -0.017849384 -0.036800083 -0.0477304 0.0057961596 -0.06003926 0.11486963
-0.025157895 -0.14427342 -0.20142904 0.0940063 0.043369222 0.0033614656 -0.13486592 -0.021745678
0.11358339 -0.044717215 -0.0060328175 -0.017508524 0.047608875 0.027367095 -0.001634215 0.020806542
-0.04560964 -0.049633637 -0.13730744 -0.09605573 0.08191433 -0.06686919 -0.13250837 0.03561158
0.22116296 -0.17285162 -0.12065168 -0.027461465 0.10466851 0.026231974 -0.08075164 0.11329336
0.19813193 -0.22213258 -0.13568789 -0.010651166 -0.034943137 -0.11004196 -0.08167315 0.02555958
0.005354517 0.030143127 -0.014977491 -0.03121215 -0.012949063 -0.16161267 -0.10614535 0.13602448
0.031016642 -0.19447671 0.0017856602 0.03373008 -0.039299585 -0.14781669 -8.394344e-10 -4.3645657e-10
2.2687052e-10 -1.2060472e-09 -7.3763745e-10 -1.2177127e-10 -1.6703151e-09 -1.3555771e-09 -6.1677186e-10 -0.025833795
0.10834566 -0.043536194 0.085135885 0.17819345 -0.008646229 -0.116548896 0.03697649 -0.012485299
0.05201231 0.029258145 -0.08045488 -0.11705575 -0.059300918 -0.082565665 -0.059684433 -0.021474693
0.061682228 -0.11355235 -0.036132783 0.07838128 -0.15629475 -0.023702485 0.10725464 -0.13712427
0.044000633 0.17884053 -0.16388251 -0.0013566366 0.11408723 -0.23550041 -0.011239486 0.16996752
-0.25488028 0.01795173 0.2081676 3.398721e-10 3.4399222e-10 -4.255504e-11 2.8655475e-10 4.2896647e-10
3.423199e-10 5.8982247e-10 6.3332983e-10 5.311126e-10 -0.10002964 -0.034847412 0.023984175 -0.10171971
-0.042530376 -0.00102838 -0.09159901 -0.020485653 0.03304388 3.3823205e-11 -1.7233732e-10 -9.935163e-11
6.937206e-11 -1.1766557e-10 -3.6223757e-10 -4.015572e-10 -1.7245112e-10 -2.7575778e-10 -0.13159858 0.027999053
0.08037842 -0.023264743 0.060404923 0.08505369 0.049429383 -0.05372912 -0.07165138 -0.027760735
-0.08921038 -0.064908355 -0.11665109 -0.06933519 0.08799287 -0.20033555 0.0980972 0.078217156
0.09238413 0.06587831 -0.0075954283 0.0823108 0.070452 0.0013465713 -0.12332513 -0.025597291
-0.12969732 0.14231524 -0.043612015 -0.056728415 0.07880024 -0.11398429 -0.10236026 0.06892069
-0.00035074263 0.022845784 0.11322781 0.10488431 -0.14986204 0.1408805 0.056105483 -0.18374671
0.1877281 0.059647176 -0.22280218 0.06554037 0.0021933198 -0.025036536 0.016634043 -0.0693526
-0.013796371 0.042629644 -0.0390092 0.009209315 0.12088526 0.008884328 -0.092631824 0.10226448

module.residual_layers.0.0.bn1.weight f4 [16]
00000000: 5f4d 003f e401 c93e 8232 cd3e b7cc e13e
00000010: 0bdb b13e cbdc e63e c309 a43e 0332 cf3e
00000020: bb27 d73e 60d9 de3e b7e4 d43e 4992 d23e
00000030: 6184 ed3e 8e7b b63e 762c c93e ada5 b93e
0.5011806 0.39259255 0.40077597 0.44101498 0.3473743 0.45090327 0.32038698 0.40467843
0.420225 0.4352522 0.41580746 0.41127232 0.4639006 0.3564114 0.39291734 0.36259213

module.residual_layers.0.0.bn1.bias f4 [16]
00000000: 4af7 aabd a1d0 48be d96b b0bd e380 c13e
00000010: 9c55 233e 3d45 7abe bcb3 c83b 68d3 58bd
00000020: 35fc 6abd 5acb 933e dc42 8cbd 386c 1ebe
00000030: 3097 04bf 5e29 803e e06d 6c3e ead0 d63d
-0.08347948 -0.19610836 -0.0861432 0.37793645 0.15950626 -0.24440475 0.0061249416 -0.052935988
-0.05736943 0.28866082 -0.0684869 -0.1547097 -0.51793194 0.2503156 0.23088789 0.10489066

module.residual_layers.0.0.bn1.running_mean f4 [16]
00000000: 89c6 5abf b816 6abe 1879 3dbe e7b1 b0be
00000010: f683 a4be bd64 1ebf 6a8e 8cbe 836c 6ebe
00000020: 4154 7fbd 8564 29bd 5e7c debe 17ee 4d3e
00000030: 3d8b 41be 5482 57be 8a4e 06bf 8acf 52bf
-0.8545919 -0.22860229 -0.18503225 -0.3451073 -0.32131928 -0.61872464 -0.27452403 -0.23283581
-0.06233621 -0.04135563 -0.4345426 0.20110355 -0.18900771 -0.2104581 -0.5246359 -0.8234793

module.residual_layers.0.0.bn1.running_var f4 [16]
00000000: b1b2 ea3d 958b 523d f55e f03d a597 103e
00000010: dfe9 c83d 8980 623d e600 993d 4d52 133e
00000020: fc15 093e 04e3 e23d b385 953d 0131 cd3d
00000030: 0146 303d f0bd 9b3d 888c dc3d 3e32 a13d
0.11459864 0.051402647 0.117368616 0.14120348 0.09810232 0.055298362 0.074708745 0.14386864
0.13387293 0.11078456 0.07300892 0.100191124 0.04303551 0.07604587 0.10768992 0.07870911

module.residual_layers.0.0.conv2.weight f4 [16, 16, 3, 3]
00000000: 2958 86bd c961 a13d 6668 44bd 0fb3 49be
00000010: de34 2abe acc4 cdbd a15c b2bd 650d b1bd
00000020: 0518 4c3c 47c3 283d 86b4 8dbc 2263 b43c
00000030: 97dd b0bd 580f e63c 0f66 c23d 81ac 23be
00000040: 02c4 c33d 03b8 c93d 7d16 a73b da78 b6bd
00000050: 1dc7 cbbd de2a e539 126f f2bc 2358 00bd
00000060: 949d 363d 3591 313d 56d1 2c3d 8c31 423e
00000070: 3ace 283d 3f87 2ebd 93fd 9b3e a013 ebbe
00000080: 036f 933d 5ec1 f5bd 7ef4 12be d182 d13d
00000090: dadd 1f3e b9a2 7a3d 3d4b 47be 481e a73d
000000a0: cdd6 dcbd fb68 10be 6bc1 97bd afd7 923c
000000b0: 1058 8f3b f802 78bd 263a 383d a1ca 21bd
000000c0: f9d0 183e 57ef 433e 6795 5a3c e9ff 18bd
000000d0: 24d8 0c3c 6283 65bd 1e9e efbc e789 ef3c
000000e0: 4f79 5fbd 1c23 8d3d b190 943c 738a 993d
000000f0: 05ab bd3d c8a3 50bd 22e4 f13d 6035 3b3e
00000100: 1382 edbd 4408 a4bb f240 9e3d 4eef ccbc
00000110: bebd 49be a452 863d 4ff9 793d 54aa 54bd
00000120: e05f b0bd aa9f 7bbc d463 9dbc 17be 85bc
00000130: 902a 0fbe 59c8 a0bc 560f 6cbd b38b 1abd
00000140: b636 0a3d 7767 b03c 8ebb 1bbd 25ee bd3d
00000150: ce72 80be c0d4 5f3e 8b32 953d 5a95 ed3d
00000160: cf19 4abc 3332 f0bd f548 d0bc 3c75 75bd
00000170: d3fa d73c 61c5 bdbd 4535 d73c 3236 113e
00000180: 5ab4 f0bb 281d 7c3d 477b 37ba 5c81 3abd
00000190: 694d 85bd 1943 dcbd 5db1 873b 56a4 e1bd
000001a0: 94ec 28bc ce08 093d b92a 47bc 1257 2abc
000001b0: d229 fd3c aa2a 023d f9f7 bb3c 3b23 e1bb
000001c0: e989 f83c 7538 e83c 4b6d 15be 6865 16bd
000001d0: fa18 22bd 0edf ab3c a652 593e b04d c5bd
000001e0: 570c 963d 4b00 b9bc c1dc 61bd a438 8b3a
000001f0: d76d d63b 0f67 c83d 5f88 163e e2c4 16be
00000200: 7b8b 183b 0797 51be b6f2 dabd 2623 ae3e
00000210: 6302 ecbd dd5e f43d dce8 9b3d 925a 40bc
00000220: 34d9 573e 0078 39bd ad57 c23c 44cb 323e
00000230: c2ed bcbd 4e90 a43d 138f 80bd 1448 1abe
00000240: 9f35 8cbe d482 903d cb02 04bc aedb 25be
00000250: 04be 4e3e bf32 e93d c7fc 4e3c f8d2 19bc
00000260: 3c3f b03c 80c7 d1bc 9970 ea3c b22f 01be
00000270: 9c14 df3c 8ebf 7dbc 687b 3f3d 9edf 6fbd
00000280: 5f67 a9bc df9b c5bc 44ac 97bc 1d61 0a3e
00000290: 05f3 153e 3b82 9ebc 3d86 f43d fc2a fa3c
000002a0: f88c 8c3d aab5 edbc d69f 233d 4656 073d
000002b0: 1298 093b 974b 993d 7486 8abd 20c5 d5bd
000002c0: 9bc0 733e e648 cd3c c1cc 3d3c 96b8 1ebe
000002d0: e1f9 adbd 1d6f 1cbe e7f2 e5bd cc73 2abd
000002e0: 59ab 943d bf0d 1d3d 9751 9fbd e894 3fbd
000002f0: 550b a73d cb16 443b aa75 2f3d c370 be3d
00000300: b6d6 973b d7de 82bc 16dc 3a3a d085 9cbd
00000310: 321a 2cbc 228d 1f3d c3b2 483e 2566 623e
00000320: 3b8f 533c 5b2c c33c d639 dfbb 50de 05be
00000330: 49e1 12bc c74e 02be 3320 9fbd 55de 1e3d
00000340: da9c 5c3d 416e 823d dbd6 203d 0880 d93d
00000350: 5ca5 c53d 9ed8 29be 2966 07be 1684 48bb
00000360: a878 bcbd 727c 7fbd d232 afbd 4ede 0bbe
00000370: c106 a6bd b4be 6b3c c3db 93bd 077c 2d3e
00000380: 55bb 233e 09d8 26bc e7be c93d 60d2 643e
00000390: 61d2 94bd 2fa4 babd ad6f cfbe 352e 07be
000003a0: 5ad8 f33d 88d3 613d f498 05be b3d2 a03d
000003b0: 5dee 1b3e cda5 f9bd 56dc 1f3d 3156 873c
000003c0: 952e 0cbe a945 bf3d 41ca 023e 36c0 0ebb
000003d0: 8135 e7bd d07f 29bc 7cbd a3bd 9e06 3cbe
000003e0: 7f3d b5bd b245 a83b 7b07 f93c 8998 33be
000003f0: 5526 afbd 403a ca3d a775 0e3e a435 b63d
-0.06559784 0.07879979 -0.047951125 -0.19697212 -0.1662173 -0.10047278 -0.08709074 -0.08645133
0.012456899 0.041201856 -0.017297994 0.022019926 -0.08636015 0.028083488 0.094921224 -0.15983774
0.0955887 0.098495506 0.0050991164 -0.08909769 -0.09950087 0.00043710222 -0.029593978 -0.031334054
0.044583872 0.04335137 0.042191826 0.18964213 0.041212298 -0.04260945 0.304669 -0.4591341
0.07198908 -0.119997725 -0.14351079 0.102300294 0.15611973 0.06119034 -0.19462295 0.081600726
-0.107831575 -0.14102547 -0.074099384 0.017925112 0.0043745115 -0.060549706 0.04497733 -0.039499883
0.14923467 0.1913427 0.013341284 -0.03735343 0.008596454 -0.0560335 -0.0292502 0.029240562
-0.05455905 0.06891462 0.0181354 0.0749711 0.09261135 -0.050937444 0.11811091 0.1828208
-0.11597075 -0.005005868 0.07727231 -0.025016453 -0.19701287 0.06558731 0.061028775 -0.05192025
-0.08612037 -0.015357891 -0.01921264 -0.016325993 -0.1398108 -0.019626783 -0.057631813 -0.037730884
0.033743583 0.02153371 -0.038020663 0.09273938 -0.2508759 0.21858501 0.07285031 0.11600752
-0.012335255 -0.11728325 -0.025425414 -0.059926257 0.02636472 -0.09266163 0.026270518 0.1418083
-0.0073457183 0.061551243 -0.0006999266 -0.045533523 -0.065089054 -0.10754985 0.0041410164 -0.11017673
-0.010310311 0.033455662 -0.012156182 -0.010396736 0.03090373 0.03177897 0.022945391 -0.006870655
0.030339198 0.028347233 -0.14592473 -0.036717802 -0.0395746 0.020980384 0.21222934 -0.09633958
0.073265724 -0.022583148 -0.055142168 0.0010621739 0.0065438556 0.09785282 0.14700459 -0.14723542
0.0023276496 -0.20467769 -0.10690825 0.3401119 -0.11523893 0.11932156 0.07612774 -0.011740344
0.2107895 -0.045280457 0.023723448 0.17460352 -0.09225036 0.080353364 -0.06277289 -0.15066558
-0.2738466 0.070562035 -0.0080573065 -0.16197082 0.20189673 0.11386632 0.012633509 -0.009388678
0.021514527 -0.025607824 0.028618144 -0.1261585 0.027231507 -0.015487565 0.04674855 -0.058562867
-0.020679174 -0.024122177 -0.01851476 0.13513608 0.14643486 -0.019349208 0.119396664 0.030538075
0.06862825 -0.029017288 0.039947353 0.03304126 0.0020995182 0.07485121 -0.06763926 -0.10437989
0.23803942 0.025059175 0.011584462 -0.15500101 -0.08494926 -0.15276761 -0.112279706 -0.04161434
0.072592445 0.038343187 -0.07779234 -0.046772867 0.08156458 0.0029920812 0.042836823 0.09298851
0.00463375 -0.015975399 0.0007128132 -0.0764271 -0.010504292 0.038952954 0.19599442 0.22109278
0.012912567 0.023824861 -0.0068123145 -0.13073087 -0.008964845 -0.12725364 -0.077698134 0.03878625
0.053860523 0.063686855 0.039267402 0.10620123 0.096506804 -0.16586539 -0.13222565 -0.0030596307
-0.09202701 -0.06237454 -0.08554615 -0.13659021 -0.08106757 0.014388729 -0.072196506 0.16941844
0.1598943 -0.010183343 0.09850865 0.22345877 -0.07266689 -0.09113347 -0.4051489 -0.1320122
0.119065 0.055133373 -0.13046628 0.07852688 0.15227647 -0.12189827 0.039028488 0.016520591
-0.13689645 0.093394585 0.12772466 -0.0021782047 -0.11289502 -0.010345414 -0.07995126 -0.183619
-0.0884962 0.0051352615 0.030399075 -0.17538656 -0.08552233 0.098743916 0.13912068 0.0889695

module.residual_layers.0.0.bn2.weight f4 [16]
00000000: 8ae5 263f 2f16 f13e 6503 a03e e30b 373f
00000010: cfc7 f03e 04ba 2f3f a911 d83e 4738 ec3e
00000020: 1132 a73e cd84 cd3e 0c22 003f 4ba9 e13e
00000030: f2a6 c33e a1c6 ea3e 69d1 ef3e 25cc 163f
0.65194 0.47087237 0.3125259 0.7150251 0.47027442 0.6864321 0.42200974 0.46136686
0.32655385 0.4014038 0.5005195 0.44074473 0.38213307 0.45854667 0.46839455 0.5890525

module.residual_layers.0.0.bn2.bias f4 [16]
00000000: 8be6 09be ccb4 5b3e ac74 8f3e b4b1 87bd
00000010: 3858 a7be 9404 eebd e476 9bbd e3f6 8c3c
00000020: e477 90be c6d2 9f3e a7f9 00bf cd20 6b3e
00000030: 2bff 883e 037d 84bd c41c 543e ff58 8fbe
-0.13466851 0.21455687 0.280187 -0.06625691 -0.32684493 -0.11621967 -0.07591036 0.017207569
-0.2821647 0.31215495 -0.5038094 0.22961731 0.26757178 -0.064691566 0.20714098 -0.27997586

module.residual_layers.0.0.bn2.running_mean f4 [16]
00000000: 72b6 bdbc 9d51 1abe a97b 3c3d c87d 2bbe
00000010: 6631 2c3d a198 81be 1404 32be 0907 59bd
00000020: 518c 0b3d e6a7 9dbd c1df fabd 6dff 0dbe
00000030: 7391 1a3d 020e 15be 4ea1 5fbe c046 65be
-0.023158286 -0.15070195 0.04601637 -0.167472 0.042039298 -0.2531176 -0.17384368 -0.052985225
0.034069363 -0.0769804 -0.12249709 -0.13866968 0.037736367 -0.14556125 -0.21838877 -0.2239027

module.residual_layers.0.0.bn2.running_var f4 [16]
00000000: ef65 a53e afaa 233e a047 d43d 785f 163f
00000010: c61a 383e 2afc b03e b212 203e 4c93 063e
00000020: d7ec bd3d 6cc0 1b3e 568c 1d3e 1514 163e
00000030: 35fb 043e 171d 363e 9279 003e df64 5a3e
0.32304332 0.1598308 0.10365224 0.58739424 0.17978963 0.34567386 0.15632132 0.13142127
0.09273689 0.15210122 0.15385565 0.14656098 0.12986453 0.17784534 0.12546375 0.21327542

module.residual_layers.0.1.conv1.weight f4 [16, 16, 3, 3]
00000000: 69c6 eb3d 2e1e 173e d408 00bd f201 72bd
00000010: 884d e93d b681 f53d c4ff 1fbe d56f 75be
00000020: d1b1 86bd 89a1 153e c7ab b6bd e187 13bc
00000030: 63c9 57bd ba2d 78bd 882c 80bd cd7b 56bd
00000040: 4acf 0a3c 9648 4bbd cee8 ce3d bb8b 463d
00000050: 0425 89bc ed4d b6bd db0d 1dbd cc30 36bc
00000060: b8d6 16bd fdc3 823c fffb 923d cb08 823d
00000070: 36d9 3f3e 70b3 2d3e a66d 1dbe 3c5d efbd
00000080: f4ef 11be 3fef 91bd 72c9 26be 8247 a5be
00000090: a5fc 2c3d be8e 1c3e 5419 393e 4924 523d
000000a0: b720 ea3d 4884 d1bc 7289 ebbd 5cca 32bd
000000b0: 0b42 78be 11b0 d73d 5a7d ae3d 0af1 1f3e
000000c0: dd2e 2c3e 9b4e 21bd d9a9 47be 4309 213d
000000d0: fcab febd 6ead 31be fc63 b93d 3cc2 203e
000000e0: aa34 cabd c5ba 763d 2860 9a3d 66a5 63bc
000000f0: 8e05 f43d cdea 123d 8022 643c 7c99 3b3d
00000100: ccb6 de3c f4c7 c23b 0ef6 e23d 8052 19bd
00000110: e6d0 90bd 8064 3dbd 2e48 4bbc 5746 abbc
00000120: d062 e13d 0a8f c23d 6e2e f23d 0eeb 653d
00000130: 1b77 ff3c 5242 aa3d 586a 16bb 7ee4 c0bd
00000140: 677d c8bd b39f 17be 5eb5 5bbc 6e49 c5bc
00000150: 4eb2 f3bd e6ac 473d d6f8 453d a6d7 933d
00000160: c0e4 513d 493e 4b3c a4ad f83d 57a7 e53d
00000170: f82a f43d c98a aa3b 42ae d03c b3d1 ffbd
00000180: f594 01be 0805 18be 964f aabd 10ba a83d
00000190: d0c2 273c b297 543c 1d7b 0dbd aa92 223e
000001a0: f1ac e43d 7539 4ebc dac1 07bd 6eb6 95bc
000001b0: 6ecd 2b3d 479d a4bc f405 95bd 4ea7 73bd
000001c0: 8b90 adbd c1e1 8ebd 258f a0bd 9aa4 aebd
000001d0: 6701 c0bd c5f0 1dbe bd03 cf3c 5be5 00be
000001e0: 9063 a83d 9aa1 e53b 836b 24bd ccc7 bdbd
000001f0: 64e3 323d d733 98bd 32dd 6a3d 94db 603d
00000200: 3a18 c73d 5ed6 a6bb 68ae 833c 1d05 e73d
00000210: 6ed0 9cbc f6ff 86bc 2417 c13d 091a 423e
00000220: 1258 073e 52c0 1e3e a6a4 263d b5f2 1cbe
00000230: c050 c0bc 2fda 55be 1950 8ebe 8846 0abd
00000240: f691 973d 82c7 ac3d c64f 183d 7a6c bb3d
00000250: c595 3ebd 5976 4c3d 56dd 06be 9d69 413e
00000260: a900 9b3d 3a9f 583c 3e68 0d3e e5fc f4bc
00000270: 6fff b93c 55aa 4e3d 6ff6 25ba 8f70 983d
00000280: 46b3 02be f8ad a7bd 4faa dc3d 49ca 9c3d
00000290: b634 44bd 2cfa a0bd a13f 11be d6cf 9fbd
000002a0: fc98 4dbe 6430 c1bd 5dc2 f4bd 88ad c53d
000002b0: 78e9 0ebd 46da 0c3e ba56 4ebd c3e8 95bb
000002c0: 7e97 12bd 92e7 b63c 48ca 15bd b978 e93c
000002d0: 0b87 1dbd c022 063d 6797 ed3d 4c2f eebd
000002e0: aa43 33bc 6681 08be 3de6 f4bd abd0 5bbd
000002f0: 2bde b4bc f6e2 3e3e 5c93 393d 5639 403d
00000300: 1ccb e83c 06d3 afbd 1c00 ed3c 96f5 3a3e
00000310: cd83 07bd 4115 973d 335e 9f3c 4670 1abc
00000320: 95f5 1abe 9949 1fbc cf19 d43d 39af 823d
00000330: ca34 da3d b7c2 90bc e4ba 933d 9bec be3d
00000340: d8cf 9a3d 7686 543e 8f79 a13b 6205 03bd
00000350: cc20 a83d ddfa 423d 25bf aa3c a985 9cbd
00000360: ccd2 07be 202f c7bd aa0e 57be 7f4b 2fbe
00000370: edad a0bd fa70 87be 4882 49bd 573a 5abd
00000380: 25c8 fabd 42de 2fbd 25db 12bd bac9 89bd
00000390: d4cc ee3c 16e8 bb3d 1844 eb3c 9fe2 1b3d
000003a0: b816 95bd f713 52bd 8fa8 e9bd 69c3 3bbe
000003b0: 33ee 32be 6080 59bd 643d aebd f4a3 0abc
000003c0: d966 a0bc b1bd 96bd 4724 05be 1292 c43c
000003d0: 5d9f 643d 8648 5ebc 8734 c3bc 8c69 be3d
000003e0: e334 b3bc cc29 bbbc 2483 bf3c 7a89 bd3c
000003f0: 57d5 0cbe 1bc4 fdbc 6632 20be 477e 66bd
0.11512453 0.14757606 -0.03125842 -0.059083886 0.11391741 0.11987631 -0.1562491 -0.23968442
-0.065768845 0.14612402 -0.08919483 -0.009004564 -0.05268229 -0.060590483 -0.06258494 -0.05236416
0.008472273 -0.04962977 0.10102998 0.0484731 -0.016741283 -0.08901582 -0.03834329 -0.0111200325
-0.036825866 0.015962595 0.07176971 0.063493334 0.18735203 0.16962981 -0.15373859 -0.11687705
-0.14251691 -0.07125711 -0.16287783 -0.3228112 0.042233128 0.15288827 0.18076068 0.051304135
0.11432021 -0.025575772 -0.11500825 -0.043650016 -0.24243943 0.10531629 0.08520003 0.15619293
0.16814752 -0.039381605 -0.19498385 0.039315473 -0.12435147 -0.17351314 0.09052274 0.15699095
-0.09873326 0.06023671 0.075378716 -0.0138944145 0.11915122 0.035868455 0.013924241 0.04580067
0.027186774 0.0059442464 0.110820875 -0.037432194 -0.07071094 -0.046238422 -0.012407346 -0.020907564
0.11005175 0.09499939 0.11825262 0.05613237 0.031184724 0.08313431 -0.002295157 -0.094185814
-0.097895436 -0.14807014 -0.0134099405 -0.024082866 -0.11899243 0.048748873 0.04833301 0.07218866
0.051243544 0.012404987 0.12142494 0.11213558 0.11922258 0.0052045328 0.025473718 -0.12491169
-0.12654479 -0.1484567 -0.08315961 0.082386136 0.010239318 0.01297562 -0.034541238 0.1587626
0.111657985 -0.012586941 -0.033143856 -0.018275466 0.04194396 -0.020094527 -0.07276526 -0.059485726
-0.08474835 -0.06976653 -0.07839803 -0.08527489 -0.093752675 -0.15423878 0.025270337 -0.12587492
0.08222115 0.00700779 -0.040141594 -0.09266624 0.043673888 -0.07431763 0.057339855 0.054896906
0.09721418 -0.0050914725 0.016074374 0.11280272 -0.019142356 -0.016479474 0.09428242 0.18955244
0.1321719 0.15503052 0.040684365 -0.1532696 -0.023476005 -0.20884012 -0.27795485 -0.03375867
0.07400887 0.084364906 0.037185453 0.0915155 -0.04652955 0.049917553 -0.1317037 0.18887945
0.07568485 0.013221556 0.13809296 -0.029905746 0.022704808 0.05045541 -0.0006330972 0.07443344
-0.127637 -0.08187479 0.10774671 0.0765577 -0.04790183 -0.078602165 -0.14184429 -0.078033134
-0.2007789 -0.09433058 -0.11951134 0.09652239 -0.034890622 0.1375514 -0.050375678 -0.0045748665
-0.035789005 0.022327218 -0.036569864 0.028499948 -0.038458865 0.032747984 0.11601143 -0.11630115
-0.010941425 -0.13330612 -0.11957977 -0.0536658 -0.022078594 0.18641266 0.04530655 0.04692968
0.028417163 -0.085851714 0.028930716 0.18257746 -0.03308468 0.07377101 0.019454097 -0.009426182
-0.15132745 -0.009722137 0.10356485 0.06381077 0.106546 -0.017670972 0.07213381 0.09322473
0.07559174 0.20754418 0.004927821 -0.031987555 0.082093805 0.047602523 0.020843098 -0.07642681
-0.13264006 -0.09725785 -0.21001688 -0.17118643 -0.07845674 -0.26453382 -0.04919651 -0.053278293
-0.12245206 -0.04293657 -0.035853524 -0.067279294 0.029150404 0.09175126 0.028718993 0.03805792
-0.07279724 -0.05128857 -0.11409103 -0.18336262 -0.17473678 -0.053100944 -0.08507803 -0.008461941
-0.019580292 -0.073603995 -0.1300212 0.023995433 0.055816043 -0.013567096 -0.023828758 0.09297475
-0.021875804 -0.022847079 0.023377962 0.023136843 -0.13753258 -0.0309773 -0.15644225 -0.05627277

module.residual_layers.0.1.bn1.weight f4 [16]
00000000: 1415 f93e eadf f83e e1cf 093f 4baf e73e
00000010: 29de 003f 576e cf3e 0949 013f 8806 e63e
00000020: b230 d23e d9f4 bf3e 90a3 063f f452 053f
00000030: 6943 0d3f 9969 e43e 2b8c f73e fd47 c93e
0.48648894 0.48608333 0.53832823 0.45250925 0.5033899 0.4051387 0.5050207 0.44926858
0.41052777 0.3749149 0.52593327 0.520797 0.55180985 0.44611815 0.48349127 0.39312735

module.residual_layers.0.1.bn1.bias f4 [16]
00000000: 5906 97be 96f9 53be 6016 23be 7611 b6bd
00000010: eff3 82be 8cb9 473d d735 94bd 66aa 31be
00000020: 4d98 40be 3f47 b63d 13c6 8dbe 6a28 d4bd
00000030: 5302 58be 02a4 eabd 53fa 37be f569 1bbd
-0.2949703 -0.20700678 -0.15926504 -0.08890049 -0.25576732 0.048760936 -0.07236832 -0.17350158
-0.18808098 0.08900308 -0.2769018 -0.10359271 -0.21094637 -0.11457063 -0.17966585 -0.037942845

module.residual_layers.0.1.bn1.running_mean f4 [16]
00000000: 57e4 29be 28d1 b6be c920 2a3e 6ee5 10be
00000010: 24d5 49be b321 99be 5f72 80bd 9c13 87be
00000020: 0924 b6be e01e a8bf 0965 2abd 732b 02bf
00000030: 2f68 85bf a0eb 2ebf 9aa2 5cbe f167 e43d
-0.16591011 -0.3570645 0.16614069 -0.1415002 -0.19710213 -0.29908523 -0.062718146 -0.26382148
-0.35574368 -1.3134422 -0.04160026 -0.5084755 -1.0422419 -0.68328285 -0.21546403 0.11152638

module.residual_layers.0.1.bn1.running_var f4 [16]
00000000: 6330 6d3e 16b3 9b3e df26 ff3e bcb8 043f
00000010: 1b0c fc3e 7296 ad3e 30d3 bb3f b57e 663e
00000020: c58d 613e 33ec f53e d011 d33e 09ca d83e
00000030: e384 133f 4b20 a23e 5a2a 1e3f 81d0 a43e
0.2316299 0.3041007 0.49834344 0.5184438 0.49227986 0.33903843 1.4673824 0.22509272
0.22026737 0.48031768 0.41224527 0.4234164 0.57624644 0.31665263 0.61783373 0.32190326

module.residual_layers.0.1.conv2.weight f4 [16, 16, 3, 3]
00000000: ac9e 363c 464c 4c3e e97c e1bd 04c6 f8bd
00000010: f146 f13c 03c7 26bd d4c2 e9bd 35a5 ebbd
00000020: 0198 3f3c f0e2 4bbd ddd6 733d d47f 1dbd
00000030: 61b1 9bbb c635 4c3d d09f d7bb cff7 91bd
00000040: e0a9 e53c 7c19 4d3d 5e94 bfbb e610 38bd
00000050: f738 493d 90ca f9bd 43d4 0bbe b66f 463d
00000060: 9cb9 0abd 9227 0c3c 9375 003e 0a7d 04be
00000070: c9d8 1b3d 1415 8fbc 586b 05be 831a 01bd
00000080: 7736 133e fcfd 83be 220c 83bd c580 84bd
00000090: f379 d2bd 917b d9bd 5738 c93c 1279 9cbd
000000a0: f2e1 3bbc 8f2d c0bc 25ac e7bd 6535 89bd
000000b0: 8152 a5bd 91a7 9e3c c56a c5bd 0610 b7bd
000000c0: fc95 32be 597a 12bc 897e c53d 8f50 cdbd
000000d0: 872a 743c 42e8 383d 9bf2 ae39 cd87 95bd
000000e0: 7676 00be aec3 32be 0ddb 99be cb57 2cbe
000000f0: df54 8bbe d0b1 d7bd bb76 443d 17ee 0a3d
00000100: 9319 c13a 1aca 043d 5c20 4e3e ac5d 2a3d
00000110: 34b3 043e dc72 14bd 4ce9 00be 4cc6 1a3d
00000120: 687c 9bbd e1dc edbd 606f 15be d8f1 76bc
00000130: a122 4bbd 5116 dabd 78fa 29be 2872 65bd
00000140: 054a ddbc 44bb 843b c185 3a3d ab10 a9bc
00000150: 68f6 0e3e cec5 113d 0a39 7abd 6df1 fabd
00000160: 95ae 43be 0f67 9abd 4fe0 2b3c ffcf 81bd
00000170: e9d9 753d 40ac 0d3d 4388 063e 316d 7d3d
00000180: 5f59 183b 2d10 9fbd f701 97bd fcab de3d
00000190: 5912 203d 2f63 f63d 66f6 57bd 0531 1f3e
000001a0: e790 883d aacc 14be 7675 a0bd 0b0a 0d3e
000001b0: 5060 6ebe eb8a abbe 252f ac3c c9cc f4bd
000001c0: 00be bdbd 4601 e63d d884 42bd 17f1 98ba
000001d0: 12ef 393d b4fb 8cbb 8058 a13c 2e18 e13c
000001e0: fd1d 8c3d 7e6f a9bd 1493 c73c d41a 663d
000001f0: 23a6 d03c 77f5 c13d 7ef4 943e ac81 223e
00000200: 931b c03d b3f4 5d3d b074 3a3e 9c01 0a3d
00000210: a8b8 75bd 657d e8bd 799e 46bc 9270 7ebd
00000220: 3d71 343e adcc 803d b838 fa3c bb26 9b3d
00000230: fc88 5fbd ed3a c7bc 8287 fd3d 2f61 4c3e
00000240: a496 16be 347f 38bc be3c 2a3e 6a2f 463d
00000250: 8976 d4bb 3a57 cebd df91 45bd 5e60 a83d
00000260: cc10 183e 1b17 acbd c4be f73d 012e a2b9
00000270: 4387 85bd d6ce a6bc 8208 aa3d 7199 06bd
00000280: 7998 13bc db09 e13d f53c 17bd e2f9 1c3e
00000290: 224b 143d 71c7 d8bd 192f 99bd 4359 893d
000002a0: 26de 2fbd 9a22 f33d f92c c13d 36fa d9bd
000002b0: 387e b73c c0cd f53c 97a4 d2bd 36ae f33d
000002c0: 62eb 4c3e 6560 29be 959a 2b3d c302 f13d
000002d0: b972 20bd d287 c4bb 153c ad3d d903 cdbc
000002e0: 3288 d9bd 6f38 e73d 0d60 0bbd fe43 323c
000002f0: 60eb ccbd 5d56 bbbd 96ec 6bbc d25c b93d
00000300: f5fa dfbb a497 873c a6b1 34bc d647 02be
00000310: 1272 e33d bfc9 d83d a660 37bd f4de 953d
00000320: cdec 3d3e c67e f5bd 3fef 1e3e e279 803c
00000330: abad c2bd c57c b23d 1d72 263e 60fb fcbc
00000340: 0760 90bd 0fab 8a3d 8209 923d 0565 a53c
00000350: 64e7 203c 7551 d9bd bbdb 233d 9dbe 233d
00000360: aac4 3db9 1ea9 933d 8678 c1bd 6ccf cf3c
00000370: 88b7 303e 5904 3cbe 8913 fbba d6b1 babb
00000380: ee4f 2c3d ef86 d73d dddd f4bd a89b 07be
00000390: bed4 22bd 0662 8cbd 3842 e6bc 954e 793d
000003a0: 955d 503d a720 b0bc 9090 7f3c b029 49bc
000003b0: 52df 44bd 252d cdbc 34de c93d 7865 4e3d
000003c0: 3377 c33d b9fb b43c 721b 19bd 5d2b d2bd
000003d0: 4380 36bc def2 e8bd a195 6d3d 5872 a03c
000003e0: 074a 5cbc 2728 0fbc 9470 d33c a85b db3b
000003f0: b8ec 893d 360c 1ebe ee23 1bbc 4dd4 b33d
0.011146229 0.19950971 -0.11010153 -0.121471435 0.029452773 -0.040717136 -0.11414114 -0.1150612
0.011693955 -0.04977697 0.05953108 -0.038451985 -0.00475137 0.04985597 -0.0065803304 -0.07127344
0.028035104 0.050073132 -0.005846544 -0.04493799 0.04912659 -0.12196839 -0.1365519 0.04844638
-0.033868417 0.008554356 0.12544851 -0.12938324 0.03804854 -0.017466106 -0.1302923 -0.031519424
0.14376245 -0.25779712 -0.063987985 -0.06469873 -0.10277166 -0.106192715 0.024562998 -0.0764028
-0.011467444 -0.023459224 -0.11312131 -0.06699637 -0.08072377 0.019367011 -0.09639505 -0.08938603
-0.17440027 -0.008940303 0.09643275 -0.10025131 0.014902717 0.045143373 0.0003336862 -0.073012926
-0.1254519 -0.17457458 -0.30049935 -0.16830365 -0.2721319 -0.10531962 0.047964793 0.033918466
0.0014732353 0.0324193 0.20129532 0.04159324 0.12958986 -0.03624235 -0.12588996 0.037786767
-0.07592088 -0.11614395 -0.14593267 -0.0150723085 -0.04959357 -0.10648788 -0.16599452 -0.05601707
-0.027012834 0.004050644 0.045537714 -0.02063783 0.13961184 0.035589032 -0.061089553 -0.122530796
-0.19109567 -0.07539188 0.010490491 -0.063385 0.06002227 0.0345881 0.13137917 0.06187171
0.0023246629 -0.07766757 -0.07373422 0.10872647 0.039079998 0.120306365 -0.05272522 0.15546043
0.06668263 -0.14531198 -0.07834904 0.13773362 -0.23278928 -0.33504423 0.021018574 -0.11953122
-0.09264755 0.11230712 -0.04748997 -0.001166853 0.04539401 -0.0043024663 0.01969552 0.02747735
0.06841657 -0.082732186 0.024362125 0.05617793 0.025469845 0.09470647 0.29092783 0.15869778
0.09380259 0.05418844 0.18208575 0.03369294 -0.059990555 -0.11352042 -0.012122744 -0.062119074
0.17621322 0.06289039 0.030544624 0.075757466 -0.054573998 -0.02432009 0.12379362 0.19958948
-0.14705902 -0.011260796 0.16624734 0.04838506 -0.006483857 -0.10075231 -0.048234817 0.082215056
0.14850157 -0.084028445 0.120969325 -0.00030933323 -0.0651994 -0.020362299 0.08302404 -0.032861177
-0.00900852 0.10988208 -0.036923368 0.15329698 0.036204465 -0.105849154 -0.07479686 0.067064784
-0.042936467 0.11871834 0.09432406 -0.10643427 0.022399053 0.030005336 -0.10285299 0.118984625
0.20011666 -0.16540678 0.041895468 0.11768105 -0.039171908 -0.0059976364 0.08458725 -0.025026249
-0.1062168 0.11290061 -0.034027148 0.010880468 -0.10005832 -0.09147332 -0.014399668 0.09050907
-0.0068353363 0.0165518 -0.011028683 -0.12722716 0.111057416 0.10585355 -0.044769906 0.073179156
0.18547364 -0.11987071 0.15520953 0.015683118 -0.09505781 0.08715204 0.16254468 -0.030881584
-0.07049566 0.06770908 0.0713072 0.020189771 0.009820793 -0.1061124 0.040004473 0.039976705
-0.00018097708 0.07209991 -0.09446816 0.025367461 0.17257512 -0.18361033 -0.0019155602 -0.005697469
0.042068414 0.105237834 -0.119563796 -0.13242972 -0.039753668 -0.06854634 -0.028107747 0.060865957
0.050870497 -0.021499945 0.015598431 -0.0122780055 -0.048064537 -0.02504594 0.09856835 0.050389737
0.0954422 0.022092687 -0.03737969 -0.10262177 -0.011138978 -0.11374448 0.058004025 0.019585773
-0.013445384 -0.0087376 0.025810517 0.006694276 0.06734604 -0.15434346 -0.0094690155 0.087807275

module.residual_layers.0.1.bn2.weight f4 [16]
00000000: 3fad 063f 9ef4 a93e e843 ce3e e0c8 923e
00000010: ebdf 063f e0b9 c73e b9e2 d43e 9320 053f
00000020: 11c6 073f 9e02 cb3e 005c c33e 0107 cd3e
00000030: bfa2 023f 7ae0 8b3e e827 0b3f 7aab f23e
0.526081 0.3319444 0.40286183 0.2866888 0.5268542 0.39009 0.41579226 0.5200283
0.530366 0.39650434 0.38156128 0.40044406 0.5102958 0.273197 0.5435777 0.4739645

module.residual_layers.0.1.bn2.bias f4 [16]
00000000: be4b d53d 225a 873d 2343 e43d 5e16 593e
00000010: b88f dd3e e2ec 7d3e 7357 f93d 52a2 97bd
00000020: a055 b93d f7ee 583e bf33 153d bc17 48bb
00000030: d7be 83bd a3bf 81be ab2d 153e 6f18 9b3d
0.10414837 0.06608988 0.11145618 0.21199939 0.4327371 0.24797395 0.12174883 -0.07404007
0.09049535 0.21184908 0.036426302 -0.0030531725 -0.06432884 -0.2534152 0.14568202 0.0757302

module.residual_layers.0.1.bn2.running_mean f4 [16]
00000000: e0a3 90be bbd9 e03d d7b3 d8bc 0cf9 b4be
00000010: 8921 44be 0d42 1abc 312a 973d 0453 173c
00000020: f988 13bf 1d13 a7bd 7716 83bd 1076 17be
00000030: 9729 f33e 5efa 263e 78c7 8ebe 02ca f1bc
-0.28250027 0.10979029 -0.026452942 -0.35346258 -0.19153418 -0.009415162 0.07381094 0.009236101
-0.5763088 -0.081579424 -0.06400769 -0.14791131 0.47492668 0.16306445 -0.27886558 -0.02951527

module.residual_layers.0.1.bn2.running_var f4 [16]
00000000: 316b f23d e40c 7e3d 9013 b63d 971d 863d
00000010: 217a db3d 1de1 ec3d 2020 ba3d 738f e13d
00000020: a482 e13d 96d0 b73d fcf5 3e3d cf28 853d
00000030: add1 063e 4446 343d 95ad dc3d 3f3a 923d
0.118368514 0.062024012 0.0889045 0.065486126 0.107166536 0.115663745 0.090881586 0.11013689
0.11011246 0.089753315 0.046621308 0.06501924 0.13165922 0.044012323 0.10775296 0.07140016

module.residual_layers.1.0.conv1.weight f4 [32, 16, 3, 3]
00000000: 65f0 773c 78aa 2f3e 4102 7c3e d5a3 30bd
00000010: fb73 0abe ed1d 523d bac4 0bbd c3d3 f3bd
00000020: 633a f0bd b914 a9bd 7c7f b2bd 3bf9 b53d
00000030: 41b7 70bd 736d b7bd 0919 043c 02bb 683d
00000040: 69c4 47bb 9e86 233d f9ac 433c 9b75 0a3c
00000050: 1906 35be 0879 78bd 3703 e6bd 85bc 30bd
00000060: 1130 243d b7ea a5bc e1aa bdbd c6b7 1abc
00000070: 12c7 583d 19db 26bc 5dc4 4b3c b113 44bd
00000080: 984d 4bbc ba5e 5cbd e9d4 8ebd f801 9f3d
00000090: e5d2 28bd f0d1 e73d 66b2 a3bd a2ae 8c3d
000000a0: 70a8 083e 20cb 0abe 0938 8d3d aeab ba3d
000000b0: c4b6 62be 3917 413d 26f4 a6bc 1669 2abd
000000c0: c3a4 a43a b79b 12bd f0c9 8fbb e68c 9f3d
000000d0: d480 91bd ef76 7dbd 475f 523e a1b5 8a3d
000000e0: 3ccf 01be f6b7 c1bb 8eab 4b3e 8230 48bd
000000f0: 55b5 05be 88ff 2b3e bb74 81bd 213d 02be
00000100: b728 45be 828b 61bd 6485 a7bd 64ab a1bd
00000110: 3160 5a3d a2ec d5bb fc39 f73c 7d76 9d3c
00000120: 5c90 713d d407 633d 6622 403e 5eac adbd
00000130: 5d10 28bd 926b 223e bf4c 2cbe 70fe 38be
00000140: a15f 88bc a981 613c bd78 573d 2e72 f53c
00000150: 174b 70bc f11d 12bd bd77 ba3c 2b9b fdbd
00000160: 3b26 9c3d 372e 333c 2bc2 f8bc 507a c8bd
00000170: fc54 60be 520d af3d 2ba4 20be 4da6 09be
00000180: 58ec 2f3c 1534 febd 6670 81bd 096a 55bd
00000190: f316 54be 4128 673e a0ae bb3d 456e b7bd
000001a0: fe6b 363e a375 17bb 1c97 eabd d66d 333e
000001b0: 5de6 98bd 8fa3 5bbd 99ed beba 03a2 05bd
000001c0: 1c2c 973c 4c99 3c3d 8c7b d63d 3a45 093d
000001d0: 6b40 903c 7dc0 833c e92f 5bbd ffe3 963b
000001e0: bb8a 83bd 7594 6b3c 10b5 49bd c6cf 0e3e
000001f0: 4363 563d 44ff e7bc ade2 4fbe 4798 52bd
00000200: ff77 003e 2c39 febc 1f54 233d 7ffc 383e
00000210: 5b16 62bd fde5 a6bc 76ba 863c 8c25 3bbb
00000220: e17a a53d d026 183d 3d8b 45bd eb13 29be
00000230: fcf0 fc3c 9f65 adbd a2f9 4fbd 1fd7 35be
00000240: d435 093d 0698 15bc 27bd 49bb 751d a73d
00000250: ccb4 1b3d 2e8b 9b38 228a 643d 8b36 ff3d
00000260: 2d02 c0bd 9305 29be 337b d9bc 55f1 63be
00000270: 6627 803d 036a 28be 6dd5 17bd 5f44 c3bd
00000280: 8880 26be c2f6 fabd b88a 0b3d 80fc f23d
00000290: 1d7a 873d 50b9 e93c af4e 32bc b107 fb3d
000002a0: be5c 033b fb24 b63b e107 413d f0ac 04be
000002b0: 190b ce3c f559 243d 7510 a0bb 91ce 2a3d
000002c0: 076a 9c3c cfbb 943c defd bf3d 8c39 2bbd
000002d0: 3934 62bd 1a81 c9bc f519 0b3d dbe0 da3d
000002e0: 97d3 f43d 2ce4 923d c58d 003d 87c9 933d
000002f0: 619d 22be 0e1c 1cbd 99c0 453e 4086 903d
00000300: 382f acbe e6d9 cb3d 5def bd3d ddf6 debd
00000310: 1f28 1b3c 50b3 e83d e151 4c3e 7b33 2f3d
00000320: eb44 423d 5d91 3fbe f522 86bc a3ca a73d
00000330: 79c1 853c aae7 f33c 96b6 a43c 3810 ac3d
00000340: 80ac c0bc e829 efbc 9792 71ba b0d2 603b
00000350: 45c4 92bd 4828 bebd fa7e 483d d447 a73d
00000360: b207 cc3d eef6 5b3d 2bd7 d33d cee3 7f3d
00000370: bbe9 b43d 74d6 723d 44e1 f73d 0df4 5abd
00000380: 8c7e 9b3b 63f4 0abe b401 2abc 01ee b7bb
00000390: b19e 9bbd 2a87 e33d 7b2a aabc 6652 cf3a
000003a0: 4360 1d3e c8a1 873d b372 82bd ae3e 7a3c
000003b0: fd4d 383c 10d3 09be 4c2b 5d3d 7e94 a73d
000003c0: e5f0 db3d f83a 693d 70c6 bb3b 78b9 a33c
000003d0: 7377 773c 5d79 f23d 1dfe a7bd 477e 45bd
000003e0: 70ec ad3b d53e 92bc 5f09 d5bd 212f 96bd
000003f0: 67dc 0ebd dd2e 79bd 2058 523e c324 3cbd
0.015132998 0.17154872 0.24610235 -0.043124992 -0.13520806 0.05129807 -0.03412316 -0.11905625
-0.117298864 -0.08255906 -0.08715722 0.088854276 -0.058768515 -0.08956423 0.0080626095 0.05681897
-0.003048206 0.039923303 0.011943095 0.008450891 -0.17678107 -0.0606623 -0.11231082 -0.043148536
0.040084902 -0.020253522 -0.09261108 -0.009443229 0.052924223 -0.010184073 0.012436953 -0.04787034
-0.0124086365 -0.053801276 -0.06974203 0.077640474 -0.04121675 0.11319339 -0.07993011 0.06869246
0.13345504 -0.13554049 0.068954535 0.091147766 -0.22140032 0.047141287 -0.02038009 -0.041604124
0.001256131 -0.035793032 -0.0043880865 0.07790546 -0.0710465 -0.061881002 0.20544158 0.06772924
-0.1267671 -0.0059118224 0.19889662 -0.048874386 -0.13057454 0.16796696 -0.06321093 -0.12718631
-0.19253813 -0.055064686 -0.08179739 -0.07894018 0.05331439 -0.006528453 0.030179016 0.019221539
0.058975562 0.055427387 0.18763122 -0.08480142 -0.04103123 0.15861347 -0.16826151 -0.1806581
-0.016647162 0.013763824 0.05260538 0.029961672 -0.01466634 -0.035673086 0.022762174 -0.123831116
0.076244794 0.010936311 -0.030366024 -0.09788954 -0.21907419 0.085474625 -0.15687625 -0.13442345
0.010737501 -0.124122776 -0.063202664 -0.052103076 -0.2071188 0.2257395 0.091641665 -0.08956579
0.17814633 -0.0023110888 -0.11454603 0.17522368 -0.07465813 -0.05362278 -0.0014566659 -0.03262521
0.01845365 0.046044633 0.104727834 0.033513285 0.017608842 0.016082997 -0.053512488 0.004604816
-0.06422945 0.014378657 -0.04924494 0.13946447 0.052340757 -0.028319962 -0.20301314 -0.051414754
0.12545775 -0.031033121 0.039875146 0.1806507 -0.0551971 -0.020373339 0.016446333 -0.0028556315
0.08080078 0.03714639 -0.04822849 -0.16511504 0.030876629 -0.08466648 -0.050775178 -0.17757843
0.0334986 -0.0091304835 -0.003078291 0.08159915 0.03801422 7.4169e-05 0.055795796 0.12461575
-0.09375415 -0.16506033 -0.026548004 -0.2226003 0.06257515 -0.1644669 -0.037068773 -0.09534525
-0.16259968 -0.122540966 0.03406784 0.11864567 0.06615088 0.028530747 -0.010883017 0.122573264
0.0020044292 0.0055586076 0.047126655 -0.12956595 0.025151776 0.040124852 -0.0048847743 0.041700903
0.019093527 0.01815596 0.09374593 -0.041802928 -0.055225585 -0.024597693 0.0339603 0.10687419
0.1195442 0.071724266 0.031385202 0.07216173 -0.15880348 -0.038112693 0.19311751 0.07056856
-0.33629775 0.0995367 0.092741705 -0.10886929 0.009470015 0.11362326 0.1995311 0.042773705
0.047429007 -0.18707795 -0.01637409 0.08192947 0.016327607 0.029773552 0.020106595 0.08401531
-0.023519754 -0.029194787 -0.0009215264 0.0034305267 -0.07166342 -0.09285027 0.04894922 0.08167997
0.09962405 0.053702287 0.103437744 0.06247311 0.08833643 0.05928655 0.12103513 -0.0534554
0.00474531 -0.13569789 -0.010376383 -0.005613089 -0.07598627 0.11109765 -0.02077221 0.0015817403
0.15368752 0.06622654 -0.063695334 0.015273733 0.011249063 -0.1345942 0.05399637 0.081826195
0.10739306 0.056941003 0.0057304427 0.0199859 0.0151041625 0.118395545 -0.08202765 -0.04821613
0.0053077266 -0.017852226 -0.10402178 -0.07333208 -0.03487816 -0.060835708 0.2054143 -0.045933496

module.residual_layers.1.0.bn1.weight f4 [32]
00000000: cd40 f33e d9cd fd3e 208f 023f 0033 de3e
00000010: c319 a93e 9bd7 f93e 7e39 023f 9b1f 043f
00000020: 6cb0 e43e 7a03 e83e fca8 ad3e de07 e83e
00000030: 2517 cc3e 7135 e23e e81a 063f fd69 dd3e
00000040: e00d f33e 0e8d 033f 549a a73e 020d ca3e
00000050: f207 d23e 0b18 023f 12a9 dc3e 783d bd3e
00000060: 1ee4 bd3e 57a5 d83e e7ef d13e 2252 fa3e
00000070: 2803 cc3e f1d1 db3e 6df0 e33e f58b d63e
0.47510377 0.49571112 0.5099964 0.43398285 0.33027467 0.48797306 0.50868976 0.51610726
0.4466585 0.45315152 0.33917987 0.45318502 0.39861408 0.44181398 0.52384806 0.43244925
0.47471523 0.5138711 0.3273493 0.3946305 0.41021687 0.50817937 0.4309774 0.3696096
0.37088102 0.42313644 0.41003343 0.48890787 0.39846158 0.4293361 0.44519368 0.41903654

module.residual_layers.1.0.bn1.bias f4 [32]
00000000: 248f 87bd 46e6 1abe 58bd c8be e8ee 51be
00000010: 9792 bb3d f001 63be 7c0f 81be 2c56 b6bc
00000020: d518 e1bd b6d1 94be 65e2 573d 2a82 73be
00000030: c465 36be e307 3bbe 5d5d 27be 3f82 95bb
00000040: 50bd 03be 7b11 9ebe 943b d4ba f328 b63d
00000050: 1b23 38be 9059 88be e7dd a9bd 72e9 90bd
00000060: d9ea d2bd 0fa9 e3bd cf73 05be 479b 55be
00000070: 65b1 acbd d53d 57be f66c d3bd 1157 36be
-0.06619099 -0.15126905 -0.39206958 -0.20501292 0.09158819 -0.22168708 -0.25207126 -0.022257887
-0.109910645 -0.29066247 0.05270614 -0.23780122 -0.17812258 -0.18264727 -0.16344209 -0.0045626457
-0.12865186 -0.30872712 -0.0016192072 0.08894529 -0.17982142 -0.2663083 -0.08294278 -0.07075776
-0.102987 -0.1111623 -0.13032459 -0.20860015 -0.08432273 -0.21019681 -0.10323517 -0.1780665

module.residual_layers.1.0.bn1.running_mean f4 [32]
00000000: 0706 29bf b176 7e3e 4e93 95bf c26a ccbe
00000010: 8df8 a5bf faaf 6dbf 8322 01bf 61ff c1bf
00000020: a325 1cbe 6170 e9bf 2e1b db3e e7ba e8be
00000030: 168b 54bd 4d87 fabf 61e4 59bf 720e 09bf
00000040: b306 5bbf 421c 9bbf 2cc2 fabf c01e 02c0
00000050: 0f9e ce3e 449c abbf 5314 43bf 9f23 fe3e
00000060: a1fb 95bf 5b4d 1bbf 6738 8fbe f8ed 813f
00000070: 422a 75bf 3400 2fbf 5925 98bf 42ff 89be
-0.6602482 0.24849965 -1.1685579 -0.399252 -1.2966477 -0.92846644 -0.50443286 -1.515606
-0.15248732 -1.823742 0.42794174 -0.45455095 -0.051890455 -1.957254 -0.85114104 -0.53537667
-0.855571 -1.2117999 -1.9590507 -2.0331268 0.40354964 -1.3407063 -0.7620289 0.49636552
-1.1717416 -0.6066491 -0.2797272 1.0150747 -0.95767605 -0.68359685 -1.1886398 -0.2695256

module.residual_layers.1.0.bn1.running_var f4 [32]
00000000: 107f cc3e bea6 f03e 3416 c93e cbd3 cb3e
00000010: 0b9e 293f d1c1 023f 48e2 ef3e 715b 183f
00000020: f16f 363f 55f1 c53e e46e df3e aa54 f73e
00000030: ae22 003f 56c7 023f 2a5a 033f 33f5 fe3e
00000040: 3611 f43e 0745 293f da9a f13e bef6 2c3f
00000050: c63d af3e e2f5 ee3e c192 e33e 7e4e cc3e
00000060: 5229 e53e 324e 093f 70d0 f23e 66c1 073f
00000070: 37cc c53e 6439 f53e fcd4 c13e b38e c93e
0.3994069 0.47002214 0.39274752 0.39810023 0.6625678 0.5107699 0.46852326 0.5951453
0.7126456 0.38660684 0.4363929 0.4830678 0.50052917 0.5108541 0.51309454 0.49796447
0.4766938 0.6612095 0.47188455 0.67564 0.34226817 0.4667197 0.44447902 0.39903635
0.44758087 0.5363494 0.4742465 0.5302948 0.38632366 0.47895348 0.37857807 0.39366683
