summaries/vanilla_ResNet2_num_blocks2x2_num_channels16_conv3/ckpt.pth (torch, 196843 bytes, 52 tensors)

module.conv1.weight f4 [16, 3, 3, 3]
-0.060393322 -0.32677644 -0.21970254 -0.18826641 -0.15130648 -0.09958779 -0.050726257 0.15011814
0.21142983 -0.0024974297 -0.21756285 -0.100852504 -0.093080655 0.004459927 0.04590457 0.058898892
0.27286807 0.34262663 -0.13360487 -0.24248175 -0.08720967 -0.18981229 0.010201789 0.07127985
0.017875204 0.30145013 0.38482445 -0.3769859 -0.40120298 -0.17349693 -0.26687518 -0.48408186
-0.39103326 -0.2392491 -0.24593422 -0.11350274 0.27897102 0.64689666 0.24080727 0.61873835
0.89550287 0.39099896 0.38882428 0.80027294 0.51922566 -0.20527664 -0.23908952 0.033532765
-0.27088326 -0.583269 -0.25907555 -0.25748298 -0.5138891 -0.17200115 -0.15626885 -0.2818821
0.1391721 -0.44570717 -0.6515867 -0.173687 -0.47778636 -0.6013271 -0.19374217 -0.12952067
-0.10182249 -0.0024163371 0.14654842 0.0943998 0.1123249 0.0038108013 -0.04726268 -0.026187724
0.08003983 0.19915976 -0.0080802925 0.54622346 0.6579066 0.3901884 0.16939417 0.28862956
0.070806354 -7.120267e-09 -7.698024e-09 -1.2973778e-08 3.1912222e-09 -2.6557314e-09 -1.2426259e-08 -9.761749e-09
-1.5750068e-08 -1.199263e-08 1.2176692e-09 -1.1046405e-09 -8.544959e-09 8.961207e-09 -2.0402429e-09 4.078779e-09
-1.0930534e-08 -5.311241e-09 -4.424255e-09 8.264895e-09 4.358853e-10 5.1411493e-09 1.3147072e-09 -3.6020167e-09
7.2873245e-09 7.775164e-09 4.2769654e-09 1.2744493e-09 -0.18402681 -0.06598306 0.09385221 -0.4680492
-0.22421397 0.4643629 -0.3079606 -0.16183877 0.50819576 -0.267407 0.063159026 0.40296048
-0.53178585 -0.14660603 0.63785505 -0.33100203 -0.15573372 0.42930773 -0.29950804 -0.018523274
0.22966422 -0.44965157 -0.08782801 0.56248194 -0.291367 -0.09590845 0.443189 1.0646858e-08
3.7960306e-09 2.3474223e-09 9.438423e-09 -2.2475117e-09 2.2298225e-09 4.644934e-10 1.6092919e-09 5.3510467e-09
1.2001648e-08 7.2222806e-09 -2.903711e-09 1.6033125e-08 1.221397e-08 -4.9494537e-09 1.7776886e-08 1.4290159e-08
1.07004166e-08 1.276943e-08 -4.968477e-09 -1.4313829e-08 1.3931065e-08 -3.6900354e-09 -6.0886025e-09 -4.9560356e-09
-7.393833e-09 -1.2038845e-08 0.382134 0.7365688 0.32105783 0.09923172 0.11501746 -0.06389792
-0.21897033 -0.6594836 -0.38317746 0.20994425 0.60940754 0.35351732 -0.024585422 -0.027510727
-0.07514956 -0.2059807 -0.5978824 -0.36876854 0.21916024 0.49870345 0.20785789 -0.10238959
-0.03500484 -0.082466915 -0.19324924 -0.41706884 -0.2692853 -0.5567277 -0.58275366 -0.13455677
0.36289972 -1.063253 0.68233407 0.049491797 1.0714588 0.55037636 0.15907045 -0.023861941
0.4258 0.8300034 -1.1412024 0.17374258 -0.52517617 -0.11688237 -0.26318935 0.17642842
0.3024358 0.0197577 0.99311614 -0.44522116 0.15392843 -0.15632778 -0.15576777 -0.4686627
0.21044144 -0.037464272 0.08365328 0.7575135 -0.43128866 -0.5602019 0.17532292 -0.41721433
-0.2968685 0.22298041 -0.14861223 -0.061307013 0.8598974 -0.25934717 -0.39300728 0.2423714
-0.12061007 0.18759184 0.12810242 -0.29037106 -0.16306725 0.64644223 -0.39432615 -0.46054032
0.33957484 -0.10995099 0.110231005 -0.16888757 -0.2391283 -0.067558475 0.32024953 0.33960935
0.1855699 0.036228023 -0.0052458057 -0.01939896 0.13842458 0.025812782 0.0017367633 0.35503557
00000000: fd5e 77bd 3e4f a7be b4f9 60be e9c8 40be
00000010: 16f0 1abe aff4 cbbd 56c6 4fbd 92b8 193e
00000020: 1081 583e ebab 23bb ccc8 5ebe c28b cebd
00000030: 12a1 bebd 9424 923b 6e06 3c3d f73f 713d
00000040: 5db5 8b3e c26c af3e b7cf 08be 234d 78be
00000050: fc9a b2bd 275e 42be 6825 273c 2cfb 913d
00000060: 056f 923c ac57 9a3e b607 c53e 4c04 c1be
00000070: 7a6a cdbe 2ea9 31be dda3 88be 94d9 f7be
00000080: 8335 c8be b7fd 74be 2ed6 7bbe 2074 e8bd
00000090: 4ad5 8e3e 059b 253f 2e96 763e a365 1e3f
000000a0: ad3f 653f 0431 c83e fa13 c73e b0de 4c3f
000000b0: f9eb 043f 0a34 52be e2d3 74be a759 093d
000000c0: 36b1 8abe 1e51 15bf 8da5 84be cfd4 83be
000000d0: 3c8e 03bf 1221 30be f104 20be da52 90be
000000e0: 2283 0e3e bb33 e4be 63ce 26bf 01db 31be
000000f0: 6aa0 f4be 93f0 19bf 5964 46be 11a1 04be
00000100: 4f88 d0bd 695b 1ebb ca10 163e af54 c13d
00000110: 990a e63d a3be 793b 8396 41bd a387 d6bc
00000120: eceb a33d 89f0 4b3e 3463 04bc 4dd5 0b3f
00000130: 916c 283f c6c6 c73e aa75 2d3e 41c7 933e
00000140: ec02 913d 88a6 f4b1 4540 04b2 47e3 5eb2
00000150: 934c 5b31 1f80 36b1 447b 55b2 a0b4 27b2
00000160: c44a 87b2 2508 4eb2 ed5a a730 15d2 97b0
00000170: 21cd 12b2 cef3 1932 5534 0cb1 5225 8c31
00000180: ffc8 3bb2 2b7e b6b1 2904 98b1 65fd 0d32
00000190: 67a1 ef2f 07a6 b031 26b1 b430 5987 77b1
000001a0: fc63 fa31 8893 0532 96f4 9231 b328 af30
000001b0: 8671 3cbe 2022 87bd 9635 c03d 25a4 efbe
000001c0: 5998 65be f9c0 ed3e 03ad 9dbe 10b9 25be
000001d0: 1e19 023f 92e9 88be 8559 813d d650 ce3e
000001e0: 1e23 08bf e41f 16be 784a 233f 1979 a9be
000001f0: a978 1fbe 39ce db3e 1e59 99be 1fbe 97bc
00000200: 192d 6b3e bb38 e6be 2cdf b3bd d1fe 0f3f
00000210: 0e2e 95be a66b c4bd abe9 e23e 60e9 3632
00000220: 3d6e 8231 4a50 2131 a026 2232 a572 1ab1
00000230: 743b 1931 a25b ff2f ed2d dd30 4edc b731
00000240: ce2f 4e32 da27 f831 a08a 47b1 37b9 8932
00000250: 9cd5 5132 db0f aab1 c9b3 9832 c980 7532
00000260: eed4 3732 8c60 5b32 30b7 aab1 e3e8 75b2
00000270: 7955 6f32 ca93 7db1 ea33 d1b1 c049 aab1
00000280: d80c feb1 66d3 4eb2 11a7 c33e c68f 3c3f
00000290: b161 a43e 003a cb3d 468e eb3d eadc 82bd
000002a0: c239 60be ebd3 28bf d62f c4be a0fb 563e
000002b0: 2202 1c3f 3900 b53e 5e67 c9bc 2d5e e1bc
000002c0: 03e8 99bd 9bec 52be d20e 19bf 3bcf bcbe
000002d0: 8b6b 603e 0f56 ff3e b3d8 543e a2b1 d1bd
000002e0: 3c61 0fbd 6ae4 a8bd 21e3 45be 0c8a d5be
000002f0: c3df 89be b585 0ebf 582f 15bf 40c9 09be
00000300: fecd b93e ad18 88bf 72ad 2e3f e9b7 4a3d
00000310: 9025 893f 77e5 0c3f 5de3 223e 1e7a c3bc
00000320: 7502 da3e 1a7b 543f ec12 92bf 93e9 313e
00000330: f271 06bf 0660 efbd c1c0 86be a7a9 343e
00000340: ddd8 9a3e e6da a13c dc3c 7e3f 07f4 e3be
00000350: 6a9f 1d3e 6414 20be 9681 1fbe 8ff4 efbe
00000360: f67d 573e 2374 19bd 6952 ab3d 68ec 413f
00000370: ded1 dcbe 6469 0fbf da87 333e 1e9d d5be
00000380: 26ff 97be fa54 643e ce2d 18be 101d 7bbd
00000390: 3c22 5c3f 27c9 84be 4038 c9be 3530 783e
000003a0: 6a02 f7bd 1318 403e 482d 033e 84ab 94be
000003b0: 1afb 26be 3d7d 253f 1ee5 c9be f1cb ebbe
000003c0: c1dc ad3e fc2d e1bd cbc0 e13d ddf0 2cbe
000003d0: 0dde 74be 195c 8abd bff7 a33e 47e1 ad3e
000003e0: 0906 3e3e d663 143d 02e5 abbb 91ea 9ebc
000003f0: 2cbf 0d3e 5475 d33c 1ba4 e33a 39c7 b53e

module.bn1.weight f4 [16]
0.41588578 0.52600354 0.4222826 2.2032194e-09 0.48222664 9.821882e-10 0.55800235 0.6263205
0.50984 0.33337227 0.4286785 0.45454603 0.52083206 0.5657009 2.0023911e-08 0.7020403
00000000: fbee d43e 2ba8 063f 6d35 d83e 7267 1731
00000010: 69e6 f63e adfd 8630 3ed9 0e3f 8a56 203f
00000020: e084 023f c5af aa3e c07b db3e 42ba e83e
00000030: 4055 053f c6d1 103f 0c01 ac32 eab8 333f

module.bn1.bias f4 [16]
-0.031428725 0.23258027 0.31761768 -1.8796994e-08 0.3811524 -8.734858e-09 0.40024295 0.8757174
0.41079637 0.105030596 0.49037397 0.046635024 -0.23334067 0.6345391 -9.654011e-08 -0.5121338
00000000: 68bb 00bd 8629 6e3e c99e a23e 0777 a1b2
00000010: 6826 c33e 5010 16b2 a5ec cc3e 042f 603f
00000020: e753 d23e 481a d73d 4c12 fb3e 5e04 3f3d
00000030: dbf0 6ebe 2871 223f 7d51 cfb3 331b 03bf

module.bn1.running_mean f4 [16]
-0.15157601 -0.123297416 -0.21239989 -3.094776e-08 -0.08931297 4.2841265e-08 0.1320605 0.10308032
-0.165944 -0.12127805 -0.004748385 -0.5605753 0.5526606 -0.16717052 1.2824118e-07 -0.6959259
00000000: be36 1bbe 5b83 fcbd 5b7f 59be 6ceb 04b3
00000010: b8e9 b6bd 7800 3833 de3a 073e c61b d33d
00000020: 39ed 29be a060 f8bd 5798 9bbb dd81 0fbf
00000030: 2a7b 0d3f c02e 2bbe abb2 0934 3328 32bf

module.bn1.running_var f4 [16]
0.112890095 0.10406697 0.1830846 2.6750542e-16 0.39116645 5.0926633e-16 0.46207798 0.068953075
0.26752084 0.068033405 0.052017614 0.08814482 0.10627949 0.08330655 4.3893912e-15 0.14877103
00000000: ec32 e73d 1021 d53d 887a 3b3e d534 9a25
00000010: f846 c83e 39c9 1226 7c95 ec3e 4537 8d3d
00000020: 7ef8 883e 1955 8b3d 6c10 553d 4585 b43d
00000030: 10a9 d93d a09c aa3d fd24 9e27 6f57 183e

module.residual_layers.0.0.conv1.weight f4 [16, 16, 3, 3]
-0.0110328635 -0.05508821 -0.13197742 0.26836148 0.17744584 -0.029197574 0.051694013 0.032423332
-0.09641006 -0.23279358 -0.2240223 -0.29388797 0.06057488 0.045853566 -0.037739813 0.13233882
0.15633196 0.036711052 -0.05836877 -0.17573915 -0.31199515 0.22876193 0.115621604 -0.103015125
0.30687186 0.28286377 0.09447935 -4.8315765e-09 -7.828887e-09 -3.7268766e-09 -5.435695e-09 -7.608404e-09
-4.736616e-09 -6.035095e-09 -8.206078e-09 -6.8110455e-09 -0.24122483 -0.028544318 -0.07589403 -0.057223324
-0.078107454 -0.019205067 0.10868983 -0.07430341 -0.14089769 -7.2840173e-10 -1.4009943e-09 -1.7422239e-09
-2.898922e-10 1.9752497e-09 -4.8007626e-10 -8.405641e-10 -1.1397373e-09 -1.5157988e-09 -0.06172678 0.0018477314
-0.08029389 -0.0697949 -0.14783683 -0.2503167 0.008757736 -0.115291305 -0.13348782 -0.3319757
0.0016996469 -0.17693251 0.009856043 -0.075585045 -0.036710083 -0.057588555 -0.051197063 0.16179721
-0.010239098 -0.17502785 -0.36098677 0.08822026 0.074850164 0.11233293 -0.1422511 -0.028025514
0.16774367 -0.08603987 -0.018733205 -0.015864363 0.05530131 0.033202447 -0.012372522 0.023451757
0.009771662 -0.032741122 -0.26920462 -0.19901335 0.089581646 -0.00836459 -0.22852114 -0.039353732
0.22497629 -0.20326123 -0.17288466 -0.0394978 0.12577675 0.012631036 -0.043426815 0.1795351
0.24583428 -0.2841492 -0.11365617 -0.086353764 -0.06985461 -0.113457695 -0.11306874 -0.07222962
-0.015806282 -0.045274712 -0.06352841 0.07211075 0.002571943 -0.25537035 -0.104865365 0.023503339
0.0015003943 -0.24096142 -0.027586961 0.13570736 -0.114760436 -0.16331169 -1.2342599e-08 -6.4173684e-09
3.3357779e-09 -1.7732782e-08 -1.0845445e-08 -1.7905147e-09 -2.4558995e-08 -1.9931711e-08 -9.068474e-09 0.02255178
0.09531837 -0.011158832 0.115989186 0.21120144 0.07505981 -0.11554948 0.04213335 -0.012480324
-0.03448111 0.04751434 -0.026447715 -0.10868277 -0.015018833 -0.04550308 -0.059613325 -0.0083565535
0.038617898 -0.1645102 -0.025991084 0.16728775 -0.20085225 -0.033243526 0.19256023 -0.17086026
-0.0005430073 0.15416297 -0.2626097 0.010493931 0.19073133 -0.30901897 0.003167788 0.24087542
-0.30728334 -0.0045555825 0.19756392 4.9973026e-09 5.057736e-09 -6.256956e-10 4.213338e-09 6.3070837e-09
5.0332902e-09 8.672059e-09 9.311648e-09 7.8095e-09 -0.18641774 0.011522128 0.036635533 -0.20833695
-0.026229266 -0.060505737 -0.16107906 -0.06280334 0.012713762 4.9730975e-10 -2.5338747e-09 -1.4607606e-09
1.0199969e-09 -1.7300384e-09 -5.3261675e-09 -5.9042047e-09 -2.5355547e-09 -4.0545873e-09 -0.17984357 0.013505468
0.11579305 0.037780646 0.06370092 0.023382062 0.09257562 -0.0773556 -0.16744538 -0.12619653
-0.18918711 -0.114826515 -0.23627493 -0.006868166 0.19862898 -0.30699182 0.1374119 0.21575628
0.05740634 0.1323658 0.036347367 0.11314156 0.12043566 0.008913838 -0.08719319 -0.11594961
-0.17097305 0.09891204 -0.027503567 -0.06286876 0.038372755 -0.115929864 -0.1409443 0.11683232
0.062412262 0.010330768 0.25760925 0.18249364 -0.21702467 0.30630118 0.12568851 -0.31705242
0.27110428 0.07461804 -0.27674034 -0.025642266 -0.09496685 -0.029244684 -0.06337474 -0.08247926
0.02877039 -0.007098142 -0.01671498 0.07382366 0.20331936 -0.0844683 -0.092915036 0.09227968
00000000: 2fc3 34bc 2da4 61bd 1725 07be ad66 893e
00000010: 5db4 353e c02f efbc 1abd 533d 54ce 043d
00000020: a372 c5bd 7161 6ebe 1a66 65be 7c78 96be
00000030: 5e1d 783d f3d0 3b3d 1095 1abd d483 073e
00000040: 7c15 203e 545e 163d 1714 6fbd f7f4 33be
00000050: d4bd 9fbe 9140 6a3e 05cb ec3d 98f9 d2bd
00000060: 4f1e 9d3e 85d3 903e 647e c13d ff02 a6b1
00000070: cf7f 06b2 f40d 80b1 e1c4 bab1 1db6 02b2
00000080: b7bf a2b1 425d cfb1 b6fa 0cb2 9706 eab1
00000090: a403 77be c6d5 e9bc 546e 9bbd 0163 6abd
000000a0: cdf6 9fbd f253 9dbc c698 de3d 632c 98bd
000000b0: 7c47 10be b738 48b0 1b8d c0b0 0e73 efb0
000000c0: b35e 9faf f6bc 0731 5df6 03b0 710d 67b0
000000d0: f1a4 9cb0 6e54 d0b0 38d5 7cbd 942f f23a
000000e0: 1f71 a4bd a1f0 8ebd 8a62 17be 8329 80be
000000f0: 9b7c 0f3c d91d ecbd 08b1 08be b8f8 a9be
00000100: b0c6 de3a cc2d 35be 3e7b 213c 55cc 9abd
00000110: 505d 16bd fae1 6bbd 03b4 51bd 2bae 253e
00000120: e4c1 27bc 803a 33be 42d3 b8be d3ac b43d
00000130: 0b4b 993d cf0e e63d 46aa 11be c395 e5bc
00000140: ffc4 2b3e ac35 b0bd 6176 99bc fbf5 81bc
00000150: a083 623d 4aff 073d 1eb6 4abc e61d c03c
00000160: 5219 203c 8e1b 06bd 30d5 89be 28ca 4bbe
00000170: 9576 b73d a20b 09bc 7201 6abe 6131 21bd
00000180: 2f60 663e b623 50be ad08 31be 72c8 21bd
00000190: 9fcb 003e 68f2 4e3c 51e0 31bd 0dd8 373e
000001a0: fbbb 7b3e 017c 91be 91c4 e8bd 3eda b0bd
000001b0: ef0f 8fbd 825c e8bd 9590 e7bd 1fed 93bd
000001c0: 2d7c 81bc fa71 39bd 2f1b 82bd cdae 933d
000001d0: 0b8e 283b e7bf 82be a7c3 d6bd 138a c03c
000001e0: e1a8 c43a 97be 76be 0dfe e1bc dff6 0a3e
000001f0: 8507 ebbd 2e3b 27be 530b 54b2 c57f dcb1
00000200: a03b 6531 cd52 98b2 c652 3ab2 2316 f6b0
00000210: cdf5 d2b2 4c36 abb2 92cb 1bb2 83be b83c
00000220: 4736 c33d 89d3 36bc bd8b ed3d 3145 583e
00000230: f5b8 993d 35a5 ecbd 0594 2c3d 467a 4cbc
00000240: 103c 0dbd 669e 423d e1a8 d8bc 1295 debd
00000250: 8d11 76bc 7061 3abd 1a2d 74bd ede9 08bc
00000260: cd2d 1e3d 5d75 28be 41eb d4bc 7b4d 2b3e
00000270: 36ac 4dbe 5d2a 08bd 822e 453e fef5 2ebe
00000280: 9a58 0eba e6dc 1d3e c774 86be bdee 2b3c
00000290: 134f 433e bc37 9ebe aa9a 4f3b 0ca8 763e
000002a0: 3e54 9dbe ff46 95bb 324e 4a3e bdb4 ab31
000002b0: 51c8 ad31 6afd 2bb0 eac4 9031 b2b5 d831
000002c0: 4af1 ac31 1efc 1432 10f9 1f32 8b2a 0632
000002d0: 4be4 3ebe 4fc7 3c3c 240f 163d 4856 55be
000002e0: c2de d6bc ddd4 77bd e9f1 24be 0a9f 80bd
000002f0: 624d 503c 10b3 0830 6520 2eb1 f2c3 c8b0
00000300: f32f 8c30 51c6 edb0 7701 b7b1 efdd cab1
00000310: f33d 2eb1 8750 8bb1 ea28 38be 0a46 5d3c
00000320: e824 ed3d e1bf 1a3d a175 823d bd8b bf3c
00000330: 4998 bd3d 9d6c 9ebd cd76 2bbe aa39 01be
00000340: 44ba 41be 2a2a ebbd 0ef2 71be 5a0e e1bb
00000350: 6565 4b3e 082e 9dbe b5b5 0c3e 37ef 5c3e
00000360: e922 6b3d e68a 073e fae0 143d c3b6 e73d
00000370: f9a6 f63d 590b 123c 5892 b2bd fd76 edbd
00000380: 8f13 2fbe 6592 ca3d 294f e1bc 56c1 80bd
00000390: c02c 1d3d a36c edbd b453 10be c945 ef3d
000003a0: 00a4 7f3d 6242 293c 5ce5 833e 9ddf 3a3e
000003b0: b73b 5ebe 82d3 9c3e 7db4 003e b254 a2be
000003c0: 2ece 8a3e 58d1 983d e9b0 8dbe bb0f d2bc
000003d0: fb7d c2bd 8c92 efbc 9eca 81bd e3ea a8bd
000003e0: e2af eb3c 8897 e8bb dbed 88bc dc30 973d
000003f0: f332 503e b7fd acbd 3d4a bebd 21fd bc3d

module.residual_layers.0.0.bn1.weight f4 [16]
0.73050565 0.5679199 0.49106565 0.7892685 0.53688794 0.6316312 0.39545918 0.53051
0.5709636 0.76639086 0.61251897 0.5656042 0.63805056 0.53009105 0.706077 0.5097026
00000000: 6b02 3b3f 3363 113f f56c fb3e 800d 4a3f
00000010: 7d71 093f 95b2 213f a079 ca3e 81cf 073f
00000020: ac2a 123f 3132 443f 0bce 1c3f 70cb 103f
00000030: 4857 233f 0cb4 073f 76c1 343f df7b 023f

module.residual_layers.0.0.bn1.bias f4 [16]
-0.16261606 -0.3615769 -0.14231563 0.5646915 0.30238125 -0.3083904 0.036965057 -0.082178414
-0.08310306 0.4883708 -0.28465107 -0.25934047 -0.76735806 0.43893796 0.34523502 0.09830654
00000000: d384 26be 9c20 b9be 30bb 11be 9f8f 103f
00000010: b7d1 9a3e 59e5 9dbe ac68 173d 284d a8bd
00000020: f031 aabd bd0b fa3e c9bd 91be 46c8 84be
00000030: 9471 44bf 7abc e03e a5c2 b03e f054 c93d

module.residual_layers.0.0.bn1.running_mean f4 [16]
-2.0918329 -0.4798669 -0.58466923 -0.8935919 -0.76521486 -1.2191739 -0.51760507 -0.5722191
0.30909726 -0.38081333 -1.2976652 0.2254706 -0.3673493 -0.6440144 -1.3560493 -2.0013425
00000000: 97e0 05c0 1db1 f5be e2ac 15bf 70c2 64bf
00000010: 1fe5 43bf e40d 9cbf c481 04bf f37c 12bf
00000020: ff41 9e3e f7f9 c2be e519 a6bf c4e1 663e
00000030: 3515 bcbe 21de 24bf 0693 adbf ff15 00c0

module.residual_layers.0.0.bn1.running_var f4 [16]
0.5487361 0.3472813 0.73501873 0.78741646 0.54541624 0.31461254 0.44031912 0.7853247
0.8091369 0.6935819 0.43000346 0.5493833 0.29360783 0.45567364 0.6022383 0.4182351
00000000: f879 0c3f dbce b13e 302a 3c3f 2094 493f
00000010: 66a0 0b3f e514 a13e 8271 e13e 0a0b 493f
00000020: 9923 4f3f 958e 313f 6a29 dc3e 62a4 0c3f
00000030: c453 963e 0e4e e93e 4a2c 1a3f e922 d63e

module.residual_layers.0.0.conv2.weight f4 [16, 16, 3, 3]
-0.16428356 0.022629594 0.066343635 -0.25714526 -0.26557824 -0.06351529 -0.1019593 -0.19090013
0.14598426 -0.11956397 -0.0001498303 0.07300919 -0.14285564 0.105068445 0.09706292 -0.17749327
0.19953528 0.003531292 -0.0347587 -0.116878405 -0.13808908 -0.0279599 -0.015646271 -0.027208228
0.06788202 0.014978282 0.14897442 0.22852941 0.013591667 -0.061787374 0.32957566 -0.5555963
0.12488512 -0.23942897 -0.2913052 0.16871673 0.3319341 0.0659199 -0.30813646 0.23805737
-0.21998274 -0.22868493 -0.14140163 0.0009111966 -0.06390423 -0.048444442 0.13999858 0.021629315
0.1549878 0.20058778 0.046239533 0.044629853 0.04484256 -0.058501303 -0.109304555 -0.034398884
0.06472763 0.12275703 0.13200374 0.13045794 0.07304425 0.033814296 0.102934875 0.18564378
-0.026130076 -0.014935702 0.079403974 0.02949318 -0.22693522 0.13738419 0.07631458 -0.12972075
-0.13026346 0.0867536 -0.06274559 -0.043752965 -0.09984662 -0.11407112 -0.07623485 -0.059500556
0.009095568 -0.13707851 -0.1989015 0.13867864 -0.37952757 0.4122045 0.07930244 0.08749061
0.09235102 -0.2992523 -0.05908979 -0.06587538 0.106039226 -0.1341711 0.06517113 0.19769968
-0.018907173 0.13690886 -0.0260945 -0.087725416 -0.16904445 -0.08082244 0.05807294 -0.09003259
0.010416416 -0.051415294 -0.028181395 -0.051314447 -0.016822327 -0.016023615 0.014987582 -0.051411007
0.055463605 0.08560457 -0.16828068 -0.026975399 0.082407095 -0.116030924 0.12859601 -0.03168919
0.16765358 -0.034912724 -0.08034974 0.05627596 -0.025212066 0.22989891 0.22062065 -0.21953207
0.058038708 -0.25439072 -0.26236677 0.39979717 -0.16265959 0.2105124 0.06529077 -0.009493543
0.18886189 0.008642204 0.13401364 0.20221443 -0.121848114 0.14808849 -0.0728208 -0.23668444
-0.25370848 -0.06357566 0.020974623 0.00016023281 0.23134378 0.1763532 -0.016843377 0.07519572
0.09921524 -0.009243764 -0.017070517 -0.07880929 0.0218686 0.06692426 0.043375295 -0.039823886
-0.06781368 -0.049878463 -0.06265037 0.107426085 0.18790716 0.06474997 0.15311363 0.11322534
0.07476206 0.0673872 0.001538148 0.034834843 -0.025546465 0.12253736 -0.094078906 -0.09509092
0.4304473 -0.0001631357 -0.11116299 -0.2132129 -0.23374806 -0.23325218 -0.2257296 -0.051537488
0.11618889 0.20033441 -0.08698843 0.042325467 0.08281498 -0.08531529 0.06295 0.121774636
0.015413333 0.032898467 -0.00047926698 -0.065711714 -0.080204524 -0.038238984 0.15436131 0.19566873
0.12801063 -0.06413862 -0.053585973 -0.09186987 -0.049715795 -0.13253427 -0.11341819 0.10845175
0.12762845 0.15703556 -0.03761313 0.05145318 0.084997945 -0.15206224 -0.10236903 -0.05643623
-0.17101312 -0.05226639 -0.16827601 -0.16915315 -0.0732976 -0.060542632 -0.085593335 0.17204751
0.24547535 -0.05587266 0.09953271 0.25380093 -0.14625782 -0.032870647 -0.545553 -0.07793652
0.24401742 0.1401683 -0.15911603 0.095883064 0.21655077 -0.2722994 -0.02169052 0.0950736
-0.23430173 0.07051336 0.18833375 -0.16320774 -0.13464496 -0.016087351 -0.16709784 -0.18308276
-0.20429549 0.0076416256 0.05290814 -0.13789696 -0.0293148 0.11474775 0.17850177 0.10076829
00000000: f339 28be b361 b93c 2cdf 873d 8ba8 83be
00000010: dff9 87be 4e14 82bd 0ad0 d0bd 537b 43be
00000020: e67c 153e f4dd f4bd c41b 1db9 d885 953d
00000030: c048 12be 202e d73d edc8 c63d ccc0 35be
00000040: fa52 4c3e 406d 673b 235f 0ebd f25d efbd
00000050: 3967 0dbe 290c e5bc 9c2c 80bc cae3 debc
00000060: ba05 8b3d 7867 753c c08c 183e 9d03 6a3e
00000070: 95af 5e3c c214 7dbd 24be a83e 8f3b 0ebf
00000080: c5c3 ff3d de2c 75be f525 95be 14c4 2c3e
00000090: 44f3 a93e 0301 873d 10c4 9dbe 50c5 733e
000000a0: 2843 61be 622c 6abe 97cb 10be 5edd 6e3a
000000b0: 39e0 82bd ae6d 46bd ca5b 0f3e f62f b13c
000000c0: 1fb5 1e3e e266 4d3e aa65 3d3d cbcd 363d
000000d0: d5ac 373d 109f 6fbd 11db dfbd d8e5 0cbd
000000e0: eb8f 843d 0a68 fb3d fd2b 073e c496 053e
000000f0: 3998 953d dc80 0a3d 85cf d23d 6719 3e3e
00000100: be0e d6bc e0b4 74bc 8d9e a23d ae9b f13c
00000110: b561 68be 71ae 0c3e d24a 9c3d 84d5 04be
00000120: c963 05be dfab b13d c380 80bd 4f36 33bd
00000130: 627c ccbd 1f9e e9bd 0421 9cbd dbb6 73bd
00000140: 9405 153c 4f5e 0cbe d6ac 4bbe c601 0e3e
00000150: 7051 c2be 780c d33e 5169 a23d 472e b33d
00000160: 8822 bd3d 9937 99be 2308 72bd ace9 86bd
00000170: 182b d93d 2664 09be 7178 853d c971 4a3e
00000180: 37e3 9abc d631 0c3e 22c4 d5bc 62a9 b3bd
00000190: fd19 2dbe 3c86 a5bd e4dd 6d3d 0263 b8bd
000001a0: 9ea9 2a3c d898 52bd abdc e6bc 192f 52bd
000001b0: face 89bc f543 83bc 7a8e 753c 5994 52bd
000001c0: ce2d 633d 7351 af3d c551 2cbe 83fb dcbc
000001d0: 0dc5 a83d 9fa1 edbd acae 033e 86cc 01bd
000001e0: 61ad 2b3e a500 0fbd 688e a4bd 9f81 663d
000001f0: 8989 cebc 9f6a 6b3e 61ea 613e 04cd 60be
00000200: ffb9 6d3d 803f 82be f054 86be 37b2 cc3e
00000210: 3c90 26be 9090 573e 2bb7 853d ce8a 1bbc
00000220: 0365 413e 0898 0d3c df3a 093e 4d11 4f3e
00000230: 818b f9bd 82a4 173e 1223 95bd 685d 72be
00000240: 14e6 81be f533 82bd f9d2 ab3c 2b04 2839
00000250: 62e5 6c3e ef95 343e 1ffb 89bc 3700 9a3d
00000260: 5c31 cb3d 2873 17bc 78d7 8bbc c466 a1bd
00000270: c725 b33c 960f 893d 4baa 313d 5f1e 23bd
00000280: e6e1 8abd 5c4d 4cbd d64e 80bd 3502 dc3d
00000290: bc6a 403e a29b 843d d2c9 1c3e b0e2 e73d
000002a0: da1c 993d 4d02 8a3d af9b c93a fbae 0e3d
000002b0: d246 d1bc def4 fa3d 71ac c0bd 07bf c2bd
000002c0: 9763 dc3e 680f 2bb9 6ca9 e3bd 7c54 5abe
000002d0: a75b 6fbe a9d9 6ebe a925 67be f918 53bd
000002e0: 71f4 ed3d 7724 4d3e fd26 b2bd 785d 2d3d
000002f0: e69a a93d c8b9 aebd eeeb 803d fb64 f93d
00000300: 3488 7c3c 8bc0 063d 2046 fbb9 dd93 86bd
00000310: 4542 a4bd 7ba0 1cbd e410 1e3e 625d 483e
00000320: 3815 033e 1c5b 83bd f77c 5bbd 4526 bcbd
00000330: caa2 4bbd 10b7 07be cc47 e8bd f31b de3d
00000340: 08b1 023e eecd 203e 3a10 1abd 92c0 523d
00000350: 6713 ae3d 34b6 1bbe dba6 d1bd ad29 67bd
00000360: 101e 2fbe 4815 56bd 8c50 2cbe 7c36 2dbe
00000370: 0d1d 96bd 8dfb 77bd 8f4b afbd 392d 303e
00000380: e45d 7b3e bbda 64bd ced7 cb3d 32f2 813e
00000390: 9cc4 15be 5fa3 06bd 5da9 0bbf 2f9d 9fbd
000003a0: b4df 793e 4788 0f3e 50ef 22be 575e c43d
000003b0: 7cbf 5d3e d46a 8bbe 51b0 b1bc f3b5 c23d
000003c0: cbec 6fbe 4f69 903d 90da 403e ee1f 27be
000003d0: 5ee0 09be 9fc9 83bc b21b 2bbe 0c7a 3bbe
000003e0: d632 51be 9a66 fa3b 35b6 583d dc34 0dbe
000003f0: 9725 f0bc de00 eb3d 2bc9 363e 9b5f ce3d

module.residual_layers.0.0.bn2.weight f4 [16]
0.9467205 0.66356856 0.4078566 1.1630265 0.7046896 0.9977626 0.6074346 0.71198684
0.504975 0.53733027 0.7685572 0.66913074 0.5626123 0.73287565 0.62162036 0.8872041
00000000: 465c 723f a1df 293f 95d2 d03e 0dde 943f
00000010: 8a66 343f 5f6d 7f3f d580 1b3f c544 363f
00000020: 0b46 013f 7a8e 093f 2ac0 443f 274c 2b3f
00000030: 5c07 103f bd9d 3b3f 8322 1f3f cf1f 633f

module.residual_layers.0.0.bn2.bias f4 [16]
-0.28568482 0.37569964 0.42792347 -0.11989716 -0.5762485 -0.18081185 -0.11704737 0.17053196
-0.45530686 0.40700117 -0.68018395 0.30175918 0.4135417 -0.078813 0.3874368 -0.3586817
00000000: 4845 92be b45b c03e c918 db3e a48c f5bd
00000010: 0685 13bf be26 39be 88b6 efbd ee9f 2e3e
00000020: fb1d e9be 7562 d03e 8920 2ebf 2e80 9a3e
00000030: bdbb d33e b668 a1bd 1e5e c63e 21a5 b7be

module.residual_layers.0.0.bn2.running_mean f4 [16]
-0.29127783 -0.35545653 0.26922506 -0.33265257 0.14304924 -0.6010129 -0.3209488 -0.12390412
0.21637444 -0.33596742 -0.3679852 -0.007172734 0.2684647 -0.40026036 -0.51622355 -0.3712973
00000000: 5e22 95be 66fe b5be ded7 893e 7051 aabe
00000010: 807b 123e fbdb 19bf 6753 a4be 71c1 fdbd
00000020: 4391 5d3e ec03 acbe 8e68 bcbe 4109 ebbb
00000030: 3574 893e edee ccbe 3a27 04bf ae1a bebe

module.residual_layers.0.0.bn2.running_var f4 [16]
1.8771229 0.9759266 0.5583823 3.5915136 1.0526533 2.1313708 0.9561805 0.7634635
0.6030036 0.75313914 1.0243741 0.84995604 0.76289326 1.0213901 0.7786901 1.2911042
00000000: 9045 f03f 53d6 793f 24f2 0e3f 5cdb 6540
00000010: 58bd 863f 6168 0840 3fc8 743f 5872 433f
00000020: 725e 1a3f bacd 403f b11e 833f b896 593f
00000030: f94c 433f e9bc 823f 3c58 473f e742 a53f

module.residual_layers.0.1.conv1.weight f4 [16, 16, 3, 3]
0.23569846 0.22685885 0.132622 -0.13883981 0.11370016 0.15797241 -0.2591489 -0.34105507
-0.12714335 0.19626492 -0.092363365 0.010397524 0.015089007 -0.07797226 -0.06789909 -0.09325889
-0.0071321703 0.02884741 0.11044205 0.103464365 -0.06555523 0.02086328 0.019898016 -0.052871034
-0.06296839 0.03403002 0.0120114 0.059540503 0.25565663 0.2561431 -0.08949047 -0.17008518
-0.14485689 -0.15328921 -0.2317235 -0.34589374 0.14144403 0.2990167 0.31766686 -0.027492132
0.17706841 -0.022521608 -0.25103363 -0.148187 -0.39437214 0.12032919 0.20080474 0.20024668
0.17402077 -0.022325883 -0.23669696 0.049007136 -0.1402994 -0.24543342 0.149393 0.1875384
-0.09685696 0.08302045 0.039680462 -0.1122146 0.107654 0.04646809 0.06524626 0.029088752
0.008002066 0.002876258 0.109855875 0.03060061 -0.10054137 -0.112067215 0.049889624 -0.03211321
0.118557416 0.22715066 0.20344666 0.051509142 0.019281402 0.0021702042 -0.07058975 -0.083627075
-0.021709375 -0.12984802 -0.08791421 -0.05948108 -0.106147945 -0.05021742 0.0535259 0.053021576
0.040316004 0.04572383 0.22518094 0.277021 0.14976868 0.02474417 0.028469615 -0.06760721
-0.17270693 -0.14328636 -0.05758895 0.1402144 -0.01852787 -0.0059111924 0.07905582 0.14863855
0.16731381 0.0487721 -0.099945776 -0.022069378 0.06112652 0.009428449 -0.13013086 -0.01678784
-0.03636654 -0.17583789 -0.09805507 -0.17341799 -0.118050665 -0.16924772 -0.025298694 -0.083111346
0.081610076 0.08234743 0.0008746714 -0.004193479 -0.024358667 -0.12403608 0.13317963 -0.013063129
0.02557591 0.1203516 0.052086376 0.13887091 0.03291887 0.077272736 0.1161899 0.32048395
0.14746833 0.1996678 0.12615612 -0.1306331 -0.036280442 -0.3533436 -0.3871553 -0.1015469
0.052643448 0.15103982 0.02883643 0.05351159 -0.025366997 -0.003228172 -0.042170852 0.1820737
0.14241213 0.13744049 0.14910626 0.08484895 0.009846514 -0.014389613 -0.051907293 0.096109144
-0.19915667 -0.050244875 0.006252998 0.13373369 0.008035624 -0.12894244 -0.13551942 -0.10457762
-0.31032282 -0.18001084 -0.19518352 0.15119623 -0.04648903 0.16344519 -0.08951108 -0.102959365
-0.13721864 0.045741145 0.00728959 -0.13624021 -0.02457542 -0.021578843 0.04918685 -0.19445354
-0.103604935 -0.1724919 -0.26495746 -0.1282494 -0.14401051 0.16522254 0.07442904 0.028202191
0.004327596 -0.0867874 -0.025888018 0.08690283 0.0056041135 -0.030227546 -0.0014121854 0.004553884
-0.049042232 0.01559961 0.13505132 -0.022226749 0.06360781 -0.0149766905 0.031823188 0.090815656
0.059981007 0.37773326 -0.026302142 -0.03567431 0.02871779 0.074733764 0.030866606 -0.09989865
-0.215742 -0.24348794 -0.22690178 -0.16361602 -0.21042293 -0.23789275 -0.018048756 -0.0653618
-0.10648213 -0.15201211 -0.111994594 -0.12882666 0.05034162 0.14188959 0.09173888 0.0031755422
-0.006657842 0.05129537 -0.17417808 -0.22486675 -0.23964904 -0.17113775 -0.14868318 -0.052994594
-0.06698291 -0.10362227 -0.21215582 0.008094152 0.042622138 -0.015051895 0.005316115 0.02183772
-0.005563703 0.0021326253 0.00015159628 0.06961261 -0.13887478 -0.06580154 -0.13433374 -0.08952945
00000000: f05a 713e b04d 683e 10ce 073e 062c 0ebe
00000010: a1db e83d 85c3 213e 2aaf 84be c59e aebe
00000020: de31 02be acf9 483e 0129 bdbd 605a 2a3c
00000030: e237 773c ecaf 9fbd ae0e 8bbd 84fe bebd
00000040: fbb4 e9bb 6751 ec3c 712f e23d 20e5 d33d
00000050: d241 86bd 78e9 aa3c 2a01 a33c 4c8f 58bd
00000060: 92f5 80bd 1063 0b3d 77cb 443c bee0 733d
00000070: 6de5 823e 3025 833e c846 b7bd cf2a 2ebe
00000080: 5d55 14be d9f7 1cbe ed48 6dbe fc18 b1be
00000090: b4d6 103e b818 993e 3ba5 a23e 2e37 e1bc
000000a0: 6c51 353e 3c7f b8bc 7b87 80be 55be 17be
000000b0: 25eb c9be 266f f63d c29f 4d3e 770d 4d3e
000000c0: 8032 323e c5e4 b6bc b060 72be b5bb 483d
000000d0: a5aa 0fbe e652 7bbe 7bfa 183e 110a 403e
000000e0: f15c c6bd a006 aa3d fb87 223d c5d0 e5bd
000000f0: b379 dc3d 5355 3e3d d59f 853d 894b ee3c
00000100: 191b 033c 9a7f 3c3b 1efc e03d 21ae fa3c
00000110: a2e8 cdbd 7f83 e5bd 1059 4c3d 2489 03bd
00000120: 3bce f23d 2f9a 683e 5254 503e 40fb 523d
00000130: 08f4 9d3c fc39 0e3b 5c91 90bd ac44 abbd
00000140: dcd7 b1bc e1f6 04be 5e0c b4bd 6fa2 73bd
00000150: 1864 d9bd c8b0 4dbd f93d 5b3d 272d 593d
00000160: 6522 253d e948 3b3d d595 663e b2d5 8d3e
00000170: f65c 193e 49b4 ca3c 1c39 e93c a675 8abd
00000180: 16da 30be a9b9 12be 64e2 6bbd 5d94 0f3e
00000190: c2c7 97bc adb2 c1bb 05e8 a13d b434 183e
000001a0: 5054 2b3e 41c5 473d 5fb0 ccbd d7ca b4bc
000001b0: cd5f 7a3d c879 1a3c 0641 05be a786 89bc
000001c0: 15f5 14bd d90e 34be 19d1 c8bd 7c94 31be
000001d0: 8cc4 f1bd 464f 2dbe 353f cfbc 4836 aabd
000001e0: 2f23 a73d c5a5 a83d 344a 653a 7469 89bb
000001f0: d48b c7bc a106 febd 3e60 083e bc06 56bc
00000200: 9284 d13c e67a f63d 8658 553d 2d34 0e3e
00000210: f0d5 063d 2b41 9e3d f8f4 ed3d 7916 a43e
00000220: f001 173e b775 4c3e 122f 013e afc4 05be
00000230: cd9a 14bd 74e9 b4be 3839 c6be d2f7 cfbd
00000240: a8a0 573d 2faa 1a3e 603a ec3c f82e 5b3d
00000250: 73ce cfbc bd8f 53bb 58bb 2cbd 8771 3a3e
00000260: 7cd4 113e 33bd 0c3e 50af 183e 49c5 ad3d
00000270: 4653 213c 69c2 6bbc be9c 54bd dfd4 c43d
00000280: baef 4bbe 92cd 4dbd f3e5 cc3b 7cf1 083e
00000290: daa7 033c 7d09 04be 9ac5 0abe cb2c d6bd
000002a0: a2e2 9ebe c354 38be 30de 47be 2fd3 1a3e
000002b0: 486b 3ebd 2d5e 273e 9651 b7bd 5cdc d2bd
000002c0: 0b83 0cbe 115b 3b3d 83dd ee3b 8e82 0bbe
000002d0: 6452 c9bc 1dc6 b0bc 2778 493d d41e 47be
000002e0: d32e d4bd b7a1 30be 81a8 87be d053 03be
000002f0: 7e77 13be 1930 293e 416e 983d 4808 e73c
00000300: 82ce 8d3b 98bd b1bd 1c13 d4bc 1cfa b13d
00000310: b6a2 b73b c29f f7bc 1419 b9ba bf38 953b
00000320: 82e0 48bd 8295 7f3c e54a 0a3e df14 b6bc
00000330: d044 823d cb60 75bc 0859 023d 8ffd b93d
00000340: a5ae 753d 4166 c13e 9777 d7bc 3a1f 12bd
00000350: 9241 eb3c 040e 993d f7db fc3c aa97 ccbd
00000360: 79eb 5cbe e754 79be f158 68be f58a 27be
00000370: 1c79 57be 289a 73be fcda 93bc 68dc 85bd
00000380: 4e13 dabd 10a9 1bbe 6c5d e5bd 23eb 03be
00000390: 0433 4e3d 814b 113e 98e1 bb3d c21c 503b
000003a0: 072a dabb 181b 523d bd5b 32be 7843 66be
000003b0: 8f66 75be bc3e 2fbe 6740 18be dc10 59bd
000003c0: 562e 89bd ea37 d4bd 603f 59be 569d 043c
000003d0: 8d94 2e3d 399c 76bc ce32 ae3b 05e5 b23c
000003e0: b94f b6bb 84c3 0b3b d1f5 1e39 0e91 8e3d
000003f0: 3135 0ebe f5c2 86bd c98e 09be 375b b7bd

module.residual_layers.0.1.bn1.weight f4 [16]
0.6630258 0.636052 0.7495274 0.7056455 0.77833647 0.5627033 0.77351135 0.5974628
0.5908131 0.5501142 0.76608306 0.74117273 0.82078606 0.66681266 0.7583109 0.5890112
00000000: 0fbc 293f 4ed4 223f 07e1 3f3f 2fa5 343f
00000010: 0f41 473f 530d 103f d704 463f 52f3 183f
00000020: 873f 173f 49d4 0c3f 051e 443f 7fbd 3d3f
00000030: 091f 523f 3cb4 2a3f aa20 423f 70c9 163f

module.residual_layers.0.1.bn1.bias f4 [16]
-0.31969395 -0.21413209 -0.18510611 -0.26056933 -0.2845436 0.17359827 -0.15224583 -0.15809634
-0.32223964 0.14124808 -0.34767586 -0.116990924 -0.33616826 -0.1638254 -0.26604807 0.029549146
00000000: edae a3be 7145 5bbe 758c 3dbe 5869 85be
00000010: b3af 91be bfc3 313e 55e6 1bbe 02e4 21be
00000020: 98fc a4be 56a3 103e 9202 b2be f098 efbd
00000030: 3f1e acbe d8c1 27be 7437 88be 0d11 f23c

module.residual_layers.0.1.bn1.running_mean f4 [16]
0.09234474 -1.2247244 0.62840074 -0.8649896 -0.82430077 -0.7108853 -0.12391861 -0.7149296
-0.953591 -2.7796235 -0.07025257 -1.6621357 -1.8052373 -1.1093122 -0.5395264 0.30956408
00000000: 3d1f bd3d c5c3 9cbf dfde 203f f56f 5dbf
00000010: 6005 53bf 94fc 35bf 0ac9 fdbd a005 37bf
00000020: 8a1e 74bf 5ae5 31c0 94e0 8fbd ddc0 d4bf
00000030: 0412 e7bf f1fd 8dbf 671e 0abf 2f7f 9e3e

module.residual_layers.0.1.bn1.running_var f4 [16]
1.1670563 1.6547527 3.0293822 3.8440154 3.5099888 1.7630118 8.9216795 1.52256
1.3261094 2.9696965 2.408583 2.1630554 3.3276596 1.748268 3.9563186 1.5658566
00000000: 1a62 953f f0ce d33f 66e1 4140 5904 7640
00000010: a8a3 6040 5faa e13f 33bf 0e41 3fe3 c23f
00000020: f4bd a93f 820f 3e40 3926 1a40 806f 0a40
00000030: 60f8 5440 3fc7 df3f 5334 7d40 fd6d c83f

module.residual_layers.0.1.conv2.weight f4 [16, 16, 3, 3]
0.007215277 0.14944178 -0.051263556 -0.2187464 -0.07169794 -0.02271426 -0.1848133 -0.21422575
-0.034699034 -0.005676248 0.08050553 0.022287443 -0.0484963 -0.030584918 0.031290885 -0.10265496
0.0012019082 0.01239434 -0.044211667 -0.03041857 0.06472967 -0.119482934 -0.03752915 0.07509813
-0.106381886 0.0040243003 0.16605254 -0.16369976 -0.10625547 -0.0014164796 -0.16871375 -0.06770618
0.07456303 -0.3863901 -0.11592396 -0.0075214463 -0.10491619 -0.05483386 0.08686062 -0.13508871
-0.07343024 -0.04061611 -0.09342657 -0.13928488 -0.09219 0.0055936985 -0.21373174 -0.2470404
-0.18733764 -0.10187193 0.038040314 -0.12119076 0.021639893 0.14116922 -0.0466551 0.042058226
-0.22141899 -0.29121867 -0.46223462 -0.28550997 -0.46365988 -0.1507156 0.1151396 0.04976305
-0.12258492 0.061868165 0.21782874 0.033468295 0.27043355 0.043118298 -0.053376395 0.115557246
-0.11111739 -0.16263263 -0.27801964 -0.023052491 0.03240712 -0.05566375 -0.29131696 -0.045685604
-0.15835 0.079531 0.056783147 -0.036291793 0.17162299 0.02005271 -0.07297832 -0.08715365
-0.21002118 -0.11618228 -0.067474455 -0.049878336 0.013278984 0.019122466 0.17467341 0.083589226
0.0062836395 -0.072344266 -0.1127275 0.18373735 0.016073376 0.059272647 0.053794373 0.16604416
0.2399133 -0.20116946 -0.06645352 0.12576139 -0.4337454 -0.462795 0.00924068 -0.275925
-0.05783328 0.12588474 -0.0647478 -0.042409085 0.07328391 0.080992 0.013291767 0.10463703
0.059064183 -0.21449558 0.023322007 0.02743222 -0.05239296 0.12485921 0.454612 0.20963636
0.1076281 0.08872911 0.26353872 0.09820614 -0.05651734 -0.23553982 -0.034671534 0.018187586
0.17203435 0.24411802 -0.015507716 -0.008830606 -0.02002459 0.035519022 0.0924766 0.23561694
-0.16999762 0.009831009 0.16913235 -0.05721289 -0.12800513 -0.07826303 0.03177634 0.06051999
0.2540864 -0.08015722 0.050247915 0.05622026 -0.085536666 -0.0051611788 0.10170815 -0.055338614
0.014428817 0.15811682 -0.15550639 0.1581413 0.05092502 -0.122316435 -0.057727117 0.15268876
-0.12994818 0.1807152 0.16525422 -0.16146745 0.07152045 0.114932574 -0.1264904 0.05768614
0.2978629 -0.30710497 0.031228304 0.118036285 -0.01650223 -0.07614319 0.11317518 -0.06739987
-0.046886392 0.12343124 -0.10294784 0.15968415 -0.055624492 -0.24864371 0.044726547 0.16030534
-0.15764071 0.06387893 0.07251085 -0.185232 0.13887677 0.18880883 -0.013673666 0.26606667
0.3199103 -0.18776506 0.12563229 0.07567319 -0.22477564 0.1994298 0.30883914 0.069289126
-0.12463148 -0.043550618 0.13551699 0.03793578 -0.0151299 0.0954512 0.03391754 -0.04379203
-0.0028649513 0.205525 -0.1621679 0.087181255 0.124604546 -0.17062114 0.0050650253 0.024637815
-0.09214585 0.070395544 -0.078618854 -0.100901365 -0.0010078201 -0.11981972 0.0039856015 0.18645449
0.041605122 -0.010059405 0.007591147 0.031144738 -0.0071185785 0.093675956 0.11983991 -0.0058261617
0.10939432 0.14786252 -0.06503701 -0.09725634 0.0018157512 -0.07025386 0.016605964 0.076547995
-0.039361674 -0.024557348 0.005312299 0.059914783 0.042919535 -0.054110594 -0.0719544 0.0859043
00000000: 216e ec3b 4407 193e bcf9 51bd 0eff 5fbe
00000010: 5fd6 92bd 4113 babc b33f 3dbe ff5d 5bbe
00000020: 9320 0ebd d2ff b9bb 15e0 a43d 2894 b63c
00000030: 0ea4 46bd 398d fabc df2a 003d c33c d2bd
00000040: 5989 9d3a a111 4b3c 4b17 35bd 5d30 f9bc
00000050: fd90 843d 78b3 f4bd 2ab8 19bd 0ccd 993d
00000060: bfde d9bd 47de 833b ad09 2a3e e9a0 27be
00000070: 789c d9bd 2ba9 b9ba 4cc3 2cbe 8aa9 8abd
00000080: 80b4 983d ecd4 c5be 8b69 edbd 7776 f6bb
00000090: 4dde d6bd 7899 60bd fbe3 b13d b254 0abe
000000a0: 9862 96bd 145d 26bd 6e56 bfbd b2a0 0ebe
000000b0: 1cce bcbd 584b b73b 7edc 5abe 29f8 7cbe
000000c0: 70d5 3fbe 3ba2 d0bd 29d0 1b3d dc32 f8bd
000000d0: 2546 b13c aa8e 103e 6b19 3fbd 3f45 2c3d
000000e0: a9bb 62be 9d1a 95be 04aa ecbe 5d2e 92be
000000f0: d464 edbe 3155 1abe 50ce eb3d 57d4 4b3d
00000100: cd0d fbbd 7969 7d3d 7f0e 5f3e 0d16 093d
00000110: 4476 8a3e d09c 303d 35a1 5abd 47a9 ec3d
00000120: 8491 e3bd 2b89 26be 9758 8ebe 94d8 bcbc
00000130: 54bd 043d acff 63bd 7f27 95be d420 3bbd
00000140: 8126 22be 26e1 a23d 7295 683d b4a6 14bd
00000150: f0bd 2f3e 9545 a43c a875 95bd 9d7d b2bd
00000160: cb0f 57be faf0 edbd 0c30 8abd 3a4d 4cbd
00000170: 1990 593c b8a6 9c3c 96dd 323e d430 ab3d
00000180: fde6 cd3b 3b29 94bd addd e6bd a525 3c3e
00000190: 50ac 833c e0c7 723d 7d57 5c3d 7b07 2a3e
000001a0: d5ab 753e 5eff 4dbe c818 88bd 98c7 003e
000001b0: e113 debe 77f3 ecbe 3966 173c 0b46 8dbe
000001c0: 97e2 6cbd eee7 003e 7f9a 84bd 26b5 2dbd
000001d0: e015 963d 22df a53d b6c5 593c f04b d63d
000001e0: 49ed 713d bba4 5bbe cb0d bf3c 89b9 e03c
000001f0: 009a 56bd 2fb6 ff3d e7c2 e83e eaaa 563e
00000200: 1f6c dc3d 9cb7 b53d 8cee 863e 4d20 c93d
00000210: ba7e 67bd 5a31 71be bd03 0ebd 22fe 943c
00000220: c629 303e 13fa 793e 1314 7ebc 3fae 10bc
00000230: 9c0a a4bc 657c 113d 5f64 bd3d 9145 713e
00000240: db13 2ebe 3e12 213c 0831 2d3e 1058 6abd
00000250: c713 03be 5e48 a0bd e827 023d cfe3 773d
00000260: 9d17 823e 7829 a4bd c2d0 4d3d 3747 663d
00000270: d92d afbd 1b1f a9bb 5d4c d03d beaa 62bd
00000280: d866 6c3c 60e9 213e 113d 1fbe cbef 213e
00000290: c196 503d 0a81 fabd 4573 6cbd 715a 1c3e
000002a0: 2311 05be 680d 393e 6738 293e b957 25be
000002b0: 5079 923d c561 eb3d b386 01be 4d48 6c3d
000002c0: 7c81 983e dd3c 9dbe 80d2 ff3c 02bd f13d
000002d0: af2f 87bc f6f0 9bbd 64c8 e73d f108 8abd
000002e0: f20b 40bd 85c9 fc3d 51d6 d2bd 3e84 233e
000002f0: 82d6 63bd 759c 7ebe 2f33 373d 1527 243e
00000300: 916c 21be f5d2 823d 9280 943d 75ad 3dbe
00000310: b635 0e3e 1a57 413e 8307 60bc e439 883e
00000320: 48cb a33e 7c45 40be c0a5 003e 8cfa 9a3d
00000330: 962b 66be 5337 4c3e 2a20 9e3e 75e7 8d3d
00000340: ca3e ffbd 2262 32bd f7c4 0a3e 8c62 1b3d
00000350: 66e3 77bc eb7b c33d 1eed 0a3d 465f 33bd
00000360: e8c1 3bbb 2575 523e 580f 26be 168c b23d
00000370: ab30 ff3d 4fb7 2ebe 83f8 a53b 3ed5 c93c
00000380: f7b6 bcbd 8a2b 903d ec02 a1bd 60a5 cebd
00000390: d518 84ba 0b64 f5bd a699 823b eded 3e3e
000003a0: 226a 2a3d 34d0 24bc 28bf f83b 4023 ff3c
000003b0: f742 e9bb 2ed9 bf3d a06e f53d 63e9 bebb
000003c0: 210a e03d 4669 173e 2032 85bd 552e c7bd
000003d0: 80fe ed3a 41e1 8fbd 3b09 883c 32c5 9c3d
000003e0: b539 21bd 7e2c c9bc cb12 ae3b 3469 753d
000003f0: 65cc 2f3d 12a3 5dbd d45c 93bd 98ee af3d

module.residual_layers.0.1.bn2.weight f4 [16]
0.76340836 0.44857872 0.5590979 0.304689 0.735364 0.56517106 0.5867666 0.76332814
0.7013064 0.6369507 0.5291196 0.48251972 0.7543106 0.34829733 0.86221814 0.6715817
00000000: bb6e 433f 1cac e53e 0a21 0f3f 3200 9c3e
00000010: d140 3c3f 0daf 103f 5636 163f 7969 433f
00000020: d188 333f 330f 233f 6274 073f d30c f73e
00000030: 801a 413f 0754 b23e 54ba 5c3f c7ec 2b3f

module.residual_layers.0.1.bn2.bias f4 [16]
0.29847 0.09292932 0.2489282 0.2915663 0.58808404 0.34293526 0.22944494 -0.067939684
0.1629066 0.28278014 -0.01815644 0.15034185 -0.13101512 -0.43883178 0.30468968 0.08748913
00000000: 0fd1 983e ba51 be3d 09e7 7e3e 2e48 953e
00000010: ad8c 163f 3695 af3e 9df3 6a3e f623 8bbd
00000020: fdd0 263e 8fc8 903e d1bc 94bc 37f3 193e
00000030: d428 06be 8fae e0be 4900 9c3e 802d b33d

module.residual_layers.0.1.bn2.running_mean f4 [16]
-0.71955276 0.42946503 0.027510898 -0.9093473 -0.43551248 0.01615464 0.23653539 -0.17371193
-1.3965247 -0.18364874 0.033158667 -0.61492187 1.1619185 0.25588545 -0.50799143 0.15728074
00000000: 9c34 38bf d7e2 db3e 895e e13c fcca 68bf
00000010: 7efb debe bc56 843c 5536 723e 8ae1 31be
00000020: 52c1 b2bf 6a0e 3cbe 62d1 073d 856b 1dbf
00000030: bfb9 943f 6b03 833e ba0b 02bf 340e 213e

module.residual_layers.0.1.bn2.running_var f4 [16]
0.7328263 0.30860254 0.5188427 0.37500566 0.5886627 0.65706486 0.48478746 0.5753459
0.5775772 0.5193705 0.31830144 0.43164355 0.729117 0.23276174 0.74843085 0.46234852
00000000: 819a 3b3f 2701 9e3e e0d2 043f be00 c03e
00000010: 99b2 163f 6735 283f 1036 f83e de49 133f
00000020: 19dc 133f 77f5 043f 68f8 a23e 6200 dd3e
00000030: 69a7 3a3f 1859 6e3e 2a99 3f3f f2b8 ec3e

module.residual_layers.1.0.conv1.weight f4 [32, 16, 3, 3]
0.019689381 0.22949675 0.27083373 0.029274462 -0.13301694 0.012397401 -0.06205911 -0.21980654
-0.24597774 0.008808164 -0.1374828 -0.024293773 -0.16057888 -0.081189185 -0.052466124 0.0381542
0.020482445 0.0628613 0.049028132 0.030263623 -0.2092895 -0.015013363 -0.10555294 -0.16306743
0.050521575 -0.036160585 -0.16800971 -0.08214088 0.032340817 0.030975489 0.03184249 -0.07782652
-0.031905487 -0.08972766 -0.22663237 -0.00896205 0.020745184 0.15612689 -0.24909866 0.08309228
0.18859395 -0.2502348 0.13522403 0.24118294 -0.24854977 0.08224323 0.07165317 -0.017915133
0.022859987 -0.097440794 -0.023745077 0.10941008 -0.053726085 -0.16450275 0.16924675 0.13628116
-0.15327372 0.010540931 0.27909043 -0.10748001 -0.10897259 0.16249858 -0.08293953 -0.1942157
-0.23841274 -0.046244666 -0.15024815 -0.1354464 0.066321366 -0.032708514 0.0061907372 0.09426904
-0.00986997 0.045490127 0.18373193 -0.020648662 0.013423077 0.22896895 -0.17329296 -0.16490811
-0.0029239987 0.10155977 0.0675611 0.008738531 -0.06724361 0.03027473 0.018560199 -0.0542522
0.096892536 -8.419683e-05 -0.015460666 -0.100484 -0.24368326 0.17672823 -0.06836376 -0.085158885
0.06671144 -0.1497909 -0.14669143 -0.031670142 -0.25784895 0.35831323 0.15714803 -0.1763282
0.26341897 0.029876688 -0.2541845 0.27139542 -0.013165623 -0.09798267 0.0747459 0.03282967
-0.058570087 0.035031293 0.17752212 -0.03457649 0.08328067 -0.01688843 0.050609063 0.03780165
0.024817776 0.018954372 -0.067578636 0.1786386 0.008355002 0.022087779 -0.18498464 -0.054046765
0.24630988 0.036377102 0.0027211509 0.29738167 -0.14514959 -0.059102353 0.16554736 0.05922922
0.119130895 0.021280976 -0.0628474 -0.14328696 -0.010573079 -0.10180699 -0.12732843 -0.20582645
0.058293525 -0.00097545836 -0.11881902 0.11730038 0.06613789 -0.0734391 0.12331703 0.1335774
-0.11784503 -0.14628151 -0.06587963 -0.08169976 -0.10197661 -0.21456616 -0.17683394 -0.2009133
-0.19904558 -0.2021789 0.07233758 0.26145846 0.14318885 -0.032997586 0.060295075 0.09914212
-0.043754216 0.15934394 0.12292768 -0.20360617 -0.023411557 0.017317675 -0.07496166 -0.020037293
-0.022048432 0.08715213 0.060380485 0.014821866 -0.0501069 0.07445897 -0.024140893 0.15716848
0.040690552 -0.006406306 0.10616035 0.17745604 -0.10333863 -0.15712923 0.29431444 0.2112834
-0.33327034 0.10097651 0.10019325 -0.21438982 0.027443206 0.31167224 0.1610832 0.07359752
0.11788179 -0.20764835 0.018329937 0.02023909 0.0018437376 0.091760665 -0.03508929 -0.0043065553
-0.14442092 -0.09405919 -0.013174379 0.048835747 -0.06349992 -0.06797381 0.07111051 0.077296175
0.029628104 0.1983265 0.12047034 0.104369394 0.09140087 0.08946917 0.057379615 0.0097845225
0.014907468 -0.20113784 0.022737803 -0.0062226537 -0.035651483 0.16557238 0.09670727 0.00377561
0.20988452 0.121971585 -0.07522622 0.12798734 -0.15228152 -0.13895854 0.07670012 0.08178231
0.07560231 -0.052507807 0.037479136 0.01634636 0.029495906 0.114388265 -0.07757267 -0.04597378
-0.04609294 -0.013194411 -0.058876745 -0.10734427 -0.061361153 0.04306742 0.3458293 -0.066000134
00000000: a04b a13c 3201 6b3e b8aa 8a3e ffd0 ef3c
00000010: 9835 08be 781e 4b3c b131 7ebd f714 61be
00000020: 97e1 7bbe 1e50 103c 4bc8 0cbe bc03 c7bc
00000030: ca6e 24be 8446 a6bd b8e6 56bd 9447 1c3d
00000040: cdca a73c 6dbd 803d b9d1 483d 6beb f73c
00000050: fd4f 56be 9cfa 75bc 242c d8bd 26fb 26be
00000060: b6ef 4e3d 1f1d 14bd bd0a 2cbe 7a39 a8bd
00000070: ce77 043d 4fc0 fd3c 456d 023d 8363 9fbd
00000080: 54af 02bd 23c3 b7bd 5112 68be 90d5 12bc
00000090: cef1 a93c badf 1f3e b813 7fbe 492c aa3d
000000a0: c61e 413e c71e 80be 2b78 0a3e a9f8 763e
000000b0: d583 7ebe 236f a83d e6be 923d c2c2 92bc
000000c0: de44 bb3c 0a8f c7bd 0985 c2bc 6412 e03d
000000d0: e20f 5cbd 6973 28be 054f 2d3e 4a8d 0b3e
000000e0: c9f3 1cbe deb3 2c3c f1e4 8e3e 7b1e dcbd
000000f0: 052d dfbd 0766 263e 33dc a9bd 7be0 46be
00000100: 7822 74be 0c6b 3dbd a7da 19be 76b2 0abe
00000110: 7fd3 873d 5df9 05bd abdb ca3b 2010 c13d
00000120: a8b5 21bc db53 3a3d 3924 3c3e 6227 a9bc
00000130: 77ec 5b3c d676 6a3e b673 31be acdd 28be
00000140: 8fa0 3fbb 92fe cf3d 795d 8a3d 0e2c 0f3c
00000150: 05b7 89bd b602 f83c 8f0b 983c 8e37 5ebd
00000160: 986f c63d d492 b0b8 bc4e 7dbc 8eca cdbd
00000170: 1b88 79be 3ff8 343e 4d02 8cbd c867 aebd
00000180: 02a0 883d c962 19be 4736 16be 8db8 01bd
00000190: c704 84be d574 b73e 6aeb 203e 618f 34be
000001a0: dade 863e f5bf f43c 7924 82be 57f4 8a3e
000001b0: a0b4 57bc 23ab c8bd 6114 993d 6778 063d
000001c0: 30e7 6fbd f97c 0f3d 5cc8 353e 14a0 0dbd
000001d0: 0e8f aa3d 9b59 8abc 734b 4f3d e7d5 1a3d
000001e0: a64e cb3c 3346 9b3c ab66 8abd 0aed 363e
000001f0: 6be3 083c 6ef1 b43c 9d6c 3dbe 2460 5dbd
00000200: a838 7c3e 2800 153d 5655 323b 6942 983e
00000210: 18a2 14be 4f15 72bd 3f85 293e 579a 723d
00000220: e6fa f33d 7155 ae3c 23b6 80bd d1b9 12be
00000230: b53a 2dbc 2f80 d0bd 6262 02be 2bc4 52be
00000240: 31c5 6e3d e7b5 7fba 6357 f3bd 2e3b f03d
00000250: 4d73 873d 3d67 96bd a48d fc3d 84c8 083e
00000260: bc58 f1bd d2ca 15be e6eb 86bd 3452 a7bd
00000270: 1dd9 d0bd 3bb7 5bbe f513 35be 37bc 4dbe
00000280: 9bd2 4bbe fc07 4fbe ba25 943d e2dd 853e
00000290: 19a0 123e 7a28 07bd f8f7 763d 060b cb3d
000002a0: 9f37 33bd 0f2b 233e 82c1 fb3d 237e 50be
000002b0: 98c9 bfbc ccdd 8d3c 8085 99bd 4025 a4bc
000002c0: ea9e b4bc d17c b23d 8751 773d 69d7 723c
000002d0: e53c 4dbd f27d 983d 1fc3 c5bc c6f0 203e
000002e0: 23ab 263d fdeb d1bb 996a d93d 09b7 353e
000002f0: 34a3 d3bd 7ce6 20be 62b0 963e ad5a 583e
00000300: 69a2 aabe c6cc ce3d 1e32 cd3d 0189 5bbe
00000310: 93d0 e03c 8193 9f3e fff2 243e 4cba 963d
00000320: 026c f13d c5a1 54be aa28 963c 73cc a53c
00000330: 91a9 f13a 04ed bb3d cab9 0fbd 011e 8dbb
00000340: 14e3 13be 1ba2 c0bd 5ad9 57bc fe07 483d
00000350: 3f0c 82bd da35 8bbd 63a2 913d 754d 9e3d
00000360: a3b6 f23c 1a16 4b3e 27b9 f63d 9fbf d53d
00000370: 6130 bb3d 9d3b b73d e306 6b3d 434f 203c
00000380: 743e 743c 14f7 4dbe a144 ba3c 67e7 cbbb
00000390: 4a07 12bd ce8b 293e 760e c63d 3970 773b
000003a0: f8eb 563e 3dcc f93d 3410 9abd 1d0f 033e
000003b0: b0ef 1bbe 264b 0ebe f414 9d3d 7c7d a73d
000003c0: 62d5 9a3d 6d12 57bd b983 193d cde8 853c
000003d0: 66a1 f13c 6544 ea3d 6cde 9ebd 014f 3cbd
000003e0: f3cb 3cbd 5f2d 58bc be28 71bd 50d7 dbbd
000003f0: d555 7bbd 7767 303d 8a10 b13e 142b 87bd

module.residual_layers.1.0.bn1.weight f4 [32]
0.7195143 0.725468 0.66644853 0.6919596 0.5295461 0.7556847 0.73500496 0.80868006
0.6999501 0.6539637 0.44519663 0.7032996 0.508553 0.65746313 0.6901932 0.6416512
0.6352492 0.71576166 0.5908014 0.6675341 0.5622411 0.6499456 0.70114267 0.6328287
0.5968343 0.64305526 0.60964584 0.7928899 0.5711005 0.6614342 0.6038098 0.6673254
00000000: 1732 383f 45b8 393f 5f9c 2a3f 4424 313f
00000010: 5590 073f 8d74 413f 4929 3c3f a805 4f3f
00000020: ee2f 333f 2a6a 273f d0f0 e33e 710b 343f
00000030: 8830 023f 814f 283f 80b0 303f 4143 243f
00000040: b19f 223f 283c 373f c33e 173f 84e3 2a3f
00000050: 08ef 0f3f d662 263f 167e 333f 1001 223f
00000060: 22ca 183f 459f 243f c011 1c3f d5fa 4a3f
00000070: a433 123f c053 293f 4793 1a3f d6d5 2a3f

module.residual_layers.1.0.bn1.bias f4 [32]
-0.0855783 -0.20599023 -0.46868315 -0.32164422 0.27408975 -0.25252733 -0.4080688 0.030212684
-0.123280235 -0.442328 0.13526097 -0.33803928 -0.20154242 -0.18723911 -0.13312061 -0.008306808
-0.18795493 -0.41222045 -0.0126616685 0.09161429 -0.19133106 -0.27723262 -0.0943962 -0.16329668
-0.15667439 -0.17915593 -0.29131833 -0.35640067 -0.08064772 -0.3278154 -0.24680322 -0.19956613
00000000: ad43 afbd 1aef 52be 3df7 efbe 8dae a4be
00000010: 7e55 8c3e 434b 81be 65ee d0be 9780 f73c
00000020: 597a fcbd d178 e2be da81 0a3e 7c13 adbe
00000030: 2361 4ebe 9cbb 3fbe c550 08be 4719 08bc
00000040: 4277 40be 8f0e d3be e372 4fbc 46a0 bb3d
00000050: 4aec 43be 6ff1 8dbe cb52 c1bd 3f37 27be
00000060: 406f 20be a774 37be ad27 95be 267a b6be
00000070: a22a a5bd 6cd7 a7be fcb9 7cbe 105b 4cbe

module.residual_layers.1.0.bn1.running_mean f4 [32]
-0.9413855 0.9137483 -3.2736192 -0.46414852 -4.0983396 -1.808871 -0.9979823 -3.7800949
0.5160707 -4.5126176 0.4015139 -1.0173407 1.3545117 -3.7556002 -1.9534539 -1.164348
-2.1410043 -1.7707456 -4.6953297 -5.1711164 0.6118638 -3.3831398 -2.0735903 1.1636331
-2.7841637 -1.584886 -1.122364 2.6326752 -2.3307343 -2.5187867 -2.8606033 -1.5714558
00000000: a4fe 70bf 69eb 693f fa82 51c0 e0a4 edbe
00000010: 9925 83c0 1689 e7bf c57b 7fbf 13ed 71c0
00000020: 361d 043f 5d67 90c0 3b93 cd3e 3838 82bf
00000030: a460 ad3f c15b 70c0 c70a fabf 5b09 95bf
00000040: 3706 09c0 cba7 e2bf 2440 96c0 c979 a5c0
00000050: 1ba3 1c3f 5d85 58c0 b4b5 04c0 eef1 943f
00000060: bd2f 32c0 8bdd cabf a0a9 8fbf c07d 2840
00000070: c02a 15c0 cd33 21c0 2014 37c0 7725 c9bf

module.residual_layers.1.0.bn1.running_var f4 [32]
2.1002393 2.6415076 2.5848625 2.512567 4.767855 2.9734757 3.077333 3.7175555
4.184265 2.624148 2.7865462 2.794002 3.2830575 2.749707 3.046356 3.1496394
2.8670452 3.0468223 2.6039405 4.371812 2.386397 2.5470436 2.2658122 2.383727
2.6497526 3.327342 3.0521998 3.095673 2.4906175 2.824575 2.0579038 2.5774019
00000000: 526a 0640 760e 2940 636e 2540 e6cd 2040
00000010: 4592 9840 6d4d 3e40 06f3 4440 6eec 6d40
00000020: 80e5 8540 0af2 2740 c656 3240 eed0 3240
00000030: 9d1d 5240 33fb 2f40 7ff7 4240 b193 4940
00000040: ab7d 3740 23ff 4240 f6a6 2640 e2e5 8b40
00000050: baba 1840 c302 2340 1103 1140 fc8e 1840
00000060: 8c95 2940 2cf3 5440 3e57 4340 821f 4640
00000070: 4766 1f40 d6c5 3440 b2b4 0340 27f4 2440
