summaries/vanilla_ResNet3_num_blocks2x1x1_num_channels16_conv3/ckpt.pth (torch, 357977 bytes, 57 tensors)

module.conv1.weight f4 [16, 3, 3, 3]
0	0x3e7b2eac	0.24529523
1	0x3f240088	0.6406331
2	0xbd09e073	-0.033661317
3	0x3e48debd	0.19616218
4	0xbf6b708e	-0.9196862
5	0x3f6d605c	0.9272516
6	0xbd902f2c	-0.07040247
7	0xbeb90400	-0.36135864
8	0xbed26767	-0.41094515
9	0xbd4d67fa	-0.050147988
10	0xbe9260a5	-0.2858936
11	0xbe5b71f2	-0.21430185
12	0xbc649b0c	-0.013952982
13	0xbf86ce12	-1.0531638
14	0x3f8a2b24	1.0794415
15	0x3d478643	0.048712026
16	0x3e31cb89	0.17362799
17	0xbce83de6	-0.028349828
18	0xbc5fde71	-0.013663874
19	0x3e00ec6d	0.1259019
20	0xbeed2750	-0.46319056
21	0x3eb6a571	0.35673097
22	0xbef093d5	-0.46987787
23	0x3ed6bf63	0.4194289
24	0x3e89c1d8	0.26905704
25	0x3e3a60f6	0.1820105
26	0xbda080e1	-0.07837082
27	0xbdeec054	-0.116577774
28	0xbe7b0999	-0.2451538
29	0xbd5032c9	-0.050829682
30	0xbce39326	-0.027780127
31	0x3c69ebde	0.0142774265
32	0xbe042962	-0.12906411
33	0x3ce33866	0.027736854
34	0x3ddb2bcc	0.10701713
35	0xbde8d15d	-0.11368058
36	0xbe8481f9	-0.2588041
37	0xbe7b0b1f	-0.24515961
38	0xbdc63eb4	-0.096799284
39	0xbe50b239	-0.20380487
40	0xbcefa972	-0.029255603
41	0xbe6d2e69	-0.23162235
42	0xbdd83d84	-0.10558608
43	0x3d98b825	0.07456998
44	0xbe47c91a	-0.19510308
45	0xbdc5ad63	-0.096522115
46	0xbd072fa1	-0.033004407
47	0x3d9af465	0.07566146
48	0xbd068869	-0.032844935
49	0x3e8a1bc3	0.26974306
50	0x3dc6e42f	0.09711491
51	0x3c46dd97	0.012137792
52	0x3e9338e3	0.2875434
53	0x3d91df81	0.07122708
54	0xbe223342	-0.15839866
55	0xbd09b484	-0.03361942
56	0x3ca37826	0.019954752
57	0xbdffe5a3	-0.124949716
58	0xbc885013	-0.016639745
59	0x3c906d6f	0.017630307
60	0xbd09a235	-0.03360196
61	0x3c83265e	0.016009506
62	0x3d39f194	0.045396402
63	0xbdd3cf71	-0.10342301
64	0x3c0342c4	0.008011524
65	0x3d1b57dc	0.037925586
66	0xbce138d7	-0.027492924
67	0x3d6793e7	0.056537535
68	0x3d5e8a8a	0.05433134
69	0x3dec5166	0.11538963
70	0x3e01927f	0.1265354
71	0x3dc3c29e	0.09558605
72	0xbd9d84a1	-0.076913126
73	0x3c626b72	0.013819562
74	0x3c9939f8	0.0187044
75	0x3d9f30e9	0.07773001
76	0x3dea82d8	0.11450738
77	0x3d8507d6	0.06495635
78	0x3e6b77a2	0.22994855
79	0x3e40c984	0.18826872
80	0x3dcea1b1	0.10089434
81	0xbd792c7f	-0.06083345
82	0xbec26435	-0.37967077
83	0xbe52860b	-0.20558946
84	0x3d991e5e	0.07476495
85	0xbe9cf0a8	-0.30652356
86	0xbf1da02b	-0.6157252
87	0x3e213f1c	0.1574673
88	0xbe9273a5	-0.28603855
89	0xbec16556	-0.37772626
90	0x3e851349	0.25991276
91	0x3f0010e1	0.50025755
92	0x3e4deda9	0.20110191
93	0x3f26db07	0.6517796
94	0x3f69077c	0.91027045
95	0x3dd307cf	0.10304224
96	0x3ee56559	0.44803885
97	0x3edae97e	0.42756265
98	0x3d657350	0.056018174
99	0xbe8fb883	-0.2807046
100	0xbe11da67	-0.1424347
101	0x3db6afd2	0.08920254
102	0xbeb459b7	-0.35224697
103	0xbdfb8724	-0.122816354
104	0xbd63a6a1	-0.05557883
105	0xbed8676d	-0.42266408
106	0xbedc872e	-0.43071884
107	0xbd9933fc	-0.07480618
108	0x3d0bbfe9	0.034118567
109	0x3c80c52a	0.015719015
110	0xbe7b28b6	-0.24527249
111	0xbe1f6905	-0.15567406
112	0xbdb5be3c	-0.08874175
113	0xbd3bb6e9	-0.045828734
114	0xbe13ef68	-0.14446795
115	0x3e393166	0.1808525
116	0x3e804260	0.2505064
117	0x3c399273	0.01132642
118	0x3de28b80	0.11061764
119	0xbddbcd15	-0.10732476
120	0xbe5547b4	-0.20828134
121	0xbd36cb11	-0.044627253
122	0xbca3bcf3	-0.019987559
123	0xbda89f69	-0.0823353
124	0x3e74097b	0.23831742
125	0x3e93a3fb	0.28836045
126	0xbc8b2b88	-0.01698853
127	0xbcb710e5	-0.022346923
128	0xbe07bbdc	-0.13255256
129	0xbe3875a4	-0.18013626
130	0xbe26c05b	-0.16284315
131	0xbdeb0a7a	-0.114766076
132	0xbe5cfffa	-0.21582022
133	0xbdf59296	-0.1199085
134	0xbc4a3e12	-0.0123439
135	0xbe8ef88f	-0.2792401
136	0xbda1482c	-0.07875094
137	0x3e1d8513	0.15382795
138	0xbea43f5d	-0.32079592
139	0xbc0441e5	-0.008072351
140	0x3ef5ef35	0.48034063
141	0xbe53741f	-0.20649765
142	0x3af1dbc5	0.0018452337
143	0x3e7d5cb6	0.24742398
144	0xbe029acd	-0.12754364
145	0xbe6bfba1	-0.23045208
146	0xbe198117	-0.1499065
147	0xbe40d1e8	-0.18830073
148	0xbe8191ab	-0.25306448
149	0x3d089833	0.033348273
150	0x3bb2c1d1	0.0054552336
151	0xbe1c2faa	-0.15252557
152	0xbc46baae	-0.012129469
153	0x3ed05d17	0.40696022
154	0x3e2d8787	0.16946231
155	0xbe1a28b2	-0.15054587
156	0x3e5ffb18	0.21873128
157	0xbd36f0ba	-0.04466317
158	0xbdd0a6e8	-0.10188085
159	0x3e17c2f8	0.14820468
160	0xbe2cc951	-0.16873671
161	0xbe7a9a88	-0.24473011
162	0x3e1d898d	0.15384503
163	0xbdd68ae7	-0.10475712
164	0xbe83ef0c	-0.25768316
165	0x3efc6f3e	0.4930362
166	0x3ee6a409	0.45047024
167	0xbe82c01a	-0.25537187
168	0x3f0af736	0.54283464
169	0x3ee44abf	0.44588277
170	0xbe82fa26	-0.25581473
171	0x3d83aef7	0.06429856
172	0xbe5d516b	-0.2161309
173	0xbdbde183	-0.092715286
174	0xbe0145e7	-0.12624322
175	0xbdaca88e	-0.08430587
176	0xbda80550	-0.08204138
177	0xbe5993bf	-0.21247767
178	0xbe77461e	-0.24147841
179	0xbe1fd49a	-0.15608445
180	0xbe7da3bf	-0.24769495
181	0xbd8cb9ee	-0.06871401
182	0x3ebffa58	0.37495685
183	0xbecd3364	-0.4007827
184	0x3e1c2807	0.15249644
185	0x3f06f650	0.52719593
186	0xbe8f9424	-0.2804271
187	0x3e60a637	0.21938406
188	0x3ecc4020	0.39892673
189	0xbd065bcb	-0.032802384
190	0x3c8a312d	0.016869152
191	0x3e239edd	0.1597857
192	0x3e099e6f	0.13439344
193	0xbe931c04	-0.28732312
194	0xbe47f713	-0.19527845
195	0x3d413f22	0.04717935
196	0xbe6f708b	-0.23382775
197	0xbd8a8334	-0.06763306
198	0x3d0425fa	0.03226278
199	0xbdf433a6	-0.11923914
200	0xbd52e30b	-0.051486056
201	0x3e348cfa	0.17631903
202	0xbebf665c	-0.37382782
203	0xbec657c6	-0.3873884
204	0x3e7413d9	0.23835696
205	0xbe0a433f	-0.13502215
206	0xbd935bd4	-0.07195249
207	0xbdca6263	-0.09882047
208	0xbe0e9e4f	-0.13927577
209	0xbc2472e4	-0.010037158
210	0x3e1b210c	0.15149325
211	0xbe5dc1bb	-0.21655934
212	0xbe1e0145	-0.15430172
213	0x3e37145d	0.17878862
214	0xbd1e0c47	-0.038585927
215	0x3e3cdcaa	0.18443552
216	0x3e87101e	0.26379484
217	0x3eaf95b7	0.3429391
218	0xbe42f272	-0.19037798
219	0x3f0b970f	0.5452737
220	0x3ea527cf	0.32256934
221	0xbedbe558	-0.42948413
222	0x3e61bec9	0.22045435
223	0x3e895dd1	0.2682939
224	0xbe64fd21	-0.22362186
225	0xbdc315b0	-0.09525621
226	0xbc8959cc	-0.016766451
227	0x3d4bea9c	0.049784288
228	0xbe8ae665	-0.27128902
229	0xbef9e959	-0.48810843
230	0xbec9629a	-0.3933304
231	0xbe805f0a	-0.2507251
232	0xbe2ad084	-0.16681105
233	0x3ce3ccbf	0.027807591
234	0xbdfa9941	-0.12236262
235	0x3daa0574	0.08301821
236	0x3e952de5	0.29136577
237	0xbe8b3dad	-0.27195492
238	0xbe64e0b4	-0.22351342
239	0x3cf86bf1	0.030324908
240	0xbe2140c7	-0.15747367
241	0x3d2b9740	0.04189229
242	0x3e3f9069	0.18707432
243	0xbd875fdf	-0.06610083
244	0xbe6e37e3	-0.23263507
245	0x3d75181d	0.05983745
246	0xbea5fecf	-0.32420966
247	0xbf0e11f9	-0.55496174
248	0xbe41a576	-0.18910775
249	0x3e583fd4	0.21118098
250	0x3e8440c4	0.25830662
251	0x3e88b371	0.26699403
252	0xbe23f010	-0.16009545
253	0xbe134362	-0.14381173
254	0x3cfb30e8	0.030662969
255	0xbe0a0ca5	-0.13481386

module.bn1.weight f4 [16]
0	0x3f12dca5	0.57367927
1	0x3eea0d3e	0.45713228
2	0x3ebfa431	0.37429956
3	0x3ed60af3	0.4180523
4	0x3f19ac1a	0.6002823
5	0x3ea3b7c9	0.31976154
6	0x3e7c55c5	0.24642093
7	0x3f2fff76	0.6874918
8	0x3ed325a5	0.41239658
9	0x3f0a1ecc	0.5395324
10	0x3f26de43	0.65182894
11	0x3f05ad8b	0.5221793
12	0x3efaa7bf	0.48956105
13	0x3ed84fef	0.42248484
14	0x314ccd39	2.9802563e-09
15	0x3f055491	0.52082163

module.bn1.bias f4 [16]
0	0x3f813657	1.0094708
1	0xbea478e8	-0.32123494
2	0xbe80e2b3	-0.25172958
3	0x3edd9b32	0.43282467
4	0xbeb0022f	-0.34376666
5	0x3d8f2b4b	0.06990679
6	0x3ea298a6	0.31757087
7	0xbefd4a1e	-0.4947061
8	0x3d528aec	0.051402017
9	0x3ebe4c90	0.37167788
10	0x3f02b160	0.510519
11	0xbe4937a0	-0.19650126
12	0x3ef62bbd	0.48080245
13	0x3e5ae86c	0.21377724
14	0xb2629f5c	-1.31911655e-08
15	0x3eddc6eb	0.43315825

module.bn1.running_mean f4 [16]
0	0x3c99fd79	0.018797623
1	0xbf0f59f0	-0.5599661
2	0x3ebd17c4	0.36932194
3	0xbbbb5d6d	-0.0057179243
4	0xbece3919	-0.40277937
5	0xbee29193	-0.4425169
6	0x3ea99be3	0.33126745
7	0xbf18ef7a	-0.5974041
8	0xbe98e6c8	-0.29863572
9	0xbd9390dd	-0.07205365
10	0x3d3cbb83	0.046077263
11	0x3ede6d1d	0.43442622
12	0xbc5431c7	-0.012951321
13	0xbd847d27	-0.064691834
14	0x32323123	1.0372136e-08
15	0xbd4db722	-0.050223477

module.bn1.running_var f4 [16]
0	0x3d40853f	0.047002073
1	0x3dbd4486	0.092415854
2	0x3d722afa	0.059123017
3	0x3d998946	0.07496886
4	0x3d8ae2a4	0.067815095
5	0x3d56e7d4	0.052467182
6	0x3d5167fb	0.051124554
7	0x3ddda286	0.108220145
8	0x3d8091be	0.06277798
9	0x3e55f917	0.20895801
10	0x3e1e45b2	0.15456274
11	0x3dd82c10	0.10555279
12	0x3dbf7ed7	0.09350365
13	0x3e0025d3	0.12514429
14	0x2463e53f	4.9416958e-17
15	0x3e860810	0.26178026

module.residual_layers.0.0.conv1.weight f4 [16, 16, 3, 3]
0	0x3df22fd2	0.11825527
1	0x3dec09d1	0.1152531
2	0xbd1b24f7	-0.03787705
3	0xbeb8be80	-0.3608284
4	0x3e0ee523	0.13954596
5	0xbad132d6	-0.0015960585
6	0xbe3a9598	-0.18221128
7	0xbc005b3a	-0.00783425
8	0xbd24c39a	-0.040225603
9	0xbd83efd7	-0.0644223
10	0xbe72d3d5	-0.2371362
11	0xbe3ff24e	-0.18744776
12	0x3da0f463	0.07859113
13	0xbdace1be	-0.084414944
14	0xbabe770c	-0.0014531328
15	0x3dc9e80b	0.09858712
16	0x3dabb989	0.083849974
17	0x3e255335	0.16145022
18	0xbb8d2259	-0.004307073
19	0xbca21940	-0.01978743
20	0xbd9c2031	-0.076233275
21	0x3d4bad8f	0.049726065
22	0x3d6ba1ea	0.05752746
23	0x3c525f52	0.012840109
24	0xbd3d1faa	-0.046172775
25	0xbd04c316	-0.03241261
26	0xbc2a4057	-0.010391316
27	0x3e1f6c3e	0.15568635
28	0x3db04003	0.08605959
29	0x3993e4d7	0.00028208524
30	0x3e28c23c	0.16480345
31	0x3d98df83	0.074645065
32	0xbd675a6b	-0.056482714
33	0xbe26a1e7	-0.16272698
34	0xbc7a9c5f	-0.015296071
35	0x3c8510d1	0.01624337
36	0xbda049c0	-0.07826567
37	0xbe2875e5	-0.16451223
38	0xbe149b68	-0.14512408
39	0x3bc0a2a1	0.005878762
40	0xbca44a2e	-0.020054903
41	0x3d3f9c61	0.046779994
42	0xbbd7e838	-0.006588962
43	0xbbf72526	-0.0075422702
44	0x3d344957	0.044015255
45	0xbd07882b	-0.033088844
46	0x3994fd0a	0.0002841729
47	0x3d401201	0.04689217
48	0xbd808615	-0.06275574
49	0x3dbe4e68	0.092922986
50	0x3e3cbe90	0.18432069
51	0x3d4909f7	0.04908177
52	0x3e340a9e	0.17582175
53	0x3e2ab925	0.1667219
54	0x3e0994d8	0.13435686
55	0xbde1c48f	-0.11023819
56	0xbe74b67b	-0.23897736
57	0x3e2b4363	0.16724925
58	0xbcf5dc84	-0.030012377
59	0xbe5b1054	-0.21392947
60	0x3ddaaad9	0.10677118
61	0x3e1cee4b	0.15325277
62	0x3ce6d8bf	0.028179524
63	0x3b874937	0.004128601
64	0xbc99bcbc	-0.018766753
65	0xbccddb74	-0.025129057
66	0x3e4116e8	0.18856394
67	0x3e1c421a	0.1525959
68	0xbd28fbe3	-0.041255843
69	0x3e5a0717	0.21291767
70	0x3e106f4c	0.14104956
71	0x3dbc8dab	0.092067085
72	0xbe23454b	-0.15944402
73	0xbe43d9b3	-0.19126014
74	0xbe204247	-0.15650283
75	0x3e43d1ec	0.19123048
76	0x3d9510c5	0.07278589
77	0xbe0a07f1	-0.13479592
78	0x3db8f5d0	0.0903126
79	0x3ca36dfa	0.019949902
80	0xbda2a51f	-0.079416506
81	0xbdae33c0	-0.08505964
82	0xbe64aa44	-0.22330576
83	0xbe8c9398	-0.27456355
84	0xbe6da34e	-0.23206827
85	0xbd19bc35	-0.037533004
86	0x3d82c3c0	0.063849926
87	0xbe8d74be	-0.2762813
88	0x3da70bf4	0.08156577
89	0x3e80561e	0.25065702
90	0xbe3382d2	-0.17530373
91	0x3d1f8682	0.038946636
92	0x3e193c9c	0.14964527
93	0xbd1c63f6	-0.038181268
94	0x3e444020	0.19165087
95	0x3e9fe77e	0.31231302
96	0xbdd18dcc	-0.10232124
97	0xbedcf529	-0.43155792
98	0xbea46529	-0.3210843
99	0xbe32b828	-0.17453063
100	0xbd53a772	-0.05167336
101	0x3c35991f	0.01108387
102	0x3d6c48a3	0.05768646
103	0xbc3408d8	-0.010988437
104	0xbcbfdda4	-0.023421116
105	0x3e08a4b8	0.13344085
106	0x3c21e93c	0.009882268
107	0xbe6b8a56	-0.2300199
108	0xbd8b3504	-0.06797221
109	0x3e559bda	0.20860234
110	0x3ea6cbbe	0.32577318
111	0x3d68712c	0.056748554
112	0x3c9fe899	0.01952009
113	0x3d403b17	0.046931352
114	0xbc75b647	-0.014997072
115	0xbe0030ae	-0.1251857
116	0xbe213631	-0.15743329
117	0x3d60b3e0	0.054859042
118	0x3e57af1b	0.21062891
119	0x3d28b5f9	0.041189168
120	0xbd896039	-0.06707806
121	0x3bfdcf6f	0.0077456753
122	0xbc83665c	-0.01604002
123	0xbe7cec46	-0.24699506
124	0xbe82a7cc	-0.25518644
125	0xbe0a8d14	-0.1353038
126	0xb010b659	-5.2646026e-10
127	0x30effed5	1.7461966e-09
128	0x308c078c	1.0188486e-09
129	0xb0bc795c	-1.3713293e-09
130	0x311d70bc	2.291059e-09
131	0xb091820a	-1.0587098e-09
132	0xb0b4e806	-1.3162669e-09
133	0x309b534a	1.1301406e-09
134	0xafaff8b4	-3.200903e-10
135	0x3ca6a0e0	0.020340383
136	0xbd655084	-0.05598499
137	0xbd801c17	-0.06255358
138	0xbdffcf66	-0.1249073
139	0xbd254c25	-0.04035582
140	0x3be41cf5	0.0069614598
141	0xbddeced6	-0.108792946
142	0x3d816fc1	0.063201435
143	0x3dacaa6b	0.08430942
144	0x3d010f19	0.03150854
145	0xbda03eaa	-0.07824452
146	0xbe0a35db	-0.13497107
147	0x3e1b1577	0.15144907
148	0x3d8369fc	0.06416699
149	0x3de1322f	0.109959
150	0xbdaa8b19	-0.08327312
151	0xbd78829f	-0.060671445
152	0x3e365907	0.17807399
153	0xbc326b6a	-0.010889867
154	0xbd8080fd	-0.062746026
155	0xbd50795c	-0.050896987
156	0xbc88f867	-0.01672001
157	0xbd151e09	-0.036405597
158	0xbd329e8d	-0.043608237
159	0x3c5893c3	0.013218823
160	0xbcb1cfbf	-0.021705506
161	0xbd9cfacf	-0.076650254
162	0x3c60cbe6	0.013720488
163	0x3d199589	0.037496123
164	0x3d3f1c64	0.046657935
165	0x3ca08a10	0.019597083
166	0x3cd34288	0.02578856
167	0x3c474f03	0.012164834
168	0x3cc052b1	0.02347693
169	0x3cc996df	0.024608074
170	0xbba0d5d0	-0.004908301
171	0x3e19e0be	0.15027139
172	0xbe6a3a9d	-0.22873922
173	0xbe89bd73	-0.2690235
174	0x3e2dc3a3	0.1696916
175	0xbe5bd644	-0.21468455
176	0xbe81eb3a	-0.25374776
177	0x3e15b3a9	0.14619316
178	0xbe101d36	-0.14073643
179	0xbdd68c91	-0.1047603
180	0xbd6d3748	-0.05791405
181	0xbe2375b7	-0.15962873
182	0xbd1d34ed	-0.038380552
183	0xbdbd3f30	-0.09240568
184	0xbd05eb67	-0.0326952
185	0x3d11490c	0.035470054
186	0xbd674cd6	-0.05646976
187	0x3cb04235	0.021515945
188	0xbc440a00	-0.011965275
189	0xbd422dc5	-0.04740693
190	0x3d56e7ba	0.052467085
191	0xb9b116dc	-0.00033777102
192	0x3b889baf	0.0041689496
193	0x3e122e85	0.14275558
194	0x3defb252	0.11703934
195	0x3b20573f	0.0024466065
196	0x3e2ac709	0.16677488
197	0x3e0ea8a8	0.13931525
198	0xbcd1e33f	-0.025621055
199	0xbe1c41ae	-0.1525943
200	0x3ca5e685	0.020251522
201	0xbdaf1c28	-0.08550292
202	0xbe5d6d06	-0.2162362
203	0xbd462818	-0.04837808
204	0xbdd273b9	-0.102759786
205	0xbe5a2965	-0.21304853
206	0xbdbbde62	-0.091732755
207	0x3caaaca6	0.020834278
208	0xba71f5cc	-0.0009230047
209	0x3c3f5550	0.011678055
210	0x3ddf8c20	0.109153986
211	0xbbf97742	-0.0076130936
212	0x3b0d9577	0.002160398
213	0x3d9da2df	0.07697081
214	0xbc33dbd3	-0.010977703
215	0xbd42c5fd	-0.047552098
216	0xbde32ee7	-0.1109293
217	0xbd5c9533	-0.053853225
218	0x3d966983	0.073443435
219	0xbdcf7675	-0.10130016
220	0xbdd22aff	-0.10262107
221	0xbdb9ef61	-0.09078861
222	0xbdc252f2	-0.09488477
223	0xbe4828a1	-0.19546749
224	0xbe30ffc2	-0.17285064
225	0x3adc4a01	0.0016806723
226	0x3c76485f	0.015031903
227	0x3d7a4f10	0.061110556
228	0xbd23b844	-0.03997065
229	0xbdd224b9	-0.102609105
230	0xbd8f3b31	-0.06993712
231	0x3e1b1ac3	0.15146928
232	0x3d6892c0	0.056780577
233	0xbdedf3a1	-0.11618734
234	0xbda2fe51	-0.07958663
235	0x3da0fcf7	0.07860749
236	0xbb71b555	-0.0036881764
237	0xbd1ded0f	-0.038556155
238	0x3dd82c7d	0.105553605
239	0x3bf31f2b	0.007419487
240	0xbe325688	-0.17415822
241	0x3e068c42	0.13139442
242	0x3e90c88c	0.28278005
243	0xbcfd2e6a	-0.030905921
244	0xbd95cc6a	-0.073143795
245	0xbe42dcc8	-0.19029534
246	0x3d37723c	0.044786677
247	0xbd30ddce	-0.04318028
248	0xbdf2d783	-0.11857512
249	0x3d54bc40	0.05193734
250	0xbcd95e1b	-0.02653413
251	0xbd241497	-0.0400587
252	0x3d9c6c24	0.07637814
253	0x3c5198ac	0.0127927475
254	0xbdfefab1	-0.12450159
255	0xbdeb562b	-0.114910446

module.residual_layers.0.0.bn1.weight f4 [16]
0	0x3f0f60ed	0.5600727
1	0x3f048ad3	0.5177433
2	0x3f06b0ca	0.5261351
3	0x3edc96a5	0.43083683
4	0x3eed33d9	0.4632862
5	0x3ed5e1d3	0.41773853
6	0x3f06bfb3	0.5263626
7	0x3f082ffd	0.53198224
8	0x3f28062d	0.65634423
9	0x3f0298f4	0.5101464
10	0x3f008ee2	0.5021802
11	0x3f1c5284	0.6106341
12	0x3ef3b4e8	0.47598958
13	0x3f014a99	0.5050445
14	0x3efe46df	0.49663445
15	0x3f0ea168	0.55715036

module.residual_layers.0.0.bn1.bias f4 [16]
0	0x3ec0a07a	0.37622434
1	0xbe735967	-0.23764573
2	0xbe274880	-0.1633625
3	0x3e90f6a1	0.28313163
4	0x3e75ba70	0.23996902
5	0x3d72d862	0.05928839
6	0xbd40c502	-0.04706288
7	0xbcc498ee	-0.023998704
8	0xbecc6102	-0.3991776
9	0xbd67c879	-0.05658767
10	0xbdb852f7	-0.09000199
11	0x3e9aecd8	0.30258822
12	0xbe444403	-0.1916657
13	0x3ea428c5	0.32062355
14	0xbeee2b1c	-0.46517265
15	0x3f2cbbd8	0.67474127

module.residual_layers.0.0.bn1.running_mean f4 [16]
0	0xbf4db23d	-0.80350095
1	0xbf1f3607	-0.62191814
2	0xbeaa1afd	-0.33223715
3	0xbf7d2f3c	-0.989002
4	0xbfcb92a9	-1.5904132
5	0x3e9d6943	0.3074437
6	0x3e558f40	0.20855427
7	0xbfcffb89	-1.6248637
8	0x3bec4480	0.0072103143
9	0x3eb6c0f6	0.35694093
10	0xbfa3f12b	-1.2807974
11	0xbb911978	-0.004428085
12	0xc0007cf6	-2.007627
13	0x3e6494cc	0.22322387
14	0xbb28ec29	-0.0025775528
15	0x3c9fd3c1	0.019510152

module.residual_layers.0.0.bn1.running_var f4 [16]
0	0x3f1f0d5b	0.62129754
1	0x3ea27a23	0.31733808
2	0x3f05743f	0.521305
3	0x3f00c287	0.50296825
4	0x3ebfa445	0.37430015
5	0x3eb4573a	0.352228
6	0x3e826ec7	0.2547514
7	0x3ea144c8	0.31497788
8	0x3eb7170c	0.3575977
9	0x3effdf7f	0.499752
10	0x3ec4d6ae	0.38445038
11	0x3f217c20	0.63080025
12	0x3ea4f7f3	0.3222042
13	0x3f0bc32c	0.54594684
14	0x3e388ba0	0.18022013
15	0x3ec40b80	0.38290024

module.residual_layers.0.0.conv2.weight f4 [16, 16, 3, 3]
0	0xbc44be0e	-0.012008203
1	0xbd01f524	-0.031727925
2	0x3ddfa068	0.10919267
3	0x3dedf047	0.11618095
4	0x3d8520d8	0.06500405
5	0xbe389342	-0.18024924
6	0x3da0c8f2	0.07850827
7	0x3cb15cd5	0.021650711
8	0xbdabc317	-0.0838682
9	0xbdddb963	-0.10826375
10	0xbda2ba81	-0.07945729
11	0x3dd00e81	0.101590164
12	0xbe26d6d0	-0.16292882
13	0xbe02fe98	-0.12792432
14	0x3d9a95dd	0.075481154
15	0x3c639aca	0.013891885
16	0xbc7d31f0	-0.015453801
17	0xbcb0522d	-0.02152356
18	0xbce51a4c	-0.02796664
19	0xbd4b9ea2	-0.04971183
20	0x3b69d621	0.003568061
21	0xbe0850ca	-0.13312069
22	0xbcfd171e	-0.030894812
23	0xbd958ead	-0.07302604
24	0xbcfffcfb	-0.03124856
25	0xbdcfbded	-0.10143647
26	0x3e2c5f1d	0.16833158
27	0x3d991207	0.074741416
28	0xbc41545c	-0.011799898
29	0xbda74a02	-0.08168413
30	0x3d85a9bd	0.06526516
31	0x3e4dfe99	0.20116653
32	0xbc6b3bf2	-0.014357554
33	0xbd076755	-0.03305753
34	0x3dc40a2d	0.095722534
35	0x3e043df5	0.1291426
36	0xbdac1ff7	-0.08404534
37	0x3e02e287	0.12781726
38	0x3cd978c1	0.026546838
39	0x3cc9c59d	0.024630362
40	0xbe217ec0	-0.15771008
41	0xbdaf725b	-0.085667334
42	0x3daaf0bf	0.083467
43	0x3e0da558	0.13832605
44	0xbd7ef6da	-0.062247135
45	0x3e12d8c4	0.14340502
46	0x3df030ec	0.11728081
47	0x3dab3b33	0.08360901
48	0x3d2ca997	0.04215392
49	0x3e4fa4ad	0.20277663
50	0x3d9f3ea5	0.0777562
51	0x3d49011d	0.049073327
52	0xbe4a3791	-0.1974776
53	0x3e05de80	0.13073158
54	0xbdda05f2	-0.10645665
55	0x3bd6c6a4	0.0065544415
56	0x3d482d8c	0.048871562
57	0xbd30344a	-0.043018617
58	0xbb87e8cf	-0.004147626
59	0x3d012461	0.031528834
60	0xbd2575ee	-0.04039567
61	0xbe8face8	-0.28061604
62	0xbdb80fd6	-0.089873955
63	0x3ddacf56	0.106840774
64	0xbc7fd287	-0.0156141585
65	0xbdb1f19f	-0.08688664
66	0xbbe6d283	-0.007044138
67	0x3e33c03b	0.17553799
68	0x3e1bde10	0.15221429
69	0xbccdf0d7	-0.025139255
70	0x3e50eb33	0.20402221
71	0x3d07bae7	0.03313723
72	0xbda466a6	-0.08027391
73	0x3dac70c7	0.08419948
74	0xbd93658e	-0.071971044
75	0xbe987b87	-0.29781744
76	0xbe24be06	-0.16088113
77	0x3e714a67	0.23563538
78	0xbd884ea3	-0.06655624
79	0xbe1b8a87	-0.15189563
80	0xbcb5ab56	-0.022176426
81	0x3d6256ce	0.055258565
82	0x3dcb9d89	0.09942157
83	0x3e1dae04	0.15398413
84	0xbd9ba99e	-0.07600711
85	0xbc0c9b6a	-0.0085819755
86	0xbd9f6222	-0.07782389
87	0xbdae993b	-0.0852532
88	0xbdc2078f	-0.09474098
89	0xbd8ca5be	-0.0686755
90	0x3c98d169	0.018654542
91	0x3d62e77d	0.055396546
92	0x3e829b94	0.25509322
93	0xbc4a4c11	-0.012347237
94	0x3ced8fbe	0.028999206
95	0x3c93cb6e	0.018041339
96	0xbdc21a8f	-0.09477722
97	0xbe064914	-0.13113815
98	0x3d991508	0.074747145
99	0xbe0aaeba	-0.13543215
100	0xbdd512a7	-0.10403948
101	0xbd74a404	-0.05972673
102	0x3d12aa7a	0.03580711
103	0xbf1a1183	-0.6018297
104	0x3ef648f3	0.4810253
105	0x3e65b2c4	0.22431475
106	0xbe83d3d8	-0.2574756
107	0xbd2c030d	-0.041995097
108	0xbd24d9bf	-0.04024672
109	0xbdea6c05	-0.11446384
110	0xbd66262d	-0.05618875
111	0x3db194fb	0.08670994
112	0x3db77679	0.08958144
113	0x3d47fdd2	0.048826046
114	0x3dc241ac	0.09485182
115	0x3e6d9d48	0.2320453
116	0xbcd1bbc5	-0.02560223
117	0x3daafec7	0.08349376
118	0xbdd756e8	-0.10514623
119	0xbe603d5e	-0.2189841
120	0xbe36be56	-0.17846045
121	0x3ec285d5	0.3799273
122	0xbeb7ea31	-0.3592086
123	0xbe74466f	-0.23854993
124	0xbcc33ff4	-0.023834206
125	0xbe8a04b4	-0.26956713
126	0x3df41514	0.11918083
127	0xbe1bc5f4	-0.15212232
128	0xbd833edb	-0.06408473
129	0x3d3e8360	0.046512008
130	0xbd864220	-0.06555581
131	0x3d5642aa	0.05230967
132	0x3d29a3a8	0.04141584
133	0xbd4fdf8b	-0.050750297
134	0x3d93c48a	0.07215221
135	0x3e20b0dd	0.15692468
136	0xbef9bfe3	-0.4877921
137	0x3e745992	0.23862293
138	0xbe0abf35	-0.13549502
139	0x3e97aee2	0.29625612
140	0xbe8f9a6e	-0.28047508
141	0xbdb89cc3	-0.09014275
142	0xbd9d08f5	-0.07667724
143	0xbd132e64	-0.035932913
144	0xbd599c3d	-0.053127516
145	0x3d588375	0.052859742
146	0x3e01ae5f	0.12664174
147	0xbd4afdfb	-0.04955862
148	0xbd1cb727	-0.038260605
149	0x3db76263	0.08954313
150	0xbe8f6492	-0.28006417
151	0xbdce9e12	-0.10088743
152	0x3d9a27d5	0.075271286
153	0xbd518d6b	-0.051160257
154	0xbd42710d	-0.047471095
155	0x3d8c59f5	0.068530954
156	0xbd9bfdf5	-0.07616798
157	0xbe42e205	-0.19031532
158	0xbc5728e8	-0.013132311
159	0x3ac8e8ab	0.001532813
160	0xbdb6272e	-0.08894192
161	0x3d6baec1	0.057539705
162	0xbccc01e2	-0.024903242
163	0x3dd3be16	0.103389904
164	0x3e33c46e	0.175554
165	0xbdab7a9a	-0.08372994
166	0xbe009bc8	-0.12559426
167	0xbe174092	-0.14770725
168	0xbe27ab31	-0.16373898
169	0xbdd6381e	-0.10459922
170	0x3b688f15	0.0035485674
171	0x3d1af0d3	0.037827324
172	0x3da21ed0	0.07916033
173	0xbdec5af7	-0.11540788
174	0x3e46fbdb	0.19432013
175	0x3d71434a	0.058902062
176	0xbe35b01d	-0.17742963
177	0xbc600a50	-0.013674334
178	0xbe23a74f	-0.15981792
179	0xbeb12551	-0.34598783
180	0x3deff1f6	0.11716072
181	0xbe1bc80e	-0.15213034
182	0xbe6e3e51	-0.2326596
183	0xbd781d5d	-0.060574878
184	0x3db20719	0.0869276
185	0x3e31f4b0	0.17378497
186	0xbc7e3948	-0.015516587
187	0x3dad9383	0.08475401
188	0x3cf51738	0.029918298
189	0x3d8c09b6	0.0683779
190	0x3b4e7de7	0.003150815
191	0xbc946a85	-0.018117199
192	0x3d0edec0	0.0348804
193	0xbd75f18c	-0.06004481
194	0xbd61ebae	-0.055156402
195	0xbcc55d8b	-0.024092456
196	0xbb84cd37	-0.004052784
197	0xbbec757a	-0.0072161527
198	0xbe14dcd8	-0.1453737
199	0x3cb1cc96	0.021704
200	0x3d361754	0.04445584
201	0xbda0bb21	-0.07848192
202	0x3d8ff164	0.070284635
203	0x3d2cf061	0.04222143
204	0x3d92c531	0.071665175
205	0x3dc24b7b	0.09487053
206	0xbe1337d7	-0.1437677
207	0x3e0e8b64	0.13920361
208	0x3d7fc6b6	0.062445365
209	0xbd68f146	-0.05687072
210	0x3e4b5ce3	0.19859652
211	0x3d09b862	0.033623107
212	0x3c440b80	0.011965632
213	0xbd703081	-0.058640007
214	0xbde12e74	-0.10995188
215	0xbca2b94d	-0.019863749
216	0x3df38fe2	0.11892678
217	0x3d52fbcf	0.051509675
218	0x3e081847	0.13290511
219	0xbe3531a1	-0.17694713
220	0xbe65c7b4	-0.22439462
221	0xbe53e279	-0.20691861
222	0xbe05ebdd	-0.13078256
223	0xbe2a1e86	-0.16613206
224	0xbe04f325	-0.12983377
225	0xbdde0622	-0.108410135
226	0xbdbeca33	-0.0931591
227	0xbe1a0d39	-0.15044107
228	0xbd240b60	-0.04004991
229	0xbc9d6f30	-0.019218057
230	0x3dbbc2cd	0.09168015
231	0x3d789980	0.060693264
232	0x3d901bab	0.07036527
233	0x3e119fed	0.14221163
234	0x3c51c64d	0.012803626
235	0xbd885383	-0.066565536
236	0x3dd40b4f	0.103537194
237	0xbe0648d0	-0.13113713
238	0xbe09a345	-0.13441189
239	0x3c136571	0.0089963535
240	0xbdd35c33	-0.1032032
241	0xbe500705	-0.20315178
242	0x3cb319e8	0.021862939
243	0xbe6bf202	-0.23041537
244	0xbbb47908	-0.005507592
245	0xbe5841d9	-0.21118869
246	0xbd25419a	-0.040345766
247	0x3e547b1b	0.20750086
248	0xbc8ff26c	-0.01757165
249	0x3cf9843d	0.030458564
250	0xbe26a91e	-0.1627545
251	0x3e496924	0.19669014
252	0xbddb1499	-0.10697288
253	0xbd9a5032	-0.07534827
254	0xbd6aa393	-0.057284903
255	0x3d55be25	0.05218329

module.residual_layers.0.0.bn2.weight f4 [16]
0	0x3f4a03a4	0.78911805
1	0x3f256c8c	0.64618754
2	0x3f410255	0.75394183
3	0x3f7615a5	0.96126777
4	0x3ed0ddce	0.40794224
5	0x3f2dc090	0.6787195
6	0x3ee57587	0.4481623
7	0x3f339d5c	0.70161986
8	0x3efa4494	0.48880446
9	0x3f2e989f	0.6820163
10	0x3ef6c960	0.48200512
11	0x3ef12534	0.47098696
12	0x3ee6b36a	0.45058757
13	0x3efe9140	0.49720192
14	0x3f20b800	0.6278076
15	0x3ed78145	0.42090812

module.residual_layers.0.0.bn2.bias f4 [16]
0	0xbe48a4b7	-0.19594084
1	0x3e8f7601	0.28019717
2	0x3ed033f9	0.40664652
3	0xbdbb2150	-0.09137213
4	0xbe6c2410	-0.23060632
5	0xbe035ea5	-0.12829073
6	0x3e44140e	0.19148275
7	0x3e3d8887	0.18509112
8	0xbec72b74	-0.3890034
9	0x3da7cfee	0.08193956
10	0xbef757fa	-0.48309308
11	0xbe1ddd62	-0.15416482
12	0x3db15c03	0.08660128
13	0x3e21d20d	0.15802784
14	0xbe3eac96	-0.18620524
15	0x3eab14bc	0.33414257

module.residual_layers.0.0.bn2.running_mean f4 [16]
0	0xbf1acea9	-0.6047159
1	0xbf1a0aa4	-0.60172486
2	0xbe8d3460	-0.2757902
3	0xbf629d5f	-0.8852138
4	0x3f84df7a	1.03807
5	0xbee0bca0	-0.4389391
6	0xb6bd6f7c	-5.6456174e-06
7	0xbea2b468	-0.31778264
8	0xbe30aa62	-0.17252496
9	0xbd697ae4	-0.057001963
10	0x3e893f4a	0.26806098
11	0xbe38c1da	-0.18042699
12	0x3eb04dc2	0.34434325
13	0x3e5e1027	0.21685849
14	0xbf52a6fc	-0.8228605
15	0xbe3f47f2	-0.18679789

module.residual_layers.0.0.bn2.running_var f4 [16]
0	0x3f4222d5	0.758344
1	0x3f0ebcec	0.5575702
2	0x3f60262f	0.87558264
3	0x3f84f49b	1.0387148
4	0x3e8f0dfb	0.27940354
5	0x3f71a27b	0.9438855
6	0x3efe9e30	0.49730062
7	0x3f49e247	0.78860897
8	0x3eaec3a4	0.34133637
9	0x3f8407e2	1.0314906
10	0x3f153d60	0.58296776
11	0x3eb4f02b	0.35339484
12	0x3efc1835	0.49237218
13	0x3ed539ce	0.41645664
14	0x3eca79f6	0.39546174
15	0x3f17aabe	0.59244907

module.residual_layers.0.1.conv1.weight f4 [16, 16, 3, 3]
0	0xbe5a6539	-0.21327676
1	0xbe369f15	-0.17834122
2	0xbdd0e2ee	-0.101995334
3	0xbce479c0	-0.027890086
4	0x3c06f68f	0.008237495
5	0x3d6c0daa	0.05763022
6	0x3d8a52f1	0.06754101
7	0x3e042bbd	0.1290731
8	0x3cd40498	0.025881097
9	0x3d8ea496	0.06964986
10	0xbd9c0b4f	-0.076193444
11	0xbd85726e	-0.06515966
12	0x3cc21992	0.023693834
13	0xbc817c3d	-0.015806312
14	0x3d0bf511	0.03416926
15	0x3c6d9ab7	0.014502219
16	0x3cec66af	0.028857557
17	0x3e2ad0f2	0.16681269
18	0xbd1204ee	-0.035649233
19	0xbd58def1	-0.05294699
20	0x3d71ce4f	0.05903464
21	0xbd57b09a	-0.052658655
22	0xbc5431d0	-0.012951329
23	0x3d608e77	0.054823365
24	0xbe4b1bd0	-0.19834828
25	0x3d1b5429	0.03792206
26	0xbe4ff493	-0.20308141
27	0xbd2bfc90	-0.04198891
28	0xbd415605	-0.047201175
29	0x3daf3869	0.08555681
30	0x3ca754a2	0.020426098
31	0xbd58ce97	-0.052931394
32	0xbdb8d9b2	-0.09025897
33	0x3d82dd6a	0.06389888
34	0xbd1d43e1	-0.038394812
35	0xbc971312	-0.01844171
36	0xbdba974b	-0.09110888
37	0xbd59662f	-0.053075965
38	0xbcfbeb56	-0.030751865
39	0xbd8e6a83	-0.06953909
40	0xbd1ff71a	-0.039054014
41	0xbd93ae79	-0.072110124
42	0xbde3d474	-0.111245066
43	0xbd4d90c5	-0.05018689
44	0xbe18e255	-0.14930089
45	0xbc89940e	-0.01679423
46	0x3d1f3eb2	0.03887815
47	0x3dd025c5	0.10163454
48	0xbd31e972	-0.04343552
49	0xbd34ac12	-0.04410941
50	0x3dcd1e5d	0.10015557
51	0xbc3e492f	-0.011614128
52	0xbdcadefb	-0.099058114
53	0xbd8df963	-0.06932332
54	0x3d8c3b09	0.068471976
55	0x3c8ea582	0.017412905
56	0x3e044531	0.1291702
57	0xbd3e3fea	-0.046447672
58	0xbe21a636	-0.1578606
59	0xbdd4cd73	-0.10390749
60	0x3e816707	0.25273916
61	0x3d345eef	0.04403585
62	0xbddbbff7	-0.10729974
63	0x3cf453f2	0.029825184
64	0x3bea596b	0.0071517727
65	0xbe131e96	-0.14367136
66	0x3ab3e161	0.0013723784
67	0x3c889cb9	0.016676294
68	0x3cb2582f	0.021770565
69	0x3dc2a760	0.095045805
70	0x3e16a29d	0.1471047
71	0x3c76500c	0.015033733
72	0x3d78b605	0.060720462
73	0xbdb1ff50	-0.08691275
74	0xbdec8389	-0.11548526
75	0x3c3db375	0.01157843
76	0x3d14d1f1	0.03633303
77	0x3c2d605a	0.010582054
78	0xbd98c021	-0.07458521
79	0xbe0918c4	-0.13388354
80	0xbd593002	-0.0530243
81	0x3e8e9cb9	0.27853945
82	0x3e92ecfc	0.2869643
83	0x3eb35a0e	0.35029644
84	0xbd3cba88	-0.046076328
85	0xbc0e4657	-0.0086837625
86	0x3d7bad6c	0.061444685
87	0x3bef6421	0.0073056375
88	0xbe010949	-0.12601198
89	0xbe3d3c3a	-0.18480006
90	0x3b5979d7	0.0033184194
91	0xbd429c81	-0.047512535
92	0xbe0c999f	-0.13730477
93	0x3bf84ddd	0.0075776414
94	0x3e36d988	0.17856419
95	0x3e0404aa	0.12892404
96	0xbe81aba7	-0.25326273
97	0xbe109c1b	-0.1412205
98	0xbe37adeb	-0.17937438
99	0xbdf37d53	-0.11889138
100	0xbd8e6a6e	-0.069538936
101	0xbe155792	-0.14584187
102	0xbd8fd350	-0.070227265
103	0xbd81b227	-0.06332808
104	0xbdec60b0	-0.11541879
105	0x3d31d076	0.043411694
106	0xbd89731c	-0.067114085
107	0xbc5698b7	-0.0130979335
108	0xbe420c84	-0.18950087
109	0xbe6ea518	-0.23305166
110	0xbe4777d1	-0.194793
111	0x3d921d2e	0.07134472
112	0x3d16689f	0.03672087
113	0x3d16ce8c	0.036818072
114	0x3dde5839	0.10856671
115	0x3dc12591	0.09430993
116	0x3e7478c8	0.238742
117	0xbe3fabe9	-0.18717922
118	0xbe1c82c3	-0.15284257
119	0xbe63a1f3	-0.22229747
120	0xbdb2daff	-0.087331764
121	0xbe08a58b	-0.133444
122	0xbd7821fa	-0.060579278
123	0x3e290c3e	0.16508576
124	0x3e4710be	0.1943998
125	0x3e4c339c	0.19941562
126	0x3e0e72a7	0.13910924
127	0x3d5e17b1	0.054221813
128	0xbc6ec169	-0.01457248
129	0xbd6965c1	-0.056981806
130	0xbc056823	-0.008142504
131	0xbd0217b8	-0.0317609
132	0x3b639c00	0.0034730434
133	0x3cda330d	0.026635671
134	0xbd2348dd	-0.03986441
135	0x3d8fa5b7	0.070140295
136	0xbd4f7541	-0.05064893
137	0x3c453a0f	0.012037768
138	0xbe10c4f4	-0.14137632
139	0xbdfe967c	-0.12431046
140	0xbc9e9f04	-0.019362934
141	0x3d5d5889	0.05403951
142	0x3dad55b0	0.08463609
143	0x3d08d84b	0.033409398
144	0xbe461710	-0.19344735
145	0xbd27245d	-0.040806163
146	0x3eb4ac7d	0.35287848
147	0x3e3bd952	0.1834462
148	0xbef3a703	-0.47588357
149	0xbe7d9257	-0.24762855
150	0xbc9dc958	-0.019261047
151	0x3e247c5f	0.16063069
152	0xbe38e0a1	-0.18054439
153	0x3df2bd3a	0.11852498
154	0xbe29d771	-0.1658609
155	0xbe524db8	-0.2053746
156	0x3e2b0d2e	0.16704246
157	0x3e4d5dd4	0.20055324
158	0xbbda618b	-0.00666446
159	0xbcad3e7c	-0.021147959
160	0xbd6ae064	-0.0573429
161	0x3e9ba449	0.30398777
162	0xbe047c23	-0.1293798
163	0xbe5d6209	-0.21619429
164	0x3e63db7a	0.22251692
165	0x3eb09ac1	0.34493068
166	0xbdcd4403	-0.10022738
167	0xbeba5639	-0.36393908
168	0xbde6dc0c	-0.11272439
169	0x3daad2ab	0.08340963
170	0x3de536a0	0.111920595
171	0x3e0d4eda	0.1379961
172	0x3e13ba57	0.14426552
173	0xbe3a3ade	-0.18186519
174	0xbe8ef5bc	-0.27921855
175	0x3da189d0	0.07887614
176	0x3e69efe4	0.22845417
177	0xbea5f1fb	-0.3241118
178	0xbecefd45	-0.40427604
179	0x3d2a95c9	0.041646753
180	0x3ce29864	0.027660556
181	0x3ae78bb3	0.0017665535
182	0x3da6a0b9	0.08136124
183	0x3c50d10a	0.012745151
184	0xbd6c9906	-0.057763122
185	0xbd07e205	-0.033174533
186	0x3d2ba01f	0.04190075
187	0xbe106daf	-0.14104341
188	0xbd8d6d7c	-0.06905648
189	0xbcf63bac	-0.03005775
190	0xbdebe2da	-0.11517878
191	0x3d398346	0.045291208
192	0x3db10f2c	0.08645472
193	0xbe4093a6	-0.18806323
194	0xbdd9b288	-0.10629755
195	0x3e5f0415	0.21778901
196	0x3d46c4a0	0.04852736
197	0xbe0754ad	-0.13215895
198	0x3d3b5a9a	0.0457407
199	0xbd353992	-0.044244356
200	0xbe205248	-0.15656388
201	0xbc98a830	-0.018634886
202	0x3e4141c3	0.18872742
203	0xbd93bc2f	-0.072136275
204	0xbe4a0ee7	-0.19732247
205	0xbcacc89d	-0.021091754
206	0x3e7f7bdb	0.24949591
207	0xbcabaca9	-0.020956354
208	0x3d9caed5	0.07650534
209	0x3e0571e5	0.13031729
210	0x3d507624	0.050893918
211	0x3dd552b6	0.104161665
212	0x3e0c7942	0.13718131
213	0x3e5154dd	0.20442529
214	0xbd7d62bd	-0.061861742
215	0x3bf2c3fb	0.0074086166
216	0xbe16ecfd	-0.14738841
217	0xbda05567	-0.07828789
218	0xbcf7da43	-0.030255442
219	0xbe114a4d	-0.141885
220	0x3e4bd8f6	0.19906983
221	0x3e0004cf	0.12501834
222	0xbe258db2	-0.16167334
223	0xbdb09cea	-0.08623679
224	0x3d84a72c	0.06477198
225	0xbc84d34b	-0.016214034
226	0x3e85cb28	0.26131558
227	0x3cadc2eb	0.021211108
228	0xbe8dd339	-0.27700213
229	0xbe7fbb78	-0.24973857
230	0x3e7ed508	0.24885952
231	0xbc46e478	-0.012139432
232	0xbe7a6a3c	-0.24454588
233	0xbe2a010c	-0.16601962
234	0xbe02980f	-0.12753318
235	0xbde13271	-0.10995949
236	0x3d7f40d5	0.062317688
237	0xbe861fcc	-0.26196134
238	0xbdcad882	-0.09904577
239	0xbdf73ca9	-0.12072117
240	0xbd5afb0c	-0.053462073
241	0xbd52d6e1	-0.051474456
242	0x3b5d2803	0.0033745773
243	0x3bc9c1cb	0.006157135
244	0xbd8c5d9d	-0.06853793
245	0xbe1ac5dc	-0.1511454
246	0x3d3db976	0.046319447
247	0x3d3dbf1d	0.046324838
248	0xbe403e3b	-0.18773739
249	0xbd9a449b	-0.07532617
250	0x3d7f52fd	0.062335003
251	0xbdbf267b	-0.093335114
252	0x3b52212d	0.0032063231
253	0x3e07d113	0.13263349
254	0x3d0d6585	0.034520645
255	0xbe4568a4	-0.19278198

module.residual_layers.0.1.bn1.weight f4 [16]
0	0x3f1216ec	0.57066226
1	0x3f437388	0.7634816
2	0x3f1e912a	0.6194025
3	0x3f1fa76c	0.6236484
4	0x3efc8243	0.49318132
5	0x3f3575bb	0.7088277
6	0x3f46245b	0.77399224
7	0x3f29685a	0.6617485
8	0x3f3391fb	0.70144624
9	0x3ef3dbca	0.47628623
10	0x3f35964f	0.7093248
11	0x3f4fee19	0.81222683
12	0x3f0f0f34	0.55882573
13	0x3f07333f	0.5281257
14	0x3f1a86df	0.60362047
15	0x3f2f2d1f	0.68428224

module.residual_layers.0.1.bn1.bias f4 [16]
0	0xbe8da98a	-0.2766841
1	0xbe05207b	-0.13000672
2	0xbe55793c	-0.20847028
3	0xbe9dc495	-0.30814043
4	0x3e0a5858	0.13510263
5	0xbdf48bce	-0.11940728
6	0xbe5e1e90	-0.21691346
7	0xbe44e1a6	-0.19226703
8	0xbe8210e6	-0.25403517
9	0xbec202b7	-0.37892696
10	0xbde222fd	-0.1104183
11	0xbe0eefd5	-0.13958676
12	0xbe88cacb	-0.2671722
13	0xbe796684	-0.24355513
14	0xbe384044	-0.17993265
15	0xbdebbc01	-0.11510468

module.residual_layers.0.1.bn1.running_mean f4 [16]
0	0xbf1da2de	-0.6157664
1	0xbfbecf2f	-1.4906977
2	0xbf1b1fa4	-0.60595155
3	0xbfcccae4	-1.5999417
4	0xc0519e64	-3.2752924
5	0x3ed60607	0.41801473
6	0x3e5ed25e	0.21759936
7	0xbfa49d86	-1.2860572
8	0xbfa5b4dc	-1.2945819
9	0xbe3424cb	-0.1759216
10	0xbef15f5a	-0.4714306
11	0xbf88ca1f	-1.0686682
12	0xbf955785	-1.1667334
13	0xbf6de856	-0.9293264
14	0xbe14db2c	-0.14536732
15	0xbea3439c	-0.3188752

module.residual_layers.0.1.bn1.running_var f4 [16]
0	0x3f65ca17	0.8976149
1	0x40758c27	3.8366792
2	0x3ff8f3c4	1.9449391
3	0x3fbd5447	1.4791344
4	0x3fe02955	1.7512614
5	0x40552a68	3.3307133
6	0x409dbfff	4.929687
7	0x40609bf7	3.5095193
8	0x3fa245fc	1.2677608
9	0x3f3a3a12	0.7274486
10	0x405736c4	3.3627176
11	0x40b65efd	5.6990952
12	0x3f679b27	0.9047112
13	0x3f868af5	1.0511156
14	0x40277d92	2.6170392
15	0x402ee749	2.7328665

module.residual_layers.0.1.conv2.weight f4 [16, 16, 3, 3]
0	0xbddc2671	-0.107495196
1	0xbded8f2b	-0.11599573
2	0xbdc6594b	-0.09685
3	0xbc513596	-0.012769124
4	0xbc99453e	-0.018709775
5	0x3db69a3b	0.08916136
6	0xbdf1fe7b	-0.118161164
7	0xbb94cebc	-0.004541246
8	0x3dca67f0	0.09883106
9	0x3eb49ebd	0.35277358
10	0x3e338ace	0.17533419
11	0x3e6989b6	0.22806439
12	0x3e836c09	0.25668362
13	0x3ea73049	0.32654026
14	0xbd2bcf93	-0.041946005
15	0x3e00c387	0.12574588
16	0x3e447567	0.1918541
17	0xbbb4bee0	-0.005515918
18	0x3e81bf5c	0.25341308
19	0x3e31b08c	0.17352504
20	0xbdd70683	-0.10499289
21	0x3c4cb053	0.012493211
22	0x3e2967ee	0.16543552
23	0x3d1070b0	0.035263717
24	0xbd82e9d6	-0.06392257
25	0xbdddefcd	-0.10836754
26	0xbd63ca08	-0.055612594
27	0xbd80649e	-0.06269191
28	0x3e20b1bb	0.15692799
29	0xbd8be2b7	-0.06830352
30	0xbb595176	-0.0033160127
31	0xbd545ea2	-0.05184806
32	0xbde6f737	-0.11277621
33	0x3e6c91f0	0.23102546
34	0x3c70722c	0.014675658
35	0xbc278d60	-0.0102265775
36	0xbdd7e03f	-0.105408184
37	0x3da2bb65	0.07945899
38	0x3d400fd9	0.046890114
39	0xbe6e9325	-0.23298319
40	0x3bae7bde	0.0053248247
41	0x3e533be7	0.2062832
42	0xbe057a0e	-0.13034841
43	0xbd689caf	-0.05679005
44	0x3d8e5130	0.06949079
45	0xbe387ac0	-0.18015575
46	0xbe621928	-0.22079909
47	0xbe38f8cd	-0.1806366
48	0xbcee284e	-0.029071953
49	0xbdfcf132	-0.12350692
50	0xbecd128f	-0.40053222
51	0x3dda58bb	0.10661455
52	0x3c63b508	0.013898142
53	0xbe4dbe6e	-0.20092174
54	0xbe62f624	-0.22164208
55	0xbd9e766d	-0.07737432
56	0xbe5effd9	-0.21777286
57	0xbcec2cc0	-0.028829932
58	0x3d851342	0.06497814
59	0xbe23124e	-0.15924951
60	0xbcae4ada	-0.021275926
61	0x3e34ebde	0.17668101
62	0x3c72aa0c	0.01481105
63	0x3e863e80	0.2621956
64	0x3e7d3be0	0.24729872
65	0xbe0e7796	-0.13912806
66	0x3e749700	0.23885727
67	0x3e94e424	0.29080307
68	0x3e0007b7	0.12502943
69	0x3e51a2fc	0.2047233
70	0x3d956c44	0.07296041
71	0x3d6471d7	0.05577263
72	0xbde0f036	-0.109833166
73	0x3d863b29	0.06554253
74	0xbb01b6be	-0.001979276
75	0x3d9d5771	0.07682694
76	0xbde78bdb	-0.11305972
77	0x3d0541cc	0.032533452
78	0x3c1278b8	0.008939914
79	0x3d5e77c9	0.054313455
80	0xbc8d0b76	-0.017217379
81	0x3e102b51	0.14079024
82	0xbca556c0	-0.020182967
83	0xbe8a7f5b	-0.2705029
84	0x3df3e951	0.11909736
85	0x3ac2395c	0.001481812
86	0xbdd20ca0	-0.10256314
87	0x3df48b35	0.11940614
88	0xbd79c1ab	-0.06097571
89	0xbd8e4847	-0.069473796
90	0xbde39414	-0.11112228
91	0x3d9af9df	0.075671904
92	0xbe68f123	-0.22748236
93	0x3de37019	0.11105365
94	0xbecc2114	-0.39868987
95	0xbdd8609d	-0.105653025
96	0x3c04ee33	0.008113432
97	0xbe49fdc5	-0.19725712
98	0xbe980d32	-0.29697567
99	0xbe18ce57	-0.14922462
100	0xbd9a3755	-0.07530085
101	0xbd678423	-0.0565225
102	0xbbcb57c9	-0.006205533
103	0xbe52faa6	-0.20603427
104	0xbd47969d	-0.04872762
105	0x3d2631fd	0.040575016
106	0x3d9f6bd9	0.07784242
107	0xbd482434	-0.04886265
108	0x3c9fa785	0.01948906
109	0xbd792fce	-0.060836606
110	0x3d09ea90	0.03367096
111	0x3e14f6cd	0.14547272
112	0x3cef7555	0.029230753
113	0xbe2054db	-0.1565737
114	0x3d75f120	0.060044408
115	0x3cdfc123	0.027313774
116	0x3c8485fb	0.016177168
117	0x3e178228	0.14795744
118	0x3e0f465d	0.13991685
119	0x3bdd33d6	0.006750564
120	0xbd006c56	-0.031353317
121	0x3d6c6930	0.057717502
122	0x3db9bbb0	0.09069002
123	0x3e0b46e3	0.1360126
124	0x3d17955d	0.03700768
125	0x3d23ba30	0.039972484
126	0xbe39fb88	-0.18162358
127	0xbe3eb1e8	-0.18622553
128	0xbe34af33	-0.17644958
129	0xbe8f44d2	-0.27982193
130	0xbe244a98	-0.1604408
131	0xbd7108f6	-0.058846436
132	0xbdb9d2e4	-0.09073427
133	0xbece6c49	-0.4031699
134	0xbe8a9eba	-0.27074224
135	0x3d9ad508	0.07560164
136	0x3ce3132a	0.0277191
137	0x3dff0cf6	0.12453644
138	0xbd143665	-0.036184687
139	0x3ea0784b	0.31341776
140	0x3e33d34b	0.1756107
141	0x3e6a47eb	0.22878997
142	0xbd62dc3b	-0.05538581
143	0x3e43dec5	0.19127949
144	0xbd45e998	-0.048318475
145	0x3dcafd4b	0.09911593
146	0x3e0c9621	0.13729145
147	0xbe54f597	-0.2079681
148	0x3d343f48	0.044005662
149	0x3e0ebbc2	0.13938811
150	0x3da82f7a	0.082121804
151	0x3d8d10a5	0.0688794
152	0x3dba8cbf	0.091088764
153	0xbc895449	-0.016763823
154	0x3dcdf038	0.10055584
155	0xbde49307	-0.11160856
156	0x3d36dcce	0.04464417
157	0xbe4bbb9e	-0.19895789
158	0xbbd7fc5a	-0.006591362
159	0xbe230d88	-0.1592313
160	0xbdf4dc33	-0.11956062
161	0x3e13a501	0.14418413
162	0xbd956616	-0.07294862
163	0x3d61a6d2	0.055090733
164	0x3e7b990e	0.24570104
165	0x3ca71203	0.02039433
166	0xbac4a29a	-0.0015002072
167	0x3d36be72	0.044615217
168	0x3e378093	0.17920141
169	0xbdc7e166	-0.09759788
170	0x3d82e4ba	0.063912824
171	0xbd4c40b0	-0.04986638
172	0xbecd612a	-0.40113193
173	0xbd9a0ff2	-0.075225726
174	0xbea7323b	-0.3265551
175	0xbe9493b3	-0.29018936
176	0xbcdcffd6	-0.02697746
177	0xbea0663c	-0.31328
178	0xbe02027b	-0.12696259
179	0xbce20bc9	-0.02759351
180	0xbd571b00	-0.052515984
181	0x3d2f6eac	0.042830154
182	0xbc0af82a	-0.0084820185
183	0x3d73d2a6	0.059527062
184	0x3d54b877	0.051933732
185	0xbd33adbf	-0.04386687
186	0xbd4391f6	-0.04774662
187	0x3d8132d3	0.06308522
188	0x3c32efcc	0.01092143
189	0xbe7206c4	-0.23635393
190	0xbdeff894	-0.117173344
191	0xbe89e8ac	-0.26935327
192	0xbebce559	-0.36893728
193	0xbeaa1294	-0.332173
194	0xbeb2dc81	-0.34933856
195	0xbd8abd74	-0.067744166
196	0xbec0d221	-0.37660316
197	0xbdf28839	-0.11842389
198	0xbd629aad	-0.05532329
199	0xbe428d6b	-0.18999259
200	0xbdd25383	-0.10269835
201	0xbe83ed13	-0.2576681
202	0xbec72aa4	-0.3889972
203	0xbe737202	-0.2377396
204	0xbdd8f5f8	-0.1059379
205	0xbe3386ca	-0.17531887
206	0xbe477f51	-0.19482161
207	0xbe7d195c	-0.24716705
208	0xbd1cdfe9	-0.038299475
209	0xbe86ed49	-0.2635291
210	0xbe4e432d	-0.20142813
211	0xbea20495	-0.3164412
212	0xbeaa98c0	-0.33319664
213	0xbe34cc30	-0.17656016
214	0xbe7c755a	-0.24654141
215	0xbe932bbd	-0.28744307
216	0x3e6ff22b	0.23432223
217	0x3e778b20	0.24174166
218	0x3e5c201a	0.21496621
219	0xbd98d086	-0.07461648
220	0x3e216746	0.15762052
221	0x3e790741	0.24319173
222	0x3e72e933	0.23721771
223	0x3d6daef5	0.05802818
224	0x3e2944e5	0.16530187
225	0xba1b01ca	-0.00059130474
226	0xbcbca013	-0.023025548
227	0x3dcc5e53	0.099789284
228	0x3e1944bc	0.14967626
229	0x3ca31e60	0.019911945
230	0x3cdd9286	0.027047407
231	0x3ccbc9d0	0.024876505
232	0x3d40fcfb	0.04711626
233	0x3d586230	0.052828014
234	0x3d879e7c	0.06622025
235	0xbd8f20e4	-0.06988695
236	0x3ddb4497	0.10706442
237	0x3c97bf1f	0.01852375
238	0xbe23f85e	-0.16012713
239	0x3c45e2d9	0.0120780105
240	0x3e82eb30	0.2557006
241	0xbe22bc87	-0.1589223
242	0x3e526966	0.20548019
243	0x3d0cbeaf	0.034361538
244	0xbd8bf739	-0.06834263
245	0x3e110452	0.14161804
246	0x3e45517a	0.19269362
247	0x3d801978	0.06254858
248	0x3dee457a	0.11634345
249	0x3d4990cb	0.04921035
250	0x3dae6c2b	0.08516725
251	0xbdd0a09b	-0.10186883
252	0x3e206d38	0.15666664
253	0x3da8dac0	0.08244848
254	0x3dca60ff	0.09881782
255	0x3ca4f22f	0.020135013

module.residual_layers.0.1.bn2.weight f4 [16]
0	0x3f66fa33	0.90225524
1	0x3f6d0692	0.9258815
2	0x3f415bf6	0.75530946
3	0x3f247a86	0.64249456
4	0x3f44d790	0.7689142
5	0x3f112cac	0.5670879
6	0x3ed90665	0.4238769
7	0x3f22b0ab	0.63550824
8	0x3f0fa74e	0.5611466
9	0x3e9975a9	0.2997258
10	0x3ef8dddf	0.48606774
11	0x3ed8c807	0.4234011
12	0x3e10ed03	0.14152913
13	0x3e74ee5d	0.23919053
14	0x3f25dc19	0.6478897
15	0x3eafe83f	0.34356877

module.residual_layers.0.1.bn2.bias f4 [16]
0	0xbf130c60	-0.5744076
1	0x3df4f52e	0.11960827
2	0x3d22ccad	0.039745975
3	0x3e08193e	0.13290879
4	0x3f040b1f	0.5157947
5	0xbe00d593	-0.12581472
6	0x3e883809	0.2660525
7	0x3ddcfdfa	0.1079063
8	0x3ec6820b	0.3877109
9	0xbf25f83e	-0.6483191
10	0x3ccc56e6	0.02494378
11	0x3eb01b74	0.34395945
12	0x3e7993e3	0.2437282
13	0x3e692b92	0.22770527
14	0x3ef4540f	0.47720382
15	0x3e637e92	0.22216251

module.residual_layers.0.1.bn2.running_mean f4 [16]
0	0xbdc1b4cc	-0.094583124
1	0xbf491144	-0.7854197
2	0xbedc91e4	-0.43080056
3	0x3e252310	0.16126657
4	0xbf083a04	-0.53213525
5	0xbe31a3dd	-0.17347665
6	0x3d948aaf	0.07253014
7	0xbecd9b6c	-0.4015764
8	0xbea37b5e	-0.3193006
9	0x3e8e6610	0.27812243
10	0x3f50f57a	0.8162457
11	0xbe61fdd5	-0.22069485
12	0xbe5d1531	-0.21590115
13	0x3e0d132b	0.13776843
14	0xbf889ed5	-1.0673472
15	0xbec0648c	-0.3757671

module.residual_layers.0.1.bn2.running_var f4 [16]
0	0x3f2446f2	0.64170754
1	0x3f892621	1.0714761
2	0x3eee72bf	0.4657192
3	0x3f0aa924	0.5416434
4	0x3f4f6c1c	0.81024337
5	0x3eedd483	0.46451196
6	0x3ea60780	0.32427597
7	0x3f07adb1	0.5299941
8	0x3eaba574	0.33524668
9	0x3e8c2335	0.2737061
10	0x3ebe268a	0.37138778
11	0x3e93503d	0.28772154
12	0x3e15715b	0.14594023
13	0x3e0f7878	0.14010799
14	0x3f201fb6	0.6254839
15	0x3ea2a6b9	0.31767824

module.residual_layers.1.0.conv1.weight f4 [32, 16, 3, 3]
0	0xbcec5456	-0.028848808
1	0x3e71ac50	0.23600888
2	0x3dd2c312	0.10291113
3	0xbe14d475	-0.14534171
4	0x3e8a1cfe	0.26975244
5	0x3e8d56e1	0.27605346
6	0xbe991c02	-0.2990418
7	0xbe0ceeba	-0.13762942
8	0x3cd06191	0.025437148
9	0xbb81e774	-0.003964359
10	0xbda6b5d2	-0.08140148
11	0xbd29cfad	-0.04145782
12	0x3d750572	0.059819646
13	0xbddce2ab	-0.10785421
14	0xbdf1024c	-0.11768016
15	0x3e08d938	0.13364112
16	0x3d6925cd	0.056920815
17	0x3d89ba9f	0.06725048
18	0xbe04ef85	-0.12981994
19	0xbd95da82	-0.07317068
20	0x3da886ef	0.082288615
21	0xbda5087d	-0.0805826
22	0xbd906615	-0.070507206
23	0x3e048851	0.12942626
24	0x3cc82095	0.024429599
25	0x3d0c254a	0.03421525
26	0x3d954479	0.07288451
27	0xbd96f6e5	-0.0737131
28	0x3c881f9e	0.016616639
29	0xbde5c89d	-0.112199046
30	0x3e15acf3	0.14616756
31	0xbd7b5e18	-0.06136903
32	0xbe2c4a66	-0.16825256
33	0x3ee27542	0.44230086
34	0x3e9c33e3	0.30508336
35	0x3d0809da	0.03321252
36	0xbd102e25	-0.035200257
37	0x3bd0cdc2	0.0063721845
38	0x3e1e4ad4	0.15458232
39	0x3cb632b4	0.022240974
40	0x3d8a3599	0.06748504
41	0xbdd8a2d0	-0.10577929
42	0x3e05b680	0.130579
43	0x3c65fb4a	0.014036963
44	0xbddab39b	-0.10678788
45	0xbd95c9e3	-0.073138975
46	0xbd9c1c43	-0.07622578
47	0x3dc1d022	0.09463526
48	0x3d040012	0.03222663
49	0xbd782470	-0.060581625
50	0xbd80e4f3	-0.062936686
51	0x3df43e26	0.119259164
52	0xbdd9138e	-0.10599433
53	0xbe0b6e6e	-0.13616344
54	0xbe0d1e73	-0.13781147
55	0x3c4b428d	0.012406004
56	0x3e179df6	0.14806351
57	0xbe5e1a5a	-0.2168974
58	0xbe39e0e6	-0.18152198
59	0x3da45285	0.08023552
60	0xbe596e65	-0.21233518
61	0xbd9738df	-0.07383894
62	0xbe87ba01	-0.26509097
63	0xbcbb2adb	-0.022847584
64	0x3d33135e	0.043719642
65	0xbdd009df	-0.10158133
66	0x3dce8e13	0.10085692
67	0xba9be90a	-0.0011895013
68	0xbdb6ef29	-0.08932335
69	0xbd850483	-0.06495001
70	0xbcd3110e	-0.025764968
71	0x3d38e1b1	0.04513711
72	0x3d8c8475	0.06861202
73	0xbe797e1c	-0.24364513
74	0xbe1890bf	-0.14898966
75	0x3de41188	0.11136156
76	0x3db18213	0.08667388
77	0xbdb539f8	-0.08848947
78	0x3ca16609	0.019701974
79	0x3e920c64	0.28525078
80	0x3e258308	0.16163266
81	0x3e619039	0.22027673
82	0x3e092a8a	0.13395134
83	0x3af4e8b5	0.0018685075
84	0x3e318469	0.17335667
85	0xbd513b8b	-0.051082175
86	0x3e13c8be	0.14432046
87	0x3d27ec9d	0.040997136
88	0x3d5e6b10	0.05430132
89	0x3da6135c	0.08109161
90	0xbc858fc7	-0.01630391
91	0x3d12ebf1	0.035869543
92	0x3b90c1e1	0.0044176434
93	0xbdfd3fbf	-0.12365674
94	0xbd96ef2f	-0.073698394
95	0xbd83ea57	-0.06441181
96	0xbd94b310	-0.07260716
97	0xbe1d3e07	-0.15355693
98	0xba27aaa9	-0.0006395975
99	0xbe5284bf	-0.20558451
100	0xbe3d5ae0	-0.18491697
101	0xbd8f3b33	-0.06993713
102	0x3c2fdd70	0.010733947
103	0xbd8f677c	-0.0700216
104	0xbe2d793e	-0.16940781
105	0x3da6be0e	0.08141719
106	0x3ddae33e	0.10687874
107	0xbe2227bb	-0.15835468
108	0x3d1288be	0.03577494
109	0x3ad89fe8	0.0016527148
110	0xbda37d9d	-0.07982943
111	0xba8c3960	-0.0010698251
112	0x3d88155b	0.06644698
113	0x3d6194d0	0.05507356
114	0xbe0b153e	-0.13582322
115	0x3ccfa69d	0.025348002
116	0xbba66f7c	-0.005079208
117	0xbe4bdc23	-0.19908194
118	0xbdc22d67	-0.09481316
119	0x3e12447a	0.14283934
120	0xbdd039b0	-0.10167253
121	0xbe056526	-0.13026866
122	0xbd667df0	-0.056272447
123	0x3cd8ddc6	0.026472937
124	0xbd59d597	-0.05318221
125	0xbe864438	-0.26223922
126	0xbcf47000	-0.029838562
127	0xbd9bdcc4	-0.07610467
128	0xbd54cf54	-0.051955536
129	0x3cf17333	0.029473877
130	0x3d54eecd	0.05198555
131	0x3c859771	0.016307564
132	0xbd3f7823	-0.04674543
133	0x3ddfed57	0.10933941
134	0x3d58f015	0.052963335
135	0x3d568661	0.052374247
136	0x3e5bc67d	0.21462436
137	0x3e596496	0.21229777
138	0xbe8207fd	-0.2539672
139	0x3ccf3100	0.02529192
140	0x3e560a7e	0.2090244
141	0xbe75d64e	-0.24007532
142	0xbdc1338a	-0.094336584
143	0xbdff1122	-0.1245444
144	0x3d481bd1	0.048854653
145	0x3dfb84f4	0.12281218
146	0x3d49d82e	0.04927843
147	0x3def8826	0.1169589
148	0x3de2cdd9	0.110744186
149	0xbbf4640c	-0.0074582156
150	0xbd5a75d0	-0.05333501
151	0x3c56043c	0.013062533
152	0x3e17cf80	0.14825249
153	0xbe3416f2	-0.17586878
154	0xbdb0b194	-0.0862762
155	0xbe88ef8a	-0.26745254
156	0xbe3362f2	-0.17518213
157	0xbe119935	-0.142186
158	0xbdf74d06	-0.12075238
159	0x3d31fb51	0.043452565
160	0xbe32bb14	-0.17454177
161	0xbcaa3d1c	-0.020781092
162	0xbc8f60c2	-0.017502192
163	0xbe124330	-0.14283442
164	0x3c08b9ef	0.008345111
165	0xbe2064d7	-0.15663467
166	0xbbe01a20	-0.006839052
167	0xbd730e49	-0.059339795
168	0x3d8d66f7	0.069044046
169	0xbd3d5055	-0.04621919
170	0x3da549d2	0.08070721
171	0x3e737f7f	0.23779105
172	0x3e7e5233	0.24836044
173	0x3d740e10	0.059583724
174	0x3da3e544	0.08002713
175	0x3e1bb9dd	0.1520762
176	0x3c7487f9	0.0149249965
177	0xbda1c8f6	-0.078996584
178	0x3e245c92	0.16050938
179	0xbd877fa0	-0.066161394
180	0x3c849598	0.016184613
181	0xbdde47f6	-0.10853569
182	0xbdb2aafd	-0.0872402
183	0xbe07e023	-0.13269095
184	0xbe0588fe	-0.1304054
185	0xbe30a584	-0.17250639
186	0xbd8e3563	-0.069437765
187	0xbe00c341	-0.12574483
188	0x3c2c021f	0.010498553
189	0x3e45554d	0.19270821
190	0x3d95190f	0.0728017
191	0xbd510def	-0.05103868
192	0x3daee76f	0.08540236
193	0xbd1f1e67	-0.038847353
194	0xbd1a2436	-0.03763219
195	0xbdc6464d	-0.096813776
196	0x3e2570e6	0.16156349
197	0x3e360714	0.17776138
198	0xbbeeba15	-0.0072853663
199	0xbd8a9b1b	-0.06767865
200	0x3daf1ce7	0.085504346
201	0x3d3c6ac9	0.046000276
202	0x3e384177	0.17993723
203	0x3d7820be	0.0605781
204	0x3dbba5dc	0.091624945
205	0x3e4068c4	0.18789965
206	0x3d19b16c	0.03752272
207	0x3d3c9e12	0.046049185
208	0x3e7f7dc3	0.24950318
209	0x3df3e0b5	0.11908094
210	0xbc607bd9	-0.013701403
211	0x3e437d59	0.19090785
212	0x3e7211f0	0.23639655
213	0xbda9d712	-0.082929745
214	0xbdf1384d	-0.11778317
215	0xbd84180f	-0.06449901
216	0x3d997932	0.07493819
217	0xbdcf24bd	-0.10114429
218	0xbe116865	-0.1419998
219	0xbe0b88b2	-0.13626364
220	0xbdfb3b9b	-0.12267228
221	0xbde881a8	-0.11352855
222	0xbd87bbdb	-0.066276275
223	0x3db14584	0.08655837
224	0xbdb3eb07	-0.08785062
225	0x3d940013	0.07226577
226	0x3daed63b	0.08536955
227	0x3d7a684e	0.06113463
228	0x3e166b85	0.14689453
229	0x3de00ab5	0.10939542
230	0x3e1e898e	0.1548216
231	0x3dd8030b	0.105474554
232	0x3e37f0ba	0.17962924
233	0x3d919217	0.071079426
234	0xbe1639b7	-0.14670454
235	0x3dbd9e8f	0.09258758
236	0x3db8a3b4	0.09015599
237	0xbd975085	-0.07388405
238	0xbe46e50f	-0.19423316
239	0xbdc3e698	-0.09565467
240	0xbd750a72	-0.059824415
241	0xbe08df06	-0.13366327
242	0xbe10008e	-0.14062712
243	0x3dd11771	0.10209549
244	0xbe048121	-0.12939884
245	0xbc85ce67	-0.016333772
246	0xbd4b9e3b	-0.049711447
247	0xbd9e3936	-0.07725756
248	0xbe0889d8	-0.13333833
249	0x3b43621d	0.0029813119
250	0xbd536113	-0.05160625
251	0xbbaa531f	-0.005197897
252	0x3dd69d0f	0.10479175
253	0x3c96ad4c	0.018393181
254	0x3daf5204	0.08560565
255	0xbdcff8a0	-0.10154843

module.residual_layers.1.0.bn1.weight f4 [32]
0	0x3f2d3467	0.67658085
1	0x3f2c6f1f	0.6735706
2	0x3f1b63b3	0.60699004
3	0x3f176573	0.59139174
4	0x3f384add	0.7198923
5	0x3f1deef7	0.61692756
6	0x3eb298d9	0.34882239
7	0x3f16869f	0.58799165
8	0x3efda959	0.49543265
9	0x3f2c4321	0.6728993
10	0x3f1ac285	0.60453063
11	0x3f31d2c4	0.6946223
12	0x3f16229a	0.5864655
13	0x3f11832b	0.5684077
14	0x3f02176a	0.5081698
15	0x3f33e2bb	0.7026784
16	0x3f15b4c9	0.5847898
17	0x3f375d26	0.7162651
18	0x3f1cb3ed	0.61212045
19	0x3f28e5b8	0.65975523
20	0x3f211a70	0.62930965
21	0x3f38e21c	0.72220016
22	0x3f2fa21c	0.68606734
23	0x3f34ac8a	0.70575774
24	0x3f089a94	0.5336087
25	0x3f290a52	0.6603137
26	0x3f307132	0.6892272
27	0x3f1e6777	0.61876625
28	0x3f1b1e79	0.6059337
29	0x3f203925	0.62587196
30	0x3f355820	0.70837593
31	0x3f123a79	0.5712047

module.residual_layers.1.0.bn1.bias f4 [32]
0	0xbe931ed9	-0.28734472
1	0xbe9ee767	-0.3103592
2	0xbe7413fc	-0.23835748
3	0xbebd336c	-0.36953294
4	0xbe945b3a	-0.2897585
5	0xbd6fb337	-0.058520522
6	0x3f197a8f	0.59952635
7	0xbe9827ff	-0.29718015
8	0x3e225f6d	0.15856715
9	0xbed826e2	-0.42217165
10	0xbe3f6894	-0.18692237
11	0xbe6e6822	-0.23281911
12	0xbe74fdab	-0.23924892
13	0xbe710535	-0.23537143
14	0xbe0a850a	-0.13527313
15	0xbda5d5c1	-0.08097411
16	0x3d8a4e93	0.06753268
17	0xbe55810d	-0.2085001
18	0xbebd6393	-0.36990032
19	0x3dcfc671	0.101452716
20	0xbe5f8f2f	-0.21831964
21	0xbe93a588	-0.28837228
22	0xbec0f402	-0.37686163
23	0xbe44143b	-0.19148342
24	0x3d3cf3eb	0.046131056
25	0xbe3e1c13	-0.18565397
26	0xbe73e8b7	-0.23819242
27	0xbe018fc3	-0.12652497
28	0xbe0a8f9f	-0.1353135
29	0xbec9ddf7	-0.39427158
30	0x3da57a51	0.08079971
31	0x3d261809	0.040550265
